Pytorch/AutoEncoder/saved_models/mnist/NetLarge-L1Loss_mnist.pt (torch, 246767 bytes, 15 tensors)

conv1.weight f4 [64, 1, 3, 3]
000000 9d 02 fe 3c 4f a1 75 bd 6b 27 75 3c 9a 79 22 be
       0.031007105 -0.05996829 0.014963011 -0.158667
000010 29 66 21 3d 82 13 8e bd df b8 db 3d 3b 27 37 3e
       0.03940407 -0.069373146 0.10728621 0.17886059
000020 14 48 14 bd ef 5c 92 3e 49 a2 15 bd 18 bb b7 be
       -0.03620155 0.28586528 -0.03653172 -0.3588493
000030 5f f9 d8 3d 2c 12 60 3e d9 18 c4 be b4 be e6 be
       0.10594439 0.21881932 -0.38300207 -0.4506737
000040 51 7e de be 33 f3 b3 bf 5a 03 21 bf c0 5a ba be
       -0.43455747 -1.4058594 -0.6289574 -0.36397362
000050 45 0d 5c 3d ca 0a 8b 3d c2 34 84 be 63 02 04 3e
       0.053723592 0.06789167 -0.258215 0.12891535
000060 95 d6 97 3e df 4a 20 bc 1d d1 0a bc 86 9c ac 3e
       0.296559 -0.009783476 -0.008472708 0.33713168
000070 52 6d 06 bd 0d 03 0c 3e 2e 75 31 bd af 68 ae bd
       -0.0328191 0.13673039 -0.043324642 -0.085160606
000080 0d 5b e6 3d d5 ac 91 3e 39 c1 85 3e b9 ee 32 3e
       0.11247835 0.28452173 0.2612398 0.17473878
000090 fa ab 90 3e 75 26 66 3e c9 47 18 3e 21 26 8f 3d
       0.28256208 0.22475608 0.14871134 0.069896944
0000a0 6a 13 cd 3d 0f e4 2f be 6e 0f b4 3c 35 e7 20 3e
       0.100134686 -0.17176841 0.021980014 0.15713198
0000b0 3a 83 61 3e c5 2a c3 3e c4 78 9a bd 8a e4 42 bb
       0.22022715 0.38118568 -0.075425655 -0.002973827
0000c0 b7 b8 dc 3d 0c 17 a9 be b8 5d a7 3e 6e 37 df bd
       0.10777419 -0.33025396 0.3268869 -0.10899244
0000d0 68 e9 8e bd b5 b5 10 3e 48 82 3f 3e 34 d8 bb bd
       -0.069781125 0.14131816 0.18702042 -0.09172097
0000e0 e1 f8 7d be a8 91 69 3e 98 09 e0 bd c4 51 a4 3d
       -0.24801971 0.2280947 -0.1093933 0.08023408
0000f0 14 05 ad 3d 5d c5 bf 3e 9b 2f 90 bd ff ce 8f be
       0.08448234 0.37455264 -0.0704033 -0.28087613
000100 56 8a f4 be 48 1d 84 bf d0 db 1c be 49 9b 3a 3b
       -0.47761792 -1.0321436 -0.15318227 0.0028473905
000110 9c 7c ec be 22 4e c1 3e e5 a6 79 3e c3 ec c7 3c
       -0.4618882 0.37754923 0.24380071 0.024404889
000120 1c c3 8f be 6b bf 59 be cc ef 67 be ed 8d 92 3d
       -0.28078544 -0.21264426 -0.22650069 0.071559764
000130 f5 04 83 3e 82 4e 4c 3e 80 30 1d 3e f8 a8 ef bc
       0.2558972 0.19951823 0.15350533 -0.029255375
000140 af 6a b6 3d 08 d5 63 3e 49 98 3b bd 99 6a a5 3d
       0.08907067 0.22249234 -0.045799527 0.080769725
000150 dd 70 00 be 78 9a fe 3c b1 54 30 3e 68 b6 ee bd
       -0.12543054 0.031079516 0.17219807 -0.11655885
000160 8d 2f ac 3d 5c d9 07 3d be bf 86 be 22 73 ab be
       0.08407507 0.033166274 -0.26318163 -0.33486277
000170 7c 94 88 3e 8a 11 c2 3e e0 13 68 3c 11 ea bd be
       0.26675785 0.37904006 0.014164895 -0.3709264
000180 d2 2f 9b be 0d df de 3d 2d 2e 31 3e 09 2d e5 be
       -0.30309922 0.10882387 0.17302771 -0.44760922
000190 7b 8d d2 bc 08 9a 89 3e b3 f0 b6 be e2 8f 52 3e
       -0.025702229 0.2687533 -0.35730514 0.205627
0001a0 05 44 25 3e 6d e3 c3 bc 7f 38 01 3e a8 d4 87 be
       0.16139229 -0.023912156 0.12619208 -0.2652943
0001b0 64 1a 09 be 11 3c 98 bd db 9b 3b 3e dc 78 d0 bd
       -0.13388973 -0.07433332 0.18321173 -0.10179302
0001c0 0d 4e 8a bc ea 81 91 3e 13 56 59 be af 46 1d bb
       -0.01688292 0.2841943 -0.21224241 -0.002399843
0001d0 09 71 a5 bc a6 68 3e be df e6 30 3c 1c 1e c2 3e
       -0.0201955 -0.18594608 0.010797231 0.37913597
0001e0 a2 16 4b be 1e ac 7e be ca 4d 23 bd b7 64 ac 3e
       -0.19832852 -0.24870345 -0.039869107 0.3367059
0001f0 a6 86 3a 3e 8c d9 1a 3e aa d2 38 be 25 9e 0e be
       0.18215427 0.1512205 -0.18049112 -0.13927515
000200 b1 9e 6c 3e 73 c0 17 be 7f 80 30 bd 22 af d6 3d
       0.23107411 -0.14819507 -0.043091293 0.10482623
000210 2f f9 64 bd 4f 31 9d 3e 18 23 0e 3e 71 08 95 bc
       -0.055901702 0.30701682 0.13880575 -0.018192502
000220 40 1a 7d 3e 83 92 17 3e 47 bf 47 3d fc bb 05 3d
       0.24717045 0.14801984 0.0487664 0.03264998
000230 3e cd 0a be 03 bb 31 3c fe 5b c5 bd 68 7d 8b 3e
       -0.13554856 0.01084781 -0.09636687 0.27244115
000240 7a c4 92 be 30 2a 93 3d cf b0 db 3c 09 e1 f5 bd
       -0.28665525 0.07185781 0.026817707 -0.12005813
000250 c4 4e 8c 3e ff 7c c8 3d b4 34 97 3e 70 af a6 bd
       0.27403843 0.09789466 0.29532397 -0.08138931
000260 f8 3e d0 3b 36 7f 3a bc 19 e2 ce 3e 56 28 46 be
       0.0063551627 -0.0113828685 0.40406874 -0.19351324
000270 9c 25 9a be 90 f7 e1 3e 41 d7 e8 be a0 e0 76 bf
       -0.3010682 0.44134188 -0.45476726 -0.964365
000280 72 e3 f8 be c3 6f a3 bf 8a fe 48 be 4a d3 b0 3e
       -0.48611027 -1.2768482 -0.19628349 0.345362
000290 3c 06 db bd 71 e0 50 3b 20 5a 12 3e 6d d2 a1 bd
       -0.106945485 0.0031872059 0.14292192 -0.07901464
0002a0 5b 09 b1 3d 51 41 3f be 9d 76 71 be 8d ca e0 3d
       0.086443625 -0.1867726 -0.23580404 0.109761335
0002b0 3f 05 6b 3e 82 23 50 3e e8 99 55 be 92 35 16 bd
       0.2295122 0.20326045 -0.20859492 -0.036672182
0002c0 ab e7 95 3e 22 b7 9b bd de c3 a3 be aa a2 ae be
       0.2927831 -0.07603289 -0.31985372 -0.34108478
0002d0 a3 4f 7c be 36 d9 75 3e d8 5c d9 bd 5c ad 41 be
       -0.24639754 0.2400864 -0.10613412 -0.18913788
0002e0 78 98 c8 3e 4a 50 cd be 12 b8 4f be 11 5c 80 3e
       0.39178824 -0.40100318 -0.20285061 0.2507024
0002f0 d4 01 31 be fb e8 68 be 70 1b c0 bc c0 8b ff bb
       -0.17285854 -0.22745125 -0.023450583 -0.007798642
000300 eb 90 60 be fb 3f 9f be 48 63 60 bd b1 53 a4 3e
       -0.21930282 -0.311035 -0.054782182 0.320951
000310 3e de a7 be 1e 41 0c be 89 9b 32 3e 86 d4 16 be
       -0.32786745 -0.13696715 0.17442144 -0.14729509
000320 88 00 2a be 61 ab 03 3e 06 f0 21 3e 18 dd 36 3d
       -0.16601765 0.12858345 0.15814218 0.044644445
000330 da d7 d4 3d 05 fd 84 bd 1b 09 19 3d c6 37 16 bd
       0.10392733 -0.06493572 0.0373622 -0.036674283
000340 96 3d 2a 3e d8 d1 23 3e 7a b1 74 3e 3d b9 16 be
       0.16625056 0.15998018 0.23895827 -0.147191
000350 42 1b cb 3d ed 95 47 be 55 80 14 3d 0d 99 bc be
       0.099173084 -0.19490786 0.0362552 -0.36835518
000360 6b 8b e8 bd 42 c0 bf 3d 09 f4 1b 3e a9 b3 ca bd
       -0.11354717 0.09362842 0.15229811 -0.09897549
000370 71 7b ca bd 8e 40 97 3e 30 38 af 3e 42 d1 58 bc
       -0.09886826 0.2954144 0.34222555 -0.013233485
000380 06 f5 af be 46 9e b4 bf 5e b2 94 be 39 0c e4 be
       -0.34366626 -1.4110801 -0.29042333 -0.44540575
000390 3e d5 53 be 47 e5 09 3d f0 ef 1b 3e 1b 29 da 3c
       -0.20686814 0.03366592 0.15228248 0.026630929
0003a0 4b 52 f3 bd e7 c3 c2 3e bf 93 92 be 7c 97 e9 bd
       -0.118809305 0.38040087 -0.28628346 -0.114058465
0003b0 f4 99 f1 3d d0 38 94 3d 92 ae a6 be 74 99 a6 3d
       0.11796942 0.072373986 -0.32555062 0.081347376
0003c0 fe 85 a0 be de ce 30 3e f4 82 8f be 6a a2 ba be
       -0.31352228 0.17266414 -0.28029597 -0.36452037
0003d0 bc 29 ae be 3f 62 53 3e 2d a5 c4 3c bc 4c d9 3e
       -0.34016216 0.20642947 0.024004543 0.42441356
0003e0 3a 14 32 be e5 52 86 3e 53 e2 d3 bd 1c 5b b2 be
       -0.17390528 0.26235119 -0.10345902 -0.34835136
0003f0 0c bd 15 3e 53 a9 cb 3d 45 4c b9 3e 25 28 a2 be
       0.14622897 0.099444054 0.36191002 -0.31671253

conv1.bias f4 [64]
000000 fe 7b 9d 3d bd 97 9e bb 69 12 09 bb 4b d7 fd be
       0.07689665 -0.004839866 -0.0020915514 -0.49578318
000010 4a c4 c1 be 74 19 bf be f1 ba be be ba 00 e6 bb
       -0.3784507 -0.37324107 -0.37252 -0.0070191296
000020 9c c1 e6 bd ac 13 02 bb e9 3b 4c 3d 63 66 28 3e
       -0.11267397 -0.001984815 0.049861822 0.16445307
000030 8f c5 1e b9 58 41 91 be a1 7f 81 be b9 d1 2c bb
       -0.0001514165 -0.28370166 -0.25292686 -0.0026370122
000040 7b 6d 99 ba 76 48 a6 3b 8c fc 66 3e 47 2b 43 bb
       -0.0011705601 0.005074556 0.22557276 -0.0029780434
000050 0a d9 22 bc 88 40 aa be de a9 b2 3d f0 e0 bb 3c
       -0.009939441 -0.33252358 0.08723806 0.022934407
000060 6c db 79 be c3 90 05 bb 7b 1f 76 be 7f ba 2d be
       -0.24400109 -0.0020380474 -0.24035446 -0.16965674
000070 d2 81 34 be 79 2a 32 3e 56 0b 87 3a 82 53 87 be
       -0.17627648 0.17399015 0.0010303061 -0.264309
000080 56 84 91 bc 3e 42 1b 3e e9 4f be 3a 37 a8 b0 bc
       -0.017763298 0.15161988 0.0014519665 -0.021564586
000090 fb 6d fc be 51 16 7b 3c da c8 1e bd 37 59 b6 ba
       -0.49302658 0.015325145 -0.038765766 -0.0013912086
0000a0 6a ec 8f bd 2c 66 f9 b9 0f 85 4e 3e 79 98 90 be
       -0.07027514 -0.00047569105 0.20167945 -0.28241327
0000b0 78 79 0a bb d3 bd 79 be c4 6e 6f be bc 41 35 3e
       -0.002112953 -0.24388818 -0.23382097 0.17700857
0000c0 4c ac 2c bb 08 aa ae bd 32 f5 2e 3a 80 28 b8 be
       -0.0026347814 -0.08528525 0.000667411 -0.359684
0000d0 27 a4 34 3e ae aa e0 3d 3a 0c d8 be 51 d7 64 be
       0.17640744 0.109700546 -0.42196828 -0.22347762
0000e0 15 4b 03 3e e3 d9 38 3e 29 d4 9e b9 b7 40 38 3e
       0.1282161 0.18051867 -0.0003029418 0.17993437
0000f0 4b 5a 89 be 66 ed b9 3a d0 d0 27 3a 31 71 ea 3d
       -0.268267 0.001418513 0.000640166 0.11447371

conv2.weight f4 [32, 64, 3, 3]
000000 74 f0 b3 bc 32 b4 a1 3c 16 fe bb 3d 36 a0 bc 3b
       -0.021965243 0.019739244 0.091793224 0.0057564033
000010 88 23 10 bd e4 67 51 3d cf 6a 79 bd 92 46 31 3c
       -0.035190135 0.05112447 -0.060892876 0.010820048
000020 f1 9f 87 bc 5b 15 64 bd 4b a0 89 3d a5 85 6d bd
       -0.016555758 -0.05568443 0.067200266 -0.05798878
000030 26 ab ab bd e8 17 7e 3b 87 34 14 be ce 09 7f bd
       -0.08382253 0.0038771573 -0.14473163 -0.06226521
000040 3f 2c 1a be 33 24 5b 3e 89 64 13 3d db 92 a2 bd
       -0.15055941 0.21400528 0.03598455 -0.07938167
000050 67 42 ed bd 70 e1 5f bc 39 34 df 3d e2 55 47 3c
       -0.11584931 -0.013664588 0.108986326 0.012166472
000060 f0 fa 0b 3e 5c bd 54 3d c4 0b 8a bc 87 ba 0e bd
       0.13669944 0.0519384 -0.016851313 -0.034845855
000070 f8 6b fb bb 80 8f 20 3d e0 df 6d bd 2b b1 d6 bd
       -0.007672783 0.039199352 -0.058074832 -0.10483011
000080 14 8f cc bd 53 f7 33 be e8 6c 53 be ee 6d 14 3d
       -0.099882275 -0.17574815 -0.20647013 0.03623765
000090 b2 20 c6 3b 4f d7 a5 3d 2d 10 0c bd 3d d1 b8 3c
       0.006046378 0.080977075 -0.034195114 0.02256071
0000a0 98 3e c5 3d 11 62 1a 3d aa ab 01 3d 84 7c 02 bd
       0.096310794 0.03769118 0.031657852 -0.03185703
0000b0 d5 36 59 3e 04 bf 4f 3d 91 72 c3 3d a1 e1 e0 bb
       0.21212323 0.050719276 0.09543336 -0.0068628346
0000c0 c1 29 27 be 5b 88 56 3d 3f dd 3e 3d a1 9e f3 bd
       -0.16324522 0.052376132 0.046597715 -0.118954904
0000d0 7f 70 f7 bd f4 d2 88 be be ef bc bd 6d b0 06 3d
       -0.12082004 -0.26723444 -0.09225415 0.032883096
0000e0 bd 04 76 bd 66 35 9f bd 95 a8 d5 bd a4 dc 6c 3e
       -0.060063113 -0.07773857 -0.10432545 0.23131043
0000f0 aa 5d 78 bc 8b 74 00 be 6a db 36 be 82 a7 bf bd
       -0.01515905 -0.12544458 -0.17857137 -0.093581215
000100 4a b0 92 bd 6b 65 2f be f3 d1 a0 bc c5 f0 35 be
       -0.07162531 -0.17128532 -0.019631362 -0.17767628
000110 ca 85 56 3e d2 64 17 3e 7b 3d e1 bd 8c cf 02 3c
       0.20949474 0.14784554 -0.109980546 0.007984053
000120 b2 8f c7 bc d9 c2 90 be 84 fb 2b be b6 99 a4 3c
       -0.024360511 -0.28273657 -0.16795164 0.020092826
000130 40 3e f4 bd 9b e4 8c 3e 95 1a 7e bd 93 b5 0e be
       -0.11925936 0.27518162 -0.06203707 -0.13936453
000140 be a0 92 bd 01 59 76 bd f2 38 a2 bd ae f6 95 3c
       -0.071595654 -0.060143474 -0.07921018 0.018306103
000150 2f b7 68 3b cf f6 00 3d b7 32 52 bd c7 02 77 bd
       0.0035509577 0.031485375 -0.051317897 -0.060305383
000160 44 1b 96 bd 25 8c ec 3c 17 73 24 3c 05 17 4c be
       -0.07329419 0.02887542 0.010037205 -0.19930656
000170 7d ba 46 bc a2 c6 b9 3d 52 49 78 bd 9c 98 91 bd
       -0.012129423 0.09071089 -0.0606168 -0.07109186
000180 ae ca 83 3d 14 92 eb bd b3 0f 94 bd 41 a3 d3 bd
       0.064351425 -0.115024716 -0.07229557 -0.103338726
000190 ee d1 e0 3c 71 89 d8 3d f3 ba fc bc b8 c4 b3 bd
       0.027443852 0.1057309 -0.030850863 -0.087777555
0001a0 e5 9f 8f 3d ca 55 cf 3b 3f ce 90 bd 91 3f 00 3d
       0.07012919 0.0063273655 -0.07070588 0.03131062
0001b0 99 96 20 3d 22 6a 44 3e df e6 1f be 6b 17 a8 bd
       0.03920612 0.19181111 -0.15615414 -0.082075916
0001c0 52 dc a5 be a8 de a3 3d ff d6 9a 3d 9b 39 c5 3d
       -0.32394654 0.08001453 0.075605385 0.09630128
0001d0 c6 48 11 3e 19 6e 42 bd 07 59 a0 bd f4 d6 ac be
       0.14187917 -0.04746828 -0.078294806 -0.33757746
0001e0 df 35 63 3d 6b c7 07 3e c4 47 41 be 1e e0 8d 3d
       0.055471297 0.13259666 -0.18875033 0.069275126
0001f0 3b eb 02 3d 43 38 36 3d 5b 0a f8 3c df a2 d1 3d
       0.031962615 0.04448725 0.030278375 0.10236143
000200 d6 06 c0 3e 6b 16 d4 3d d4 a3 5d 3b a0 51 05 3e
       0.37505215 0.103558384 0.0033819573 0.13019419
000210 43 92 74 3e d8 b2 b2 3e 94 7e 21 3e 5a 12 90 bb
       0.2388392 0.34902072 0.15770942 -0.004396719
000220 06 4e 91 3d 12 a1 c0 bd 04 9d b3 bb 4a e0 04 bd
       0.0709496 -0.09405722 -0.005481364 -0.03244046
000230 00 c2 27 3d 32 9a 86 3b 91 ff 7a 3d b4 3c f9 bc
       0.040956497 0.004107737 0.061278883 -0.030424453
000240 86 dc 28 3c e4 12 f0 bc 3a 8b ef bc 05 87 d5 bd
       0.010306483 -0.029305883 -0.029241193 -0.104261436
000250 58 e8 27 3d 20 b3 8c bd ad e7 c1 bb 57 57 5b 3d
       0.040993065 -0.06870103 -0.0059175105 0.05355009
000260 3e a2 c0 3d d3 0c 9d bd b1 5c 36 bd f0 a1 e9 3d
       0.09405945 -0.07668462 -0.04452199 0.1140784
000270 e7 cf 76 bd de 9b ce 3d d9 01 c5 3e 69 09 bb be
       -0.060256865 0.10088323 0.38477972 -0.36530617
000280 33 71 2d bd 0d 00 05 3e f1 b1 9d bc 06 50 98 3d
       -0.042344283 0.129883 -0.019249888 0.07437138
000290 40 ae a6 3d df 25 92 bc 51 bb 7a bc a4 ff a9 bd
       0.08138704 -0.017840324 -0.015303449 -0.08300713
0002a0 6c 64 76 bd 70 d7 7e bd 64 3f 65 bd 26 85 35 bd
       -0.060154364 -0.062217176 -0.055968657 -0.044316433
0002b0 89 24 82 bd ab 5d ff bb 72 69 31 bb 6c f9 42 bd
       -0.06354625 -0.0077931485 -0.0027070907 -0.04760115
0002c0 85 ce 08 3d 34 d6 21 be 37 84 53 3b 40 3c e4 3c
       0.033400077 -0.15804368 0.003227485 0.02786076
0002d0 0c 96 5c bd 3d 3d 06 be 17 39 97 3d ed 74 bd bd
       -0.053854033 -0.13109298 0.07383936 -0.092508174
0002e0 89 bd 61 be e5 d4 59 be 24 6c 2f 3e 16 af 06 3e
       -0.22044958 -0.21272619 0.17131096 0.13152727
0002f0 29 22 8e 3c cd 3a 2a 3d a0 fd d6 3b 48 f4 92 3c
       0.017350273 0.041559983 0.006560996 0.017938748
000300 fc 1a 2a bd cb c6 91 bc e9 0d 17 3d c4 a3 3a 3c
       -0.04152964 -0.017794987 0.0368785 0.011391584
000310 93 f0 fb bc fc d4 39 3c 23 3b 3d bd 5c 84 06 3d
       -0.030754363 0.011342283 -0.046198975 0.03284107
000320 e9 42 74 3c 30 8d 0f bb d8 67 0e bd 8c d1 30 3d
       0.014908531 -0.0021904223 -0.034767002 0.04316859
000330 aa 8c 99 3c 69 b3 d3 bc be 9d 79 bd 49 22 ab 3d
       0.018743832 -0.025842385 -0.06094145 0.08356149
000340 9f e1 94 3d cb c5 c1 3d 76 1e 72 bd 85 8c 21 bc
       0.07269596 0.09461554 -0.05911108 -0.009860163
000350 51 39 56 3d ec 5e e7 bc 5c 34 7d bb 15 db b3 bb
       0.052300755 -0.028243504 -0.0038635945 -0.005488763
000360 eb 15 01 be dd 1c 39 bd f5 4a 0c be 76 6c 23 3d
       -0.12606017 -0.04519354 -0.13700469 0.03989836
000370 41 33 a7 bc 01 aa e8 3d ce ca 2b 3e 83 0a 01 bd
       -0.020410182 0.11360551 0.16776583 -0.031504165
000380 f3 60 29 be c2 95 03 3e ba 5d 99 be 49 71 fb bd
       -0.1654089 0.12850097 -0.2995432 -0.12277467
000390 48 76 97 bd 2b ad 92 bd 17 7c c1 bc 08 98 bb bd
       -0.07395607 -0.071619354 -0.023618741 -0.09159857
0003a0 1f 9b 96 bd ef 26 82 3d a6 ac 89 bc 2a 10 cc 3c
       -0.07353806 0.06355082 -0.016805958 0.024910051
0003b0 be cd 10 bd a8 5b a2 bb ab b2 dd bc 26 b2 c4 bc
       -0.03535246 -0.004954774 -0.027062735 -0.024010729
0003c0 e0 37 b7 ba 96 fa a8 bc db 1c ba bc 19 65 6f bc
       -0.0013978444 -0.020627301 -0.022718837 -0.014611506
0003d0 c1 fc 8a 3d db d5 5a be 91 02 1f bd ed 02 42 3d
       0.0678649 -0.21370642 -0.038820807 0.04736607
0003e0 0a 58 b5 3d bc 7b 40 3e 20 f6 1b 3d 41 b3 1c be
       0.08854683 0.18797201 0.03807652 -0.15302755
0003f0 f6 7a d5 bd c1 37 84 bd 18 a5 fd bd 0e d5 81 3d
       -0.104238436 -0.06455947 -0.12385005 0.06339465

conv2.bias f4 [32]
000000 f5 bc 81 3b 1d 0b 47 3d 26 4e 23 3d 9a 26 09 3c
       0.003959293 0.048594583 0.03986945 0.00837102
000010 58 b5 ed 3c 90 09 fe 3c ac f4 bf 3c 74 91 0b 3e
       0.029017136 0.03101042 0.023432098 0.13629705
000020 24 6e 66 bc 3d 7c 20 3b ca 47 b5 3c 3e 2a 07 bc
       -0.0140643455 0.0024488114 0.022128958 -0.008249817
000030 73 e5 a1 3d fa ab 8d 3d c8 10 99 bc 1d 52 39 bd
       0.07905092 0.069175676 -0.01868476 -0.045244325
000040 99 ae 12 bd 7c e6 13 bb ab 1f 0d bd 85 84 20 3c
       -0.03581104 -0.00225678 -0.03445403 0.00979722
000050 a8 e0 0c 3d 27 c4 2c bc 07 6a ff bc c4 d5 80 3b
       0.034393936 -0.010544813 -0.031178487 0.003931733
000060 b7 09 f7 bc 8e 5e 7d 3d ff a3 b6 3d 57 ac d1 3d
       -0.030156 0.061857753 0.089179985 0.10237949
000070 4d d1 7f bc 95 40 45 bb 03 56 b3 3c 36 63 3a 3d
       -0.015613866 -0.0030098308 0.0218916 0.04550477

conv3.weight f4 [12, 32, 3, 3]
000000 19 e6 1e bd 0d 66 38 bd 3b 24 f6 ba 43 83 99 3c
       -0.038793657 -0.0450192 -0.0018779108 0.018739348
000010 cd c5 14 bd 3a 9e 87 bc f3 6f bd 3c ed 3e 50 3d
       -0.03632145 -0.01655494 0.02312467 0.05084126
000020 43 e3 17 bc 59 c2 12 bd 95 39 f0 bc 85 7f 06 3d
       -0.009270492 -0.035829876 -0.029324332 0.032836456
000030 2e 8f 09 bd 9a 7e 10 3d 10 fd 8a bd cf 34 89 bc
       -0.033583812 0.035276987 -0.06786549 -0.016748814
000040 2d e4 58 bd 70 de b2 3c 1e 54 c9 3c 9f a9 e6 3c
       -0.05295198 0.021834582 0.024576243 0.028157054
000050 c0 e5 d2 bc 4d 55 3d 3c 3e 29 0f 3d 38 c6 59 bd
       -0.025744319 0.011555982 0.03495144 -0.05316755
000060 64 ba 02 bd 31 9c 85 bd c0 01 0c bd b6 23 8f 3c
       -0.031916037 -0.06523932 -0.034181356 0.017473083
000070 79 2c 81 3c ae b8 54 bc 6e d0 2d 3d 9d 03 2d 3b
       0.015768277 -0.012983484 0.042435102 0.0026399859
000080 fa a1 82 3c 13 c9 80 bd c8 2d 78 bb 72 9b 25 3d
       0.015946377 -0.06288352 -0.0037869085 0.040431447
000090 c4 f8 02 3d 58 38 d2 bb 67 a9 22 bd cc 1c 47 3c
       0.031975523 -0.006415408 -0.039712336 0.012152862
0000a0 d4 c0 e3 bc db 43 80 bd 23 3a 5a bd 36 97 45 3d
       -0.027801909 -0.062629424 -0.0532781 0.04823991
0000b0 d9 bc d7 ba 3b 84 1a bc 0a d0 bf bc 37 a3 47 bd
       -0.0016459479 -0.00943094 -0.02341463 -0.04873964
0000c0 1f 29 55 3d 77 79 b0 bc 30 69 e4 bc 88 0b 13 bd
       0.05204117 -0.021542294 -0.027882189 -0.03589967
0000d0 2d c8 08 3d cd 19 3e 3d 87 87 bf bc 7f 0d 71 3d
       0.033394028 0.046411324 -0.023380054 0.05885076
0000e0 48 06 64 3d a2 3b 68 3d dd 4d 28 3d eb 5d 35 bd
       0.055670053 0.056697495 0.04108988 -0.04427902
0000f0 71 62 28 3d 88 62 0b 3c 01 da 31 bd 11 c4 8a bc
       0.041109506 0.008507378 -0.043420795 -0.016939195
000100 5a 12 35 bd ab b6 10 3d a7 e7 ac bb 68 9a 6b bd
       -0.044206955 0.035330456 -0.0052766385 -0.0575203
000110 01 c0 ae bc d6 dd 0c bc 89 05 67 bd 4c d7 fb bc
       -0.021331789 -0.008597812 -0.056401763 -0.03074231
000120 3b bf 18 3d a8 b8 6e bd 5d 57 6b bd 31 54 e7 bc
       0.037291747 -0.05828157 -0.057456363 -0.028238388
000130 93 10 3f bc b4 10 19 3d 02 fc f9 39 72 1a ef bc
       -0.011661666 0.037369445 0.0004768074 -0.029187415
000140 07 7e 4f 3d 05 49 c9 3c 4d 02 c7 3b c8 99 e4 3c
       0.0506573 0.024570951 0.0060732723 0.02790536
000150 be 7f 21 bd 27 e5 8e bc b5 d4 ad 3c fd ed 10 3d
       -0.039428465 -0.017443253 0.02121959 0.035383213
000160 20 44 2a 3d 0a d1 81 bd be 16 35 3d 5a 48 18 bd
       0.041568875 -0.06338699 0.04421114 -0.037178375
000170 52 14 1f bd ee ac 50 bc 8d 64 21 bd d2 88 c0 3a
       -0.03883774 -0.012736542 -0.039402533 0.0014689213
000180 0f 84 10 bd 42 29 b4 3c a7 42 37 bd 49 95 15 bd
       -0.03528219 0.02199233 -0.0447413 -0.036519323
000190 9d 91 e2 3c 0d f9 4f bb 82 0a 53 bd d6 0c b7 bc
       0.027657324 -0.003173414 -0.051523693 -0.022344988
0001a0 13 b9 2b bc fe 72 94 bc eb 86 ba bb be 61 95 3c
       -0.010481137 -0.018121239 -0.005692353 0.018235084
0001b0 c7 57 0a 3c 16 c7 1b 3d ea b4 d5 3c 95 72 f2 bc
       0.008443779 0.03803166 0.026087243 -0.029595653
0001c0 6a c7 0c bd fb 0f 4e bd 3b 75 09 bd e9 ca 7f bd
       -0.034369864 -0.05030821 -0.033559065 -0.06244937
0001d0 a5 b5 71 bd 0c 70 b7 3c 38 b5 00 3d a6 83 01 bb
       -0.05901112 0.022392295 0.031422824 -0.0019762306
0001e0 17 da 53 bc d8 fa 3f 3c ce 17 71 3c f7 fb 0a 3d
       -0.012930415 0.011717521 0.014715148 0.0339317
0001f0 7a 40 c5 3b 21 96 87 3c c2 35 16 3d 01 e4 67 bd
       0.006019649 0.01655108 0.03667236 -0.056613926
000200 80 f1 fe 3c a9 2e 7c 3d 2e 16 de 3c 0f 7b 7b bd
       0.031121016 0.061567936 0.027110185 -0.061396655
000210 88 a0 a7 bc 97 de 7b bc 79 15 44 bd 78 e0 ea 3c
       -0.02046229 -0.015372894 -0.04787204 0.028671488
000220 46 07 28 bd d7 74 37 3d ef f1 a1 3b 14 84 e9 3c
       -0.04102256 0.04478916 0.004942171 0.028505363
000230 d2 f4 43 bd 8c 02 23 3d a7 a2 7a bd 64 f4 4d bd
       -0.0478409 0.03979735 -0.061190274 -0.050281897
000240 83 e2 17 3c 09 74 35 3d 12 6e 33 3a 5f 7e 53 3d
       0.009270313 0.044300113 0.000684471 0.05163419
000250 0f 67 40 3d 8d 36 fc bb 15 fa 9c 3c 89 41 a0 3c
       0.046973284 -0.0076969326 0.019162217 0.0195625
000260 94 97 8b bc 05 eb a4 bc dd 06 61 bd 88 8f 2c 3c
       -0.017040052 -0.020131597 -0.054938186 0.010532267
000270 64 59 0f bd 96 a6 87 bd 6e 70 c3 bb 1d 39 25 bd
       -0.03499736 -0.066235706 -0.0059643304 -0.04033767
000280 cd 3d b4 bb c8 38 82 3b a1 a6 48 bd 8f 5c 1f 3d
       -0.0055005313 0.003974054 -0.048987035 0.03890663
000290 0d 60 be 3c 45 43 76 bd 21 e8 9b bb f9 28 15 3d
       0.02323916 -0.060122747 -0.0047578965 0.036416028
0002a0 db 79 06 3d 6a ce 82 bd 26 20 7a bd 7d 5e 94 3c
       0.032831054 -0.063870266 -0.061065815 0.018111462
0002b0 dc c8 43 bc 1a 2a d3 bb 5b cb 13 bd a1 f8 81 ba
       -0.011949744 -0.006444228 -0.036082607 -0.0009916016
0002c0 08 50 09 37 17 8f 39 3d a4 9e 3b 3d 65 3d 32 bd
       8.18447e-06 0.045302477 0.04580559 -0.04351558
0002d0 ec ec 44 bc a4 d6 4f 3d 6d 6d 94 bd c8 de 64 3d
       -0.012019377 0.050741807 -0.07247434 0.055876523
0002e0 15 0c 08 3d 15 89 44 bd 78 0e 04 bd 6c 53 d7 3c
       0.033214647 -0.047982294 -0.03224036 0.026284896
0002f0 6a 71 14 bd 68 a0 b3 bc 5d db 39 bd 7e 39 88 bc
       -0.036240973 -0.021927074 -0.045375217 -0.016628977
000300 51 81 21 bd 46 47 69 3d 38 3f 3b 3d 71 9e 68 3d
       -0.039429966 0.056952737 0.045714587 0.056791726
000310 ce 84 47 bd a5 ce b7 bc 34 6a 8f bc f5 96 00 3d
       -0.048710637 -0.022437403 -0.017506696 0.031393964
000320 19 01 18 3d 30 8a 41 3d ef 7e cb 3b 22 73 02 bc
       0.03711042 0.047250926 0.0062102 -0.00796202
000330 02 89 fe bc 09 92 32 bd 94 c1 21 3d 70 73 74 bd
       -0.03107119 -0.0435963 0.03949125 -0.059680402
000340 d8 b0 2b 3d 7b 6d 35 bd 9d 9d 28 3d c8 16 74 bd
       0.0419167 -0.04429386 0.041165937 -0.05959204
000350 4e c1 94 bc 5d 12 da 3c 2f de be bb 19 9a 53 bd
       -0.018158581 0.026620084 -0.005824826 -0.05166063
000360 97 84 70 3d 00 4e 20 bd 7d 3a 90 3c 9e 64 07 3d
       0.058720198 -0.039136887 0.017606014 0.03305494
000370 3e 21 9d bc dd 7b 17 bd c2 10 9b 3c ef 90 1b bd
       -0.01918089 -0.03698336 0.01892889 -0.037980016
000380 c0 f6 23 bd 5a e2 ed 3c 97 0d 34 bd 3c 35 e9 3b
       -0.04003024 0.029038597 -0.043958273 0.0071169417
000390 3e 0c ee bc 7a 94 1f bd d4 ab 5c ba 49 48 ef bc
       -0.029058572 -0.038959958 -0.00084179384 -0.029209273
0003a0 44 7f b0 bb e4 7c f8 3b ad 0d 27 3b d2 56 13 bd
       -0.005386265 0.0075832475 0.002549033 -0.03597147
0003b0 5a 44 d5 bc 54 ae d3 3c 1f 18 e5 bb 3d 73 33 bd
       -0.02603357 0.025839962 -0.006991401 -0.04381107
0003c0 e3 17 41 3d 01 10 32 3d e0 0b fd 3c 97 5f 77 3d
       0.04714192 0.043472294 0.030889452 0.060393896
0003d0 1b 6a 71 bd d0 d0 5c 3c ea a5 33 bc 9b 0c 3c bd
       -0.05893908 0.013477519 -0.01096485 -0.04591046
0003e0 3c a3 8c bd cb 58 ea bc 48 9b d0 bc b2 1b 1e bb
       -0.06867072 -0.028606793 -0.025464669 -0.0024125394
0003f0 ce 3d f9 3b 6d 35 10 3c c8 89 30 3d e5 2e 67 3d
       0.0076062446 0.0088018 0.04310015 0.056441206

conv3.bias f4 [12]
000000 f9 e9 5e bd 86 30 1c bc 65 15 12 3d 90 d2 3e bc
       -0.054422352 -0.009533053 0.035664935 -0.011646882
000010 04 81 e6 3d d5 5d 4a bd 75 56 25 bd d7 33 52 3d
       0.112550765 -0.04940589 -0.040365655 0.05131897
000020 d6 b1 72 bd 80 3c 47 3e 61 df d8 ba 6c 19 28 3d
       -0.05925163 0.19456673 -0.0016546064 0.04103987

fc1.weight f4 [24, 588]
000000 26 c4 39 bd eb 32 e5 3b 2a 32 84 3c 8c 67 ce 3c
       -0.045353077 0.0069945953 0.016137201 0.02519586
000010 e9 a5 7b bb 94 75 ff 3c 40 a4 cd ba 39 f0 ae ba
       -0.003839845 0.031183995 -0.0015689209 -0.0013346738
000020 60 b7 0d 3d 59 fb 92 bc 26 84 41 bc 48 9b 8a bc
       0.03459871 -0.017942118 -0.011811292 -0.016919747
000030 5c ce 1e 3c 89 27 74 bc 57 23 b3 ba 4b cc 72 3b
       0.009692755 -0.014902004 -0.0013667148 0.0037048038
000040 67 e6 af 3c bd 66 51 b9 29 7a dd 3b 52 01 ad 3b
       0.02147217 -0.00019970066 0.0067589474 0.0052796984
000050 06 d1 1c bc f9 93 fd bc 9f 5c 5f 3c 84 2b a5 bc
       -0.009571319 -0.030954348 0.013632922 -0.020162351
000060 67 9a 01 3d 6e 1b 14 bd 60 83 fc ba ee 11 11 bd
       0.03164139 -0.03615897 -0.0019265227 -0.03541749
000070 4d 9e b3 bc 96 08 6c 3c 86 03 3f bd 26 28 ec 3c
       -0.02192607 0.014406344 -0.04663422 0.028827738
000080 9b 32 d8 bc 65 8d f4 3c d5 8b e8 3b 80 53 2b bd
       -0.026391318 0.029852578 0.0070967474 -0.04182768
000090 11 4a 24 bd 67 03 c4 3c 4b 9c cf bc 39 04 26 bd
       -0.040109698 0.023927404 -0.025343081 -0.04053137
0000a0 1d 99 44 3c cd 29 f3 3b 05 63 b2 bb 76 46 c4 3c
       0.011999396 0.0074207545 -0.005443933 0.02395938
0000b0 52 6f 2d bd 2c 21 fc 3c 97 fe 3d bb c0 34 24 3d
       -0.04234249 0.030777536 -0.0028990859 0.04008937
0000c0 eb 33 e3 bc 40 46 60 3a 68 71 e9 3b 4e 12 27 bd
       -0.027734717 0.000855539 0.007124115 -0.04078894
0000d0 8c ab 5f 3c b6 39 05 bd 84 8e e3 3c 36 ae c3 bc
       0.01365174 -0.03252574 0.027777918 -0.023886781
0000e0 bb 22 0f bd 64 f8 92 bc d0 24 69 bb 27 98 2c bd
       -0.03494523 -0.017940708 -0.003557492 -0.04213729
0000f0 01 d5 b5 3c c6 29 ae 3c 18 fe ea 3c e0 50 47 bb
       0.022196295 0.021260154 0.028685614 -0.0030413195
000100 a1 0e d9 3c 61 09 31 bd 84 19 d2 3c 90 ab af bb
       0.026496233 -0.043221835 0.025646932 -0.005361028
000110 1b 32 83 3a 68 52 bf bb 14 00 93 bc 45 c9 83 bc
       0.001000944 -0.005838681 -0.017944373 -0.016087184
000120 30 53 0c bd 6e e5 88 3c e3 c3 ad 3c a8 1e 7a 3c
       -0.03425902 0.016710963 0.02121157 0.015266098
000130 80 a8 75 3a 11 68 3e bd c6 5e 14 bd 22 7c 25 bd
       0.0009371117 -0.046485964 -0.036223195 -0.040401585
000140 52 ca 04 bd 01 58 07 3d 18 0f 9d 3c 80 c0 d2 3c
       -0.03241951 0.03304291 0.019172236 0.025726557
000150 0e 7f 09 bd 16 9d 83 3c b4 23 09 bc c0 33 41 bd
       -0.033568434 0.016066115 -0.008370329 -0.047168493
000160 db 85 90 3c 90 49 47 3b 60 e7 a8 bb 48 79 21 bd
       0.017641952 0.0030408837 -0.005154535 -0.039422303
000170 45 83 09 3c 50 6a ee 3b b1 4a be bc cb 5b 66 3b
       0.0083931135 0.007275857 -0.023228975 0.0035149928
000180 99 0a 11 3c 78 ef b6 3b ea ef d0 3c 48 63 40 bd
       0.008852624 0.005582746 0.025505025 -0.046969682
000190 95 2c 42 3b 0e 6e ec bc 0b 17 d6 3b a5 f5 38 bd
       0.0029628624 -0.028861072 0.0065335087 -0.04515614
0001a0 91 74 67 bb dc 66 23 bb c9 25 bb 3c 50 02 7c bc
       -0.0035317282 -0.0024933135 0.022845166 -0.015381411
0001b0 e9 eb ea bc f7 3a 8d bc a1 e4 ab bc 6b 55 ec 3c
       -0.028676944 -0.01724003 -0.020983042 0.028849324
0001c0 aa 25 87 bc a3 0e 9f 3b f7 eb 23 bb 61 4b d1 bb
       -0.016497452 0.0048540398 -0.0025012472 -0.0063871597
0001d0 65 a9 41 3c b1 66 d7 39 80 18 f8 3c 84 06 f0 3b
       0.011820172 0.00041084507 0.03028512 0.0073249955
0001e0 52 f4 f7 bc 44 28 95 bc c1 5f bc bb 56 a6 90 3c
       -0.030267868 -0.018207677 -0.0057487194 0.01765744
0001f0 35 54 98 3c 0c 85 ab 3c 1b ae be bc 10 eb 15 bd
       0.01859484 0.020937465 -0.02327638 -0.036601126
000200 f4 01 e8 3c fc a9 a1 bc b8 74 c7 3b 6d 7a 23 3c
       0.028321244 -0.019734375 0.006086912 0.009977919
000210 14 7a 81 3c 26 cd 70 3c e1 8d e1 3c 0f 1f b3 3c
       0.015805282 0.014697349 0.027533473 0.021865396
000220 bb 81 1e bd 81 85 03 3d e2 a4 ad 3b 36 2d fa bc
       -0.03869794 0.03210974 0.0052991966 -0.030539136
000230 ea 1c 04 3d ff b1 31 bd 70 23 29 bd f0 2b 26 bd
       0.032254137 -0.04338264 -0.04129356 -0.040569246
000240 98 31 f6 bc 20 a5 f2 3c 29 64 7d bb b3 ba 8a bc
       -0.030052945 0.029619753 -0.0038664436 -0.016934728
000250 05 b2 dd bb bd b8 15 bd 51 2a 0e 3d e2 68 17 bd
       -0.0067656063 -0.036553133 0.034708325 -0.03696526
000260 7a 8d 3d 3c f8 cc 9b 3b f0 bf 95 3c 72 36 c7 bb
       0.011569375 0.004754659 0.01828 -0.0060794884
000270 56 51 1d bd d4 59 fb bc 9c 39 ce bb 45 b9 97 bb
       -0.038407646 -0.030682482 -0.0062934887 -0.00463024
000280 a9 46 2e bd 2a 95 11 3b d6 f1 3c bd e4 3b 07 3d
       -0.042547856 0.0022214153 -0.04612907 0.0330161
000290 2e 19 42 3b 11 8e 5a 3c 1c 5d 6f 3c 21 b2 8a bc
       0.002961706 0.013339535 0.014609601 -0.016930642
0002a0 f5 93 02 3d 52 4a be bc 21 b0 22 bd 13 1c 40 bd
       0.031879384 -0.023228798 -0.03971875 -0.046901774
0002b0 6a 11 97 3c ff ee 3d 3b 00 62 7e bc 46 27 23 3d
       0.01844092 0.0028981564 -0.015526295 0.039832376
0002c0 36 0a 61 3c 52 c4 ab bb c5 9c 2d bd e3 16 35 bd
       0.013735345 -0.005241909 -0.042385835 -0.04421128
0002d0 53 69 c6 3c 19 13 93 3c b0 67 40 3c e0 bf 65 3b
       0.024220144 0.017953442 0.011743471 0.0035056993
0002e0 e9 e3 99 3c f9 f7 3f bd fc ca 8a 3c 61 08 8a bc
       0.018785434 -0.046867345 0.016942494 -0.016849698
0002f0 f6 25 21 bd c0 17 b4 3c 26 00 14 bd eb 44 82 bc
       -0.039342843 0.021983981 -0.036132954 -0.015902003
000300 fd 80 f7 3c c9 34 07 bd 80 d5 7b 3a 17 6b 21 bd
       0.030212874 -0.033009324 0.0009606704 -0.03940877
000310 af 08 69 bc a2 ad c4 bc ed be 86 bc 75 88 06 3d
       -0.014223262 -0.024008576 -0.016448462 0.03284498
000320 7c df 8f bb 91 4f 00 bc af 54 f9 bc 51 ac 38 bc
       -0.004390655 -0.00783147 -0.030435888 -0.011271552
000330 a6 84 c3 bc 8e dc cc bc 43 b7 2d 3c 1b e4 fe bc
       -0.023866963 -0.025007512 0.010602775 -0.031114629
000340 79 b4 87 bc de 6e f9 3c 87 64 23 bc 5b c3 40 bd
       -0.016565548 0.030448373 -0.009972698 -0.047061305
000350 51 be 1e bd 40 d3 0b 3d b1 92 57 3c 20 2e cc 3c
       -0.03875572 0.03413701 0.013157533 0.024924338
000360 86 a5 a6 3b a8 c3 85 bc 89 d7 01 bd 68 cf 08 bd
       0.00508565 -0.016328648 -0.03169969 -0.033400923
000370 74 f8 1d bd b3 b4 93 bc e6 b4 74 3c f3 71 b4 bc
       -0.03856702 -0.0180305 0.014935708 -0.022026991
000380 0e 86 fd 3c d3 8e 3c 3c 0f 5f 2a 3c 5b 3e 4a 3c
       0.030947711 0.011508661 0.01039864 0.012343968
000390 1c e8 fa 3b dd 87 24 bd 02 53 0a 3c d6 f8 18 bd
       0.007657064 -0.04016863 0.008442642 -0.037346683
0003a0 02 47 a1 3c 9c aa ac 3c 51 0e 4d bc d9 08 09 3c
       0.01968718 0.021077447 -0.01251562 0.008363926
0003b0 74 f2 fd bc 71 6f 86 bb 3f 9d e5 3c 58 60 17 bc
       -0.0309994 -0.0041026403 0.028029082 -0.009239279
0003c0 2a ad b4 bc a5 60 46 3b d9 e6 8d bc 17 a5 cc bc
       -0.022055227 0.0030270007 -0.01732199 -0.024981065
0003d0 bb b6 37 3c 18 f9 87 3b b2 e4 fe bc 4f c6 21 bd
       0.011213 0.0041495673 -0.03111491 -0.039495762
0003e0 bc c1 6a bc 55 df 03 bd b0 cc b1 3b 80 0f a7 39
       -0.014328416 -0.032195408 0.005426012 0.0003186427
0003f0 00 84 1f 3c 5e d6 91 3c 70 1e 3f 3c f3 08 0b bd
       0.009736061 0.017802414 0.011664972 -0.03394408

fc1.bias f4 [24]
000000 e4 c5 6e bc 30 37 56 bd b1 74 14 3c 0e ed d4 3d
       -0.014573548 -0.052298725 0.0090610245 0.10396777
000010 35 73 45 3b 72 9b 20 3c 90 bb 01 3e 36 f1 47 bd
       0.0030128483 0.009802686 0.12669206 -0.04881402
000020 50 1e a9 3d ae b0 08 3c 1c 65 7b 3c e1 5e 0c bd
       0.08257735 0.008342905 0.015343931 -0.03427017
000030 69 83 73 bd b3 4b 2b bd 2c ae ad bb 29 05 2a 3e
       -0.059451494 -0.04182024 -0.005300304 0.16603531
000040 7d 11 c2 3d 0b 34 84 3c 30 25 47 3e b0 d4 8d bd
       0.09475992 0.016138097 0.1944778 -0.069253325
000050 83 eb 47 3c 19 5b b2 bc 84 65 8e 3c 43 ec 70 3c
       0.012202146 -0.021771954 0.01738239 0.014704767

fc2.weight f4 [588, 24]
000000 a1 12 35 be 01 18 b7 bd 75 b8 28 3e c3 6c 23 bd
       -0.17682888 -0.08940125 0.16476615 -0.039898645
000010 8e e0 f6 3c 10 43 4f bd 88 dd 1e bd d6 eb fe 3d
       0.030136373 -0.050601065 -0.038785487 0.12447326
000020 26 bb 2c 3d 78 49 08 3e e8 46 84 bc 2a e2 20 3e
       0.042170666 0.13309276 -0.016147092 0.15711275
000030 22 00 25 be d9 af 0f be fc df 39 bd ba 8a 36 bc
       -0.16113332 -0.14031924 -0.045379624 -0.011141473
000040 2b bd b6 bd fe e8 d1 bd 35 cb 7c bd 7d 3e 63 bd
       -0.089228 -0.10249518 -0.06171723 -0.055479515
000050 07 30 fb bc 23 a1 b3 bd d5 84 f4 bd de 41 b9 3d
       -0.03066255 -0.08770969 -0.11939398 0.09045766
000060 7c 5a 36 be 79 14 c6 bd 06 ba 48 3e d5 14 20 bd
       -0.17807955 -0.096718736 0.19602212 -0.039082367
000070 8f f7 94 bd a8 39 ce 3d 54 76 f0 bd 60 66 a2 3c
       -0.072737806 0.10069591 -0.11741319 0.019824207
000080 ef c3 c2 bd da bf 27 be 41 5d 26 be 35 46 e6 bd
       -0.095100276 -0.1638178 -0.16246511 -0.1124386
000090 be 33 01 be 5e db 11 be 70 06 c6 bc 7c a2 75 bd
       -0.12617394 -0.14243838 -0.024172992 -0.05996941
0000a0 99 74 e2 bd 6c 8e 01 3d 4a 33 d9 bd 10 1c 67 bd
       -0.110573955 0.031629965 -0.10605486 -0.056423247
0000b0 c8 da b9 3d 00 c5 cf bd a8 89 d5 3d 0c 3a 3d be
       0.09074932 -0.10144997 0.104266465 -0.18479174
0000c0 60 00 79 bd 2f c1 49 be a8 f5 8e 3d e2 8d 02 3e
       -0.060791373 -0.197026 0.06980449 0.12749436
0000d0 d4 b8 dd 3d 72 fb fe bd cb 84 1e be c4 ea 46 3e
       0.10826269 -0.12450303 -0.15480344 0.19425493
0000e0 63 0e 3f be 60 5b ee 3d a2 a9 32 3e 1c d3 45 3e
       -0.18657832 0.11638522 0.17447522 0.19318813
0000f0 24 b2 a8 bd c0 62 1e 3e 48 fe ba 3c 91 73 3f be
       -0.08237103 0.15467358 0.022826329 -0.18696429
000100 08 82 e3 bd 80 bb 7c 3b 5e 8d 10 be 24 f5 26 3e
       -0.11108786 0.0038563907 -0.14116427 0.16304451
000110 fc e0 8e bd ec 9a 82 bd 68 1c 9c 3d 3c f2 17 3d
       -0.06976506 -0.06377205 0.076226056 0.037096247
000120 18 b2 40 3e 63 54 34 bd 1b 32 37 be 34 49 38 be
       0.18817937 -0.04402579 -0.17890207 -0.17996675
000130 1f d8 ee bd d0 6c 2b 3e f1 4a 5c 3d 2e b5 2f 3e
       -0.116623156 0.16740727 0.053782407 0.17158958
000140 d7 1b 21 bd 12 81 b3 bd 84 a0 17 be f4 b5 fc bb
       -0.03933319 -0.087648526 -0.14807326 -0.00771212
000150 4b 3a ec bd fd b3 ce 3b 04 29 ca 3d f6 74 8d 3e
       -0.11534556 0.0063080774 0.09871104 0.27628297
000160 d9 f6 77 3e f6 83 3f 3e 7f 3f 93 be 63 d0 41 bc
       0.24215259 0.18702683 -0.2875938 -0.011829468
000170 b0 0b 18 bd 40 bc 0a bf 85 99 20 bd 92 54 39 3e
       -0.03712052 -0.54193497 -0.039208908 0.18098667
000180 be 65 23 3e 2b b2 3a be 41 c0 08 3e c5 94 9d bc
       0.1595678 -0.18232028 0.13354589 -0.019235978
000190 1d 47 ce bc eb 46 66 bd 2a ad 5e bd 86 5e f3 3d
       -0.025180394 -0.056219976 -0.05436436 0.11883263
0001a0 8d a0 cc bd 66 6d 0e 3e db 57 8c bd 6f dc 29 3d
       -0.0999156 0.1390892 -0.068526946 0.041469987
0001b0 a6 fc d3 bd 95 a5 40 3e 94 37 f2 bd 4d 99 18 3d
       -0.10350923 0.18813165 -0.11827007 0.037255574
0001c0 c5 96 54 be 23 1f 71 3c c3 6c 0d be 19 89 1b be
       -0.20760639 0.014716896 -0.1381102 -0.15189017
0001d0 3e a2 1a be 08 b9 5d 3d f4 09 25 be b4 76 76 3d
       -0.15100953 0.054131538 -0.16117078 0.060171798
0001e0 34 17 43 be 2c b9 43 3e 54 4c a9 3d e8 aa b7 3d
       -0.1905182 0.19113606 0.082665116 0.08968145
0001f0 6a 39 c3 bd 60 03 1f bc 67 fa d4 bd b8 3d 0b bd
       -0.09532435 -0.0097053945 -0.10399323 -0.033994406
000200 c4 3a 4e bd d8 4d f6 3d 6d 12 2c be 7e 85 e1 bd
       -0.050349012 0.12026566 -0.16803904 -0.1101179
000210 d4 37 11 bd 9b f2 ec bd 7a 0a 2e be 5c 1b 93 3d
       -0.035453632 -0.11569711 -0.16996184 0.07182953
000220 07 40 35 be 88 f5 03 3d bd 72 b4 bd ac 40 44 bd
       -0.17700206 0.03221658 -0.08810947 -0.04791324
000230 82 62 38 3e 58 5d 7e bd 38 f9 a1 bd 7e 83 3f 3e
       0.18006328 -0.06210074 -0.07908863 0.18702504
000240 87 5d 57 bc 55 f1 4a bd d0 e9 f8 3d 4e 40 53 bc
       -0.013144857 -0.04954656 0.12153971 -0.012893749
000250 32 53 bd bb d7 5c bd bd 0a e5 e7 bd 36 64 58 be
       -0.00577774 -0.092462234 -0.113229826 -0.21131977
000260 cb bd 9e 3c 48 85 23 3d 84 b1 34 bd 61 a8 0d 3e
       0.01937761 0.03992203 -0.044114605 0.13833763
000270 79 ce 72 bc 7f 66 0b bd 7e 9c 27 3e 80 29 bc bc
       -0.014819735 -0.034033295 0.16368291 -0.022969007
000280 bd 17 6c bd 1c 8f 48 3e 88 b4 c7 bd f1 c8 2c 3d
       -0.057639826 0.19585842 -0.097512305 0.04218382
000290 c6 70 29 bc ab f3 ab bd 26 c3 05 3d 1d 59 3d 3e
       -0.010341829 -0.08396085 0.03265681 0.18491025
0002a0 7a f5 ea bd d1 bc ec bd d8 d4 f1 bd 7a 30 42 bd
       -0.11472602 -0.11559451 -0.11808175 -0.047409512
0002b0 bf a8 51 bc d3 a0 d6 bd 44 0f 3c be e1 69 d3 3d
       -0.01279658 -0.104798935 -0.18365198 0.10322929
0002c0 06 e0 9f 3d 48 90 47 3e 19 3b 29 bd 86 b9 2d 3e
       0.07806401 0.19488633 -0.041316126 0.16965303
0002d0 8b 29 e2 bc 35 e2 f6 bc 95 b2 2e be 72 b2 a2 3a
       -0.0276077 -0.03013716 -0.17060311 0.00124128
0002e0 80 b1 67 bd 3c ae b8 bd 29 60 f2 bd d2 ea 42 be
       -0.05656576 -0.090176076 -0.11834747 -0.1903489
0002f0 2f 37 29 3e 71 91 44 bd 8c 29 01 bd e4 6a 41 3e
       0.16524957 -0.047990266 -0.031533763 0.18888432
000300 5c f5 1c 3d e2 63 35 bc 80 db 1c 3c e5 b5 91 bb
       0.03831993 -0.011071177 0.009573817 -0.0044467323
000310 29 bf cc 3d 88 26 b8 bc 0a fc cc 3c f5 a3 ac bd
       0.099973984 -0.02247931 0.025022525 -0.0842971
000320 63 7e 09 be b4 79 a7 bd cb 70 da bd 13 32 42 be
       -0.13427119 -0.0817751 -0.10666045 -0.18964414
000330 08 71 ec bc 06 39 b0 bd 38 d1 0e 3d a4 3d c7 3c
       -0.028862491 -0.08604626 0.034867495 0.024321385
000340 c3 93 5d bc 20 ca d1 bd 7c 7f 80 bd 13 2b 0d 3e
       -0.013523999 -0.102436304 -0.06274316 0.13785963
000350 7f 07 ca bb 8b ad 2e 3e 0c e7 3e be 6c 72 04 3e
       -0.0061654444 0.17058389 -0.18642825 0.12934273
000360 e8 75 fe 3d d1 c6 e8 3d 0f 5a fb bd 1b 96 1d 3e
       0.124248326 0.11366046 -0.12273037 0.15389292
000370 53 d7 51 3e 82 ec 2c be b2 89 47 be db 7e 2c 3e
       0.20492296 -0.16887096 -0.1948612 0.16845267
000380 4f 64 b2 3e a0 44 44 be 00 da 03 3d b5 54 5a 3d
       0.34842154 -0.19166803 0.032190323 0.05330344
000390 cb ac c7 3d f3 43 65 bd 1b 66 39 be b7 4a ff 39
       0.097497545 -0.055973005 -0.18105356 0.00048693057
0003a0 2a 79 57 3c 2d 96 8e 3d 32 18 58 3e 0f 44 f4 3d
       0.013151446 0.069622375 0.2110298 0.11927044
0003b0 c8 2e 24 be 9a fa 99 be d0 08 3e 3e 30 ad 0a be
       -0.1603347 -0.30074006 0.18558049 -0.13542628
0003c0 18 6b 35 3e e9 1f 35 be 46 6c 43 3e e1 5a 23 3d
       0.17716634 -0.17687954 0.19084272 0.03988159
0003d0 9b 7d eb 3d ac 0b 0e bd c2 4d 4a be a3 9b 3d 3e
       0.11498567 -0.0346791 -0.19756225 0.18516402
0003e0 25 2d af 3e 66 4d 3c 3e 92 dd 19 be 13 1e 46 3e
       0.3421413 0.183889 -0.15025929 0.1934741
0003f0 f9 5c 3b be 96 98 d0 bd f8 d5 7e 3d 0e f9 d1 bc
       -0.18297185 -0.101853535 0.062215775 -0.025631454

fc2.bias f4 [588]
000000 78 a6 11 3e b3 77 e4 3e 30 75 43 be 47 de 54 3f
       0.14223659 0.44622573 -0.19087672 0.8315167
000010 1f 1a 98 3d 97 9c b1 bd e4 a3 3d 3e d4 6f c6 3d
       0.07426857 -0.08672445 0.1851955 0.09689298
000020 fd 82 24 be 42 d8 ee be 4b 39 2b bf 45 a7 f9 bc
       -0.16065593 -0.46649367 -0.668843 -0.030475268
000030 c5 81 a5 3e fa 40 2f be e9 c0 c2 3e 71 4d 21 be
       0.3232557 -0.1711463 0.38037804 -0.15752198
000040 ea 3d c2 be a2 31 aa bd 48 a1 9b bd 34 11 f4 3e
       -0.37937862 -0.08310248 -0.07599121 0.47669375
000050 74 a4 86 3d fe 30 c8 3e 64 ea 1a bd 00 9c 0e bf
       0.06574336 0.39099878 -0.03782119 -0.5570679
000060 b5 47 36 be 46 22 10 be 0f 34 2d bf 2e 0f 1e be
       -0.17800792 -0.14075574 -0.6765756 -0.15435478
000070 8b 13 b3 bd 41 5e 92 b7 8e 5e 12 be 32 e9 f2 be
       -0.08743962 -1.7448447e-05 -0.14293882 -0.4744354
000080 f2 be 8b 3e 03 18 6a be c2 9c b1 bd 51 da 0d be
       0.27294117 -0.22860722 -0.08672477 -0.13852812
000090 a2 00 b8 3e 01 61 c7 3e 2d ad 3b bf 0e 47 b9 be
       0.35937983 0.38941196 -0.7331112 -0.36187023
0000a0 cf f2 0e bc af 24 fc 3d 96 ba d1 3d 62 5c 6d be
       -0.008724882 0.12311684 0.102406666 -0.23179772
0000b0 75 5f a6 3e 1f 99 64 3f ac d1 de 3e 0a 0c ad 3c
       0.32494703 0.89296144 0.43519342 0.021123905
0000c0 59 be c2 3e e8 fb a2 3c 58 2d af 3e 26 bc 83 3e
       0.3803585 0.019895509 0.34214282 0.25729483
0000d0 cf 61 9b 3e 0f 6e de 3e 90 24 ee bd 4f 2c 5d bd
       0.3034806 0.43443343 -0.116280675 -0.053997334
0000e0 8e 38 d7 3e 27 4f 52 be f4 40 97 be 8c 7e b5 3d
       0.42035335 -0.20538007 -0.29541743 0.088620275
0000f0 89 1b e8 3e 83 3a f0 3e 10 70 44 3e a1 0f 8a 3c
       0.45333508 0.4691964 0.19183373 0.016853156
000100 33 96 36 3e 33 98 64 3e 42 2e 6f be 23 a9 73 bd
       0.17830734 0.22323684 -0.2335749 -0.059487473
000110 e9 f6 48 3e 6f e1 af 3d 59 24 32 be 10 d1 04 3f
       0.19625439 0.0858792 -0.17396678 0.51881504
000120 fd 55 b9 3e e4 fa 41 be c6 47 48 3e a4 12 f2 3d
       0.36198416 -0.18943363 0.1955863 0.11819962
000130 09 43 15 3f 72 d5 43 be 00 fe a1 ba eb e1 b3 be
       0.5830541 -0.19124392 -0.0012359023 -0.351333
000140 fb a8 36 bd 20 50 10 be fa 1f e6 3d 7d c5 e1 3e
       -0.044594746 -0.14093065 0.11236568 0.44095984
000150 ed af 54 3e 8c 05 3d bd c6 f1 14 3d 95 47 15 3e
       0.20770235 -0.046147868 0.036363386 0.14578088
000160 32 26 09 3e a3 7a eb bd 29 e0 7d 3e e9 04 02 3f
       0.13393477 -0.114980005 0.24792542 0.5078874
000170 d5 4a 1f be e0 78 d4 bc b2 83 f3 bd 24 65 bb 3e
       -0.1555589 -0.025936544 -0.11890353 0.36600602
000180 a4 15 1f be ed aa 1c 3d 8c f7 ad 3e 4f 7f 59 3c
       -0.15535599 0.038248945 0.33977926 0.013274982
000190 31 1f f3 3d 19 3d 08 3f f2 68 86 3e 0e fc d8 3e
       0.11871184 0.5321823 0.26251942 0.42379802
0001a0 73 2f 27 3f f8 fc 36 be a3 c0 06 3f a0 8c 22 3f
       0.65306777 -0.17869937 0.5263769 0.63495827
0001b0 33 f1 31 3f 89 3c f8 3e 5c a7 b7 3e 7f 7f b9 bc
       0.69508666 0.48483685 0.35869873 -0.022643803
0001c0 37 68 76 3e e2 22 0a 3d 71 77 29 be 7c 3d 1c be
       0.24063192 0.033724673 -0.1654947 -0.1525783
0001d0 b5 3e 8b 3e b9 d2 63 3d cc 3c 8b 3e 0b ba af 3e
       0.2719628 0.055620883 0.27194822 0.34321627
0001e0 c4 b0 19 3f a2 a3 92 3d bb 0e 6e 3d dd cc 36 be
       0.6003535 0.07160117 0.058119517 -0.17851587
0001f0 4b 2a 0f 3f 8d 84 5e 3e 4e f2 8b 3e b0 36 53 be
       0.5592391 0.21730252 0.273333 -0.2062633
000200 da f2 c0 bd 86 5b 92 bc d1 76 95 3c 99 f0 40 be
       -0.0942132 -0.017865907 0.018245133 -0.1884178
000210 d4 df 8c 3c 2c 54 b5 bd 07 b5 17 3e ac 46 de be
       0.017196573 -0.08853945 0.1481515 -0.43413293
000220 d7 c0 10 be b5 1f 2e bd 07 89 8a bd eb e1 8f 3e
       -0.14136063 -0.042510707 -0.06764417 0.2810205
000230 72 e6 b8 3d 79 af d3 bd ae b3 5a 3e 95 c1 dd 3e
       0.09028329 -0.10336203 0.21357605 0.43311754
000240 59 c7 36 3e 1e 86 c3 bb f5 53 44 bd ed e8 a1 3d
       0.17849483 -0.0059669157 -0.04793163 0.07905755
000250 ae 82 a2 bc 2e fe ad bd 03 5f 0d 3e 1a 49 d3 bd
       -0.019837704 -0.084957466 0.13805775 -0.103166774
000260 80 6a 41 3d dc 8d 8d bd f8 30 08 bd bb ef f6 bd
       0.047220707 -0.06911823 -0.033249825 -0.12057444
000270 c0 7c 87 be e9 10 65 bb 00 22 30 bd 7f 49 b8 3e
       -0.26462364 -0.0034952706 -0.043001175 0.35993573
000280 08 9d 72 3d 11 f8 83 be ce 02 52 be 21 3f 8f be
       0.059231788 -0.25775197 -0.20508882 -0.2797785
000290 27 c2 2b bf 4d d8 11 bd 3e fc e0 bd f5 60 1d be
       -0.6709313 -0.03560667 -0.109856114 -0.15369017
0002a0 2c c1 1d be 45 e0 3a 3e de 0c dc bd 91 12 50 3f
       -0.1540572 0.18249615 -0.10744642 0.8127833
0002b0 07 ba 01 be 89 59 44 bf 4c 1c 86 3d e9 f3 33 be
       -0.1266862 -0.7669912 0.06548366 -0.17573513
0002c0 21 d6 f4 3d 19 5e 24 be a3 86 bd bc 20 08 88 3e
       0.11954904 -0.1605152 -0.023135489 0.265687
0002d0 28 3e d7 3e 1e 36 93 bd 8b 64 df bd 2c 10 ba be
       0.4203961 -0.071880564 -0.10907849 -0.36340463
0002e0 9e 14 29 be e8 a2 be bc 15 12 49 3f 58 cf 17 3f
       -0.16511771 -0.02327104 0.78543216 0.59300756
0002f0 a1 68 96 bd 12 07 6f be e0 f6 42 3d c6 41 d2 3c
       -0.07344175 -0.23342541 0.04759872 0.025666129
000300 81 2e 5c 3e 96 6b 1c bc a0 10 b3 3d 4f 78 3d 3d
       0.21502115 -0.009547135 0.08743405 0.046257313
000310 dc 54 a7 3e e6 0b a4 3e fd d4 18 be 48 54 16 3f
       0.3268193 0.32040328 -0.14924999 0.58722353
000320 89 8f 68 bd 4e 97 24 3e 15 7a a2 3e 72 6e c0 3e
       -0.05677751 0.16073343 0.31733766 0.37584263
000330 35 b5 cb bc cf 71 61 3d d6 8f 44 bd a7 b2 ad 3e
       -0.02486668 0.055040177 -0.047988735 0.33925363
000340 c2 68 fc 3d 70 a7 46 bd 70 5a e1 3e 26 ec e1 37
       0.123246685 -0.048499525 0.4401431 2.6932055e-05
000350 3b 3e a3 bc 5a f3 28 3d 2b b2 d1 3e 82 a1 fd bd
       -0.019927135 0.041247703 0.40956244 -0.12384321
000360 b4 5b 7d 3e ef 77 96 3e 24 77 04 3f 4b f3 1d bd
       0.24742013 0.29388377 0.51744294 -0.0385621
000370 ae 43 13 be f5 8c 51 3e 63 2a d5 bd b1 25 04 be
       -0.14381287 0.20463927 -0.10408475 -0.12905003
000380 b9 89 e7 3e da 0e f2 be 8c b4 5a 3d 41 d2 95 3d
       0.45222262 -0.47276956 0.05339484 0.073154934
000390 e9 d8 f6 bd 72 62 54 be de c2 41 3b 02 57 e5 3e
       -0.12053091 -0.20740679 0.0029565613 0.44792944
0003a0 1e 63 0a be bf 92 ff bd ed 36 49 bd ec 97 9e 3d
       -0.13514373 -0.124791615 -0.049124647 0.077438205
0003b0 ed 30 89 bc 04 12 72 3e c7 91 fa 3e 0d a3 a6 bd
       -0.016746962 0.23639685 0.48939344 -0.08136568
0003c0 9c bd 94 3e 3d 75 5c 3e 48 bf 14 bc 17 4e a2 3e
       0.2905091 0.21529098 -0.009078808 0.31700203
0003d0 21 c8 a4 3e a0 be e4 3d f8 a2 cb 3d 14 5c 02 3c
       0.32183936 0.11169171 0.09943193 0.007956523
0003e0 80 00 c7 3e cd 6e 02 3e 81 3b d4 3d 4b 32 01 be
       0.3886757 0.1273758 0.10362912 -0.12616841
0003f0 cb 73 c5 3d d7 eb b5 3c 0f 46 e2 be fe ed 04 3e
       0.096412264 0.022207184 -0.44194075 0.12981412
