Pytorch/AutoEncoder/saved_models/mnist/NetLargeDropout-L2Loss_mnist.pt (torch, 246767 bytes, 15 tensors)

conv1.weight f4 [64, 1, 3, 3]
-0.09132293 -0.18952322 -0.15536673 -0.3380786 0.16653317 -0.053022023 -0.0057745217 -0.05111441
0.11032062 0.026984459 0.07797512 0.03713305 -0.04578921 -0.20289393 0.20333502 -0.05467471
0.103071205 -0.08412328 -0.1509998 0.05608017 -0.03792339 -0.09568838 0.19391568 0.323487
-0.15398817 -0.09888108 -0.14457269 -0.057625387 -0.08484173 0.20967972 0.18681335 0.10640419
0.32751727 0.15896384 0.19690733 -0.13659748 -0.098160684 -0.14095917 0.114014424 0.093453
-0.21124576 0.077577114 -0.021748705 0.1476013 -0.24375428 0.2643877 0.1288788 -0.1214431
0.2333283 0.24576192 0.29173642 0.21791016 -0.17289396 -0.0053941715 0.23556605 0.2674179
0.29193687 0.15109336 0.28185883 0.3063316 0.13646907 -0.26807854 -0.3261525 -0.022114277
0.11903247 -0.035588622 -0.14929748 -0.18544862 -0.02760157 -0.098095655 -0.09012827 -0.17738645
0.15953767 -0.071468554 -0.1192383 -0.26545176 -0.29351124 0.31502447 -0.1998366 0.24568728
0.009063165 -0.19005147 0.11138309 -0.030061064 0.31447744 0.025917836 0.06971227 -0.21087022
0.26531416 -0.18135758 0.2958723 0.064988114 -0.28634828 0.13920681 0.10992984 0.120317616
-0.28472865 0.28420258 -0.10169966 -0.24555449 0.14622714 -0.045235865 0.06642727 0.16273504
0.094646685 0.009405642 0.2835603 -0.14472824 0.12495781 -0.002598319 0.29943314 0.17142154
0.29405203 0.29239082 0.29846594 -0.2804829 -0.31897944 0.31552246 0.07204391 0.08038306
-0.04932301 0.16903725 -0.00072527345 -0.27341893 -0.20525368 -0.20396933 0.22307877 -0.09850765
0.21117833 -0.24802919 0.30510053 -0.32147473 -0.0019073816 -0.30832177 -0.02866672 0.122878864
-0.24662603 -0.12219378 0.20143375 -0.21513088 0.37292394 -0.059225794 0.2543208 -0.2571874
-0.2913593 -0.06773937 -0.058855683 -0.14698502 -0.32765698 -0.29450792 0.014392763 0.15756163
0.062919706 0.21805076 -0.031231236 0.07377041 -0.075227655 0.09250653 0.049117308 -0.2857742
0.09950738 0.12779559 -0.12106892 -0.34079275 0.19172888 0.20411094 -0.14282392 0.2371417
-0.16294649 0.15525556 -0.33164126 -0.272408 -0.04768972 -0.08791484 0.3124081 -0.10813286
0.058262322 -0.17929639 0.22418866 -0.25915352 0.24161272 0.065528445 0.030882968 0.013117874
0.24852319 -0.16216785 0.23035133 -0.13406213 0.22166544 -0.061019033 -0.0049369037 -0.13834667
-0.2894318 -0.09851341 0.028181463 0.018553942 0.041160733 0.03520608 0.14664567 0.20880924
-0.28426108 0.09776446 -0.07854338 -0.07329239 0.15338822 -0.0051886984 -0.22691584 0.33582887
0.15157086 0.1581405 0.14218163 0.02019759 0.072827086 0.23266609 -0.021381378 0.15447453
-0.19769692 0.19180876 -0.22007397 0.060573243 -0.05120032 -0.17827754 0.15154167 -0.13305542
0.08652229 -0.11904029 0.26748043 -0.15944332 -0.31036752 0.32408386 0.020501496 -0.1035633
-0.014740161 -0.24985456 0.016165344 0.2750416 0.104646884 -0.16309014 0.13430083 0.3023636
0.28486684 0.19764945 0.31293842 0.09739898 -0.19666415 0.093474366 -0.30757546 -0.103738815
-0.31628737 0.0044660773 0.074974224 0.28682724 0.006989881 -0.2374318 -0.10791835 0.06573508
00000000: 8407 bbbd 6012 42be 7518 1fbe a318 adbe
00000010: ac87 2a3e 9f2d 59bd 3338 bdbb 585d 51bd
00000020: c7ef e13d 830e dd3c 6bb1 9f3d d318 183d
00000030: 778d 3bbd 6dc3 4fbe 0e37 503e 97f2 5fbd
00000040: ff16 d33d d448 acbd b19f 1abe 52b4 653d
00000050: 8e55 1bbd 45f8 c3bd d591 463e 17a0 a53e
00000060: 13af 1dbe 2a82 cabd dd0a 14be 9908 6cbd
00000070: 80c1 adbd 48b6 563e 004c 3f3e 71ea d93d
00000080: 58b0 a73e 6bc7 223e 13a2 493e 36e0 0bbe
00000090: 7808 c9bd 9a57 10be 6580 e93d 4964 bf3d
000000a0: cf50 58be c0e0 9e3d 572a b2bc cc24 173e
000000b0: b99a 79be d35d 873e cef8 033e 29b7 f8bd
000000c0: 9ded 6e3e 03a9 7b3e 7a5e 953e d723 5f3e
000000d0: 1d0b 31be 97c1 b0bb 3a38 713e 00eb 883e
000000e0: c078 953e 38b8 1a3e cd4f 903e 7fd7 9c3e
000000f0: 8cbe 0b3e 9741 89be 76fd a6be 0029 b5bc
00000100: 4cc7 f33d 60c5 11bd 70e1 18be 3ee6 3dbe
00000110: b01c e2bc 60e6 c8bd 2c95 b8bd cba4 35be
00000120: d85d 233e 1b5e 92bd 3633 f4bd 4be9 87be
00000130: 1b47 96be e34a a13e f7a1 4cbe 7295 7b3e
00000140: ab7d 143c da9c 42be d11c e43d 9f42 f6bc
00000150: 3003 a13e a451 d43c 4ec5 8e3d 5dee 57be
00000160: 42d7 873e cdb5 39be 937c 973e 7d18 853d
00000170: 3e9c 92be 3b8c 0e3e e522 e13d 1569 f63d
00000180: f4c7 91be 0083 913e e947 d0bd a372 7bbe
00000190: 91bc 153e 3e49 39bd 050b 883d 04a4 263e
000001a0: 1fd6 c13d 1f1a 1a3c d12e 913e a433 14be
000001b0: e1e9 ff3d 8f48 2abb 4d4f 993e 2189 2f3e
000001c0: fd8d 963e 40b4 953e 87d0 983e 749b 8fbe
000001d0: 4651 a3be 298c a13e c28b 933d e09f a43d
000001e0: ed06 4abd 1a18 2d3e 4720 3eba 91fd 8bbe
000001f0: 052e 52be 56dd 50be c36e 643e 61be c9bd
00000200: 223f 583e 5dfb 7dbe 2336 9c3e 5698 a4be
00000210: 1b01 faba 5adc 9dbe 78d6 eabc eaa7 fb3d
00000220: 898b 7cbe bc40 fabd a644 4e3e 454b 5cbe
00000230: e3ef be3e bf96 72bd 5636 823e 11ae 83be
00000240: 0c2d 95be f0ba 8abd a812 71bd 3e83 16be
00000250: a8c2 a7be bec9 96be a0cf 6b3c d657 213e
00000260: 0cdc 803d b348 5f3e a6d8 ffbc f114 973d
00000270: f510 9abd 1074 bd3d 3b2f 493d ff50 92be
00000280: 86ca cb3d d9dc 023e fbf2 f7bd 637c aebe
00000290: 9354 443e 7502 513e 6f40 12be 46d5 723e
000002a0: 72db 26be 50fb 1e3e e2cc a9be 1079 8bbe
000002b0: 4c56 43bd b20c b4bd f4f3 9f3e c374 ddbd
000002c0: 79a4 6e3d 7999 37be b691 653e c5af 84be
000002d0: 5369 773e c733 863d 47fe fc3c 5aec 563c
000002e0: dd7c 7e3e 540f 26be 38e1 6b3e 9547 09be
000002f0: 44fc 623e 18ef 79bd c0c5 a1bb c0aa 0dbe
00000300: 6830 94be 66c1 c9bd d0dc e63c 70fe 973c
00000310: 2898 283d 4034 103d 482a 163e 17d2 553e
00000320: ab8a 91be bc38 c83d 5adb a0bd 521a 96bd
00000330: cd11 1d3e f505 aabb a05c 68be c3f1 ab3e
00000340: 6435 1b3e 95ef 213e 1098 113e 6b75 a53c
00000350: 5e26 953d 0540 6e3e 0028 afbc 922e 1e3e
00000360: 1071 4abe 8469 443e 125b 61be a61b 783d
00000370: 6db7 51bd 638e 36be bd2d 1b3e ae3f 08be
00000380: 9932 b13d 65cb f3bd 32f3 883e 1c45 23be
00000390: 7ee8 9ebe 52ee a53e c1f2 a73c ff18 d4bd
000003a0: b780 71bc e0d9 7fbe 2f6d 843c 41d2 8c3e
000003b0: 1b51 d63d 1a01 27be 2886 093e 67cf 9a3e
000003c0: 11da 913e 9e64 4a3e 7739 a03e 1e79 c73d
000003d0: 5462 49be 7d6f bf3d 887a 9dbe 0475 d4bd
000003e0: 6bf0 a1be 2c58 923b 168c 993d 05db 923e
000003f0: 5f0b e53b 5221 73be 4c04 ddbd 1da0 863d

conv1.bias f4 [64]
0.28558263 -0.106807105 0.28655797 0.17060839 -0.14257796 0.12164705 -0.03776445 -0.31920934
-0.18279915 -0.26089463 0.29622546 0.034714915 -0.26805213 -0.06352689 0.24711989 -0.23621225
-0.3046306 -0.32188463 0.10779158 -0.2724367 0.3419495 -0.29244515 -0.26447 -0.3276164
0.19405495 0.06680002 0.17902964 0.023094948 -0.011299243 -0.3015264 0.017503157 0.12547751
0.009078035 -0.0975151 -0.14609182 0.1835152 0.28027308 0.24735284 0.11366656 -0.24682283
0.28321096 -0.32517233 -0.15530919 0.2820069 0.16481921 -0.05661621 -0.13734834 0.12906273
-0.056853026 0.13540268 -0.14101526 0.34125504 0.022953065 -0.1356752 -0.31038356 -0.042521857
-0.15144832 0.044700712 0.31899723 -0.19131993 -0.26725343 -0.29439613 -0.05254759 -0.30635494
00000000: e337 923e afbd dabd bab7 923e f7b3 2e3e
00000010: f5ff 11be 1722 f93d e5ae 1abd 686f a3be
00000020: b32f 3bbe fb93 85be ddaa 973e 3a31 0e3d
00000030: 213e 89be 631a 82bd ff0c 7d3e a0e1 71be
00000040: 8bf8 9bbe 10ce a4be d5c1 dc3d d37c 8bbe
00000050: 0114 af3e 5fbb 95be 9d68 87be 56bd a7be
00000060: 57b6 463e 73ce 883d 8c53 373e 9e31 bd3c
00000070: 7620 39bc ab61 9abe c862 8f3c 2d7d 003e
00000080: 0abc 143c ffb5 c7bd 1899 15be 69eb 3b3e
00000090: f47f 8f3e 104a 7d3e 03ca e83d 20bf 7cbe
000000a0: 0701 913e fd7c a6be 5f09 1fbe 3563 903e
000000b0: 5ec6 283e 66e6 67bd 0ba5 0cbe 0529 043e
000000c0: b8de 68bd 00a7 0a3e 4e66 10be fbb8 ae3e
000000d0: 1108 bc3c 71ee 0abe 98ea 9ebe 662b 2ebd
000000e0: 4515 1bbe 1818 373d 9b53 a33e 5fe9 43be
000000f0: 71d5 88be 17bb 96be 243c 57bd 8eda 9cbe

conv2.weight f4 [32, 64, 3, 3]
0.044433523 0.046919603 0.0010883143 -0.003942393 0.03127167 -0.014360664 0.0097939065 -0.026302611
-0.00032171953 0.03146604 0.0072230673 -0.0010445392 -0.031983346 -0.026175397 0.02267642 0.019829437
0.0027140023 0.03626705 -0.029376289 0.026433943 0.008047585 0.004711182 0.024152158 0.047654506
-0.023604112 -0.018198343 -0.010667315 -0.037055373 0.014649037 0.044388443 0.04150474 -0.021220107
0.030056972 0.008198941 -0.013752683 0.0421497 -0.040166773 -0.028927052 0.009321906 0.004170424
-0.033287954 0.026933577 -0.04832497 -0.042043123 0.023049925 0.040180802 0.028065536 -0.011557216
0.01774482 0.022491561 -0.009222971 -0.038269404 -0.028628793 -0.037084945 -0.025155434 0.037952583
0.00787338 0.035887137 0.02321054 -0.03888043 -0.02458584 0.0316816 -0.0032643122 0.038842376
0.00604786 0.024493609 0.0033719502 -0.011813363 -0.017439147 0.008890111 -0.028626408 -0.025380945
0.00462928 -0.019059863 0.029687567 -0.02021234 0.006791298 -0.04283177 -0.003935627 -0.02015597
-0.0043359594 0.024302816 -0.039526694 -0.037758984 -0.010564406 -0.03538001 -0.017762398 -0.028498264
-0.02980977 -0.036821876 0.017180307 -0.02922701 -0.021395447 -0.033039812 0.030701648 0.006351638
-0.017741647 0.04627039 -0.010166568 -0.04076388 -0.019244066 0.038918108 0.041405533 -0.032192063
0.0057553323 -0.026774285 0.019511925 0.029024614 0.022224497 0.0059685945 -0.03277362 -0.0074699777
-0.0025015855 0.01449739 -0.004559115 -0.0033159112 0.0022492686 -0.00937546 -0.028834324 -0.027145203
-0.0139008295 -0.042239722 -0.013700042 0.025210917 -0.0065719746 -0.00986559 0.012040327 -0.0072344174
-0.027371025 0.036089547 0.0078608915 0.041129082 0.02508943 0.04345825 0.019421393 -0.052537397
-0.051389776 -0.013520432 -0.044467963 -0.07302386 -0.010477918 -0.055954743 -0.03453192 -0.01142606
0.040328536 -0.014386799 0.039852973 -0.02568385 -0.035447434 -0.008430209 -0.019961312 0.018466454
-0.034270354 0.0008997985 -0.017369237 0.024529962 0.027564315 -0.029373368 -0.043039665 0.032498714
-0.031034438 -0.007260955 -0.006705095 -0.0017248148 0.016314704 -0.019623699 0.018032704 -0.014772666
-0.0072875903 0.0010953388 0.031394467 0.009786693 0.013361805 0.024482818 0.02801926 0.018252036
-0.007808787 -0.024787204 0.023355862 -0.02964313 0.0052224556 -6.449808e-05 0.014044062 0.002632171
0.012837196 0.010368274 0.025130073 -0.02100118 0.00046493145 0.01956819 0.041312914 -0.04002055
-0.0029182434 0.010340009 -0.029971138 0.0017077774 -0.020357963 -0.017849445 -0.012894234 0.027660184
-0.022879936 0.001483491 0.008204855 -0.009913277 0.029986396 -0.017660277 -0.020163562 -0.015781065
-0.010155977 0.007985106 0.0288118 0.024624256 0.0122468015 0.01759239 0.0038397878 0.012685681
0.006024237 0.04530746 0.003124235 0.021607438 0.03796229 0.03404392 0.012848561 -0.005979189
0.031791862 -0.026828008 -0.022831794 0.04081029 -0.009373964 -0.025285305 0.044826794 0.015221222
0.04778514 0.048342757 -0.035856992 -0.0036853359 0.013275598 -0.036007848 0.010919461 0.012458189
-0.013139129 0.0071803853 0.019738562 0.0111532435 0.014950418 0.012252192 -0.0013163679 -0.012768251
0.011118547 0.03808515 -0.005380368 0.009804871 -0.009014562 0.015931003 0.02263699 0.029259888
00000000: edff 353d c52e 403d c5a5 8e3a 312f 81bb
00000010: b916 003d fe48 6bbc 9f76 203c 9378 d7bc
00000020: 77ac a8b9 89e2 003d 7baf ec3b ebe8 88ba
00000030: f800 03bd c96d d6bc e6c3 b93c 5871 a23c
00000040: 67dd 313b c28c 143d 8ba6 f0bc ff8b d83c
00000050: 05da 033c 4260 9a3b bfda c53c 5f31 433d
00000060: 695d c1bc b114 95bc f6c5 2ebc 60c7 17bd
00000070: 8402 703c a8d0 353d e000 2a3d cad5 adbc
00000080: 0a3a f63c da54 063c ef52 61bc 2aa5 2c3d
00000090: ea85 24bd 6df8 ecbc e8ba 183c 0da8 883b
000000a0: f358 08bd cea3 dc3c 67f0 45bd 6935 2cbd
000000b0: 32d3 bc3c a094 243d b2e9 e53c 7a5a 3dbc
000000c0: 965d 913c 3940 b83c f21b 17bc 61c0 1cbd
000000d0: ee86 eabc 62e6 17bd c512 cebc 2b74 1b3d
000000e0: 59ff 003c 64fe 123d 0824 be3c 1641 1fbd
000000f0: 3e68 c9bc 91c4 013d 12ee 55bb 2f19 1f3d
00000100: 202d c63b d2a6 c83c f0fb 5c3b d68c 41bc
00000110: 8bdc 8ebc d4a7 113c ee81 eabc b3eb cfbc
00000120: 37b1 973b 6e23 9cbc 5733 f33c 5994 a5bc
00000130: 8989 de3b 5e70 2fbd 6ff6 80bb 221e a5bc
00000140: aa14 8ebb b316 c73c bee6 21bd 2aa9 1abd
00000150: 5516 2dbc a1ea 10bd 7382 91bc 3175 e9bc
00000160: 9e33 f4bc 89d2 16bd b7bd 8c3c 7c6d efbc
00000170: 8145 afbc c154 07bd 0682 fb3c 6721 d03b
00000180: ee56 91bc 0586 3d3d ad91 26bc 07f8 26bd
00000190: bba5 9dbc 9868 1f3d d998 293d d3db 03bd
000001a0: 3a97 bc3b bf55 dbbc 79d7 9f3c 07c5 ed3c
000001b0: 2610 b63c 3394 c33b a23d 06bd b7c6 f4bb
000001c0: a4f1 23bb 7686 6d3c a164 95bb c24f 59bb
000001d0: 7768 133b 889b 19bc f635 ecbc 9e5f debc
000001e0: 4ec0 63bc 8f03 2dbd 2476 60bc 2087 ce3c
000001f0: b859 d7bb 49a3 21bc cb44 453c b10e edbb
00000200: 3339 e0bc a2d2 133d f8ca 003c f876 283d
00000210: 5988 cd3c 4701 323d 9d19 9f3c 7431 57bd
00000220: 167e 52bd cd84 5dbc 0a24 36bd 898d 95bd
00000230: 93ab 2bbc cd30 65bd 5871 0dbd 5f34 3bbc
00000240: 892f 253d 9cb6 6bbc df3c 233d f066 d2bc
00000250: 5431 11bd dc1e 0abc e885 a3bc f646 973c
00000260: 125f 0cbd 75e0 6b3a ee49 8ebc 0ff3 c83c
00000270: 8fce e13c 6ba0 f0bc 5c4a 30bd 5f1d 053d
00000280: ef3b febc 4eed edbb 6ab6 dbbb 2e13 e2ba
00000290: 6aa6 853c e1c1 a0bc 52b9 933c 0d09 72bc
000002a0: bdcc eebb 7991 8f3a 7c97 003d 5e58 203c
000002b0: 79eb 5a3c 3190 c83c a688 e53c 4b85 953c
000002c0: dae0 ffbb 890e cbbc cb54 bf3c 26d6 f2bc
000002d0: 2221 ab3b 2543 87b8 1119 663c 8080 2c3b
000002e0: 1a53 523c b1df 293c 95dd cd3c ab0a acbc
000002f0: 0bc2 f339 784d a03c bb37 293d 97ec 23bd
00000300: 0040 3fbb 2469 293c 0886 f5bc 80d7 df3a
00000310: bec5 a6bc 0039 92bc 5642 53bc 9c97 e23c
00000320: b46e bbbc b371 c23a a86d 063c 4c6b 22bc
00000330: 08a6 f53c 49ac 90bc 0e2e a5bc 4b47 81bc
00000340: 4165 26bc f6d3 023c b906 ec3c cfb8 c93c
00000350: cfa6 483c ea1d 903c f3a4 7b3b 9ad7 4f3c
00000360: f666 c53b 5194 393d f7bf 4c3b 1502 b13c
00000370: 597e 1b3d a371 0b3d c582 523c 13ed c3bb
00000380: 2f38 023d 69c6 dbbc be09 bbbc b128 273d
00000390: 4195 19bc 2123 cfbc 4d9c 373d 6f62 793c
000003a0: 5aba 433d 0e03 463d c8de 12bd ad85 71bb
000003b0: e581 593c f77c 13bd 8ae7 323c 6f1d 4c3c
000003c0: 8045 57bc 7049 eb3b c4b2 a13c 18bc 363c
000003d0: 99f2 743c 6bbd 483c fa89 acba ed31 51bc
000003e0: 912a 363c 2dff 1b3d cc4d b0bb 9ca4 203c
000003f0: d0b1 13bc bc81 823c 3571 b93c 6fb2 ef3c

conv2.bias f4 [32]
0.0059535326 -0.020938428 -0.04496894 0.033052254 -0.015275845 -0.0071412367 0.038641937 -0.020778319
0.04067321 0.008355942 -0.011847293 0.033047922 -0.029578106 -0.024111088 -0.031717893 0.007479954
-0.030523447 -0.011954611 0.0040705665 0.011668908 0.003011702 0.0059304275 0.016533637 0.014028242
0.029638166 0.016541269 0.008281864 0.03405914 0.022706892 -0.0220091 -0.03595682 0.015961241
00000000: da15 c33b 1187 abbc 5a31 38bd cd61 073d
00000010: 8a47 7abc 0901 eabb 0247 1e3d 4b37 aabc
00000020: f498 263d 5ce7 083c 261b 42bc 425d 073d
00000030: c94d f2bc 9e84 c5bc 9fea 01bd 671a f53b
00000040: 4f0c fabc 46dd 43bc 6362 853b f32e 3f3c
00000050: fa5f 453b 0854 c23b 8d71 873c b6d6 653c
00000060: bdcb f23c 8e81 873c a8b0 073c 9981 0b3d
00000070: ce03 ba3c 6e4c b4bc 7547 13bd 26c1 823c

conv3.weight f4 [12, 32, 3, 3]
0.011907261 0.011688265 0.0071497248 0.018711593 -0.018715208 0.0029101453 0.03186581 -0.027841855
-0.038944915 -0.014946643 -0.0028280255 -0.00018126989 0.031386595 -0.044259835 0.0047147498 -0.018260052
-0.0086315 -0.056257106 0.03408825 0.036796104 0.028533995 0.015390928 -0.042116165 -0.0011992456
-0.02545748 -0.029582825 0.027719755 0.020586502 -0.0015970517 -0.057750273 -0.05026019 -0.009756434
-0.05936036 -0.02042923 -0.0298009 0.008795077 -0.033233546 -0.0043938626 0.051728662 -0.04496005
0.01745143 -0.052949388 -0.04605123 -0.046364915 -0.0581612 0.04329125 -0.009658613 -0.0027127343
0.04955095 0.01097808 -0.049063724 -0.01114266 -0.03747642 0.017779881 0.028457228 0.008429859
-0.022057047 -0.003181059 -0.0511513 -0.061742403 0.017034264 0.05453934 0.00018263845 0.026152547
0.041277893 -0.0073594465 -0.04859691 0.02757469 0.0010691074 0.037531406 -0.040292833 0.0007583967
0.011492888 -0.010673687 0.009266765 -0.047197822 -0.030731354 0.01053525 0.050172348 -0.020791924
0.033141818 -0.0051096557 -0.03405868 -0.041402034 -0.050371215 -0.015749058 0.019598663 0.033281997
0.011120698 -0.018592935 0.031042268 -0.034428906 -0.044917695 0.0061890436 0.042413875 -0.0050138114
0.024221433 0.013400939 0.057653468 -0.036118064 -0.026352793 -0.042199753 0.030339764 -0.036355674
0.048967343 -0.043545432 -0.032992367 -0.007273912 -0.029612817 -0.023506632 0.006446889 0.04638058
0.01406771 -0.056082893 0.020097986 0.017039636 -0.025488887 0.052872498 -0.034101408 -0.051176254
-0.028393768 0.039380793 -0.0010042448 0.0045240573 -0.018012453 0.05113114 -0.050039396 -0.016272007
-0.058185864 -0.05936638 -0.02934928 0.051112782 0.055481154 -0.03474657 -0.0019598133 0.023126166
0.043539952 -0.0028542804 -0.020748422 -0.01564596 -0.006967013 0.039366156 -0.002939585 -0.040425804
-0.05482052 -0.016917642 -0.037048746 0.0430833 0.04543235 -0.017162975 -0.05687434 0.034479927
-0.055902455 -0.014155148 0.008445582 0.042729393 -0.022216825 -0.013690589 0.037589967 -0.0054833605
-0.04705609 0.025902621 -0.027858872 0.008677084 -0.047277264 -0.009230673 -0.042321857 0.020490825
-0.0041441233 0.0058708224 0.05315358 -0.013740546 -0.039889067 0.02102657 -0.013479927 0.0001246431
-0.015371271 0.0489387 -0.04161504 0.027614392 0.034167346 0.024651986 -0.022163233 0.023353932
-0.06036456 -0.020971455 -0.029912755 -0.0072081103 0.016950127 0.01837843 0.037141092 -0.0013044929
0.013141188 0.027412593 -0.029590586 0.044379592 -0.058906045 0.018594263 -0.047888063 -0.020788804
0.0035277987 0.016634425 -0.0495204 0.04023696 0.0073516243 0.016854074 -0.05059854 0.0071095023
-0.0063959495 0.022807283 0.00298391 -0.02754475 -0.011126491 -0.036223568 0.0097836265 0.017045902
0.022463221 0.018244164 0.007954217 0.048862632 0.043259405 0.017975967 -0.026300196 0.016053276
-0.062340956 0.038818385 -0.030129494 -0.06329859 -0.001180374 0.011070883 0.03977934 -0.021526208
0.048369896 0.032353677 -0.029696804 0.017502943 -0.004789826 -0.0090820035 0.00909059 0.05124424
0.019573556 -0.0044276654 0.02784791 0.0061297296 0.045129865 0.036447696 0.0401805 -0.007649379
-0.03617186 0.03148272 -0.0317523 0.0053221085 -0.023101093 -0.00040484482 -0.027439665 0.042075146
00000000: ac16 433c 2380 3f3c 3d48 ea3b 0e49 993c
00000010: a350 99bc 23b8 3e3b b985 023d 9a14 e4bc
00000020: b484 1fbd c4e2 74bc 6556 39bb 4413 3eb9
00000030: 3b8f 003d cd49 35bd 307e 9a3b 1b96 95bc
00000040: 236b 0dbc da6d 66bd 1fa0 0b3d 83b7 163d
00000050: 20c0 e93c 3b2a 7c3c 0082 2cbd 0130 9dba
00000060: 358c d0bc ae57 f2bc 8a14 e33c 06a5 a83c
00000070: 2a54 d1ba 8d8b 6cbd a1dd 4dbd 73d9 1fbc
00000080: d923 73bd 335b a7bc 0421 f4bc 3a19 103c
00000090: e61f 08bd 64fa 8fbb 6fe1 533d 0828 38bd
000000a0: 4df6 8e3c 75e1 58bd 37a0 3cbd 23e9 3dbd
000000b0: 703a 6ebd 2a52 313d 293f 1ebc 21c8 31bb
000000c0: f0f5 4a3d 68dd 333c 0bf7 48bd b48f 36bc
000000d0: e080 19bd 1da7 913c 221f e93c 641d 0a3c
000000e0: fbb0 b4bc 5079 50bb 0784 51bd 9ae5 7cbd
000000f0: 718b 8b3c a564 5f3d a382 3f39 de3d d63c
00000100: 0213 293d 8327 f1bb 8e0d 47bd 51e4 e13c
00000110: 4b21 8c3a 88ba 193d 190a 25bd 24cf 463a
00000120: ab4c 3c3c b0e0 2ebc a1d3 173c 8152 41bd
00000130: 52c0 fbbc 0b9c 2c3c 8581 4d3d d353 aabc
00000140: b7bf 073d e66e a7bb 1d81 0bbd 2e95 29bd
00000150: 0c52 4ebd 2b04 81bc 608d a03c b452 083d
00000160: 9733 363c 3650 98bc 5b4c fe3c 5305 0dbd
00000170: 9efb 37bd 76cd ca3b 2cba 2d3d e64a a4bb
00000180: 076c c63c 9d8f 5b3c 0b26 6c3d 89f0 13bd
00000190: d0e1 d7bc a6d9 2cbd 198b f83c b0e9 14bd
000001a0: fb91 483d b25c 32bd 0123 07bd ff59 eebb
000001b0: 9496 f2bc fb90 c0bc 6d40 d33b 90f9 3d3d
000001c0: 417c 663c 2db7 65bd 88a4 a43c b596 8b3c
000001d0: 12ce d0bc d590 583d ebad 0bbd 319e 51bd
000001e0: 0c9a e8bc c14d 213d dda0 83ba 8b3e 943b
000001f0: da8e 93bc e36e 513d 1cf6 4cbd df4c 85bc
00000200: 4d54 6ebd 292a 73bd e76d f0bc a35b 513d
00000210: 3540 633d 6b52 0ebd 3670 00bb 1673 bd3c
00000220: f356 323d e10e 3bbb 98f8 a9bc f52b 80bc
00000230: 8a4b e4bb 683e 213d 0da6 40bb 8795 25bd
00000240: 7b8b 60bd de96 8abc 6dc0 17bd 1d78 303d
00000250: 4617 3a3d 5e99 8cbc 11f5 68bd d33a 0d3d
00000260: f9f9 64bd feea 67bc 575f 0a3c 0405 2f3d
00000270: 0f00 b6bc 7e4e 60bc f0f7 193d c3ad b3bb
00000280: e3bd 40bd bc31 d43c 4a38 e4bc 542a 0e3c
00000290: cea5 41bd 403c 17bc af59 2dbd 60dc a73c
000002a0: 6dcb 87bb 0760 c03b 91b7 593d 0720 61bc
000002b0: b862 23bd ea3f ac3c e9da 5cbc a1b2 0239
000002c0: c9d7 7bbc f273 483d 8874 2abd 9437 e23c
000002d0: 0ff3 0b3d f6f2 c93c ab8f b5bc bf50 bf3c
000002e0: d440 77bd 54cc abbc 980b f5bc 0332 ecbb
000002f0: feda 8a3c 5c8e 963c 4221 183d 85fb aaba
00000300: 234e 573c 6090 e03c f567 f2bc 60c7 353d
00000310: 7747 71bd ff52 983c 4626 44bd 484d aabc
00000320: a432 673b eb44 883c e7d5 4abd 83cf 243d
00000330: e5e5 f03b 8e11 8a3c 6a40 4fbd d4f6 e83b
00000340: 1d95 d1bb 57d6 ba3c b48d 433b 87a5 e1bc
00000350: e34b 36bc 2a5f 14bd 814b 203c d9a3 8b3c
00000360: ca04 b83c c974 953c 6752 023c 2f24 483d
00000370: c630 313d 5642 933c 8273 d7bc 2982 833c
00000380: 3b59 7fbd 0700 1f3d 21d2 f6bc b1a2 81bd
00000390: c7b6 9aba a662 353c a9ef 223d bb57 b0bc
000003a0: 831f 463d 4a85 043d b646 f3bc 5562 8f3c
000003b0: f9f3 9cbb afcc 14bc b3f0 143c 7be5 513d
000003c0: b958 a03c f315 91bb 4d21 e43c e6db c83b
000003d0: 18da 383d 2e4a 153d 4f94 243d a4a7 fabb
000003e0: f228 14bd 06f4 003d b30e 02bd 1565 ae3b
000003f0: 813e bdbc 5a41 d4b9 26c9 e0bc fd56 2c3d

conv3.bias f4 [12]
-0.0066339485 -0.019669576 0.05787833 0.071242556 -0.015958242 0.0067592175 -0.016530676 -0.044504803
0.009493922 0.037397247 0.01906067 0.0381972
00000000: 9861 d9bb 1722 a1bc d411 6d3d 9ee7 913d
00000010: dcba 82bc 6d7c dd3b 576b 87bc ab4a 36bd
00000020: 658c 1b3c db2d 193d 1f25 9c3c ab74 1c3d

fc1.weight f4 [24, 588]
0.027597165 -0.04001851 -0.043133378 -0.030527603 0.0012958243 -0.004881692 -0.006139301 0.032810718
-0.012505986 0.03080547 0.012995049 0.0051478827 -0.018955857 -0.032240234 0.019447066 -0.035874475
-0.0011979255 -0.022987703 0.015234809 -0.02232136 -0.03942406 -0.006107694 0.023797687 -0.024623385
-0.041625053 -0.014791157 0.0029401 0.035081364 -0.023831151 -0.0208796 0.014212144 -0.000101247
-0.0035620823 -0.028314533 -0.04102948 0.0062701926 -0.0108218575 0.018061139 0.01019735 0.035456643
-0.033882625 -0.032659423 0.031488862 -0.008948822 0.037747506 0.036382746 0.0030352173 0.0021315266
-0.03160596 -0.0016736641 0.008713946 -0.03508726 0.01209202 0.021523787 0.035715275 0.030191334
-0.0037009337 -0.024152108 0.012249628 -0.03489444 0.020462697 -0.001530643 0.007357138 0.010140824
0.022500081 0.03579443 0.00825362 0.020732967 -0.011407266 -0.014126233 -0.018273802 -0.04551522
-0.02711539 0.0013184581 0.0012148253 -0.022667801 0.018225037 -0.03380142 -0.044286888 0.036079314
-0.025774984 -0.014035075 -0.015210173 0.0009761925 -0.014320803 -0.031695936 -0.027320646 -0.021323731
0.026599487 0.01952173 0.03662762 0.033159323 0.00019263556 0.024585342 -0.021477241 -0.0077721127
0.030647103 -0.02099141 0.0129549755 -0.038081985 0.01602174 0.016995203 -0.002533931 0.009359227
0.028533485 -0.023860095 0.019525256 0.02710736 -0.044113684 -0.039584257 -0.045630224 0.0074724
0.013861261 0.018546142 -0.022991626 0.016860465 0.017056253 0.011061787 -0.03323861 0.01694848
-8.4912805e-05 0.022300025 0.017490242 0.013212705 0.028116133 -0.026283935 -0.026485033 0.031775672
0.018340416 -0.013391976 -0.028544975 -0.025434509 0.007829868 0.009606009 -0.037786175 0.015997421
-0.04411 0.0077793086 -0.0017425513 0.0092474455 0.0027538901 -0.033394344 0.018847192 -0.02258052
0.03351269 -0.047170233 -0.032212045 0.007422433 -0.0138577875 -0.03506721 -0.034681045 -0.03969522
-0.044557586 -0.03625764 -0.031678073 -0.007818238 -0.0033988412 0.0148618845 0.028855346 -0.02111876
-0.011282885 0.009814561 -0.012874278 -0.02594857 0.0113658905 0.031946145 0.0315572 0.028431153
0.024787905 -0.039052974 -0.0023190512 -0.006810432 -0.02092788 -0.033268493 -0.03317989 -0.027237661
-0.016493522 0.0035672574 -0.024495326 0.0145727005 -0.017768987 0.0053968034 -0.044361405 -0.0022342533
-0.005133803 -0.045062903 0.011762439 -0.032255948 -0.018033233 -0.041533012 -0.04561468 0.006146909
-0.013012806 0.0066663697 0.005957492 0.00041714424 -0.024711601 0.023117865 -0.04454223 -0.0019037459
0.030145064 0.017196588 0.038813148 0.005931142 0.0062938537 0.034317184 0.0008440235 -0.027427254
-0.028153375 0.015407906 -0.011253456 0.028380932 -0.010948564 0.018064322 -0.029635431 0.024870796
0.030618597 -0.0046665655 -0.005167479 -0.03893986 0.0012158281 -0.044146486 -0.0018229327 0.010086265
-0.021473123 -0.026214454 -0.01479669 -0.022071287 0.021744866 -0.027088221 -0.03978148 -0.029285751
0.012919746 0.017590215 0.00039397765 -0.040771253 -0.024701763 -0.0063538426 -0.028974516 -0.012354191
-0.026521122 0.0067304303 0.033413198 0.014510162 -0.034524757 0.014673666 0.03081833 0.006637247
-0.034899365 -0.03581727 -0.017538702 0.030367807 0.03210617 -0.030989425 -0.029386388 0.0197387
00000000: 7313 e23c 73ea 23bd a0ac 30bd 0615 fabc
00000010: a6d8 a93a 9af6 9fbb 312c c9bb 8864 063d
00000020: e8e5 4cbc c15b fc3c 30e9 543c 92af a83b
00000030: 5049 9bbc 560e 04bd 744f 9f3c 1df1 12bd
00000040: b603 9dba b550 bcbc 6c9b 793c 49db b6bc
00000050: 207b 21bd 0d23 c8bb 5ef3 c23c fbb6 c9bc
00000060: 087f 2abd 9c56 72bc b1ae 403b 7ab1 0f3d
00000070: 8c39 c3bc b20b abbc 0dda 683c 9254 d4b8
00000080: d371 69bb e1f3 e7bc 870e 28bd 3076 cd3b
00000090: 294e 31bc f4f4 933c c912 273c fc3a 113d
000000a0: 82c8 0abd e3c5 05bd 77fa 003d 149e 12bc
000000b0: 219d 1a3d 1306 153d 7fea 463b 15b1 0b3b
000000c0: 4075 01bd d95e dbba f0c4 0e3c a9b7 0fbd
000000d0: 9c1d 463c a752 b03c 2e4a 123d d153 f73c
000000e0: 5d8b 72bb a4da c5bc aab2 483c 79ed 0ebd
000000f0: 63a1 a73c db9f c8ba 2614 f13b b325 263c
00000100: 1752 b83c 2e9d 123d 313a 073c 2fd8 a93c
00000110: 8be5 3abc b771 67bc f1b2 95bc 2b6e 3abd
00000120: 1821 debc 1dd0 ac3a c63a 9f3a d3b1 b9bc
00000130: ac4c 953c 5c73 0abd 2b66 35bd e7c7 133d
00000140: 0f26 d3bc 5ff3 65bc 1734 79bc 2be7 7f3a
00000150: cda1 6abc 99d3 01bd 8ccf dfbc 1baf aebc
00000160: 2be7 d93c 09ec 9f3c d806 163d 12d2 073d
00000170: 37fe 4939 3367 c93c 0af1 afbc 35ad febb
00000180: a20f fb3c 2df6 abbc 1b41 543c dbfb 1bbd
00000190: 0640 833c 8639 8b3c 4f10 26bb 7157 193c
000001a0: 0ebf e93c 3f76 c3bc 6ef3 9f3c 4110 de3c
000001b0: 8db0 34bd 1a23 22bd c2e6 3abd 09db f43b
000001c0: 581a 633c 14ee 973c ef58 bcbc f51e 8a3c
000001d0: 8eb9 8b3c 7f3c 353c 3525 08bd 8ad7 8a3c
000001e0: 3713 b2b8 8bae b63c b247 8f3c 1a7a 583c
000001f0: ce53 e63c 6851 d7bc 24f7 d8bc 3527 023d
00000200: a43e 963c 056a 5bbc 27d7 e9bc 085c d0bc
00000210: d948 003c 8662 1d3c adc5 1abd 060d 833c
00000220: b0ac 34bd 92e9 fe3b 5266 e4ba 9982 173c
00000230: 9c7a 343b 82c8 08bd 6d65 9a3c c8fa b8bc
00000240: 9a44 093d 9335 41bd c7f0 03bd e137 f33b
00000250: c60b 63bc a3a2 0fbd b60d 0ebd 7497 22bd
00000260: 0482 36bd e482 14bd dec0 01bd 1118 00bc
00000270: 18bf 5ebb 437f 733c 0c62 ec3c 4001 adbc
00000280: dadb 38bc 41cd 203c a3ee 52bc 1892 d4bc
00000290: 0038 3a3c f6d9 023d 1f42 013d 73e8 e83c
000002a0: 0110 cb3c 03f6 1fbd 39fb 17bb 0b2a dfbb
000002b0: f270 abbc 8b44 08bd a3e7 07bd 8421 dfbc
000002c0: 6c1d 87bc a6c8 693b 6caa c8bc 56c2 6e3c
000002d0: 4490 91bc abd7 b03b 4eb4 35bd 8d6c 12bb
000002e0: 7639 a8bb e193 38bd 3fb7 403c d01e 04bd
000002f0: 6eba 93bc 851e 2abd 75d6 3abd 036c c93b
00000300: aa33 55bc 9071 da3b 1137 c33b 27b4 da39
00000310: fc6f cabc ad61 bd3c ea71 36bd 1d87 f9ba
00000320: c8f2 f63c dcdf 8c3c 89fa 1e3d 065a c23b
00000330: ac3c ce3b 2d90 0c3d 7541 5d3a 1faf e0bc
00000340: e8a1 e6bc 7171 7c3c 6a60 38bc 217f e83c
00000350: 9b61 33bc a1fb 933c 01c6 f2bc d7bd cb3c
00000360: dad3 fa3c fde9 98bb f553 a9bb 677f 1fbd
00000370: 6c5c 9f3a f2d2 34bd 79ef eeba dd40 253c
00000380: 67e8 afbc b2bf d6bc d16d 72bc d8ce b4bc
00000390: 4a22 b23c 1ee8 ddbc e8f1 22bd ace8 efbc
000003a0: 58ad 533c 5b19 903c c98e ce39 c2ff 26bd
000003b0: 5a5b cabc e533 d0bb f75b edbc 3c69 4abc
000003c0: d342 d9bc f18a dc3b 47dc 083d 08bc 6d3c
000003d0: d569 0dbd d169 703c b976 fc3c 437d d93b
000003e0: a3f2 0ebd 21b5 12bd 53ad 8fbc e8c5 f83c
000003f0: c281 033d 89dd fdbc b9bb f0bc 0eb3 a13c

fc1.bias f4 [24]
-0.031508714 0.004232265 0.0044014207 0.006832549 0.031434335 -0.030983577 0.023105163 0.057227466
-0.014309184 0.045591615 0.035091713 0.0100464905 -0.022127917 0.026504777 0.02872622 0.010859807
-0.04152006 0.037068043 0.0011649567 0.01054288 0.0022772173 0.015265038 0.028075973 -0.014325648
00000000: 480f 01bd d0ae 8a3b cb39 903b 93e3 df3b
00000010: 4ac1 003d 45d1 fdbc 0a47 bd3c 5967 6a3d
00000020: 1171 6abc 46be 3a3d 54bc 0f3d 099a 243c
00000030: 9b45 b5bc 8c20 d93c 4053 eb3c 55ed 313c
00000040: f010 2abd a9d4 173d 76b1 983a 0bbc 2c3c
00000050: 5e3d 153b 361a 7a3c 95ff e53c 1fb6 6abc

fc2.weight f4 [588, 24]
-0.013787175 -0.038178697 0.017490271 0.11631885 0.041947234 0.01457291 0.110438675 0.12236596
-0.17931579 0.15704796 -0.03654305 -0.046604574 -0.10510717 -0.11338964 -0.15022857 0.08311665
-0.13377339 0.08646808 0.15968557 0.16193661 0.025651041 -0.11200182 0.049837533 -0.12547109
-0.014114401 0.039707962 -0.049456485 -0.106320746 -0.15345287 -0.04148453 0.030209051 -0.17824924
0.19289935 -0.044716444 0.0756092 -0.16452001 -0.1327285 0.00460455 -0.062129054 0.08214791
0.02612947 -0.06924455 0.08086475 -0.034905452 -0.1291024 0.13547952 -0.07626815 0.18641749
0.19227985 -0.057316773 0.07971584 -0.20857084 -0.16884641 0.18815161 -0.07167911 0.0901907
0.017940598 0.12271946 0.031580873 0.18873847 0.15787765 0.03982425 -0.1512994 -0.067299396
0.1741455 -0.10001064 -0.09365911 -0.08683135 0.17262678 0.066346474 -0.09224037 -0.105511054
0.0225064 -0.18493961 0.1264036 0.19208984 -0.21264729 -0.0040367097 0.040549967 0.12133646
-0.07784808 -0.092192076 -0.21175605 -0.043576956 0.081214905 -0.0017776894 0.014075442 -0.20739032
-0.16912931 -0.14205395 -0.0830562 -0.017773725 0.021771694 0.1864118 -0.0686335 0.16380006
-0.1761154 0.04991556 -0.13958515 0.15315823 0.02601029 0.059579924 0.08629133 0.14031209
0.07581518 -0.048797384 -0.20934676 -0.06109073 -0.16238381 0.13248612 0.032237045 0.16439646
-0.033289045 -0.14782631 0.06161796 -0.1860069 0.18125583 -0.15521963 -0.1552924 -0.047070414
0.050134897 -0.048342258 0.12832984 -0.007926911 0.172221 -0.14959502 0.112339765 -0.13994232
-0.18188676 0.04738447 0.08729175 -0.02327688 -0.03427607 -0.12199294 0.041975543 0.024940059
-0.18318608 -0.1040037 0.08313623 -0.16786212 0.07615334 -0.03954339 -0.18465826 0.05685085
-0.20329508 0.1674619 -0.15760586 -0.022191703 0.05347836 0.035795152 -0.14875132 -0.14159997
-0.060965583 0.111716986 -0.16165979 -0.17617925 0.07420182 -0.10087643 -0.083780885 0.08186978
0.054847628 0.13932604 -0.097213626 0.06199512 -0.17882708 0.12720916 0.04211104 -0.115032
0.06553261 -0.0755672 0.08916932 -0.1481253 0.16574487 -0.13444918 -0.006422147 0.0965126
0.13155994 0.027201418 0.050185036 -0.21480986 -0.11070258 -0.21259002 -0.14013809 0.19443607
0.15652514 0.15822688 -0.18538472 0.040411767 0.1540381 0.1318506 0.1668464 -0.0073385984
-0.03947266 0.14031473 -0.093725815 -0.017854284 -0.075721726 -0.015345646 -0.046002932 -0.04366228
0.002269822 -0.07453063 -0.059153814 -0.024268894 -0.008097007 0.03186541 -0.2028113 0.18589705
-0.17790703 -0.022015765 -0.11911482 -0.19070293 -0.1414603 -0.110680215 -0.09897978 0.17051515
-0.102129415 0.074573025 -0.1638281 0.16023691 -0.099554606 -0.08222843 0.1649658 -0.004114811
0.098517 -0.028321655 0.1237436 0.102395006 -0.14765091 -0.21153283 -0.12955426 0.000836208
-0.13200514 -0.15427409 -0.053532682 -0.16891761 0.07230012 0.11293367 0.05831457 0.053711448
-0.04996356 -0.026836365 -0.15085378 -0.12295557 0.17583837 -0.042947657 -0.028051868 -0.09533002
-0.13014607 0.0065952553 -0.057615865 0.060168605 -0.027296856 0.021768613 0.117307454 0.12620252
00000000: 9ae3 61bc 4461 1cbd c247 8f3c 9438 ee3d
00000010: ddd0 2b3d 37c3 6e3c ac2d e23d 019b fa3d
00000020: 8f9e 37be 2ed1 203e 2aae 15bd 70e4 3ebd
00000030: 6e42 d7bd d438 e8bd 85d5 19be 1039 aa3d
00000040: e4fb 08be 2d16 b13d 9d84 233e b6d2 253e
00000050: 2222 d23c 3661 e5bd 7122 4c3d 7e7b 00be
00000060: 1740 67bc d1a4 223d e292 4abd b1be d9bd
00000070: c022 1dbe afeb 29bd f978 f73c f886 36be
00000080: 6887 453e 9728 37bd ffd8 9a3d ef77 28be
00000090: fbe9 07be c4e1 963b 097b 7ebd 2a3d a83d
000000a0: 780d d63c 16d0 8dbd 6b9c a53d 05f9 0ebd
000000b0: 6b33 04be 25bb 0a3e 7a32 9cbd 3ae4 3e3e
000000c0: 02e5 443e fec4 6abd 0f42 a33d 9893 55be
000000d0: 13e6 2cbe d1aa 403e 7fcc 92bd e7b5 b83d
000000e0: 29f8 923c 5754 fb3d f25a 013d a844 413e
000000f0: aeaa 213e c11e 233d 3bee 1abe 44d4 89bd
00000100: 3353 323e 61d2 ccbd 59d0 bfbd a3d4 b1bd
00000110: 13c5 303e a9e0 873d 85e8 bcbd 2e16 d8bd
00000120: 575f b83c cf60 3dbe f26f 013e 33b3 443e
00000130: 36c0 59be 6046 84bb b917 263d 407f f83d
00000140: d06e 9fbd 33cf bcbd 94d6 58be c07d 32bd
00000150: 0054 a63d 5c01 e9ba af9c 663c 215e 54be
00000160: 3c30 2dbe 9776 11be 5e19 aabd 349a 91bc
00000170: 8d5a b23c bce2 3e3e b88f 8cbd 34bb 273e
00000180: 9857 34be 4274 4c3d 69ef 0ebe 83d5 1c3e
00000190: 8813 d53c 140a 743d 82b9 b03d f9ad 0f3e
000001a0: fd44 9b3d c4df 47bd ff5e 56be 463a 7abd
000001b0: f147 26be 71aa 073e fe0a 043d 8c57 283e
000001c0: 185a 08bd c85f 17be 1d63 7c3d 9878 3ebe
000001d0: 219b 393e e5f1 1ebe f904 1fbe e8cc 40bd
000001e0: 405a 4d3d 8802 46bd e668 033e e0df 01bc
000001f0: b45a 303e 702f 19be 6412 e63d 0a4d 0fbe
00000200: 8640 3abe 3816 423d 04c6 b23d 28af bebc
00000210: 1065 0cbd 6fd7 f9bd 8cee 2b3d 184f cc3c
00000220: 2295 3bbe e4ff d4bd 5443 aa3d 0ce4 2bbe
00000230: 48f6 9b3d 40f8 21bd 0e17 3dbe 70dc 683d
00000240: 962c 50be 227b 2b3e 6e63 21be 60cb b5bc
00000250: 200c 5b3d f09d 123d 4452 18be 95ff 10be
00000260: 0cb7 79bd e0cb e43d 258a 25be 5568 34be
00000270: 20f7 973d 4d98 cebd 5095 abbd 58ab a73d
00000280: e8a7 603d 7cab 0e3e f017 c7bd 98ee 7d3d
00000290: 721e 37be 1e43 023e a07c 2c3d e695 ebbd
000002a0: f635 863d fac2 9abd 689e b63d 29ae 17be
000002b0: 06b9 293e 0cad 09be e070 d2bb 66a8 c53d
000002c0: a6b7 063e 82d5 de3c d38e 4d3d 1ef7 5bbe
000002d0: 09b8 e2bd 33b1 59be 5c80 0fbe 401a 473e
000002e0: 2048 203e 3a06 223e 7ed5 3dbe cf86 253d
000002f0: 2abc 1d3e d803 073e c8d9 2a3e a078 f0bb
00000300: 15ae 21bd aaae 0f3e 52f3 bfbd 2643 92bc
00000310: fe13 9bbd 4e6c 7bbc 926d 3cbd 38d7 32bd
00000320: 4bc1 143b 84a3 98bd 454b 72bd 8fcf c6bc
00000330: 4fa9 04bc 4e85 023d c4ad 4fbe cc5b 3e3e
00000340: 432d 36be 685a b4bc 79f2 f3bd a147 43be
00000350: f8da 10be 4fac e2bd e9b5 cabd 869b 2e3e
00000360: 3a29 d1bd beb9 983d 8ec2 27be 2515 243e
00000370: 49e3 cbbd 6167 a8bd cbec 283e 89d5 86bb
00000380: 48c3 c93d d102 e8bc 496d fd3d 79b4 d13d
00000390: cd31 17be 109c 58be dfa9 04be f834 5b3a
000003a0: 5b2c 07be 07fa 1dbe 1645 5bbd bdf8 2cbe
000003b0: 1612 943d c549 e73d 42db 6e3d 8900 5c3d
000003c0: 97a6 4cbd f0d7 dbbc 6a79 1abe 21d0 fbbd
000003d0: f90e 343e e2e9 2fbd 08cd e5bc 633c c3bd
000003e0: 0345 05be 031d d83b 9dfe 6bbd 5b73 763d
000003f0: a89d dfbc 1754 b23c e43e f03d 3c3b 013e

fc2.bias f4 [588]
-0.23037276 0.07391971 -0.068495594 0.14980581 0.1784578 -0.0729285 -0.069576085 -0.12547761
0.14832717 0.13544038 -0.18150932 0.008779833 -0.09965334 0.032328464 0.083537206 0.0012832449
-0.18698934 0.072974846 0.0314823 0.101095945 -0.21067013 0.16734004 0.011271615 0.0023810177
0.119593516 0.019967569 0.017071387 -0.003094204 -0.045503218 0.1343765 0.09692158 -0.12636977
-0.09530177 0.122639604 -0.14857161 0.02807881 -0.07138781 0.009944799 0.17222965 -0.06250608
-0.12323969 -0.1907219 -0.021927759 0.10178438 -0.10662064 -0.16695097 -0.010955489 -0.010792485
0.14796253 0.16046076 -0.1606136 0.080547936 0.18470591 -0.17453146 -0.19817682 -0.0033246903
0.075479046 0.050282788 0.0029190383 0.02470383 -0.13928449 -0.20940875 0.007332965 -0.114003584
0.18282427 -0.18181854 -0.18114203 -0.1240289 -0.14898087 -0.18177289 0.1354047 0.06638023
-0.028834589 -0.1868192 0.21597116 0.11354521 0.06561317 -0.10432631 -0.11641045 -0.103434056
-0.16620232 -0.12133055 -0.13679394 0.14598848 0.082320474 0.12045954 0.044253297 -0.100947335
-0.1488788 -0.050802875 -0.13040823 -0.12738976 0.11457803 -0.06866763 -0.19208083 -0.20380192
-0.0628002 0.15216264 -0.08327263 0.037047233 0.1004801 0.20426954 0.1655116 0.083292544
0.18648446 -0.024053264 -0.1970854 -0.12297045 0.07404898 0.11704099 -0.08178391 -0.062012106
-0.062551826 -0.16289948 -0.044752926 0.04143715 0.015905544 -0.08703563 0.20412405 0.047423836
-0.09062115 0.07317822 -0.025883302 0.12810938 -0.07112764 0.10378929 -0.047284365 0.14114036
0.15858231 -0.015192789 -0.026360514 -0.03589955 0.09722027 0.025733896 -0.21580881 0.0082575455
-0.14123401 -0.101304 0.1065394 0.019884279 0.057025503 -0.08250406 -0.09044768 0.1626597
0.09761862 0.043453537 -0.073889375 -0.116466545 0.06334944 -0.07767008 -0.11548052 -0.042282805
-0.023599207 0.13176185 0.16949305 -0.013798997 0.26209193 -0.10143537 0.17703272 -0.16305213
-0.03659378 0.041732434 -0.071062185 -0.030212963 0.03411328 -0.0318691 -0.18059503 0.10282812
0.19015089 0.10392114 -0.05363631 -0.07727718 -0.12780337 0.15243739 -0.15377203 0.030328387
0.13726796 0.08586064 -0.072388716 0.10958521 -0.16525261 -0.044058736 0.16368598 0.18172298
-0.13593267 0.11102231 0.059019398 0.16552506 -0.113453284 0.07859205 0.17424558 -0.16178831
0.015491711 0.036259092 -0.08869299 0.09497361 0.23340008 0.072224595 0.063620575 -0.10297765
-0.10755198 -0.052556634 0.07225454 0.18343012 0.0975065 0.18264504 0.04703411 0.055223167
-0.0016412807 0.16286178 0.11938042 0.19441138 -0.1155237 0.09755339 0.04476787 0.10988826
-0.027229682 0.12305972 0.010582082 0.076648585 -0.20234989 -0.10622462 -0.078132376 0.015768137
0.06917891 -0.14102513 -0.108993046 -0.048541013 -0.1834371 -0.056977734 -0.010847853 0.0809002
0.21725602 0.01463429 0.066582434 0.1410338 0.03192078 -0.030635357 0.1723868 -0.012305184
0.06306721 0.09641066 0.05942882 0.1493769 -0.0736122 0.01739802 0.074634776 0.050700203
-0.02401984 -0.03489498 -0.20051149 0.08467422 -0.07323363 0.11073626 -0.15616648 0.09559815
00000000: d6e6 6bbe 3863 973d 6b47 8cbd b266 193e
00000010: a4bd 363e 8a5b 95bd e87d 8ebd 347d 00be
00000020: 14e3 173e e2b0 0a3e 94dd 39be 4ad9 0f3c
00000030: 0d17 ccbd da6a 043d 8e15 ab3d 8e32 a83a
00000040: 227a 3fbe d673 953d 96f3 003d 640b cf3d
00000050: e9b9 57be 305b 2b3e 94ac 383c d90a 1c3b
00000060: 72ed f43d 0793 a33c 4bd9 8b3c 21c8 4abb
00000070: 9561 3abd fe99 093e d27e c63d 1467 01be
00000080: 932d c3bd 792a fb3d 2823 18be 8805 e63c
00000090: c633 92bd 83ef 223c f85c 303e 3003 80bd
000000a0: 1765 fcbd 9a4c 43be d8a1 b3bc 5474 d03d
000000b0: ec5b dabd 32f5 2abe a77e 33bc f7d2 30bc
000000c0: 7d83 173e d34f 243e e477 24be 51f6 a43d
000000d0: 8c23 3d3e 60b8 32be ddee 4abe 0ce3 59bb
000000e0: c294 9a3d 53f5 4d3d 564d 3f3b b05f ca3c
000000f0: 98a0 0ebe 3f6f 56be 5e49 f03b b67a e9bd
00000100: 4936 3b3e a42e 3abe 4c7d 39be dd02 febd
00000110: 718e 18be ac22 3abe 88a7 0a3e 5cf2 873d
00000120: 8436 ecbc 884d 3fbe 8b27 5d3e 648a e83d
00000130: 3360 863d 08a9 d5bd 9a68 eebd 3cd5 d3bd
00000140: f130 2abe 277c f8bd b613 0cbe 017e 153e
00000150: a397 a83d 7eb3 f63d f242 353d 7abd cebd
00000160: af73 18be ad16 50bd bc89 05be 7672 02be
00000170: e3a7 ea3d 9da1 8cbd d6b0 44be 73b1 50be
00000180: 649d 80bd 86d0 1b3e d78a aabd d7be 173d
00000190: 83c8 cd3d 092c 513e df7b 293e 4895 aa3d
000001a0: c8f5 3e3e 5a0b c5bc c1d0 49be eed7 fbbd
000001b0: fea6 973d 30b3 ef3d 537e a7bd 6800 7ebd
000001c0: 2c1b 80bd 1fcf 26be d84e 37bd 00ba 293d
000001d0: 584c 823c bd3f b2bd e505 513e 7f3f 423d
000001e0: 9597 b9bd 76de 953d 3809 d4bc 1b2f 033e
000001f0: 5eab 91bd 7b8f d43d 40ad 41bd 1987 103e
00000200: 6763 223e 2deb 78bc 01f2 d7bc 680b 13bd
00000210: 6c1b c73d e4cf d23c fcfc 5cbe a84a 073c
00000220: a69f 10be 7978 cfbd 5431 da3d 5be4 a23c
00000230: 9393 693d e3f7 a8bd a23c b9bd 4490 263e
00000240: 45ec c73d 56fc 313d 5053 97bd 0386 eebd
00000250: 5abd 813d 7e11 9fbd 0d81 ecbd bc30 2dbd
00000260: 2053 c1bc 94ec 063e 968f 2d3e 3015 62bc
00000270: ea30 863e 59bd cfbd 1148 353e 23f7 26be
00000280: 5ce3 15bd a1ef 2a3d 0d89 91bd 2d81 f7bc
00000290: 5eba 0b3d 2c89 02bd e7ed 38be 8d97 d23d
000002a0: eab6 423e 9bd4 d43d bfb1 5bbd 8043 9ebd
000002b0: e3de 02be 8c18 1c3e 6a76 1dbe 3d73 f83c
000002c0: f98f 0c3e b4d7 af3d 8940 94bd 366e e03d
000002d0: fb37 29be ef76 34bd 4c9d 273e 9715 3a3e
000002e0: ef31 0bbe aa5f e33d 53be 713d 677f 293e
000002f0: 325a e8bd def4 a03d 6f6d 323e d6ab 25be
00000300: f2d0 7d3c 6a84 143d aca4 b5bd 8681 c23d
00000310: 6e00 6f3e 7dea 933d 814b 823d f2e5 d2bd
00000320: 3644 dcbd a045 57bd 30fa 933d 1bd5 3b3e
00000330: 7db1 c73d 4d07 3b3e d7a6 403d b031 623d
00000340: 3e20 d7ba 3dc5 263e b97d f43d c713 473e
00000350: b197 ecbd 12ca c73d 845e 373d 190d e13d
00000360: c810 dfbc bc06 fc3d 7860 2d3c eff9 9c3d
00000370: cf34 4fbe 4b8c d9bd de03 a0bd 2e2c 813c
00000380: acad 8d3d e468 10be bf37 dfbd f1d2 46bd
00000390: efd6 3bbe 7c61 69bd 31bb 31bc 01af a53d
000003a0: 5d78 5e3e a9c4 6f3c 5f5c 883d 2a6b 103e
000003b0: 5dbf 023d 00f7 fabc 2a86 303e af9b 49bc
000003c0: 6229 813d f472 c53d a26b 733d 42f6 183e
000003d0: fec1 96bd 4b86 8e3c 1eda 983d 04ab 4f3d
000003e0: 41c5 c4bc 0aee 0ebd e252 4dbe ad69 ad3d
000003f0: 83fb 95bd b1c9 e23d 1bea 1fbe f6c8 c33d

deconv1.weight f4 [12, 32, 1, 1]
0.015037745 -0.0152466465 -0.012601938 0.01090561 -0.17651215 0.013113631 0.1015922 -0.0118435975
-0.102884464 0.079894155 0.08837876 0.15011919 -0.15291671 0.0027185748 0.010099705 0.13099626
0.03801704 -0.084108576 -0.11180933 -0.032181572 -0.08838547 -0.10179212 -0.001163489 -0.14317946
-0.04351407 -0.112833105 -0.14820662 0.08799539 0.02676434 0.088356204 -0.1022593 0.20888673
-0.11422494 -0.073955044 -0.13118696 -0.05079197 0.04550708 0.094762325 -0.018003209 0.10414138
-0.05978533 0.13755777 -0.040530756 -0.0899686 0.010355985 0.16315943 -0.040456884 -0.09704309
0.0684727 0.024945544 0.110059805 -0.054392576 0.11559503 -0.078360386 0.15926535 0.078914076
0.112857595 -0.030610796 -0.14516991 0.14786515 0.008086545 0.14313594 -0.09774198 0.104193926
0.053885046 0.13484083 -0.09069166 -0.11908197 0.16787763 0.1393716 0.048014015 -0.07376895
0.062124446 -0.027303157 -0.044693884 0.036180835 0.043717537 -0.1529343 0.13926439 -0.18511878
-0.08213218 -0.0039275973 0.11509667 -0.0026888703 0.11899197 0.15059859 -0.06427947 -0.07516002
0.1742991 -0.022307234 -0.13826121 0.012693592 -0.09193696 0.016068159 -0.06002863 0.09982115
-0.086307906 -0.13894771 -0.09761451 -0.0775939 -0.03909767 0.07931706 -0.022358082 0.142311
-0.048583247 -0.15733115 0.051564466 -0.15775815 0.038207393 0.021348277 -0.050252978 0.026311655
-0.07369124 -0.12417256 -0.09184133 0.02490431 -0.12261519 0.0567253 -0.17691237 0.13305046
-0.14081167 0.015592763 0.10090892 -0.14585926 -0.0617316 -0.14133011 0.053179555 0.0058054184
0.11112602 0.15566565 0.09598703 -0.025759002 0.08994973 -0.06264557 -0.07055106 0.08111889
0.12698692 0.030161187 -0.09892155 0.085422315 0.014889747 0.16609687 0.014175365 0.12850824
-0.13341048 0.14431418 -0.07122822 0.120800644 -0.10894277 -0.024812989 -0.055304915 -0.0718428
0.04791208 0.042304244 0.07644398 0.020121468 0.17508908 0.10698252 0.0020641026 -0.04921933
-0.111721985 -0.1351789 0.012564717 -0.12275693 -0.116079725 0.0560169 0.044069935 -0.0713936
0.14103788 0.004371482 -0.18731274 0.145856 0.11243389 0.09522162 0.053198885 -0.11935738
-0.12907389 -0.038952045 0.027912565 0.036124893 0.1601282 -0.1103279 0.10195833 0.08898242
0.029838867 -0.13809709 -0.048798695 -0.02839322 0.13461909 -0.1174141 0.08480272 -0.12849276
0.1446547 -0.08166002 0.17303765 0.06893445 0.151409 0.112814195 0.073260844 0.05165077
0.17295298 -0.126917 0.026609657 0.15146682 0.08513521 0.11838758 -0.008312767 0.041108612
0.029392304 -0.024297081 0.15389545 0.02799214 0.1015415 -0.052068517 -0.11656094 -0.07432549
-0.05415355 0.031465057 0.06658598 -0.11613198 0.12409789 -0.0128169805 0.13522218 0.10255708
-0.14799537 0.005233946 -0.17657071 -0.016525926 0.17178187 -0.15034385 0.09201774 0.1779645
-0.11937157 0.058544036 0.13977285 -0.09629431 0.070501365 -0.07124768 0.15227528 -0.0020749825
0.15621294 0.1715734 0.014520397 0.085224345 0.10843888 -0.00731399 0.09552395 -0.15774396
0.00321827 -0.020886794 -0.10802495 -0.002231542 -0.039736673 0.04117681 0.052289642 -0.1645269
00000000: e060 763c 12cd 79bc 5c78 4ebc 72ad 323c
00000010: 9abf 34be 8eda 563c 920f d03d a60b 42bc
00000020: 17b5 d2bd 8c9f a33d ecff b43d d8b8 193e
00000030: 3396 1cbe 1e2a 323b 3c79 253c e223 063e
00000040: c1b7 1b3d 1e41 acbd 4afc e4bd d3d0 03bd
00000050: 7103 b5bd 6378 d0bd 3680 98ba a39d 12be
00000060: cf3b 32bd 0b15 e7bd 7ac3 17be ed36 b43d
00000070: e440 db3c 19f4 b43d 536d d1bd 67e6 553e
00000080: c4ee e9bd be75 97bd e055 06be 3e0b 50bd
00000090: a265 3a3d c012 c23d 777b 93bc 1348 d53d
000000a0: 76e1 74bd f2db 0c3e 9403 26bd 7541 b8bd
000000b0: 26ac 293c 4413 273e 1eb6 25bd 87be c6bd
000000c0: 6a3b 8c3d 995a cc3c 0967 e13d c0ca 5ebd
000000d0: 16bd ec3d 697b a0bd 7516 233e b49d a13d
000000e0: e221 e73d 7ec3 fabc 6ca7 14be f669 173e
000000f0: 6e7d 043c 3a92 123e f22c c8bd a063 d53d
00000100: 91b6 5c3d b713 0a3e 8dbc b9bd 3fe1 f3bd
00000110: 1de8 2b3e 6eb7 0e3e 58aa 443d 2d14 97bd
00000120: 3476 7e3d dfaa dfbc ef10 37bd 5b32 143d
00000130: 2911 333d cf9a 1cbe 539b 0e3e c78f 3dbe
00000140: eb34 a8bd 13b3 80bb ceb7 eb3d c237 30bb
00000150: 10b2 f33d 8436 1a3e f4a4 83bd 7fed 99bd
00000160: 777b 323e a9bd b6bc 5994 0dbe c9f8 4f3c
00000170: 7249 bcbd 5fa1 833c 95e0 75bd 086f cc3d
00000180: 33c2 b0bd 4f48 0ebe 1eea c7bd 8de9 9ebd
00000190: e124 20bd fc70 a23d 4c28 b7bc fab9 113e
000001a0: 3aff 46bd 6b1b 21be 4335 533d 5a8b 21be
000001b0: 5b7f 1c3d 95e2 ae3c 11d6 4dbd 8a8b d73c
000001c0: 6feb 96bd 2f4e febd 4f17 bcbd 2004 cc3c
000001d0: ac1d fbbd ca58 683d 8428 35be 613e 083e
000001e0: ef30 10be ca78 7f3c 56a9 ce3d 215c 15be
000001f0: 46da 7cbd d7b8 10be ced2 593d 613b be3b
00000200: 0a96 e33d d166 1f3e d994 c43d 8b04 d3bc
00000210: 9037 b83d 524c 80bd 137d 90bd a921 a63d
00000220: dc08 023e 9814 f73c 6297 cabd e5f1 ae3d
00000230: 20f4 733c 4c15 2a3e ca3f 683c aa97 033e
00000240: c29c 08be 19c7 133e 1ae0 91bd 5466 f73d
00000250: 631d dfbd 9c44 cbbc 6887 62bd 5122 93bd
00000260: 753f 443d 3747 2d3d a98e 9c3d c7d5 a43c
00000270: 8d4a 333e a719 db3d e545 073b 359a 49bd
00000280: 7fce e4bd 566c 0abe 3edc 4d3c fc67 fbbd
00000290: 35bb edbd fa71 653d ad82 343d cf36 92bd
000002a0: 3c6c 103e a63e 8f3b e9ce 3fbe 465b 153e
000002b0: bd43 e63d 8d03 c33d 13e7 593d a471 f4bd
000002c0: f22b 04be 2e8c 1fbd e4a8 e43c b2f7 133d
000002d0: a6f8 233e 98f3 e1bd 87cf d03d 6a3c b63d
000002e0: a470 f43c 5369 0dbe 24e1 47bd e698 e8bc
000002f0: 96d9 093e ce76 f0bd 0cad ad3d 9b93 03be
00000300: 5d20 143e 5e3d a7bd c830 313e 812d 8d3d
00000310: f60a 1b3e 210b e73d c809 963d c28f 533d
00000320: 961a 313e 88f6 01be 7ffc d93c 1e1a 1b3e
00000330: 5e5b ae3d 3075 f23d 4632 08bc 8161 283d
00000340: 21c8 f03c ac0a c7bc c596 1d3e c64f e53c
00000350: fdf4 cf3d cc45 55bd 81b7 eebd f637 98bd
00000360: 1dd0 5dbd 81e1 003d 3b5e 883d 9bd6 edbd
00000370: 0927 fe3d 50fe 51bc af77 0a3e 7209 d23d
00000380: 198c 17be 8581 ab3b f4ce 34be 6161 87bc
00000390: 96e7 2f3e bdf3 19be cc73 bc3d 533c 363e
000003a0: 1579 f4bd dfcb 6f3d 9d20 0f3e f435 c5bd
000003b0: 0563 903d 4eea 91bd 0dee 1b3e 6efc 07bb
000003c0: 49f6 1f3e f0b0 2f3e f6e6 6d3c 1a8a ae3d
000003d0: 3415 de3d 32aa efbb 10a2 c33d a287 21be
000003e0: 9ce9 523b c81a abbc 2f3c ddbd 103f 12bb
000003f0: ecc2 22bd 04a9 283d aa2d 563d bd79 28be

deconv1.bias f4 [32]
-0.16103739 -0.05570616 0.09091283 0.13514107 0.011683556 -0.14958581 0.185346 0.10338571
0.14262827 0.12828484 0.043301247 0.018632526 -0.011274669 0.14907642 0.09636347 -0.00013771033
0.14208728 -0.059402753 0.0033083507 0.046655133 -0.11055666 0.18007532 0.004998818 0.105622895
0.021412507 0.18398148 0.17467918 0.14131768 -0.11109828 -0.017605796 0.19395858 -0.15882507
00000000: fce6 24be 242c 64bd 8130 ba3d 6c62 0a3e
00000010: 636c 3f3c 062d 19be 58cb 3d3e e3bb d33d
00000020: 250d 123e 1a5d 033e a65c 313d 3da3 983c
00000030: 64b9 38bc 7da7 183e 365a c53d 5666 10b9
00000040: 547f 113e 4d50 73bd ead0 583b 7419 3f3d
00000050: 886b e2bd aa65 383e 20cd a33b d150 d83d
00000060: 4869 af3c a465 3c3e 19df 323e 95b5 103e
00000070: 7f87 e3bd 083a 90bc 149d 463e 0aa3 22be
