Pytorch/AutoEncoder/saved_models/mnist/NetLarge-L2Loss_mnist.pt (torch, 246767 bytes, 15 tensors)

conv1.weight f4 [64, 1, 3, 3]
000000 5a 77 e0 3e f2 d4 ea be 63 04 8a 3e ee 8a c4 be
       0.43841058 -0.4586559 0.26956472 -0.38387245
000010 81 59 b4 be b7 65 83 be aa c3 6b 3d 96 ea b2 3e
       -0.35224536 -0.2566354 0.057559647 0.349446
000020 d0 b7 71 3d 5b eb ae bc db 9a f7 3c cb 59 d4 bd
       0.059013188 -0.02135246 0.030225208 -0.10368689
000030 cf 41 5b 3e 52 7b c4 3e 86 15 5c 3d a0 e6 66 3e
       0.21411823 0.38375336 0.053731464 0.22548914
000040 d1 00 6c be 15 19 f0 3b 6f 1f 23 3d 76 1b e3 be
       -0.23047186 0.0073272088 0.0398249 -0.4435689
000050 43 df ce be 3d 2d 9d be 5b 2f 90 bc a4 93 88 3c
       -0.4040471 -0.30698577 -0.017600706 0.016671963
000060 5c 8e df 3e 41 52 7b 3e 1f 69 10 3f e7 0b 63 be
       0.436633 0.24543096 0.564104 -0.22172509
000070 5a 81 a7 bc c8 b8 d3 3e 37 28 80 3d 29 b7 0a 3e
       -0.020447422 0.41351914 0.062576704 0.13546433
000080 2c 81 f5 bd be 33 c1 3e 8f e1 60 be ce 08 c3 be
       -0.11987528 0.3773479 -0.21961044 -0.38092655
000090 ff eb 71 bf d2 cb 10 be 98 3b 8b 3e 3e 89 03 be
       -0.94500726 -0.14140251 0.27193904 -0.12845322
0000a0 e1 cd d1 3e 49 fe ab 3e 7b d7 05 3b ba 52 4b 3e
       0.40977386 0.33592442 0.0020422626 0.19855776
0000b0 b5 8b ec 3d 47 f1 52 be d5 20 32 3e d0 1c e9 be
       0.115500845 -0.20599853 0.17395337 -0.45529795
0000c0 ff 6a 38 be 1c 61 71 3e 3b 40 58 bd a9 6a 34 be
       -0.18009566 0.235722 -0.05279563 -0.17618813
0000d0 f1 e2 b1 3e 7c c0 e3 3e 68 cc 69 bd 26 aa 9c be
       0.34743455 0.4448279 -0.057079703 -0.30598563
0000e0 f0 f5 99 3c 56 f0 fb bd 56 a0 6f be 0e c3 31 be
       0.01879403 -0.123017 -0.23401007 -0.17359564
0000f0 f0 98 2d be db a7 6f be c8 7d 30 be 46 f9 d4 be
       -0.16952872 -0.23403876 -0.17235482 -0.4159643
000100 46 e4 cb be 99 b6 b5 be 3c 48 83 3e d7 a3 cb 3e
       -0.39822596 -0.35490873 0.25641048 0.39773437
000110 0b d9 5c 3e 13 82 5b 3e 3e 0e a6 bd 86 8c b7 3e
       0.2156717 0.21436338 -0.08108185 0.35849398
000120 e6 2f 8d 3b ef 91 02 be d6 09 2e 3e 2a 9b 9d 3e
       0.0043086885 -0.12750982 0.1699594 0.30782443
000130 c5 99 9c 3e df 2e fb bd 9a b7 a4 3e b6 01 8f bd
       0.30586067 -0.12264799 0.32171327 -0.06982748
000140 81 54 0e 3d ba a3 98 3e 15 36 51 3e 18 3e df 3d
       0.034748558 0.29812413 0.20430787 0.10900515
000150 25 b2 10 3e 8f 67 f9 3d e3 fa bf 3e 00 63 c2 be
       0.14130457 0.12177955 0.374961 -0.37966156
000160 8a 39 a9 be dd e8 f9 be 80 dc 65 bf 30 15 4a bf
       -0.3305171 -0.48810473 -0.8978958 -0.7893858
000170 51 b0 2a c0 97 b4 9b be a2 e4 9f be 64 75 db be
       -2.6670115 -0.30411217 -0.3122912 -0.42863
000180 06 f1 45 3f cf 3b a3 3e f2 ac 25 bf 88 de cb 3e
       0.773209 0.31881568 -0.6471702 0.39818215
000190 93 d2 7f 3e 82 fd af 3d 1d de 9a 3e 50 ca 9d bd
       0.24982671 0.08593275 0.30247584 -0.07704604
0001a0 b7 1e 6c 3c 01 54 82 be 8c 20 95 3c 2c 75 a7 3e
       0.01441162 -0.25454715 0.018203996 0.32706583
0001b0 58 4c a4 be 7f 58 ed 3e ab ff 6f 3d 36 cd 0b bf
       -0.32089496 0.4635658 0.058593433 -0.5461
0001c0 43 ac f7 3e aa 00 b5 be 95 bf 25 bf 22 67 c5 3e
       0.48373613 -0.3535207 -0.64745456 0.38555247
0001d0 28 68 9a 3e 7c 22 ff bf 7a 2a 87 bf ad f7 d0 bf
       0.3015759 -1.9932399 -1.0559838 -1.6325585
0001e0 fe 6b b7 be 9e 0e a3 3f c9 c6 65 bf 38 c6 79 3d
       -0.3582458 1.2738836 -0.8975645 0.06098005
0001f0 22 99 aa 3e 6a ae ee be 3d 71 8e bd 50 83 dc 3e
       0.33319956 -0.46617442 -0.06955192 0.43068933
000200 14 f5 a0 bd 44 d5 96 3e 9b 26 cb 3d 65 8a e4 3d
       -0.07859245 0.29459584 0.09919473 0.11159209
000210 95 a5 65 3d 30 bf b4 3b 2a 1d 8d 3d db 63 de be
       0.056066114 0.0055159554 0.06890328 -0.4343556
000220 18 99 19 bf ac 45 fc bc e9 1e 9d 3d 98 fe 14 be
       -0.5999923 -0.03079494 0.07671911 -0.14550245
000230 b0 a9 b7 3d 6a 9d a4 be e2 7e da 3e ca 61 16 3f
       0.08967912 -0.32151347 0.4267493 0.58742964
000240 ce 3b c1 bd e0 7e 46 be 0d f7 57 3e f3 19 27 3d
       -0.09435235 -0.19384336 0.21090336 0.04079623
000250 1b 42 c0 3e 3e 9f ca 3e 23 a6 31 3b 14 ec 7b 3d
       0.37550434 0.39574617 0.0027107082 0.06150444
000260 7b 52 86 bd 4b f5 dc be d5 fc c1 be 05 39 be 3d
       -0.06558701 -0.43155894 -0.37888208 0.09288219
000270 6e 34 07 3e 3b d7 35 3e 09 ab de 3e e2 4f a2 3d
       0.13203594 0.17757885 0.43489864 0.07925393
000280 6c 11 64 be 1d ab 3e 3e b2 50 55 3e 8c e2 16 3f
       -0.22272271 0.18619962 0.20831564 0.58939433
000290 bb 9e b6 3e e1 f9 bf 3e 3e 2a 89 bd 9f a0 38 bf
       0.35667977 0.3749533 -0.0669751 -0.7212009
0002a0 20 b9 0a bf c3 51 18 bf 88 31 40 3d 34 b3 08 3e
       -0.5418873 -0.5949976 0.046922237 0.1334961
0002b0 4e a3 8c 3d d5 f2 cd 3e 0b bf cb bd 0b d5 f6 3e
       0.068670854 0.4022433 -0.09948548 0.48209414
0002c0 43 ab 4a be 14 ba 30 bf bc 34 e2 be 1a 29 99 bf
       -0.19791894 -0.6903393 -0.44180858 -1.1965668
0002d0 e8 d7 22 3e 38 2e 5b 3e ba 68 39 bd ac 93 f8 3d
       0.15902674 0.2140435 -0.04526589 0.12137541
0002e0 95 b8 e9 bd b9 b2 92 3e c6 de 4f be e6 4e 38 be
       -0.11412159 0.2865198 -0.20299825 -0.17998847
0002f0 47 d8 19 3e 65 b4 fa bf 47 6d d9 3c a6 f5 bd bf
       0.1502391 -1.9586302 0.026541365 -1.4840591
000300 8e 05 d1 be 42 49 3e bd 89 b2 16 bf 3f 3f c8 3d
       -0.4082455 -0.046456583 -0.58866173 0.09777688
000310 f2 e0 a6 3e 52 07 b2 3e cb 93 8b 3d ae ae a9 3d
       0.32593495 0.3477121 0.06815299 0.08285271
000320 76 08 de bb ba c7 54 3d fb 3d b4 3e 1e f7 2e 3e
       -0.006775911 0.051948287 0.35203537 0.17086455
000330 41 6b ea 3d 25 b9 55 be 5e 30 77 3d a7 37 1f be
       0.11446238 -0.20871408 0.06034886 -0.15548573
000340 ee fd a6 3d 07 bc 87 be 02 d6 48 be 20 c4 2f 3e
       0.08153902 -0.2651064 -0.19612888 0.1716466
000350 13 4b 0d be 87 69 c2 3e 24 eb 4f 3e 3f 72 9e 3e
       -0.1379817 0.37971136 0.20304543 0.30946538
000360 80 89 91 bb 1c 74 2e 3e 78 7b 00 bc fe 8a 82 3e
       -0.00444144 0.1703648 -0.007841937 0.25496668
000370 12 45 5e 3e 41 2e a2 3e 30 df 27 bc a6 c6 32 be
       0.21706036 0.31675914 -0.010246083 -0.17458591
000380 16 d5 33 3d 35 a2 38 3e c7 bb d8 3e 4c 31 9d 3e
       0.043904386 0.18030627 0.42330763 0.30701673
000390 f0 8f eb bd f9 bd 45 3d 40 19 97 3e 58 3d 83 be
       -0.11502063 0.048276875 0.29511452 -0.2563274
0003a0 08 50 43 3e 1c 0f e2 bd d8 76 fb 3e 38 99 35 3e
       0.19073498 -0.11038038 0.49114108 0.1773423
0003b0 8b 75 c1 bc cc cf 87 3e f4 7f e7 bd 1c f5 8a 3c
       -0.02361562 0.26525724 -0.11303702 0.01696258
0003c0 e6 99 52 3e bd d1 2c be 05 39 57 bf ab 43 51 b9
       0.2056652 -0.16876884 -0.8407138 -0.00019957001
0003d0 06 d0 73 be 5f 9d 74 3e 8c 15 1f 3d 64 29 f9 bd
       -0.23809823 0.23888157 0.038838908 -0.12166098
0003e0 31 14 b8 3d bb ab e0 3d dc 1e e4 bd 52 c8 ee 3d
       0.08988226 0.10970255 -0.111386985 0.11659302
0003f0 f8 a6 dd bd a4 c9 05 3e 26 20 87 be 4d a5 52 bd
       -0.108228624 0.13065201 -0.26391715 -0.051427174

conv1.bias f4 [64]
000000 2f 2c 60 3e 39 1f fd bb 83 07 04 be 66 94 4e be
       0.21891855 -0.0077246693 -0.1289349 -0.20173797
000010 bb c7 44 bb 7c 47 10 3e c0 18 b7 bc 06 18 4c bd
       -0.0030026275 0.14089769 -0.022350669 -0.049827598
000020 ff d8 cc 3c 12 8a 33 bd b4 81 c5 bc ad 5c fc b9
       0.025005816 -0.043832846 -0.024109699 -0.00048134234
000030 16 1c 40 3e cb 29 4f 3d a1 a2 5d 39 f8 22 15 3b
       0.18760714 0.050576966 0.00021136786 0.0022756439
000040 71 d7 ae 3d fb 04 86 3e 44 b8 fa 3b 85 35 33 bb
       0.08537186 0.26175675 0.0076513607 -0.0027345133
000050 d9 bb 87 3d e0 6e 01 ba bf 96 99 b8 79 da 0b 3e
       0.06627626 -0.0004937481 -7.323687e-05 0.1365756
000060 80 c8 81 3e 5e 21 4a 3e 04 0a 93 ba 36 be af 3e
       0.25348282 0.19739291 -0.0011218195 0.34324807
000070 76 97 aa bd b5 dd f7 b9 e1 67 d2 bd a3 06 0f bc
       -0.0832967 -0.00047276696 -0.102737196 -0.00872961
000080 d1 06 4e b9 38 61 d5 3a 6e 73 94 3e d7 f2 8a 3a
       -0.0001964823 0.0016279584 0.28994316 0.0010600936
000090 f7 03 e2 ba ec 7a 81 b9 9d 2b 4b 3b cc c4 89 b8
       -0.0017243613 -0.0002469638 0.0031001337 -6.569325e-05
0000a0 9d c3 53 bb 10 ae 2c 3e fe f6 85 3e 06 46 5e bf
       -0.003231264 0.16863275 0.26165003 -0.868256
0000b0 9c 3a 9a 3e 0c 9b 84 3d 71 81 9d bd fe d0 a5 bc
       0.3012284 0.06474885 -0.076907046 -0.020241257
0000c0 50 21 24 3e 0e be a2 bc 7c fc b9 38 b1 20 39 3e
       0.16028333 -0.019866016 8.868516e-05 0.18078877
0000d0 0a 76 16 3a 5b 01 6d be 17 d4 8c 3d d3 91 08 b9
       0.0005739635 -0.23145048 0.068763904 -0.00013024294
0000e0 67 42 b1 bc 83 ce d9 ba 21 d6 9f ba b4 b9 9d ba
       -0.021638108 -0.0016617331 -0.0012194553 -0.0012033493
0000f0 0e 6f 10 3a 4d 4d 35 ba 9b 40 cf 3b 60 b5 58 3e
       0.00055097125 -0.0006916121 0.0063248402 0.21162939

conv2.weight f4 [32, 64, 3, 3]
000000 c8 7a 42 bc f3 29 87 bb 0b a3 44 bc 49 e6 f2 bc
       -0.011870094 -0.004124874 -0.012001763 -0.029650824
000010 6a f0 dc ba 22 cb 97 3b 50 4d 80 bc 20 54 a1 bc
       -0.0016856317 0.0046323696 -0.015661865 -0.019693434
000020 4c 4d 02 bc 48 cf 16 3d 50 67 1b 3c 19 20 1b 3c
       -0.007952999 0.036818773 0.009485081 0.009468102
000030 d9 89 51 3c dc 52 40 3c c7 0b 0c 3d 11 d1 05 bd
       0.012789213 0.011738505 0.03419092 -0.032670084
000040 3e 32 9a 3c 27 1d 03 bd 04 80 08 bd bd 5e d5 ba
       0.018822785 -0.032010224 -0.03332521 -0.0016278845
000050 c8 88 48 bc e4 2a 04 bc 15 0c 27 3b ad 5c d9 3c
       -0.012239642 -0.008066867 0.002548938 0.026533449
000060 9a 3e 63 bd 1e 15 c8 3b c6 ec 4d 3c 34 c4 d4 bb
       -0.055479623 0.006106033 0.012568658 -0.006493116
000070 e4 a6 c5 bc 61 ce c7 3b 56 3f 56 3c 0c 42 16 3d
       -0.024127431 0.0060976003 0.013076624 0.03668408
000080 8c b0 8a 3c d4 e8 34 bc 9f 9e d5 3c 1e 6a 21 bc
       0.016929887 -0.011041839 0.026076613 -0.00985196
000090 2d d2 e8 bc b1 9d 07 3d e0 ed d0 bc dc ff d2 bc
       -0.028420532 0.03310937 -0.025504053 -0.025756769
0000a0 e5 fe df 3c 61 f4 57 bd 2e 20 95 3c 51 c6 9e 3c
       0.027343223 -0.052723292 0.018203821 0.019381674
0000b0 b9 40 3b bc a1 a1 d7 bb f1 f6 9e bc 7e 98 b4 bc
       -0.011429005 -0.006580547 -0.01940486 -0.02204537
0000c0 fc 7a bb bc 1d 1d b5 bb 75 1c 86 bd 79 28 c3 bc
       -0.022885792 -0.005527152 -0.065483965 -0.02382301
0000d0 02 38 93 3b 68 15 67 bc 4b 7c 01 bd 58 6f b1 bc
       0.0044927606 -0.014104225 -0.031612676 -0.021659538
0000e0 90 ea 7b 3b 33 11 0d 3d 54 4a 21 bd f6 6a f3 bc
       0.003843937 0.03444023 -0.039377525 -0.029714089
0000f0 f0 63 5d bb 12 32 e5 3c f4 99 01 bd da 01 24 bc
       -0.0033781491 0.027977977 -0.03164096 -0.010010207
000100 08 af 85 bc ec 7a b3 3c 68 b2 bb bc 3f 62 a4 3b
       -0.016318813 0.0219092 -0.02291222 0.0050165947
000110 e8 a8 c9 3c c6 39 80 bd 85 c0 65 bd ba 4e 4c bd
       0.024616674 -0.062610194 -0.056091804 -0.049879767
000120 81 74 24 3d d8 24 37 bd c5 1f 43 bd 79 e1 05 bc
       0.04015017 -0.04471287 -0.04763772 -0.008171433
000130 9f 76 99 3c ba 3e 8b ba 22 e3 9a bb fe 1f 52 bc
       0.01873332 -0.0010623552 -0.0047267834 -0.01282501
000140 f8 e3 08 bd fa 41 ea bc 04 16 ee 3c a1 a6 fd 3c
       -0.033420533 -0.028595913 0.029063232 0.030963244
000150 a4 63 d7 3b 3c 17 3b 3c 58 55 19 bd a8 5e 03 bd
       0.0065731574 0.011419114 -0.037434906 -0.032072693
000160 3f ed 76 3c 3b 97 8a 3c 03 2b 07 bb e9 99 8b 3c
       0.015071212 0.016917815 -0.0020625002 0.017041164
000170 05 cc 25 bc 11 12 9e 3b e6 30 96 bc 20 11 2b 3c
       -0.010119443 0.004823931 -0.018333863 0.010441095
000180 59 8e 9d 3c 84 de 76 bd bd 0e d1 3b 58 80 73 bc
       0.019232916 -0.0602708 0.006379931 -0.0148621425
000190 30 8d d1 3c 50 93 1b bd bd 4b e5 bb dc 4f 06 3d
       0.025580019 -0.037982285 -0.006997554 0.032791004
0001a0 6a 32 22 bd 44 17 42 bd cb 23 28 bd ec af c0 3c
       -0.03959886 -0.04738547 -0.04104976 0.023521386
0001b0 40 ea be bc f8 a0 18 bc b9 a2 bb bb df ad 41 3c
       -0.023305058 -0.009315722 -0.005726185 0.011821239
0001c0 3b 4c 52 bd 77 a4 00 bd a1 e0 63 bd f6 48 b7 bc
       -0.05134223 -0.031406846 -0.055634145 -0.022373658
0001d0 5e e6 ae bc 9f 8f ab bc e9 db bf bc 2b b1 39 3b
       -0.021350082 -0.020942507 -0.023420291 0.002833436
0001e0 8c e0 df bb 07 7b 43 bd 2b 52 1f bd 25 66 4c bd
       -0.006832188 -0.04772475 -0.03889672 -0.0499021
0001f0 ba ee df bc b8 39 2c bd 1c 81 dc 3b 49 fc 06 bd
       -0.027335513 -0.042047232 0.006729258 -0.03295544
000200 3b 51 d9 bc 0e f6 ec bc db 83 b8 bc e1 bf a5 bc
       -0.026527992 -0.028925922 -0.022523811 -0.020233097
000210 57 89 83 3b a6 66 7f bd 83 bc 50 bd 81 8f 97 bc
       0.004014175 -0.062353753 -0.05096103 -0.018501045
000220 17 a6 2b 3b 07 f1 51 bc 67 3f 9b 3c 0d 86 03 3d
       0.0026191527 -0.012813813 0.018951131 0.032110263
000230 eb 8d e4 3c 36 bd 0e 3c d8 f1 93 3c 46 83 df 3c
       0.027899703 0.008712104 0.018059656 0.027284276
000240 81 50 aa 3c 4e 82 f8 bc f9 62 b3 bc 2a d9 93 3c
       0.02079034 -0.030335572 -0.02189778 0.018047888
000250 e8 ac 08 3d 5c 73 22 bc 5b 75 6d bd fa b2 21 bc
       0.03336802 -0.009915199 -0.057973247 -0.0098693315
000260 d2 34 38 bd 89 76 0d 3a 40 3e 97 bc 4a 48 84 bd
       -0.04497225 0.0005396386 -0.0184623 -0.064591005
000270 04 d9 3d bc 08 3c d6 3b 9f 7c 50 bc 90 2e dd bb
       -0.011587385 0.006537918 -0.0127250245 -0.0067499354
000280 55 80 44 bd c4 c0 58 bd d1 91 48 bc d2 e8 3f bd
       -0.04797395 -0.05291821 -0.012241797 -0.046852894
000290 c1 7e 72 ba bb 34 84 3b 0a 25 75 3c f9 e1 66 bd
       -0.0009250455 0.0040346063 0.014962444 -0.056367848
0002a0 7c 32 dc 3c 30 fc c8 3a 7d cc 1f bb d0 80 4f bc
       0.026879542 0.0015333947 -0.002438336 -0.012664989
0002b0 21 62 48 3c 56 1a 34 bc 6f 4b 54 bc a0 23 80 ba
       0.012230427 -0.010992607 -0.012957438 -0.0009776242
0002c0 5a 64 af 3c 6c 23 dd 3c 8b 8b ac bc 02 39 c1 3a
       0.021410156 0.02699443 -0.021062633 0.0014741721
0002d0 b1 61 fa bb 7a 11 c8 3b af b6 4a bc 7e 11 e3 bb
       -0.0076410403 0.006105599 -0.012372657 -0.0069295755
0002e0 b0 88 03 3c 2b c3 9c bc dc 7b b8 3c 52 69 21 3d
       0.008028194 -0.019136032 0.022519998 0.039407082
0002f0 e9 fc 11 bd 74 c4 05 bd 8e 70 ba 3c 5c a9 e7 b9
       -0.035641585 -0.032658055 0.022758748 -0.00044185936
000300 49 00 58 ba 17 47 05 3a d7 9d d2 3c ac 65 67 bd
       -0.00082397886 0.00050841406 0.02571003 -0.056493446
000310 7a 8f 81 3c 15 f2 a3 3b a7 b5 0a bd 0f a3 bb bc
       0.015815485 0.0050032237 -0.033864643 -0.0229049
000320 f5 e8 be 3c 90 31 0f 3b 64 c6 11 3d 76 f2 2b bd
       0.023304442 0.002184961 0.03558959 -0.041979276
000330 6a 0b bb 3c bf 4c 09 bd aa ba 57 bc 8f 44 d4 3b
       0.022832591 -0.033520456 -0.013167063 0.0064778994
000340 c0 f6 b4 bb 91 cd 83 3c 3c eb 4a bd 3d ac e1 ba
       -0.005522579 0.016089233 -0.049540743 -0.0017217469
000350 2b 6e b5 36 8d ea 2e 3c ad 9e c8 bc da 6f 08 bd
       5.4070456e-06 0.010676038 -0.024489725 -0.033309795
000360 41 49 31 bd 82 f6 85 ba c2 7f 3e bd 99 19 7f 3b
       -0.04328275 -0.001022056 -0.046508558 0.003892517
000370 73 57 59 bd d2 ca d0 bc e0 c3 aa 3b 03 d9 86 bb
       -0.053061914 -0.025487337 0.0052113384 -0.0041152253
000380 f7 4f 4a bd 57 3b 05 bd b6 49 21 bd ec 18 d9 bc
       -0.049392667 -0.032527294 -0.039376937 -0.026501141
000390 a7 4b 3c bd e0 fa d9 ba ca 39 12 3b 5c da 41 3c
       -0.045970585 -0.0016630553 0.0022312277 0.011831846
0003a0 2b 42 e5 bb cb 59 82 3a eb 70 78 3d 7c 51 8c 3c
       -0.006996413 0.0009944973 0.060654562 0.017128699
0003b0 09 c1 e4 3c d7 c6 48 3c 67 af 2e 3d 00 a7 1f 3d
       0.027924078 0.012254438 0.042647745 0.038977623
0003c0 e9 45 0c 3d eb a0 b2 3c 4b 2e a7 3c 5a 7b ef bc
       0.03424636 0.021805247 0.020407816 -0.029233623
0003d0 5f 12 12 bd c0 d8 e2 3b 28 be 10 bd 1c 38 6d bc
       -0.03566205 0.0069228113 -0.035337597 -0.01447871
0003e0 01 b2 84 bd 20 de 45 bb 8a e4 3b bc 72 f9 82 bd
       -0.06479264 -0.0030192211 -0.011468062 -0.06395234
0003f0 22 f6 a5 bc 0c 19 a1 3a 6b 5f 23 3c c7 73 fa bc
       -0.020258967 0.001229079 0.00997148 -0.030572785

conv2.bias f4 [32]
000000 5c ad 0f 3a 82 89 f1 bc fd 56 16 be fb e5 39 ba
       0.00054808496 -0.029484514 -0.14681621 -0.00070914597
000010 91 65 20 bc e6 39 d4 bb 70 f3 ad bd 81 81 a9 3b
       -0.00978984 -0.0064766286 -0.08493698 0.005172909
000020 82 b1 51 3d 20 2d 60 bc 6a 8e ed bc 7d ba f4 bb
       0.051194675 -0.013682634 -0.028998572 -0.00746852
000030 ef f6 bd 3c d0 7a f3 bc 46 3d 47 3d 73 d1 4e 3c
       0.023189036 -0.029721648 0.04864242 0.012623179
000040 a9 c9 64 3c 55 15 19 bd 1a 72 4a 3b 69 2d 90 bd
       0.013964095 -0.03737386 0.0030890764 -0.07039911
000050 c7 88 50 3c b3 c0 0f bd d5 b6 6b 3d ea 0a 04 bd
       0.012727923 -0.03509588 0.05754741 -0.03223697
000060 88 18 fb 3c eb 87 07 3d cb 5e 80 3d 74 eb fc 3d
       0.030651346 0.033088606 0.0626808 0.123495966
000070 4c 90 9c bd 57 b7 fd 3d 6f c8 42 bc e9 a6 e3 3c
       -0.0764471 0.12388485 -0.011888607 0.02778955

conv3.weight f4 [12, 32, 3, 3]
000000 40 47 5a 3d 71 fa 44 3a 8f f2 40 bd d7 fd d1 3c
       0.053290606 0.00075141253 -0.047106322 0.025633736
000010 d1 6d 19 bd ce 77 93 bd dd be 5f bd 35 d2 59 bc
       -0.037458245 -0.07200585 -0.05462538 -0.013294746
000020 bd 34 40 3d a4 cc e0 bc 93 f3 8a 3c 21 2e 11 bd
       0.046925295 -0.02744133 0.016961848 -0.035444383
000030 a1 c2 70 3b 8e 6a 78 bd 26 63 5c 3d d3 88 07 bc
       0.0036737102 -0.060648493 0.053805493 -0.0082723675
000040 4f ba 4f bd 56 7f 66 bd 5a c5 ed bd 3e 6c 09 3d
       -0.050714787 -0.05627378 -0.116099074 0.033550493
000050 ca 14 49 3d 1c 36 a6 3c 43 66 dc 3d fd a0 4d bd
       0.04909209 0.020289473 0.107616924 -0.05020236
000060 c5 cf 03 bd 3a 4e 38 bd b4 16 02 3d 0b 36 61 3c
       -0.032180566 -0.044996478 0.031759933 0.013745795
000070 e0 2b 06 bd c3 08 87 3d a1 2f 30 bc da 2b 0a 3c
       -0.032756686 0.06593468 -0.010753543 0.008433307
000080 ee d0 0e 3d 59 8e a8 bc 49 e7 b4 3c ef 52 d3 3c
       0.03486722 -0.02057569 0.022082942 0.025796382
000090 01 20 cd 3c f9 17 7a bd 53 3e bc bd 8f 35 0e bd
       0.025039675 -0.06105802 -0.09191575 -0.034719046
0000a0 a3 0d 64 3c 55 10 1a bd cd 78 0a bd ef c9 4c bd
       0.013919267 -0.03761323 -0.03380661 -0.049997266
0000b0 a3 b7 01 be 03 81 34 3d 4e 4f 37 bc 3b 3e 22 bd
       -0.12667708 0.044068348 -0.011188341 -0.03961013
0000c0 85 ba d5 3c 0a fb fe bc 25 3b 67 3d 0e 6a 2d bd
       0.026089916 -0.031125564 0.05645289 -0.04233747
0000d0 e0 24 14 bd 0a 1c 2d 3d ef ed 7f b9 c6 60 5a 3b
       -0.03616798 0.04226307 -0.00024407332 0.0033321842
0000e0 a5 5e bd 3c fc 72 05 3d b3 8d c0 3c 95 bd ad 3d
       0.02311642 0.03258036 0.023505067 0.084834255
0000f0 c9 d9 9c 3d fa 11 76 bd da a8 ac bb 8c 9c e9 3d
       0.07658727 -0.060075738 -0.005269152 0.11406812
000100 1f bf cb bb 05 49 5c bb e5 8a e3 3c e4 fc d1 3d
       -0.006217852 -0.003361286 0.027776191 0.10253313
000110 89 2f cc 3c ca cb ae bd cb bb 48 bd 71 b3 09 bd
       0.02492501 -0.085349634 -0.04900722 -0.033618394
000120 ee ca bb 3d c9 87 94 3c dd 88 84 bd cf 82 29 bc
       0.09169565 0.018131154 -0.06471417 -0.010346129
000130 10 2e d5 3c 67 e5 75 3d e9 8c a2 bd 88 83 3c 3c
       0.02602294 0.06003323 -0.07937033 0.011505969
000140 84 da fe 3d 14 e6 cc ba 22 a2 e8 bd 9c ea 46 bd
       0.12444022 -0.0015632533 -0.113590494 -0.048563585
000150 30 27 1d 3d 37 fb a8 bc 49 58 9a 3d 94 f6 2c 3d
       0.03836745 -0.020627601 0.0753637 0.042227343
000160 4d e8 f1 39 b4 4d 88 bc f6 9d 41 bd f4 cb 8b bc
       0.0004614018 -0.016638614 -0.047269784 -0.017065026
000170 b0 54 15 bd 13 11 1d bd 9c 05 30 3d 0d 65 db 3c
       -0.036457717 -0.03834636 0.0429741 0.026781583
000180 5e 93 26 3b 6c 21 58 bc 5c 55 e4 b9 1e 64 80 3d
       0.0025417428 -0.013191562 -0.00043551147 0.06269096
000190 cd 4f 56 3d c9 3c 28 bd 2c f8 a5 3c 55 a4 d0 3c
       0.052322198 -0.041073594 0.02025994 0.025468985
0001a0 4c 3b b1 bc 61 d9 9b 3c a8 dc 22 bd 11 d2 a3 3c
       -0.02163472 0.019024553 -0.039761215 0.019997628
0001b0 c2 04 04 3b 69 f4 70 3d dc 80 e3 3a 53 39 cd 3c
       0.0020144437 0.058826838 0.0017357129 0.025051748
0001c0 f4 ed d9 bc 87 bd bc bc 3c 29 33 3d 1f cb cd 3c
       -0.026602723 -0.023039592 0.043740496 0.02512127
0001d0 a1 92 3f bd ca 37 b8 3c 26 61 93 ba 68 ba a3 bc
       -0.046770696 0.02248754 -0.0011244162 -0.019986346
0001e0 23 9f 57 3d 90 0d 28 3d e2 79 55 bd cc 3a 7b bc
       0.052642 0.04102856 -0.05211819 -0.0153338425
0001f0 2f 60 4e 3d 9b e2 21 3d 5f c7 ca bc 07 90 65 3d
       0.050384697 0.03952275 -0.02475327 0.05604556
000200 ea 30 c8 3c f4 ee 7f 3d c8 6b 67 3d 4c 65 4b bc
       0.024437387 0.062483743 0.056499273 -0.012414288
000210 bf 11 a3 bd af 18 5d bd db 85 8e 3c c4 cc ff 3c
       -0.07962369 -0.05397862 0.017397812 0.03122557
000220 42 f2 b8 b9 7b af 4c 3e d5 84 c2 3d 66 09 35 3d
       -0.0003527571 0.19988815 0.09497992 0.044198416
000230 af 39 cb bd 87 63 98 bd 7c ef ff 3c 87 96 42 3e
       -0.09923112 -0.07440858 0.031242125 0.19002734
000240 20 b2 0e 3d a9 06 3c 3c 49 c9 e8 3c 8e aa a0 bc
       0.034837842 0.011476197 0.028416293 -0.019612577
000250 e2 a7 da 3b 85 98 e7 bc 83 d5 ec bc 7c 22 4f bd
       0.006672845 -0.02827097 -0.028910404 -0.050569996
000260 6b 99 18 3d e6 2c 21 bd 2c ef 12 3d 8d 5c 0d 3d
       0.037255686 -0.03934946 0.035872623 0.03451209
000270 a7 58 82 3d ef dc 5e 3c ee 0e c0 3c bf ab d5 bc
       0.06364565 0.013602479 0.023444619 -0.026082871
000280 19 fc f1 bc a1 02 0f bd db 39 a9 3d c5 23 65 bd
       -0.029539155 -0.034914616 0.08262988 -0.055942316
000290 d1 cd 8c bd 5c cc 9c 3d 02 b7 d3 bd d9 4a 61 bd
       -0.06875194 0.07656166 -0.1033764 -0.05500302
0002a0 b9 03 05 3e 7c 0b fe 3d 94 6b d5 3d ea 3c 93 bc
       0.12989701 0.12404534 0.104209095 -0.017973382
0002b0 23 dd 75 3b be d2 a2 bd 48 9c f4 3c 6a 99 50 3c
       0.003751584 -0.07950352 0.029859677 0.012731889
0002c0 8d 54 62 3d e9 91 28 be 6a 89 83 bd 29 c3 07 3d
       0.055256415 -0.1646191 -0.06422694 0.033145104
0002d0 24 1c 60 3c 3c 75 b6 bb 45 3e 87 3d 79 db 5c bc
       0.013678584 -0.0055681746 0.06603674 -0.013480061
0002e0 93 e0 87 3c 1f 4b 08 3d dd 77 e5 bc 3c b9 2f b9
       0.016586578 0.033274766 -0.028011257 -0.00016758306
0002f0 22 07 4c bd 3f 6f d9 3b ee 2f c1 bc c8 28 a5 3c
       -0.04981149 0.006635576 -0.023582425 0.020161048
000300 e6 18 42 bd 4c d0 61 3d 4c 57 c8 bc 1d 99 af bc
       -0.047387026 0.055130288 -0.024455689 -0.021435315
000310 4f 25 05 bd 30 a3 95 3c b8 d2 29 bd 65 c3 9d bc
       -0.032506283 0.01826629 -0.041460723 -0.01925821
000320 17 6f d3 3c dc b3 37 bd b7 24 d8 3c 03 3a 83 3d
       0.025809808 -0.04484926 0.026384695 0.06407549
000330 0d c2 ca 3d 19 75 06 bc 8a 56 5f 3d a1 6c b8 3c
       0.099002935 -0.008206629 0.05452589 0.022512736
000340 29 2d 73 3d ac 60 fb bc bd c1 de 3c 3f 7a e3 3c
       0.05936924 -0.030685745 0.027191991 0.027768252
000350 31 91 e3 bd 71 4f 14 bd f2 40 fc bd 6e c7 a2 3c
       -0.111116774 -0.036208574 -0.12317075 0.019870486
000360 80 87 86 3d 82 01 18 bc c6 bf 7b 3c 6e 97 ac 3c
       0.06568813 -0.009277703 0.015365547 0.021068301
000370 d8 5f a7 3d 59 6d 7e bd de 5f bb bb 57 bd b0 3c
       0.081725776 -0.062116 -0.0057182154 0.02157466
000380 c4 e4 e7 3d e3 75 19 3d 1a 4c af bd 6c 80 57 bd
       0.113229305 0.03746594 -0.08559437 -0.052612707
000390 63 7f 8d 3d 3f 82 93 3d d9 63 0c 3e 39 9f 80 be
       0.06909063 0.07202577 0.13709964 -0.25121477
0003a0 dd f6 15 be 48 9c 08 3c 45 63 7f 3d 00 4c b0 bd
       -0.14644952 0.008338042 0.06235053 -0.08608246
0003b0 39 ee 84 bd 91 f9 cd 3d 60 fb a5 3d 9c 50 e0 3b
       -0.0649075 0.10057367 0.081045866 0.006845547
0003c0 a6 7c 10 3e e9 13 f9 3d 26 33 56 3d 9d 76 0f be
       0.1411005 0.12162001 0.052294873 -0.14010091
0003d0 94 ef 4d bc 8a a6 df 3c 21 99 8d 3d 87 f3 d1 bb
       -0.012569327 0.027301092 0.06913973 -0.0064072045
0003e0 14 c3 d6 bd 50 06 d7 bd ac b3 fd bd 94 c0 d6 bc
       -0.10486427 -0.10499251 -0.12387785 -0.026214875
0003f0 38 8a ec bd 04 e7 66 3d 5a 34 01 bd 46 5a 4d bc
       -0.11549801 0.056372657 -0.031544067 -0.01253373

conv3.bias f4 [12]
000000 25 3f dd 3d f4 b6 81 3e 7f a7 13 be 91 03 d6 bd
       0.108030595 0.25334895 -0.14419363 -0.10449899
000010 87 31 53 3d 0f 63 23 3e dd b4 c3 bc 50 3b 0d 3e
       0.051560905 0.15955757 -0.023889953 0.13792157
000020 90 dc 9e bd 09 be 03 3e 15 41 d3 bd 2a a9 0c 3d
       -0.07756913 0.12865461 -0.10315148 0.034341015

fc1.weight f4 [24, 588]
000000 c5 2b ab bc c6 3a 00 bc 97 9a 6d bc f4 7f f0 3c
       -0.020894894 -0.007826513 -0.014502189 0.029357888
000010 af e6 0a bd d7 a4 11 bd 07 0b 40 bd 72 dd 7f bc
       -0.033911403 -0.035557594 -0.046885516 -0.0156167615
000020 ea cb c4 3b 1f 5e 81 bc 21 37 9c 3c e6 4c 49 bb
       0.0060057538 -0.01579195 0.019069256 -0.0030716
000030 38 c6 40 3c 8d b8 9d 3c ec 61 52 3b e6 ee 1b b9
       0.011766009 0.01925304 0.0032101823 -0.00014870949
000040 bb 9e dc 3c 44 36 be 3c 65 80 b2 3c fc 84 1a bd
       0.026931157 0.023219235 0.021789739 -0.03772448
000050 cf 41 71 bc 5f cc c2 3c 20 26 16 3c 4d 98 ec bc
       -0.014725163 0.023779092 0.009164363 -0.028881216
000060 98 fe f1 3c c2 e2 6b 3c f1 f8 17 bd ee ba b1 3c
       0.029540345 0.014397325 -0.037102643 0.02169558
000070 32 4e 60 bc 26 93 f9 ba 56 43 45 bd 03 d5 02 bd
       -0.013690518 -0.0019041046 -0.04815992 -0.031941425
000080 1e 03 0b bd 47 d9 b2 3c 65 4f 0a 3d ef 54 b2 3c
       -0.03393852 0.021832122 0.033767123 0.021769015
000090 cf ec 8f bc 10 34 b5 3c 74 a7 d0 bb 3d 05 68 3c
       -0.017568974 0.022119552 -0.006367618 0.014161405
0000a0 16 99 67 bc a2 31 34 bd 21 0a bb bb 34 4d 35 bc
       -0.01413562 -0.043992646 -0.0057079946 -0.01106577
0000b0 05 3b cc 3b f4 ad 89 bc 25 50 b6 39 d8 9a 70 ba
       0.0062326216 -0.01680658 0.00034773457 -0.0009178347
0000c0 83 b4 9a ba 01 fe 8e 3c 5d 20 e3 bc e9 2f 2c 3c
       -0.0011803064 0.017455103 -0.027725393 0.01050947
0000d0 5f bb 14 3d f9 87 21 3d ab 6a 09 bc 58 05 68 bc
       0.036311503 0.039436314 -0.008387248 -0.01416143
0000e0 4a b5 06 bd aa 25 fc bc 26 aa ee 3b 2a 10 bb 3c
       -0.032887734 -0.030779678 0.007283467 0.022834856
0000f0 7b ab 0c bd d4 8a d4 3c e8 6b f9 3c 7c a2 61 ba
       -0.034343224 0.025945105 0.030446962 -0.0008607281
000100 15 e2 81 3c fb 8e b1 3c e9 99 b1 3b f5 10 0a bd
       0.015854875 0.021674624 0.005419959 -0.033707578
000110 56 a2 73 bc f4 7d 49 3c a8 f8 ad bc e8 82 cc 3c
       -0.014870247 0.012298096 -0.021236733 0.024964765
000120 fb 5e 33 3b d0 81 16 bd dc 9a b5 3b d7 5a f4 3c
       0.0027369845 -0.036744893 0.0055421423 0.029828472
000130 70 ac 07 bd 57 93 b4 3c 6c 6c e6 bb 39 20 26 bd
       -0.033123434 0.022042913 -0.007031968 -0.040558074
000140 89 a8 71 3b 62 e8 99 bc 0b 24 99 bc 13 b4 54 3c
       0.0036874136 -0.018787567 -0.018693944 0.012982386
000150 01 bb d3 ba 54 f7 a1 bb 38 87 9a bc a2 1c 12 bb
       -0.0016153754 -0.004942814 -0.018863305 -0.0022294899
000160 87 96 a3 bc 54 28 c7 3c 10 c1 2a bc c4 00 af 3c
       -0.019969238 0.024311222 -0.010422006 0.02136267
000170 d5 2f 3a bd 0c 60 ec bc 0a 92 ad bc e1 c2 10 3d
       -0.045455772 -0.028854392 -0.0211878 0.0353421
000180 29 89 6f 3c 31 5b 07 bd 76 73 15 bd 00 a2 44 bb
       0.014620104 -0.03304595 -0.036487065 -0.0030003786
000190 36 5b 50 bc d2 5d 0e bc 39 e0 20 3c d8 0b d4 3c
       -0.012717059 -0.008689361 0.009819084 0.025884554
0001a0 e5 98 94 3c c9 0e 87 bc 15 ec d0 3b 96 c4 e7 bc
       0.018139312 -0.016486542 0.0063757994 -0.028291982
0001b0 49 30 ed bc 07 91 3f 3c 12 48 b2 3c 90 de c0 bc
       -0.028953688 0.011692292 0.021762881 -0.023543626
0001c0 68 84 20 bc 1a 7d 12 bd a7 ee 82 bc af e1 d2 3c
       -0.009797193 -0.035763837 -0.015982939 0.02574238
0001d0 3d 96 41 ba 33 8e d7 bc ce 4a bb 3c 18 1f 12 3d
       -0.0007384753 -0.026312923 0.022862818 0.035674185
0001e0 0b f6 9b bc 42 98 05 3d 46 a3 01 bd 3e 54 04 bd
       -0.01903822 0.032615907 -0.03164985 -0.032306902
0001f0 3b 97 b9 39 93 12 12 bd 90 11 e8 bc 76 79 07 39
       0.00035398625 -0.035662245 -0.028328687 0.00012919851
000200 ae eb ca bc 21 ea d6 bb f9 fc 63 bc 67 86 33 bd
       -0.024770584 -0.006558672 -0.013915294 -0.043829348
000210 ec b7 c9 3c 3c 3f f0 3c e1 20 5b bc b6 eb 80 3c
       0.024623834 0.029327027 -0.013374538 0.015737396
000220 21 22 66 bc cc df 06 3d 7a e1 d7 3c ea 01 28 3d
       -0.014046223 0.032928273 0.026352633 0.04101745
000230 fc c4 c1 3c db e3 2f 3c 86 fd 01 bc 9c e7 f4 3c
       0.0236535 0.010735477 -0.00793398 0.029895596
000240 7d 5a 4a bb 40 ea 54 bc 33 68 09 bd 3f 94 29 bc
       -0.003087669 -0.012995303 -0.033546638 -0.010350286
000250 27 18 fd bb 75 70 0d 3d d9 dc 17 bd 24 f5 4a bc
       -0.0077238264 0.034531076 -0.03707585 -0.012387548
000260 38 31 32 bc e0 f8 20 bc 4c 48 f4 3c 7f 15 39 3c
       -0.0108759925 -0.009824961 0.02981963 0.011296629
000270 be 59 86 3c 6b 2e 7a 3c a9 32 76 bc cd af 00 3c
       0.016400214 0.015269856 -0.015026727 0.007854414
000280 19 e5 df bc 0d 54 e1 bc bc 2d 6d bc 29 f2 a6 3c
       -0.027330922 -0.027505899 -0.014476236 0.020379143
000290 65 0f fb 3b 38 87 fb bb 4a 27 c7 bc 5b 4b 30 3d
       0.0076617473 -0.0076760314 -0.024310727 0.043040615
0002a0 66 d3 f2 3a 2d dd 15 3c fa 40 0d bd f4 1b 91 ba
       0.0018526136 0.009146971 -0.034485795 -0.0011070953
0002b0 da 02 55 bb 8b 0d 17 3c 66 5f 08 3d 5a 37 50 3c
       -0.003250292 0.0092195375 0.033294104 0.012708509
0002c0 bc 01 f6 3c 9f 02 e8 bc 72 94 23 bc e7 55 ab 3b
       0.030030124 -0.028321562 -0.009984123 0.005228746
0002d0 5d b5 18 bd f3 c8 d1 bc 46 be 9c bc 5a c8 06 3d
       -0.037282337 -0.025608515 -0.019133698 0.032905914
0002e0 71 7d 86 3c e0 b2 03 3d 9b 88 19 bd e9 13 09 3d
       0.016417237 0.03215301 -0.037483793 0.033466253
0002f0 0a d5 a6 b9 9a 99 ef bc 44 0b 95 3c 08 74 24 3d
       -0.00031820714 -0.029248048 0.018193848 0.04014972
000300 7f 8e 1f bc c3 38 d7 3c 12 95 f7 3c 25 cb c6 bc
       -0.009738564 0.026272183 0.03022245 -0.024266789
000310 2a 0a 14 bc cc 5b 12 bd 1d f5 a1 3c 0e bd 7b 3c
       -0.009035626 -0.035732076 0.0197702 0.015364898
000320 e4 a6 5d bc 3a 4b 20 bd 1f 78 d5 3c a0 24 08 3b
       -0.013528559 -0.03913424 0.026058255 0.0020773783
000330 d3 31 ad bc 7a 4e 38 3c 46 da bf 3c 9f a1 64 bb
       -0.021141922 0.011249179 0.02341951 -0.0034886373
000340 e1 fc 08 3c 7f c7 3d bd 36 48 3f bd 52 54 3e bd
       0.008361072 -0.046332832 -0.046699725 -0.046467133
000350 30 28 3a bd 48 1a c1 3c 16 a6 c6 bb ba e8 9e 39
       -0.045448482 0.023572102 -0.0060622795 0.00030309503
000360 3c 27 f0 bc 8b 8e 2f bd 6e d4 99 bc 3f 09 e7 bc
       -0.029315583 -0.04286055 -0.018778052 -0.028202651
000370 9b 4c a4 3c df e9 96 3c 90 78 9a 3b 42 6e a5 3b
       0.02005606 0.018422065 0.004714079 0.005048544
000380 a0 0c 62 3c 9a 52 36 bd ee 44 96 39 50 e9 01 3c
       0.013796955 -0.04451237 0.00028661586 0.007929161
000390 3e b3 dc ba b0 61 26 bd e5 64 ee bc 12 d3 6a bc
       -0.0016838086 -0.040620506 -0.029100845 -0.01433255
0003a0 24 4c db bc 56 12 df 3b dc 2f 3a bc 2e 68 0a bd
       -0.026769705 0.0068076057 -0.01136395 -0.03379076
0003b0 ed f2 d3 bc 4e e2 98 bc eb 91 37 bc 74 75 b1 3b
       -0.025872672 -0.018662598 -0.011204223 0.005415613
0003c0 fd 9d 4e bd 5c 91 10 3c eb 4b 4a bd 09 df 05 39
       -0.050443638 0.008823719 -0.049388807 0.00012766955
0003d0 8f 6c a7 bb fd 86 2e bc a7 9d 2d 3c 3b ed 65 bc
       -0.0051093767 -0.010652301 0.010596669 -0.014033611
0003e0 e0 6d 02 3c c8 ea dd 3b ba 89 d8 bc 60 1c 2d bd
       0.007960767 0.006772373 -0.02643286 -0.04226339
0003f0 d6 58 9b 3c dc fa 6b bc b0 8a 42 3c f2 db 36 3b
       0.018963259 -0.014403071 0.011873886 0.0027902094

fc1.bias f4 [24]
000000 50 8c 32 bd 5b 71 e4 3d 26 63 90 3c 3e 07 d6 3c
       -0.043590844 0.11154433 0.017625403 0.0261265
000010 a5 97 1b bd e8 39 17 3e 6a 0d 2d bd e8 56 db 3c
       -0.037986416 0.14768183 -0.04224912 0.026774839
000020 92 2e 9c 3c ab aa 1c bd 50 48 b8 3d a7 2d df bc
       0.019065175 -0.0382487 0.089981675 -0.027243448
000030 49 c5 48 bc 03 48 8a bc 30 d6 33 bd 95 98 ee bc
       -0.012254068 -0.016880041 -0.043905437 -0.029125491
000040 b2 8f 8e 3c 64 17 bf 3b f4 6d cc 3c e9 0a 51 3c
       0.017402504 0.005831646 0.024954773 0.012758949
000050 c1 b6 6d bd 95 03 4c bd c9 1d 33 3e 8b 5a 0c bd
       -0.058035616 -0.049808104 0.17491831 -0.034266036

fc2.weight f4 [588, 24]
000000 f4 77 1f 3e ca f9 b8 bd 82 66 ad bd aa 35 44 3d
       0.15573102 -0.090320185 -0.084668174 0.04790274
000010 75 37 0b be 0e 6f 6c bc 61 98 8d 3d 2b fd 72 bd
       -0.13595374 -0.014430774 0.069138296 -0.05932347
000020 d6 2c 3e 3e 53 f3 90 3c bd c8 9c bc f8 cd 80 bd
       0.18571791 0.017694151 -0.019138688 -0.062892854
000030 1b 16 f9 3d cf 0e e4 bd 79 a8 36 3e a4 61 02 3e
       0.121624194 -0.11135637 0.17837705 0.1273256
000040 45 74 ad 3d b5 cd c4 3d 91 9c bc 3d 1f 0d d7 bd
       0.08469442 0.09609548 0.0920955 -0.105005495
000050 41 15 f8 bd 93 f6 50 bc 85 18 ae bd ec 6b 05 3d
       -0.12113429 -0.0127541 -0.085007705 0.032573625
000060 54 a7 ef bd a3 ac 51 bd da 40 2a 3e 07 ed 29 3e
       -0.11701837 -0.05119003 0.16626301 0.16594325
000070 04 a7 43 3e a9 3b f8 bb ac f0 d8 3d 9f 76 03 3e
       0.1910668 -0.0075754714 0.105927795 0.12838219
000080 66 36 9d bc ab 01 c6 bc f5 99 c2 bd 7e 11 bb 3d
       -0.019190978 -0.024170717 -0.09502021 0.09134196
000090 d5 57 e6 bd f1 84 56 be bc 96 42 3e fb 7e 0c 3e
       -0.112472214 -0.2094915 0.19002813 0.13720314
0000a0 d6 e5 49 be 77 37 39 be 6e f4 11 3d 1c cd bd bc
       -0.19716582 -0.18087564 0.035633497 -0.023169093
0000b0 e6 92 0c 3e 61 33 9c bc da 9c cf bd dc cd 20 3e
       0.13727912 -0.019067468 -0.10137339 0.15703529
0000c0 3e 97 48 3e 43 cc 09 bd ce 1f ed bd be 01 36 be
       0.19588944 -0.033642065 -0.11578332 -0.17774102
0000d0 5c d0 d3 3d 5c c8 a1 be 46 00 34 be 47 02 14 3e
       0.10342476 -0.31598175 -0.1757823 0.14453994
0000e0 f3 30 01 be 30 9e 4b bd 06 66 d0 bc 22 f0 ab bd
       -0.12616329 -0.049711406 -0.025439274 -0.08395411
0000f0 88 41 d8 bc 94 53 24 3e 68 36 d1 3d da 5a 03 bd
       -0.026398435 0.16047508 0.10215455 -0.032069065
000100 04 81 1a bd 58 ca 80 be 4e 5d 12 be 0b c6 40 3e
       -0.037720695 -0.25154376 -0.14293405 0.18825547
000110 2f 20 5a 3f 17 1f 17 be 56 bc ae be 88 a3 be bc
       0.8520536 -0.14757954 -0.34128064 -0.023271337
000120 0f 64 12 3e 9a a4 f2 be 9a f2 a4 3d 9e db e6 bc
       0.14295982 -0.47391206 0.08054085 -0.028180894
000130 cc a2 e4 3d e1 53 b9 3c 0e 9e dc bd 50 46 4d be
       0.111638635 0.022623004 -0.10772334 -0.20046353
000140 98 54 0a 3d 4c 9c 04 be 53 03 e2 3c b8 9e 44 3e
       0.03377208 -0.12950248 0.027589476 0.19201171
000150 00 13 16 be ea 10 14 3e d9 4a ea bd dd ba 4f be
       -0.14655685 0.14459577 -0.11440057 -0.20286126
000160 d1 29 36 3e a3 8f dc 3e 49 0b 55 bb 15 4d 12 3e
       0.17789389 0.43078336 -0.0032507947 0.14287217
000170 ac 95 dd 3d a3 80 39 3e ba cc 2f be 00 49 54 bc
       0.10819563 0.18115477 -0.1716794 -0.012956858
000180 93 f2 81 3d 4b 9d 26 bf 8c ab 0a 3e 70 df 2e 3e
       0.063450955 -0.6508376 0.13542002 0.17077422
000190 36 35 2d 3e 03 fb 15 3d 6d 67 e0 bd 87 27 15 be
       0.1691483 0.036616337 -0.10957227 -0.1456586
0001a0 6d ba 03 3d 80 8a 98 3d e4 4c ca bc dd fb b2 bd
       0.03216021 0.07448292 -0.024694867 -0.08739445
0001b0 2d f0 77 3d 48 07 8c 3d ac 66 42 be 50 fc 16 be
       0.060531784 0.06837326 -0.18984479 -0.14744687
0001c0 60 25 ad 3b 1c 04 f6 3e 92 c2 3c be 12 32 30 3e
       0.0052839965 0.4805001 -0.18433598 0.172066
0001d0 6d 1a a2 3d a8 df 44 3e dd d6 64 be e0 08 e0 3c
       0.079151966 0.19225943 -0.22347589 0.027347982
0001e0 1d 8f ae bd d1 0e 4b be 9e b0 44 3e 10 23 34 3d
       -0.085233904 -0.19829871 0.19207999 0.04397875
0001f0 5c 79 ab bd 0a ef b8 3d cc 5e 12 3e 60 7a 56 3d
       -0.08372757 0.09029968 0.14293975 0.0523628
000200 60 9b 30 bc b4 f3 47 bd 5a ef 9d bd bc c4 07 be
       -0.010779232 -0.048816398 -0.07711668 -0.13258642
000210 6e bf 2c be 38 a9 41 3d d9 5d d1 bd e0 3d 8d bd
       -0.168699 0.04728052 -0.10222978 -0.06896567
000220 00 cb e3 3d 24 2d 66 bd 9e fd 45 be bb e6 37 be
       0.111227036 -0.056195393 -0.19335029 -0.1795911
000230 d5 bc 16 be 84 ad 43 bd e1 df 25 3d 00 fc 97 39
       -0.14720471 -0.0477729 0.04049671 0.0002898872
000240 4b d3 0d be e2 59 0b be 78 d7 e2 bc 88 c5 83 bd
       -0.13850133 -0.13608506 -0.027690634 -0.064341605
000250 a0 23 ac 3d fb f1 0a bc a4 18 9e 3d 68 71 77 3d
       0.084052324 -0.008480544 0.077195436 0.060410887
000260 d5 09 92 bd 96 88 30 3e 8b 93 f4 be dc 4e 54 bd
       -0.071307816 0.17239603 -0.47768816 -0.05183302
000270 17 63 20 be 84 ef 3a 3e 2c 51 c5 3d 9a 86 39 3e
       -0.156628 0.1825543 0.09634623 0.18117753
000280 c0 4c d8 3c 95 ae 65 be f0 a6 19 3e b6 2f 7c 3d
       0.026403785 -0.22429879 0.15005088 0.06156894
000290 40 d5 1b be 32 70 2c 3b 07 e6 b0 3d fd 85 70 bb
       -0.15218067 0.002631199 0.08637624 -0.0036700957
0002a0 52 42 6d bc 4f 0f 78 3d 20 fa 43 be 0e 10 c3 3d
       -0.014481144 0.060561474 -0.19138384 0.095245466
0002b0 40 41 32 be d3 fa 46 3d a0 bc 1e 3e ab 25 90 3d
       -0.17407703 0.04857905 0.15501642 0.070384346
0002c0 77 90 22 be 37 12 a5 bd 61 3d 89 3c 0d 42 20 be
       -0.15875421 -0.08060115 0.0167529 -0.15650196
0002d0 97 74 05 3e b3 9b 2a 3e b3 93 f5 bd d5 af 4e 3d
       0.13032757 0.16660957 -0.11991062 0.050460655
0002e0 18 34 17 3e af 4d 71 be 94 1d 12 be 90 5b 0a bd
       0.14765966 -0.2356479 -0.14269096 -0.033778727
0002f0 7e 15 c7 3d 80 1d ea ba 09 15 5d bd 44 aa 24 be
       0.09720896 -0.0017861575 -0.05397514 -0.16080576
000300 fb 62 e6 3d 0b 2d 2f 3e 32 4d a0 bd be bb 3c be
       0.11249348 0.17107026 -0.07827224 -0.18430993
000310 cb 30 4a be 97 0f 04 3e e8 32 ad 3d 9c e8 4e 3e
       -0.19745176 0.12896572 0.08456975 0.20205921
000320 dc 32 88 3d 04 23 4e 3d b2 6f 0a 3c 36 68 2b 3e
       0.06650326 0.050326362 0.008449482 0.16738972
000330 6e d1 2f be f8 42 bd bc 91 b7 d6 bb 9e 6a 19 3d
       -0.17169735 -0.023103222 -0.0065526445 0.037455194
000340 68 15 b0 bc 9c 80 60 bd 9c e7 b1 3d f0 a0 d3 3b
       -0.021494582 -0.05481015 0.08686754 0.006458394
000350 90 72 3e bd 96 26 b1 bd e2 4f 96 3d 56 e9 1b be
       -0.046495974 -0.08649938 0.07339455 -0.1522573
000360 7f 5e 12 3d 95 91 64 be dc ea af 3d 38 51 a0 bd
       0.03573465 -0.2232116 0.08589718 -0.07827991
000370 82 65 88 3d 34 71 38 be cd df 66 bd d9 61 59 be
       0.06659986 -0.18011934 -0.056365777 -0.21228732
000380 12 45 94 bd e9 9a 46 3e da 8b cc 3d f0 5c fe bd
       -0.072397366 0.19395031 0.09987612 -0.1242007
000390 2d d8 a4 bd 20 4f 2a 3e f1 87 44 be 73 8d 3b be
       -0.08049045 0.16631746 -0.19192483 -0.18315677
0003a0 a6 ac d6 bd 92 0a fb bd 18 be ee 3d 76 53 37 be
       -0.10482149 -0.122578755 0.11657351 -0.17902932
0003b0 8a 1a 01 3e cf 31 c9 bd bb ef 12 be 50 0f 89 bc
       0.1260778 -0.09823953 -0.14349262 -0.016730934
0003c0 a8 fa 52 3d b1 62 73 bc 1e 63 fe bd e4 80 f7 3d
       0.051508576 -0.014855073 -0.12421249 0.12085131
0003d0 74 26 b9 3d 4c 6e 70 3e 08 40 0e 3e 27 b2 bf bd
       0.090405375 0.23479575 0.13891613 -0.09360152
0003e0 09 b3 7b bc 1d 69 12 3e 3b fe ea 3d bc f8 0c 3e
       -0.0153625095 0.1429791 0.11474272 0.1376676
0003f0 e8 fd 1f bd 2c c0 9f 3d 48 a3 4e be 26 9c 14 3d
       -0.039060503 0.07800326 -0.20179474 0.036281727

fc2.bias f4 [588]
000000 67 bc 96 bc 6b d2 b0 3d 51 e2 9c 3f a3 e6 e2 3f
       -0.018400384 0.08633884 1.2256566 1.7726635
000010 2a 6f 6d 3f ba 51 8d bd 34 d4 ff bd 64 9f 68 bf
       0.9274775 -0.06900354 -0.124916464 -0.9086821
000020 0e 9e 99 3d 41 f9 44 3d d2 28 c9 be 98 d1 12 bf
       0.0750085 0.04808927 -0.39288956 -0.57351065
000030 fb f9 02 c0 56 41 91 bd 29 e2 84 3b 4d 39 45 3f
       -2.0465076 -0.0709254 0.0040552807 0.7704056
000040 64 92 7b be 75 63 26 c0 f6 dd 95 3d f8 70 2a be
       -0.24567562 -2.5998204 0.07317726 -0.16644657
000050 29 50 a0 3d 2b 92 af 3d 68 8e 84 bf de ea 81 bf
       0.07827789 0.08572801 -1.0355959 -1.0149801
000060 dc 8f ed 3f 4f 99 5b 3d 1e cd d0 bf 79 c7 b5 3d
       1.8559527 0.053613003 -1.6312597 0.08875937
000070 fb 3e 26 be 2c f1 c2 be 51 03 e9 3d 10 61 9d bf
       -0.16234963 -0.38074625 0.11377586 -1.2295246
000080 2b 96 a7 3f 47 37 05 40 cc b6 0c bd 34 66 26 be
       1.3092703 2.0814989 -0.034354016 -0.16249925
000090 e8 8f d5 3d f1 75 78 3f 63 59 92 3d 8c 09 d0 3e
       0.104278386 0.97054964 0.071459554 0.40632284
0000a0 ac dc 22 c0 c4 30 5e 3d fb fb e0 3d 0c f8 d9 be
       -2.5447187 0.054245725 0.109855615 -0.42572057
0000b0 80 c0 e1 3c 19 25 e9 bf 1b b6 1e 3d 0a fc 0d bf
       0.027557611 -1.8214446 0.038747888 -0.55462706
0000c0 4c 34 1f be 6d 21 dc 3d b7 67 e5 3d d2 6d 60 bf
       -0.15547293 0.10748563 0.11201423 -0.8766757
0000d0 07 f3 7a 3c dd 1a f2 be be 22 a0 bd 99 b6 f5 3c
       0.015316731 -0.4728612 -0.078191265 0.029994296
0000e0 62 7f 64 be 09 6f 99 bf 96 15 3b 3f 60 93 86 be
       -0.22314218 -1.198701 0.7307981 -0.26284313
0000f0 6a cf 79 be 3e bd 2e 3e 5e e2 2d 3c ac a0 c5 3d
       -0.24395528 0.17064378 0.010613052 0.09649786
000100 6e 21 ab 3d 1d 0f f3 bd 72 6e 16 c0 c1 82 3e bf
       0.083559856 -0.11868117 -2.350491 -0.74418265
000110 cf df 9a bf b3 a6 2b be 11 12 2c bd 3b 5a 4e 3e
       -1.2099551 -0.1676281 -0.042009417 0.20151608
000120 18 40 bc 3e 5e 40 1d bf 6f 49 9c bd de 23 01 3e
       0.3676765 -0.6142634 -0.07631194 0.12611338
000130 fe fa 34 be 84 53 3b be 3d 7f ba be 8b 4c a4 be
       -0.17673871 -0.18293577 -0.364252 -0.32089648
000140 cc bf a4 bf 48 4e 3f 3f 8a da f3 bf f2 91 56 bf
       -1.2871032 0.7472882 -1.9051068 -0.83816445
000150 e3 3c ea bd ce cc 11 c0 7b 76 85 3f 72 4f 5a be
       -0.114373945 -2.2781253 1.0426782 -0.21319368
000160 7f b0 d7 3b 7d 14 3d c0 df 37 76 be 2f 4b 8b 3b
       0.0065823193 -2.9543755 -0.2404475 0.004250906
000170 14 c8 00 be e0 3a f1 be bb 90 1d 3f 7a 3f 93 bf
       -0.12576324 -0.4711523 0.61548966 -1.1503747
000180 cb 41 5b be 8d fc 1d 3e 72 18 f2 bc 63 90 f9 bd
       -0.21411817 0.15428372 -0.029552672 -0.12185743
000190 ff 91 de 3e 21 70 17 bf 2b 52 96 3f 37 93 b2 be
       0.4347076 -0.5915547 1.1743826 -0.3487794
0001a0 9e fa 2f 3e b4 e3 0f 3e 93 fe 3b be d8 d3 5a be
       0.17185447 0.14051706 -0.18358831 -0.21369874
0001b0 6a 25 81 3f 0e 7d 80 3f 85 29 07 c0 76 72 a5 bf
       1.0089543 1.0038164 -2.1119092 -1.2925556
0001c0 8b 3d 86 bf e2 36 0c c0 aa f6 1b 3f f7 72 86 3f
       -1.0487531 -2.1908498 0.60923254 1.0503834
0001d0 6a 63 70 3c c8 b2 97 bf fe 18 34 be 45 8d ad 3d
       0.01467214 -1.1851435 -0.17587659 0.08474211
0001e0 1a 6d 1c 3e 25 3d e9 bd fd 69 c4 be 28 f9 54 3f
       0.15275994 -0.113886155 -0.38362113 0.8319268
0001f0 35 34 01 be 68 ba ad 3b b2 ec 12 bd 92 d4 b8 bf
       -0.12617572 0.0053017624 -0.03587026 -1.4439871
000200 29 d0 28 bf a5 18 dd 3e 63 7c 34 be f4 83 14 bf
       -0.6594263 0.43182865 -0.17625575 -0.58013844
000210 77 ae c0 3d 4c f5 f0 3d 2a 20 14 be 73 cc 37 bf
       0.094082765 0.11765537 -0.14465395 -0.7179634
000220 92 ba c6 bd 1d e9 a8 bd 1d 41 03 3f 9b 23 dd 3d
       -0.09703554 -0.08247588 0.5127123 0.10797807
000230 52 73 0c bd 14 3a 0f bf d5 07 e0 bd 9a 0b 3c 3a
       -0.034289666 -0.55947995 -0.10938994 0.00071733596
000240 7d fa e2 be 2e ef 12 3d 71 59 69 be 7b b2 fc bd
       -0.44331732 0.03587263 -0.22788025 -0.1233873
000250 4b 6a 42 3d d4 b5 07 bf 13 2c 16 40 5c 09 5d 3f
       0.04746465 -0.5301182 2.34644 0.86342406
000260 ad 2e 26 3e ee d4 e0 bd 68 a7 3e 3d 37 75 ec bc
       0.16228743 -0.10978113 0.04654637 -0.028864486
000270 1b 64 81 3e 6b 4c f3 3e 33 51 34 3f bb 4c b5 bf
       0.25271687 0.4751924 0.704364 -1.4164041
000280 96 57 6c bd 01 ab ac bd d4 30 0c c0 08 17 80 3f
       -0.057700716 -0.08431054 -2.1904802 1.0007029
000290 b0 10 a5 3f d9 ac 8b bf 30 bb 25 c0 62 e4 f2 3d
       1.2895718 -1.0912124 -2.58955 0.11859967
0002a0 5b 14 0e 3e 68 72 02 bc e5 6e b7 be 0e 08 3e be
       0.13874952 -0.007961847 -0.35826793 -0.1855776
0002b0 a7 0d bd 3f 60 0b ad bb a8 e7 9d bf e6 0f c1 3d
       1.4769791 -0.005280897 -1.2336321 0.094268605
0002c0 fb bb c0 3e aa 06 58 3d a8 54 0f c0 86 1a ae 3d
       0.37643418 0.05274073 -2.239542 0.08501153
0002d0 2a 47 85 3f 40 43 00 be b0 e1 03 bd e2 94 03 bf
       1.0412343 -0.12525654 -0.032197654 -0.5139905
0002e0 b3 30 75 be c3 d4 23 be 90 9d 81 3f 5d 86 05 c0
       -0.23944359 -0.15999131 1.0126209 -2.086326
0002f0 8d fd 86 be c2 d9 59 be d2 03 6a 3f 62 d8 9a 3d
       -0.2636532 -0.21274474 0.9141208 0.07560803
000300 a4 d0 b6 3f 11 9e 38 be df 22 d7 3d 60 26 93 bc
       1.4282422 -0.18029048 0.10504698 -0.017962635
000310 54 ae 04 be 8a b6 03 3e 11 29 c4 bf 3a 52 ba bf
       -0.12957126 0.12862602 -1.5325032 -1.4556344
000320 45 36 10 bf f4 6e 80 3e 0b 3c c3 3f dd 04 bf 3f
       -0.5633281 0.2508465 1.5252699 1.4923359
000330 3c 18 a7 3b 20 b0 1f bd 78 83 0c be 39 8d 33 bc
       0.0050993245 -0.038986325 -0.13722026 -0.010958963
000340 04 80 cc 3f d0 07 d4 3f 1a 95 d9 3f f1 34 d7 bd
       1.5976567 1.6564884 1.6998627 -0.10508145
000350 30 01 88 be d0 63 25 3d ab 57 24 3f 6f bf 8f 3f
       -0.26563406 0.04037839 0.6419627 1.1230296
000360 2e 42 61 3f 72 0b 24 3e 0f 08 dd 3f ab 8e a7 be
       0.8799161 0.16019991 1.7268084 -0.32726035
000370 33 60 87 be 9b f9 db bf b3 80 79 3f 87 51 c6 3f
       -0.26440582 -1.7185549 0.97462004 1.549363
000380 bb c1 ce bb 19 39 71 3f fc bf 8a 3f 93 6d 6e bd
       -0.0063097156 0.9422775 1.0839839 -0.058209967
000390 20 bc 00 be 08 b8 59 be 4c c4 c0 3f e9 85 c4 3f
       -0.12571764 -0.21261609 1.5059905 1.5353366
0003a0 01 3e 1c 40 27 1b dc 3f 00 51 1d bd 35 2a 02 40
       2.4412844 1.7195786 -0.038407326 2.033826
0003b0 08 a9 0c bc dd d9 19 c0 a3 76 c9 3f da 22 03 3b
       -0.008585222 -2.4039223 1.573933 0.0020009787
0003c0 6f 61 13 3e 9b 17 01 3e 7e 3d 8b 3f 6e a3 cf bc
       0.14392637 0.12606661 1.0878141 -0.025346484
0003d0 d1 7d c1 3f 19 3b 2c 3e 7c 6b 35 be 32 07 65 be
       1.5116521 0.16819419 -0.17716783 -0.22366026
0003e0 2e 15 92 be 6e 5a 2a 3d 69 fa 42 bd 83 55 0b 3e
       -0.28531784 0.041590147 -0.04760209 0.13606839
0003f0 d3 5c 8b 3d 46 52 fa 3c 39 d6 66 3d 36 f6 e6 bf
       0.06804814 0.03055681 0.056356642 -1.8043888
