Pytorch/AutoEncoder/saved_models/mnist/NetLargeDropout-L1Loss_mnist.pt (torch, 246767 bytes, 15 tensors)

conv1.weight f4 [64, 1, 3, 3]
0	0xbf09ce3c	-0.53830314
1	0xbd195601	-0.037435535
2	0xbb8de56c	-0.0043303277
3	0xbced2c6f	-0.028951852
4	0x3c0d6eee	0.008632405
5	0x3d1cd873	0.03829236
6	0xbc2a218e	-0.010383977
7	0x3b8d0388	0.0043033995
8	0x3de02b4c	0.10945758
9	0x3de798c4	0.113084346
10	0xbc4b0b57	-0.01239284
11	0x3dba161d	0.09086249
12	0x3cb73721	0.022365155
13	0x3e5b8e18	0.21440923
14	0x3e2e3a0e	0.17014334
15	0xbcbe43b4	-0.023225643
16	0xbc0798a4	-0.008276138
17	0x3d4cb603	0.049978267
18	0x3df1d148	0.11807495
19	0x3d975bbe	0.07390545
20	0xbe33e759	-0.17568721
21	0x3d1dadd5	0.038495857
22	0x3c920c8b	0.017828247
23	0xbdf1c9c1	-0.1180606
24	0xbc1687e1	-0.0091876695
25	0xbe3c15fa	-0.18367758
26	0xbf911030	-1.1333065
27	0xbe0359de	-0.1282725
28	0xbe8984e2	-0.26859194
29	0xbd863505	-0.065530814
30	0x3e8e0baf	0.2774329
31	0xbcb383b6	-0.02191339
32	0x3eb05336	0.34438485
33	0x3d32a217	0.043611612
34	0x3e2590e3	0.16168551
35	0xbc435da9	-0.011924186
36	0xbc998e80	-0.018744707
37	0x3d386c5a	0.045025207
38	0xbcba47e3	-0.022739356
39	0x3da9080d	0.08253489
40	0x3cf1fe3a	0.02954017
41	0x3d8fd079	0.07022185
42	0xbe0844b8	-0.13307464
43	0x3daa80f3	0.08325376
44	0x3d3436f8	0.043997735
45	0x3dd44294	0.10364261
46	0x3d62c6f2	0.05536551
47	0x3dd7c762	0.10536076
48	0x3d58aca8	0.052899033
49	0x3cdee02b	0.027206501
50	0xbd354997	-0.044259634
51	0x3d7c5cee	0.061612062
52	0x3da2bfbb	0.07946726
53	0xbde586d7	-0.11207359
54	0x3ca1acea	0.019735772
55	0x3e1dea09	0.15421309
56	0x3e38bc88	0.18040669
57	0xbeaed68d	-0.34148064
58	0xbe634093	-0.22192602
59	0x3e1c9ecf	0.15294956
60	0x3da9689d	0.082719065
61	0x3e978db3	0.29600295
62	0xbbd7c742	-0.0065850327
63	0xbe8c62a8	-0.2741902
64	0x3d80bc5d	0.062859274
65	0x3e008b64	0.12553173
66	0x3bf3b3e2	0.007437215
67	0xbe1255fa	-0.1429061
68	0x3e065832	0.13119581
69	0x3dcbe8c9	0.099565096
70	0x3dcff7e9	0.10154707
71	0x3ddffe5e	0.109371886
72	0xbe0fd3c0	-0.1404562
73	0x3e3b16d3	0.18270425
74	0xbec23998	-0.37934566
75	0xbde49862	-0.11161877
76	0xbf07b901	-0.5301667
77	0xbe0ec43f	-0.1394205
78	0x3e0887af	0.13333009
79	0x3dd490d7	0.103791885
80	0x3d12d6b2	0.03584928
81	0x3d6216d2	0.055197544
82	0xbe21aeb5	-0.15789302
83	0x3dc6e009	0.097107
84	0x3e0eb99f	0.13937996
85	0x3d495fa3	0.049163472
86	0x3de410c9	0.11136014
87	0x3c08a28b	0.0083395345
88	0x3e2fdd4a	0.17174259
89	0xbd2d6071	-0.0423283
90	0x3d3acc68	0.045605093
91	0x3dbf039b	0.093268596
92	0xbc8d0763	-0.017215436
93	0xba19394b	-0.0005845024
94	0x3e52905c	0.20562881
95	0x3e274a62	0.16336969
96	0x3e478167	0.19482957
97	0xbd17750d	-0.036976863
98	0x3cf0c654	0.029391445
99	0x3db856ba	0.09000917
100	0x3db83d8a	0.08996113
101	0x3cea18d6	0.028576296
102	0xbda83bbd	-0.08214519
103	0xbe78bcca	-0.24290767
104	0x3d4266ae	0.047461204
105	0xbdd7e6d0	-0.10542071
106	0x3e078c79	0.1323718
107	0x3d182cf9	0.037152264
108	0xbec1a84a	-0.37823707
109	0xbeaf692c	-0.34259927
110	0xbfa4019d	-1.2812992
111	0x3d2eb725	0.04265513
112	0x3e8c37ca	0.27386314
113	0xbebb6c9f	-0.3660631
114	0x3e27767a	0.16353789
115	0x3c6f246f	0.014596089
116	0xbe598a9a	-0.21244279
117	0x3e8bd6fc	0.27312458
118	0xbe37aba6	-0.17936572
119	0xbd9daba3	-0.07698753
120	0xbec41581	-0.38297656
121	0xbc066faa	-0.008205334
122	0xbde3704f	-0.111054055
123	0xbf8514bc	-1.0396953
124	0xbfd0aaa9	-1.6302081
125	0xc02f0a10	-2.7349892
126	0xbd679dff	-0.05654716
127	0x3e71d6f2	0.23617151
128	0x3d672f77	0.05644175
129	0x3dd6a5cc	0.10480842
130	0x3c9e4e1f	0.01932436
131	0xbd4288b8	-0.047493666
132	0x3e41f42e	0.18940803
133	0xbc87b9b8	-0.01656805
134	0x3c244e47	0.010028428
135	0x3dfda651	0.12385238
136	0xbc9e5299	-0.019326495
137	0xbca82551	-0.020525606
138	0x3e81576c	0.2526201
139	0x3e2621f3	0.16223888
140	0x3d673a50	0.056452096
141	0x3d868119	0.06567592
142	0xbd64ff99	-0.05590782
143	0x3d86b293	0.06577029
144	0xbf0feda5	-0.5622199
145	0xbe478315	-0.19483598
146	0xbfa618d7	-1.297633
147	0xbf024b2e	-0.50895965
148	0x3eaa2677	0.3323247
149	0xbecc74d5	-0.39932886
150	0x3da3f0de	0.08004926
151	0x3e2c464d	0.16823693
152	0xbd6e4805	-0.058174152
153	0xbe2528dd	-0.1612887
154	0xbe03f274	-0.12885457
155	0xbd9193e8	-0.07108289
156	0x3e2f2690	0.17104554
157	0xbe13ea81	-0.14444925
158	0x3e06431b	0.13111536
159	0x3e735e0c	0.23766345
160	0xbd3673fc	-0.044544205
161	0x3e1d1767	0.15340959
162	0x3d65fd6a	0.056149878
163	0xbd860cea	-0.06545432
164	0x3e8f9163	0.2804061
165	0xbe25915e	-0.16168734
166	0xbde2b825	-0.11070279
167	0x3dd29698	0.1028263
168	0x3ea7142c	0.32632577
169	0x3d621abe	0.055201285
170	0x3d1ecfe6	0.038772486
171	0x3be0ed56	0.00686423
172	0xbeff3e82	-0.49852377
173	0xbfd7990b	-1.684358
174	0xbc5e2c8d	-0.013560426
175	0x3d42ba76	0.047541104
176	0xbe3cd9c3	-0.18442445
177	0x3e46ecc0	0.1942625
178	0xbd555626	-0.05208411
179	0xbdd81476	-0.105507776
180	0xbd75cdf5	-0.06001087
181	0x3d81ab13	0.06331458
182	0xbdc94301	-0.09827233
183	0xbd4314d9	-0.047627304
184	0xbd3e832d	-0.046511818
185	0xbcfb9b3b	-0.030713668
186	0xbd2bc0e8	-0.041932017
187	0x3c97e0bb	0.018539777
188	0xbd9c7187	-0.07638841
189	0xbe4a3efc	-0.19750589
190	0x3ebfcbc0	0.37460136
191	0xb99d6727	-0.00030022228
192	0xbebcd7c4	-0.36883366
193	0x3ea1efad	0.3162817
194	0xbebf31ec	-0.37342775
195	0xbf7f6150	-0.9975786
196	0xbebf5b2c	-0.37374246
197	0xbefae7c1	-0.4900494
198	0x3e3da2f1	0.18519188
199	0x3d8c767d	0.06858537
200	0x3e64a189	0.22327246
201	0x3def7bf3	0.11693563
202	0xbe45ac75	-0.19304068
203	0xbbda058c	-0.0066534933
204	0xbe001e15	-0.12511475
205	0xbef1c3e0	-0.47219753
206	0xbd85bbc8	-0.06529957
207	0xbea4db8f	-0.3219876
208	0x3e7239f9	0.23654927
209	0xbe2f47d7	-0.17117248
210	0xbe13eaaf	-0.14444993
211	0xbeb79c80	-0.35861588
212	0xbd67e5b4	-0.056615546
213	0xbe0a1b7d	-0.13487048
214	0x3e1ca48b	0.15297143
215	0xbe0a5d4a	-0.1351215
216	0x3c7ef637	0.015561632
217	0x3e14ad65	0.1451927
218	0xbe8d2807	-0.275696
219	0x3e4ad1a8	0.1980654
220	0x3db05c29	0.08611328
221	0xbe983c9f	-0.2973375
222	0xbea5a2a6	-0.32350653
223	0xbe94729a	-0.28993684
224	0xbd2eeb95	-0.042705137
225	0x3cf8cdc0	0.030371547
226	0x3bdf5ea7	0.0068167034
227	0x3db6e70f	0.0893079
228	0x3cadfe67	0.021239473
229	0x3e2d6799	0.1693405
230	0x3d4c2b96	0.049846254
231	0x3e1f23c3	0.15540986
232	0x3d23a272	0.03994984
233	0x3debd170	0.115145564
234	0x3b79bfd1	0.0038108716
235	0x3d0639af	0.032769855
236	0x3e1288d2	0.14310005
237	0xbdf794c2	-0.1208892
238	0xbe7e19d8	-0.24814546
239	0xbe4454de	-0.19173
240	0x3dba1893	0.090867184
241	0xbd6e5817	-0.058189478
242	0xbed2630a	-0.41091186
243	0x3d5269bb	0.051370364
244	0xbc983128	-0.018578127
245	0x3e8da18d	0.27662316
246	0x3e7f8ebd	0.24956794
247	0xbda35ad2	-0.07976307
248	0x3e28d1a1	0.16486217
249	0x3e3074c6	0.17232046
250	0xbe84e3c5	-0.25955024
251	0xbc611285	-0.013737326
252	0x3e9cbea4	0.30614197
253	0xbe89e6da	-0.26933938
254	0xbdb0dcb1	-0.086358435
255	0x3c988bbf	0.018621324

conv1.bias f4 [64]
0	0xbb3d714b	-0.002890664
1	0xbeceafa1	-0.4036837
2	0xbc13f24c	-0.009029936
3	0xbe9ccddb	-0.30625805
4	0xbda7ebf7	-0.081993036
5	0xbe17dd52	-0.14830521
6	0xbea58a79	-0.3233221
7	0xbe663ac4	-0.22483355
8	0xbc9eb94e	-0.01937547
9	0xbe401832	-0.1875923
10	0xbeddc4c6	-0.4331419
11	0xbce982fb	-0.02850484
12	0xbc8bbe95	-0.01705865
13	0xba1fb4eb	-0.00060923275
14	0xbe93e095	-0.2888228
15	0xbede6476	-0.4343602
16	0xbb8add85	-0.004237833
17	0xbe6a6f8f	-0.22894119
18	0xbed0d198	-0.40784907
19	0xbb495543	-0.0030720986
20	0x3d2349fa	0.03986547
21	0x3aabe7a7	0.0013115302
22	0xbe63312f	-0.22186731
23	0x3d0b8ee9	0.034071837
24	0x3beebeb7	0.0072859186
25	0xbed1b66b	-0.40959486
26	0xbb499af3	-0.0030762523
27	0xbedc20dc	-0.4299382
28	0xbec5821d	-0.3857583
29	0xbb34c856	-0.002758523
30	0xbb8c4720	-0.0042809397
31	0xbec24b36	-0.37948006
32	0xbe3dd07a	-0.18536559
33	0xbe9bec10	-0.3045354
34	0xbf17b596	-0.59261453
35	0x3d096b25	0.033549447
36	0xbd916202	-0.07098772
37	0x3aa80f81	0.0012822003
38	0xbd7b4669	-0.061346445
39	0xbe10f5ad	-0.14156218
40	0xbe84302f	-0.2581801
41	0xbe775ba6	-0.24156055
42	0xbe663128	-0.22479689
43	0xbc0e11bc	-0.00867122
44	0xbad1e044	-0.0016012271
45	0xbe8e0401	-0.2773743
46	0x3babbbc3	0.005240889
47	0xbef36da3	-0.47544584
48	0xbe9c3059	-0.30505636
49	0xbb431ab6	-0.002977056
50	0xbbcd0185	-0.0062562847
51	0xbe6f5af2	-0.23374537
52	0xbb0b8835	-0.0021290903
53	0xb9fce952	-0.00048239023
54	0xbeb0c43a	-0.3452471
55	0xbe9e567f	-0.30925366
56	0xbb534d2b	-0.003224204
57	0x3c57cf9a	0.013172055
58	0xbea3b67c	-0.31975162
59	0xbe86e60a	-0.2634738
60	0xbe28f076	-0.16497979
61	0x3943d76f	0.00018676904
62	0xbe884283	-0.26613244
63	0xbdea5638	-0.11442226

conv2.weight f4 [32, 64, 3, 3]
0	0xbe86db9f	-0.26339433
1	0xbe09adfb	-0.13445275
2	0x3c66d62e	0.01408915
3	0xbe821511	-0.25406697
4	0xbe5f30a9	-0.21795906
5	0xbd77e693	-0.060522627
6	0x3d878e8b	0.06618985
7	0x3e883fc0	0.26611137
8	0x3e2e3c94	0.17015296
9	0xbdda9fc8	-0.10675007
10	0x3dd24bed	0.10268388
11	0xbdd8d164	-0.10586813
12	0xbf50f6f6	-0.8162683
13	0xbe82b281	-0.25526813
14	0xbc9c0ccc	-0.01904907
15	0xbc0c633d	-0.008568582
16	0xbddd872d	-0.10816798
17	0xbe84840c	-0.25881994
18	0x3dc3f70e	0.09568606
19	0x3e4dc23c	0.20093626
20	0x3e082104	0.13293844
21	0xbc7fe51c	-0.015618589
22	0xbe7a0a30	-0.24417949
23	0x3c8d12dd	0.017220909
24	0xbb81a834	-0.003956819
25	0xbe1e68e0	-0.15469694
26	0x3e541d56	0.20714316
27	0xbee3cb51	-0.44491056
28	0xbe761004	-0.24029547
29	0xbdc5224f	-0.096256845
30	0xbe943d50	-0.28953028
31	0xbe38c10d	-0.18042393
32	0xbf36255e	-0.7115077
33	0xbc3f097e	-0.011659978
34	0xbd2b73ae	-0.041858368
35	0x3e524ecf	0.20537876
36	0xbeb50c80	-0.353611
37	0xbc928462	-0.01788539
38	0x3ce0535b	0.027383497
39	0xbd681cd4	-0.056668118
40	0xbf129b90	-0.5726862
41	0xbe9d3099	-0.3070114
42	0xbdf01ea6	-0.11724596
43	0xbdd88e01	-0.1057396
44	0x3e38f95a	0.1806387
45	0x3d60fbd5	0.054927666
46	0xbeb00b1b	-0.34383473
47	0x3d22ecbb	0.039776545
48	0xbf3a7d93	-0.7284786
49	0xbed9984d	-0.4249901
50	0xbd851457	-0.0649802
51	0xbcb79ace	-0.022412684
52	0xbd9852bb	-0.074376546
53	0xbf11e71d	-0.56993276
54	0xbeb4e0fe	-0.35327905
55	0xbdfb93e4	-0.12284067
56	0xbbd5873d	-0.006516366
57	0x3eaf6add	0.34261218
58	0xbe7957e1	-0.2434993
59	0xbe5102f8	-0.20411289
60	0x3e19a518	0.15004385
61	0xbcc41e45	-0.023940215
62	0xbc400729	-0.011720457
63	0xbe7a2ddf	-0.24431561
64	0xbd3e2b82	-0.04642821
65	0x3d35824f	0.044313725
66	0xbcf5f69c	-0.03002482
67	0xbdf79882	-0.120896354
68	0xbe22b625	-0.15889795
69	0x3e173393	0.14765768
70	0x3e4bcf02	0.19903186
71	0x3e20e28a	0.15711418
72	0xbcdec24e	-0.027192261
73	0xbd347a74	-0.044062093
74	0x3e93f272	0.2889591
75	0x3cacf2d5	0.021111885
76	0x3db6359f	0.08896946
77	0x3d654cf7	0.055981603
78	0x3d91b781	0.07115079
79	0x3d510b25	0.05103602
80	0x3e009a67	0.125589
81	0xbe67d7f0	-0.22640967
82	0xbe0fa112	-0.14026287
83	0xbd03024f	-0.031984624
84	0xbe80dff9	-0.25170878
85	0xbf2b6a30	-0.66958904
86	0xbf0f72d5	-0.56034595
87	0xbcaf6787	-0.02141167
88	0xbd05744c	-0.032581612
89	0x3df3daab	0.11906942
90	0x3d3c1b0f	0.045924243
91	0xbd288df5	-0.041151006
92	0xbedce9dc	-0.4314717
93	0xbf16712f	-0.58766454
94	0xbe52f5e4	-0.20601612
95	0xbe0e0fd1	-0.13873221
96	0xbbaea46f	-0.0053296606
97	0x3d8f9190	0.07010186
98	0x3d93b001	0.072113045
99	0x3e3a8ec0	0.18218517
100	0xbe01d28c	-0.12677974
101	0x3bd184ca	0.0063940035
102	0xbc91938e	-0.017770555
103	0xbe5be278	-0.2147311
104	0xbdfdc80a	-0.1239167
105	0x3d99e38c	0.07514104
106	0x3c49790d	0.012296927
107	0x3ec5ff0a	0.38671142
108	0xbdf07065	-0.117401876
109	0xbe261d78	-0.16222179
110	0x3e02da60	0.12778616
111	0x3cce99a5	0.025219748
112	0x3d458ea6	0.048231743
113	0x3e5dad3b	0.21648113
114	0xba7f14a3	-0.0009730553
115	0xbc87a53b	-0.01655828
116	0xbe5079dd	-0.20358987
117	0x3e280607	0.16408549
118	0x3e0b7587	0.13619052
119	0xbdfdb6d0	-0.12388384
120	0x3defab8a	0.1170264
121	0xbdfcdb92	-0.12346567
122	0xbd7c02b2	-0.061526008
123	0xbe3b0214	-0.18262511
124	0x3e46a5d6	0.19399199
125	0xbe67d50b	-0.22639863
126	0x3da98c86	0.08278756
127	0xbdee704b	-0.11642512
128	0xbe048817	-0.12942539
129	0xbf70f4ed	-0.9412373
130	0xbf3ea2dd	-0.7446726
131	0xbed5406f	-0.4165072
132	0xbc45ea47	-0.012079782
133	0x3dc0eb73	0.094199084
134	0xbe6dfe95	-0.23241647
135	0xbd8e9635	-0.069622435
136	0x3cf5c4c8	0.03000106
137	0xbe90ae65	-0.28258052
138	0xbf6aa3e0	-0.91656303
139	0xbe6d8cbf	-0.23198222
140	0x3d294b3f	0.041331526
141	0x3cc6a50f	0.024248628
142	0xbc1a5265	-0.009419058
143	0xbe29a8a1	-0.16568233
144	0x3e15abea	0.14616361
145	0x3eecff82	0.46288687
146	0x3e28245e	0.16420123
147	0xbd1da1db	-0.038484436
148	0x3dd032d1	0.101659425
149	0xbe27ffc7	-0.16406165
150	0x3c9ffc41	0.019529464
151	0x3da61b53	0.081106804
152	0x3dac081d	0.08399985
153	0xbe5e32d5	-0.21699078
154	0xbe207a35	-0.15671618
155	0xbdcc18cd	-0.09965668
156	0xbd975b34	-0.073904425
157	0x3dbd88a8	0.09254581
158	0xbea864a5	-0.32889286
159	0xbb6da628	-0.0036262367
160	0x3cc454fb	0.023966303
161	0x3e863127	0.26209375
162	0xbe8de7a4	-0.2771579
163	0xbb1b0c41	-0.0023658427
164	0xbd54e6ff	-0.051978108
165	0xbe67151f	-0.22566651
166	0xbf290de3	-0.66036814
167	0xbf10ee26	-0.56613386
168	0x3e750711	0.23928477
169	0x3e6a5354	0.2288335
170	0xbcf5dbb2	-0.030011985
171	0x3bd07cc8	0.0063625313
172	0x3da9962f	0.08280598
173	0xbdd4c088	-0.10388285
174	0x3cc46d41	0.023977878
175	0xbc8e866e	-0.017398085
176	0x3e39ae6e	0.18132946
177	0x3cbf76ab	0.023372015
178	0xbc320c93	-0.010867256
179	0xbe4810ff	-0.19537733
180	0xbc25770d	-0.010099185
181	0xbc53cb77	-0.012926928
182	0xbc2298ef	-0.0099241575
183	0xbcb9c531	-0.022677036
184	0x3b77ece8	0.0037830416
185	0x3c1e0e5f	0.009646981
186	0x3d57baf7	0.052668538
187	0x3d286a6d	0.04111712
188	0x3bb92eaf	0.005651317
189	0xbd2a6c37	-0.041607108
190	0xbdbefac9	-0.09325177
191	0x3d1c9253	0.038225483
192	0xbd056850	-0.032570183
193	0x3c8626a3	0.016375845
194	0xbbc060ab	-0.0058708987
195	0x3e17bad4	0.14817363
196	0x3c6d539f	0.014485269
197	0x3d2b41f9	0.041810963
198	0x3ddddad5	0.108327545
199	0xbe16c0b3	-0.14721946
200	0x3cbd3fcc	0.02310171
201	0xbe45e759	-0.19326533
202	0xbcfe6e6b	-0.03105851
203	0x3da7e375	0.08197681
204	0xbdbfda5f	-0.09367823
205	0xbed4c16a	-0.41553813
206	0xbd968291	-0.07349122
207	0xba0e1b63	-0.0005420951
208	0x3cac740c	0.02105143
209	0x3c459489	0.012059339
210	0x3c81697e	0.015797373
211	0x3b928c11	0.0044722636
212	0x3d1828d0	0.037148297
213	0x3d19e015	0.037567217
214	0x3c262855	0.010141452
215	0xbc26a5a5	-0.010171329
216	0x3da8e4eb	0.08246788
217	0x3e0b2af0	0.13590598
218	0x3dc86a2c	0.09785876
219	0xbd2df22c	-0.04246728
220	0x3d815f88	0.06317049
221	0x3dcfec02	0.10152437
222	0xbc22d751	-0.009939031
223	0x3e0c087c	0.13675112
224	0x3e4fb7d5	0.2028497
225	0xbd3b1011	-0.04566962
226	0xbd37c3ca	-0.044864453
227	0xbec12fb2	-0.377317
228	0xbecc8076	-0.39941758
229	0xbe951210	-0.29115343
230	0xbeacd900	-0.33759308
231	0x3d4235c5	0.04741456
232	0x3d3e9c65	0.04653587
233	0x3dad2a8a	0.08455379
234	0xbc2716ba	-0.0101982895
235	0xbdcb8884	-0.09938148
236	0x3baf0619	0.005341303
237	0xbd4beb2b	-0.04978482
238	0xbdd3ee48	-0.10348183
239	0x3d7ec657	0.06220087
240	0x3cc47101	0.023979666
241	0xbe4eea9e	-0.20206687
242	0xbe03c007	-0.12866221
243	0x3d8257f9	0.06364436
244	0xbd1fc13c	-0.039002642
245	0xbddf7875	-0.10911647
246	0xbefe98b6	-0.49725884
247	0xbeb5029c	-0.35353553
248	0xbe9f5fff	-0.31127927
249	0xbd85813f	-0.06518792
250	0xbf01ad59	-0.5065513
251	0xbf299abf	-0.6625175
252	0x3e5c1090	0.21490693
253	0xbeb0ff8f	-0.34569976
254	0x3d203a13	0.039117884
255	0xbcd6a82b	-0.026203236

conv2.bias f4 [32]
0	0x3c7a77d5	0.015287359
1	0x3ca5f0a9	0.020256357
2	0xb8bc5826	-8.9809575e-05
3	0xbba744da	-0.0051046433
4	0xbbfcfefc	-0.007720826
5	0x3c99ff59	0.018798517
6	0xbcf8bf00	-0.030364513
7	0xbbb0537c	-0.005381046
8	0xbbd2432e	-0.0064167
9	0xbd5de7a2	-0.05417598
10	0xbbb21a09	-0.0054352325
11	0xbb3378f7	-0.0027385333
12	0xbd0aa269	-0.033846293
13	0xbd99b922	-0.075060144
14	0xbd00dc2a	-0.031459965
15	0x3ba321a0	0.0049783736
16	0xbba2704f	-0.004957236
17	0x3d1e6b65	0.03867664
18	0xbc62ce3c	-0.013843115
19	0x3c88ff90	0.016723424
20	0xbb95434c	-0.0045551416
21	0xbd7639a5	-0.060113568
22	0xbd9eb6aa	-0.07749684
23	0xbb9d1a18	-0.0047943704
24	0xbccbf63c	-0.024897687
25	0x3c947297	0.018121047
26	0x3a8d563f	0.001078315
27	0xbb463645	-0.003024475
28	0xbbfa55b3	-0.0076396107
29	0xbc0d353e	-0.008618651
30	0xbd10da3c	-0.035364375
31	0x3a7f3861	0.0009735879

conv3.weight f4 [12, 32, 3, 3]
0	0xbce5c5e8	-0.02804847
1	0x3cc87c8f	0.024473457
2	0xbc1d1ebc	-0.009589847
3	0xbbe38eff	-0.0069445367
4	0xbe0497c0	-0.12948513
5	0xbcde1904	-0.027111538
6	0xbc3823fa	-0.011239046
7	0xbd0c9d35	-0.03432961
8	0xbc0d9926	-0.00864247
9	0xbc994bf8	-0.018712983
10	0x3d5d62eb	0.054049414
11	0xbd5c4752	-0.053778954
12	0x3d1bb7ef	0.03801721
13	0x3cd77086	0.026298773
14	0xbf8d582a	-1.104253
15	0x3d3e52f4	0.04646583
16	0xbdc32c97	-0.09529989
17	0xbe8b6bea	-0.2723077
18	0xbc092032	-0.008369492
19	0xbda65405	-0.08121494
20	0xbe33ceaf	-0.17559312
21	0x3d8a70dd	0.06759808
22	0xbcf7ca9b	-0.030247977
23	0x3cebbb1d	0.028775746
24	0xbcb96802	-0.022632603
25	0x3c2e9488	0.01065553
26	0xbd14d53f	-0.03633618
27	0xbbc56696	-0.006024192
28	0xbd8b1b62	-0.06792332
29	0xbd0f9ee9	-0.035063658
30	0xbd418a87	-0.04725125
31	0xc0493d22	-3.1443563
32	0xbaa25fa1	-0.0012388119
33	0xbca936a2	-0.020655934
34	0xbd30f4af	-0.0432021
35	0xba6058f2	-0.0008558176
36	0x3d6cffa3	0.05786098
37	0xbceba173	-0.028763508
38	0xbcdc9c26	-0.026929926
39	0xbe2dda0c	-0.1697771
40	0xbaa3c6bf	-0.0012495144
41	0xbd839310	-0.06424534
42	0x3b74701b	0.0037298265
43	0xbd39a762	-0.045325644
44	0xbe10d587	-0.14143954
45	0x3c5b0c0c	0.013369571
46	0xbae4b6ae	-0.0017449462
47	0xbcbe834d	-0.023255968
48	0xbcdf89d3	-0.0272874
49	0xbf929abd	-1.1453472
50	0xbd3e5ff6	-0.046478234
51	0x3ca87c78	0.020567164
52	0xbdb1f5b0	-0.08689439
53	0xbbf2f17f	-0.0074140425
54	0x3d2a24c6	0.041538976
55	0x3d24c2a8	0.0402247
56	0xbd214fd9	-0.03938279
57	0xbd36d9c3	-0.044641268
58	0x3d79e87a	0.061012723
59	0x3d384605	0.04498865
60	0x3c19657b	0.009362574
61	0xbd550d94	-0.052014902
62	0x3a93d2da	0.0011278049
63	0x3cf52713	0.029925859
64	0x3b2dcd07	0.002651991
65	0xbdf68d7f	-0.12038707
66	0xbcdb3ccb	-0.026762387
67	0xbe912d24	-0.28354752
68	0xbec54c4e	-0.38534778
69	0xbcc404d4	-0.023928083
70	0xbd80482e	-0.06263767
71	0xbcac4777	-0.02103017
72	0x3d0d306b	0.034470003
73	0x3d2c58ca	0.042076863
74	0xbdc321af	-0.09527909
75	0x3cbc2e23	0.022971218
76	0xbca4a1b4	-0.020096637
77	0xbfbd313f	-1.4780654
78	0x3c6b8f01	0.0143773565
79	0xbce06507	-0.027391924
80	0xbd50984e	-0.0509265
81	0x3d8dc9c2	0.06923248
82	0x3c8e3674	0.01735995
83	0x3d2e8218	0.042604536
84	0xbca3c7fa	-0.019992817
85	0x3c678729	0.014131346
86	0x3d1114b3	0.03542013
87	0x3b2d6b57	0.0026461685
88	0xbc4f4241	-0.0126500735
89	0x3d0b2bec	0.033977434
90	0xbc2dd44f	-0.0106097
91	0x3c2c8ff5	0.010532369
92	0xbcf8752e	-0.030329313
93	0xbdc9e13c	-0.09857413
94	0x3d53c6eb	0.051703375
95	0xbd530adb	-0.051524024
96	0x3d2f7f21	0.04284585
97	0xbd1e1385	-0.038592834
98	0xbdf90699	-0.121594615
99	0x3da89e1f	0.08233284
100	0x3d24a484	0.040195957
101	0xbdb850f4	-0.089998156
102	0x3ccb83fa	0.024843205
103	0x3d2296d4	0.039694622
104	0xbe34db79	-0.17661847
105	0x3d92e9bf	0.0717349
106	0x3d009b0e	0.03139787
107	0x3b5d5a47	0.0033775733
108	0x3ce625ae	0.028094139
109	0x3d076682	0.033056743
110	0x3cb4c5e2	0.022067014
111	0xbd8be3c9	-0.06830556
112	0xbd4e15ab	-0.050313633
113	0xbd3f8df4	-0.046766236
114	0xbc9cd3da	-0.019143987
115	0x3bde46d4	0.0067833457
116	0x3d8e607c	0.06951997
117	0xbd4213f4	-0.04738231
118	0xbbd6862d	-0.0065467567
119	0x3a9cd3a2	0.0011964927
120	0xbc73e6f2	-0.014886605
121	0xbbbc2d8f	-0.0057427357
122	0xbd673dd6	-0.056455456
123	0xbd45fc9f	-0.04833662
124	0xbbe38060	-0.0069427937
125	0x3d3c85fd	0.04602622
126	0xbca515dc	-0.020152025
127	0x3d0b0e39	0.03394911
128	0xbd1706d7	-0.036871757
129	0x3c2858e0	0.010275096
130	0xbafded38	-0.0019373065
131	0x3a579576	0.00082238705
132	0xbc6399fe	-0.013891695
133	0x3d11d0d2	0.035599537
134	0x3bd4a6db	0.0064896173
135	0x3cf4d92a	0.029888708
136	0xbd0ebdda	-0.034849025
137	0xbdd9d35b	-0.10636016
138	0xbccb8b04	-0.024846561
139	0xbdd129eb	-0.10213073
140	0xbec7a418	-0.3899238
141	0x3d3579ff	0.044305798
142	0xbd08973c	-0.033347353
143	0xbcf6abf3	-0.030111289
144	0xbbba11b9	-0.0056783822
145	0x3c105ec8	0.00881166
146	0xbc0d0fa6	-0.008609688
147	0x3dd71bc1	0.105033405
148	0xbc94e69d	-0.018176371
149	0xbfc825ca	-1.5636532
150	0x3ceab014	0.028648414
151	0xbb909119	-0.0044118282
152	0xbe95b059	-0.29236105
153	0x3d865066	0.065583035
154	0x3d542e28	0.05180183
155	0xbe381584	-0.17976958
156	0x3d13aa80	0.036051273
157	0xbd8395d6	-0.06425063
158	0xc02ca053	-2.6972854
159	0x3d8e307e	0.06942843
160	0xbc3383dc	-0.010956731
161	0xbd72cf01	-0.059279446
162	0x3e1ab701	0.15108873
163	0xbcb36005	-0.021896372
164	0xbc481881	-0.012212873
165	0xbe1d0ea2	-0.15337613
166	0xbd8f99b3	-0.07011738
167	0xbe1669ad	-0.1468875
168	0x3c83dbdc	0.016096048
169	0xbce261ef	-0.027634589
170	0xbc8ee088	-0.01744105
171	0x3b8ec1a3	0.0043565794
172	0x3de5a475	0.11213008
173	0x3bb9943a	0.005663422
174	0x3de9b49d	0.114114024
175	0x3cc384e7	0.023867084
176	0xbec56cf0	-0.38559675
177	0x3dafdea3	0.085873865
178	0x3d9879c5	0.07445101
179	0xbef09d60	-0.46995068
180	0xbd67ed40	-0.056622744
181	0x3cff55db	0.031168869
182	0x3d020b01	0.031748775
183	0x3d487e8a	0.048948802
184	0x3cadff6d	0.02123996
185	0xbde099b9	-0.1096682
186	0x3c89fe53	0.016844904
187	0x3ba84b6a	0.005135943
188	0xbf6686d9	-0.9004951
189	0x3d8718b9	0.06596512
190	0x3d9b334c	0.075781435
191	0x3ca66039	0.020309554
192	0xbc9d1c96	-0.01917867
193	0x3dc52df7	0.09627908
194	0xbd3b6f99	-0.045760725
195	0xbc6dc40f	-0.014512076
196	0x3b00221d	0.0019551583
197	0xbc7a59e7	-0.015280223
198	0x3d10b68f	0.03533035
199	0x3d1f2298	0.03885135
200	0x3cf929c7	0.030415429
201	0x3cc2df86	0.023788225
202	0xbc9d569d	-0.01920634
203	0xbcca6e5b	-0.024710825
204	0xbd80600b	-0.06268319
205	0xbd0c4b5f	-0.034251567
206	0x3db5cfb9	0.088775106
207	0x3cbf419f	0.02334672
208	0xbc5131d4	-0.012768228
209	0xbdfaee34	-0.12252465
210	0xbc6ed1a0	-0.014576346
211	0x3b382bed	0.0028102354
212	0xbe5fb588	-0.21846592
213	0xbdbfd372	-0.09366502
214	0x3cf16ff7	0.029472334
215	0xbd18cd99	-0.03730545
216	0xbcf7ed8d	-0.03026464
217	0xbcde5704	-0.027141102
218	0x3da0d2b7	0.07852691
219	0x3cceb809	0.02523424
220	0xbc61a26d	-0.0137716355
221	0xbce011de	-0.02735227
222	0x3c84fbef	0.016233413
223	0x3c7cdc2f	0.015433355
224	0x3cba48a3	0.022739714
225	0xbcfd8ae8	-0.030950025
226	0x3d4c8c21	0.049938325
227	0x3cfa1ec0	0.03053224
228	0x3c4ac548	0.012376137
229	0xbd564ce3	-0.05231942
230	0xbd94790d	-0.07249651
231	0xbcb1b28b	-0.021691581
232	0xbc9580d9	-0.018249916
233	0x3d3147e0	0.043281436
234	0x3cbd8ea8	0.023139313
235	0x3a06dcf0	0.00051446166
236	0xbd998aac	-0.07497153
237	0x3c6e7e04	0.014556412
238	0xbd2ca4b9	-0.04214928
239	0x3c0b80b3	0.008514571
240	0xbcc548fd	-0.024082655
241	0x3c1955c7	0.00935883
242	0xbcc7defc	-0.02439832
243	0x3d779ff5	0.06045528
244	0xbd19c50b	-0.03754143
245	0xbe0af6c9	-0.13570704
246	0xbdacfbf0	-0.08446491
247	0x3d9b60af	0.075868
248	0xbdfcfdcf	-0.12353098
249	0xbccbee9a	-0.024894048
250	0xbc999030	-0.018745512
251	0xbd0795c1	-0.0331018
252	0x3c11791c	0.008878972
253	0xbd2bff8f	-0.041991767
254	0xbcc7b060	-0.024376094
255	0xbe51c8fc	-0.20486826

conv3.bias f4 [12]
0	0x3f163ea5	0.5868934
1	0x3e757c3e	0.23973176
2	0x3e365ec6	0.1780959
3	0x3eef7c08	0.46774316
4	0x3e5e85f3	0.21730785
5	0x3e4e629e	0.20154807
6	0x3f1732fb	0.59062165
7	0x3f1aed0b	0.6051795
8	0x3d9f4860	0.07777476
9	0x3ea82250	0.32838678
10	0x3dc06fdd	0.09396336
11	0x3f0259f6	0.5091852

fc1.weight f4 [24, 588]
0	0xbcfc11d7	-0.030770225
1	0xbe1607d9	-0.14651431
2	0xbe631e37	-0.22179495
3	0xbe021518	-0.12703359
4	0x3db299b0	0.0872072
5	0x3d680c72	0.056652494
6	0x3d3e9a9a	0.04653416
7	0xbda7a529	-0.08185799
8	0xbe4665f6	-0.19374833
9	0x3ed0256a	0.40653545
10	0x3dc20352	0.094732895
11	0x3e3fa6c9	0.18715967
12	0x3dbad5d7	0.09122818
13	0x3b9c5a91	0.0047715385
14	0xbcda70c7	-0.026665105
15	0x3de8f3c8	0.113746226
16	0x3e3d3bae	0.18479797
17	0xbd4e0c4d	-0.0503047
18	0x3d38b2be	0.045092337
19	0x3db0408b	0.086060606
20	0x3d4f6d81	0.05064154
21	0x3cbc3842	0.022976045
22	0x3e28c4c8	0.16481316
23	0x3d968f20	0.07351518
24	0xbde914e2	-0.11380936
25	0x3d31041c	0.04321681
26	0x3ded8f6b	0.115996204
27	0x3dd3e649	0.10346658
28	0x3dcb95ae	0.099406585
29	0xbdc34a29	-0.09535629
30	0xbc25874e	-0.01010306
31	0x3ecafc1e	0.39645475
32	0xbcbe5e66	-0.023238372
33	0xbd5c3e77	-0.05377051
34	0xbe0279a7	-0.12741719
35	0x3db40c03	0.087913536
36	0x3d382ca8	0.044964463
37	0xbe394b07	-0.18095027
38	0x3ec3dfe7	0.3825676
39	0x3ddd3917	0.10801905
40	0x3d268fbb	0.040664416
41	0xbb79341b	-0.0038025442
42	0x3ce13f94	0.027496137
43	0x3dbf367e	0.093365654
44	0xbd1c6e21	-0.038190965
45	0x3c827ee7	0.015929652
46	0x3d9f3374	0.07773486
47	0x3d60b5da	0.054860927
48	0x3c2055a7	0.009786046
49	0xbc966fef	-0.018363921
50	0xbb0a7c57	-0.0021131241
51	0x3e35a46f	0.17738508
52	0x3dbe1e3e	0.09283112
53	0x3c42c6a7	0.011888183
54	0xbd6662d6	-0.0562466
55	0xbcd08add	-0.02545684
56	0xbbc5428e	-0.006019897
57	0xbc1035ee	-0.00880192
58	0x3d02e65c	0.03195797
59	0x3c7401bc	0.014892992
60	0x3cfea806	0.03108598
61	0xbcad74f5	-0.021173934
62	0xbbebdd55	-0.0071980157
63	0x3d1d3873	0.038383912
64	0xbde973ff	-0.113990776
65	0xbd308e3b	-0.04310439
66	0xbd15f31f	-0.03660881
67	0xbb7df982	-0.0038753455
68	0xbcd71d1b	-0.026258996
69	0x3d3f0e57	0.046644535
70	0xbd372cce	-0.044720463
71	0x3dcead0a	0.10091598
72	0x3da2de91	0.079526074
73	0xbc72e780	-0.014825702
74	0x3cdb8c91	0.026800426
75	0x3e58358b	0.21114175
76	0x3f165d42	0.5873605
77	0x3c820a15	0.015873948
78	0xbc351220	-0.011051685
79	0x3cd4bb36	0.025968175
80	0xb7d7d7f9	-2.5730567e-05
81	0xbbb48f48	-0.0055102445
82	0xbdb0cab2	-0.08632411
83	0xbecf66cd	-0.40508118
84	0xbc9542e7	-0.018220378
85	0xbdaa8c32	-0.083275214
86	0x3d583b87	0.052791145
87	0x3d42a38f	0.047519263
88	0x3d821c40	0.063530445
89	0xbd2208c1	-0.03955913
90	0xbdd5a52d	-0.104318954
91	0xbbd93b16	-0.006629358
92	0xbd8669f0	-0.06563175
93	0xbed50a4c	-0.41609418
94	0x3dab9b3a	0.083792165
95	0x3db71610	0.08939755
96	0xbcf20713	-0.029544389
97	0x3d33c917	0.043892946
98	0x3e265463	0.16243128
99	0x3cfa2fec	0.030540429
100	0xbd9ddbaa	-0.07707913
101	0xbefa5837	-0.48895428
102	0x3dc8c64e	0.098034486
103	0xbe644e55	-0.22295506
104	0x3ec05be6	0.37570113
105	0x3dc5c03a	0.09655805
106	0x3b956288	0.004558865
107	0x3cf75d04	0.03019572
108	0x3d16fd3a	0.03686259
109	0x3bf5c0d9	0.007499796
110	0xbe0ae051	-0.13562132
111	0xbd51c2d9	-0.05121121
112	0xbc89b196	-0.016808312
113	0x3bfe90b7	0.007768716
114	0xbd087fd5	-0.033325035
115	0xbd612fe2	-0.054977305
116	0xbce239bc	-0.02761542
117	0xbaa8473f	-0.0012838616
118	0xbe5c288b	-0.21499841
119	0x3d8fdc11	0.07024396
120	0x3dc11d50	0.09429419
121	0xbbb6313c	-0.0055600684
122	0xbde26e8e	-0.11056243
123	0xbd459693	-0.048239302
124	0x3e435f20	0.19079256
125	0x3d4cf476	0.050037824
126	0x3e011404	0.12605292
127	0x3dca8de4	0.09890345
128	0x3cdfac9a	0.027303983
129	0xbc32a32b	-0.01090316
130	0x3d86ac8a	0.06575878
131	0xbd401ea0	-0.046904206
132	0xbe266aae	-0.16251633
133	0xbd711bd4	-0.05886443
134	0x3c40e291	0.011772768
135	0xbd1f860c	-0.038946196
136	0x3b2a29e3	0.0025964908
137	0x3ce4a196	0.027909081
138	0xbcb405a6	-0.02197535
139	0x3b943f5c	0.0045241546
140	0xbd2d09f6	-0.042245828
141	0xbd63d6fe	-0.055624954
142	0x3d1317d7	0.035911407
143	0x3d819dbc	0.063289136
144	0x3d565251	0.052324597
145	0x3c85dadf	0.016339717
146	0x3d2b0c8b	0.04176001
147	0x3dc15cd1	0.094415314
148	0x3df00dfa	0.11721416
149	0x3ce76411	0.028245958
150	0x3c64b33b	0.0139587475
151	0xbceb7845	-0.028743872
152	0x3cb7e0f1	0.022446128
153	0x3df7a354	0.12091699
154	0x3dda685f	0.106644385
155	0x3c6ee7e7	0.014581657
156	0xbd791287	-0.060808685
157	0xbe021cf5	-0.12706359
158	0xbddbae17	-0.107265644
159	0x3d0efabe	0.034907095
160	0xba8eaa87	-0.0010884561
161	0x3d82ca13	0.06386199
162	0x3c58bb13	0.013228196
163	0x3caa449d	0.02078467
164	0x3e2b39bc	0.16721243
165	0xbda707cd	-0.08155785
166	0x3dcc6d50	0.09981787
167	0x3dd952cc	0.106114954
168	0x3df6c84a	0.12049921
169	0x3d40abc4	0.04703881
170	0x3c76e58d	0.015069378
171	0x3da07f33	0.07836761
172	0x3e239988	0.15976536
173	0xbc4aca3e	-0.01237732
174	0x3d103954	0.035210922
175	0x3cbc5a46	0.022992264
176	0xbb934fdf	-0.0044956054
177	0x3cc3d2e8	0.023904279
178	0x3cf919a9	0.030407744
179	0x3dc79f8c	0.09747228
180	0xbd8765d6	-0.066112205
181	0xba9274b7	-0.00111737
182	0x3d4f9364	0.050677672
183	0x3d0655cf	0.032796677
184	0x3b62bb4d	0.0034596503
185	0xbe37ac13	-0.17936735
186	0xbeb38834	-0.35064852
187	0x3e3ad889	0.18246664
188	0x3d19ea5c	0.03757702
189	0xbd1a72f7	-0.037707295
190	0xbcb44f2a	-0.022010405
191	0x3d81290e	0.06306659
192	0xbe491eb7	-0.19640623
193	0xbe99a05d	-0.3000516
194	0xbddac7c6	-0.10682635
195	0xbc1c5e51	-0.009543971
196	0xbd16a48c	-0.036778018
197	0x3dda36f4	0.10655013
198	0x3debcf69	0.1151417
199	0x3e127efa	0.1430625
200	0x3c12412b	0.00892667
201	0x3d838f0c	0.064237684
202	0xbb933a7f	-0.0044930573
203	0x3e35750f	0.17720436
204	0x3dd3500f	0.10318004
205	0x3d740f1a	0.059584714
206	0x3d9d2aad	0.076741554
207	0x3c43d314	0.01195218
208	0xbd02aff5	-0.031906087
209	0x3de72db9	0.11288018
210	0x3dcf193c	0.10112235
211	0x3be6d723	0.0070446893
212	0xbd3f867a	-0.046759106
213	0xbcdb26d8	-0.02675192
214	0x3de81ae1	0.11333252
215	0x3e6c37da	0.2306818
216	0xbc7849ce	-0.015154315
217	0xbdb33c89	-0.087517805
218	0xbd63b2bd	-0.05559038
219	0x3d38b88b	0.04509787
220	0x3d882729	0.06648094
221	0x3d96b16e	0.07358061
222	0xbd9da6b9	-0.076978154
223	0x3ca5c76e	0.020236697
224	0x3c8d4fbf	0.01724994
225	0x3e26c429	0.16285767
226	0x3e2d325e	0.16913745
227	0x3dae032c	0.08496699
228	0xbce11b91	-0.027478965
229	0x3dc1770e	0.09446536
230	0x3ce0be38	0.027434453
231	0xbda98ca5	-0.08278779
232	0xbd135688	-0.035971195
233	0x3c2e3b74	0.010634292
234	0x3d92e9e8	0.0717352
235	0x3e34f721	0.17672397
236	0x3d597491	0.053089682
237	0x3ce5f800	0.028072357
238	0xbbf4c43b	-0.0074696816
239	0x3c427af4	0.011870135
240	0xbd2264c9	-0.039646897
241	0xbbad4b8f	-0.0052885483
242	0x3ca9a332	0.0207077
243	0x3c7b2f87	0.015331156
244	0x3dce3305	0.10068325
245	0x3e25af94	0.16180259
246	0xbce89c9b	-0.028394988
247	0xbe120fb1	-0.14263798
248	0xbdbc21bd	-0.091861226
249	0xbe08f965	-0.13376386
250	0xbcad72bf	-0.02117288
251	0x3cfd5ce6	0.030928086
252	0xbdcfe726	-0.1015151
253	0xbe3c755a	-0.18404141
254	0xbd812d59	-0.063074775
255	0x3c4ff296	0.012692114

fc1.bias f4 [24]
0	0x3e22e386	0.15907106
1	0x3cc61f48	0.024184838
2	0xbcbb817f	-0.022888897
3	0xbc8d54c0	-0.017252326
4	0x3b1e4b65	0.0024153825
5	0x3c3ac820	0.011400253
6	0x3dc254db	0.09488841
7	0x3d70e769	0.05881444
8	0x3c70d583	0.014699343
9	0x3c244f8b	0.01002873
10	0x3ceb2a3e	0.028706666
11	0x3e6fcc8d	0.23417874
12	0xbcf5cc4e	-0.030004647
13	0xbd2b58e2	-0.041832812
14	0xba52722e	-0.00080278784
15	0x3ce7cdbb	0.028296342
16	0xbd07a6b7	-0.033117976
17	0x3cc9a14c	0.024613045
18	0x3e7efdc9	0.24901499
19	0x3dac9a35	0.0842785
20	0x3bc34003	0.0059585585
21	0x3ce93681	0.028468372
22	0x3e8fac58	0.28061175
23	0x3e02995f	0.12753819

fc2.weight f4 [588, 24]
0	0x3a693019	0.0008895412
1	0x3e49c06a	0.19702306
2	0x3cffda71	0.03123209
3	0x3c37643c	0.011193331
4	0x3b323ae3	0.0027195744
5	0xbc7c930e	-0.01541592
6	0xbb58f7ca	-0.0033106678
7	0xbaf29784	-0.001850829
8	0xbbeda1db	-0.0072519607
9	0x3d0e800e	0.03479009
10	0xbc3bbc34	-0.011458445
11	0xbb20a369	-0.0024511463
12	0xbe38244f	-0.179826
13	0x3e097c25	0.13426264
14	0x3e14b807	0.14523326
15	0xbb2d3d69	-0.0026434308
16	0x3d4d3dbb	0.0501077
17	0xbde8a249	-0.113590784
18	0xbbd83152	-0.0065976763
19	0xba7a5ef7	-0.0009550894
20	0x3d32b04b	0.043625157
21	0x3e270a7a	0.1631259
22	0xbc142410	-0.009041801
23	0xbb44f4b3	-0.0030053079
24	0x3cb1ebb6	0.021718841
25	0xbdacf53c	-0.08445212
26	0x3c3b1455	0.011418422
27	0xbe148738	-0.14504707
28	0xbe058985	-0.13040741
29	0x3d410ffd	0.04713439
30	0x3ddc9148	0.10769898
31	0xbd4fcbfc	-0.050731644
32	0x3d6be10f	0.05758768
33	0xbc0d933c	-0.00864106
34	0xbdefa149	-0.117006846
35	0xbe8c86f0	-0.274467
36	0x3e249128	0.16070998
37	0xbe208755	-0.15676625
38	0xbe2533cf	-0.16133045
39	0x3d824add	0.06361935
40	0x3e2b38d0	0.16720891
41	0x3c881057	0.016609354
42	0xbe0104b4	-0.1259945
43	0xbd91b880	-0.07115269
44	0xbe014d86	-0.12627229
45	0x3df6315f	0.120211355
46	0xbd878cab	-0.06618627
47	0xbd19a788	-0.037513286
48	0xbbdbe248	-0.0067103244
49	0x3db03bd4	0.08605161
50	0x3ce9c1b0	0.02853474
51	0x3d65d6d8	0.056113094
52	0xbe3c924a	-0.1841518
53	0xbe2fedfc	-0.17180628
54	0xbc24d53a	-0.010060603
55	0xbc22804d	-0.009918285
56	0x3b6722c0	0.0035268515
57	0xbdd60d14	-0.10451713
58	0x3bdac5f0	0.006676428
59	0x3863ffe1	5.4359323e-05
60	0x3d9c4c68	0.07631761
61	0x3cab0500	0.020876408
62	0x3daada94	0.08342472
63	0xbc1bf81c	-0.009519603
64	0xbd6c7030	-0.057724178
65	0xbde69968	-0.11259729
66	0xbbd8332c	-0.006597897
67	0xbb95d77a	-0.004572806
68	0xbdc20881	-0.09474278
69	0xbd94a46e	-0.07257925
70	0xbbac2a08	-0.005254034
71	0xbb624dc8	-0.0034531225
72	0xbb056122	-0.0020352085
73	0x3dee1c8b	0.11626538
74	0x3e4a8cae	0.19780228
75	0x3d8ed846	0.06974845
76	0xbe05c2d6	-0.13062605
77	0x3e4e3d17	0.20140491
78	0xbda3d0b9	-0.07998795
79	0x3e018141	0.12646963
80	0xbaef42d4	-0.0018254169
81	0xbdf45732	-0.11930694
82	0xbe30d531	-0.17268826
83	0x3eda5018	0.42639232
84	0xbe1b16ea	-0.1514546
85	0xbcf1ae7e	-0.02950215
86	0x3cb87297	0.022515578
87	0xbe399b2e	-0.18125603
88	0x3d8c5d04	0.06853679
89	0x3dc15d97	0.09441679
90	0xbeb6d3ac	-0.35708368
91	0x3df65a29	0.120289154
92	0xbd0d87e5	-0.034553427
93	0x3bc15d0a	0.0059009837
94	0xbe7d7a09	-0.24753584
95	0x3d99cf20	0.07510209
96	0x3a97b50c	0.0011574342
97	0xbe0752e6	-0.13215217
98	0x3db374ce	0.08762513
99	0xbd03a984	-0.032144085
100	0xbe032876	-0.12808403
101	0x3c274b44	0.010210816
102	0xba402070	-0.00073290523
103	0x39c26a57	0.00037081793
104	0xbe093bb0	-0.13401675
105	0x3e3cfea4	0.18456513
106	0x3a31634b	0.000676681
107	0xba66f804	-0.0008810761
108	0xbde6cb5d	-0.11269257
109	0x3e47326a	0.19452825
110	0x3e42a0ae	0.19006607
111	0xba9980aa	-0.0011711319
112	0x3cf60f34	0.030036546
113	0x3d98609b	0.07440301
114	0x3a2b72cb	0.0006540238
115	0x3a716b62	0.00092094217
116	0xbd176a8c	-0.036966845
117	0x3e44c141	0.19214346
118	0xb8d7fccd	-0.00010299087
119	0x3a093fff	0.00052356714
120	0xbe05ddad	-0.13072844
121	0x3d36f2d0	0.044665158
122	0xbe176190	-0.14783311
123	0xbe2f0fd6	-0.17095885
124	0x3de57a70	0.11204994
125	0x3e24bf00	0.16088486
126	0x3bfec842	0.0077753374
127	0xbdf8a382	-0.12140562
128	0x3e497c48	0.19676316
129	0x3e0f8d56	0.14018759
130	0x3d981b28	0.07427055
131	0x3da62180	0.08111858
132	0xbdcbd752	-0.099531785
133	0xbdab2afd	-0.08357809
134	0x3dd33d3c	0.10314414
135	0x3c9f3eac	0.019439064
136	0xbda35c4e	-0.0797659
137	0x3d9b2350	0.07575095
138	0xbdc22946	-0.094805285
139	0xbe14ba24	-0.14524132
140	0x3d596f58	0.0530847
141	0x3e2d4dd2	0.16924217
142	0x3d179ec0	0.03701663
143	0xbd3c3f58	-0.045958847
144	0xbba2119b	-0.0049459464
145	0xbd7414ec	-0.059590265
146	0x3c1e4720	0.009660512
147	0xbe239f75	-0.15978797
148	0xbe139d50	-0.14415479
149	0x3dd68b48	0.104757845
150	0xbc3293a5	-0.010899459
151	0xbc21f346	-0.009884661
152	0xbd9f52fd	-0.07779501
153	0x3e16565c	0.14681381
154	0xbc0a0147	-0.008423156
155	0xbc4f6f8e	-0.012660874
156	0x3da23fd8	0.079223335
157	0xbe344620	-0.17604876
158	0x3d894890	0.06703293
159	0xbc12903e	-0.008945523
160	0x3d5bb2c8	0.053637296
161	0x3e35711e	0.17718932
162	0xbbf7a096	-0.007556985
163	0xbc5bf1cf	-0.013424351
164	0xbdb18e54	-0.08669725
165	0xbd0c622c	-0.03427331
166	0xbc04907d	-0.008091089
167	0xbbe8b087	-0.007101122
168	0xbe0b636f	-0.1361215
169	0x3d8b8969	0.06813318
170	0x3dac1f34	0.08404389
171	0xba9ded8a	-0.0012048942
172	0x3e3dd95d	0.18539949
173	0xbe35e565	-0.17763288
174	0xbd494937	-0.04914209
175	0xbdf2d821	-0.118576296
176	0xbd4d867c	-0.050177082
177	0xbdbf7b12	-0.09349646
178	0x3d8a8e4f	0.067654245
179	0xbd3b3c0a	-0.045711555
180	0x3e56a2eb	0.20960586
181	0xbd530b14	-0.051524237
182	0x3c1ed6ce	0.009694768
183	0xbe42cb75	-0.19022925
184	0xbe2e3e02	-0.17015842
185	0x3d944ca5	0.07241181
186	0x3ccb6f11	0.024833234
187	0xbbb021fa	-0.005375144
188	0x3d28915a	0.041154243
189	0x3e4b497b	0.1985225
190	0xbe73f16b	-0.23822562
191	0xbe689ed7	-0.22716843
192	0x3d14fc78	0.036373585
193	0xbd931c14	-0.0718309
194	0x3de4ecd6	0.11177985
195	0x3d338188	0.043824703
196	0x3dd5f31c	0.1044676
197	0xbe224364	-0.1584602
198	0x3e110edd	0.14165826
199	0xbe0aeb51	-0.13566329
200	0x3dd22810	0.102615476
201	0x3e44bfb2	0.19213751
202	0x3d9365fd	0.07197187
203	0xbdc3d07a	-0.09561248
204	0xbe1aa14d	-0.15100594
205	0xbd4ccc60	-0.049999595
206	0xbdf57091	-0.11984361
207	0x3d29d071	0.04145855
208	0x3c17b970	0.00926052
209	0xbe1ddfac	-0.15417355
210	0x3ce57bd0	0.02801314
211	0x3ddb174b	0.10697802
212	0x3dc25e0c	0.09490594
213	0xbe114dec	-0.14189881
214	0x3b7d53a4	0.003865459
215	0xbea96177	-0.33082172
216	0x3df3b7a9	0.11900265
217	0x3c438a90	0.011934891
218	0xbda65f87	-0.08123689
219	0x3e42e97f	0.19034384
220	0x3e060c0e	0.13090536
221	0xbd3967e1	-0.045265082
222	0x3d9aaadd	0.07552121
223	0xbe834305	-0.2563707
224	0xbe10d8cb	-0.141452
225	0x3c29512b	0.010334293
226	0x3ec25520	0.3795557
227	0xbe3ecf32	-0.18633726
228	0xbc05803b	-0.008148248
229	0x3c61d5db	0.013783897
230	0x3e0e908f	0.13922332
231	0x3dc1f883	0.09471228
232	0xba257c16	-0.0006312741
233	0x3d1de475	0.03854795
234	0xbc331758	-0.010930859
235	0x3e65b2a8	0.22431433
236	0x3d7dd46a	0.061970152
237	0x3ce14ef0	0.02750346
238	0xbda74e0d	-0.08169184
239	0xbee71fcf	-0.45141456
240	0xbdc93e0d	-0.09826288
241	0xbd8d1802	-0.06889345
242	0x3d63c0b8	0.055603713
243	0x3e38d792	0.18050984
244	0xbd83125a	-0.06399985
245	0xbe1df6f1	-0.15426232
246	0xbe0882f9	-0.13331212
247	0xbe3aa835	-0.18228228
248	0xbe127c33	-0.1430519
249	0x3e3771ee	0.17914554
250	0xbdb5c278	-0.088749826
251	0xbdcaba0c	-0.09898767
252	0xbe12fa9f	-0.14353417
253	0x3e31d71a	0.17367211
254	0x3c977b98	0.018491551
255	0xbc00ccfc	-0.007861372

fc2.bias f4 [588]
0	0x3d461261	0.04835737
1	0x3c007da5	0.007842456
2	0xba625785	-0.0008634257
3	0x3ee2c073	0.44287452
4	0x3eb0953c	0.34488857
5	0xbe786691	-0.24257876
6	0xbd2a14a8	-0.041523606
7	0x3e4b6da0	0.19866037
8	0xbe6a7687	-0.22896777
9	0xbe38f08c	-0.18060511
10	0xbe0ba844	-0.13638407
11	0xbeb455f1	-0.35221818
12	0xbd9e7904	-0.07737926
13	0xbd58d35c	-0.052935943
14	0xbd022d0a	-0.031781234
15	0x3c7edd72	0.015555726
16	0xbe36f297	-0.17865978
17	0x3f09e074	0.53858113
18	0x3e0037c5	0.12521274
19	0x3ec4b05c	0.38415802
20	0x3cf743ce	0.030183699
21	0x3d72b873	0.059257936
22	0x3ecc0332	0.39846188
23	0x3d48635e	0.04892289
24	0xbe6eaa05	-0.23307045
25	0xbe0d54eb	-0.13801925
26	0x3e9f639f	0.31130692
27	0x3da32688	0.07966334
28	0xbe3a84c3	-0.18214707
29	0xbe6d9039	-0.23199548
30	0xbe6cd212	-0.2312701
31	0x3efcab7a	0.49349576
32	0xbef8f45c	-0.4862393
33	0x3ee84627	0.45366022
34	0xbd5656cd	-0.052328873
35	0x3d4a1946	0.04934051
36	0xbe231088	-0.15924275
37	0x3f93de2a	1.1552174
38	0x3f12779b	0.57213753
39	0x3e04d03a	0.12970057
40	0xbe449ee3	-0.19201235
41	0x3c259bf9	0.010107988
42	0xbd5e0a17	-0.05420884
43	0x3c2aabd0	0.01041694
44	0xbe35d018	-0.17755163
45	0xbe556b4b	-0.2084171
46	0x3ad45b51	0.0016201531
47	0x3d6cb142	0.057786234
48	0xbe0d206c	-0.13781899
49	0xbd1f25d8	-0.03885445
50	0xbe4c5e31	-0.19957806
51	0x3d0f8fe2	0.035049327
52	0xbe407b5f	-0.18797062
53	0xbe1d88d1	-0.15384223
54	0x3da0ea92	0.07857241
55	0xbd7a8fb7	-0.061172213
56	0x3de375d6	0.1110646
57	0x3e0ea0e3	0.13928561
58	0xbe3749aa	-0.17899194
59	0xbebc061b	-0.36723408
60	0x3f12d844	0.57361245
61	0xbddb8145	-0.107180156
62	0x3c5c80d0	0.013458446
63	0xbe3547b2	-0.17703131
64	0x3f805a72	1.0027602
65	0x3ee1e2a3	0.44118223
66	0x3f8a1c8b	1.0789961
67	0xbe6e0557	-0.23244224
68	0x3f9e908b	1.2387861
69	0xbe046bcd	-0.12931748
70	0xbe190f7b	-0.14947312
71	0x3b7e3cc5	0.0038793546
72	0x3f278883	0.65442675
73	0xbccb4ccf	-0.024816899
74	0xbe8b61a2	-0.27222925
75	0x3e08029e	0.13282248
76	0x3d7e78fe	0.062127106
77	0xbe1a5197	-0.15070187
78	0xbe0bcf22	-0.13653234
79	0x3f1cb70a	0.61216795
80	0xbc791d84	-0.015204791
81	0xbec4fd59	-0.3847454
82	0x3cd85ad1	0.026410492
83	0xbd4c0174	-0.049806073
84	0x3db13569	0.08652765
85	0xbd8898d7	-0.06669777
86	0xbf0fb797	-0.5613951
87	0x3eddb2e4	0.43300545
88	0x3fb148ba	1.3850319
89	0xbe29f393	-0.16596822
90	0xbd08136c	-0.033221647
91	0xba05fd25	-0.0005111269
92	0xbe26b125	-0.16278513
93	0x3d9e279f	0.07722401
94	0x3ecaa16f	0.3957629
95	0xbdd695ec	-0.10477814
96	0xbe399d36	-0.18126377
97	0x3cc9d01e	0.02463537
98	0x3d9e261b	0.07722112
99	0x3de94623	0.11390331
100	0x3d59bb16	0.053156935
101	0x3e0c5b00	0.13706589
102	0xbe42fe46	-0.1904231
103	0x3d6b2f73	0.057418298
104	0xbcb43d91	-0.022002013
105	0xbd07a517	-0.033116426
106	0x3d9b67c6	0.075881526
107	0x3e895e76	0.2682988
108	0xbf63c337	-0.8896975
109	0x3d0b2b84	0.033977047
110	0xbd192519	-0.037388895
111	0x3d2654aa	0.040608086
112	0xbd79c567	-0.060979273
113	0x3f0ad84f	0.5423631
114	0x3ef64d88	0.48106027
115	0x3bfd311c	0.0077268016
116	0x3dd76131	0.10516585
117	0x3c9ccdec	0.01914116
118	0x3e5cf1ba	0.21576586
119	0xbe0c875c	-0.1372351
120	0x3f18a192	0.59621537
121	0x3e63e80b	0.22256486
122	0x3f2d92e0	0.6780224
123	0xbe03e83b	-0.12881558
124	0xbdb84f9b	-0.089995585
125	0xbe3c7698	-0.18404615
126	0x3e4219f3	0.18955211
127	0x3f4f05d4	0.8086827
128	0x3db4e74f	0.08833181
129	0xbe6c4c49	-0.23075975
130	0x3e3f73c8	0.18696511
131	0xbe8537bd	-0.26019087
132	0xbcdd2a6c	-0.026997767
133	0xbda74ec7	-0.081693225
134	0x3fa6a7ab	1.3019918
135	0x3ddf060e	0.10889827
136	0x3e7d4032	0.2473152
137	0x3ea9b1a3	0.3314334
138	0xbe5bbdbe	-0.214591
139	0xbe48e2c1	-0.1961775
140	0xbdc4041d	-0.09571097
141	0xbe43067c	-0.19045442
142	0x3e368df6	0.17827591
143	0x3db4fac7	0.088368945
144	0xbe398e09	-0.18120588
145	0xbc55a2a7	-0.013039268
146	0x3db968eb	0.09053215
147	0x3da05f01	0.078306206
148	0x3d031400	0.032001495
149	0xbe3ea523	-0.18617682
150	0xbf0001d7	-0.5000281
151	0x3dd4fd69	0.10399897
152	0x3cb6ebf4	0.022329308
153	0xbddce2f5	-0.10785476
154	0xbe48dfe2	-0.19616655
155	0xbea815d3	-0.3282915
156	0x3e1170bc	0.14203161
157	0xbdfcf739	-0.123518415
158	0xbe688cd3	-0.2270997
159	0x3d602313	0.05472095
160	0xbe2ddf60	-0.16979742
161	0xbdec2b50	-0.11531699
162	0x3e88d939	0.26728228
163	0xbe332435	-0.1749428
164	0xbd90a629	-0.070629425
165	0xbe8725fe	-0.26396173
166	0x3f03db8b	0.5150687
167	0xbe4b3446	-0.1984416
168	0x3e1026f4	0.1407736
169	0x3f2460f6	0.6421045
170	0xbef99d13	-0.4875265
171	0xbe8604b4	-0.26175463
172	0xbde7c150	-0.11316168
173	0x3e0e1567	0.13875352
174	0xbdfa0d77	-0.122095995
175	0x3de2b663	0.11069944
176	0x3eaa3e44	0.3325063
177	0xbe2bc9ac	-0.1677615
178	0xbec4d5b7	-0.384443
179	0xbc948d28	-0.018133715
180	0xbe9ca885	-0.3059732
181	0x3db3cb40	0.08779001
182	0xbb0b1c5d	-0.0021226623
183	0xbe7f2a2a	-0.24918428
184	0xbde55d7c	-0.11199471
185	0xbf32a556	-0.6978353
186	0x3f196ef5	0.5993493
187	0xbe157df4	-0.14598829
188	0xbd0af3c5	-0.033923883
189	0x3c45cb0c	0.012072336
190	0xbd27a393	-0.04092748
191	0xbce35550	-0.027750641
192	0x3da86199	0.0822174
193	0xbe451008	-0.19244397
194	0xbe448a7a	-0.1919345
195	0xbb43c9b6	-0.0029874868
196	0x3ea8c6a4	0.3296405
197	0x3ebe841e	0.37210172
198	0xbda8f235	-0.08249322
199	0xbe2f90ca	-0.17145076
200	0xbcbbc5ee	-0.022921529
201	0x3ed4e1c3	0.41578493
202	0x3eb3af4b	0.35094675
203	0x3ee6f7ad	0.45110837
204	0x3ee58ab2	0.4483238
205	0xbcc6b264	-0.024254985
206	0x3f1b6e4a	0.6071516
207	0x3f5ab166	0.8542694
208	0x3eada769	0.33916786
209	0x3e867de5	0.26267925
210	0x3f02df66	0.5112213
211	0x3f387d2c	0.72066
212	0x3f0321d9	0.5122352
213	0xbe3d90ac	-0.18512219
214	0x3ec823eb	0.39089903
215	0x3e2b88d2	0.16751412
216	0x3eafe34b	0.34353098
217	0x3e9239c4	0.28559697
218	0x3eb50f2e	0.35363144
219	0x3f1ca121	0.61183363
220	0x3e730115	0.23730882
221	0xbd5db1c1	-0.054124597
222	0xbe1a3d84	-0.15062529
223	0x3e8ed74f	0.27898642
224	0x3ebd7ae7	0.3700783
225	0xbe8441ea	-0.25831538
226	0xbdd96903	-0.106157325
227	0x3f13a697	0.5767607
228	0x3f45c8ef	0.77259725
229	0xbda009b2	-0.07814349
230	0x3ea17b74	0.315395
231	0xbdc595bc	-0.096477
232	0xbe556afd	-0.20841594
233	0x3ef6618e	0.48121303
234	0x3e918d25	0.28427997
235	0x3e875347	0.26430723
236	0xbd3890a2	-0.045059808
237	0x3ed1f917	0.41010353
238	0x3ee96de0	0.4559164
239	0x3ed0325f	0.4066343
240	0x3ee0064c	0.43754804
241	0x3f700472	0.93756783
242	0x3ee5c0ae	0.44873565
243	0x3ed2ec2c	0.4119581
244	0x3ebf56c0	0.37370872
245	0xbe4663f2	-0.19374064
246	0x3cba692b	0.022755226
247	0x3e357eb3	0.17724113
248	0xbf17426f	-0.59085745
249	0xbd44c204	-0.04803659
250	0x3e1b8d93	0.15190725
251	0xbd965ed5	-0.073423065
252	0x3d4ab403	0.04948808
253	0xbf485af9	-0.78263813
254	0xbd9553ea	-0.07291396
255	0x3efc1789	0.49236706
