Pytorch/AutoEncoder/saved_models/mnist/NetLargeDropout-L2Loss_mnist.pt (torch, 246767 bytes, 15 tensors)

conv1.weight f4 [64, 1, 3, 3]
00000000: 8b60 f8bd ba59 353e 7708 01be 857a cabd
00000010: 7551 773e a0fd 603e 5abe b23d 93b9 c23c
00000020: 4cb6 ab3d 0abd a63e a773 43be 4875 f6be
00000030: dd62 13be e48d d53d c738 86be e3ad 99be
00000040: 11e4 10bf 4aba b0c0 c33a 243d 6315 333e
00000050: 6e49 643e 9109 99bb f5c5 293d 1dc7 93bc
00000060: 33ae 96be 3736 45be a65a 8fbe 9859 653e
00000070: 0b71 473e ea19 1ebc 61e7 7cbd f947 bcbc
00000080: c60d bf3e 6d83 a9be a748 57bd 3c57 bb3d
00000090: 9939 c73d 4845 173e aca5 353d b07d 84be
000000a0: 5807 0dbe 9f48 47bf 41f1 04bf cf14 7fbe
000000b0: 60ae 8f3e a47e 36be 50dd e9bc c880 55be
000000c0: b317 90bd d494 303e 7c47 c0bb f7e3 a6be
000000d0: cfe4 81bd c480 41be 9fbb aebe 9042 02bc
000000e0: d48b 7a3e 1469 aabe b05a 1fbf 3c6c 153c
000000f0: 978e 86bf a8ea 78be 458c 093e 4b7f ab3e
00000100: 5d5b b3bd 7727 fb3d 4185 4d3e 56e6 54bd
00000110: 23c2 c63e fd40 e4bd b666 94be e888 9fbd
00000120: 6eb3 dfbe 0389 5dbe 8109 3dbe 9216 4a3e
00000130: e5ba 34be d175 0b3e 9843 4d3e fd65 023e
00000140: 7226 913e 6010 303e 4e26 04be 1aee ee3c
00000150: d21e 6e3d a01f 183e 2e1d 0a3e 8470 353e
00000160: 6cb4 3f3e 7072 b93d 60b5 afbe 3bd0 783e
00000170: 4d51 bdbb 9d83 adbe f615 aebd d2a0 d13d
00000180: 853e e93c 3b23 113d 84c0 033e e534 c3bc
00000190: 4810 5f3e c24a 573e c183 bcbe 2b46 5fbe
000001a0: f867 533d 95fd 9b3d 9f5e 753e 6521 1b3e
000001b0: 7515 c6bc e290 e4be 4bd7 dfbe 1a51 a83c
000001c0: 707f 93bd f148 98bd ee7b 6a3e b933 123d
000001d0: 90dd 133c 9146 3a3e acd9 063e e4f9 2cbe
000001e0: 86fc d4ba 00c0 4d3e e1b2 393d 5084 2ebe
000001f0: 1563 ef3d db37 203e d27c 32bd 2daf 223e
00000200: 7795 82be a5a8 03bf bec4 98be cdcc eabd
00000210: 104e 94be 9522 3f3e 89f5 2fbe a947 873d
00000220: d537 283d b6da 783e 3588 11be 5901 573e
00000230: ab9a 6e3d 328d 38bf bcf3 6cbe 7c49 f3be
00000240: 90da 97be 31c8 a43e 8891 a8bf a02a 24bf
00000250: 26e3 73bf c5d9 b0be 9755 f53e 35d6 b8bd
00000260: d497 223c f216 143e d470 6e3e f7dc 833d
00000270: b58f c6bd fe37 a9bc a0f6 c0bc a54d 67be
00000280: d58f 6a3e add5 533e eb91 983d 5168 8d3d
00000290: 7be9 40be bff3 413e 5ff6 f7be d4e5 00bf
000002a0: 2b1d dc3d 0a9e 16be 696d d03c f4f3 243e
000002b0: 1ef5 1f3e 7ba8 913e 3210 00be 15cc ddbe
000002c0: 093f 593d 9bf9 6fbe ad8d 843d 200f 8a3e
000002d0: 5db0 913e 87d8 b73d 76d4 50be d3f6 3abe
000002e0: 09e2 933c 2b18 b7be 4984 adbd 4b18 a6be
000002f0: 133c 32c0 fbb4 9e3a 1bf8 8d3c 7aab 273e
00000300: 605a 1abe 128c 1fbe 1a04 1d3e 1e74 3bbf
00000310: 9e5c 98bd 7231 8a3c 8aeb a83d ae67 573e
00000320: 4817 253e a1d1 403e 3763 5bbd 8734 b63d
00000330: 47bc 983e 01e6 93be a96c 0ebe 3109 bebd
00000340: 9233 ebbd 0a48 86bc 0929 523e 8590 1d3e
00000350: 0814 253e 0722 a73d b4c5 3fbe 0e19 1abe
00000360: 8a25 71be f1cd d93b 23d6 ba3d d75e 8ebe
00000370: 16b3 053e 6d8e 223e 6333 c33d a759 a13e
00000380: 1a49 45bd c2d0 89bf 99cc a8be b9dc 31be
00000390: 4537 74be d1b1 063e 2379 7ebe 63f7 9a3d
000003a0: caf7 3a3e 3311 223e c1c7 22c0 cfba 97be
000003b0: 08db a23c 2494 a5be 3562 14bc 8b50 1c3e
000003c0: b069 86be 1320 00be 0782 643e 6dc6 36bf
000003d0: 56a9 9ebd be18 e23d 43d1 d4bd 0c54 a4bd
000003e0: 122c ea3d 442e a0be 4b2a 283e 0e8a e23d
000003f0: 6991 33be 1e7b e93e 1c97 e13d 2a76 32bf
-0.12127789 0.17710009 -0.12600885 -0.0988665 0.24152167 0.2197175 0.08727713 0.02377013
0.0838438 0.325661 -0.19087087 -0.48136353 -0.14393182 0.10427454 -0.26215193 -0.30015478
-0.56598 -5.5227404 0.040095102 0.17488627 0.22293636 -0.00467033 0.041448552 -0.01803928
-0.29429778 -0.19258963 -0.27998847 0.22397459 0.19476716 -0.009649733 -0.061744098 -0.022983538
0.37315196 -0.33108082 -0.05255952 0.09147498 0.09727783 0.14772522 0.04434745 -0.25877142
-0.13772333 -0.77845186 -0.51930624 -0.24910282 0.28062725 -0.17821747 -0.028547913 -0.20849907
-0.0703577 0.17244273 -0.0058678966 -0.32595798 -0.0634247 -0.18896776 -0.3412752 -0.00795044
0.24467403 -0.33283293 -0.62247753 0.009120043 -1.0512265 -0.24308264 0.13432415 0.33495554
-0.087576605 0.12263387 0.20070364 -0.051977478 0.3881999 -0.11145208 -0.28984612 -0.07789785
-0.4369158 -0.21634297 -0.18460657 0.19735172 -0.1764942 0.13619162 0.20045316 0.12734218
0.28349644 0.17193747 -0.12905237 0.02916627 0.05813486 0.14855814 0.13487694 0.17718703
0.18721169 0.0905503 -0.34318066 0.24298184 -0.005777514 -0.33889475 -0.085002825 0.10235752
0.028472194 0.03543399 0.12866408 -0.023828933 0.21783555 0.21024612 -0.3681927 -0.2180411
0.051612824 0.07616726 0.23961876 0.15149458 -0.024180153 -0.44641787 -0.43718943 0.020546485
-0.07202041 -0.074357875 0.22898838 0.035693858 0.009024993 0.18190981 0.13168973 -0.168922
-0.0016249574 0.20092773 0.045336608 -0.1704266 0.1168882 0.15646307 -0.04357607 0.15887137
-0.25504658 -0.51429206 -0.29837602 -0.11464844 -0.28965807 0.18665536 -0.17183508 0.06605465
0.04106887 0.24302182 -0.14212115 0.20996608 0.05825297 -0.72090447 -0.23139852 -0.47517002
-0.29658937 0.32183984 -1.3169413 -0.6412754 -0.95268476 -0.34541145 0.47916862 -0.09025232
0.009923894 0.14461878 0.23285228 0.0643863 -0.09695379 -0.020656582 -0.0235551 -0.22588213
0.2290643 0.2068698 0.07449707 0.069046624 -0.18839066 0.18940638 -0.48430154 -0.5035069
0.10747751 -0.14708725 0.025442796 0.16108686 0.15620849 0.28448853 -0.12506178 -0.43319765
0.05303863 -0.2343506 0.06472335 0.26964664 0.28454867 0.08976846 -0.20393547 -0.18258218
0.018052118 -0.35760626 -0.08472497 -0.3244041 -2.7849166 0.001210838 0.01733022 0.16374007
-0.15073538 -0.15580776 0.15333596 -0.73224056 -0.0743954 0.01686928 0.082480505 0.21035644
0.16122162 0.18829967 -0.053561416 0.088967375 0.29831144 -0.28886417 -0.13908638 -0.09279097
-0.11484446 -0.016391773 0.20523466 0.15387161 0.16120923 0.08160787 -0.18727762 -0.1504862
-0.23549476 0.0066468646 0.091228746 -0.27806732 0.13056597 0.15874644 0.095312856 0.31513712
-0.04816542 -1.0766833 -0.32968596 -0.17369355 -0.23849209 0.13153769 -0.24850897 0.075667165
0.18258587 0.15826873 -2.543442 -0.2963471 0.019879833 -0.32339585 -0.0090566175 0.152651
-0.26252508 -0.12512235 0.22315226 -0.71396524 -0.07747142 0.110398754 -0.10391476 -0.08023843
0.11434187 -0.31285298 0.16422383 0.11061488 -0.17535938 0.45601743 0.1101515 -0.69711554

conv1.bias f4 [64]
00000000: fe37 86be a20f 3abc 1be9 41bc 07cb cebe
00000010: 6778 38b9 8279 8e3d 0ae7 55ba 895b debe
00000020: af3f 8dbe 18e1 fabe fcc5 d4bb 7e79 aebe
00000030: 12d4 aaba d664 c3be f57f 783d 469c 34bb
00000040: 41c2 f2ba ebee b8be cf6a b5bb fa64 92be
00000050: 5bae abba 7e9f b7bb b6b9 0bbf 62b8 c9ba
00000060: b43d 89be 7558 abbb 3e59 d6bb 2d6c 4bbb
00000070: da56 a5bb 7895 a8be e958 4fbb d41b 04bf
00000080: 3f4a c8be 2215 87be 1927 85ba 2817 8bba
00000090: 64b0 16be dd46 31be 4736 83be 5970 81be
000000a0: 8d01 ebbe 7d13 fbbe 4417 91bc 3d00 2dbe
000000b0: b147 c4bb 639e 74b9 4b4e ddba ad4e ecbe
000000c0: 1472 09be 8ee0 6cbe e873 83be f0fe 063c
000000d0: 1e1c 05ba 0d60 45be 72be afbe 6ba8 8f3d
000000e0: df8d ecbe 5b1c 03bf f9ca a0be 7df0 94be
000000f0: 098c 84be be37 e6be f645 9c38 05ea ebbe
-0.26214594 -0.011356266 -0.011835362 -0.40389273 -0.00017592461 0.069567695 -0.00081597327 -0.4342921
-0.2758765 -0.48999858 -0.006493328 -0.34077066 -0.0013033173 -0.3816287 0.060668904 -0.0027558967
-0.0018521027 -0.3611978 -0.005536414 -0.28592664 -0.0013098227 -0.0056037297 -0.5458025 -0.0015390033
-0.26804888 -0.0052290508 -0.0065414 -0.003103982 -0.005045754 -0.32926536 -0.0031638688 -0.5160496
-0.39119145 -0.2638331 -0.0010158747 -0.001061176 -0.14715725 -0.17312188 -0.25627348 -0.25281027
-0.4589962 -0.49038306 -0.01771129 -0.16894622 -0.0059899916 -0.00023328657 -0.0016884295 -0.46153775
-0.13422424 -0.23132536 -0.25674367 0.008239493 -0.0005077737 -0.19274922 -0.34324986 0.07014545
-0.4620199 -0.5121514 -0.31404856 -0.29089728 -0.25888088 -0.44964403 7.451691e-05 -0.4607698

conv2.weight f4 [32, 64, 3, 3]
00000000: 23f5 a43b 699a 8d3c 4260 a43c 610b edbc
00000010: 7415 b13d 4f1e af3c af32 a53c f5cd 3d3d
00000020: 8ff6 0c3d 1028 4dbd 4ab5 fabf 1f8f 81bd
00000030: c305 23bf 99db 85be ef10 13be 5c83 96bf
00000040: 3a21 ca3d bf90 c5bc 3392 ba3d 1c5b 00bd
00000050: f495 16bf 6ee2 9b3c 7546 9abe d31e 6fbe
00000060: 67e3 54bb 95f8 a8bc 405b ccbc 1526 cfbc
00000070: ff0c 7b3e 7340 7abe 65e2 bebc f6a0 a83d
00000080: 4670 8fbd 6a56 aabc 7c7a b4bd e20e acbb
00000090: d71b a9bc bff5 c0bd 6d19 f93d 7c70 d43d
000000a0: 51b0 13be 2082 5abf d7f4 87be cfc5 5ebe
000000b0: 235c 46be 6c15 d8bd 2748 f6bd 810d 56bc
000000c0: fb76 93bd 73eb 54be 7ac0 4cbc 0523 6ebd
000000d0: f098 27be 7bb1 d6bc 69ad 023e 4ce1 953e
000000e0: 622e 5abd 068f 323e f71d df3d bbda d33b
000000f0: 9edb c2bc 2e07 963d 56d6 293d 1efa 943c
00000100: 8db4 113e 02a7 83be 19b9 e43d 2571 dabe
00000110: 2f5e 4bbf d739 c9bd cc4b 09be a811 b1bd
00000120: 3850 72ba 6b1d 0e3d c39c 8abc 6913 8fbd
00000130: 5588 65bd 4fce 2fbe a4a2 2a3d de0d babd
00000140: 45fe 9cbe 4246 653c 76cc f33a a350 e1bc
00000150: fd56 28bc 1cca c6ba 5e7b 0dbd 6f97 703c
00000160: 1b5b d3bc 5254 0b3b d8d0 523d 8a3f 953d
00000170: 2294 893b e0cc 893c 7c8a c43d 39be 5f3c
00000180: 6e71 4c3d 4ae2 823d 2852 193d ba70 113c
00000190: bc8d 2d3e e36c 013e ca3c 933c 1954 a73e
000001a0: 27aa fb3c 5d0f 7e3d ce64 f83d f490 303d
000001b0: bcf6 34bc dc07 243d 3abc 37bd ea26 46be
000001c0: 5cc2 fbbc 6a14 f2bd f6b7 6cbd a06a 5cbc
000001d0: 1ead debc 72e9 28bd 5021 f03d f441 3fbd
000001e0: 5546 153d 90ff 16bd 8338 5a3d 4602 65bd
000001f0: 748b d7bc e4ee 6abc 0fad c0bd ea92 3bbe
00000200: 0c1e aebd 4f5f c6bd 7063 a0be f68d 7bbd
00000210: e7f4 09bd 4e1b 2ebe ead2 2cbd 8b5b 943d
00000220: d9c4 02be 99de 5abf 86ea db39 8bd1 c0be
00000230: 82af 72bf 58be e2bc 99f6 ecbd a138 76bd
00000240: 97b5 6bbd 1c01 f43c 3be8 42bd 41e9 8a3d
00000250: e489 e2bb 528c 1cbe 4138 f8bd 0eda fdbe
00000260: ad9d 0a3d 7b01 afbc 054d c83d ccb2 ed3c
00000270: 6e9d 70bc 1cbb b63d 63d8 d73c 514c 5fbd
00000280: ea98 973b 488b 2e3d 8fbd 14bd 5d91 853b
00000290: 892a c1bb 0fbe 29be 74d8 223d 4d04 8bbd
000002a0: dd90 cfbd feb8 1f3c 3546 b03c a6e2 453c
000002b0: c78f 5c3e 463f 9dbc 41ff 503d 4592 5d3e
000002c0: a1ba 933c 7d1e e1bc 43a9 25bb a79e 3039
000002d0: e5fc 06bd dd2a 0ebf 55ba 3abe c583 93be
000002e0: 3acc 023d b4f9 afbd 0527 c5be 8a45 053e
000002f0: 6783 7fbc 5a6f 823d d76c 9a3e f84c fabc
00000300: ce7e dd3d 0733 303e 750f 973c 7275 59bd
00000310: 1459 ce3b aa2c c23c 2cec a9bd 7c45 4abe
00000320: 2366 aabd 637f 91be 83ee 51bc 74ee 9c3d
00000330: 2d0d bdbd 801d 0bbd 4b72 0b3d 97d0 a23d
00000340: edf8 82b8 bd1d c73c 0f35 0cbe d299 07bc
00000350: 0afc afbc af0c 233d 9956 41bb 5352 83bc
00000360: e418 efbc ed3d 3f3d 8195 433d e84e 2f3b
00000370: 12dd d53d 4cac 323d 6311 0e3d f27f 8c3d
00000380: b660 6b3c 1afe 203d 0def 8c3d fc80 17be
00000390: 4a21 d3bd eef0 5bbe bbeb 71be 0d07 a23c
000003a0: 2f33 b0be e4dd 18bf 4c4e 243b 9cb1 943d
000003b0: d5a0 d33c 2d46 4f3e 5807 bb3d e734 613d
000003c0: e216 8d3a 66fd 833d 306a 963d 193d 373b
000003d0: f576 c23d 04ba 103d f8c2 923d 57b4 fa3d
000003e0: ae2f 7a3c ce79 4b3d e1a7 9d3d e248 2c3d
000003f0: a603 23bd 166f cbbe b388 65bf 0350 bbbc
0.0050341054 0.017285543 0.02006543 -0.02893609 0.0864667 0.021376757 0.02016577 0.046338994
0.034414824 -0.050087035 -1.9586575 -0.06326126 -0.63680667 -0.26144102 -0.14361928 -1.1758838
0.09869619 -0.024116872 0.091099165 -0.03133689 -0.5882256 0.019028869 -0.3013188 -0.23351602
-0.0032484175 -0.020626346 -0.024945855 -0.025286714 0.24516676 -0.24438648 -0.023301313 0.08233826
-0.07003836 -0.020793159 -0.088124245 -0.0052507976 -0.020643158 -0.09421872 0.12163053 0.10373017
-0.14422728 -0.85354805 -0.26553985 -0.21755145 -0.19371085 -0.10550961 -0.12025481 -0.013064743
-0.07200428 -0.20792942 -0.012497062 -0.058138866 -0.16366935 -0.026207676 0.12761463 0.2927345
-0.05326689 0.17437372 0.10894387 0.0064652837 -0.023786362 0.07325588 0.041464172 0.018185671
0.14229031 -0.25713354 0.11168117 -0.42664447 -0.7944059 -0.09825485 -0.1340782 -0.08645946
-0.0009243521 0.034696024 -0.016920453 -0.06986124 -0.05603822 -0.17168544 0.041659012 -0.09084676
-0.30662742 0.013993802 0.0018600363 -0.02750427 -0.010274646 -0.0015166434 -0.03454148 0.014684542
-0.025800278 0.0021259976 0.0514687 0.0728751 0.004198567 0.016821325 0.09596726 0.013656192
0.049912862 0.063908175 0.037431866 0.008876974 0.16948599 0.12639193 0.017973322 0.3268135
0.030720783 0.06202637 0.12128602 0.043106988 -0.011045154 0.040046558 -0.04485724 -0.19350782
-0.030732326 -0.118203 -0.057792626 -0.013453156 -0.027182158 -0.041238256 0.11725104 -0.046693757
0.036444027 -0.036864817 0.05327655 -0.05591037 -0.026311614 -0.0143391825 -0.09408008 -0.18317762
-0.08501825 -0.096861474 -0.31325865 -0.06141468 -0.033680823 -0.17002603 -0.04219333 0.07244023
-0.12770404 -0.8549591 0.0004194567 -0.3765987 -0.94799054 -0.027678654 -0.11570472 -0.0601126
-0.057546224 0.029785685 -0.047584753 0.06782771 -0.0069134105 -0.15287903 -0.121201046 -0.49580425
0.033841778 -0.02136301 0.09780315 0.029015921 -0.014685972 0.08922407 0.026348298 -0.05451614
0.004626383 0.042613298 -0.03631359 0.0040761665 -0.005894963 -0.16576408 0.039757207 -0.0678793
-0.10135052 0.009748695 0.021517852 0.012077963 0.21539222 -0.01919521 0.05102468 0.21637829
0.018033328 -0.027480358 -0.002527789 0.0001684377 -0.032956023 -0.55534154 -0.18235143 -0.2881147
0.031933047 -0.08592549 -0.38506332 0.13014808 -0.015595294 0.06368895 0.30161163 -0.03055428
0.10815202 0.17206965 0.018439988 -0.05309052 0.00629724 0.023702938 -0.08296999 -0.19753069
-0.08320262 -0.284175 -0.012813213 0.07662669 -0.09231029 -0.03396368 0.034044545 0.079499416
-6.245249e-05 0.024306173 -0.13692115 -0.00827642 -0.021482486 0.039807018 -0.002950108 -0.016030466
-0.029186673 0.046689916 0.04775 0.0026749913 0.104425564 0.043621346 0.03468455 0.06860341
0.014366319 0.03930483 0.06881533 -0.14795297 -0.10309084 -0.21478626 -0.2362508 0.019778753
-0.3441405 -0.5971358 0.0025071083 0.07260439 0.025833527 0.20241614 0.0913226 0.054982092
0.0010764266 0.06444816 0.073444724 0.002796 0.094953455 0.03533365 0.071660936 0.12241428
0.015270157 0.04967671 0.07698036 0.042061694 -0.0397984 -0.3973319 -0.8966171 -0.022865301

conv2.bias f4 [32]
00000000: fe32 973d ff82 d43d b662 6cbb 691b 403c
00000010: 77f0 9c3c 7ce2 b8bb 274b b1bb 83c2 073d
00000020: 91bb 9bbd 8244 693b dd00 18bc b5e2 17bd
00000030: cd22 473c dfb7 24bc b82b 07bd 3e9c 9abd
00000040: 54c6 9cbb a42a 1bbb 0531 d93c 4af1 b2bb
00000050: d502 633c 4f85 11bd 06e6 f7ba 859c 7dbb
00000060: 2309 8dbb f9cb 28bb db9d 4bbb af66 15bb
00000070: 4267 8abd d3b8 303c 7616 b1bc 6e6c 1c3c
0.07382773 0.10376548 -0.0036069578 0.011725285 0.019157631 -0.0056422334 -0.00541057 0.033144485
-0.07604135 0.0035593812 -0.00927755 -0.03708144 0.012154293 -0.010053604 -0.033000678 -0.07549332
-0.0047843847 -0.002367654 0.026512632 -0.005460893 0.013855656 -0.035527524 -0.0018913157 -0.003869803
-0.0043040677 -0.0025756343 -0.003106943 -0.00227968 -0.06757976 0.010786253 -0.021617156 0.009547336

conv3.weight f4 [12, 32, 3, 3]
00000000: 29fa adbd 1116 9dbc 8274 d63c 2126 923b
00000010: 1631 8d3d f672 40bd 366e 303c 5222 2f3d
00000020: 8a08 55bc d5b3 aabd b970 8fbd 08a8 eabc
00000030: da7b 16be b35d 6bbe 2631 41bd e99e 5ebd
00000040: 1d94 41bd e35a d63c 083c 3dbd bca6 81bd
00000050: 2527 ba3c dc31 693d f85f 203d 5ad3 9bbd
00000060: 36da ad3d c01f 293d 98d4 7e3c 8f7b 013d
00000070: 0298 42bc fccd 863d 9cef 07bd 9551 943d
00000080: 6733 aa3d 8915 473d e7dc f43d 069b 24bd
00000090: 0e83 f9bb c3ec 473d e715 803d 4355 043d
000000a0: 96e4 a13d a4a2 453e 6ef3 ffbd df9a a83b
000000b0: 9a0b 38bd 189e 3d3a 4564 62bc 8a98 9e3d
000000c0: cd88 08be e673 68be bf37 723e 06d2 c3bd
000000d0: 2c18 07be cf82 b03d ba0f 2dbd 2cb0 8b3c
000000e0: f92a 573d f262 5c3c 9281 8f3d 28ee dc3c
000000f0: 0761 bd3b ed57 ca3c 246e 80bc 3290 a03c
00000100: ced2 f63c b4a1 4ebd c404 62bd 5f35 94bc
00000110: 903e 9d3c 473c 10bd 09f9 8c3d 4f36 923c
00000120: a670 4c3c 8668 d5bc 9b42 063d 8aee 06bd
00000130: 0bea ebbc 7ce4 a63a cf34 9e3d 6f38 b3bc
00000140: b13d 9f3d 8bf4 533d b507 55bc 6c81 65bd
00000150: 9c0a 333b d5a5 023c 306d 9e3b 0e64 73bd
00000160: 4228 a43d 6dc5 1c3d 34dc 363d 4641 063d
00000170: 513e 6f3d 03ee ff3c 4981 93ba 7da4 79bc
00000180: afa7 503d 10e2 883d 60dd 0d3c 2937 563d
00000190: 5e67 01bd 0c28 81bd 064c 833d 8499 febd
000001a0: dc49 42bd 387e f83d 1018 f53d 68cd 11be
000001b0: 40e9 183b bfdd ccbc 36ce 433d a604 84bc
000001c0: a735 103d 04ae 703d 6376 8e3c b72d a03c
000001d0: 7afe d3bc c818 563d d5d3 0f3e 92ac d13d
000001e0: d364 eebd 4de7 2fbc e51b 88bd e9a2 163e
000001f0: 0e5f 2ebd cf48 1bbe 7765 36bd 7742 1abc
00000200: cc07 c0bc 694a dfbc 9c7a d43c 9d07 13bd
00000210: 8087 2e3c d657 3ebc 5cab b83c 8204 3a3d
00000220: 3615 4b3d 20a4 58bd 500c 3c3d 191d 183d
00000230: 16ee cb39 4af0 2cbd 6f4d 873c a6d8 9abd
00000240: d9aa 2e3c 3d73 33bc 6562 013d c699 8fbc
00000250: 9938 533c 8c1b 3e3d 7840 9a3c c5c5 0d3d
00000260: 9c78 263c 9bd2 50bd aab5 fc3d 25fc b23d
00000270: 8af6 303d 6fbe 863e 9e94 0fbd db73 683d
00000280: 2704 db3c 9852 babc 4b3e 98bd 14cf c2bd
00000290: 7612 8e3c 80bb ecbb 930b f6bc 982b 92bb
000002a0: 876f 903b 9fd7 1abc 789c 21bd 0549 b6bd
000002b0: 2be8 40bd 023c ff3c 7c96 003d 5953 bd3d
000002c0: db5e 70bd 679f 3d3d 520b 783d a859 f83b
000002d0: 8d14 0ebd 5494 21bc 43c6 1a3d 3a2b 503c
000002e0: 1954 3e3d 2f7a 8f3c c3ba d83c 17d6 873b
000002f0: 21c0 0bbc b239 98bd 269c a1bc c1d3 8e3c
00000300: 984b 9fbd 2626 1cbd f3d8 ea3b a053 7fbc
00000310: b0f5 d73c 97dd cebb cae1 563c bc4e b73a
00000320: af71 cebc cf3e 09bd 5d5d 923c 0b8b c33c
00000330: b73e 2e3c 4372 d63d 53ce 783c 5e6d 1bbd
00000340: 1a0b 70bd 7c63 c23c f382 f13c cb3a 5e3d
00000350: ea43 54bd 4583 533d e55d 383d a865 db3b
00000360: e8a2 073c ed1f 49bd 0110 213d fea4 80bc
00000370: e411 b3bc 2a3c 743d 3c15 bb3c 9a8a f63c
00000380: 981e 433c d29b de3c 6b7f d3bc d093 66bd
00000390: 7862 03bd 3aef 773b 04c3 c6ba 64b2 073d
000003a0: 8d95 b63d fafb 6c3c ada7 2a3c ae0f 6bbd
000003b0: a1b9 943c 08d8 91bd dc9b 4bbd fd91 113d
000003c0: 1e2a 603d a369 653d e7cc 00bc a420 a93c
000003d0: 0717 273d 5dd5 0e3e 16ec d1bd 8b61 083d
000003e0: e100 edbc 1b71 093e 1c6a 9cbd 32ff bbbd
000003f0: 604a d13c d812 d83c 63a9 dabc 5a68 023d
-0.0849498 -0.019175561 0.026178602 0.0044601117 0.06894128 -0.046984635 0.010768464 0.04275734
-0.013002524 -0.083350815 -0.07003922 -0.028644577 -0.14695683 -0.22984962 -0.047166012 -0.054350767
-0.047260392 0.026166385 -0.04619983 -0.0633063 0.022723744 0.056932315 0.039154023 -0.076086715
0.08488886 0.041290045 0.015553616 0.031611975 -0.011877062 0.06582257 -0.033187494 0.07242123
0.083105855 0.048604522 0.11956196 -0.040186904 -0.0076145 0.048809778 0.062541775 0.032307874
0.079049274 0.19300324 -0.124976024 0.005145415 -0.04493294 0.00072333356 -0.013817851 0.07743938
-0.13333435 -0.22700462 0.23654078 -0.09561543 -0.13192815 0.086187 -0.042251326 0.017051779
0.052531216 0.013451325 0.070071355 0.02696903 0.005779389 0.02470013 -0.01567752 0.019600008
0.030129816 -0.05044718 -0.055180326 -0.018091856 0.019194871 -0.035213735 0.06883437 0.017848162
0.012478029 -0.026050817 0.032778364 -0.032942332 -0.028798124 0.0012732889 0.07724916 -0.021877496
0.077754386 0.051746886 -0.013002326 -0.05603163 0.0027319556 0.007974108 0.0048347935 -0.05942159
0.08015491 0.038274217 0.044643596 0.032777093 0.05840904 0.031241423 -0.001125374 -0.015236971
0.050941166 0.06683743 0.008658737 0.0522987 -0.03159272 -0.063064665 0.06410985 -0.124316245
-0.04743372 0.12133449 0.1196748 -0.14238513 0.0023332387 -0.02500808 0.04780408 -0.016115498
0.035207417 0.058759704 0.017390436 0.019553049 -0.02587818 0.052269727 0.14045651 0.10237993
-0.116403244 -0.010736299 -0.066459455 0.14710583 -0.04257112 -0.15164493 -0.04453036 -0.0094152605
-0.023441218 -0.027257161 0.025937371 -0.035895932 0.010652423 -0.011617621 0.022542648 0.045414455
0.049580775 -0.052890897 0.04591018 0.037137125 0.00038896565 -0.042221345 0.016516415 -0.07560854
0.01066085 -0.010952768 0.031587977 -0.01752938 0.012891912 0.04641299 0.01882957 0.034612436
0.010160591 -0.0509821 0.12339337 0.08739499 0.043203868 0.26317164 -0.03505384 0.056751113
0.026735378 -0.022744462 -0.074337564 -0.09512153 0.017342787 -0.0072245 -0.030034816 -0.004460763
0.0044078263 -0.009450822 -0.03945586 -0.08900646 -0.047096413 0.031156544 0.031393513 0.09244413
-0.05868421 0.046294596 0.06055767 0.0075790472 -0.034687568 -0.009862024 0.037786733 0.0127056185
0.04646692 0.017514316 0.026456242 0.0041453945 -0.008529694 -0.074328795 -0.019727778 0.017434957
-0.0777809 -0.03812232 0.0071669756 -0.015583903 0.02636227 -0.0063130367 0.013115356 0.0013985257
-0.025200693 -0.033507165 0.017866785 0.023870012 0.01063507 0.104710124 0.01518591 -0.037946098
-0.058604337 0.023729078 0.029481387 0.054255288 -0.05182258 0.05163886 0.04501142 0.006695468
0.008278586 -0.049102712 0.039321903 -0.015703674 -0.021859117 0.05962769 0.022837274 0.030095387
0.01190915 0.02717391 -0.025817594 -0.05629331 -0.03207633 0.00378318 -0.001516432 0.03312911
0.08915243 0.014464373 0.010415954 -0.057388 0.018154921 -0.07121283 -0.049709186 0.035539616
0.054727666 0.056008946 -0.0078613525 0.020645447 0.040793445 0.13948579 -0.10250108 0.03329615
-0.028931083 0.13422053 -0.07637426 -0.09179534 0.02554816 0.026376173 -0.026692098 0.0318378

conv3.bias f4 [12]
00000000: 6279 e13e 36c5 fa3f 413f 293f 5fac 973e
00000010: 2783 8c3f ee98 143f 49d7 933d d0e9 de3e
00000020: e3ef ee3d 0ec6 b53f 7793 8e3f 8431 003f
0.4403792 1.9591434 0.6611214 0.29623696 1.0977525 0.5804585 0.07218797 0.4353776
0.116668485 1.4201066 1.1138753 0.50075555

fc1.weight f4 [24, 588]
00000000: e687 ba3c e0d8 1fbd 416e da3c 5fa7 e1bc
00000010: 9510 f53c 7cdb 2a3b 7eeb 1fbd 32af b0bc
00000020: 3ea2 3ebd e2b6 33bd 480e 18bd 43ce 16bd
00000030: 8812 babb e6fb 69bc f602 c1bc f33d d2bc
00000040: d5cf 3dbd cbd7 943b d76b a33c 7182 8bbc
00000050: 2dbf c33c d5a2 083d d343 5abc ea95 cfbc
00000060: 7bef 1cbc 8aa5 86bc 375b 993c f135 41bd
00000070: e4f7 11bd 62e8 ff3a 108b a7bc ddaa e33c
00000080: dcdc 543b ed62 35bd b7f4 3d3b f405 92bc
00000090: d7ee 33bd 444c 3bbc f3bf 22bb 0306 cb3c
000000a0: 56a0 943b c71e 0cbd aa44 943c c0df 44bd
000000b0: d0fb 9cbc 0bcd 18bd 6b04 e4bc bf5d 23bd
000000c0: fc32 9e3b 82ba 0dbd e3c8 93bc faf8 ef3c
000000d0: 4189 0b3d d8d9 bc3c f223 f7bc 537a 91bc
000000e0: eb81 033c c043 89bc ded2 fd3c 3aef 20bc
000000f0: d9ff 26bd 9fb8 72ba 57d2 68bc cbea 31bd
00000100: 8d1c 35bd 123c 993c 6fdb 69bc d601 b43c
00000110: 0794 d03b c8af b5b9 974a 113d 58d5 e33c
00000120: 8120 833c abed c93b 3c65 a53c ed77 003d
00000130: 1bca d5bb b735 133d 8183 08bd d38b c7bb
00000140: 4e71 213c 2338 f03c 5247 85bc 7a64 83bc
00000150: 21e0 153c f0c3 c83b d4c9 3ebc ddb7 fe3b
00000160: e5ef a43c 8a26 0fbd e934 0a3d 39a4 f1bb
00000170: 803d d63c e062 0c3d 3f92 c63c 111c 85bc
00000180: 9379 b13a c674 2bbd 50ed 70bc 0a96 77bc
00000190: e3dd 3fbc d1d6 b03c 690e 08bc 5da3 efbc
000001a0: c3b9 8dbc c12d 5fbb 3adc 793b 5418 87ba
000001b0: 44b9 e93c 5cef bbba 6d81 a4bb 97d3 ccbb
000001c0: f599 0a3c 98de f9bc a68b 8b3c 7244 41bd
000001d0: aa88 1dbd c29e a4bc 7f54 e8bc b493 7a3c
000001e0: ec08 053d 8d85 18bd db60 f1bc 4e62 0dbd
000001f0: 7ae6 29bd d1c0 8c3c afff 8e3b ca37 63bc
00000200: fcf8 28bc dee7 073d bca4 36bd b11a 3cbd
00000210: 3cab 07bd 4daf 01bd 3436 b63c f254 8639
00000220: a478 dcbb 100e 103c fea6 c9bc 2d04 3dbb
00000230: 8c04 a2bc cc98 17bd 7e85 aabc f235 533c
00000240: 1a90 22bc 51ee d03c 3dec 0b3c 1361 d1bb
00000250: 2a75 d4bc e1b0 873c f011 86bc 1a16 2fbd
00000260: 033b 8fbb 70f3 d33c 3590 12bd 4825 febc
00000270: 8640 24bc c24e a9bc b4cb d9ba 6956 d8bb
00000280: f247 8c3c 6c88 d8bc 2e6d 27bd 2072 fcbc
00000290: daa0 2ebd c670 a6bb 8508 d4bc ff8b d63c
000002a0: 45b2 01bd abf7 09bc e81f 01bd 0f2d d0bc
000002b0: 1508 8ebc 9587 44bc aceb a53a d4f1 043d
000002c0: 7457 ab3c 062e dfbc 1327 8f3c 6919 9cbc
000002d0: 5127 1bbd 595e be3b 7e70 8dbc ec2b 43bb
000002e0: b736 083d b9d3 03bd 31c0 1bbd 1e8f 3d3b
000002f0: 931f b5bc be10 e73b f39a cc3c b8d7 04bc
00000300: 5d70 f53b e319 06bb e335 123b 98cf 2cbd
00000310: e430 b63c 3d18 f03c 80bd 41bd 6cbf 073c
00000320: 5aee 3abd a53e a73c 0e0a 35bd 5962 47bc
00000330: 0def 8e3c d969 f9bc 5bc3 793b c5d3 d7bc
00000340: 8048 96bc f8d1 91bc fcbe c83b 2389 2cbd
00000350: 1810 3fbd b9e5 e1bb e9c2 703b d9d4 d6bc
00000360: 6e68 36bd faf6 38bd ae76 e9bb 379c 003c
00000370: 1e65 89bc 82d4 cf3c 4b9c 4a3c 881f 6e39
00000380: 989d 9bbc 7d8c a2bc 9f3f 3dbd cb27 a73c
00000390: 161b f43c 9fd2 6cbc 40d0 903c a112 09bd
000003a0: d388 d43c 8d6f e1bc 5f27 d9bb 123b bcbc
000003b0: d599 24bd 4f77 88bc 19ac aa3c 5967 e33c
000003c0: 4643 a63b 0967 2ebd d8dc ff3c bf93 bc3c
000003d0: b5af 1b39 1467 d4bc c907 33bd ce48 393c
000003e0: 1940 f2bb 342f 0b3b 6e42 3dbd c2ad d93b
000003f0: a817 813c 9bc2 a23c 94cf a0bb 0a64 05bd
0.02276988 -0.039025187 0.026663901 -0.02754563 0.029915133 0.0026070764 -0.039042942 -0.021567915
-0.046541445 -0.043875583 -0.037122995 -0.0368178 -0.0056784786 -0.014281249 -0.023560982 -0.025664305
-0.046340782 0.004542326 0.019948883 -0.017029973 0.02389487 0.033358414 -0.013321835 -0.02534004
-0.009578581 -0.016436357 0.018720252 -0.047170583 -0.035636798 0.0019524212 -0.020452052 0.027791435
0.0032480275 -0.044283796 0.0028984973 -0.017825104 -0.043928947 -0.011431757 -0.002483365 0.02478314
0.004535715 -0.03420904 0.018099148 -0.048064947 -0.019163042 -0.03730492 -0.027834138 -0.039884325
0.004827855 -0.034601696 -0.018040126 0.029293526 0.034066442 0.023053095 -0.030168507 -0.017758524
0.00802658 -0.016755939 0.030984338 -0.009822661 -0.04077134 -0.0009259078 -0.014210305 -0.043436807
-0.04421668 0.018705402 -0.014273508 0.021973532 0.0063653025 -0.00034653977 0.035471525 0.027811691
0.01600671 0.0061623654 0.020189874 0.03136437 -0.006524337 0.0359399 -0.033328537 -0.0060896664
0.009853674 0.029323643 -0.01626936 -0.016039122 0.009147675 0.006126873 -0.011644799 0.007773383
0.020133922 -0.034948863 0.033741865 -0.007374313 0.026152372 0.034273982 0.024239657 -0.016248735
0.001354026 -0.04185941 -0.014705017 -0.015111456 -0.011710617 0.021586807 -0.008304217 -0.029252702
-0.017300492 -0.003405437 0.003812565 -0.0010306933 0.028530724 -0.0014338302 -0.0050203116 -0.0062508094
0.008459558 -0.030501649 0.017034363 -0.047184415 -0.03846041 -0.020095233 -0.028360603 0.015294004
0.03247921 -0.03723674 -0.02946513 -0.03451758 -0.041479565 0.017181786 0.004363976 -0.013868282
-0.010313269 0.03318011 -0.044590697 -0.045923892 -0.033122286 -0.03166132 0.022242643 0.0002562176
-0.0067282487 0.008792415 -0.02461576 -0.00288416 -0.019777559 -0.037010953 -0.020815607 0.0128912795
-0.009922052 0.025504263 0.00854021 -0.006389746 -0.025934774 0.016563835 -0.016365975 -0.042745687
-0.0043710484 0.025872916 -0.035782058 -0.031023636 -0.010025149 -0.020667437 -0.0016616494 -0.006602098
0.01712415 -0.026432239 -0.040875606 -0.030816138 -0.04263387 -0.0050793616 -0.025882969 0.026189802
-0.03166415 -0.008420865 -0.03152457 -0.02541211 -0.017337838 -0.011995216 0.0012658737 0.032457188
0.020915724 -0.027243625 0.017474687 -0.019055085 -0.037879292 0.005809587 -0.017265555 -0.0029780818
0.033255305 -0.032184336 -0.038025085 0.0028924416 -0.022109782 0.0070515564 0.02497623 -0.008108072
0.0074902014 -0.0020462207 0.002230995 -0.042190164 0.02224011 0.029308433 -0.047299862 0.008285385
-0.045637466 0.020415613 -0.044199042 -0.012169444 0.017447973 -0.03044598 0.0038110826 -0.026346097
-0.018345118 -0.017800316 0.0061262827 -0.04212297 -0.046646208 -0.00689384 0.003673727 -0.02622454
-0.044533186 -0.04515741 -0.0071247434 0.0078497445 -0.01677185 0.025369886 0.012366365 0.00022709195
-0.018996045 -0.01984238 -0.046203252 0.020404717 0.029798072 -0.014454513 0.017677426 -0.03346503
0.02594415 -0.027519012 -0.006627008 -0.022977386 -0.04018577 -0.016658453 0.020834016 0.027759241
0.0050739376 -0.04257873 0.031233236 0.02301967 0.00014847408 -0.025928058 -0.043708596 0.011308862
-0.007392895 0.0021237852 -0.04620593 0.006643028 0.01575835 0.019868186 -0.0049075577 -0.032566108

fc1.bias f4 [24]
00000000: 1e3d a33c 59dc 23bd 57ac 933e 0374 b23c
00000010: 9ee8 083e ae1c 513e a0d4 933e 8f2e 4c3c
00000020: 14ac 7439 3c05 92bd 4f79 21bc 3460 f33c
00000030: e8bd 6abc 2d63 e63d e32b e3bb 375d 6f3e
00000040: 73ce 32b9 d1e0 583b 9678 0bbd a1c3 33bd
00000050: 2c36 b0bc dc9d 78bc e84a cf3b 6634 613e
0.019926604 -0.04000506 0.28842422 0.021783834 0.13369986 0.20421097 0.28873158 0.012462272
0.00023333757 -0.07129905 -0.009855582 0.02970896 -0.014327504 0.11249385 -0.006932722 0.23375402
-0.00017052311 0.0033092985 -0.034050547 -0.04388774 -0.021510206 -0.015174355 0.006326068 0.21992645

fc2.weight f4 [588, 24]
00000000: 6201 37be 0d7c 51be 9e66 31be 9ff8 ac3d
00000010: aaa6 1abe 2d89 b83d ec03 943d 32e6 0b3e
00000020: 8941 a63d a3db 01bc 6fda 273e 3e57 103d
00000030: 1b3e cb3d 1e85 36bb c065 10be 9efc adbd
00000040: 30ef 043d 77be 01be cdd6 953c b80f 9c3d
00000050: 626c b33c 932d 313e 2fa8 9fbd 2ce0 31be
00000060: e85b 013d 2868 513d 10df ba3c ba09 283e
00000070: 7bed b73d a216 80bd 4251 a0bd b8cd 31bd
00000080: b0e8 3d3c 2231 18be 9049 9f3d ea06 483e
00000090: 48d6 35bd aed1 6c3d 381e 353d 3269 66bd
000000a0: 4109 e8bc af02 b4bd 3625 9cbd 3a2d bd3c
000000b0: 6e1f 74bd e283 08be c975 02be 4b0f 8b3c
000000c0: fda4 0bbe c039 4bbe ff7b abbc 8778 76bd
000000d0: dfc2 56bb f3d3 c6bc adb8 693b d483 cf3d
000000e0: 4851 2dbd 11aa 7a3c ed2b e23c 3a67 0abe
000000f0: 41ce 0d3e badd ebbc 2f45 8cbd e2f9 5a3c
00000100: ea03 8b3c a3ac 9d3c a29d ddbd 0ec4 3c3e
00000110: a814 8ebb b07e 42be b43e 65bd aa9c 8fbd
00000120: a330 90bd d7ce 95bc a4bf 6e3d a9c3 413e
00000130: 1bc8 10be 6b49 a0bd 9ad4 6dbc 516d 09be
00000140: 6ed5 0a3c 9d75 d13b e3f8 c93d 83e7 4fbd
00000150: 8196 4f3d e8f1 3dbe e33c 2dbe 5fd1 e5bd
00000160: 321a 1b3d 497f 1dbe 37b1 1abd 95a9 47be
00000170: 98ec d4bd 34f3 403d 21e1 703d 9120 a93d
00000180: 6c61 433d 5df3 ec3d ea28 4fbe 8d92 493d
00000190: d023 e3ba 2129 dbbd 5fac 74bd 9f91 033e
000001a0: bb0d a5bc 3da1 b83d e688 953d 6037 c2bd
000001b0: 2d13 973d 2a59 6b3d 3e44 303e 3fab 33bd
000001c0: 77f3 04be 152b 8e3d 5b54 453e 25e8 2cbe
000001d0: d08c 8dbd 0364 6739 9325 793c 2dcb 6dbd
000001e0: 8366 ddbc 9a3d 2a3e ad02 d43d 3e39 0f3e
000001f0: cf4a 3c3e 7e9a 92be 6783 7c3e cb70 c23d
00000200: 9784 c13d 34b5 43be dba6 e7bb 8128 41bd
00000210: 68cc bfbd 2867 d7bd b9b9 853d 5058 01be
00000220: a612 02bd 1962 3fbe e3ea bebd 5c2b 2cbe
00000230: f4bc 133e 8b28 153e eca6 4fbe 7372 9fbe
00000240: 62e7 2f3d 1c84 17be f195 52be e237 8dbc
00000250: 2f70 35be 0aae 5abe 8f4a debc eb50 02be
00000260: b493 2d3e 65f2 393e d24f da3d 0e21 e53c
00000270: 7e64 413e d709 c23c 424f e23d 14cb d63c
00000280: 731b 953c 3896 2abe 1296 dd3d 1095 1e3e
00000290: 52de 9e3d 8b50 343e 89ab edbd 4c94 bd3d
000002a0: 76e7 ed3c e082 023e 1df1 4ebd cbf2 b23d
000002b0: 7d34 d23c d8b2 48be 42c1 76be 7f70 3abd
000002c0: 9f25 513d bc13 abbc ce6a 063e 3567 ca3d
000002d0: 52d4 0b3d 6236 81bd 5a60 2abd 61fa 063e
000002e0: bdf2 93bd ccb4 e0bd 700b eabd ee4a 4e3e
000002f0: 4cd8 763d c883 0d3e 5b2d 98bc 6616 c2bb
00000300: 4cc1 503e d68d d3bd 958a 47be 8812 f4bd
00000310: 4593 013c f044 d73e 01c8 c9bd 10b7 31bc
00000320: 54ba 2fbd 754c 40bd 127f 1d3e ad05 113a
00000330: fcc8 aa3d 00ba d03b 3ca4 31bd c2ba 0c3f
00000340: 708b 43bd 58e5 c2be 2a8b f3bd eced 11be
00000350: d3b7 31be c2fc 11be 2e2b 463e d2d7 3e3e
00000360: 20c4 0b3d 2f6e d5bd 850d 253e 61b6 4dbe
00000370: 07dc 2abe b347 37be 3017 1ebe ba7a 1cbb
00000380: 49f5 923d 3e4a d63c b793 3bbb 36f0 0abc
00000390: 6b06 2b3e 2069 1dbe 4e0b c3bd 7a88 18be
000003a0: 80e6 4dbe 866b 43be 19f9 4ebe 3c41 17bd
000003b0: d0e7 eabd 25d2 8c3c 8775 d93c 462f 56be
000003c0: 9ab0 313e ccd7 cd3d b207 663e 48e6 4d3e
000003d0: 3a80 debd 46e9 18be 8d18 7ebd f684 12be
000003e0: 9e3f 073e d5b4 c8bd 28eb 473d 761b 86bd
000003f0: c869 04bd decb 3a3d 01ff 8dbd 4182 00be
-0.17871621 -0.20457478 -0.17324302 0.08445858 -0.1510264 0.09010539 0.072273105 0.13662031
0.081179686 -0.007925901 0.1639192 0.03523945 0.09923955 -0.002785034 -0.14101315 -0.084954485
0.03245467 -0.12670313 0.018290902 0.076201856 0.021902267 0.17302541 -0.0779575 -0.17370671
0.03158179 0.05112472 0.022811443 0.1640996 0.08980843 -0.06254317 -0.07827999 -0.04340908
0.011591122 -0.14862493 0.07777703 0.19533888 -0.044393808 0.057817154 0.044218272 -0.056252666
-0.028324725 -0.08789574 -0.07624285 0.023092855 -0.059600286 -0.1333156 -0.12740244 0.016975066
-0.13637157 -0.19846249 -0.02093315 -0.060173538 -0.003276996 -0.024270987 0.0035663054 0.10132566
-0.042313844 0.015299336 0.027608836 -0.1351594 0.13848211 -0.02879225 -0.06849133 0.013365241
0.01696964 0.019247359 -0.10821082 0.18434164 -0.0043359585 -0.1899364 -0.055968 -0.07012303
-0.07040527 -0.018287105 0.05828823 0.18922295 -0.14138834 -0.07826503 -0.01451602 -0.13420607
0.008473737 0.0063921944 0.098619245 -0.050757896 0.05068064 -0.18549311 -0.16917758 -0.11221575
0.03786678 -0.15380587 -0.03776666 -0.19498284 -0.10396689 0.047106937 0.05880845 0.08258165
0.04770033 0.11569855 -0.20230451 0.049212027 -0.0017329399 -0.10701204 -0.0597347 0.12848519
-0.020148149 0.09015129 0.07301502 -0.09483218 0.07376704 0.05745808 0.17213532 -0.043864485
-0.129835 0.06941811 0.1927046 -0.16885431 -0.069116235 0.00022067134 0.015206712 -0.05805509
-0.02702642 0.16625062 0.10352073 0.1398668 0.18387912 -0.28633493 0.24659501 0.0949417
0.09449118 -0.19112092 -0.0070694513 -0.04715777 -0.09365159 -0.10517722 0.065295644 -0.12631345
-0.031756066 -0.18689765 -0.09322145 -0.16813415 0.14427549 0.14566247 -0.2027852 -0.31142005
0.042945273 -0.1479649 -0.2056501 -0.017238561 -0.17718576 -0.21355453 -0.027135162 -0.1272618
0.16950876 0.18158872 0.10659756 0.027969863 0.18885991 0.023686333 0.110502735 0.026219882
0.018201565 -0.16658866 0.10819639 0.1548655 0.07757248 0.1760885 -0.11604983 0.09256801
0.029041033 0.12745237 -0.050522912 0.08737715 0.025659794 -0.19599473 -0.2409716 -0.04551744
0.05106127 -0.020883434 0.1312668 0.098829664 0.03413803 -0.06309201 -0.041595794 0.1318145
-0.07224033 -0.10971984 -0.11427963 0.20145771 0.06026487 0.13819802 -0.018576315 -0.0059230803
0.20386237 -0.103297874 -0.19486459 -0.11917597 0.007908647 0.42044783 -0.09852601 -0.010846868
-0.042902306 -0.046947915 0.15380505 0.0005532157 0.08339116 0.006369829 -0.043369517 0.5497247
-0.0477404 -0.380656 -0.11891778 -0.14250916 -0.1735528 -0.14256576 0.19352409 0.18637016
0.034122586 -0.104214065 0.16118439 -0.20089103 -0.16685496 -0.17898445 -0.15438533 -0.0023876862
0.07175691 0.026158448 -0.002862198 -0.008480122 0.16701667 -0.15372133 -0.095236406 -0.14895812
-0.2010746 -0.19083986 -0.2021221 -0.036927447 -0.11469996 0.017190048 0.0265453 -0.20916471
0.17352524 0.100509256 0.22463873 0.20107377 -0.10864301 -0.14932737 -0.062035132 -0.14308533
0.13207862 -0.09800116 0.048808247 -0.065482065 -0.032327443 0.04560458 -0.06933404 -0.12549688

fc2.bias f4 [588]
00000000: 5f5b 0e3e 7c7f f6bd 10a7 9cbe 3a06 14bd
00000010: 4ee7 95bd 90ab 3d3e d458 073e 5300 4a3e
00000020: 43ba 8abf c58d 603d 272d 3abf f6a6 84bf
00000030: e572 463d 1c89 60be 7c36 ddbd 71bc d0be
00000040: 2ddc ecbc 4727 213f 2aac 09bd 90ea 633d
00000050: 0fd2 963d 258f cabd b251 72bd 959f b93e
00000060: e8d1 e6bf 09b3 9cbd 7380 913e 5fbf a03f
00000070: 6acb ddbd 13d9 413f 7152 69be f10c cf3f
00000080: f214 02bf 2581 79bf e86b 263d a42b 0dbe
00000090: fa55 0ebf 0ecf 653e 1421 b9be 63da 613a
000000a0: 839f 1ebd 3616 913d 9005 b73c dbff 8cbf
000000b0: eefd 223e 05c5 d3bf d724 e23d e271 e93e
000000c0: 75db 45be 2512 893d 5d7e c93c 451f 72be
000000d0: 0d81 f9be 5570 ccbf 5e35 05bf e81b 1c3e
000000e0: 4b50 e5bd a327 d63d 63f8 113e db37 b33f
000000f0: f5a1 a43f 4919 303f 0231 b4bd f5ce 513e
00000100: 258f 9ebf ee09 09bf 39a4 933f 429b 2b3f
00000110: 9161 413e 2c30 d9bf 8f49 80be 6606 52bf
00000120: b645 fe3e 2070 abbd cc93 f0bd e990 ee3e
00000130: 0efc 12bf cedc dc3d 7064 803d db91 a3bf
00000140: 4e5c 1bbf cd91 423e 0fca 423e ff84 1d3e
00000150: a3a5 ca3d 4b97 053f 11df 8bbe 1c09 26bf
00000160: 107f de3f 0bb3 01be 3109 e0bd e687 323e
00000170: cc6b 743d 13e1 6ebf 75db f1bf b2cd 76bf
00000180: 2b80 273e 1828 573f 866c bd3b a5c8 113e
00000190: 22ce 61bd 37e6 2fbf f6d4 9b3e cd43 64be
000001a0: a162 9e3e 1a21 b33f 9ae6 d6be 4df5 4bbe
000001b0: b66e 47bf 84b3 b33c 6c1f e4bf e35e 10be
000001c0: 16d0 e93c b8d9 69bf 2996 033f c136 0d3f
000001d0: bdaf 53bf b689 29bf 1656 373e 4f31 fabb
000001e0: 8597 4ebe 30ae 553e daec 863e 1afb 2e3f
000001f0: 5a51 4bbe cfc8 07c0 4086 9d3e 76af 583d
00000200: 0008 babe 7517 05bf f591 d0bf 9b29 7ebf
00000210: f58f 773f 4c0c 7ebe 4a8e c0bf bbc0 a4be
00000220: 0b71 743f 566c 2b3e 1508 af3f 79c4 993d
00000230: 6d26 c9bd be46 20be e188 dfbd 75db 663f
00000240: b86c a63f 48d8 5fbe 2759 243e 37bf c13d
00000250: 3f28 3bbd e209 3a3e b244 7ebd 3916 1abe
00000260: da5b 283f e1f1 00bc d218 45be 292f 3c3e
00000270: df41 033e 99e2 913f 9915 923f eb3f b73d
00000280: 3550 a03d e089 7cbd 335a 08bf 3325 25bf
00000290: 2eee 283e e41d 72bd 53bb 923d 0044 36be
000002a0: 0c9f 783e fa95 35bc b32f 593f cb40 c0bd
000002b0: 4516 473f 69b8 e1be 3d18 a1bf 0eb0 c63d
000002c0: 9083 ab3d 1714 3ebf ea53 783f ce03 d0bd
000002d0: 7fbf a83f ce7d 283d 742d 003e 14df 5cbd
000002e0: 67af c7bd 14a0 7d3f 9543 563e 9624 8ebd
000002f0: 8fa2 05bf 8816 cb3d b718 823f 07f0 3f3f
00000300: 1a0b 353f 85e3 2a3e 8509 103d 1c09 4a3e
00000310: 2346 52be 8f93 5fbe 1450 72bd 2a25 14bd
00000320: f254 38bf 2c5f 41be 6ce4 20be cabb dcbd
00000330: 2d45 34bf b3ad d4bf caa4 fbbd 3014 dabe
00000340: 6bf9 98bf 823d 183e 444d 3cbf c619 933d
00000350: de08 823d 6e14 33bf 52dd 033d 0fa0 653e
00000360: 4824 9b3d b233 943c 6d1a 5dbf 5b77 553e
00000370: 8645 8f3e 1a0d 1d3e 0c0c fbbe 191f a63c
00000380: b028 72bd 54c5 cb3e 4c95 62bd 37e6 78bf
00000390: 1de7 823f c43f b8bf e86e d4bd d235 3d3c
000003a0: ff77 5bbf 6abb 81bf 033a 48be ce75 043c
000003b0: 3378 62bf 1880 253e a8ce 3dbd 3175 3e3d
000003c0: 4d77 95bf 135a 893b 9513 333d e5ba f23d
000003d0: 2cfb a93e 3675 9b3c 6faa cb3d 1c58 0f3e
000003e0: 7075 3cbf c5bf 19be d672 44be 5158 373e
000003f0: ffba 37bd 706e 863d abf1 b23f 263f 263f
0.13902043 -0.120360345 -0.3059621 -0.03613875 -0.073195085 0.18522477 0.13217479 0.19726686
-1.0838093 0.054822702 -0.72725147 -1.0363452 0.048449416 -0.21927303 -0.10801408 -0.4076877
-0.028913582 0.6295056 -0.033611454 0.055643618 0.07364284 -0.09890584 -0.059159942 0.36254564
-1.8032808 -0.07651336 0.2841831 1.2558402 -0.10829814 0.75721854 -0.22785355 1.6175824
-0.5081321 -0.97462684 0.04063025 -0.13786179 -0.5559994 0.22442266 -0.3615805 0.0008615611
-0.03872634 0.070843145 0.02234152 -1.1015581 0.15917179 -1.65445 0.11042183 0.45594698
-0.19321997 0.06692914 0.024596388 -0.23644741 -0.4873127 -1.5971781 -0.52034557 0.1524502
-0.11196955 0.10456779 0.14254908 1.4001421 1.2861925 0.6878858 -0.0879841 0.20489104
-1.2387434 -0.53530777 1.1534492 0.6703378 0.18884875 -1.6967826 -0.2505612 -0.82041013
0.4966256 -0.083709955 -0.1174694 0.46594933 -0.57415855 0.10784303 0.06269157 -1.2778887
-0.6068772 0.19000931 0.19022392 0.15382765 0.09894874 0.5218398 -0.27318624 -0.6485765
1.7382526 -0.12665956 -0.10939253 0.17434654 0.059673116 -0.93312186 -1.8895098 -0.96407616
0.16357486 0.84045553 0.0057807593 0.14236696 -0.055128224 -0.68710655 0.30435914 -0.22291489
0.30934623 1.3994477 -0.4197281 -0.19917794 -0.77903306 0.021936186 -1.7822089 -0.14098696
0.028541606 -0.9134784 0.51401 0.5516167 -0.8269003 -0.66225755 0.17903933 -0.0076352726
-0.20174988 0.20867229 0.26352578 0.683519 -0.19855252 -2.1216314 0.30766487 0.052901708
-0.3633423 -0.5198892 -1.6294543 -0.99282235 0.96704036 -0.24809378 -1.5043423 -0.32178292
0.9548499 0.16740546 1.3674341 0.07508177 -0.09821782 -0.15651986 -0.109147795 0.90178615
1.3001928 -0.21859848 0.16049634 0.094602995 -0.04569268 0.18167832 -0.06207723 -0.1504754
0.65765154 -0.007870168 -0.1924775 0.18377365 0.12818097 1.1397277 1.1412841 0.08947738
0.07827798 -0.061654925 -0.53262633 -0.64509887 0.16497108 -0.059110537 0.071646355 -0.17799377
0.24279422 -0.0110831205 0.8483841 -0.09387358 0.77768356 -0.44086006 -1.2585522 0.097015485
0.08374703 -0.74249405 0.9700304 -0.10156976 1.318344 0.0411356 0.12517339 -0.05392368
-0.09750252 0.99072385 0.20924218 -0.06940572 -0.5220117 0.09916407 1.0163792 0.7497563
0.70720065 0.16688354 0.03516533 0.19730037 -0.20534568 -0.21833633 -0.0591584 -0.036168255
-0.72004616 -0.18883961 -0.15712136 -0.107780054 -0.70418054 -1.6615509 -0.122872904 -0.42593527
-1.1951116 0.14867213 -0.735554 0.0718265 0.063493475 -0.6995305 0.03219349 0.22424339
0.075752795 0.018091056 -0.8636845 0.20846312 0.2798273 0.15337029 -0.4903263 0.0202785
-0.059120834 0.39798987 -0.05531816 -0.9722628 1.022678 -1.439446 -0.10372716 0.011548476
-0.85729975 -1.0135319 -0.1955338 0.008084727 -0.8846466 0.16162145 -0.04633966 0.04649848
-1.1677033 0.004191646 0.043719847 0.118520536 0.3319944 0.018976789 0.09944617 0.13998455
-0.73616695 -0.1501456 -0.19184431 0.17904784 -0.044856068 0.06564033 1.3980001 0.64940107

deconv1.weight f4 [12, 32, 1, 1]
00000000: d686 c73d f97d 2e3d 24db 9a3d e140 ccbc
00000010: ad7d a8bd 6898 d0be 64ec b53d 9d21 5f3c
00000020: baee 2f3e efe4 c43e 43fc adbd 6384 96be
00000030: c0d9 c2bd 9e84 373d 0c09 e43d 499b 82bd
00000040: 673e d5bd 34c8 adbd b4f2 aabd c428 a9be
00000050: 5f52 e83d cf9f 633e c797 d53d 16f6 bb3d
00000060: 5956 40be bc58 d03a 1bed 323d fd90 c53d
00000070: d3e3 a5bd bccc 15bd 244e 93be a5ea aebe
00000080: 5345 d93d 42c0 9e3e c07f fd3d 427c 06b8
00000090: b55d 733d 5810 463e 3818 79be f6ea 1bbd
000000a0: 506d 47bd 18b8 0f3c 5564 7e3d 46b9 4ebc
000000b0: d70d 60bd b44e 1fbd 27b7 563e 9dc0 693e
000000c0: c2d0 9f3d e9fe 273e 5742 cc3b 9d0c 99bd
000000d0: 87b6 863e d861 463e c39b 17be 6899 aabe
000000e0: 9746 f0bd 94c4 a6be cd9f e33d 304b c03d
000000f0: b713 6a3e 3aa0 f1bd 40e1 59bc 2d67 273d
00000100: b819 003e 3fa0 c03d fc03 383d 02b7 89bc
00000110: 391b 9cbe 4b99 12bd 2f8d 873c 90fe ad3c
00000120: b388 8fbd c06c 563d fab2 a53e 5920 243e
00000130: af35 4b3e b30b 2e3e 86b8 68bd eb17 c6bd
00000140: 8247 2ebe 756c 91be b682 693e 747c 7dbe
00000150: c44b 40bd 8119 a5be 50f3 563d 16a1 a63e
00000160: f7e1 d9bd 851d d93e c5d9 01be 4cd4 b13d
00000170: 5fa3 01be 2c1c 983e d489 df3b 8987 5c3e
00000180: 283a 4cbe 52a9 30be b2d3 ccbd 9d5f 7e3e
00000190: f642 40be 9440 05be 2947 acbe 44f7 fbbe
000001a0: 45fd a2be c963 b4be 4be6 e43c 3dd8 25bd
000001b0: 111a 71be 7374 6fbe 90c5 84be b414 903e
000001c0: 4fe0 513e 80d2 75be 9c30 8a3d 24b3 95be
000001d0: 304f acbe 80c3 5f3c 7691 e93c 3353 d03c
000001e0: ca1e fe3d 626a 86be 183a 3cbe 3c10 05bd
000001f0: c782 543d c02c bcbe d62b 0dbe 86e9 88be
00000200: 7490 4abd da3b 6fbe b4e6 f23e a31e acbd
00000210: 6272 163e d36f 583e 72ab ae3e 5245 103e
00000220: 0253 06bb 57c1 753e 8cdc 88bd b6f5 de3d
00000230: c1df 5d3e 3867 e43d 5595 fa3d 3b96 20bd
00000240: c253 cbbd ef0e efbd 0ae7 d63d 4cc2 843e
00000250: d781 253e 94fa 13be f1e4 133e d63e a6bd
00000260: 95df ec3d 27f4 d63d 1ec7 873e 01c3 85bd
00000270: fea0 9bbd 64b6 1e3e ce63 773e ace8 a33d
00000280: 00a4 45bd ee40 99bc 9cce 91bd a08c 723d
00000290: 66e7 d4bc 830d 883e a415 6f3e 3d44 af3e
000002a0: 79f3 ff3d acc0 86be 736a 89bd 6546 90be
000002b0: 8d60 10be e7b7 9e3e 1c2c 293e 9110 a7bc
000002c0: d7dc 623c bbe8 463d fcc3 04ba 5034 2e3e
000002d0: a1d8 80be afc6 9cbe f1b5 dc3c 1d09 d8bd
000002e0: 4677 ec3d 9622 373c a602 c63d 087e dcbd
000002f0: d4a7 953d ba38 553e ad49 5b3d f7d0 383e
00000300: d93a 59bd 9219 febd 7ea6 a4bd bc36 333c
00000310: ff01 87bd 5b10 2d3e 50ee 273d 0f23 033e
00000320: 4640 3a3e 8283 30be 57ff 65be 0afd 343e
00000330: d3b9 0d3e f91d b93d 2fb3 aebd b41c 833d
00000340: 2cb5 243e 9cb9 543c ae53 5e3e 0114 433e
00000350: 453b 6ebd 2d6d 1abd 46b6 863e 11e7 fcbd
00000360: 9299 853e adc7 1dbd 3d77 eabc 1e6b 543e
00000370: adf3 393d 7a1f 203e 26eb 6f3e 548b 0abd
00000380: c1da 62bd ddec a2bd 8252 02bf bccf 77bd
00000390: 70e6 d03b 74df c1bd 738d 3a3d 7b4d 44be
000003a0: e532 923d 8586 eebd 90ee d2b9 4393 59bd
000003b0: db9f 553e 47ef 44bd b9e9 183e 734a 103e
000003c0: 9047 523e 4cca 383d ac4f cebe 6742 8c3e
000003d0: 59d9 453d 64d6 873c 1af6 6a3e ec02 0dbe
000003e0: 677a 8cbc a75a c4bc a047 633e 6b31 6fbe
000003f0: 94bb f3bd acb1 93bb bd4f 983d 7c37 943d
0.09742515 0.042600606 0.07561329 -0.02493328 -0.08227096 -0.40741277 0.088829786 0.013618854
0.1718091 0.38455912 -0.08495381 -0.29397878 -0.09514189 0.044804208 0.11134538 -0.063772745
-0.10412293 -0.08485451 -0.08347073 -0.33038914 0.11343836 0.22228931 0.1042934 0.091777965
-0.18782939 0.0015895586 0.043683153 0.09646795 -0.08100095 -0.036572203 -0.28770554 -0.34163395
0.10608926 0.31006056 0.12377882 -3.2063814e-05 0.059415538 0.19342172 -0.24325645 -0.038065873
-0.048688233 0.008771919 0.062107403 -0.012617415 -0.0547007 -0.038893417 0.20968305 0.22827382
0.07803489 0.16405834 0.0062334943 -0.07473109 0.26311132 0.19373262 -0.14805512 -0.33320165
-0.11732214 -0.32571852 0.11114464 0.09389341 0.22859083 -0.11798139 -0.013298333 0.04086988
0.12509811 0.094055645 0.044925675 -0.016810898 -0.3048952 -0.035790723 0.016546814 0.021239549
-0.07008495 0.052349806 0.3236311 0.16027965 0.19844697 0.1699665 -0.0568166 -0.09672531
-0.17019466 -0.2840306 0.22803769 -0.24754506 -0.046947256 -0.3224602 0.052478135 0.32544774
-0.106388025 0.42405334 -0.12680729 0.086830705 -0.12659977 0.29708993 0.0068218503 0.21536078
-0.1994406 -0.1725209 -0.10001315 0.24841161 -0.18775544 -0.13012916 -0.3364804 -0.49212086
-0.31833854 -0.3523238 0.027941843 -0.040489424 -0.235451 -0.23384266 -0.25931978 0.28140795
0.20495723 -0.2400608 0.06747553 -0.29238236 -0.33654165 0.013657451 0.028511744 0.025430297
0.12408216 -0.2625304 -0.18381536 -0.032486185 0.05188253 -0.36752892 -0.13786253 -0.26740664
-0.049454167 -0.23362675 0.47441638 -0.08404281 0.14692071 0.21136408 0.34115177 0.14088944
-0.0020496254 0.23999535 -0.06682691 0.108867094 0.21667387 0.111525 0.12235514 -0.03920577
-0.09928085 -0.1167277 0.10493286 0.25929487 0.16162811 -0.14451057 0.14442803 -0.08117454
0.115660824 0.10495787 0.26519102 -0.06531335 -0.07599066 0.15499264 0.24159166 0.08003363
-0.048252106 -0.018707719 -0.07119486 0.05921614 -0.025989246 0.2657281 0.23348099 0.3423175
0.124976106 -0.26318872 -0.06709757 -0.28178707 -0.14099331 0.3099968 0.16520733 -0.020393642
0.013846598 0.048561793 -0.00050646043 0.17012143 -0.25165275 -0.30620334 0.026942225 -0.10548613
0.11546187 0.0111776795 0.09668474 -0.10766226 0.07307401 0.2082242 0.05353706 0.18048464
-0.053034637 -0.12407221 -0.08039568 0.010938343 -0.065921776 0.1690077 0.040998757 0.12806343
0.18188581 -0.17237666 -0.22460686 0.17674652 0.13840418 0.0903892 -0.0853027 0.06401959
0.16084737 0.012983706 0.21711609 0.190506 -0.058161993 -0.037701774 0.2631094 -0.1234876
0.26093727 -0.038520504 -0.02862131 0.20743987 0.045398403 0.15637007 0.23429546 -0.03382428
-0.0553844 -0.07955334 -0.50907147 -0.060500845 0.0063751265 -0.094664484 0.045545053 -0.19170181
0.071386136 -0.11646751 -0.00040232064 -0.053118955 0.20861761 -0.048079755 0.14932908 0.140909
0.20535111 0.0451148 -0.4029516 0.2739441 0.048302982 0.016581722 0.22945443 -0.13770646
-0.01714821 -0.023969008 0.22195292 -0.23358695 -0.11901012 -0.004507264 0.07437084 0.07237145

deconv1.bias f4 [32]
00000000: f162 f83c 8298 0dbe dcf7 013d 834c 983e
00000010: d020 95bd e491 a8bd 0f98 a2be 741f eabd
00000020: 8998 00bd f427 0abf 2759 d03d bb33 04be
00000030: 04f6 23be 94f0 513d 08c0 dcbe 29ad 0cbf
00000040: d648 b73e 97a5 123e 8dec c4bc baf1 ebbe
00000050: 65b5 37be 980e 743e d8f4 5f3e 1f9e c83e
00000060: 51fd eb3d b247 97bd fb20 61bd 87ac c3bd
00000070: c426 0fbe 584b 95be 5dc3 84be b07e 89be
0.030320616 -0.13827708 0.031730518 0.29745874 -0.07281649 -0.082309514 -0.31756637 -0.114317805
-0.03139547 -0.53967214 0.101732545 -0.12910359 -0.16011816 0.051254824 -0.43115258 -0.5495172
0.35797757 0.1432098 -0.024038577 -0.4608286 -0.1794029 0.23833692 0.21870744 0.39183137
0.11522926 -0.07386722 -0.054963093 -0.09554391 -0.13979632 -0.29159045 -0.259303 -0.26854467
