Pytorch/AutoEncoder/saved_models/mnist/NetSmall-L1Loss_mnist.pt (torch, 130543 bytes, 15 tensors)

conv1.weight f4 [6, 1, 3, 3]
0	0x3e881f1f	0.26586244
1	0x3e860007	0.26171896
2	0x3ef6f65e	0.48234838
3	0x3e9278d7	0.28607818
4	0x3e48c97e	0.19608113
5	0x3e9058f4	0.28192866
6	0x3bfba0cd	0.007679081
7	0xbd6e826d	-0.058229852
8	0x3e4caa6c	0.19986886
9	0x3e518544	0.20460993
10	0x3e3b954f	0.18318675
11	0x3ec58953	0.38581333
12	0x3df9b0e5	0.12191943
13	0x3dcaae0d	0.09896479
14	0xbc607d4a	-0.013701746
15	0xbebf3f92	-0.37353188
16	0xbeb3560e	-0.35026592
17	0xbea9c7de	-0.331603
18	0xbcaa6767	-0.02080126
19	0xbe23d2e3	-0.15998416
20	0xbe1dfcfd	-0.15428539
21	0xbdf85a6e	-0.12126623
22	0xbe6aa644	-0.22914988
23	0xbd09b5af	-0.033620533
24	0xbeef7ba2	-0.46774012
25	0xbdd5e293	-0.10443606
26	0x3e6f7ae7	0.23386727
27	0x3ea92ec5	0.33043495
28	0x3c9dcb45	0.019261966
29	0x3c7ba44a	0.015358994
30	0x3ee91ce6	0.4552986
31	0xbcc67b95	-0.02422885
32	0xbd82ebcf	-0.06392633
33	0x3e0d5077	0.13800226
34	0x3d1382af	0.0360133
35	0xbdc0894a	-0.09401186
36	0x3cf77815	0.030208627
37	0x3d85983d	0.06523178
38	0xbe01bba3	-0.12669234
39	0x3baf6d0e	0.0053535765
40	0x3eb63860	0.35589886
41	0x3ba5028b	0.0050357035
42	0x3d2ab577	0.041676965
43	0x3f149e11	0.5805369
44	0x3e098219	0.13428535
45	0xbefcdf7a	-0.4938925
46	0x3e9955a7	0.2994816
47	0x3cd2c51f	0.02572876
48	0xbedd9fa8	-0.4328587
49	0xbf4c5dcf	-0.7983064
50	0xbe7626d0	-0.24038243
51	0x3e50da5f	0.20395802
52	0x3dcdb73c	0.10044715
53	0xbf0c4983	-0.5479967

conv1.bias f4 [6]
0	0x3ae13e3f	0.0017184688
1	0x3d99319f	0.074801676
2	0x3ebd686b	0.36993727
3	0x3da4bfc6	0.080443904
4	0x3df582d3	0.11987843
5	0x3ec9d755	0.39422098

conv2.weight f4 [12, 6, 3, 3]
0	0xbb327694	-0.0027231323
1	0xbe54ebe1	-0.20793106
2	0x3e95097a	0.29108793
3	0xbe451ec0	-0.19250011
4	0xbdf38f93	-0.11892619
5	0x3df3ed9e	0.11910556
6	0xbd6205fa	-0.05518148
7	0xbd95555d	-0.072916724
8	0xbdfecd30	-0.1244148
9	0x3e66a3ee	0.22523472
10	0x3e9b544c	0.3033775
11	0xbe041146	-0.12897214
12	0x3ecf509e	0.40491194
13	0x3d85615d	0.06512711
14	0xbe6cd9e6	-0.23129997
15	0xbd3b29c4	-0.045694128
16	0xbe22a15d	-0.15881868
17	0xbe46b95d	-0.19406648
18	0x3d4af02e	0.04954546
19	0x3dbeb460	0.093117476
20	0xbe1382cc	-0.14405364
21	0xbc8a6392	-0.016893182
22	0xbd132221	-0.03592122
23	0xbd8564da	-0.065133765
24	0xbd8f203b	-0.06988569
25	0x3e53fcda	0.20701924
26	0x3cc06e76	0.023490172
27	0xbd506192	-0.0508743
28	0x3e53779f	0.206511
29	0x3e078ff7	0.13238512
30	0xbe4fcbd1	-0.20292594
31	0x3d152832	0.036415286
32	0x3f0e4176	0.55568635
33	0xbeb7048f	-0.35745665
34	0x3effa13f	0.49927709
35	0x3eb4b593	0.3529478
36	0x3d40bfbe	0.04705786
37	0x3d8325ca	0.06403692
38	0x3e452a8b	0.1925451
39	0xbe862063	-0.26196584
40	0x3e63e995	0.22257073
41	0x3e1ecce3	0.15507846
42	0xbd961d3a	-0.07329793
43	0x3ceddab0	0.029034942
44	0x3bfe0663	0.007752226
45	0x3ced1bbc	0.028943889
46	0x3dafdc75	0.08586971
47	0xbe7ca115	-0.24670823
48	0x3da7a6bd	0.081861
49	0xbe76289c	-0.24038929
50	0xbf14b817	-0.580934
51	0xbe2e135e	-0.16999575
52	0xbf176de2	-0.5915204
53	0xbee99263	-0.45619497
54	0xbc03f0d8	-0.008053027
55	0x3e015925	0.12631662
56	0x3e7512e3	0.23932986
57	0x3eb0396d	0.34418812
58	0x3e480670	0.19533706
59	0x3ece5932	0.40302426
60	0xbc9b5d67	-0.018965436
61	0xbe6654d5	-0.22493298
62	0xbc9d06c2	-0.019168261
63	0x3ec9789a	0.39349824
64	0x3e6581a2	0.22412732
65	0x3e1ec52c	0.15504903
66	0x3ea08f95	0.31359544
67	0x3e4e4f52	0.20147446
68	0x3d5d387e	0.054008953
69	0x3f015199	0.50515133
70	0x3ec1529a	0.37758332
71	0x3c0c1c7c	0.008551713
72	0xbea456ec	-0.32097566
73	0xbdfc6c68	-0.12325364
74	0xbd12c4a2	-0.035832055
75	0xbec45852	-0.38348633
76	0xbe77ee7f	-0.24212073
77	0xbe5487aa	-0.20754877
78	0x3debf4ae	0.11521278
79	0xbcc407a0	-0.023929417
80	0xbe87f96f	-0.2655749
81	0xbdb761f5	-0.08954231
82	0x3c126e42	0.00893742
83	0xbdc277fa	-0.0949554
84	0x3d66549f	0.056233045
85	0xbd89cbc9	-0.06728322
86	0xbde9d616	-0.11417787
87	0xbea3f78c	-0.320248
88	0xbe013f10	-0.12621713
89	0x3e352e32	0.17693403
90	0x3dc3249b	0.09528466
91	0x3e702d4c	0.2345478
92	0x3e26a396	0.1627334
93	0xbd467c10	-0.04845816
94	0x3c92b9ad	0.017910803
95	0x3e8d0392	0.27541786
96	0xbe11c1d5	-0.14234097
97	0xbd4d8cbd	-0.050183047
98	0x3e86b791	0.26311925
99	0x3e39e9d1	0.181556
100	0x3d1401a4	0.036134377
101	0x3dabe090	0.08392441
102	0x3db680b5	0.08911268
103	0x3df43cf1	0.11925686
104	0x3dcdc21d	0.1004679
105	0x3dbc4903	0.091936134
106	0x3d9f41d0	0.077762246
107	0x3dce7694	0.10081211
108	0x3d4dcec6	0.050246023
109	0x3dcf4bc5	0.10121874
110	0x3cbe204a	0.023208756
111	0xbe4079c6	-0.18796453
112	0xbe912d4b	-0.28354868
113	0xbe1f4312	-0.15552929
114	0xbe0f8f34	-0.14019471
115	0xbe211ef8	-0.1573447
116	0x3e10deba	0.14147463
117	0x3e244aa5	0.160441
118	0xbc512604	-0.012765411
119	0x3e09c11e	0.13452575
120	0x3e5dec1f	0.21672104
121	0x3ec885a7	0.3916447
122	0x3d493df4	0.04913135
123	0xbe00a72b	-0.1256377
124	0xbd1c348f	-0.03813606
125	0xbdceefd1	-0.10104335
126	0x3e1eee7c	0.15520662
127	0x3e3ab4c4	0.18233019
128	0x3dac74c1	0.084207065
129	0x3e765d2e	0.24058983
130	0x3e8e088d	0.277409
131	0x3e310f0c	0.17290896
132	0x3e9d6522	0.3074122
133	0x3eb0265c	0.34404266
134	0x3de7ff4c	0.11327991
135	0x3d9e1361	0.0771854
136	0x3e14abe3	0.14518695
137	0x3c80a890	0.015705377
138	0x3d9aaf12	0.07552923
139	0x3cb8a0b8	0.022537574
140	0xbbf3fdd8	-0.007446032
141	0x3d52799f	0.05138552
142	0x3e56fda6	0.20995197
143	0xbd9655b2	-0.07340564
144	0x3d176a84	0.036966816
145	0xbde676a8	-0.11253101
146	0xbdfe3a51	-0.12413467
147	0xbc1e903c	-0.009677943
148	0x3d741882	0.059593685
149	0xbad4cb44	-0.0016234894
150	0x3e40c914	0.18826705
151	0x3e5b8b58	0.21439874
152	0x3e049fd1	0.1295159
153	0xbe3108c3	-0.17288499
154	0x3da2b646	0.07944922
155	0xbd92c6b1	-0.07166804
156	0x3e1474b0	0.14497638
157	0x3ddd70e0	0.10812545
158	0x3d9b53c1	0.07584334
159	0xbd364813	-0.04450233
160	0x3deb1fc0	0.11480665
161	0x3e47bc6b	0.1950547
162	0x3e4cf13a	0.20013896
163	0x3dcf2219	0.101139255
164	0x3ecea45b	0.40359768
165	0x3e5a14ec	0.21297044
166	0x3de08d86	0.109644935
167	0x3eaf5cbc	0.34250438
168	0xbd23d007	-0.039993312
169	0x3e3f9515	0.18709214
170	0x3df04a5a	0.117329314
171	0x3d567f85	0.052367706
172	0x3d4a913a	0.049454905
173	0xbdd7d42d	-0.10538516
174	0xbd652186	-0.055940174
175	0xbd720493	-0.059086394
176	0xbd9e036a	-0.07715495
177	0xbe36af97	-0.1784042
178	0xbe035e25	-0.12828882
179	0x3c6ec43b	0.014573152
180	0xbe982fbf	-0.29723927
181	0xbeed0d97	-0.4629943
182	0xbdc4b2e4	-0.09604433
183	0xbe0b976a	-0.13631979
184	0xbd864dae	-0.06557785
185	0x3e203ce8	0.15648234
186	0xbce0debd	-0.02744996
187	0x3e321c37	0.17393576
188	0xbc31dea6	-0.010856306
189	0x3e377d11	0.17918803
190	0x3a830084	0.000999466
191	0xbe2875ac	-0.16451138
192	0x3e2def6a	0.1698586
193	0xbce6fccd	-0.028196717
194	0x3cce84b5	0.025209764
195	0xbdbb4e9e	-0.091458544
196	0x3d921483	0.071328185
197	0xbe1e4648	-0.15456498
198	0x3e92b9fb	0.28657517
199	0x3d41fc3b	0.047359686
200	0x3e1f1d07	0.15538417
201	0xbd227ed7	-0.039671745
202	0xbc8ef8c7	-0.01745261
203	0x3de340f7	0.110963754
204	0xbe15915a	-0.14606228
205	0xbe0bcb0e	-0.13651678
206	0xbe1785ee	-0.14797184
207	0xbd9223c1	-0.07135726
208	0xbe1e5ef9	-0.15465917
209	0xbe6e63dd	-0.23280282
210	0xbe83a0c5	-0.25708595
211	0xbea8b0a6	-0.32947272
212	0xbe0a1925	-0.13486154
213	0xbe9215d8	-0.2853229
214	0xbea26b9d	-0.31722727
215	0xbe82565d	-0.25456515
216	0x3cfd052d	0.030886257
217	0x3e427776	0.18990883
218	0x3e42ea71	0.19034745
219	0x3e6342e2	0.22193483
220	0x3dc68581	0.096934326
221	0x3db646d2	0.08900227
222	0x3dbe6ba5	0.09297875
223	0xbda5735c	-0.08078644
224	0x3da281d0	0.07934916
225	0x3d56983f	0.052391287
226	0xbebe3e8e	-0.371571
227	0xbda6ddfa	-0.081478074
228	0xbe8a5088	-0.27014565
229	0xbea18204	-0.31544507
230	0xbe8cb9e7	-0.27485582
231	0xbe14cb70	-0.1453073
232	0xbe86623c	-0.26246822
233	0xbe2c7dc5	-0.16844852
234	0xbe8cb904	-0.27484906
235	0x3ce5e4dc	0.02806323
236	0xbd98def8	-0.07464403
237	0xbde6ab73	-0.1126317
238	0xbe06c3bd	-0.13160606
239	0xbe5d4e1f	-0.21611832
240	0xbe016a71	-0.1263826
241	0xbe034d9f	-0.12822579
242	0xbd107812	-0.035270758
243	0xbe7036b7	-0.23458372
244	0x3d8a6c1c	0.067589015
245	0x3da23eb2	0.079221144
246	0xbe527262	-0.20551446
247	0x3db971ff	0.09054946
248	0x3c8e8ab1	0.017400118
249	0xbe06b7ad	-0.13156004
250	0x3c9dab34	0.019246675
251	0x3d4a5d8d	0.049405623
252	0x3de06b39	0.10957951
253	0x3e36f13e	0.17865464
254	0x3dabd32f	0.083898894
255	0x3e345498	0.17610395

conv2.bias f4 [12]
0	0x3e2670ad	0.1625392
1	0x3e77414d	0.24146004
2	0x3d2a75f8	0.04161641
3	0xbdfc031f	-0.12305283
4	0x3de05053	0.10952821
5	0x3e14dbda	0.14536992
6	0x3c368ded	0.011142236
7	0x3e9a76a7	0.3016865
8	0x3c4ac3ba	0.012375766
9	0x3dedc942	0.116106525
10	0x3ec3d937	0.3825166
11	0x3e9c1ef7	0.30492374

conv3.weight f4 [12, 12, 3, 3]
0	0xbbfc240b	-0.0076947263
1	0x3d1b3c4d	0.037899304
2	0x3ccc5a52	0.024945412
3	0xbebf97f1	-0.3742061
4	0x3d48a2b5	0.048983295
5	0xbd6662af	-0.056246456
6	0x3e7c9c64	0.24669033
7	0x3de86dd3	0.11349072
8	0x3e0f287f	0.13980292
9	0xbc421bd7	-0.011847458
10	0xba4a0553	-0.0007706482
11	0x3d0050b9	0.031326983
12	0x3e8bc27d	0.2729682
13	0x3df511aa	0.1196626
14	0xbdc5e44e	-0.09662686
15	0xbdfebf47	-0.12438827
16	0xbdf49863	-0.11943128
17	0xb9d6306c	-0.00040853338
18	0x3cdc44ee	0.026888337
19	0xbb248870	-0.0025105737
20	0xba314503	-0.00067622977
21	0xbe60eabc	-0.21964544
22	0xbd610604	-0.054937378
23	0x3d83854c	0.06421909
24	0x3d8efafb	0.069814645
25	0xbb78c2e1	-0.0037957954
26	0xbe26058e	-0.16213056
27	0x3d314c12	0.043285437
28	0x3e0f29b9	0.1398076
29	0x3e03e9cc	0.12882155
30	0x3dc00001	0.09375001
31	0xbe48c1f0	-0.19605231
32	0x3d6be0ae	0.057587318
33	0x3e1c7291	0.15278079
34	0x3ddbb0f0	0.107271075
35	0x3dd43d3d	0.10363243
36	0x3d4acc5b	0.049511295
37	0x3db9991a	0.09062405
38	0x3d4fabb5	0.050700862
39	0x3cc19696	0.023631375
40	0x3e03cb88	0.1287061
41	0xbc3f8e3a	-0.011691624
42	0xbe85730a	-0.2606433
43	0xbd34b7bc	-0.044120535
44	0x3e6bf16a	0.23041311
45	0xbd92ebbc	-0.07173869
46	0xbd86205e	-0.06549142
47	0xbd0c7127	-0.034287598
48	0xbdfc1224	-0.123081475
49	0xbc91e41c	-0.017808966
50	0x3d80aac8	0.06282574
51	0x3cfcfaa4	0.030881234
52	0x3dde15f9	0.10844035
53	0xbbd42dd5	-0.00647519
54	0xbdf150ea	-0.11783011
55	0x3d1c9d22	0.03823579
56	0xbdd1b295	-0.1023914
57	0xbe85089f	-0.2598314
58	0xbd619b4c	-0.055079743
59	0xbe00116b	-0.12506644
60	0x3e13f839	0.14450158
61	0x3d424525	0.047429223
62	0xbe111205	-0.1416703
63	0x3db839da	0.08995409
64	0xbd83137b	-0.064002
65	0x3dbf0b19	0.093282886
66	0xbe164715	-0.14675553
67	0x3d88b492	0.06675066
68	0xbdf527c7	-0.119704776
69	0x3e323da8	0.17406332
70	0xbdeb0451	-0.11475433
71	0xbdc8121f	-0.09769081
72	0x3d2bba93	0.041925978
73	0xbc5247a3	-0.012834462
74	0x3d05e939	0.03269312
75	0x3c6e6e7d	0.01455271
76	0x3cf73f3d	0.030181522
77	0xbd41bdcc	-0.047300145
78	0xbea2f6a5	-0.318288
79	0xbe53cbea	-0.20683256
80	0xbd558c4a	-0.052135743
81	0x3d2c3a62	0.042047866
82	0x3cbce670	0.0230591
83	0x3e81a6c1	0.25322536
84	0x3dbf53d7	0.09342163
85	0x3dee2f52	0.116301194
86	0xbd8457ec	-0.06462082
87	0x3d9c7474	0.07639399
88	0x3d8921e0	0.06695914
89	0x3d0d4b85	0.03449585
90	0xbe32f915	-0.1747783
91	0xbd5f5c67	-0.05453148
92	0xbdc2dd45	-0.0951486
93	0x3d03656a	0.032079138
94	0xbe2244d3	-0.15846567
95	0x3dd22c58	0.10262364
96	0xbd833966	-0.06407432
97	0x3d6bb14c	0.05754213
98	0x3e3367c3	0.1752005
99	0x3d9c4484	0.07630256
100	0xbdd52a1f	-0.104084246
101	0x3d46080e	0.048347525
102	0x3e34189d	0.17587514
103	0x3df138a0	0.117783785
104	0x3dc2052e	0.09473644
105	0xbea4c712	-0.3218313
106	0x3e2588c7	0.16165458
107	0xbd413603	-0.04717065
108	0x3d3dd439	0.04634497
109	0xbc2eda35	-0.010672142
110	0xbe2744f3	-0.16334896
111	0x3e54eb47	0.20792876
112	0x3b1c7a7e	0.0023876722
113	0xbe55ce81	-0.20879556
114	0xbb285630	-0.0025686137
115	0x3e6dc9e3	0.23221545
116	0xbbbad719	-0.005701911
117	0x3c219402	0.009861948
118	0xbda21cb1	-0.07915629
119	0x3cd750a4	0.02628357
120	0xbe0e5bcc	-0.13902205
121	0x3de27bee	0.11058794
122	0x3e52e630	0.20595622
123	0x3e00ca30	0.12577128
124	0xbd137c9f	-0.03600752
125	0xbe3f5e32	-0.18688276
126	0xbd978b32	-0.07399596
127	0xbe726b7a	-0.23673812
128	0x3dd8d0fe	0.10586737
129	0x3e003905	0.12521751
130	0xbd4561e9	-0.048189078
131	0xbd71b363	-0.059008967
132	0x3c46676c	0.012109619
133	0xbd7a86d4	-0.06116374
134	0x3d6ef4aa	0.0583388
135	0xbd86fc53	-0.06591096
136	0xbe1b5155	-0.15167744
137	0xbe3c9cd7	-0.18419205
138	0xbc1e6558	-0.009667717
139	0xbda097c5	-0.07841448
140	0x3de9a6a4	0.11408737
141	0xbe21801c	-0.15771526
142	0xbd9e92ac	-0.07742819
143	0x3c0bb246	0.00852639
144	0xbcfa1422	-0.030527178
145	0x3e548d08	0.20756924
146	0x3d1fae8e	0.038984828
147	0x3e3e56c6	0.18587789
148	0xbdf27908	-0.11839491
149	0xbdac7d4c	-0.08422336
150	0x3de6da03	0.11272051
151	0x3e807e90	0.2509656
152	0x3c50de26	0.012748277
153	0xbd4b1bbc	-0.049586996
154	0xbbbeaeca	-0.0058191763
155	0x3db0b99f	0.086291544
156	0xbe18b655	-0.14913304
157	0xbc4f63cd	-0.012658072
158	0xbdb75421	-0.08951593
159	0xbd2927f8	-0.041297883
160	0x3dbd82f4	0.09253493
161	0x3cd12201	0.02552891
162	0x3e0cffb7	0.13769422
163	0x3dff73ff	0.124732964
164	0x3adfb0f8	0.0017066291
165	0x3db93d2b	0.0904487
166	0xbd34f8b8	-0.04418251
167	0xbefbe77a	-0.4920004
168	0x3a82ba97	0.0009973821
169	0x3e045b75	0.12925513
170	0xbba22ad9	-0.0049489555
171	0x3c712e50	0.014720514
172	0x3c2de35b	0.010613288
173	0xbc73cadc	-0.014879908
174	0x3d985ab5	0.07439176
175	0xbd52b1d5	-0.051439125
176	0xbc2e79d9	-0.010649168
177	0xbdc23794	-0.09483257
178	0x3e5d1907	0.21591578
179	0xbe1bff27	-0.15234052
180	0x3dac55ea	0.08414824
181	0xbd4bead6	-0.049784504
182	0xbdcf0a12	-0.10109343
183	0xbe3149af	-0.17313264
184	0xbd733737	-0.05937883
185	0xbe22aaaa	-0.15885416
186	0x3d9f2c81	0.0777216
187	0x3e218113	0.15771894
188	0x3e06870c	0.13137454
189	0xbde3312c	-0.11093363
190	0x3ca6939b	0.020334056
191	0x3d915019	0.070953555
192	0x3db6e4cb	0.089303575
193	0xbe008a5d	-0.12552781
194	0xbdbd1ea4	-0.0923436
195	0x3dbeaceb	0.09310325
196	0x3e53bde0	0.206779
197	0x3d38afa7	0.04508939
198	0xbd4d12c8	-0.05006674
199	0x3e8b0158	0.27149463
200	0x3ea64b06	0.32479113
201	0x3e065e48	0.13121903
202	0x3de90a2e	0.11378895
203	0x3db09e06	0.086238906
204	0xbdbeb0f4	-0.09311095
205	0xbd8216a6	-0.06351976
206	0x3d57fca2	0.052731164
207	0x3d32d7bb	0.043662768
208	0x3de9ffc7	0.11425739
209	0xbdae4d54	-0.08510843
210	0x3ac04c83	0.001467124
211	0xbd24a12d	-0.04019277
212	0x3d7bc522	0.061467297
213	0x3d5c47e4	0.053779498
214	0xbcee104b	-0.029060503
215	0x3ca4288f	0.020038871
216	0xbe175b3f	-0.14780901
217	0x3e0fffd3	0.14062433
218	0x3e87e9e2	0.26545626
219	0x3d0cf52d	0.034413505
220	0xbe9cf516	-0.30655736
221	0x3d3fac59	0.046795223
222	0xbdd3b9b9	-0.10338158
223	0xbdfa3635	-0.122173704
224	0xbe6d8986	-0.23196992
225	0x3ea36b50	0.3191781
226	0x3d6d9ac8	0.05800894
227	0x3e18d849	0.14926256
228	0xbdb74f57	-0.0895068
229	0xbe519183	-0.20465665
230	0xbb3fc2da	-0.0029260428
231	0x3e1a3680	0.15059853
232	0x3ea16954	0.3152567
233	0x3e82851f	0.25492188
234	0xbbd79611	-0.0065791686
235	0x3e14eed1	0.14544226
236	0xbda64c99	-0.081200786
237	0xbdf5ca2a	-0.1200145
238	0x3b2a13f3	0.0025951832
239	0x3e065bba	0.13120928
240	0xbcb90c26	-0.0225888
241	0xbe0ecf49	-0.1394626
242	0x3e54e4c8	0.20790398
243	0x3da83cd7	0.08214729
244	0xbe73cd95	-0.23808892
245	0xbe94e923	-0.2908412
246	0xbd6adf00	-0.057341576
247	0x3e3ed0da	0.18634358
248	0xbe7a78bf	-0.24460123
249	0xbd39d37c	-0.045367703
250	0xbd72d926	-0.05928912
251	0x3dd8d8cd	0.105882265
252	0xbe301269	-0.17194523
253	0xbe3dbfcd	-0.18530197
254	0x3e927238	0.28602767
255	0x3e0491a2	0.1294618

conv3.bias f4 [12]
0	0x3de6c866	0.11268692
1	0x3d411b98	0.047145456
2	0x3e580e02	0.21099094
3	0x3e2da178	0.16956127
4	0x3e662171	0.22473694
5	0xbd612b81	-0.05497313
6	0x3e309ff1	0.17248513
7	0xbdd17f16	-0.10229318
8	0x3cb9f9de	0.022702154
9	0x3d591c21	0.05300534
10	0xbd747ce9	-0.059689436
11	0x3df60dbb	0.12014338

fc1.weight f4 [24, 588]
0	0xbf176775	-0.5914224
1	0xbe21ce41	-0.15801336
2	0xbd8d020b	-0.06885155
3	0x3e1c409e	0.15259025
4	0x3f7a71fe	0.9783019
5	0xbe70f86d	-0.23532267
6	0xbf3d5055	-0.739507
7	0xbeccc034	-0.3999039
8	0x3dec7863	0.115463994
9	0x3c2a31e7	0.010387874
10	0x3e80e3f1	0.25173905
11	0xbda79968	-0.08183557
12	0xbe20dd01	-0.15709306
13	0xbd48d7fe	-0.04903411
14	0xbef57954	-0.4794413
15	0x3ca3e279	0.020005452
16	0x3e1f10dd	0.15533777
17	0x3d115b99	0.035487745
18	0x3da18925	0.07887486
19	0x3f09b977	0.5379862
20	0xbd91bdf4	-0.07116309
21	0xbd1cd43a	-0.038288333
22	0x3afead45	0.00194303
23	0xbbbae989	-0.005704109
24	0x3d1ece2e	0.038770847
25	0x3d0292e9	0.031878386
26	0x3ce94aa1	0.028477969
27	0xbe1d10b8	-0.15338409
28	0xbdbd9534	-0.09256974
29	0xbc211828	-0.009832419
30	0xbc526853	-0.012842256
31	0xbc6910cd	-0.014225197
32	0x3ce5f466	0.02807064
33	0xbe92d2c7	-0.28676435
34	0x3e2b8278	0.16748989
35	0xbd2f66c7	-0.042822625
36	0xbd5806b1	-0.052740756
37	0xbd0364f4	-0.0320787
38	0xbcd02976	-0.025410395
39	0xbb913d00	-0.0044323206
40	0xbd5dbce7	-0.05413523
41	0xbd9540df	-0.07287764
42	0xbc555be1	-0.013022394
43	0xbdd14544	-0.102182895
44	0x3d6f219f	0.058381673
45	0x3d5f0835	0.054451186
46	0x3dbc4ce2	0.09194352
47	0xbdacc0eb	-0.08435234
48	0xbd792345	-0.06082465
49	0xbe92310d	-0.28553048
50	0xbd87c020	-0.06628442
51	0x3eb37eaf	0.3505759
52	0xbe4f4165	-0.2023979
53	0x3bae75b7	0.0053240913
54	0xbbe5b046	-0.007009539
55	0xbcd74c41	-0.026281478
56	0x3f66381a	0.89929354
57	0xbeeab26a	-0.45839244
58	0xbd289b95	-0.041164
59	0x3de745ff	0.112926476
60	0x3df5ca4f	0.12001478
61	0x3db18da5	0.08669595
62	0x3e96ecfa	0.29477674
63	0xbdcd82f6	-0.100347444
64	0x3c25563d	0.010091362
65	0x3d89e49c	0.06733057
66	0xbd32cd5e	-0.043652885
67	0x3e27d3b1	0.16389348
68	0xbd0bc5e0	-0.034124255
69	0xbd9de18a	-0.07709034
70	0xbd05c956	-0.032662712
71	0x3df20a75	0.11818401
72	0x3d4e7827	0.050407555
73	0x3d874ba3	0.066062234
74	0xbd9cc8c9	-0.07655484
75	0xbd52ad07	-0.051434543
76	0x3e42ed90	0.19035935
77	0x3d920377	0.07129567
78	0x3c4f075a	0.01263603
79	0xbd9cf447	-0.0766378
80	0x3da49cd3	0.08037724
81	0x3d84f5d7	0.06492203
82	0xbd5a0416	-0.053226553
83	0x3deb70e7	0.11496144
84	0xbdfa1b67	-0.12212258
85	0xbd2315f1	-0.039815847
86	0xbd753eaa	-0.059874214
87	0x3db7ba3d	0.08971069
88	0x3e4d928d	0.20075436
89	0x3dd740ee	0.10510431
90	0xbdb4ba05	-0.08824543
91	0xbe392e1c	-0.18083996
92	0x3cb1cc69	0.021703916
93	0x3c8c6c50	0.017141491
94	0x3e06b732	0.13155821
95	0x3e09ed80	0.13469505
96	0x3e2959ae	0.16538116
97	0xbddcc02e	-0.10778843
98	0x3dce3e0a	0.10070427
99	0x3e182fa4	0.14861923
100	0xbe4211f1	-0.18952157
101	0xbcbb35be	-0.022852775
102	0x3d0c8635	0.034307677
103	0xbd09843f	-0.033573385
104	0x3e123e6e	0.14281628
105	0x3cbf98b9	0.023388254
106	0xbe21588f	-0.15756439
107	0xbdbb9604	-0.091594726
108	0x3e5a206d	0.21301432
109	0x3e81bde0	0.25340176
110	0x3dd1ef3c	0.102507085
111	0x3eaf89cf	0.34284827
112	0xbd4141d3	-0.047181915
113	0x3d5066c9	0.050879274
114	0x3e2d9aec	0.1695363
115	0xbd4dbe03	-0.050230037
116	0x3cbcc9dd	0.023045475
117	0xbd29b31e	-0.041430585
118	0xbd978fec	-0.07400498
119	0x37ca4148	2.4110675e-05
120	0x3d5cd3e2	0.053913005
121	0x3d14e0b8	0.03634712
122	0xbe2436ce	-0.16036531
123	0x3e125363	0.14289622
124	0xbe95cba3	-0.29256925
125	0xbe89713c	-0.26844203
126	0xbcd5a6c6	-0.0260805
127	0x3da61131	0.08108748
128	0x3dc81717	0.09770029
129	0x3d5a91b5	0.053361613
130	0x3e171b04	0.147564
131	0xbe9fe37f	-0.31228253
132	0xbe46f2f3	-0.19428615
133	0x3d94104b	0.0722967
134	0x3d2f874c	0.04285364
135	0x3db11afd	0.08647726
136	0x3e245cc9	0.1605102
137	0xbe58e7fa	-0.21182242
138	0x3f4841b4	0.78225255
139	0xbe1f1083	-0.15533642
140	0xbb49ffe0	-0.003082268
141	0x3ac3ccb8	0.001493833
142	0x3d383184	0.044969097
143	0xbd099177	-0.03358599
144	0xbd7627e9	-0.060096655
145	0x3e4c9a44	0.19980723
146	0xbc141524	-0.009038243
147	0x3d9a26fd	0.07526968
148	0x3da8607c	0.08221528
149	0x3ec68970	0.38776731
150	0xbe4664ce	-0.19374391
151	0x3d1b5446	0.037922166
152	0x3dd526f0	0.10407817
153	0xbdce817b	-0.1008329
154	0xbdabe03c	-0.08392379
155	0x3d499c74	0.04922147
156	0xbd8b9d32	-0.06817092
157	0xbd21983e	-0.03945183
158	0x3ca6c98c	0.020359777
159	0x3e0e3e34	0.13890916
160	0xbe0bde7e	-0.13659093
161	0x3d9324fd	0.07184789
162	0x3e03f54a	0.12886539
163	0x3e40d13e	0.1882982
164	0x3da8fa42	0.08250858
165	0xbc927bb6	-0.017881256
166	0x3dbdb3d3	0.092628144
167	0x3ddb8a6e	0.10719763
168	0x3c482e09	0.012218007
169	0x3eadea3d	0.33967772
170	0xbbd6f411	-0.0065598567
171	0xbe12909e	-0.1431298
172	0x3e440214	0.19141418
173	0xbcc456b2	-0.02396712
174	0xbdea577e	-0.11442469
175	0x3d2ca289	0.042147193
176	0xbc894ef5	-0.016761282
177	0x3dd75421	0.10514093
178	0xbd4387c0	-0.047736883
179	0xbde6ed1c	-0.11275694
180	0xbca93a99	-0.020657824
181	0xbe17c241	-0.14820196
182	0x3c7a4e92	0.015277522
183	0x3caef94a	0.021359105
184	0x3da8685c	0.0822303
185	0x3e42fd8c	0.19042033
186	0x3c8d1e9d	0.017226512
187	0x3c7fc46a	0.015610794
188	0x3ea8f2f4	0.3299786
189	0x3dda6471	0.10663689
190	0x3e2f0360	0.17091131
191	0x3c4308d3	0.011903959
192	0xbf05e0b4	-0.52295995
193	0xbd4a2857	-0.049354877
194	0x3db543fb	0.08850857
195	0xbd3d8043	-0.046264898
196	0x3d2b120d	0.04176526
197	0x3d8259c0	0.06364775
198	0x3d45d1f4	0.04829593
199	0x3d6b273e	0.05741047
200	0x3daf036c	0.085455745
201	0x3bfc05eb	0.007691135
202	0x3d86b3b2	0.06577243
203	0x37f63e4b	2.9354493e-05
204	0x3dae76c9	0.0851875
205	0x3d872273	0.065983675
206	0x3daf6f97	0.08566206
207	0x3e084fb3	0.13311653
208	0x3e17a973	0.14810733
209	0x3cf6023e	0.030030366
210	0x3e860e6f	0.26182887
211	0xbda9b1db	-0.08285876
212	0xbc662283	-0.014046314
213	0x3d605b71	0.054774705
214	0x3c912595	0.017718116
215	0xbe9029d3	-0.2815691
216	0xbd66cc38	-0.056347102
217	0x3dbfbbac	0.093619674
218	0xbe06d3af	-0.13166688
219	0xbd0f637e	-0.035006993
220	0x3e46cabd	0.19413276
221	0x3bb9197b	0.0056487895
222	0x3d5a3939	0.053277228
223	0x3dbefc0e	0.09325419
224	0xbd3ab2ef	-0.0455808
225	0x3d926636	0.071484014
226	0xbdd4a543	-0.10383084
227	0xbb2495a6	-0.0025113611
228	0x3e1447cb	0.14480512
229	0x3f060854	0.5235646
230	0xbd501007	-0.050796535
231	0xbcc2d77d	-0.023784393
232	0x3a305e9c	0.0006727965
233	0xbd4bc74b	-0.049750607
234	0x3e8d350c	0.27579534
235	0x3b895eca	0.004192208
236	0xbe45b31a	-0.19306603
237	0xbd65ede5	-0.056135077
238	0xbdd8f4b2	-0.10593547
239	0x3cb42e82	0.021994833
240	0xbd8521da	-0.06500597
241	0xbda896a9	-0.08231861
242	0xbd8834cf	-0.066506974
243	0x3e7bee6f	0.24602674
244	0xbc780717	-0.015138409
245	0x3e1efaba	0.15525332
246	0xbcb83b2c	-0.022489153
247	0x3cbcf8d8	0.023067877
248	0x3e16fe51	0.14745452
249	0xbd4ae144	-0.049531236
250	0xbd28dbdd	-0.041225303
251	0x3e0896a5	0.13338716
252	0x3ced8b3d	0.028997058
253	0x3dce26d7	0.10066002
254	0xbd276114	-0.040864065
255	0xbe2c34a4	-0.16816956

fc1.bias f4 [24]
0	0x3e11e248	0.14246476
1	0xbd39ed27	-0.04539218
2	0x3992a15d	0.00027967515
3	0xbd36db87	-0.04464295
4	0x3e3a2666	0.1817871
5	0xbbdef895	-0.0068045356
6	0x3d4bbcca	0.04974059
7	0x3a8539d8	0.0010164334
8	0xbce24522	-0.027620856
9	0x3cb314be	0.021860477
10	0xbd194e66	-0.037428282
11	0xbbf5a661	-0.0074966406
12	0x3c122f96	0.008922478
13	0x3ddf3f3a	0.109007314
14	0x3dee2ea7	0.11629992
15	0x3e087b16	0.13328204
16	0x3b4359aa	0.0029808083
17	0x3c8b2078	0.016983256
18	0xbc8a194a	-0.016857762
19	0x3c45193d	0.012029943
20	0x3de05e48	0.10955483
21	0x3cb777f9	0.022396075
22	0xbcfdc0d5	-0.030975739
23	0x3e3bf9f6	0.18357071

fc2.weight f4 [588, 24]
0	0xbe18aee7	-0.1491047
1	0xbce43f35	-0.02786217
2	0x3e3d8ab8	0.18509948
3	0xbe279c8a	-0.16368309
4	0xbe8e5b87	-0.27804205
5	0x3d96659c	0.07343599
6	0x3d4deb84	0.050273433
7	0xbcff9c70	-0.031202525
8	0x3d5b5a20	0.053552747
9	0xbdd19339	-0.102331586
10	0x3ab8f60b	0.0014111412
11	0x3c198a31	0.009371326
12	0x3db54e6d	0.08852849
13	0xbd2cc0bc	-0.042175993
14	0xbdef3058	-0.11679143
15	0xbc7d5bb1	-0.0154637555
16	0x3dbf7de0	0.093501806
17	0x3daabdea	0.083370045
18	0xbdd7f882	-0.10545446
19	0xbe06b207	-0.1315385
20	0xbe0b8633	-0.13625412
21	0xbe36511f	-0.17804383
22	0x3d037e08	0.032102615
23	0x3ceaa0c1	0.028641107
24	0xbe461460	-0.1934371
25	0x3de51bd7	0.11186951
26	0xbb7f0068	-0.0038910154
27	0x3cf96bfd	0.030447
28	0xbe76f1f0	-0.2411573
29	0xbe3a88c6	-0.18216237
30	0xbd316e97	-0.043318357
31	0x3e5931fb	0.21210472
32	0xbd4f87ec	-0.050666735
33	0xbd61f3b8	-0.05516407
34	0x3d226e99	0.039656255
35	0x3df03d1a	0.11730404
36	0xbdf31eae	-0.11871086
37	0x3d35f7d2	0.044425793
38	0x3d5047ae	0.05084961
39	0xbe81ffe6	-0.25390548
40	0x3d8984ce	0.067147836
41	0xbe11253e	-0.14174363
42	0x3dc8b643	0.09800389
43	0x3d014d89	0.031568084
44	0xbde8fdf2	-0.11376561
45	0x3e48ac42	0.19596961
46	0x3cb37efb	0.021911135
47	0xbdbc7380	-0.092017174
48	0xbe2d9fe8	-0.1695553
49	0xbe0ee4d0	-0.13954473
50	0x3d53226e	0.051546507
51	0xbc17ac80	-0.009257436
52	0xbca32ed2	-0.019919787
53	0xbdc4f828	-0.096176445
54	0x3b5674f7	0.0032723525
55	0xbe17161a	-0.14754525
56	0x3d321f03	0.043486606
57	0x3db8efb9	0.090300985
58	0x3dc11e68	0.09429628
59	0x3e492a7f	0.19645117
60	0xbe157706	-0.14596185
61	0xbe0ca0c7	-0.13733207
62	0xbd91955e	-0.07108568
63	0xbe1ba506	-0.1519967
64	0xbdd311c5	-0.10306124
65	0xbe26733f	-0.162549
66	0x3d91eecd	0.07125626
67	0x3cb07920	0.021542132
68	0xbda9898a	-0.082781866
69	0xbd701485	-0.05861332
70	0xbdba5b06	-0.090993926
71	0x3d59c055	0.053161938
72	0xbe0934c7	-0.13399039
73	0xbe272869	-0.16324009
74	0xbe328457	-0.17433296
75	0x3dd00e2c	0.10158953
76	0xbe52d923	-0.20590644
77	0xbda2448a	-0.07923229
78	0x3c71792a	0.01473836
79	0x3da48106	0.08032422
80	0x3ddbd45c	0.10733864
81	0x3da05a96	0.07829778
82	0xbdc562b8	-0.0963797
83	0x3ddba149	0.10724122
84	0xbdfb40f8	-0.12268251
85	0xbe35ee46	-0.17766675
86	0xbe631852	-0.22177246
87	0xbe2a2922	-0.16617253
88	0xbe414f2f	-0.18877862
89	0xbe0371f6	-0.12836441
90	0x3e348f3b	0.17632763
91	0x3da1c96a	0.07899745
92	0xbbafca48	-0.00536469
93	0x3e306d0f	0.17229103
94	0x3ba5ee97	0.0050638425
95	0x3c48937b	0.012242193
96	0x3bd0dcf5	0.0063739964
97	0x3d8ea744	0.06965497
98	0x3dbe8b58	0.093039215
99	0x3e371aa4	0.17881256
100	0xbdfeaf42	-0.124357715
101	0xbdcaeb5d	-0.09908173
102	0xbe42d635	-0.19027026
103	0xbe08364e	-0.13301966
104	0x3e0b32ea	0.13593641
105	0x3e306728	0.17226851
106	0x3e3c82ee	0.1840932
107	0x3c43f380	0.01195991
108	0xbd041cb0	-0.03225392
109	0xbdd5827d	-0.10425279
110	0xbe1af9f7	-0.15134417
111	0xbd854ac9	-0.06508405
112	0xbcbc0780	-0.022952795
113	0x3cbe9280	0.023263216
114	0xbe383684	-0.17989546
115	0x3dbcb7d4	0.0921475
116	0xbd9da0a7	-0.07696658
117	0x3e4ce7ba	0.20010272
118	0xbdd4bce8	-0.103875935
119	0x3d2f97e1	0.042869452
120	0x3dc7720b	0.09738549
121	0x3dc8df5f	0.0980823
122	0x3d931ef8	0.07183641
123	0x3dd13ddc	0.10216877
124	0xbe925588	-0.2858088
125	0x3e1f0c46	0.15532026
126	0x3d6665e4	0.056249514
127	0x3e372090	0.17883515
128	0x3e0ce1d4	0.13758022
129	0xbcd9ba37	-0.026578052
130	0x3e0a7efa	0.13525
131	0x3dd05239	0.10171933
132	0x3d832168	0.06402856
133	0xbdc2f300	-0.09519005
134	0xbe39fadd	-0.18162103
135	0xbddcdbd0	-0.107841134
136	0x3c4dbf87	0.012557871
137	0xbe06516d	-0.13116999
138	0xbde4e09a	-0.11175652
139	0x3cd73566	0.02627058
140	0xbe67ceb0	-0.22637439
141	0xbdfe3890	-0.12413132
142	0xbbf51659	-0.0074794707
143	0xbdb8b54e	-0.09018956
144	0xbdb069ea	-0.086139515
145	0x3e1fff1c	0.1562466
146	0x3d681761	0.05666292
147	0xbe12656c	-0.14296502
148	0xbc805cc0	-0.015669227
149	0xbdca4e7b	-0.0987825
150	0xbe19da82	-0.1502476
151	0xbd1a0b24	-0.03760828
152	0x3e219062	0.15777734
153	0xbe32f91e	-0.17477843
154	0x3da1763e	0.07883881
155	0xbd676097	-0.0564886
156	0x3e0507b4	0.1299122
157	0xbe4532a5	-0.192576
158	0xbd88d07d	-0.06680391
159	0x3d7ff7f0	0.06249231
160	0x3e111a94	0.14170295
161	0x3d89d172	0.06729402
162	0xbdd6f526	-0.10495977
163	0xbd9510c8	-0.072785914
164	0x3d7451bd	0.059648264
165	0x3d8cff74	0.06884661
166	0x3d1338e9	0.035942946
167	0xbe2f0ef2	-0.17095545
168	0x3dcde17c	0.10052773
169	0x3de03dd7	0.10949295
170	0x3e0e9c4c	0.1392681
171	0x3d472166	0.048615836
172	0xbceea8cc	-0.029133223
173	0xbe24b1c3	-0.16083436
174	0x3caa72e0	0.02080673
175	0xbc1ef53b	-0.009702022
176	0xbe1ac34e	-0.15113565
177	0x3e0e4354	0.13892871
178	0xbe2fe2e0	-0.1717639
179	0x3e52ed8a	0.20598426
180	0x3e1df6c5	0.15426166
181	0xbdff97cf	-0.12480127
182	0xbdc9f8e9	-0.09861929
183	0x3cc6861b	0.024233868
184	0x3e1d3a18	0.15354192
185	0xbc6569ec	-0.0140023045
186	0x3e035814	0.12826568
187	0xbd902dbd	-0.07039974
188	0xbe890edf	-0.26769158
189	0x3e1a24e6	0.15053138
190	0xbcdadaf9	-0.026715742
191	0xbe106f6b	-0.14105003
192	0x3e12bcbf	0.14329813
193	0x3e49b930	0.1969955
194	0xbd81eb9d	-0.06343768
195	0x3d0441b0	0.032289207
196	0xbdc26fd8	-0.09493989
197	0x3e2ba413	0.16761808
198	0x3e0911a2	0.13385633
199	0xbd65f9d4	-0.056146458
200	0x3e0aa7a6	0.13540515
201	0xbdff6d67	-0.12472039
202	0x3ae4f500	0.0017468035
203	0x3ca8a6da	0.020587374
204	0xbe31d11d	-0.17364927
205	0xbdf1374a	-0.11778124
206	0xbda29f17	-0.079405
207	0xbe6c75a2	-0.23091748
208	0x3e420ba7	0.18949758
209	0xbde9af39	-0.11410374
210	0x3cfc1a2e	0.030774202
211	0xbd992fc9	-0.074798174
212	0xbe37dc5e	-0.17955157
213	0xbe231811	-0.1592715
214	0xbcaa8072	-0.0208132
215	0xbe250b0c	-0.16117495
216	0xbf38dff6	-0.7221674
217	0xbe27ee5c	-0.1639952
218	0x3df1feee	0.11816202
219	0xbd11bd1d	-0.035580743
220	0xbf19c946	-0.60072744
221	0xbcd45742	-0.025920514
222	0x3f2ab302	0.66679394
223	0x3e14cc22	0.14530995
224	0x3d5a5dc2	0.05331207
225	0x3de7a5a7	0.113108926
226	0x3ddc64df	0.10761427
227	0xbe0bc8a7	-0.13650762
228	0x3e34a783	0.17642026
229	0x3e141873	0.14462452
230	0x3f7dd181	0.991478
231	0xbeac640d	-0.33670083
232	0xbdbb0112	-0.091310635
233	0xbdd2012a	-0.10254128
234	0xbe15ff4b	-0.14648168
235	0xbe4691ac	-0.19391507
236	0x3e05749b	0.13032763
237	0xbd5b5224	-0.053545132
238	0xbf16e90c	-0.5894935
239	0x3e04be58	0.12963235
240	0x3df76901	0.12080575
241	0x3cd7e940	0.02635634
242	0x3d5d994f	0.054101285
243	0xbe1eb9c2	-0.15500548
244	0x3d055864	0.032555
245	0x3c35d840	0.011098921
246	0x3e3389d3	0.17533045
247	0x3db399ac	0.08769545
248	0x3bfff405	0.007811072
249	0x3e46823c	0.19385618
250	0x3d9fa7e8	0.077956975
251	0x3db52ce8	0.08846456
252	0x3c3ff100	0.011715174
253	0x3e9ae50c	0.30252874
254	0x3d05b11f	0.03263962
255	0x3e486ca3	0.19572692

fc2.bias f4 [588]
0	0xbd766b1f	-0.060160752
1	0x3e13282f	0.14370798
2	0x3e11eede	0.14251277
3	0x3d88649b	0.06659814
4	0xbe5f7480	-0.21821785
5	0x3d1616a9	0.036642704
6	0x3ca6f56a	0.020380694
7	0x3dc0102b	0.09378084
8	0x3e363298	0.17792737
9	0xbfdfb024	-1.7475629
10	0xbf755341	-0.9583016
11	0xbfd50130	-1.6640987
12	0x3c63b644	0.013898436
13	0xbd3ad6d5	-0.045615036
14	0xbe23f5f9	-0.160118
15	0xbe0ddba6	-0.1385332
16	0x3ecff533	0.4061676
17	0xbfcd7abe	-1.6053083
18	0x3da21e37	0.07915919
19	0x40143f51	2.3163645
20	0xbe1b672b	-0.15176074
21	0x3e14955e	0.14510104
22	0xbf14b6cd	-0.5809143
23	0xbd58b3ed	-0.052905966
24	0xbea8d5fd	-0.3297576
25	0xbe0adb61	-0.13560249
26	0xbe97be3f	-0.29637334
27	0xbdae338c	-0.085059255
28	0xbe39d53b	-0.18147747
29	0x3c2dff8d	0.01062001
30	0x3e3a4ddc	0.18193763
31	0x3ddf6575	0.10908023
32	0x3d988d9f	0.07448887
33	0x3e334a2f	0.17508768
34	0xbe7bb05e	-0.24578997
35	0xbe4cfc74	-0.20018178
36	0x3db9181d	0.09037802
37	0x3fa647e5	1.299069
38	0x3cdab1f7	0.026696188
39	0x3fffe705	1.9992377
40	0xbe582c92	-0.21110752
41	0x3c1a0cc2	0.009402456
42	0x3d9f7d57	0.077875786
43	0x3dcf3239	0.10117001
44	0x3e038839	0.12844934
45	0x3d5787ab	0.052619617
46	0xbe103835	-0.14083941
47	0x3e0c9993	0.13730459
48	0x39ef9f58	0.00045704353
49	0x3debe2e3	0.115178846
50	0xbe878f69	-0.264766
51	0x3e359ba2	0.1773515
52	0x3e23f3b3	0.16010933
53	0xbd1ed884	-0.038780704
54	0xbb9d62c4	-0.0048030335
55	0x3dd52634	0.10407677
56	0x3da4a8b4	0.0803999
57	0x3e0f2687	0.13979541
58	0x3e093a2c	0.13401097
59	0x3f1474df	0.5799083
60	0x3f116eef	0.56809896
61	0x3dcab9c8	0.09898716
62	0xbdd9aa38	-0.1062817
63	0x3d190560	0.03735864
64	0x3e150202	0.14551547
65	0x3f904d93	1.1273674
66	0x402132f8	2.518736
67	0xbf3ef8f2	-0.7459861
68	0x3e04f592	0.12984303
69	0x3db917ce	0.090377435
70	0x3e190542	0.14943412
71	0xbea86263	-0.32887563
72	0xbd9c7069	-0.07638628
73	0x3f069f50	0.5258684
74	0xbe8f4ede	-0.27989858
75	0x3daf0414	0.085457
76	0xbe15af3f	-0.14617632
77	0xbb9179f4	-0.004439587
78	0x3c860ef2	0.016364548
79	0xbe200612	-0.15627316
80	0x3f6bb7be	0.92077243
81	0xbf3df7df	-0.74206346
82	0x3df87055	0.12130801
83	0x3df55478	0.11979002
84	0xbe1452e0	-0.1448474
85	0x3fb80a31	1.437811
86	0x3def9950	0.11699164
87	0x3f4b7a6d	0.7948368
88	0xbe92268a	-0.28545028
89	0xbe0d7532	-0.13814238
90	0x3ddad599	0.10685272
91	0x3df3e6c9	0.11909253
92	0x3ddeedf6	0.10885231
93	0xbe634e62	-0.2219787
94	0x3d4823bb	0.0488622
95	0x3e08733d	0.1332521
96	0x3db0dfaa	0.086364105
97	0x3d2d3d88	0.04229501
98	0x3cd12dc0	0.02553451
99	0xbe3c96be	-0.18416879
100	0xbd940f0b	-0.07229432
101	0x3df39cf9	0.118951745
102	0x3e064303	0.131115
103	0xbe4cdaae	-0.20005295
104	0xbe7a7b5d	-0.24461122
105	0xb9e45ce7	-0.00043556766
106	0x3daba4d6	0.08381049
107	0xbe0b972f	-0.1363189
108	0xbe58f6b5	-0.21187861
109	0xbeb64f41	-0.3560734
110	0xbca51b8b	-0.020154735
111	0xbc415f5e	-0.011802522
112	0xbe8654bf	-0.2623653
113	0xbfe5ac12	-1.7943137
114	0x3d360cba	0.04444573
115	0xc0267abc	-2.601241
116	0xbfa796fb	-1.309295
117	0x3d1ab63d	0.037771452
118	0x3de2e8e8	0.110795796
119	0x3e4aed0d	0.1981699
120	0xc00609cb	-2.0943477
121	0x3eaa83a7	0.33303568
122	0x3ed4e8c7	0.41583845
123	0x3e90a99a	0.28254396
124	0x3d4714ce	0.048603825
125	0xbe6fd974	-0.23422796
126	0x3db65333	0.08902588
127	0xbf7c2156	-0.98488367
128	0xbf5bb845	-0.8582805
129	0x3d50ac2a	0.05094544
130	0xbfb80cbb	-1.4378885
131	0xbe88d741	-0.26726726
132	0xbe87d52f	-0.26529834
133	0xbe943803	-0.28948984
134	0xbf7a6915	-0.9781659
135	0xbde057d4	-0.10954252
136	0xbfca0a98	-1.5784483
137	0xbc03c112	-0.008041637
138	0x3c225b72	0.009909498
139	0x3d853da5	0.065058984
140	0x3d6b15cf	0.057393845
141	0xbe723d11	-0.23656107
142	0xbe17dc62	-0.14830163
143	0xbe1a7c3a	-0.15086451
144	0x3d95385a	0.07286139
145	0x3d5423c1	0.05179191
146	0xbe1e02da	-0.15430775
147	0x3e4a04bd	0.1972837
148	0x3b9e412b	0.004829546
149	0x3d4a9073	0.049454164
150	0xbbcd41c9	-0.0062639457
151	0xbcbeabb3	-0.023275232
152	0xbdd8d4fb	-0.10587498
153	0xbd2ccf61	-0.04218996
154	0x3e1a5856	0.1507276
155	0x3dbc2c68	0.09188157
156	0x3ce5b70a	0.028041381
157	0x3e786806	0.24258432
158	0x3dba1572	0.090861216
159	0xbe5fc115	-0.21850999
160	0xbd019a21	-0.03164113
161	0xbb500015	-0.003173833
162	0xbe659c05	-0.22422798
163	0x3eb002e5	0.34377208
164	0x3d509c67	0.050930407
165	0x3e9efb51	0.31051114
166	0xbe878aa9	-0.26472977
167	0xbe8db1cb	-0.27674708
168	0xbb805f2b	-0.003917595
169	0x3fbdebde	1.4837606
170	0x3faea4cc	1.3644042
171	0x3f2ad4e8	0.6673112
172	0x3fb78344	1.4336934
173	0x3e1d2266	0.15345153
174	0x3dc17124	0.09445408
175	0x3cfc87ac	0.030826412
176	0xbe2a36d9	-0.16622485
177	0xbe843481	-0.25821307
178	0x3fd1b335	1.6382815
179	0x4035194c	2.829669
180	0xbe85b8bc	-0.26117504
181	0x3d90dd4d	0.0707346
182	0xbd75aa3b	-0.059976798
183	0x3d28e12c	0.041230366
184	0xbe72ddb3	-0.23717384
185	0x3f99c985	1.2014624
186	0x405e0f46	3.4696822
187	0xbd802dee	-0.062587604
188	0x3e3e1c5e	0.18565509
189	0x3de664d1	0.11249698
190	0x3e308b1f	0.1724057
191	0xbe6cbbd3	-0.23118524
192	0x3d405a9e	0.04696142
193	0xbd3def4d	-0.046370793
194	0x3d2e3a76	0.04253622
195	0x3d2dc251	0.042421643
196	0xbe1face6	-0.155933
197	0x3d6054ff	0.05476856
198	0xbe059ded	-0.13048525
199	0x3d843246	0.064549014
200	0xbc62546b	-0.013814072
201	0xbde3dc36	-0.11125986
202	0xbd32ee51	-0.043684307
203	0x3c21b2c9	0.009869286
204	0x3d1f0f9e	0.038833253
205	0x3f97045f	1.1798209
206	0xbe809f64	-0.25121605
207	0x3de38911	0.11110128
208	0x3b260f7f	0.0025338826
209	0xbbdada97	-0.00667889
210	0xbe91ad9c	-0.28452766
211	0xbdeb9c16	-0.115043804
212	0x3f6c70dc	0.9235971
213	0x3e8e3a84	0.2777902
214	0x3d1f69b1	0.038919155
215	0xbc915920	-0.017742693
216	0x3be56063	0.0070000156
217	0xbe73f4f8	-0.23823917
218	0xbfe1ba3f	-1.7634963
219	0xbf4e9b1c	-0.8070543
220	0xbd65d962	-0.056115516
221	0xbf131a7a	-0.57462275
222	0x3d1df919	0.038567636
223	0xbd15f13b	-0.03660701
224	0xbe3b8266	-0.18311462
225	0xbf1b5406	-0.60675085
226	0xbe42f02b	-0.1903693
227	0x3eab6ad6	0.33479947
228	0x3e9e7209	0.30946377
229	0x3f605619	0.87631375
230	0xbe81b9d0	-0.25337076
231	0xbd58333a	-0.05278323
232	0xbe0b102f	-0.13580392
233	0xbea21f93	-0.31664714
234	0x3f8ea057	1.1142682
235	0x3def9fcc	0.11700401
236	0x3cc97777	0.024593098
237	0xbe6b3ad3	-0.22971658
238	0x3d6ac208	0.05731395
239	0xbe048658	-0.12941873
240	0xbe513315	-0.20429642
241	0xbd6bab77	-0.05753657
242	0xbe22a280	-0.15882301
243	0xbe5b77b7	-0.21432386
244	0xbe0f9637	-0.14022146
245	0x3cd6f333	0.026239013
246	0x3b5aa5b2	0.0033362922
247	0xbe86ad67	-0.2630417
248	0xbcafa7b6	-0.021442275
249	0xbe986e7c	-0.29771793
250	0xbe25f8a7	-0.16208135
251	0xbd7d237c	-0.06180142
252	0x3d44879a	0.047980882
253	0x3e10d0ea	0.14142194
254	0xbdfb3aa2	-0.12267043
255	0xbf884626	-1.0646408

deconv1.weight f4 [12, 12, 1, 1]
0	0xbee43bf0	-0.4457698
1	0xbf0437e5	-0.5164779
2	0xbefb5382	-0.4908715
3	0x3e87c707	0.26519033
4	0x3dee4fe2	0.1163633
5	0x3e261e23	0.16222434
6	0xbea7a0cf	-0.32739875
7	0x3e879e17	0.264878
8	0xbec16b71	-0.37777284
9	0xbf8cd9ac	-1.1003928
10	0x3ed09985	0.40742126
11	0x3e177b6b	0.14793174
12	0x3d4db2c9	0.05021933
13	0x3e86b30e	0.26308483
14	0x3f62cf9b	0.8859803
15	0x3e0fe47b	0.14052002
16	0x3da5ad85	0.08089737
17	0x3ee9b688	0.45647073
18	0xbd8c9c62	-0.06865765
19	0xbf37c317	-0.7178206
20	0x3e06dafd	0.13169475
21	0x3ea3fbf4	0.32028162
22	0x3e7ce163	0.24695353
23	0xbecd13fd	-0.40054312
24	0xbece68c1	-0.40314296
25	0xbf1359ce	-0.57558906
26	0xbe95cb06	-0.29256457
27	0xbdaa2831	-0.08308447
28	0xbe9105bf	-0.28324696
29	0xbf3ed82f	-0.7454862
30	0xbefa65df	-0.48905846
31	0x3e6dcd13	0.23222761
32	0xbe8b56c7	-0.27214643
33	0xbf076226	-0.5288414
34	0xbf40cd08	-0.7531285
35	0x3e049c81	0.12950327
36	0x3bd0f048	0.0063763
37	0x3f12ecdd	0.57392675
38	0x3ecb5315	0.39711824
39	0x3ebe1a06	0.3712923
40	0xbd8ba7f6	-0.068191454
41	0x3e1e0de9	0.15434994
42	0x3db70377	0.08936208
43	0xbdb7fe05	-0.08983997
44	0x3e26a3ac	0.16273373
45	0x3f091a0c	0.5355537
46	0xbcae06f7	-0.021243555
47	0xbd4ecd2d	-0.05048864
48	0xbdd97fc2	-0.10620071
49	0xbeea314f	-0.45740744
50	0x3e129918	0.14316213
51	0xbe9f80b2	-0.31152874
52	0xbe067b36	-0.13132939
53	0x3dfee388	0.12445742
54	0xbe67dac1	-0.22642042
55	0x3de6e29e	0.112736925
56	0xbe501339	-0.20319833
57	0x3eabca21	0.3355265
58	0x3e8892c9	0.26674488
59	0x3d801d47	0.06255584
60	0x3ea14f36	0.31505746
61	0xbe128360	-0.14307928
62	0x3e75652f	0.2396438
63	0xbdaa1f1f	-0.08306717
64	0xbe90cd19	-0.28281477
65	0xbeeeca94	-0.4663893
66	0x3eb58bfd	0.35458365
67	0x3e660c07	0.22465526
68	0xbcae831d	-0.021302754
69	0xbe379b1a	-0.1793026
70	0xbf0e0d9d	-0.5548952
71	0x3dfdfd67	0.12401848
72	0x3d013380	0.031543255
73	0x3e83f8df	0.2577581
74	0xbf2a0f9e	-0.6643008
75	0x3ea59d90	0.32346773
76	0xbe9ea0e7	-0.30982134
77	0xbeafdc4a	-0.34347755
78	0x3cfb6c08	0.030691162
79	0x3ef74502	0.48294836
80	0x3d8bf206	0.06833272
81	0xbe6fe0cb	-0.23425595
82	0xbe8fe7af	-0.28106448
83	0x3e896d1d	0.2684106
84	0x3e4f2106	0.20227441
85	0x3f569d21	0.8383351
86	0x3f076647	0.5289044
87	0x3ea1a60a	0.3157199
88	0xbe5c87c5	-0.21536167
89	0xbc87d991	-0.016583236
90	0x3ee1d82e	0.44110245
91	0xbe352ba3	-0.17692427
92	0x3f218776	0.6309732
93	0xbc216a15	-0.009851952
94	0xbe37d5ea	-0.17952695
95	0xbdca163f	-0.09867524
96	0xbed73f43	-0.42040452
97	0x3e5fcee2	0.21856263
98	0xbe38727a	-0.1801242
99	0xbe09375e	-0.13400027
100	0x3dd63e7b	0.10461136
101	0x3e1f18b2	0.15536764
102	0xbeb43a21	-0.352006
103	0x3c870f31	0.016486736
104	0x3dad33ac	0.08457121
105	0xbf68b21b	-0.9089677
106	0x3e4f6128	0.20251906
107	0x3c25b1b0	0.010113165
108	0x3e03f326	0.12885723
109	0x3dc47ddc	0.09594318
110	0x3d6972a7	0.056994107
111	0x3e9e1401	0.30874637
112	0x3eb038bf	0.34418294
113	0x3f063dde	0.5243815
114	0xbd631f30	-0.055449665
115	0xbec1c8e8	-0.37848592
116	0x3e3b2fc9	0.18279947
117	0xbd943501	-0.07236672
118	0x3f088332	0.5332519
119	0xbe5735d9	-0.21016635
120	0x3ed0bdf8	0.40769935
121	0x3e1af2d3	0.15131693
122	0xbe1214bb	-0.1426572
123	0xbf0c4a3a	-0.5480076
124	0xbd6f5bfe	-0.05843734
125	0xbe7e1b1a	-0.24815026
126	0x3e9ca7dd	0.3059682
127	0x3e834ae2	0.2564307
128	0x3e066402	0.13124087
129	0x3f1efd2c	0.6210506
130	0xbe51c288	-0.20484364
131	0x3e1163fb	0.14198296
132	0xbdc16b7a	-0.09444328
133	0xbe6d021e	-0.23145339
134	0xbee9630e	-0.45583385
135	0xbeec1960	-0.4611311
136	0xbd691a9b	-0.05691014
137	0xbe8f71fc	-0.2801665
138	0xbe1df2e3	-0.15424685
139	0x3eea9cbe	0.4582271
140	0xbe3206f8	-0.17385471
141	0x3d0e2e94	0.03471239
142	0xbe1c606e	-0.1527116
143	0x3e82b18e	0.25526088

deconv1.bias f4 [12]
0	0x3f449ae5	0.7679885
1	0x3df1bb23	0.118032716
2	0x3f689e4f	0.9086656
3	0x3f0cd139	0.5500675
4	0x3f1e12c1	0.61747366
5	0x3f9347ba	1.1506264
6	0x3f6f72a6	0.93534315
7	0x3c9affdc	0.018920831
8	0x3f06cd0d	0.5265663
9	0x3f3b598a	0.731835
10	0x3f3f4362	0.74712193
11	0xbfe3aa51	-1.7786351

deconv2.weight f4 [12, 6, 2, 2]
0	0xbda0c269	-0.07849581
1	0x3db6cf5a	0.08926268
2	0xbe71e438	-0.23622215
3	0x3eff0dae	0.49815124
4	0xbefa7e48	-0.4892447
5	0xbca5ee03	-0.020255094
6	0xbfa43d2b	-1.2831167
7	0x3ed3f9cc	0.41401517
8	0xbd77f59d	-0.06053697
9	0x3ca80a0e	0.020512607
10	0xbe6e542b	-0.23274295
11	0x3f2cd8df	0.6751842
12	0xbb5e413c	-0.0033913394
13	0x3e6d0c76	0.23149285
14	0xbf745821	-0.95446974
15	0x3d400463	0.046879184
16	0xbd7dfba8	-0.062007576
17	0x3e6acc38	0.22929466
18	0x3c2d3030	0.010570571
19	0x3d7387fc	0.059455857
20	0xbde4f234	-0.11179009
21	0xbc8b9458	-0.01703851
22	0xbd339a53	-0.043848347
23	0xbdc82ff4	-0.09774771
24	0xbe45534d	-0.19270058
25	0xbebf6820	-0.3738413
26	0xbcfe59f9	-0.031048762
27	0xbde02db4	-0.10946217
28	0xbe7acc05	-0.2449189
29	0xbf5774ee	-0.84162796
30	0x3c7012d8	0.01465293
31	0xbce2d6aa	-0.02769025
32	0xbf87ec97	-1.0619076
33	0xbf83bba8	-1.0291643
34	0xbd633050	-0.055465996
35	0xbd81d4fe	-0.06339453
36	0xbfb24b6f	-1.392927
37	0xbfc30804	-1.5236821
38	0x3ba6415d	0.00507371
39	0xbeb44f62	-0.35216814
40	0xbe2119dd	-0.15732522
41	0xbf9af7e5	-1.2106901
42	0xbdc7f499	-0.0976345
43	0xbeab6d7c	-0.33481967
44	0xbeeb6110	-0.4597249
45	0xbf378297	-0.7168364
46	0xbd11debe	-0.035612814
47	0xbe93b97c	-0.2885245
48	0xbe49dec7	-0.19713889
49	0xbe8864e6	-0.2663948
50	0xbd0c96ec	-0.034323618
51	0xbcc0bda0	-0.02352792
52	0xbde35ddf	-0.11101889
53	0xbf269e26	-0.65085065
54	0x3abe96a0	0.0014540739
55	0x3c53841d	0.012909916
56	0xbf111408	-0.5667119
57	0xbf217cd7	-0.63081115
58	0xbc7910d5	-0.015201767
59	0x3c3550f2	0.011066662
60	0xbdb1dc55	-0.08684603
61	0xbf942e12	-1.157656
62	0xbd87f82f	-0.06639134
63	0xbe8b12b6	-0.27162713
64	0xbc42f2cc	-0.011898708
65	0xbf525f04	-0.8217623
66	0xbdab1063	-0.08352735
67	0xbe76dabb	-0.24106877
68	0xbed8a0fb	-0.42310318
69	0xbeca9329	-0.395654
70	0x3cc802f1	0.024415465
71	0x3cb8a381	0.022538902
72	0xbd1c7a8f	-0.03820282
73	0x3c6c2400	0.01441288
74	0xbfcc59ca	-1.5964901
75	0xbf8ba452	-1.0909522
76	0xbe0a4c51	-0.13505675
77	0xbc6bb0c4	-0.014385406
78	0xc0401a18	-3.0015926
79	0xbfb976c1	-1.4489366
80	0x3e243299	0.16034926
81	0x3e11e568	0.14247668
82	0xbf0c4301	-0.5478974
83	0xbfb548f9	-1.4162894
84	0x3b0561d8	0.002035251
85	0x3ec20dec	0.37901247
86	0xbf11695c	-0.5680139
87	0xbf1b5552	-0.60677063
88	0xbed0e99a	-0.40803224
89	0x3ec651d4	0.38734305
90	0x3d0a80e8	0.03381434
91	0xbeac7e28	-0.3369
92	0xbcab7999	-0.020932006
93	0x3e5cd4d9	0.2156557
94	0xbdece369	-0.115668125
95	0xbec7422b	-0.3891767
96	0x3e69243d	0.2276773
97	0xbf08d2f2	-0.53446877
98	0x3d10b2fe	0.03532695
99	0x3e9dde9e	0.30833906
100	0x3b8620c8	0.0040932633
101	0xbf06413e	-0.524433
102	0x3c48e22c	0.012260955
103	0x3e980966	0.2969467
104	0x3d99e62b	0.07514604
105	0xbf59af5f	-0.8503322
106	0xbde2e6b9	-0.11079163
107	0x3ec7e0c0	0.39038658
108	0x3b1d4e6f	0.002400305
109	0xbf6a8e15	-0.9162305
110	0xbc0ee207	-0.008720881
111	0x3950ba26	0.00019905771
112	0x3b6ad6ce	0.00358336
113	0xbf6d7718	-0.9275985
114	0xbe00ef92	-0.12591389
115	0x3c997df3	0.018736815
116	0xbe8f65b8	-0.28007293
117	0xbfb2718c	-1.3940902
118	0x3d74b951	0.059747044
119	0xbe3d8f14	-0.18511611
120	0xc095d213	-4.681894
121	0xbdadfc1e	-0.08495353
122	0xbf9704c2	-1.1798327
123	0xbf7a6526	-0.9781059
124	0xbde25d4b	-0.110529505
125	0xbe598cae	-0.21245071
126	0xbe9cebfa	-0.30648786
127	0xc00475d6	-2.0696921
128	0xbea16bd4	-0.3152758
129	0x3f039fac	0.51415515
130	0x3df073e8	0.11740857
131	0xc0069cf0	-2.1033287
132	0xbcc95598	-0.024576947
133	0xbf221e05	-0.63327056
134	0xbe797a3b	-0.24363033
135	0xbf7badf1	-0.9831229
136	0xbd613514	-0.05498226
137	0xbf1e7fac	-0.6191356
138	0xbc87fc50	-0.016599804
139	0x3f003411	0.5007945
140	0xbf1177f5	-0.56823665
141	0xbeaed417	-0.34146187
142	0x3b693d82	0.003558964
143	0x3df0ff2c	0.1176742
144	0xbe4943c1	-0.19654752
145	0x3d733416	0.059375845
146	0xbb692097	-0.0035572404
147	0xbc8a3bc1	-0.016874196
148	0xbf99c028	-1.2011766
149	0x3e45c87c	0.1931476
150	0x3bb60898	0.0055552237
151	0xbd49c23c	-0.049257502
152	0xbfb03ead	-1.3769127
153	0x3ed61d4e	0.41819233
154	0x3d1c8c8a	0.038219966
155	0xbd8933b1	-0.066993125
156	0xbfb97278	-1.4488058
157	0x3e504a62	0.20340875
158	0xbe3d0717	-0.18459736
159	0x3de70397	0.112799816
160	0x3dea1f70	0.114317775
161	0x3e8bb060	0.27283
162	0xbe230a63	-0.15921931
163	0x3dfc2bff	0.12313079
164	0xbe306b53	-0.17228441
165	0x3eb2ea10	0.349442
166	0xbe40bffa	-0.18823233
167	0xbe343300	-0.1759758
168	0x3dac544e	0.08414517
169	0x3d339fe6	0.043853663
170	0x3e520d13	0.205128
171	0x3e5048c8	0.20340264
172	0x3e802f59	0.25036123
173	0x3e29192b	0.16513507
174	0x3e7c183d	0.24618621
175	0x3e7b7d44	0.24559504
176	0x3e1d815a	0.15381375
177	0xbd97fee0	-0.074216604
178	0xbe5549e0	-0.20828962
179	0x3dbb1154	0.091341645
180	0x3ea3f755	0.32024637
181	0x3e2189d8	0.1577524
182	0x3ea655f8	0.32487464
183	0x3eacffed	0.33789006
184	0xbd52569b	-0.051352125
185	0x3d247665	0.040151972
186	0xbd0d039c	-0.03442727
187	0x3e65c445	0.22438152
188	0x3e7e99ca	0.24863353
189	0x3dcd96ed	0.100385524
190	0xbd9cc3a1	-0.07654501
191	0xbe23b8fd	-0.15988536
192	0xbea3fbc8	-0.3202803
193	0x3dc8d864	0.09806898
194	0x3c1be8b0	0.009515926
195	0x3d8b44e4	0.06800249
196	0xbfc0e020	-1.5068398
197	0x3e04c00b	0.12963884
198	0xbd314e17	-0.043287363
199	0x3d22177f	0.03957319
200	0xc00a43d0	-2.160389
201	0x3e9d895f	0.30768868
202	0xbe1873cf	-0.14887927
203	0x3d8ea188	0.069644034
204	0xc00a5992	-2.161717
205	0x3ef0c554	0.4702555
206	0xbecaf891	-0.39642766
207	0x3d8fa217	0.07013338
208	0x388a1245	6.583756e-05
209	0x3efec551	0.49759915
210	0xbd6bc04c	-0.057556435
211	0x3d96aae3	0.07356813
212	0xbe01ecd0	-0.12687993
213	0x3e8f9e2c	0.28050363
214	0x3d272fe3	0.040817153
215	0xbe3f4776	-0.18679604
216	0xbcdb1936	-0.02674542
217	0xbd657e33	-0.056028556
218	0xbf43c000	-0.76464844
219	0xbf2696a5	-0.65073615
220	0xb9b49aef	-0.0003444771
221	0xbe074b86	-0.13212404
222	0xbf20de05	-0.62838775
223	0xbf5051b3	-0.81374663
224	0x3e0f42e8	0.13990366
225	0xbdea5f3b	-0.11443945
226	0xbe325337	-0.17414556
227	0xbf59b3c4	-0.85039926
228	0x3c3201b6	0.010864666
229	0x3e13afdb	0.14422552
230	0xbe17cda7	-0.14824544
231	0xbeecade4	-0.46226418
232	0xbc508ebe	-0.012729345
233	0x3e1852c3	0.14875321
234	0xbddea9d6	-0.108722374
235	0xbe8a565d	-0.27019015
236	0x3bfed959	0.0077773747
237	0x3b403685	0.0029329371
238	0xbe0b6207	-0.13611613
239	0x3d03ef5c	0.032210693
240	0xbe577546	-0.2104083
241	0xbe6142b9	-0.21998109
242	0xbd34b3f5	-0.044116933
243	0xbfc75411	-1.557253
244	0x3b7b9d48	0.0038393307
245	0xbe7b9efd	-0.24572368
246	0x3b1b296d	0.0023675815
247	0xbf164225	-0.5869468
248	0xbd80fcdb	-0.06298228
249	0xbec80297	-0.39064476
250	0xbdb251f8	-0.087070405
251	0xbf543b3a	-0.8290287
252	0x3c88cb5c	0.016698532
253	0x3db731b9	0.08945031
254	0x3c40dbb5	0.011771132
255	0xbf0c986e	-0.5492009

deconv2.bias f4 [6]
0	0x3d415d83	0.04720832
1	0xbda4a1c0	-0.08038664
2	0xbe97a583	-0.29618463
3	0xbec5e32b	-0.38649878
4	0xbf2e3f18	-0.68065023
5	0xbebfca99	-0.37459257

deconv3.weight f4 [6, 1, 2, 2]
0	0xb9884cbd	-0.00025997116
1	0x3f901994	1.1257806
2	0x39d37b84	0.00040337082
3	0x3fb30b12	1.3987753
4	0xb84db956	-4.9048416e-05
5	0xbf193207	-0.5984196
6	0x3fb08a5d	1.3792225
7	0x3a4dece3	0.0007855428
8	0x3a46bd76	0.00075813325
9	0xbeda55ce	-0.4264359
10	0xbf55362f	-0.832858
11	0xbf8044d1	-1.0021001
12	0x3fbfe30a	1.4991162
13	0x3f7417c1	0.95348746
14	0x398ed25b	0.00027241078
15	0xba6d751f	-0.0009058285
16	0xbfbc2761	-1.4699517
17	0xbf9e8264	-1.2383542
18	0x3d6776fa	0.05650995
19	0xbebf2516	-0.37332982
20	0x3a1854dc	0.0005810985
21	0x3f824b2c	1.0179191
22	0x3a296e36	0.0006463261
23	0x3fa1edf2	1.265074
