Pytorch/AutoEncoder/saved_models/mnist/NetSmall-L2Loss_mnist.pt (torch, 130543 bytes, 15 tensors)

conv1.weight f4 [6, 1, 3, 3]
00000000: edd1 1bbe aa64 463e b97a 15be 5b29 993d
00000010: 2e43 713e b329 333e d893 49bc c97c 323f
00000020: 7eae 1c3e f8cc de3d aa0e 623e bafc 803e
00000030: 81c0 97bd ec6b a8bd ff5b 913e 3b2e 32be
00000040: b321 cdbe 2ea2 0ebf 59e0 763e e5af ca3e
00000050: 0460 e73e 09e6 d73d 9063 e23d 0d8a f83e
00000060: ccd3 60be e9d4 90bd f9f6 233e 4cbe b33e
00000070: a97a fb3c 3a42 5cbe 4e8c 2c3f f2bb 493c
00000080: 6edd 34bd c4c4 71bd 8dd6 b03d 7ed6 f1bd
00000090: 3f95 aabe fae0 16bd 6155 a33e e7a2 a1be
000000a0: f8a6 24be 2c03 c33e 5d10 e3be 1b16 f9bd
000000b0: 04fb c63e 0bd4 443e 2aa0 a93e 29c0 063e
000000c0: 0e55 be3e adcf 873e 387c bd3d 8981 303e
000000d0: fc0a f83d 8371 d4bd
-0.15216799 0.19374338 -0.14597596 0.07478591 0.23560783 0.17496376 -0.012303315 0.6972166
0.15300938 0.108789384 0.22075906 0.25192815 -0.07409764 -0.082237095 0.283905 -0.17400448
-0.40064773 -0.55716217 0.2410902 0.39587322 0.45190442 0.105419226 0.11054146 0.48542824
-0.21955794 -0.070718594 0.16012181 0.35106122 0.030698137 -0.21509638 0.6740159 0.012312876
-0.044156484 -0.05902554 0.08634672 -0.11808489 -0.3331699 -0.036835648 0.31901076 -0.31569597
-0.16079319 0.38088357 -0.44348422 -0.121624194 0.38863385 0.19221513 0.33130008 0.13159241
0.37174267 0.26525632 0.092522085 0.17236914 0.1211147 -0.10373213

conv1.bias f4 [6]
00000000: 67c1 5f3a d1ae ab3e f081 93ba 385c 6f3e
00000010: d57e a43d e4cc 8c3d
0.0008535594 0.33531812 -0.0011253934 0.23375022 0.08032004 0.06875017

conv2.weight f4 [12, 6, 3, 3]
00000000: 7107 bfbd 50f0 4bbe 6cb7 80be 7bab a93d
00000010: d02a 223e 8901 f8bc 1734 c23d 424e 163e
00000020: a089 5c3e 73a5 cbbd eb6a 303e 0746 2bbf
00000030: f3db d63d 0f06 0a3e 300c e5bd cab7 d6bd
00000040: 0d56 d4bd 0d4a a6bc 1055 753d 5323 89be
00000050: 0e44 63be 464e 1f3e 4fa6 e23e cca0 8c3e
00000060: 448f 343e aa0b a33e bd5e 613e 5c88 1c3d
00000070: 7405 26be ac15 febb 6f05 873e 1c3e 24ba
00000080: 58be 3abe 935d 993d 992b 7dbd be42 7ebe
00000090: 3999 27be 6a00 9fbd 092f 04be 5316 113d
000000a0: bb5b 513b 62a5 58be 21d3 4b3e fa07 4e3e
000000b0: 1cc9 063e faf0 223c 3638 8fbd 197e 2dbe
000000c0: a141 d53d 25e6 a9bb 59a6 78bd a04a 033d
000000d0: 516f 8d3d c59f 09bd 0ef3 283c f700 873e
000000e0: fff2 533e 73a9 1f3e 268c d93d 49c7 033e
000000f0: aade 7fbd 569b 443d 2d53 dabd 8dcc 373d
00000100: 0a53 b9bd a606 5c3d 6e0c bc3e d6e6 eb3d
00000110: fb98 ea3d bb34 ae3d 34fe d63b 791d 3b3e
00000120: b651 713d e0d6 4e3e b4a3 ed3d c37d a6bd
00000130: 785b 273e 0641 883e 1228 9dbc 0b02 bfbb
00000140: a2d7 413d 5697 85bd fb0d b1bd d8bc 8bbe
00000150: 5410 b43e 824a a23e 2528 5c3e 8ea3 aaba
00000160: fff6 3f3e 3626 b03d a75e ca3d 2979 b33d
00000170: bf9c 0f3e bae9 bdbd 2f31 99be 431e dbbd
00000180: 6f72 e0bd 3494 cf3d 6f95 963d 89ca 21be
00000190: 76fa 8abe d0d9 063d e835 fdbc 5332 53bd
000001a0: de09 e03c d2d3 0a3d b448 1a3e 51a3 663d
000001b0: 0d7a cebd 8889 643e 6c18 df3e 0b99 efbb
000001c0: f1b7 093e 8e3b b73e 8a35 6a3e 4264 5a3e
000001d0: 44bb be3e 94cf 91bd 9c4c 0cbd eee0 983b
000001e0: 831b 4dbd 58f9 da3c 94a8 34be 187d 0c3e
000001f0: 53d5 743c 0a05 04bc 6abb 9a3c 2e86 aa3d
00000200: bd13 d43d 1bcf 1abe 36d9 b73d 1102 f5bd
00000210: 9a2a 11bd a255 88be e5df 48bc f0e6 0bbe
00000220: f9a1 65bd 4e1a 653e 7741 7ebe f13a b83d
00000230: 931e e23e 31ce 79be bf1f 493e b52e c23e
00000240: b71d d6bd aa7a 62bd 39cb 9f3e d62b de3d
00000250: b8c0 b13c dc8d 823e a799 02be c373 6b3e
00000260: c561 4a3e 5a2d d0bd 4bdb 5dbe 506b 21be
00000270: 6055 c9bd 20e1 18be 5619 3dbe c2b1 efbd
00000280: 06b7 7e3d 644e b5bd 4522 703b 9ec1 c9bd
00000290: 9086 41bd 65ec 563d a4ad 983d aff2 1e3d
000002a0: 724e 833e 378b 7c3e 8784 07bd 4858 96bc
000002b0: ee38 c43d 3cef 7b3d 200a 1a3d 1e2e 6d3d
000002c0: cc3b a63d a65a 833d 19da 3e3d acfc 033e
000002d0: eeef 96be 0ad1 1abe 3424 36bd e686 87be
000002e0: 3f69 00be a774 0d3e 7816 1dbd 1e8a 01bd
000002f0: dba1 493e 7c18 87bd 46be 603e 53a2 803d
00000300: a97e fabd 28f9 503c 66c5 bdbc d90d d23d
00000310: f93a 3b3e e493 773e b078 9dbc 2431 a5bd
00000320: 1c57 84bd d6ec ba3d 3667 973d 0aea 083e
00000330: 0ef9 59bd 229f 3b3d 4fad e9bc 4bd6 d03c
00000340: c810 43bd 1727 8cbd 0370 403c 6084 12be
00000350: eb9a fe3c 41af be3b 2527 513e e076 133e
00000360: 8a31 2b3e d3c8 3b3e f6bb 3e3b d072 073e
00000370: 400d 613e 0b4a 203d e47c 5c3c 785f 773e
00000380: 2132 c73d 1f33 41be 2fcd 523d 721c 93bd
00000390: 8437 323c b244 0ebd 6285 41be b558 a5bd
000003a0: fa4c 91bd 19dc 833d 8e3d bb3d 9a49 b83d
000003b0: 4844 87bd 7287 5ebd 974c 693c 4159 dcbd
000003c0: 8604 d93d 50c4 2a3d a8b0 99bd c060 eebc
000003d0: 6cd7 d03d 5235 943b 80e3 bb3d 68a2 cc3d
000003e0: 8747 a93d e42a 87bd 0f60 f6bd a4aa 50bd
000003f0: cf4f 313e 5f5a 253d 2459 acbc 4721 07be
-0.09327591 -0.1991589 -0.2513994 0.082846604 0.15836644 -0.03027417 0.094825916 0.1467829
0.21536875 -0.09943666 0.17228286 -0.6690373 0.10491171 0.13478874 -0.11183965 -0.10484274
-0.103679754 -0.020298982 0.059895575 -0.26784763 -0.2219393 0.15557203 0.44267508 0.27466428
0.17632776 0.31844836 0.22008796 0.03821598 -0.16213018 -0.0077540483 0.26371333 -0.00062653585
-0.18236673 0.07488551 -0.061809156 -0.24830148 -0.16367044 -0.07763751 -0.12908567 0.03542168
0.0031945545 -0.21156839 0.19904758 0.2012023 0.13162655 0.009945149 -0.06993143 -0.16942634
0.10412908 -0.005184906 -0.060705516 0.03205359 0.069059975 -0.033599634 0.010311855 0.26367924
0.20698164 0.15591983 0.10622434 0.1286899 -0.06246821 0.047999702 -0.10660396 0.04487281
-0.090490416 0.053717278 0.36728233 0.11518638 0.1145496 0.08506151 0.006561065 0.18272962
0.058915816 0.20199156 0.116034895 -0.08129456 0.16343486 0.2661211 -0.019184146 -0.005829101
0.047324784 -0.06523006 -0.08645245 -0.27292514 0.35168707 0.3169747 0.21499689 -0.0013018714
0.18746565 0.08601038 0.09881335 0.08763344 0.14024638 -0.092730954 -0.29920337 -0.10699131
-0.109593265 0.101356894 0.07352721 -0.15799917 -0.27144212 0.032922566 -0.030909494 -0.051561665
0.027348455 0.033893414 0.15066797 0.056308094 -0.10081873 0.22318089 0.4357332 -0.0073119453
0.13449074 0.35787624 0.22871986 0.21327308 0.37252247 -0.071196705 -0.034252748 0.0046654856
-0.050075065 0.026730224 -0.17642432 0.13719594 0.014943439 -0.008057842 0.018888194 0.08326374
0.10355327 -0.15118067 0.089769766 -0.11963285 -0.03544102 -0.26627833 -0.012260412 -0.13662314
-0.056062672 0.22373316 -0.2482966 0.08995617 0.4416395 -0.24395062 0.19641016 0.3792626
-0.104548864 -0.055292763 0.31209734 0.10848205 0.02169834 0.25498855 -0.12753926 0.22993378
0.19763859 -0.101649 -0.21665685 -0.15763593 -0.09830737 -0.14929628 -0.18466696 -0.117038265
0.062186264 -0.088528425 0.003664152 -0.09851383 -0.04724747 0.052471537 0.07454994 0.03880566
0.25645787 0.24662481 -0.033085372 -0.018352643 0.09581171 0.06150745 0.037607312 0.05790531
0.08116874 0.06413774 0.046594713 0.12889355 -0.29479927 -0.15118805 -0.04446812 -0.26470107
-0.12540148 0.1381403 -0.038351506 -0.03162586 0.19690649 -0.06596467 0.21947584 0.06280961
-0.1223119 0.012754716 -0.023165416 0.102565475 0.18284215 0.2417751 -0.019222587 -0.080660135
-0.06461927 0.09127204 0.07392733 0.13370529 -0.053216033 0.045806058 -0.028525023 0.025492808
-0.047623426 -0.06843393 0.011745456 -0.1430831 0.03107973 0.0058192317 0.20425089 0.14400816
0.16718116 0.18338327 0.0029103733 0.13227391 0.2197771 0.039133113 0.013457511 0.24157512
0.09726358 -0.18867157 0.05146521 -0.0718316 0.010877494 -0.03473348 -0.18898538 -0.0807356
-0.0709476 0.06438465 0.091426 0.089984134 -0.066048205 -0.05432839 0.014239452 -0.10759211
0.10596566 0.041691124 -0.07504398 -0.029098868 0.101973385 0.004522958 0.091742516 0.09991914
0.08265596 -0.065999776 -0.120300405 -0.050943986 0.17315601 0.040369388 -0.0210386 -0.13196288

conv2.bias f4 [12]
00000000: 9b9f 713e ee30 8abe decd c7bd 0b2f 62be
00000010: a66b af3d c4e3 4bbe 80db 91be 230e 49be
00000020: 7ccb 28be 9d8d 883c 6b9a 113e d717 893d
0.23596041 -0.26990455 -0.09756063 -0.22088258 0.08565454 -0.19911104 -0.28487778 -0.19634299
-0.16483873 0.016669089 0.14219062 0.06694

conv3.weight f4 [12, 12, 3, 3]
00000000: c963 c63d 703c b73c cdd1 42be 5f68 09be
00000010: f17e 843d 4dc2 c73e 4d48 ca3d 2e0b eebb
00000020: 34f8 e6bc 5c76 3a3d 8fd1 52be 7a30 d6bd
00000030: f320 653c b698 ef3d 4822 8d3d e1bb 7d3c
00000040: 5500 5bbb 59b6 923c 699f a33d 7cd6 f4bd
00000050: afae 64be 8ccf ea3d ca09 743d d5a3 2fbd
00000060: 02f1 babd 5f4b 0fbe 7d14 66bc ee64 0ebc
00000070: 3042 da3c 626f 60bd b88c 873d 2c0b c23d
00000080: 8488 893e 482e 853e 78be 9e3d 4e62 50bd
00000090: 9db6 363e 8c78 97bd b449 bbbc 1e7f 033e
000000a0: dfc7 a83d 49ec 08be aaf1 263d aecc 0cbd
000000b0: a18a ae3c ac27 68be b428 523c a817 e9be
000000c0: 6b38 cd3d 2d3a 073d aaaf 9ebd f91f cbbd
000000d0: 4abc 953d f2b9 a73e 08fc 3b3e 3b92 f9bb
000000e0: c549 9f3c 2feb 24bd f169 03bd 41ba 3e3e
000000f0: 0bca c13d 5db4 f0bc 2fd4 3fbe 184c 23be
00000100: 333f b8be d44e 99be 577f 163c 237a 263d
00000110: 597a a73d 382d 31bd bec0 b8bd 461b 573d
00000120: a90e e43b a527 b83e 9d2b ff3e 30d2 133d
00000130: faa0 5c3d 105e ec3d 4f4b 853e 3a9a a0bd
00000140: 4395 27be a1d9 8d3d ef70 11be 05ff aabe
00000150: 6358 83bc 7623 2cbd 2430 78be 04ae 23be
00000160: b856 213d a4c2 2b3d 0af6 a6bc 3b37 2b3e
00000170: d5be ad3e 5ac7 f6bd 87ac 79be 512f 78bd
00000180: b787 653d e040 c83b 7607 5d3e ea28 3a3e
00000190: 9f68 cebc c6b5 eabd 4309 2fbd 3899 6e3d
000001a0: cf9d 8d3d 81a1 9f3d f986 2cbe 4bae 56be
000001b0: 6b10 3dbc c8d8 b53c e7b3 eabd 88fb b83c
000001c0: 4eb2 ff3b 6752 9abd 26a5 ecbc 1f16 43be
000001d0: c30e 35bc f29e bf3d 39b6 e8bd 443c 603c
000001e0: 9a77 07bc 91a7 d7bc 7f7a e03d ad69 70bd
000001f0: d827 8fbd 4f59 55bd 49b5 fe3d 36ad 30be
00000200: 01ce d53d 6413 943d aec6 e0bc 6306 1ebd
00000210: 8492 503d ab0f 063d 2d9c 25bd 3ac8 6a3e
00000220: 44bc 823d 21de bc3d defa 40be a61f 93be
00000230: 6c5c a03d bc02 7ebc 3114 0dbe 3ecf 10bd
00000240: b372 713d a19b ffbd 2e53 793d b979 2c3e
00000250: 7fb1 833d 8fb6 233e 5c0f ae3d a1a2 1d3d
00000260: 0925 3ebd faee 323d 5868 de3b c761 483e
00000270: 83d0 3b3d dc4d 613a 4440 103b a5e1 d23d
00000280: 69c6 5f3e ea04 9d3e c586 5d3c 5e40 7bbe
00000290: 46e8 2ebe 7ac5 aa3d d965 723d fed3 3d3e
000002a0: 691b eb3d 0af0 c43d 6372 c1bc f4b0 3e3e
000002b0: 0c68 04be 724b dabd 2904 0c3c a84a 92bd
000002c0: 3bcf 013e 5c08 acbc be42 f0bd 4340 563d
000002d0: c3b1 0c3d 7f49 063e 01b7 09bd 0e16 23be
000002e0: b571 39be 83f2 4e3e fd82 e3bd 254f 3d3e
000002f0: 75c3 843d 2ecc 1e3d 7b31 e1bd fea4 553d
00000300: 8439 ba3d af68 21bd f845 a3bd 3e13 173d
00000310: d637 923d f116 a5bd 1d26 89bc b9bc 513e
00000320: 6d5e cebd f15e 90be 6990 2fbd cefa 0c3e
00000330: f379 463d dcf0 b23d ccd9 77be 58e9 4e3d
00000340: 43b6 b4bd 3ed4 1bbe eb3f ef3c 4d79 813d
00000350: c25c c5bb bdca eb3d 4da6 c63d 1ae0 c0bb
00000360: e8eb d1bd 9a50 d5bc d431 5abd 9b4f cbbd
00000370: 645a a9bd 2edc 8e3c 1181 6a3d b8a9 e9ba
00000380: 7939 363d 3cba c3bd 2d19 eabd 1d94 66bd
00000390: aad4 d4bc 9a40 833c 803d 313d a610 9dbc
000003a0: 20ec 723d babb acbd 5cf4 a13c e835 d7bd
000003b0: 1e38 65bd 0460 97bd 3671 d73c 3c2e 02bd
000003c0: e47c d2bd 61ca 82bd ca1f 933c ba4b 8b3d
000003d0: 52c8 023c ecf3 babd ccaa f6bd 6778 cabd
000003e0: ee40 cebd e890 d0bb b41b bcbd f39f f93c
000003f0: 9c81 81ba 956d abbd 510a b2bd f10a 513d
0.09687001 0.022367686 -0.19025345 -0.1341872 0.06469525 0.39015427 0.098770715 -0.0072645163
-0.028194524 0.045523033 -0.20587753 -0.10458465 0.0139849065 0.11699049 0.06891304 0.015486688
-0.0033416946 0.017909216 0.079893894 -0.11954972 -0.22332262 0.11465368 0.059579648 -0.04288085
-0.09128 -0.13993596 -0.014042971 -0.008691056 0.026642889 -0.054793723 0.06618637 0.09474787
0.26861966 0.26011872 0.07751173 -0.050875 0.17843099 -0.07396039 -0.022862293 0.1284146
0.082412474 -0.13371386 0.040757813 -0.034374885 0.021306338 -0.22671384 0.012827087 -0.4552586
0.100205265 0.033014465 -0.07748349 -0.09918208 0.07311304 0.32759053 0.18357861 -0.007616309
0.019444356 -0.04026335 -0.032083455 0.18625738 0.09462365 -0.029382879 -0.18733285 -0.15946996
-0.35985717 -0.29942954 0.009185634 0.040643822 0.08177633 -0.043256015 -0.09021138 0.052516244
0.0069597554 0.35967746 0.49837962 0.036089122 0.053864457 0.115413785 0.26034018 -0.078419164
-0.16365533 0.06926275 -0.14203237 -0.3339769 -0.016033357 -0.042026006 -0.24237114 -0.1598435
0.039389342 0.04193367 -0.020380992 0.16720288 0.33934656 -0.12049742 -0.2438222 -0.060592
0.05603763 0.0061112493 0.21584877 0.1817967 -0.025196372 -0.11460452 -0.042733442 0.05825159
0.06914865 0.07794476 -0.16848363 -0.20964925 -0.011539559 0.022198096 -0.11460095 0.022580877
0.007803238 -0.07535248 -0.028887343 -0.19051407 -0.011050883 0.09356488 -0.11362881 0.013686243
-0.008268261 -0.02632502 0.10960864 -0.05869453 -0.069900215 -0.052087124 0.12436921 -0.17253575
0.10439683 0.07230261 -0.027438488 -0.03858031 0.05092098 0.032729786 -0.040432144 0.22927943
0.06383565 0.09222055 -0.18845698 -0.28735083 0.07830128 -0.015503582 -0.13777234 -0.03535389
0.058947276 -0.12480856 0.060870342 0.16843309 0.06430339 0.1598761 0.08499023 0.038485173
-0.04642204 0.043684937 0.006787341 0.19568549 0.04585315 0.0008594671 0.0022010962 0.102969445
0.21853031 0.30667812 0.013520901 -0.24536273 -0.17080793 0.08338447 0.05917916 0.185379
0.114798374 0.09616096 -0.023614114 0.1862219 -0.12930316 -0.10658921 0.008545914 -0.07143146
0.12676708 -0.02100008 -0.1173148 0.05230738 0.034349214 0.13113974 -0.03362179 -0.15926382
-0.18109782 0.20209698 -0.111089684 0.18487222 0.06482593 0.03876894 -0.10995766 0.052159302
0.090930015 -0.039406475 -0.0797233 0.036883585 0.07139556 -0.08061016 -0.016741807 0.20482148
-0.10076604 -0.28197435 -0.04286233 0.1376755 0.048456144 0.087373465 -0.24204177 0.050515503
-0.08823826 -0.15217683 0.029205283 0.063219644 -0.0060230205 0.11513279 0.09699688 -0.00588609
-0.10250074 -0.02603941 -0.053270176 -0.09927293 -0.08269194 0.017438974 0.057251994 -0.0017827069
0.044488404 -0.09557006 -0.11430583 -0.056293596 -0.025980312 0.016022015 0.04327154 -0.019172978
0.059307218 -0.084342435 0.01976984 -0.10508329 -0.05596172 -0.073913604 0.0262991 -0.031782374
-0.10277727 -0.06386257 0.017959494 0.06801553 0.00798233 -0.09128556 -0.12044296 -0.09886246
-0.10070978 -0.0063649304 -0.091849715 0.030471778 -0.0009880546 -0.083705105 -0.08693374 0.051035825

conv3.bias f4 [12]
00000000: 73da 93bd 29e7 ac3d 3842 08be 5ae8 d63d
00000010: b2bd bfbc 215e 233e 5252 0abe f881 ff3d
00000020: 0a47 5fbd 0b2b b13d 1abd c03d dc76 a23d
-0.072194 0.08442528 -0.1330651 0.10493536 -0.023405883 0.15953876 -0.13507965 0.124759614
-0.054511108 0.08650788 0.09411068 0.07932827

fc1.weight f4 [24, 588]
00000000: 5077 0c3d b7bd a4ba 5fdc 7b3c 0c9b c5bc
00000010: b4b3 38bc b1ec 2abd b5ed 1fbd d617 ccbb
00000020: 4f9c 96bc 3d83 f33c 0680 af3b f018 61ba
00000030: 203b e63c 3159 c13c 38d1 e63c b1df f4bc
00000040: d289 62bb 63c0 663c 99ad 1bbd 447e a03c
00000050: 2fe8 a7bb 2a44 b7bc 4f58 72bc 267b 813c
00000060: 9ed0 36bc a03f 0dbc e999 353c 4eb4 33bd
00000070: 0067 c9bc 4680 97bb 55bf 57bc aea5 e7bc
00000080: ca86 87bb aa00 f5bc 5377 be3c 620b 063c
00000090: e185 0dbd 3e34 3bbd 2bc4 fbbc 8a62 37bd
000000a0: 0b02 21bd d9ab d7bc d838 fc3b fb79 c93c
000000b0: ee41 72bb 2c3a 743c ea07 753a 14e7 89bb
000000c0: 1c3f 1ebb d270 b3bc 34b1 d93c 97a4 253b
000000d0: 120a a93c 9b5b 28bd da38 8cbc b4c1 953c
000000e0: 7ccc e5bc 422e 17bd 99d9 363c 899f 893b
000000f0: 401f 36bc cbcf e5bc 5a17 23bd 3bc3 0cbd
00000100: 1dd3 36bc 68c7 3a3c d48d 0ebb eee7 183c
00000110: 2936 dbbc a452 3fbd fd26 1d3a ec95 913c
00000120: dca3 053d a11a 13bd b2d5 cc3c a116 873c
00000130: 7cbf a5bc 06d2 02bb c8d0 aa3a c21c 62bc
00000140: 739d b13b 3643 e73c 8a0d da3b 8a74 513b
00000150: d1cc 4abd b82d 30bb bf4f 0bbc 936a b2bc
00000160: 51b7 1bbd 128c cdbc d57d 543c 41fc ff3c
00000170: 3aa1 ff3c 6108 a93c e54b 763c 615b 30bc
00000180: d817 a2bc 894e fbbc 4f93 bfbc 6077 073d
00000190: c8a9 cc3c 085a 053d 0b5b df3c 58ab 8c3a
000001a0: f0ce 123b 8084 10bb 48ac a3bc 248c 32bc
000001b0: d0b7 bebc 02c2 0cbd 805f eebc 6074 0c3b
000001c0: 3ae0 243d ce68 3abc 5945 19bd 82c2 133d
000001d0: 9080 ab3c 908d ebbb b477 27bc eeb5 a33c
000001e0: 249d 26bd 8505 f93c dd69 26bd 9669 a43c
000001f0: 6238 023d 8ed6 27bc 9c9e 01bc 92f8 fabc
00000200: 322a a53c 04a8 bc3c ccd9 f43c f63d 873c
00000210: 9ca0 423c 6037 523b 4cdf f0bc e02f c63a
00000220: 1052 173d 543d 4e3c 7678 62bc 88fa f5bc
00000230: 6815 e43b ea9f 1c3d 8082 8ab9 e87b bd3b
00000240: a4d2 d13c 0650 2bbc dc7d b13c 2de7 013c
00000250: 2a78 b8bb 0afb 32bd c935 1fbd 8bc5 093c
00000260: ab06 973c 1372 de3c a016 debc ad7a 513b
00000270: 3790 fa3c 970d a33c ffbb 033d 9a5f f1bc
00000280: 9c04 1cbd dc52 00bd 4190 a0bc 4f64 bfbc
00000290: 0e8c 013d 6307 203c 9be9 c73c acb7 a1bc
000002a0: 05ee 803a b374 f63b 9be0 683b 8e00 c1bc
000002b0: 5031 ee3c afc1 ef3b 9e14 d0bc fb26 043c
000002c0: 06c1 fe3c 7044 02bd 1b64 10bd 90e2 3abd
000002d0: 78d0 2cbd eebb 0d3c eb47 023d b8c0 38bc
000002e0: 6bc2 c6bc 56cd 29bb 3318 1bbd cd19 ae3c
000002f0: 075f c33c 536d 08bd 692a dbbb 1482 ebbc
00000300: b3c7 08bd f32a 893c 034e c8bc f9a8 4bbd
00000310: 6ef6 74bc 9c13 debc 5402 08bc b4d6 07bd
00000320: 64bb b73c 56bf 95bc 59b8 c4bc 225e 87bc
00000330: 5c06 11bd 20cb ec3c bf47 b93c 298c 0c3d
00000340: cb46 013d c473 173d 338c 19bd a6d5 0e3d
00000350: 4267 7ebc 310b e6bc 8b12 1bbd e4bb c8bc
00000360: e6f6 b0bc 6895 b3bb c0d7 0dbd cb46 d93b
00000370: e918 eb3c 739b 0ebd fc2f a43c 5892 183a
00000380: 8088 dabb c8be c53b e676 d2bb b4ed 4b3b
00000390: 6058 cabc 295c 82bc c827 cbbc 5481 fa3c
000003a0: 04f6 0bbd 7812 563b 0736 acbc 3ad3 5cbc
000003b0: 8c3d 22bd b7b5 81bc 7884 2a3c cf52 4c3a
000003c0: 7f58 c53c bd09 79bb 539e b9bc af44 ccbc
000003d0: d4b5 303c 1036 25bd 9cf5 73bc e339 01bd
000003e0: fd08 093c a4b5 973c fa31 a83c 04c6 033c
000003f0: c3e5 1cbd 9b35 14bd 75f9 f63a 8d34 9a3c
0.034293473 -0.0012568746 0.015372365 -0.024121784 -0.011273313 -0.041729633 -0.039045054 -0.0062284274
-0.01838508 0.029725665 0.0053558378 -0.0008586785 0.028104365 0.0236021 0.028175935 -0.02989182
-0.003456701 0.0140839545 -0.038007353 0.019591458 -0.005124114 -0.02237137 -0.014791562 0.015805792
-0.011158137 -0.008621126 0.011084058 -0.043873124 -0.024585247 -0.0046234457 -0.013168176 -0.028277244
-0.004135941 -0.029907543 0.023250258 0.008181425 -0.034551505 -0.04570412 -0.030733189 -0.04477171
-0.03930859 -0.02632706 0.007697206 0.024594298 -0.0036965567 0.014906447 0.00093471876 -0.004208455
-0.0024146503 -0.021904383 0.026573755 0.0025275105 0.020634685 -0.041102987 -0.017116953 0.018280841
-0.028051607 -0.03690935 0.011160278 0.0041999263 -0.011115849 -0.028053185 -0.03981719 -0.034365874
-0.011158732 0.011400081 -0.0021752017 0.00933264 -0.026759224 -0.04670967 0.00059948844 0.017771684
0.03262697 -0.035914067 0.025004242 0.016490282 -0.020232908 -0.001996161 0.0013032192 -0.013800802
0.0054203807 0.02823029 0.006654446 0.0031960332 -0.049511734 -0.002688272 -0.0085029 -0.021779334
-0.03801662 -0.025091205 0.012969454 0.031248214 0.031204809 0.020633878 0.015032743 -0.010763974
-0.01978676 -0.030677097 -0.023385672 0.03307283 0.024983302 0.032556564 0.027265092 0.0010732217
0.0022401176 -0.0022051632 -0.019979611 -0.01089767 -0.023281008 -0.034364708 -0.029098272 0.002143167
0.0402529 -0.011377526 -0.03741965 0.03607417 0.020935327 -0.0071885064 -0.010221411 0.019984212
-0.040677205 0.03039814 -0.040628303 0.020069879 0.031792052 -0.010244025 -0.007911351 -0.030636106
0.020161722 0.023029335 0.02988901 0.016509037 0.011879113 0.0032076463 -0.029403351 0.0015120469
0.036943495 0.012587864 -0.013822665 -0.03002669 0.0069605596 0.038238443 -0.0002641864 0.005782593
0.025613137 -0.010456091 0.02166646 0.007928652 -0.005629559 -0.04369644 -0.038869653 0.008408914
0.018435797 0.027154004 -0.027110398 0.003196399 0.030586345 0.019903941 0.03216171 -0.029464532
-0.038090333 -0.03132902 -0.019600036 -0.02336326 0.031627707 0.009767386 0.024403384 -0.019740902
0.000983656 0.007521236 0.0035534266 -0.023559835 0.029076248 0.00731679 -0.025400456 0.008065934
0.0310979 -0.03180355 -0.035251718 -0.045626223 -0.042191 0.008650763 0.031806868 -0.0112764165
-0.024262628 -0.0025909743 -0.037864875 0.021252537 0.023849024 -0.033307385 -0.0066884053 -0.02874855
-0.033393573 0.016744113 -0.024451261 -0.04972169 -0.014951332 -0.02710896 -0.008301336 -0.03316374
0.022428222 -0.018279713 -0.024013685 -0.016524378 -0.035406455 0.028905451 0.022617219 0.034313355
0.031561654 0.036975637 -0.03748722 0.03487172 -0.015527548 -0.028081508 -0.03785948 -0.024503656
-0.021602105 -0.005480457 -0.034629583 0.0066307536 0.028698402 -0.034816217 0.020042412 0.0005820147
-0.006669104 0.006034706 -0.006422865 0.0031117024 -0.024700344 -0.015913086 -0.024799243 0.030579247
-0.034170166 0.0032664817 -0.021021856 -0.013478095 -0.039609477 -0.015833719 0.01040756 0.0007794322
0.02409005 -0.003800019 -0.022658503 -0.024935095 0.010785539 -0.04033476 -0.014890101 -0.031549346
0.008363959 0.01851923 0.020531643 0.008042816 -0.038305055 -0.036183935 0.0018842655 0.018823886

fc1.bias f4 [24]
00000000: c207 75bc c31c eb3c 437f 2fbd d6e9 a3bc
00000010: 61e6 cd3c e759 e93c 3b98 033d 2067 343e
00000020: a3d9 c5bd 16b5 ef3c 338c 973d 2bab 9a3c
00000030: e3ef 393d b95d 93bc 11b0 273b 3f8e 463e
00000040: f7bd 073c 8d61 8f3c 1928 e5bc 8608 33bd
00000050: 40a2 203e a0fb f2bc 9cfb c3bb 9284 903d
-0.014955463 0.028700238 -0.042845976 -0.020008963 0.025134267 0.028485252 0.0321276 0.17617464
-0.096606515 0.029261153 0.07399788 0.018880447 0.04539479 -0.017989026 0.0025587121 0.193902
0.008285037 0.01750257 -0.027973222 -0.0437093 0.15686893 -0.029661 -0.005980922 0.07056536

fc2.weight f4 [588, 24]
00000000: 9ed7 4ebe 40ed d23d 6003 513c ad14 efbd
00000010: e002 05bc 60a2 e93d 5e41 43be 2a51 513d
00000020: 3772 2a3e e876 debc 76b8 b83d a44e 9a3d
00000030: 9120 62be 8489 9d3d 2348 093e 5e9c f53d
00000040: 48b7 b5bd 2f8e ca3d c09c ec3d 593b ffbd
00000050: 6ad2 23bd d83f a73d f85f 593d 46f0 09be
00000060: 8878 553e a0a7 d1bd b503 f83d f89d 753d
00000070: 35b7 9abb 2274 d2bc f4de 953d 5483 893d
00000080: 97b4 f4bd 4630 453c 3980 3b3e b659 983d
00000090: 5017 8c3c 9eb2 ce3c 30d1 cf3d 0dd4 99bd
000000a0: 68f5 783d d028 113e 94e5 d33d 6bea f83d
000000b0: c6da 2abd b167 93bd bd7e 20be 5e8d d5bd
000000c0: 1435 22bd 008c 483a ecd1 01be dc73 9ebd
000000d0: 36f8 273e 57d9 cebd 4f70 a93d 4229 0ebe
000000e0: 5323 bf3d a1e1 31be 75dd 4bbe bcbd b33d
000000f0: 051b df3d 5ec6 203e 293e 933d 23a5 173b
00000100: d65d 083e 0e1b ec3c 2049 b6bc 8438 f43d
00000110: d2e4 7ebd 9256 15be d2d8 1abe 0f2b 1bbe
00000120: d8d0 aabd 688e 253e f6d4 e43d 97aa abbd
00000130: df85 2b3e 4a13 14bd 33e5 de3d a075 4e3e
00000140: 4a4a ca3c 59c9 ba3d f43b 20be 4b06 713d
00000150: bf83 98bd 4f5c 193d b132 05bd b502 27bc
00000160: 3aa9 dc3d 8fcc 1cbe b1d4 9fbd 279c 253d
00000170: 2499 18be a191 30be c0ac 313e 2c56 2bbe
00000180: b6cd 2abd 8c3f 01be 743b b03d a842 55bd
00000190: b185 1fbd e9a0 11be 6c07 6b3d e34d 67bd
000001a0: ba0d 08be a076 a63d daf9 a7bd f3a1 86bd
000001b0: d06d 593c ea1a 7b3d 4727 0d3e 2d9f 95bc
000001c0: 130b b4bd eac9 503d 86c6 123e 1211 493e
000001d0: 6925 c23d 4fc0 af3d 9a12 03be 8d8c 60bd
000001e0: 89fa 0c3e 9966 58bc d005 c93c 90cc 72bd
000001f0: 0fc8 423e 964a f23d f60e 883c f7b4 c83d
00000200: 4640 8abd 2ca5 c9bd 8dff 47be 7d8d 1bbe
00000210: d45e ae3d cceb 69bd e4e9 09be fd94 fdbd
00000220: d461 ccbb 80d5 aa3d aba3 3d3c ecd1 d9bd
00000230: 140b 9cbd 5f63 a03c c645 a13d 9699 92bd
00000240: c743 33be d1e2 3dbd 48c3 203e b32f d7bd
00000250: 1936 013e 7e48 c93d d804 e6bd da11 8abd
00000260: 59b3 0a3e b40c 52bd a686 03be 2982 efbd
00000270: 864d 873d 5ff1 8fbd ff66 7c3e 29a9 873e
00000280: 9d93 2dbe 42c4 aabd 1238 203e 2a6d 22be
00000290: df26 003e ca2a 24be da22 123e 2562 0d3e
000002a0: b870 2cbe d430 36bc b828 02be 28f0 743d
000002b0: ada3 07bd 54ce 003e 37d8 813d 82c4 ac3d
000002c0: 1a1f 0cbc c9e7 4cbe dfce 2dbe 5a65 2abe
000002d0: 8398 b2bd 370f 3f3e 30a3 623d 3c4c 3abe
000002e0: 404d 2c3c fdb5 00be e0cd 3bbc e032 9b3c
000002f0: 8d10 cc3d a2e3 283e 6f08 c4bd bc73 02be
00000300: 302c e83b 85ac 053d 7c84 cbbb 9188 18be
00000310: 0076 233a 10a1 36be c272 32be 233b 3e3d
00000320: 8cd5 aabd 2f51 37be 5ba9 333e b32a c3bc
00000330: 786f cbbd 5fcf 06be ebf6 5b3e 17df 213e
00000340: 5250 763a 8fea 22bd 793e b6bd 8a4c 10be
00000350: f92b 0fba 6557 2f3c f2f3 903d be83 403e
00000360: 60c2 903d d650 083e 66a7 82bd 5c74 24be
00000370: 30db 9d3d 40eb 47bc 83ce 813d 2558 c03d
00000380: cf1a a93e b456 20be d5b6 48be 80fd 3c3b
00000390: 0a78 bb3e 98e1 ad3d 7afe 803a 9233 e1bd
000003a0: 0068 0dba 603c 6dbe fc29 4b3e 2555 413e
000003b0: 87ed 593d c24e 88bd f8b1 3a3e 7e05 6a3c
000003c0: 1a1a 153e 2069 eb3d 0004 e23c 380b 923d
000003d0: a8db 3f3d b07e 35be e6e3 5dbe 7855 8bbe
000003e0: b919 0cbf 9b5a 09be 26b8 04bd b619 323e
000003f0: e354 15bf 60b7 a73c e8ca f03e d087 f13d
-0.20199439 0.10299158 0.012757152 -0.116738655 -0.008118361 0.11407924 -0.19067904 0.051102795
0.16645132 -0.027156308 0.09019558 0.07534531 -0.22082736 0.07692245 0.13406424 0.11992715
-0.08872849 0.098904006 0.11553335 -0.124624915 -0.03999559 0.08166474 0.05307004 -0.13470563
0.2084676 -0.1023705 0.12110082 0.059965104 -0.004721547 -0.025690142 0.073179156 0.06714502
-0.11948507 0.012035435 0.18310632 0.07438986 0.01710096 0.025231656 0.10147321 -0.075111486
0.060780913 0.14175725 0.10346523 0.12154087 -0.041712545 -0.07197512 -0.15673347 -0.10427354
-0.0396014 0.0007650256 -0.12677735 -0.07736942 0.16403279 -0.10100048 0.08273374 -0.13882926
0.093329094 -0.17371227 -0.19908698 0.08776423 0.108938254 0.15700671 0.071895905 0.00231392
0.13317046 0.028821494 -0.022251666 0.11924842 -0.06222994 -0.14583805 -0.15121773 -0.15153144
-0.08340615 0.16167605 0.111734316 -0.08382147 0.16750287 -0.036151208 0.1088356 0.20162058
0.024693627 0.09120435 -0.1564787 0.058843892 -0.074470036 0.037441548 -0.032519046 -0.0101935165
0.10774465 -0.15312408 -0.078042395 0.04043212 -0.14902169 -0.17243053 0.17351055 -0.1673209
-0.041700087 -0.12621897 0.0860509 -0.05206552 -0.038945857 -0.14221539 0.057380125 -0.056470763
-0.13286486 0.08128095 -0.08201952 -0.06573858 0.01327081 0.061304964 0.13784514 -0.018264377
-0.08791175 0.05097381 0.14333543 0.19635418 0.09479792 0.08581602 -0.12800065 -0.05482154
0.13767447 -0.013208055 0.024538904 -0.059277117 0.19021629 0.118306324 0.016608696 0.09800141
-0.067505404 -0.09845957 -0.19531079 -0.15190692 0.08514181 -0.05710964 -0.13468128 -0.12381933
-0.006237248 0.08341503 0.011574666 -0.106357425 -0.076193005 0.019578634 0.07874636 -0.071582004
-0.17506324 -0.046358887 0.15699494 -0.10507145 0.12618293 0.0982828 -0.112313926 -0.06741686
0.13544978 -0.051281646 -0.12844333 -0.11694748 0.06606583 -0.0702846 0.24648665 0.26496246
-0.16950841 -0.083382145 0.15646389 -0.15861955 0.12514828 -0.16031948 0.14271107 0.1380697
-0.16839874 -0.01112004 -0.12710845 0.059799343 -0.033115078 0.12578708 0.06340068 0.084359184
-0.008552337 -0.20010294 -0.16973446 -0.16640225 -0.087204956 0.18658148 0.05533141 -0.18193144
0.010516465 -0.12569423 -0.011462659 0.018945158 0.09964094 0.16493085 -0.09571921 -0.12739462
0.0070853457 0.03263523 -0.0062108617 -0.14895846 0.000623554 -0.17834878 -0.17426589 0.046443116
-0.08341512 -0.17902063 0.17545073 -0.023824072 -0.0993337 -0.13165043 0.2148091 0.15807758
0.0009396124 -0.039774474 -0.088986345 -0.14091697 -0.00054615695 0.010701989 0.07077779 0.18800256
0.07068324 0.13312086 -0.06379585 -0.16060013 0.07707822 -0.012202084 0.06338217 0.09391812
0.33028266 -0.15658075 -0.19600995 0.0028837621 0.3661502 0.08490294 0.0009841465 -0.109961644
-0.00053942204 -0.23167562 0.19840235 0.18880136 0.05320504 -0.06655647 0.18231952 0.014283536
0.14560738 0.114946604 0.027589798 0.07131046 0.04684034 -0.17724109 -0.21668968 -0.27213645
-0.5472675 -0.1341347 -0.03240218 0.1739262 -0.5833265 0.020473182 0.47029805 0.11793482

fc2.bias f4 [588]
00000000: 85c4 1ebe c8c9 e63b 9540 f4bd f618 a03d
00000010: 320e 993d cbfe 753c 8fe0 3a3e 3b42 613d
00000020: e287 483e 6608 10c0 4c45 b63f 2856 553f
00000030: 27cc 4d3f 57ec 743d d576 39be 3344 d83c
00000040: d204 7f3f a37a 813f aeba a3bd ce96 1dbf
00000050: 2802 cc3d 5e2a 403e 6892 f13e 92d2 343f
00000060: 63a2 5bbf 51bb 7b3f cf24 b63c 51c3 6f3e
00000070: e3d7 f73d 6d60 5c3f 0e12 b5bd d877 21bf
00000080: f2c1 4fbe 9de6 6f3e 43d0 29bd 0931 2f3e
00000090: cbe9 7e3d 6c52 92bf 7b0d 1dbd 2b61 ab3f
000000a0: 2a83 c2bc 1468 49bd 0981 1b3e 9185 193e
000000b0: 86ce df3d 4518 44be 940e 2dbd 4fdc 34be
000000c0: 8c76 613d c6f0 6e3d 4f6f 2cbd e427 3abe
000000d0: 86df 16bd 6674 8e3d 6433 08be c075 073d
000000e0: 2503 603e 1c48 09bd ccc6 12be b7f4 f93f
000000f0: cf9f 71bd ef78 b1bf e747 e6bc 2a13 7a3c
00000100: 7709 6a3f 9c8f 3fbe b27d bf3f bc10 b73f
00000110: 7228 83bd abb2 a8bb 2eb6 0bba 489b ebbd
00000120: e5dd 5d3c afa4 4ebf 5d77 61bd d5f6 13bf
00000130: 11a4 263e 6a33 213e 5050 6abd b2e1 02be
00000140: a345 90be fcea a83e e097 68be 3d97 0fbd
00000150: f78d 213e 3ec3 8e3d cd9d 873e 5d0d 45bf
00000160: db61 093e 7d20 ee3d e3ad 1f3e 21bd 123e
00000170: 77a9 8dbc 9720 0c40 e9f8 503d d1af 283c
00000180: 6921 4abe 23a1 673e 9edd f23d 49f2 02be
00000190: 6e7a 903d fd90 9fbb a675 cbbd d2e8 0c3e
000001a0: 72ce 8bbd 6598 313e de12 0fbe 7aa9 c7bd
000001b0: 7e60 573f d5a9 36bd fefd 41bf 23fe e1bd
000001c0: 0442 473c b761 3c3f 422b e3bf 40b1 2b40
000001d0: 8c66 58bf 8733 893d 32d1 903d 79d7 353e
000001e0: 648c 01be 97cf 453f 9acd 8dba b7a0 ed3f
000001f0: 6c51 ddbd 82f1 38bd 4dcf bfbd 3a20 993c
00000200: 8fa9 833f 6df2 bf3d 30a9 87be 27b5 613f
00000210: 3533 c93d 40af 82bd 04e8 1abe 86d4 a9be
00000220: 96e2 6ebe 605b 2340 044e b7bc 2f9e 4c3e
00000230: 0f2c 10be be8c 9abd a5d0 813f 9b6d 263e
00000240: 4965 0c3d 5102 14be 255d 99ba de59 4bbd
00000250: 892b 3b3d 9699 5bbd 2b5c febd 3c25 363e
00000260: 87e3 963d 3a48 3c3e 04ca d2bb 62c5 29be
00000270: 31f5 a8bf 5cfb 92bd eba3 32bf d312 afbd
00000280: 32c1 133d 4d84 5e3d 2fae 12bf 890f 3dbf
00000290: 77b3 74be d54b 44be 3716 60be 0d35 ba3d
000002a0: 428f 00be f999 52bd a555 02bb 219b 32be
000002b0: 9265 143f 713e b03e 6a61 3dbd 7290 f9bc
000002c0: 544f 04be a621 ea3f 2f42 d1be 1836 74be
000002d0: d18a 063f c814 e23d 6909 603d 7c80 cdbd
000002e0: fa19 d03f 52c9 1dbf 473c 68bf b37f 7abe
000002f0: 6da6 28be 1a28 4c3d e4d7 10be 2786 ac3f
00000300: cf1d a23d a334 8f3d ae9b a23d edce 34be
00000310: 4db2 09be 9b38 b63d 38de a7bb be27 853d
00000320: 697d ccbd 58f5 93bd 3d68 ac3c faf9 44bd
00000330: 0709 92bd ac18 39bf 3c77 bc3f 2af7 9a3e
00000340: 866c 853f 1c25 a3bd 6c25 a2bd c13b 10bf
00000350: 5657 1ebd 2d8d 0dc0 9a47 8ebe 9241 a33f
00000360: a224 debd 137e 67bc 1092 1840 4c2c a33d
00000370: 4c3f 0d3e 2b9d 423f 707f 973f 1477 383e
00000380: d7b5 513e 5f3f 443f b34f b43d dbe3 00be
00000390: 8c36 343f 0300 e6be ddcb 4dbe 8eb0 a23d
000003a0: e1e2 1a3e 8d3e 73bf daa8 8bbd 7856 01c0
000003b0: abff 36be b145 313e 66ab d8bd 30a5 0bbe
000003c0: 5cfa 04be ea89 8b3d 06cc 44be 030c 10be
000003d0: 35e1 133d 02b2 fb3d ba1c 1dbe a027 663c
000003e0: 8735 86bd aaf0 86bd e01a 40be 43fa 9e3d
000003f0: 66f2 0cbe 1167 103e cdd8 44be 3223 06be
-0.15504654 0.007043097 -0.119263805 0.07817261 0.07473411 0.015014361 0.18249725 0.054994803
0.19583085 -2.2505126 1.4239898 0.8333459 0.80389637 0.059795704 -0.18111737 0.026399707
0.9961673 1.0115551 -0.07994591 -0.61558235 0.09961349 0.18766162 0.47182012 0.70633805
-0.8579466 0.983327 0.022234349 0.23414351 0.12101724 0.86084634 -0.08841334 -0.6307349
-0.20288828 0.23427816 -0.04145838 0.17108549 0.06223468 -1.1431403 -0.038342934 1.3389028
-0.023744185 -0.049171522 0.15185942 0.14992358 0.10928063 -0.19149883 -0.04225023 -0.17662166
0.055044696 0.05833509 -0.04209834 -0.1817928 -0.036834262 0.06955795 -0.13300854 0.03307128
0.218762 -0.033516034 -0.14333647 1.9527806 -0.058990296 -1.3865031 -0.028110458 0.015263358
0.9142069 -0.18707126 1.4960234 1.4301982 -0.06404199 -0.005148252 -0.0005329576 -0.11504227
0.013541673 -0.8072004 -0.055045474 -0.5779851 0.16273524 0.15742269 -0.0572055 -0.12781408
-0.2817813 0.3299178 -0.22714186 -0.03505634 0.15776812 0.06970833 0.2648758 -0.76973516
0.13416235 0.116272904 0.15593676 0.1432996 -0.017292721 2.1894891 0.05101863 0.010295824
-0.19739307 0.22620063 0.118586764 -0.12787737 0.070546016 -0.004869579 -0.09934549 0.13760689
-0.06826486 0.1734329 -0.13972041 -0.09749122 0.8413161 -0.04459556 -0.75778186 -0.11034801
0.012161735 0.735866 -1.7747576 2.6826935 -0.84531474 0.06699281 0.07071151 0.17757978
-0.12651211 0.7726988 -0.001081872 1.8564671 -0.108065456 -0.045152195 -0.09365711 0.018692125
1.028612 0.09372411 -0.26496267 0.8816704 0.0982422 -0.063810825 -0.1512757 -0.33169955
-0.23328623 2.552452 -0.022376068 0.19982217 -0.14079307 -0.07546376 1.0141798 0.16252749
0.03427628 -0.14454009 -0.0011700733 -0.04964625 0.045695815 -0.053613268 -0.124199234 0.17787641
0.07367616 0.18386927 -0.0064327735 -0.16579202 -1.3199826 -0.07176849 -0.6978137 -0.08548512
0.036072917 0.05432539 -0.57297033 -0.7385183 -0.23896585 -0.19169553 -0.21883474 0.0909215
-0.12554649 -0.05141637 -0.0019887474 -0.1744199 0.57967484 0.3442264 -0.04623548 -0.030464385
-0.12920886 1.8291519 -0.40870807 -0.2384876 0.5255557 0.1103912 0.054696474 -0.10034272
1.6257927 -0.61635315 -0.90716976 -0.24462776 -0.16469736 0.04984293 -0.14144856 1.347844
0.07915842 0.069924615 0.0793985 -0.17657061 -0.13446923 0.088975154 -0.005122926 0.06501721
-0.099848576 -0.0722453 0.021045798 -0.04808996 -0.07130628 -0.7230327 1.4723887 0.30266696
1.0423744 -0.079660624 -0.07917294 -0.5634118 -0.03865751 -2.2117417 -0.27789003 1.2754385
-0.10846831 -0.0141291795 2.383915 0.07967433 0.13793677 0.7602107 1.1835766 0.18014175
0.20479523 0.76659197 0.08804264 -0.1258692 0.7039573 -0.44921884 -0.20097299 0.079438314
0.1512561 -0.9501732 -0.06819315 -2.0209026 -0.17870967 0.17311741 -0.10579567 -0.13637233
-0.1298613 0.068134144 -0.19218454 -0.14067082 0.036103446 0.12289812 -0.1534299 0.014047533
-0.06553178 -0.06588872 -0.18760252 0.077625774 -0.13764343 0.14101817 -0.19223328 -0.13099363

deconv1.weight f4 [12, 12, 1, 1]
00000000: 9869 683f cb0a a6be a7d4 79be d08b 98bd
00000010: 8106 b03e 9c20 bf3e bc7e 743e 0dd8 c13e
00000020: 0bc4 51be fa82 9b3e eb15 b5bd 969c 65bd
00000030: 1520 c5bd 925d 513d b06e 5ebf e9df c53e
00000040: ec68 8d3e 694f 1fbe 6b48 4b3e 9af1 8cbe
00000050: 0235 953e 4705 31be 2042 c83e 80f6 5cbc
00000060: 4ec2 e1bd 3d2f 323e cae0 9bbe 463c aa3e
00000070: d16e 163f 8a61 563d 297d da3e aa43 883d
00000080: 0d68 32bf ff15 a53e eb55 a13d c91b 773c
00000090: 576b d9be 5edc 733e 77d4 79bd 2152 1cbf
000000a0: 8880 6cbe 071b 853e ce77 2bbe 82b5 ce3e
000000b0: 008f 5c3e 552d 8a3e c708 a8bd 4efd 9ebe
000000c0: b14a fabf bca6 2abf 66d5 28be e702 a6bf
000000d0: 2226 493e 2e09 5f3e 84f0 51be bbd2 8d3e
000000e0: a2b0 963e 76e7 d2be fa3f d5bb b62a 03bc
000000f0: f9d4 b83e 62ed 173f 1607 ac3e 5fe5 173e
00000100: 9b43 a83e 16a8 36be 898c 403d d459 e9be
00000110: 1020 003f 0b98 263d 629f fd3e ac92 abbc
00000120: 5931 383e f771 3ebf 4dcd 1dbf fb6a 143e
00000130: 8117 df3e 0632 f7bd 4be6 453e 0d91 86be
00000140: 31e1 4f3e fb7d 41be f43e 113f 905f 49be
00000150: 9266 0d3e 290f 87bd 705b 06bd de28 b2be
00000160: 43e6 0b3f 7442 1a3f 1b45 abbc e414 46be
00000170: 2a13 2e3e 9a62 00bf 03b1 07be a344 d3be
00000180: d50c f9bd 14bd b53d e596 db3e b19d 3abf
00000190: a0cb 5dbc 6821 663e faea 063f abe7 bd3c
000001a0: e53e 133e 66f3 0b3f e7d5 053e ec44 1ebf
000001b0: dc1a d5be dc08 0dbd 4cce 39be 5104 4abe
000001c0: 36e9 743e 523d 193e 0a02 453e f1f4 1abe
000001d0: 4566 d83e 5bf3 453e 87b1 2dbe 3603 0a3f
000001e0: 2e7d d8bc 9e78 8abd 0e64 76be f8c7 603e
000001f0: a810 703e 0f4f 33be 579e 393f 1f7c 62be
00000200: 970e d5be 7ffe 28be d1aa 683e 40b0 8b3c
00000210: 0c81 dcbe 1c2c dfbe de96 843e ee9d cd3d
00000220: 8fe8 30be 64de d6be 87c5 2cbe 6389 543e
00000230: 8f3b ed3c f7d0 c1bc b16c 133e 8437 933e
0.90786123 -0.3243011 -0.24397527 -0.07448542 0.34379962 0.37329566 0.2387647 0.37860146
-0.2048494 0.30373365 -0.08842071 -0.056057535 -0.0962526 0.051114626 -0.86887646 0.38647392
0.27619112 -0.15557636 0.19851844 -0.27528077 0.29142004 -0.1728717 0.3911295 -0.013486505
-0.11023389 0.17400832 -0.30444938 0.3324911 0.5876284 0.052339114 0.42673615 0.06653531
-0.6969002 0.32243344 0.07877716 0.015082308 -0.42464706 0.23814532 -0.060993638 -0.6106282
-0.23095906 0.25997183 -0.1674492 0.40372854 0.21538925 0.2698771 -0.08204799 -0.3105263
-1.9554044 -0.66660666 -0.16487655 -1.2969636 0.19643453 0.21780846 -0.20501906 0.27699837
0.29431635 -0.41192216 -0.0065078707 -0.008005789 0.36099985 0.5934659 0.33599156 0.14833592
0.3286408 -0.17837557 0.047009025 -0.45576346 0.50048923 0.040672343 0.49535662 -0.020943962
0.17987575 -0.74392647 -0.6164139 0.14493935 0.4357262 -0.12070088 0.19326131 -0.2628254
0.20300747 -0.18895714 0.56736684 -0.1966536 0.13808659 -0.065946884 -0.032802045 -0.34796804
0.54648226 0.6025765 -0.020906975 -0.19343907 0.16999498 -0.50150454 -0.13251118 -0.41263303
-0.12160651 0.088739544 0.4288856 -0.7289687 -0.0135373175 0.22473681 0.52702296 0.023181757
0.14379461 0.5466827 0.13069879 -0.61823916 -0.41622055 -0.034432277 -0.18145102 -0.19728209
0.23917088 0.14964798 0.19239059 -0.151325 0.42265525 0.19331114 -0.16962253 0.5391115
-0.026426878 -0.06761287 -0.24061605 0.21951282 0.23443854 -0.17510627 0.7250723 -0.22117661
-0.41612694 -0.16503333 0.22721411 0.017051816 -0.43067205 -0.4358834 0.25896353 0.10039888
-0.17276214 -0.41966546 -0.16872226 0.20755534 0.028959064 -0.023659213 0.14396931 0.28753293

deconv1.bias f4 [12]
00000000: 891d 1f3f 6087 a3bd 52d1 743f c707 09bf
00000010: 0235 253d 913e 053f 1d57 c83c 95d0 a9be
00000020: 0b3f 55bd c604 6f3e 6bcb 123d 2044 4d3e
0.6215444 -0.07984805 0.956319 -0.5352749 0.040333755 0.52048594 0.024455601 -0.33166948
-0.052062076 0.23341665 0.035838526 0.20045519

deconv2.weight f4 [12, 6, 2, 2]
00000000: 6155 723e ba89 8dbc 34b7 02be 6073 9cbe
00000010: 223a 59bd 09bc 153f 4779 8cbf 8367 b1bb
00000020: 6c4a 41bf 7805 3fbc 7745 343f 5ff3 ab3d
00000030: 5716 b3be ecd1 983e 865b 063d 33b2 28bf
00000040: 02c8 38be 8944 1abe d9c7 b53d 1f1c 833c
00000050: ed17 0b3d 35c0 2b3e 9e09 1fbc d192 18bd
00000060: ecb5 8ebe d9c9 d4bc c874 5a3d 0efc 17bb
00000070: 5ea0 c2be 04f1 e53e b378 4cbf 3817 81bd
00000080: b638 9a3e d64c e7bd e317 993d 6ca1 5c3d
00000090: 27ce 82be 364a 823e 3348 6b3d 2b1a 613e
000000a0: 2e18 9d3c 01fe 3e3d f015 4abe 6514 913d
000000b0: a7ce 1d3e 52cd 2c3e 85b7 013f 74f5 debd
000000c0: 9a8f cb3e a33c 48be 3ab5 57be 56f9 12bd
000000d0: 4d9c ccbe e731 ce3d 69f8 d63c 67b5 803c
000000e0: 4b62 7abb 2ff1 ea3c abd5 c8bf dba7 b0bc
000000f0: 46cc f63d c338 faba eee8 933d 7ed2 9fbd
00000100: d4ba 3bbe 4494 9ebd 5870 083e 9085 07be
00000110: 9c8f 08be 3c63 d03e f716 c3bf 2652 453d
00000120: 7ad5 04be c093 79bc e1d4 58bd fbd2 4dc0
00000130: 4ae6 a23e 6f60 333f 7371 243f 7c05 50bd
00000140: 2418 2ec0 fb29 973d 12cd febe 4d17 bb3d
00000150: 9ce4 1abe 3bd6 25bf 8f5c 06be 94b0 62be
00000160: 0b2c d7bc 81b2 0cbe 511d 93be 9f97 6c3d
00000170: 9ce0 2fbd 60e7 aa3d c91b 0d3e d34b 773e
00000180: 1c7f a7be 8f07 68bd 6834 63be cc01 49be
00000190: d480 8fbe a0bc 6ebe 1cda e73c 28bf b5be
000001a0: 31cc bcbe 0a60 b0bc eb29 abbb 76aa d93c
000001b0: 5399 0bbe 0cdf c2bc b5f3 1abe c5f2 d0be
000001c0: 69e7 37be 7156 d5bb 4cc7 75be 72bb 9abd
000001d0: dc09 34be 18d7 073e 09a2 c7bd b2e0 00bd
000001e0: 58db 4e3e 71fe 44be 9eea ae3d d799 20bc
000001f0: e229 d23e 6044 183e 8635 9dbe 68d9 f5bd
00000200: 7868 06be aaa5 893c bcf3 d0bd c256 efbe
00000210: 9f91 1c3e 954d d2bd 5b78 0cbe 0c4e 2c3d
00000220: 9648 9a3c 9d7f 1fbe cab1 23be 1400 03bc
00000230: 22ff c9bd c956 74be f4e6 43bf d93e d5bf
00000240: 3aad 1fbf 8a43 89be 3171 69be 3673 abbd
00000250: e0dd 74be c664 683d 47de 86bf 2c5d 85be
00000260: 21f6 5e3a 4628 c8bd 702d 66bf 407a b2be
00000270: 014a 3abd e855 fe3d 6e3e 2ebe 44ff 35be
00000280: 405e ccbd 140a 39be 611e c9bc 5922 cdbc
00000290: 28eb dfbc 6157 45bf 5191 bc3d ab48 6fbd
000002a0: ce6e e0bf b928 85be d6bd 9cbe 826e 7f3d
000002b0: 89a1 e63e 2c3e bf3e 66b1 983e d64e 093e
000002c0: 53d9 953e 59de 70be 116f e83d 8591 253e
000002d0: 7299 1a3e c2d0 9ebf 0278 1abe e1a3 1cbe
000002e0: 8c9c 9fbe 04f2 e6bd 6b67 8cbe a95e 6cbe
000002f0: de01 61be 030c f1be 8287 d23e 9aec 6cbf
00000300: e240 cf3e bfbd 3f3d d8b6 06be 5899 153e
00000310: 108c 1dbf fcde 4dbe 4114 b23d 4fdb a93e
00000320: 4495 cabe da32 b5be 0767 ebbc f2de 76bb
00000330: 3cc6 b6be 0ef2 353d 1444 9abe 9121 c43d
00000340: d3a1 87bd 2f2e 52be 90cf 8e3c 45c1 50bc
00000350: e438 f0bc e557 bebd a3e7 b8bf 55f4 403b
00000360: 0ab0 c9bf 1cc9 a6bd 8ee3 193d 55bd 67be
00000370: 23bb c1bd ed18 1ebf ba51 863e 0b6b e1be
00000380: cd1b 703d 517c 0fbd 01a0 40be 4e6a 5abf
00000390: b2c5 c0bd 54ba a5bf 9d96 b8bc 866d 94be
000003a0: a9b4 b23c d9ed 37bd 17cf bfbb 9abd 8239
000003b0: e41d 4bbd cebb 6ebf 2d13 f2be f7e1 acbf
000003c0: 68a7 d4be 9fd3 50be 7f19 a93d d2fa d53c
000003d0: 6190 ca3d cc51 39bf 2379 f0bc 8081 88bd
000003e0: 1420 28be 8f0a 25bf 332f d1bc fd72 bfbd
000003f0: 2900 00bf c241 2cbf e6bf 4ebd 85a0 773d
0.23665382 -0.017277587 -0.12765199 -0.30556774 -0.053033955 0.58490044 -1.0974511 -0.005413951
-0.75504184 -0.011659019 0.70418495 0.08396029 -0.3497798 0.29847658 0.032802127 -0.6589691
-0.18045047 -0.15065207 0.088760085 0.01600462 0.033958364 0.1677254 -0.009706883 -0.03724939
-0.2787317 -0.025975155 0.053334028 -0.0023191008 -0.38012975 0.44910443 -0.7987167 -0.06303257
0.30121392 -0.11293952 0.07475259 0.05386488 -0.25547907 0.25447243 0.0574419 0.21982639
0.019176569 0.046628956 -0.19734931 0.07083968 0.15410863 0.16875198 0.50670654 -0.1088666
0.39757997 -0.19554381 -0.21065226 -0.035882317 -0.39962998 0.10068112 0.026241498 0.0157115
-0.003820556 0.028679458 -1.5690206 -0.021564415 0.12050681 -0.0019090403 0.07222162 -0.0780382
-0.18332988 -0.07743123 0.13324106 -0.13234544 -0.13336033 0.4070071 -1.5241383 0.048174046
-0.1297206 -0.01523298 -0.052937392 -3.2160022 0.31816322 0.7006902 0.6423561 -0.05078648
-2.7202234 0.07381054 -0.4976583 0.09135304 -0.1512627 -0.64780015 -0.13121246 -0.22137672
-0.026266119 -0.13739969 -0.28733304 0.057761785 -0.042938814 0.083449125 0.1378013 0.24150018
-0.32714164 -0.056647833 -0.2218796 -0.19629592 -0.28027976 -0.23314142 0.028302245 -0.35497403
-0.36874536 -0.02153017 -0.005223503 0.02657054 -0.13632707 -0.023787998 -0.1513203 -0.40810218
-0.1795937 -0.0065105488 -0.24001807 -0.075552836 -0.17581886 0.13265646 -0.09747703 -0.031464286
0.2020086 -0.19237687 0.085408434 -0.009802303 0.4104758 0.14869833 -0.30704898 -0.120043576
-0.13125789 0.016802628 -0.10202739 -0.46745878 0.15289925 -0.10268704 -0.13717787 0.04206662
0.01883344 -0.15576024 -0.1598579 -0.007995624 -0.09863116 -0.23861231 -0.7652428 -1.6659805
-0.623737 -0.2680934 -0.22797085 -0.08371584 -0.23912764 0.05673673 -1.0536584 -0.26047647
0.0008505304 -0.097733065 -0.8991308 -0.34858894 -0.045480732 0.12418729 -0.17016003 -0.17773157
-0.09978914 -0.18070251 -0.024550619 -0.025040792 -0.02733381 -0.77086455 0.092074044 -0.05841891
-1.7533815 -0.2600763 -0.30613583 0.062361248 0.45045117 0.3735212 0.29822844 0.1340898
0.29267368 -0.23522319 0.11349309 0.16168793 0.15097597 -1.2407458 -0.15084842 -0.1529689
-0.31174123 -0.112766296 -0.27422652 -0.23082985 -0.21973369 -0.47079477 0.4111901 -0.92548525
0.4047919 0.046811815 -0.13155687 0.14609277 -0.61541843 -0.20104593 0.086952694 0.33175132
-0.39567006 -0.3539036 -0.02873565 -0.0037669507 -0.35698116 0.044420294 -0.30130064 0.09576715
-0.066226624 -0.2052543 0.017432958 -0.012741392 -0.029324003 -0.09294108 -1.444569 0.0029442508
-1.5756848 -0.08143827 0.03757053 -0.22630818 -0.094595216 -0.61756784 0.26234227 -0.4402698
0.058620263 -0.035030667 -0.18811037 -0.8531846 -0.094127074 -1.2947488 -0.022532756 -0.2898981
0.021814661 -0.044904564 -0.0058535445 0.00024936796 -0.049589053 -0.9325532 -0.47280255 -1.3506459
-0.4153397 -0.20393227 0.08256816 0.026120577 0.09890819 -0.7239044 -0.029354637 -0.06665325
-0.16418487 -0.64469236 -0.025535202 -0.09348104 -0.50000244 -0.6728784 -0.050475977 0.060455818

deconv2.bias f4 [6]
00000000: 78d2 5bbd 7cc7 463e 17d6 da3e 6c1b 663e
00000010: feee 173c 7daa 50bd
-0.053667516 0.19412035 0.42741463 0.22471398 0.009273289 -0.05094384

deconv3.weight f4 [6, 1, 2, 2]
00000000: 694d 663f 421c 6a3f 7903 6c3f b4e3 6a3f
00000010: 14f0 9a3f 42cf 9b3f f8c6 9b3f 10cc 993f
00000020: 978a a33f da21 9d3f 738d 9d3f f0cb 883f
00000030: a8fa 09c0 bce9 fdbe 9ed7 8abf ff3b ea3d
00000040: ae97 98be d742 ba3b 2e25 5cbe b573 833d
00000050: f6cb 8e3f 6143 903f 86e3 913f c339 923f
0.8996187 0.9144937 0.921928 0.917537 1.2104516 1.2172625 1.2170095 1.20154
1.2776669 1.2275956 1.2308792 1.0687237 -2.1559238 -0.49592388 -1.0847051 0.114372246
-0.29803222 0.0056842375 -0.21498558 0.06418554 1.1155994 1.1270562 1.139756 1.1423877
