Pytorch/AutoEncoder/saved_models/mnist/NetSmall-L2Loss_mnist.pt (torch, 130543 bytes, 15 tensors)

conv1.weight f4 [6, 1, 3, 3]
0.320274 0.3325114 0.07714619 0.25985295 0.3369581 0.10068984 0.0360622 0.019587683
-0.04322675 0.12637459 -0.011381795 -0.20912157 0.30503887 0.12926179 -0.14083897 0.10111774
0.122702196 -0.042419415 -0.03659067 -0.1863023 -0.24770266 0.2568684 0.31530535 0.10770108
-0.09158152 -0.018405022 0.10882106 0.3890084 0.1606748 -0.05140591 0.023664895 -0.32942277
-0.058545474 -0.253823 -0.118832834 0.0018285444 -0.106501974 0.33715475 0.36198637 -0.16888037
0.2991269 -0.18010937 0.0022573716 0.1424229 -0.02487046 -0.016405312 -0.14541799 0.034090865
0.22570868 0.31893688 0.41636354 0.1534481 0.25813103 0.30590728
00000000: f4fa a33e ef3e aa3e d2fe 9d3d 720b 853e
00000010: c685 ac3e 7a36 ce3d f5b5 133d 5976 a03c
00000020: 880e 31bd 5768 013e b57a 3abc f723 56be
00000030: 0e2e 9c3e 345d 043e 1738 10be d116 cf3d
00000040: 4a4b fb3d fbbf 2dbd 19e0 15bd 08c6 3ebe
00000050: c4a5 7dbe 4184 833e b46f a13e 6292 dc3d
00000060: 188f bbbd 21c6 96bc 93dd de3d 1c2c c73e
00000070: ef87 243e 018f 52bd e2dc c13c 1aaa a8be
00000080: 61cd 6fbd 17f5 81be a15e f3bd c5ab ef3a
00000090: b51d dabd 8c9f ac3e 4756 b93e faee 2cbe
000000a0: 2927 993e 976e 38be 69f0 133b 4fd7 113e
000000b0: 23bd cbbc 6f64 86bc 74e8 14be dda2 0b3d
000000c0: 2d20 673e b24b a33e 9a2d d53e 8021 1d3e
000000d0: c029 843e e19f 9c3e

conv1.bias f4 [6]
0.0013035984 -0.0016786508 -0.13941322 0.23214369 0.3581388 0.0074492516
00000000: 81dd aa3a 2d06 dcba 57c2 0ebe 13b7 6d3e
00000010: f85d b73e da18 f43b

conv2.weight f4 [12, 6, 3, 3]
0.015862312 0.16025877 0.10892622 0.016684977 0.23224597 0.06235392 0.07318029 0.04881601
-0.092984356 0.05400336 0.18703729 -0.031247096 0.3859477 0.18436785 0.019304972 0.24105923
-0.02743727 0.09114002 0.02803494 -0.049279608 0.044575054 -0.24056216 -0.19579637 -0.043577142
-0.23930542 0.007593903 -0.041645367 0.0831277 0.29842106 0.050893147 0.23337597 0.122665636
0.15453883 0.048709426 -0.041654155 0.04610079 -0.017221874 0.22429472 0.01576903 0.11932162
0.040426314 -0.1745188 -0.05990607 0.057837088 -0.04448509 -0.03565378 0.022441603 0.043174665
0.09772732 0.052874025 -0.2615989 -0.0040485943 -0.07847211 -0.028978739 0.03168402 0.17411931
-0.10838038 0.0062535796 0.15067418 -0.0033889029 0.0044866977 0.023458857 0.009464339 0.116670154
0.20101611 0.12118506 0.11281698 0.20793036 0.032875106 0.039032433 0.11854768 -0.109449424
-0.025009923 -0.20567101 -0.015830165 0.009937721 -0.036696203 0.13828744 0.073668726 0.013465332
0.313945 -0.15969087 -0.27327675 -0.17201827 -0.24750273 -0.21347181 -0.28270215 -0.18341011
-0.16372487 -0.1858857 0.12716697 0.22070661 0.08905116 0.1324976 0.15191124 -0.008467761
0.11691956 0.2137976 -0.0010959302 0.017823543 0.003435474 -0.03456699 0.10535142 0.019305222
0.10421171 0.045917623 0.17034015 0.05886376 -0.102937154 -0.12152458 -0.38406634 -0.48153758
-0.09452226 -0.21171997 -0.019158477 -0.043510623 -0.17745952 0.23351762 0.35178483 0.38706446
0.028991876 0.34638426 0.03471363 0.2467589 0.05920939 0.13884227 0.3042175 -0.27854118
-0.5815695 0.3196904 0.6504379 -0.14642112 -0.2786261 -0.09317214 -0.28101125 0.048354775
0.23361266 0.24969046 0.24988888 0.14116175 0.18937738 0.14016648 0.2946712 0.13386263
-0.077200405 -0.06380468 0.007137594 -0.08518582 0.11589165 0.053944964 0.032242212 0.045850046
0.04776143 -0.44336933 -0.06859979 -0.08652163 -0.1732046 -0.26631337 -0.13180655 -0.058423102
-0.046003584 -0.11678104 -0.34727392 -0.1765843 0.053004373 -0.07580298 0.101190515 0.094287306
0.032824308 0.025884511 0.026032822 -0.35557175 0.1594719 0.073987134 -0.2101166 -0.068343386
-0.102392696 -0.18815017 -0.058813076 0.15230411 0.33428353 -0.029193338 -0.13293342 0.066564806
-0.050650287 -0.119915225 -0.070799895 -0.20488021 -0.02980509 0.09829718 -0.05017034 -0.17428714
0.09348893 0.05991966 -0.09487439 0.019437509 0.029083028 -0.16001551 -0.0006772248 0.12231959
0.087069154 0.06017413 0.029966474 -0.0714657 0.050596412 0.26495296 0.043833796 0.0076295664
0.07373116 0.13343301 0.03791488 0.079976864 0.28558075 0.14765064 0.11290439 0.07211902
0.11987913 0.11281475 0.0458184 0.23596263 0.13752656 0.2000125 -0.10465102 0.02217193
0.08253312 0.040588357 0.06038634 -0.101020075 0.0074997344 0.12123786 -0.014758011 -0.11653436
0.34021217 -0.04622187 -0.020143198 0.07219592 0.19133115 0.28503266 0.31471315 0.17899087
0.13406597 0.071305476 0.23513825 0.0014202021 -0.053998932 0.0048628626 0.10389527 0.00810094
-0.059644017 0.06439171 0.13261454 0.0023791306 -0.017601948 -0.061261553 -0.064012036 -0.072037496
00000000: aef1 813c e01a 243e b614 df3d efae 883c
00000010: e3d1 6d3e d366 7f3d 8cdf 953d 4cf3 473d
00000020: 956e bebd a132 5d3d b486 3f3e e9f9 ffbc
00000030: f09a c53e edca 3c3e 7625 9e3c 3bd8 763e
00000040: 20c4 e0bc 9ea7 ba3d 88a9 e53c 6ad9 49bd
00000050: 5594 363d ed55 76be d87e 48be f27d 32bd
00000060: 7b0c 75be 47d6 f83b 5594 2abd db3e aa3d
00000070: a5ca 983e 5575 503d 1cfa 6e3e 1f38 fb3d
00000080: 6d3f 1e3e 8983 473d 8c9d 2abd 2fd4 3c3d
00000090: e314 8dbc 84ad 653e 0e2e 813c e55e f43d
000000a0: 1096 253d 0eb5 32be 1160 75bd 95e6 6c3d
000000b0: ff35 36bd b309 12bd 74d7 b73c ebd7 303d
000000c0: 4325 c83d 6f92 583d 4bf0 85be 12aa 84bb
000000d0: fcb5 a0bd d264 edbc 1ac7 013d 554c 323e
000000e0: 88f6 ddbd d4ea cc3b 554a 1a3e 5b18 5ebb
000000f0: 2605 933b ca2c c03c 5110 1b3c c3f0 ee3d
00000100: 2bd7 4d3e df2f f83d 970c e73d b2eb 543e
00000110: 0ca8 063d 79e0 1f3d 20c9 f23d 0527 e0bd
00000120: 9ce1 ccbc 6c9b 52be 43ae 81bc d3d1 223c
00000130: c24e 16bd 399b 0d3e a1df 963d b29d 5c3c
00000140: 66bd a03e 0186 23be eeea 8bbe 8f25 30be
00000150: 5b71 7dbe 5b98 5abe 56be 90be dccf 3bbe
00000160: 7ea7 27be d258 3ebe 0f38 023e ea00 623e
00000170: 7460 b63d 73ad 073e 9f8e 1b3e 5dbc 0abc
00000180: 8673 ef3d c2ed 5a3e 51a5 8fba ae02 923c
00000190: b025 613b 1e96 0dbd 7cc2 d73d fc25 9e3c
000001a0: f36c d53d 1e14 3c3d a66d 2e3e 201b 713d
000001b0: b7d0 d2bd e1e1 f8bd 58a4 c4be 188c f6be
000001c0: e394 c1bd 1fcd 58be 3df2 9cbc 3238 32bd
000001d0: f3b7 35be 3e1f 6f3e 241d b43e 502d c63e
000001e0: 5f80 ed3c 4759 b13e e12f 0e3d 5dae 7c3e
000001f0: 8c85 723d ab2c 0e3e 65c2 9b3e f39c 8ebe
00000200: bde1 14bf 76ae a33e 1983 263f 6bef 15be
00000210: 15a8 8ebe 09d1 bebd b5e0 8fbe a80f 463d
00000220: 2838 6f3e dbae 7f3e dfe2 7f3e b58c 103e
00000230: 25ec 413e cd87 0f3e 25df 963e 4913 093e
00000240: 3f1b 9ebd 07ac 82bd 7ae2 e93b e775 aebd
00000250: 9a58 ed3d 65f5 5c3d 6910 043d 42cd 3b3d
00000260: 7da1 433d 4e01 e3be 0c7e 8cbd 4132 b1bd
00000270: 8c5c 31be 3a5a 88be 4cf8 06be 104d 6fbd
00000280: 416e 3cbd e62a efbd e3cd b1be 84d2 34be
00000290: 1d1b 593d 983e 9bbd f93c cf3d b419 c13d
000002a0: c872 063d c10b d43c c942 d53c 800d b6be
000002b0: 9a4c 233e 9186 973d ce28 57be 9ef7 8bbd
000002c0: 43b3 d1bd 70aa 40be fbe5 70bd 9cf5 1b3e
000002d0: 3627 ab3e de26 efbc b31f 08be 2153 883d
000002e0: ad76 4fbd 1d96 f5bd 89ff 90bd 1ecc 51be
000002f0: ce29 f4bc 0850 c93d 6a7f 4dbd 5478 32be
00000300: 2077 bf3d 516e 753d 814d c2bd 693b 9f3c
00000310: 883f ee3c 1bdb 23be c987 31ba b182 fa3d
00000320: 5051 b23d 2679 763d 407c f53c 9c5c 92bd
00000330: 2f3e 4f3d eaa7 873e 118b 333d 7101 fa3b
00000340: 5d00 973d aaa2 083e a24c 1b3d e9ca a33d
00000350: a437 923e bb31 173e 6b3a e73d 23b3 933d
00000360: 3083 f53d 6b0b e73d 13ac 3b3d 30a0 713e
00000370: c3d3 0c3e 14d0 4c3e 4653 d6bd e8a1 b53c
00000380: 2007 a93d fa3f 263d ab57 773d 9de3 cebd
00000390: 55c0 f53b 8e4b f83d 96cb 71bc 91a9 eebd
000003a0: 4a30 ae3e 2553 3dbd 5903 a5bc 74db 933d
000003b0: 50ec 433e cdef 913e 1522 a13e 6249 373e
000003c0: 9748 093e 9b08 923d 15c8 703e 1326 ba3a
000003d0: fc2d 5dbd a658 9f3b 0bc7 d43d ceb9 043c
000003e0: 494d 74bd cddf 833d 1bcc 073e 30eb 1b3b
000003f0: f631 90bc 65ed 7abd be18 83bd 6588 93bd

conv2.bias f4 [12]
-0.21040878 0.251657 0.27874467 -0.17468603 -0.092304416 0.13337742 -0.13627551 -0.076640815
-0.030000752 0.24630219 0.36463764 -0.065158546
00000000: 6675 57be 30d9 803e 9fb7 8e3e e5e0 32be
00000010: 190a bdbd 1794 083e cf8b 0bbe dcf5 9cbd
00000020: 23c4 f5bc a436 7c3e c9b1 ba3e d871 85bd

conv3.weight f4 [12, 12, 3, 3]
0.117768906 -0.10806194 -0.035014126 0.3170999 0.13341385 -0.2679777 0.047173865 -0.06913699
-0.22508842 -0.04721531 0.021867516 0.17256922 -0.03861895 -0.30732846 -0.29890242 0.18051241
0.04962566 -0.14501709 0.10110947 -0.13439721 0.22333962 -0.24559763 0.19898638 0.14225271
0.08315239 0.21095623 0.48494014 0.11325847 -0.0831128 0.1493384 0.11818891 -0.029567515
-0.35244012 -0.124575734 -0.112010784 0.35357636 -0.14660113 -0.30824015 0.15078372 -0.13218528
0.12004885 0.0040738652 0.19236419 -0.13510327 -0.30849048 0.024401076 -0.09265086 0.3015124
0.16856486 0.24860843 -0.22488956 -0.019016879 0.17291503 0.19153202 -0.0705648 0.06761826
0.01140007 0.06214806 -0.00081900484 -0.058658134 -0.064638846 -0.008039167 -0.0176213 0.2379784
0.040675092 0.07507298 -0.12636216 0.03258568 0.058347404 -0.2322169 -0.16875935 0.19515438
-0.10487828 -0.05665197 -0.12397569 -0.045313068 -0.17489272 0.06804567 0.08592111 -0.30667198
-0.1463421 0.19332564 0.06434192 0.19215406 -0.009956216 0.022018185 -0.14744812 0.194085
-0.21809316 0.038085207 0.115217224 -0.10809322 -0.10244646 0.033381335 -0.019138156 -0.107090935
0.1364135 -0.25582966 0.13929392 -0.1312975 -0.11119501 -0.030214703 0.07294715 -0.15986986
-0.02794047 0.23083955 -0.027694779 0.05543298 -0.069461204 0.07698845 -0.088530876 -0.041288406
0.1049722 -0.020098789 0.2673446 -0.0976078 0.021282766 -0.0011925597 0.10619779 -0.028808156
-0.00057954405 -0.123041004 0.0051904586 0.026524957 0.087357014 -0.08258617 0.014443562 -0.088851705
0.13452303 0.03623583 -0.018266452 0.061261144 0.047912832 0.10827342 0.0491035 0.047330685
-0.08590845 -0.05565842 -0.03952368 -0.016888784 0.11486325 0.02042998 -0.018847637 0.0901969
-0.009954495 0.06557437 0.012296564 -0.0031759897 0.050309077 0.14661808 -0.00025576854 -0.20848885
-0.0794931 -0.052086655 -0.029451106 0.016443474 -0.010850412 0.11091974 0.027179483 -0.03501747
-0.06336648 -0.102221824 0.10237376 0.07005524 0.009658372 0.03776243 -0.024693055 0.08788397
0.0057828636 -0.051902995 -0.029361242 0.0077168173 -0.089137465 0.08716549 0.015489655 -0.024704639
0.030135635 0.16978411 -0.015941365 0.13114919 -0.0014886707 0.11792758 -0.010790665 -0.04295876
-0.06399291 0.07028297 0.15253098 -0.030337632 -0.07986666 0.013849864 0.11160678 -0.032599628
0.13855162 0.112170115 0.17191295 0.04295379 0.16477823 0.12711154 0.15053883 0.10994436
0.15242596 -0.017997399 0.018840745 0.051382244 0.023569137 0.06254636 -0.010564808 -0.20515534
0.052766327 0.009005573 0.06946487 -0.09218229 -0.083366826 -0.017468486 0.042130094 0.08808198
0.16648668 0.050705176 0.0014830966 0.011206896 -0.14481781 0.17055064 0.030967329 0.1240563
-0.072095364 -0.110225886 -0.026831664 0.14493494 -0.06333141 -0.08738341 0.021812115 0.1077751
0.24170177 -0.06695886 0.04604676 0.09161935 0.004636985 0.19985195 0.1993724 0.057624783
-0.2742958 -0.16418329 0.25339136 -0.039783515 0.0023933046 0.11689028 0.032541674 0.03641078
0.17365882 -0.02107582 0.07255977 -0.14570346 -0.1330364 0.13857943 0.074525736 -0.13211937
00000000: d330 f13d 944f ddbd f96a 0fbd eb5a a23e
00000010: a49d 083e 6034 89be 6239 413d b297 8dbd
00000020: 947d 66be d764 41bd 8123 b33c fcb5 303e
00000030: e72e 1ebd 285a 9dbe bd09 99be 3fd8 383e
00000040: 4744 4b3d 5c7f 14be 7b12 cf3d 6c9f 09be
00000050: 24b3 643e f27d 7bbe 16c3 4b3e b2aa 113e
00000060: cd4b aa3d e904 583e 134a f83e 0ff4 e73d
00000070: 0b37 aabd 2aec 183e 070d f23d 9337 f2bc
00000080: 0873 b4be 9021 ffbd e965 e5bd f607 b53e
00000090: 9b1e 16be a7d1 9dbe 0c67 1a3e 945b 07be
000000a0: 2cdc f53d 0f7e 853b 1efb 443e 8358 0abe
000000b0: 77f2 9dbe c4e4 c73c bcbf bdbd d55f 9a3e
000000c0: 449c 2c3e 3593 7e3e 7349 66be 49c9 9bbc
000000d0: a310 313e f820 443e 4784 90bd 717b 8a3d
000000e0: 5cc7 3a3c f78e 7e3d 7cb2 56ba 8343 70bd
000000f0: 5f61 84bd b6b6 03bc 8b5a 90bc 9cb0 733e
00000100: ed9a 263d ddbf 993d 1565 01be 9078 053d
00000110: b0fd 6e3d 44ca 6dbe 40cf 2cbe 8dd6 473e
00000120: 6cca d6bd e50b 68bd f7e6 fdbd 329a 39bd
00000130: 1417 33be 875b 8b3d 68f7 af3d 1c04 9dbe
00000140: b4da 15be 28f7 453e b2c5 833d 09c4 443e
00000150: 661f 23bc 7b5f b43c a4fc 16be 38be 463e
00000160: d053 5fbe 3cff 1b3d 02f7 eb3d fa5f ddbd
00000170: 73cf d1bd deba 083d 9fc7 9cbc 7e52 dbbd
00000180: fbaf 0b3e 1bfc 82be 11a3 0e3e da72 06be
00000190: 36ba e3bd d384 f7bc 5165 953d edb4 23be
000001a0: 6ae3 e4bc 3461 6c3e 29e0 e2bc b10d 633d
000001b0: ad41 8ebd 1fac 9d3d ad4f b5bd 081e 29bd
000001c0: aafb d63d 37a6 a4bc 64e1 883e 99e6 c7bd
000001d0: 3259 ae3c aa4f 9cba 3a7e d93d 15ff ebbc
000001e0: 8bec 17ba ecfc fbbd b914 aa3b de4a d93c
000001f0: 3ce8 b23d f022 a9bd b1a4 6c3c e2f7 b5bd
00000200: 68c0 093e 066c 143d 87a3 95bc f7ec 7a3d
00000210: 3f40 443d 74be dd3d c020 493d d2dd 413d
00000220: c5f0 afbd 15fa 63bd 95e3 21bd 595a 8abc
00000230: 6c3d eb3d c65c a73c 5c66 9abc 27b9 b83d
00000240: 2e18 23bc db4b 863d 8777 493c 4424 50bb
00000250: e410 4e3d 0d23 163e ac18 86b9 1a7e 55be
00000260: 47cd a2bd d158 55bd 7243 f1bc 77b4 863c
00000270: edc5 31bc e329 e33d 82a7 de3c 7b6e 0fbd
00000280: 49c6 81bd ad59 d1bd 55a9 d13d 1f79 8f3d
00000290: 263e 1e3c c7ac 1a3d 1749 cabc 83fc b33d
000002a0: 2d7e bd3b 3c98 54bd fd86 f0bc 5bdd fc3b
000002b0: b48d b6bd d283 b23d 52c8 7d3c 6261 cabc
000002c0: 02df f63c e3db 2d3e 7797 82bc f94b 063e
000002d0: 801f c3ba 0484 f13d 54cb 30bc 86f5 2fbd
000002e0: b70e 83bd 85f0 8f3d 1531 1c3e a086 f8bc
000002f0: 2291 a3bd 8aea 623c 1892 e43d 3087 05bd
00000300: 7ae0 0d3e 72b9 e53d f309 303e 50f0 2f3d
00000310: a0bb 283e 8729 023e da26 1a3e 822a e13d
00000320: 8d15 1c3e 486f 93bc e857 9a3c 3076 523d
00000330: 1014 c13c 4e18 803d 0418 2dbc 3e14 52be
00000340: 8121 583d 1c8c 133c 9943 8e3d 12ca bcbd
00000350: 3abc aabd 121a 8fbc 9b90 2c3d 5364 b43d
00000360: 7c7b 2a3e 3bb0 4f3d 7764 c23a 219d 373c
00000370: 1f4b 14be d4a4 2e3e 32af fd3c 3b11 fe3d
00000380: bca6 93bd 1cbe e1bd 14ce dbbc d369 143e
00000390: e6b3 81bd 13f6 b2bd 52af b23c 31b9 dc3d
000003a0: ab80 773e ba21 89bd 879b 3c3d eda2 bb3d
000003b0: d9f1 973b fda5 4c3e 4728 4c3e f707 6c3d
000003c0: 8070 8cbe aa1f 28be 83bc 813e 0af4 22bd
000003d0: fdd8 1c3b 2c64 ef3d 6b4a 053d 7823 153d
000003e0: 9ed3 313e 33a7 acbc 379a 943d 4a33 15be
000003f0: b23a 08be c4e7 0d3e f3a0 983d 4d4a 07be

conv3.bias f4 [12]
-0.008522141 0.079906926 0.1323167 0.31782973 0.119665615 0.13387467 0.16494672 0.02870774
0.2970328 -0.072669104 0.21906254 0.2160899
00000000: 73a0 0bbc 3ea6 a33d 077e 073e 94ba a23e
00000010: 3f13 f53d 7116 093e cbe7 283e 7f2c eb3c
00000020: af14 983e 8ad3 94bd ee51 603e ac46 5d3e

fc1.weight f4 [24, 588]
0.06500481 0.11817437 -0.08457765 0.04402834 -0.060511872 0.022613557 0.073489346 0.07094413
-0.47040197 0.28932685 -0.010508134 -0.12728752 0.189749 0.020169847 -0.11131725 -0.01748939
0.0009383006 0.029948968 0.067135036 -0.035821043 -0.15082082 0.076647595 0.042726938 -0.09668736
-0.12247975 0.1819942 0.16747783 -0.12805936 -0.052559964 -0.00014648135 0.17367119 0.021926127
-0.07840277 -0.057292935 0.032899458 -0.27117306 -0.4806307 -0.19376266 0.4092059 0.14717515
-0.12116015 -0.009744876 -0.044299897 -0.102588035 -0.12901363 0.11493023 0.22557765 -0.0025479768
0.46150455 0.01804836 0.012614315 -0.11626532 -0.28820977 -0.021697216 0.12169143 0.009865355
0.020124191 0.10121376 0.049426954 0.21197745 -0.082757086 0.1137598 0.119454645 0.039284028
0.13017651 -0.08321099 -0.15784584 -0.08036552 0.1308237 -0.012460236 0.02445326 0.075124435
-0.050856907 -0.10456676 -0.12185406 0.049946878 0.017712137 0.038063355 0.10269135 -0.029868074
-0.11767377 -0.008031592 0.062145397 -0.023569396 -0.020636512 -0.11101049 -0.07274055 0.15301816
0.06621404 -0.017954463 -0.006888072 -0.02612003 0.025740713 0.12527618 0.09800311 -0.0033034135
0.008981123 0.096137755 0.1159462 -0.12922531 -0.08059301 0.11672374 0.19171025 0.0069337236
0.08597843 0.20250475 0.004029293 0.08932203 0.038842272 0.0015932168 0.026490953 -0.05872787
0.006396651 0.032405842 -0.18214872 0.12060131 -0.060834404 -0.08460679 -0.020421283 -0.087358795
0.068283826 -0.04331031 0.13940294 0.0045333207 -0.049229674 0.20181514 -0.08190826 -0.051109202
0.05183667 -0.018734826 0.116217285 0.031322546 0.09754755 0.093683966 -0.09236101 0.004560697
0.07462456 0.08391073 0.10939019 -0.16218229 0.10620687 -0.12685227 -0.22221191 0.002023198
0.0067080515 -0.09306505 0.02931257 0.25789967 -0.019315371 0.20858444 0.31084117 0.010946677
0.13192244 0.34757018 0.06879833 0.08818075 0.032219253 0.11145582 0.13697469 -0.016188566
-0.027305627 -0.18125933 -0.10391006 -0.027747193 -0.08082236 -0.15108635 0.0063103894 -0.2549136
-0.08190737 0.17392948 -0.09593454 -0.10565188 0.065569304 0.038253427 0.26031968 -0.012766384
-0.034908254 0.05366854 0.010543866 -0.06917626 -0.0026330845 0.0008974503 0.06662727 0.13696015
-0.029261759 0.027979888 0.06607441 -0.05589319 -0.29428852 0.041088592 0.1708647 -0.1001827
0.37191734 0.037018403 -0.18553843 0.063985616 0.14429103 -0.15153012 0.068039864 -0.1331993
-0.0823935 0.29265842 -0.034310803 -0.12008463 -0.0049986048 0.003911185 0.11469425 0.23117639
-0.13517115 0.06350919 0.047899526 0.066945404 0.03252788 0.3108156 -0.014310445 0.0026363214
0.100315586 -0.2869375 0.040226396 -0.07838282 0.059510313 0.007910417 0.09966536 0.04112761
-0.06428059 0.07430681 -0.13042785 0.13372062 -0.11277072 0.1627945 0.022040753 -0.009920333
0.022819333 -0.012260206 -0.011634535 -0.16097252 -0.025369251 0.065662436 -0.039877944 -0.10443291
0.044189416 0.0024969864 -0.19176897 -0.047871053 0.08129535 -5.3601212e-05 0.027389899 0.058141712
0.070480414 0.059460223 -0.08487989 0.7879734 -0.0068333847 0.071956545 0.018256245 0.027144471
00000000: 3e21 853d 6705 f23d 0c37 adbd 1057 343d
00000010: 4cdb 77bd 1140 b93c 9581 963d 284b 913d
00000020: 87d8 f0be a622 943e 4f2a 2cbc a957 02be
00000030: 904d 423e 3c3b a53c 4cfa e3bd e945 8fbc
00000040: 4af8 753a 8a57 f53c 187e 893d 16b9 12bd
00000050: c670 1abe 6af9 9c3d 7102 2f3d 0604 c6bd
00000060: aad6 fabd b05c 3a3e 4f7f 2b3e fe21 03be
00000070: 1e49 57bd ca98 19b9 dcd6 313e 6c9e b33c
00000080: a291 a0bd ffab 6abd 95c1 063d 32d7 8abe
00000090: 3a15 f6be b869 46be 7083 d13e 15b5 163e
000000a0: d022 f8bd f9a8 1fbc cf73 35bd ad19 d2bd
000000b0: 261c 04be 8a60 eb3d d4fd 663e f5fb 26bb
000000c0: 534a ec3e 27da 933c 46ac 4e3c 831c eebd
000000d0: 3b90 93be 5cbe b1bc 5b39 f93d 4ca2 213c
000000e0: 7ddb a43c 2949 cf3d eb73 4a3d 9e10 593e
000000f0: 8c7c a9bd e6fa e83d a3a4 f43d 4ae8 203d
00000100: fe4c 053e 866a aabd 57a2 21be ae96 a4bd
00000110: a6f6 053e 0526 4cbc 3452 c83c d7da 993d
00000120: 554f 50bd 1927 d6bd 9f8e f9bd 1995 4c3d
00000130: 0b19 913c 52e8 1b3d d84f d23d e4ad f4bc
00000140: f2fe f0bd f096 03bc 2c8c 7e3d 9b14 c1bc
00000150: e70d a9bc 7859 e3bd fff8 94bd cbb0 1c3e
00000160: 3a9b 873d 3d15 93bc 56b5 e1bb acf9 d5bc
00000170: 30de d23c 6648 003e dbb5 c83d 157e 58bb
00000180: 8f25 133c dfe3 c43d 3475 ed3d a453 04be
00000190: f30d a5bd db0c ef3d b14f 443e 4a34 e33b
000001a0: 7615 b03d 685d 4f3e 2908 843b 78ee b63d
000001b0: 1319 1f3d 7cd3 d03a 8e03 d93c a38c 70bd
000001c0: ff9a d13b fdbb 043d 3285 3abe d2fd f63d
000001d0: 7f2d 79bd 5346 adbd 894a a7bc 2be9 b2bd
000001e0: 64d8 8b3d 2766 31bd a5bf 0e3e 408c 943b
000001f0: 0ea5 49bd a1a8 4e3e 85bf a7bd e257 51bd
00000200: b052 543d c779 99bc 5403 ee3d 124c 003d
00000210: 03c7 c73d 61dd bf3d c527 bdbd e671 953b
00000220: c3d4 983d 64d9 ab3d f707 e03d 1d13 26be
00000230: fd82 d93d 90e5 01be 858b 63be a197 043b
00000240: 37cf db3b e498 bebd ea20 f03c 6d0b 843e
00000250: 453b 9ebc 2997 553e 9326 9f3e b159 333c
00000260: ad16 073e b8f4 b13e 24e6 8c3d 1c98 b43d
00000270: 56f8 033d f342 e43d 1843 0c3e e29d 84bc
00000280: 0db0 dfbc 0c9c 39be ccce d4bd 154e e3bc
00000290: 3286 a5bd 61b6 1abe 62c7 ce3b 0984 82be
000002a0: 0dbf a7bd 921a 323e 5479 c4bd 0360 d8bd
000002b0: 3349 863d a0af 1c3d 9f48 853e 182a 51bc
000002c0: f5fb 0ebd 8bd3 5b3d 2ec0 2c3c 48ac 8dbd
000002d0: d48f 2cbb df42 6b3a e173 883d 483f 0c3e
000002e0: 5bb6 efbc 1436 e53c 0552 873d 42f0 64bd
000002f0: fcac 96be 834c 283d 28f7 2e3e 962c cdbd
00000300: f36b be3e 9ca0 173d c9fd 3dbe e40a 833d
00000310: 07c1 133e b62a 1bbe 7c58 8b3d 6665 08be
00000320: ecbd a8bd 53d7 953e 7c89 0cbd eeee f5bd
00000330: 56cb a3bb 6629 803b d2e4 ea3d 81b9 6c3e
00000340: 4e6a 0abe 1b11 823d 4b32 443d ac1a 893d
00000350: f43b 053d 3923 9f3e 5b76 6abc 22c6 2c3b
00000360: 4272 cd3d 79e9 92be 6fc4 243d 2c87 a0bd
00000370: 16c1 733d b29a 013c 5a1d cc3d 6d75 283d
00000380: 8ba5 83bd 2b2e 983d e18e 05be 0fee 083e
00000390: 56f4 e6bd 9ab3 263e cf8e b43c e488 22bc
000003a0: 9cef ba3c 08df 48bc c79e 3ebc fbd5 24be
000003b0: 2dd3 cfbc 077a 863d 0e57 23bd ece0 d5bd
000003c0: f6ff 343d 7ba4 233b 165f 44be 7014 44bd
000003d0: 2d7e a63d ddd1 60b8 c860 e03c 0126 6e3d
000003e0: 0958 903d 908c 733d 82d5 adbd a0b8 493f
000003f0: 96ea dfbb f45d 933d 1f8e 953c 155e de3c

fc1.bias f4 [24]
0.060063496 0.05796828 0.029203031 -0.054346666 0.011437807 -0.015078133 -0.002521531 -0.023629086
0.028575178 0.039415315 -0.026114995 0.022699222 0.033919126 0.0070216893 0.047582235 0.24378116
0.09109448 -0.00988978 0.0689833 -0.03027594 -0.020748649 -0.06378301 -0.014426819 -0.021921124
00000000: 2405 763d 2670 6d3d 323b ef3c 9c9a 5ebd
00000010: a465 3b3c 460a 77bc 4540 25bb c991 c1bc
00000020: 7e16 ea3c f471 213d 1def d5bc b8f3 b93c
00000030: c8ee 0a3d 3316 e63b 97e5 423d c5a1 793e
00000040: be8f ba3d be08 22bc 1e47 8d3d 4005 f8bc
00000050: 12f9 a9bc aba0 82bd 775e 6cbc ee93 b3bc

fc2.weight f4 [588, 24]
-0.009408893 0.09001059 0.0028382721 0.17516166 0.01106465 0.007735228 -0.09408338 0.15778086
0.10125805 0.052498065 -0.02926599 -0.08980542 -0.17612112 -0.13775748 -0.025349448 0.00490725
-0.05277842 -0.215268 -0.11772689 -0.026243294 -0.18271936 -0.08474421 -0.22811332 0.13343185
-0.0133089 0.09003946 0.20411699 -0.13620676 -0.018844344 -0.010020853 0.11709378 -0.10961855
0.01089519 -0.008550189 -0.14954038 0.041964352 -0.08701147 0.10227596 -0.027824711 0.0021841337
0.0020484386 -0.097767524 0.21767119 0.19855008 -0.14192285 -0.08709254 0.2665593 -0.10824347
0.16193338 -0.04466323 -0.24866286 -0.18152036 0.15081474 0.19601268 -0.22311671 0.089777976
-0.016568338 -0.04396934 -0.15234798 -0.12143475 0.12754394 0.13626525 0.21854861 -0.03994365
-0.13282898 -0.12762463 -0.07247203 -0.020070314 0.15818813 -0.12287478 0.124936424 -0.088876255
-0.046786044 -0.16080193 -0.13208966 -0.17105195 -0.009858478 0.12111 -0.21347295 0.20465776
-0.23616739 -0.09086558 0.070897326 -0.09621283 0.18571074 0.21099582 0.21211237 -0.04757147
0.21680467 0.14879373 0.21193936 -0.15570703 -0.045173556 0.07021825 0.3491392 0.08588031
0.2259726 0.13114032 0.12894472 -0.1635511 -0.15348148 -0.06021894 0.03564823 0.14908403
0.023669573 0.108667746 0.098584965 -0.03217848 -0.22412007 -0.16557214 -0.11313067 -0.08330748
0.0398176 -0.09087526 0.043888323 -0.06346393 -0.0066634566 0.12360936 -0.052827865 0.1715408
-0.13821116 0.70358676 0.39958075 0.079328716 -0.058523998 -0.074395895 0.1311077 0.14605877
-0.38228935 -0.4771467 -0.17054527 -0.106157355 -0.2752727 -0.02216378 -0.15470551 0.17777282
0.14986983 -0.15094039 -0.42763618 0.1617262 0.042039666 0.1224013 -0.31424257 -0.023441847
-0.018532759 0.0023672688 -0.00059287023 0.13774148 0.085703254 0.0994412 0.016611673 -0.20516242
0.055937644 0.0200749 0.101327874 -0.06926967 0.05678862 0.11110851 0.066364415 0.027759915
0.03675835 0.104566894 0.07084243 -0.05815078 0.085197374 0.17283708 0.017155098 0.19104895
0.1552612 -0.0852665 -0.13163972 0.12638637 0.07558961 0.15016901 0.17005979 -0.12224141
-0.16232505 -0.065313734 0.18956333 -0.122884616 -0.06302051 -0.010223713 0.28280267 -0.08168768
-0.021379942 0.20274794 0.076509364 0.14320746 0.15030804 0.113857016 -0.37972513 0.029742042
-0.1546027 -0.00596098 -0.16577446 0.04161027 -0.15806685 -0.087602526 0.13767686 -0.027584616
-0.054616954 -0.119263224 -0.011959627 -0.17220154 -0.19519165 0.09960846 -0.0066263597 -0.04200542
0.065076664 -0.0028907505 -0.075955465 -0.13396809 0.17512295 -0.0751178 -0.08878687 0.14194271
0.1030296 -0.092602246 0.21308461 -0.035827845 -0.13932014 -0.13924646 -0.30586576 -0.13370076
-0.14388955 -0.108366266 -0.05653609 0.017154872 0.29669982 -0.19439586 0.24059188 -0.1765821
0.05257243 0.070659116 0.7455315 0.0024091478 -0.18398778 -0.18292794 0.29933676 0.1645861
0.02113627 -0.06519976 -0.08278066 -0.018287525 -0.108199224 -0.07335436 -0.26120484 0.05430913
-0.078522444 -0.17176263 0.17643905 0.07739903 0.031257816 0.13596618 -0.031038018 0.031530533
00000000: c227 1abc 7957 b83d 4e02 3a3b 945d 333e
00000010: 8148 353c cc77 fd3b caae c0bd 4e91 213e
00000020: 6160 cf3d 3608 573d 3bbf efbc e7eb b7bd
00000030: 1859 34be 4c10 0dbe a5a9 cfbc ffcc a03b
00000040: 2f2e 58bd 376f 5cbe cc1a f1bd 2dfc d6bc
00000050: c91a 3bbe 5f8e adbd 8a96 69be 5ca2 083e
00000060: 930d 5abc 9c66 b83d 0b04 513e c979 0bbe
00000070: 745f 9abc 812e 24bc ddce ef3d b17f e0bd
00000080: bd81 323c 1816 0cbc 1d21 19be d0e2 2b3d
00000090: 1233 b2bd 0f76 d13d a6f0 e3bc af23 0f3b
000000a0: 193f 063b 573a c8bd 32e5 5e3e b650 4b3e
000000b0: 3954 11be 935d b2bd 767a 883e c1ae ddbd
000000c0: ddd1 253e cbf0 36bd 7aa1 7ebe 79e0 39be
000000d0: 2e6f 1a3e 8cb7 483e b578 64be 84dd b73d
000000e0: 53ba 87bc 3219 34bd 1c01 1cbe c8b2 f8bd
000000f0: e19a 023e 1e89 0b3e 35cb 5f3e f49b 23bd
00000100: 5204 08be 08b0 02be 376c 94bd 806a a4bc
00000110: 12fc 213e c6a5 fbbd abde ff3d c104 b6bd
00000120: b9a2 3fbd 43a9 24be 8342 07be 3e28 2fbe
00000130: 7485 21bc 8508 f83d a798 5abe ce91 513e
00000140: ddd5 71be bc17 babd 9e32 913d 3b0b c5bd
00000150: f52a 3e3e 4a0f 583e fc33 593e 4dda 42bd
00000160: 0b02 5e3e 625d 183e a206 593e aa71 1fbe
00000170: e807 39bd 96ce 8f3d 60c2 b23e 04e2 af3d
00000180: 5c65 673e a649 063e 160a 043e f179 27be
00000190: 402a 1dbe 23a8 76bd e103 123d 7ca9 183e
000001a0: b1e6 c13c 328d de3d eae6 c93d 95cd 03bd
000001b0: bb7f 65be be8b 29be 0db1 e7bd 1d9d aabd
000001c0: c817 233d cf1c babd 3ec4 333d 60f9 81bd
000001d0: 2059 dabb e726 fd3d 0862 58bd 64a8 2f3e
000001e0: 3a87 0dbe 431e 343f d995 cc3e 1877 a23d
000001f0: dcb6 6fbd e05c 98bd 1941 063e 6e90 153e
00000200: 6ebb c3be 924c f4be 6ba3 2ebe 0769 d9bd
00000210: 8bf0 8cbe d190 b5bc 1f6b 1ebe 140a 363e
00000220: 7a77 193e 1e90 1abe 21f3 dabe 8e9b 253e
00000230: c931 2c3d 88ad fa3d 67e4 a0be 1e09 c0bc
00000240: 03d2 97bc 2e24 1b3b d96a 1bba 1a0c 0d3e
00000250: 3085 af3d d4a7 cb3d 3415 883c 1916 52be
00000260: df1e 653d 1e74 a43c fd84 cf3d 42dd 8dbd
00000270: 2f9b 683d dc8c e33d 11ea 873d c368 e33c
00000280: ec8f 163d 2b27 d63d d615 913d 832f 6ebd
00000290: f67b ae3d 34fc 303e d988 8c3c 56a2 433e
000002a0: cbfc 1e3e 34a0 aebd 90cc 06be 6e6b 013e
000002b0: bace 9a3d e8c5 193e 2724 2e3e b459 fabd
000002c0: 8a38 26be 35c3 85bd e41c 423e eeaa fbbd
000002d0: e610 81bd 5c81 27bc 83cb 903e df4b a7bd
000002e0: fd24 afbc 289d 4f3e f1b0 9c3d faa4 123e
000002f0: 5aea 193e de2d e93d 556b c2be 95a5 f33c
00000300: 2c50 1ebe 5354 c3bb c8c0 29be 886f 2a3d
00000310: 47dc 21be f468 b3bd 2afb 0c3e 22f9 e1bc
00000320: 07b6 5fbd 4740 f4bd 50f2 43bc 9a55 30be
00000330: 52e0 47be 85ff cb3d ef21 d9bb e00d 2cbd
00000340: ea46 853d bf72 3dbb 8a8e 9bbd ee2e 09be
00000350: 6e53 333e 5cd7 99bd e4d5 b5bd 6e59 113e
00000360: 2f01 d33d 3fa6 bdbd da32 5a3e 38c0 12bd
00000370: f0a9 0ebe a096 0ebe 709a 9cbe dae8 08be
00000380: c857 13be 22ef ddbd 6392 67bd 6088 8c3c
00000390: 0ae9 973e b50f 47be b85d 763e f0d1 34be
000003a0: 3056 573d bab5 903d 27db 3e3f cbe2 1d3b
000003b0: 4b67 3cbe 7651 3bbe ab42 993e 4289 283e
000003c0: f925 ad3c 7487 85bd e888 a9bd b8cf 95bc
000003d0: 8e97 ddbd d03a 96bd a4bc 85be 4073 5e3d
000003e0: 60d0 a0bd 8be2 2fbe 70ac 343e 6283 9e3d
000003f0: 3208 003d b83a 0b3e 7143 febc 2926 013d

fc2.bias f4 [588]
-0.080408946 0.42186707 0.7573407 0.24005237 0.067664035 -0.322851 0.6695954 0.7704788
0.11541399 -0.26487157 0.08393239 1.0368681 1.4538636 0.79915875 0.002888849 1.0850011
0.48581964 0.37569612 0.09360811 0.7783189 -0.09977115 0.16887999 -0.087649696 0.30914497
-0.31782883 -0.042521164 0.96964073 -0.19835566 0.08836614 -0.5478646 0.4340128 0.3204541
-0.040467918 0.7911325 0.12231217 0.016274767 -0.42380777 -0.06886272 0.1796109 0.24801604
0.5655271 0.05291631 0.5037418 0.62610066 1.6908755 -0.53088593 -0.16954605 0.46304306
0.39399317 0.036102798 -0.18478976 0.0053461995 -0.33605686 -0.17632222 0.19212013 -0.16767628
0.38881293 -0.077491336 0.3694694 1.4097648 1.5400554 1.1737884 0.04547769 0.32041177
-0.21528712 0.04903588 0.13562256 0.10652048 -0.05160358 -0.15601099 0.06712689 -0.1187469
0.7546803 0.4627847 0.17681605 -0.22334641 -0.20782658 0.10954 0.30942833 -0.10941095
-0.12121693 -0.033357017 -0.32307428 -0.14165582 0.20484671 -0.044499684 0.05582531 0.6367952
0.042372543 -0.07429421 0.061708227 0.41282183 0.74810696 -0.41490462 0.51281446 0.10023193
0.73746574 1.2974607 -0.0659514 0.020922776 0.14653474 -0.015307382 -0.02299782 0.15641163
0.8017252 -0.22068082 -1.2474856 0.59800184 0.06577423 -0.0643324 0.15620355 0.5625892
0.11049728 -0.12034626 0.42558044 -0.00525506 0.035177264 0.024134172 -0.16187268 0.36120144
1.0228211 -0.10033213 -0.16048786 -0.07953806 0.43660292 0.08897811 0.3909548 -0.16746667
0.4360425 -1.0104283 1.4183056 -0.36616474 -0.15120286 0.060369786 -1.1455414 -0.12262258
0.5121807 -1.321602 -0.1130591 0.06899965 0.05714998 0.14673643 -0.15076579 -0.20885634
-1.5311272 0.17795253 0.10148303 -0.069705375 -0.4064334 -0.23278418 0.5392669 0.8191933
0.40427005 -0.17940032 0.18301174 0.5971069 0.10901041 -0.019245809 0.8526811 0.4063093
0.21981533 0.059305742 -0.3124924 0.14820266 0.40984866 -0.011068597 0.9487595 0.0030569732
-0.17818622 -1.6566774 0.47667587 0.32840103 0.15575927 0.77415586 -0.13036305 0.073961064
-0.17434555 1.2753304 1.0666165 0.48140898 1.2316728 -0.355825 -0.16914283 0.54693234
-0.10157234 -0.12464923 0.3261309 0.12369622 0.17427902 0.012101953 -0.13032672 0.108971395
-0.22443913 0.33566874 0.016985795 -0.07863501 0.016207501 -0.08282371 0.4333091 0.6495921
-0.048321795 0.3164211 0.30528516 -0.17314209 -0.18663302 0.8811274 0.8562047 0.098648034
0.059928846 -0.28927863 -0.26205832 0.0018440532 -0.18003069 0.7880613 -0.031185577 -0.20057839
0.1288217 -0.098166995 0.74470896 0.15921448 -0.10792566 0.19756769 0.41248462 0.1882606
-0.12375283 0.1787807 0.305159 -0.07656356 -0.084682174 0.082971804 -0.17341906 0.3878366
-0.10886128 1.1056533 -0.17112315 0.56113863 -0.5259601 -0.11233592 0.40275088 0.92125416
-0.0584089 0.70139194 -0.009307653 -0.026368871 -0.20433976 -0.028378623 -0.12830651 -0.14831868
0.05538721 0.009271289 -0.09459948 0.16446932 -0.105633385 0.17684644 -0.23218414 -0.13750592
00000000: 72ad a4bd f6fe d73e 15e1 413f 4ad0 753e
00000010: 7193 8a3d ba4c a5be 9b6a 2b3f 193e 453f
00000020: 2c5e ec3d 3f9d 87be bfe4 ab3d 18b8 843f
00000030: 3418 ba3f ab95 4c3f d852 3d3b 51e1 8a3f
00000040: 5abd f83e 3e5b c03e 9cb5 bf3d e83f 473f
00000050: d154 ccbd e0ee 2c3e af81 b3bd 4048 9e3e
00000060: 76ba a2be ac2a 2ebd 603a 783f bf1d 4bbe
00000070: 4ff9 b43d db40 0cbf ed36 de3e 8f12 a43e
00000080: b0c1 25bd a987 4a3f ce7e fa3d a952 853c
00000090: 55fd d8be e607 8dbd ebeb 373e ebf7 7d3e
000000a0: 62c6 103f c6be 583d 39f5 003f 2248 203f
000000b0: 9c6e d83f 24e8 07bf 7b9d 2dbe fb13 ed3e
000000c0: 79b9 c93e 87e0 133d 8739 3dbe 2c2f af3b
000000d0: a50f acbe d08d 34be 24bb 443e 55b3 2bbe
000000e0: 7d12 c73e c7b3 9ebd 182b bd3e 2c73 b43f
000000f0: 8920 c53f b33e 963f d046 3a3d 030d a43e
00000100: 3a74 5cbe d9d9 483d a4e0 0a3e 6927 da3d
00000110: 475e 53bd 58c1 1fbe d379 893d 9331 f3bd
00000120: ba32 413f 1ef2 ec3e 440f 353e ecb4 64be
00000130: 7ed0 54be 8256 e03d 646d 9e3e d912 e0bd
00000140: 9540 f8bd 5ea1 08bd fe69 a5be 390e 11be
00000150: 56c3 513e 4d45 36bd 15a9 643d 0305 233f
00000160: d58e 2d3d 9027 98bd c4c1 7c3d 625d d33e
00000170: f083 3f3f 616e d4be cf47 033f 6646 cd3d
00000180: 8eca 3c3f 3113 a63f 8711 87bd 3e66 ab3c
00000190: 340d 163e d0cb 7abc ed65 bcbc 5f2a 203e
000001a0: dd3d 4d3f 27fa 61be 9cad 9fbf a616 193f
000001b0: a4b4 863d b5c0 83bd d3f3 1f3e d905 103f
000001c0: 664c e23d 1a78 f6bd aee5 d93e a332 acbb
000001d0: 0916 103d 07b5 c53c f4c1 25be 65ef b83e
000001e0: cdeb 823f ef7a cdbd ee56 24be dae4 a2bd
000001f0: 6b8a df3e 283a b63d 3a2b c83e 627c 2bbe
00000200: f640 df3e b755 81bf 0a8b b53f f279 bbbe
00000210: ecd4 1abe 4f46 773d 1aa1 92bf 8c21 fbbd
00000220: 461e 033f 412a a9bf 888b e7bd b04f 8d3d
00000230: 1916 6a3d 1342 163e 5962 1abe 70de 55be
00000240: fafb c3bf 3039 363e 56d6 cf3d b1c1 8ebd
00000250: 0a18 d0be fa5e 6ebe 650d 0a3f a7b6 513f
00000260: 7cfc ce3e b8b4 37be 6e67 3b3e ffdb 183f
00000270: da40 df3d 63a9 9dbc 4f49 5a3f c607 d03e
00000280: 4517 613e 94ea 723d 01ff 9fbe 70c2 173e
00000290: afd7 d13e 1059 35bc e7e1 723f 8057 483b
000002a0: 7376 36be 010e d4bf dc0e f43e 2e24 a83e
000002b0: 5c7f 1f3e 142f 463f e47d 05be e678 973d
000002c0: a487 32be 073e a33f e486 883f 3d7b f63e
000002d0: 74a7 9d3f b22e b6be c733 2dbe c203 0c3f
000002e0: 2905 d0bd 1848 ffbd a1fa a63e 7254 fd3d
000002f0: 3376 323e 4547 463c 5e74 05be 652c df3d
00000300: 5fd3 65be c6dc ab3e cb25 8b3c 640b a1bd
00000310: 98c5 843c 7a9f a9bd b1da dd3e ab4b 263f
00000320: 13ed 45bd f201 a23e 564e 9c3e 294c 31be
00000330: ba1c 3fbe 9191 613f 3b30 5b3f fb07 ca3d
00000340: f377 753d 541c 94be 822c 86be 28b4 f13a
00000350: f759 38be 63be 493f e578 ffbc 6c64 4dbe
00000360: d6e9 033e c70b c9bd 3fa5 3e3f 1f09 233e
00000370: 2108 ddbd 2f4f 4a3e 2f31 d33e 63c7 403e
00000380: 2072 fdbd 4a12 373e cd3d 9c3e 5bcd 9cbd
00000390: d96d adbd 1fed a93d c494 31be 8592 c63e
000003a0: aaf2 debd 0c86 8d3f e83a 2fbe c8a6 0f3f
000003b0: 52a5 06bf 6010 e6bd 5d35 ce3e 50d7 6b3f
000003c0: 2c3e 6fbd 6c8e 333f 207f 18bc 8803 d8bc
000003d0: 713e 51be 497a e8bc c862 03be dae0 17be
000003e0: b3dd 623d 9be6 173c 5fbd c1bd a56a 283e
000003f0: 5156 d8bd 3c17 353e aec1 6dbe 5ace 0cbe

deconv1.weight f4 [12, 12, 1, 1]
-0.047129452 -0.23822244 0.2870527 0.23436283 -0.1738926 0.48880064 0.5108064 0.12180016
0.2820815 0.03452606 0.26225176 0.33870223 -0.026748544 -0.28513333 0.45986032 0.22816174
-0.14070986 0.14082752 0.25904146 0.03314481 0.6241491 0.4177296 0.122107424 0.04165795
0.4234789 0.15782061 0.11544013 0.071474396 -0.38736835 -0.14847137 0.1207866 0.050417174
0.23642483 0.038588736 -0.77273345 -0.27917138 -0.45675126 0.10666405 0.16154903 -0.25068122
0.28862697 -0.37856588 0.068305954 0.07844612 0.35652015 0.22851512 -0.019460969 -0.23401888
-0.4385941 -0.068834275 0.26143393 -0.18507865 0.26620468 -0.15151978 0.20625055 0.1244072
0.56663746 0.55155146 0.049093746 -0.06967306 0.20024289 0.54991597 -0.29762983 -0.19033079
-0.12279461 -0.06831606 0.32394308 -0.0785777 -0.15954705 -0.06925803 0.14185396 0.25755197
-0.23049316 -0.21983102 -0.26698738 0.0450021 -0.36724594 0.27502567 -0.09976119 0.14949381
-0.28492704 -0.31535766 0.24788529 0.105597496 0.11705507 0.46919495 -0.24928601 -0.1797621
0.148826 -0.11649155 0.24415791 0.092958115 -0.20212725 -0.20397592 0.0449978 0.2321925
-0.03220786 -0.05259565 0.29588488 0.20628996 0.23306745 -0.09988742 -0.13425267 0.32233644
-0.060942397 0.44688565 -0.5445028 -0.37003538 0.11890718 -0.17116164 -0.17241195 -0.12946339
0.24424452 -0.12017203 -0.59320843 0.23937811 0.07874596 -0.091933236 0.27597874 -0.512748
-0.2639591 0.0604351 0.29651922 0.27069688 -0.28604 0.08139203 0.30511853 0.004768979
-0.21342658 -0.011757866 -0.24245381 0.0322057 0.11183291 0.026907304 0.16193546 0.32974967
0.2879631 -0.034678854 -0.18995416 -0.49032262 -0.3706389 0.22469944 0.20132911 0.0683588
00000000: d00a 41bd 95f0 73be 92f8 923e cffc 6f3e
00000010: e710 32be 1444 fa3e 35c4 023f 5d72 f93d
00000020: fd6c 903e 336b 0d3d dd45 863e 616a ad3e
00000030: c31f dbbc fffc 91be d072 eb3e 3ba3 693e
00000040: 3f16 10be 1735 103e 15a1 843e dac2 073d
00000050: 3cc8 1f3f a7e0 d53e 7513 fa3d 87a1 2a3d
00000060: 3ad2 d83e ba9b 213e e06b ec3d 2b61 923d
00000070: 2555 c6be e108 18be f75e f73d 3d82 4e3d
00000080: 5a19 723e 390f 1e3d dcd1 45bf 8def 8ebe
00000090: 4ddb e9be ae72 da3d 1c6d 253e 4a59 80be
000000a0: eac6 933e 63d3 c1be fee3 8b3d 5ca8 a03d
000000b0: cf89 b63e deff 693e 9c6c 9fbc a5a2 6fbe
000000c0: 688f e0be fcf8 8cbd abda 853e 4285 3dbe
000000d0: fb4b 883e 0028 1bbe 5833 533e 34c9 fe3d
000000e0: 270f 113f 7a32 0d3f 8616 493d c0b0 8ebd
000000f0: 790c 4d3e 4bc7 0c3f f062 98be 13e6 42be
00000100: be7b fbbd 4ae9 8bbd dedb a53e 58ed a0bd
00000110: 4d60 23be 27d7 8dbd 2a42 113e dadd 833e
00000120: 6606 6cbe 621b 61be 92b2 88be 1f54 383d
00000130: a907 bcbe 2ad0 8c3e 984f ccbd e814 193e
00000140: f5e1 91be 8f76 a1be a4d5 7d3e 8043 d83d
00000150: 92ba ef3d 523a f03e d544 7fbe 8e13 38be
00000160: d865 183e 1f93 eebd 8804 7a3e d360 be3d
00000170: 72fa 4ebe 10df 50be 9d4f 383d dfc3 6d3e
00000180: 64ec 03bd 896e 57bd 397e 973e ad3d 533e
00000190: 3ca9 6e3e c791 ccbd 8879 09be 4809 a53e
000001a0: bc9e 79bd 32ce e43e 8964 0bbf 4775 bdbe
000001b0: 9c85 f33d ff44 2fbe c28c 30be 0d92 04be
000001c0: 3c1b 7a3e c11c f6bd 82dc 17bf 891f 753e
000001d0: 9045 a13d 7e47 bcbd 164d 8d3e 7443 03bf
000001e0: a625 87be cc8a 773d 5ed1 973e c898 8a3e
000001f0: d673 92be ddb0 a63d 7f38 9c3e 1845 9c3b
00000200: 7f8c 5abe 10a4 40bc d045 78be 20ea 033d
00000210: a708 e53d b56c dc3c 69d2 253e f3d4 a83e
00000220: e66f 933e 6a0b 0ebd 5883 42be 910b fbbe
00000230: 62c4 bdbe 9c17 663e 3829 4e3e b3ff 8b3d

deconv1.bias f4 [12]
0.81365323 -0.4315286 0.03569909 -0.20195907 0.12795474 0.38052493 -0.08576336 -0.023943251
0.26093072 0.12458529 0.05002202 0.123674884
00000000: 944b 503f 51f1 dcbe 3639 123d 5cce 4ebe
00000010: 9106 033e 2ad4 c23e b3a4 afbd a324 c4bc
00000020: b698 853e 9326 ff3d e4e3 4c3d 4249 fd3d

deconv2.weight f4 [12, 6, 2, 2]
-0.41850463 0.059480272 -0.2862923 0.19878268 -0.52145153 -0.0035514433 -0.5126747 0.09955188
-0.22063968 0.19229999 -0.04092472 -0.10118371 -0.32145628 0.25959107 -0.2434491 0.3828814
-0.53010887 0.08337948 -0.7431486 -0.19200774 0.01745999 0.002394557 0.022208884 -0.0035329168
0.031672295 0.43237433 0.14186054 0.4227757 -0.19784199 0.36468455 0.11544983 0.49311426
0.17147413 0.2954461 0.13844053 -0.087258145 0.10005166 0.49675214 0.32589394 0.62073356
-0.10501121 -0.006503187 0.0099587245 -0.15716636 0.0072456873 -0.0050515323 0.019093577 -0.004703627
-0.36582178 -0.34121424 -0.27718344 -0.76702225 0.1436036 -0.34123167 -0.42505577 -0.5766769
-0.44117984 -0.35015136 -0.3341406 0.1883706 -0.46405673 -0.15663384 -0.44947425 -0.9299249
-0.6510387 0.008150891 0.16014646 0.12567507 0.026797527 0.020719372 0.06221113 0.04178679
-0.16498049 -0.5465682 -0.049576614 0.08029102 -0.17159945 -0.77105767 -0.12612887 -0.29487327
-0.30255532 -0.24616282 0.037926644 0.047575317 -0.47539625 -0.7598344 -0.2769854 -0.109888405
-0.22843544 -0.23537146 -0.8533684 -0.24299428 -0.01100481 0.00018017877 -0.036618724 -0.015756518
0.13812998 -0.013766462 -0.36574292 -0.57226586 0.4002042 0.24124804 -0.14128202 -0.35344478
0.052093226 -0.05104897 -0.346955 0.26920605 0.33350495 0.117864415 -0.298015 -0.44938672
0.39160258 0.045714986 -4.0088353 -0.23734747 -0.003395397 -0.0018075085 0.013861206 0.018504336
-0.016098201 0.15417221 -0.5484164 -0.4106276 0.25405794 0.3592935 -0.36979532 -0.19865453
0.02496192 0.15219684 -0.3854592 0.13950768 0.22122559 0.3893209 -0.36602944 -0.07115289
0.1505978 -0.11323852 0.18609683 -0.11532629 0.018518189 0.009704149 0.04154891 0.024503497
0.25177813 -0.1655854 -0.118874125 -0.31405035 0.101308376 0.0544761 0.07645535 -0.31655884
0.11483937 -0.20937233 -0.11861742 -0.28077263 0.3829634 -0.2587207 -0.12476915 -0.4592105
0.63593036 -0.029688967 -0.09814061 -0.13981122 -0.017701555 -0.0104777785 -0.024156561 -0.0100090485
0.18312591 -0.004960543 0.37420776 -4.298284e-06 -0.16756271 -0.034414917 0.38354683 0.060243063
0.10397028 -0.12405698 0.14121236 -0.20137358 0.07745609 -0.12870187 0.28996173 -0.19532831
0.12398248 -0.008026148 0.0076728617 -0.20421067 -0.0041162204 0.0008190395 -0.010972694 -0.0037671137
-0.26124254 -0.22913222 0.23759449 0.41721714 -0.3324789 -0.53090864 -0.021108083 0.10419566
-0.26813832 -7.12488e-05 0.23224328 0.020907838 -0.57353497 -0.29971153 0.028942315 0.33557856
-0.53458947 -1.0832553 0.006543115 -0.090815514 -0.00869758 0.00022133326 -0.029019298 -0.012334772
-0.27125204 -0.23795639 -0.37893683 -0.08553401 -0.4447052 -0.24534982 -0.45411864 -0.2657769
-0.26009163 -0.0027188554 -0.14584908 -0.61493796 -0.2614384 -0.12968202 -0.44154492 0.006010933
-0.20717782 -0.018283963 -0.0019024591 0.08462468 0.004264263 0.0017900812 -0.0088343695 -0.006284004
0.1715581 0.3008236 0.30125004 0.5457003 0.022890551 0.2213916 0.29837948 0.48985025
0.25422147 0.14140065 0.29533985 0.056474984 0.20143421 0.1562578 0.454156 0.5134929
00000000: 3d46 d6be 96a1 733d e894 92be b08d 4b3e
00000010: d97d 05bf 55bf 68bb a63e 03bf dbe1 cb3d
00000020: 5eef 61be 4aea 443e aea0 27bd 6839 cfbd
00000030: eb95 a4be 1fe9 843e b94a 79be 0809 c43e
00000040: 37b5 07bf dcc2 aa3d fd3e 3ebf ad9d 44be
00000050: 4108 8f3c 00ee 1c3b 68ef b53c 8288 67bb
00000060: cfba 013d 2b60 dd3e e443 113e 0e76 d83e
00000070: 1797 4abe efb7 ba3e f670 ec3d 7979 fc3e
00000080: ea96 2f3e b644 973e 5bc3 0d3e 66b4 b2bd
00000090: e2e7 cc3d 4c56 fe3e 92db a63e 65e8 1e3f
000000a0: 1e10 d7bd b018 d5bb eb29 233c 38f0 20be
000000b0: 3b6d ed3b 5387 a5bb 226a 9c3c e220 9abb
000000c0: fe4c bbbe a2b3 aebe fdea 8dbe 925b 44bf
000000d0: d20c 133e ebb5 aebe e9a0 d9be 19a1 13bf
000000e0: 53e2 e1be 0a47 b3be 7a14 abbe 39e4 403e
000000f0: d898 edbe 9f64 20be 7d21 e6be 8f0f 6ebf
00000100: 79aa 26bf 518b 053c 6ffd 233e f7b0 003e
00000110: 7d86 db3c acbb a93c 19d1 7e3d a028 2b3d
00000120: a5f0 28be e5eb 0bbf d910 4bbd 9e6f a43d
00000130: c4b7 2fbe 0964 45bf ed27 01be a1f9 96be
00000140: 88e8 9abe 1b12 7cbe f858 1b3d 56de 423d
00000150: 2367 f3be 8284 42bf 08d1 8dbe 2c0d e1bd
00000160: fbea 69be 3705 71be 5a76 5abf 7ed3 78be
00000170: 854d 34bc 5fee 3c39 84fd 15bd d013 81bc
00000180: f271 0d3e ba8c 61bc a842 bbbe 0480 12bf
00000190: 91e7 cc3e ba09 773e 3cac 10be b7f6 b4be
000001a0: b55f 553d ba18 51bd 16a4 b1be 60d5 893e
000001b0: 29c1 aa3e e662 f13d 6c95 98be 0416 e6be
000001c0: 2280 c83e a33f 3b3d 6148 80c0 370b 73be
000001d0: 4f85 5ebb ece9 ecba 1d1a 633c 6896 973c
000001e0: 60e0 83bc 52df 1d3e 0465 0cbf c83d d2be
000001f0: e213 823e 51f5 b73e d055 bdbe 186c 4bbe
00000200: f17c cc3c 7dd9 1b3e e95a c5be 1adb 0e3e
00000210: f688 623e 1255 c73e 3668 bbbe 9bb8 91bd
00000220: 4f36 1a3e 99e9 e7bd 2b90 3e3e 3130 ecbd
00000230: 75b3 973c 27fe 1e3c 312f 2a3d 8fbb c83c
00000240: 10e9 803e 388f 29be 4774 f3bd 35cb a0be
00000250: c47a cf3d 5522 5f3d 9f94 9c3d 0014 a2be
00000260: e730 eb3d b365 56be b1ed f2bd 6ec1 8fbe
00000270: c713 c43e 0a77 84be f886 ffbd a31d ebbe
00000280: 55cc 223f 4736 f3bc f2fd c8bd ac2a 0fbe
00000290: da02 91bc fdaa 2bbc fbe3 c5bc fefc 23bc
000002a0: 5c85 3b3e 0d8c a2bb 2998 bf3e fa39 90b6
000002b0: 8f95 2bbe a8f6 0cbd 4060 c43e 6ec1 763d
000002c0: 5fee d43d 9611 febd f999 103e e034 4ebe
000002d0: 4ca1 9e3d 6cca 03be dd75 943e 2504 48be
000002e0: 87ea fd3d 1b80 03bc a16c fb3b 9a1c 51be
000002f0: 5ce1 86bb cfb4 563a d0c6 33bc aee1 76bb
00000300: 95c1 85be a3a1 6abe f84b 733e 7c9d d53e
00000310: ad3a aabe a1e9 07bf dcea acbc 8964 d53d
00000320: 6d49 89be 696b 95b8 2fd1 6d3e ea46 ab3c
00000330: 30d3 12bf ca73 99be 6f18 ed3c f4d0 ab3e
00000340: dbda 08bf 1ca8 8abf a067 d63b 7cfd b9bd
00000350: 4b80 0ebc b215 6839 e1b9 edbc c917 4abc
00000360: 8ce1 8abe d7aa 73be 0204 c2be 742c afbd
00000370: 66b0 e3be fc3c 7bbe 3d82 e8be e913 88be
00000380: bb2a 85be d32e 32bb 7659 15be 936c 1dbf
00000390: 41db 85be 5dcb 04be 2d12 e2be 5cf7 c43b
000003a0: 6c26 54be 40c8 95bc ef5b f9ba b44f ad3d
000003b0: 3bbb 8b3b 28a1 ea3a 08be 10bc 0cea cdbb
000003c0: edac 2f3e 8d05 9a3e 723d 9a3e 04b3 0b3f
000003d0: f784 bb3c 7bb4 623e 32c5 983e a7cd fa3e
000003e0: 5129 823e 55cb 103e c936 973e 5052 673d
000003f0: c544 4e3e 0b02 203e 2387 e83e 4574 033f

deconv2.bias f4 [6]
-0.08621716 -0.07246291 -0.02399625 -0.10545345 -0.13461082 0.43829527
00000000: 9f92 b0bd 6f67 94bd c993 c4bc faf7 d7bd
00000010: 6bd7 09be 3d68 e03e

deconv3.weight f4 [6, 1, 2, 2]
0.036996625 -0.44817692 1.6677486 0.96213883 1.644917 0.43066734 0.4528117 -0.54227966
-0.17517377 0.45403916 0.34082004 1.2730305 -0.057903077 1.343689 -0.48829883 0.71144164
1.6213958 0.36754268 0.6042416 -0.611085 -0.20296535 -0.20980905 -0.20921212 -0.20431036
00000000: c689 173d 7277 e5be c978 d53f bb4e 763f
00000010: a48c d23f 6e80 dc3e efd6 e73e d7d2 0abf
00000020: c160 33be d277 e83e f77f ae3e aaf2 a23f
00000030: c72b 6dbd 00fe ab3f 4e02 fabe 0a21 363f
00000040: e689 cf3f 8e2e bc3e 94af 1a3f 1170 1cbf
00000050: 26d6 4fbe 2fd8 56be b43b 56be bc36 51be
