Pytorch/AutoEncoder/saved_models/cifar10/Net-L1Loss_cifar10.pt (torch, 436271 bytes, 16 tensors)

conv1.weight f4 [64, 3, 3, 3]
0.048962824 -0.08972624 0.08229918 -0.016758362 -0.089299195 0.22870241 -0.2759418 -0.077596486
0.24901126 -0.16749449 -0.047162008 -0.0016053017 -0.1610297 -0.20018795 0.1986977 -0.17492104
-0.027986333 0.19615601 0.11346843 0.0056005805 -0.06957443 -0.10065493 -0.1099777 0.32344484
-0.19235909 -0.06526593 0.31172153 0.01955626 0.10610841 0.064966 -0.006828042 -0.10278856
0.032413866 -0.09280075 0.10566843 -0.15769859 0.0047231526 -0.21247113 0.15923159 -0.06670887
0.119186155 -0.0696428 -0.08917631 0.13260427 0.07293775 0.11627386 -0.04574674 -0.20276545
0.13822739 -0.13748421 0.15136479 0.050638758 0.13131772 -0.06791927 0.074892364 0.12062694
0.14263293 -0.10168793 -0.02704559 0.058968376 0.11477047 -0.007761376 0.14047419 -0.107239544
-0.2137586 0.019076742 -0.071879834 0.061214413 -0.14326318 -0.10167406 0.11129244 0.104072265
0.09046968 -0.065181896 -0.10337931 0.13849379 -0.2127172 0.12806004 -0.10758276 -0.02572242
-0.06691866 0.010855502 0.014193625 0.10500982 -0.018684823 -0.17447747 0.095724195 -0.06648845
-0.10251995 -0.064756244 -0.1744701 0.12746164 0.14313735 0.08245362 0.094054185 0.15545121
0.02727797 -0.027649492 0.1713378 0.03957913 -0.0469012 -0.0732762 -0.16550036 -0.071577825
-0.039839983 -0.1218314 0.13782997 0.032238588 -0.25390643 0.0008119022 0.04701459 -0.16381642
0.10543493 -0.072015196 0.29063764 0.14622638 0.2066608 0.16037498 -0.066697426 -0.028466487
-0.092330374 -0.09975934 -0.09287134 0.16533408 -0.04618758 -0.07983525 0.102485284 -0.023394946
0.044663537 -0.0239172 0.048080433 -0.04230219 0.11610422 -0.07586945 -0.12427811 0.011075719
-0.021788824 -0.16588058 0.24666204 -0.0060444744 -0.07986707 -0.0650516 -0.019273682 -0.13953707
0.2477435 -0.111555755 0.013079363 0.14432578 0.09584041 -0.042121273 -0.16869175 0.009372609
0.041428335 0.09381444 -0.17795625 -0.054580826 0.19981024 -0.054670013 0.13204437 -0.12888333
-0.04561129 -0.16488056 0.12466042 -0.0067890235 -0.094758324 0.042908013 -0.116824195 0.017120132
-0.12485003 -0.08107984 0.11013254 0.15392888 -0.0539418 -0.0142776435 0.066854015 -0.04209071
-0.034144364 -0.052683964 0.062260296 0.10545565 -0.028126268 0.117726706 -0.16894639 -0.10915838
-0.08937201 0.09472415 -0.13626127 0.11148998 -0.220346 0.14152205 -0.1229901 0.1185044
0.063020125 0.19367959 -0.14168021 0.17589682 0.13638611 0.061995365 0.041835494 0.17034714
0.029645192 0.012371466 -0.007176252 0.123561546 -0.07800363 -0.147195 0.111958 -0.06317117
-0.073262304 0.12333511 0.17028758 -0.16812575 0.16177385 0.1209602 -0.10105751 0.05413296
0.29192358 0.12825751 -0.13937272 -0.026262099 0.013052579 -0.022072187 -0.050125815 0.08574024
0.10730397 -0.12941611 -0.14472461 0.14511755 -0.5311196 -0.100538164 -0.07304618 -0.014166959
0.0050443774 0.021815414 0.1153604 0.18632008 0.091569245 -0.29115522 0.065077245 -0.046791583
0.078011595 0.12149176 0.07438736 -0.049658787 0.20656651 -0.11413771 -0.10686203 0.08944774
-0.16600864 -0.23225114 0.06660045 -0.055952415 0.03937797 0.28428632 0.11899021 -0.08474712
00000000: 3e8d 483d 64c2 b7bd 798c a83d d548 89bc
00000010: 7fe2 b6bd f730 6a3e 3e48 8dbe e8ea 9ebd
00000020: cffc 7e3e ad83 2bbe f32c 41bd fd68 d2ba
00000030: f8e4 24be 12fe 4cbe 6977 4b3e 801e 33be
00000040: 9843 e5bc 1fdd 483e 2362 e83d 1385 b73b
00000050: 0a7d 8ebd 2c24 cebd fd3b e1bd 909a a53e
00000060: c8f9 44be 25aa 85bd f799 9f3e 7334 a03c
00000070: 5e4f d93d e50c 853d c5bd dfbb cf82 d2bd
00000080: 67c4 043d 520e bebd b168 d83d bd7b 21be
00000090: adc4 9a3b 0892 59be 9b0d 233e a99e 88bd
000000a0: df17 f43d e2a0 8ebd 12a2 b6bd 6ac9 073e
000000b0: 6360 953d fd20 ee3d ef60 3bbd bfa1 4fbe
000000c0: 7b8b 0d3e a9c8 0cbe 5fff 1a3e 966a 4f3d
000000d0: 2778 063e 4219 8bbd 2b61 993d 420b f73d
000000e0: 5e0e 123e c341 d0bd b78e ddbc d388 713d
000000f0: c80c eb3d 2453 febb 77d8 0f3e 68a0 dbbd
00000100: 89e3 5abe d446 9c3c bc35 93bd f7bb 7a3d
00000110: 95b3 12be 7d3a d0bd 4aed e33d d723 d53d
00000120: 2b48 b93d 167e 85bd 88b8 d3bd 51d1 0d3e
00000130: 8ad2 59be 2c22 033e 5a54 dcbd d3b7 d2bc
00000140: a70c 89bd 47db 313c 618c 683c 630f d73d
00000150: ea10 99bc 39aa 32be 0c0b c43d 192b 88bd
00000160: fbf5 d1bd ec9e 84bd 4aa8 32be 4e85 023e
00000170: 9992 123e 72dd a83d 7b9f c03d 9a2e 1f3e
00000180: 0d76 df3c 3081 e2bc 2d73 2f3e ba1d 223d
00000190: 791b 40bd d511 96bd ed78 29be 6597 92bd
000001a0: 402f 23bd be82 f9bd 4d23 0d3e 9c0c 043d
000001b0: 0600 82be d6d5 543a 5f92 403d 7ebf 27be
000001c0: 45ee d73d b47c 93bd 75ce 943e 5ebc 153e
000001d0: e49e 533e 5739 243e a998 88bd 8d32 e9bc
000001e0: b517 bdbd a04e ccbd 5433 bebd 564d 293e
000001f0: 302f 3dbd aa80 a3bd cee3 d13d c2a6 bfbc
00000200: 1df1 363d 01ee c3bc fdef 443d 1045 2dbd
00000210: 0dc8 ed3d 7161 9bbd 8685 febd ef76 353c
00000220: 7a7e b2bc 99dc 29be f994 7c3e ba10 c6bb
00000230: 5991 a3bd c639 85bd d7e3 9dbc cee2 0ebe
00000240: 79b0 7d3e 5877 e4bd d34a 563c 23ca 133e
00000250: fa47 c43d 5b87 2cbd 88bd 2cbe 928f 193c
00000260: c2b0 293d c921 c03d 2a3a 36be 2590 5fbd
00000270: 0e9b 4c3e aaed 5fbd a436 073e fef9 03be
00000280: e7d2 3abd 73d6 28be f64d ff3d 7576 debb
00000290: a710 c2bd 50c0 2f3d 8641 efbd 853f 8c3c
000002a0: 5fb1 ffbd 300d a6bd 2b8d e13d 889f 1d3e
000002b0: 14f2 5cbd c7ec 69bc c2ea 883d 4f67 2cbd
000002c0: f6da 0bbd 24cb 57bd a704 7f3d 22f9 d73d
000002d0: 0f69 e6bc b31a f13d 4800 2dbe 6e8e dfbd
000002e0: ac08 b7bd bcfe c13d 1388 0bbe dc54 e43d
000002f0: 62a2 61be 28eb 103e 3ce2 fbbd 6fb2 f23d
00000300: b210 813d f153 463e 9e14 11be 4c1e 343e
00000310: cda8 0b3e daee 7d3d b25b 2b3d 7b6f 2e3e
00000320: 79da f23c b0b1 4a3c c426 ebbb d60d fd3d
00000330: 5ec0 9fbd 49ba 16be 3c4a e53d e35f 81bd
00000340: 8c0a 96bd 1e97 fc3d de5f 2e3e 2829 2cbe
00000350: 0ba8 253e fbb9 f73d 3df7 cebd 86ba 5d3d
00000360: 0277 953e f055 033e b9b7 0ebe 9d23 d7bc
00000370: 7cda 553c bbd0 b4bc ba50 4dbd 9498 af3d
00000380: 2fc2 db3d a885 04be b032 14be b299 143e
00000390: 74f7 07bf f4e6 cdbd 3c99 95bd 881c 68bc
000003a0: 4e4b a53b 3db6 b23c 1342 ec3d b1ca 3e3e
000003b0: a888 bb3d 4c12 95be 3847 853d 88a8 3fbd
000003c0: 8bc4 9f3d acd0 f83d 6658 983d 0367 4bbd
000003d0: 2c86 533e 08c1 e9bd 7bda dabd 6030 b73d
000003e0: 2bfe 29be 3ed3 6dbe d165 883d 5c2e 65bd
000003f0: cb4a 213d fa8d 913e 24b1 f33d e68f adbd

conv1.bias f4 [64]
-0.015826114 -0.082482584 0.055593856 -0.01731433 -0.15979572 0.009070628 0.27427727 -0.12084336
-0.057299286 -0.014597049 0.11289152 -0.085887134 -0.06846532 -0.11624021 0.12250324 0.026397312
-0.061400678 0.14752385 -0.46336892 0.026436338 -0.11949959 0.2791452 -0.092203714 -0.03459
0.01723331 -0.12942207 0.08983416 -0.012371377 -0.15694475 -0.19184867 0.12774004 0.17250493
-0.4110873 0.020339062 0.10707441 0.13344441 -0.0857778 0.1362856 0.08775711 0.11052356
0.30164692 -0.09255009 0.25785667 0.019591745 0.0210515 0.2703062 -0.012088133 0.023793342
0.11178941 0.15110306 -0.10390414 0.06967974 0.019761028 -0.13178927 0.26691267 -0.09959692
0.107034154 -0.012329975 -0.17795824 -0.0011620094 -0.05417458 0.23064706 0.1779926 -0.043456286
00000000: c4a5 81bc a1ec a8bd 62b6 633d c8d6 8dbc
00000010: 7da1 23be f99c 143c 126e 8c3e b97c f7bd
00000020: a8b2 6abd 7628 6fbc ab33 e73d 98e5 afbd
00000030: 8c37 8cbd 590f eebd fbe2 fa3d 2d3f d83c
00000040: 477f 7bbd 7e10 173e b13e edbe 0591 d83c
00000050: 33bc f4bd 1fec 8e3e 4dd5 bcbd 3eae 0dbd
00000060: df2c 8d3c 3887 04be f9fa b73d 51b1 4abc
00000070: 20b6 20be fa73 44be 49ce 023e 22a5 303e
00000080: 097a d2be 1b9e a63c d449 db3d a7a5 083e
00000090: 45ac afbd 748e 0b3e 00ba b33d 2d5a e23d
000000a0: 7771 9a3e e78a bdbd ca05 843e de7e a03c
000000b0: 3274 ac3c 9365 8a3e 4e0d 46bc 41ea c23c
000000c0: d9f1 e43d c3ba 1a3e b2cb d4bd 40b4 8e3d
000000d0: e1e1 a13c c4f3 06be c7a8 883e 78f9 cbbd
000000e0: b934 db3d aa03 4abc af3a 36be 914e 98ba
000000f0: 2ae6 5dbd be2e 6c3e b143 363e 38ff 31bd

conv2.weight f4 [32, 64, 3, 3]
-0.060847495 -0.01419825 -0.062319323 -0.09125457 -0.0005160423 0.01140363 -0.15304157 -0.05346898
0.05511703 0.015656343 -0.050607778 -0.028677413 0.00012721102 5.738755e-05 0.009028822 0.011163877
-0.020958763 -0.01729512 0.0132366195 -0.013953047 0.0027642418 0.037324008 -0.0044961968 -0.021796484
0.040773742 0.054014504 -0.007438196 -0.041775737 0.012643254 -0.018616544 -0.05283806 0.016332265
0.0068035163 -0.02128815 -0.029524066 -0.047536116 0.107584365 0.2147466 -0.040172193 0.2836336
0.32870454 0.06276853 0.15068609 0.118632294 -0.17310852 0.14265774 -0.16493726 -0.1110771
-0.025516886 0.25747 0.34362862 -0.3244446 -0.3465839 -0.17387842 0.052437883 0.090233065
0.10101981 -0.041031767 0.12139513 0.08181094 0.0013805031 0.09633758 0.09485664 -0.06605688
-0.06577848 -0.034074128 -0.0225156 0.015236141 0.0072772033 0.010897056 0.014920551 0.02282118
0.077460006 -0.15178135 -0.21432702 -0.0726842 -0.09013344 -0.08916673 -0.04277973 0.102002084
0.17329012 0.027850883 -0.03421284 -0.026702115 0.012153043 -0.043025784 -0.05540127 -0.121851794
-0.04298595 -0.03189307 0.017896554 0.047832794 0.06669638 0.035159063 0.016426565 0.012153634
0.015582706 0.029919285 -0.0058430764 -0.07535783 -0.045414973 -0.05753821 -0.09669406 -0.061592277
-0.0722779 -0.065243505 -0.05733507 -0.01607867 -0.108168036 -0.08308284 -0.08201922 -0.045476608
-0.0071458863 -0.08058187 -0.06511497 0.013120732 -0.022082355 0.007736587 0.01513397 0.032118108
-0.0666458 0.03455242 -0.024114372 0.04414981 0.03991545 0.08827117 0.022537064 0.01793022
0.04579666 -0.02840905 -0.0023094309 -0.0058550234 0.044302553 0.05387559 0.066727705 -0.052527618
0.07530585 -0.000867191 -0.11385218 -0.027426006 0.050814755 0.004672021 0.05220186 0.045010146
0.108222805 -0.055537052 -0.03385606 -0.06518312 -0.090692505 -0.11869915 -0.035884876 -0.0113216415
-0.021242341 0.14377914 0.054127794 0.033650946 0.07132119 0.037507057 0.021687396 0.058746487
0.013726477 0.055456802 -0.36965913 -0.5634795 -0.47783557 -0.6883472 -0.7926805 -0.7388579
-0.30112642 -0.23215114 -0.25757292 -0.0014242472 -0.04679624 0.01611238 -0.017434156 0.017868333
0.009545306 0.06928458 0.062082216 0.09309219 -0.067438245 -0.047994122 -0.016896589 -0.068246335
-0.04321215 -0.015918428 0.0043567703 0.00512456 0.045912288 -0.68138367 -0.48944345 -0.6314252
-0.18769489 -0.38415423 -0.13490672 -0.4289446 -0.5362667 -0.25913957 0.04058962 0.00026145088
0.025256634 0.03762269 -0.024841942 0.038201693 -0.010215211 -0.036411054 -0.040736128 -0.054200083
-0.0010181703 -0.037912723 -0.018632716 -0.06664433 -0.008870216 0.01886681 -0.0062865117 0.01167333
-0.01887999 0.010234405 -0.011651417 -0.0086480705 -0.00520753 -0.046571676 -0.01819596 0.03085173
0.024381485 -0.056250487 -0.036152303 0.01340056 0.0029944899 -0.006074262 0.03991946 0.028784519
0.03327935 -0.0135329 0.27979532 0.5266885 0.41903892 0.19106714 0.06488604 0.14795433
0.22181383 0.14682622 0.10416689 -0.04639839 -0.100597225 -0.04826636 -0.07074924 -0.057555202
0.035522725 0.009800262 -0.069367565 -0.06716119 -0.0061949175 0.03456797 0.0035990924 0.011279261
00000000: 393b 79bd c79f 68bc 8c42 7fbd ade3 babd
00000010: 0347 07ba 4ad6 3a3c eeb6 1cbe 4a02 5bbd
00000020: 65c2 613d bb41 803c 1a4a 4fbd e5ec eabc
00000030: f363 0539 6ab3 7038 a0ed 133c b2e8 363c
00000040: b6b1 abbc 7fae 8dbc 68de 583c 529b 64bc
00000050: 4828 353b 0fe1 183d d554 93bb 8a8e b2bc
00000060: 5e02 273d 503e 5d3d 1cbc f3bb 091d 2bbd
00000070: a725 4f3c b981 98bc b96c 58bd 3ecb 853c
00000080: 08f0 de3b 7d64 aebc 74dc f1bc 3bb5 42bd
00000090: 3155 dc3d 88e6 5b3e 998b 24bd 6c38 913e
000000a0: f64b a83e c98c 803d 744d 1a3e 7df5 f23d
000000b0: 5c43 31be df14 123e 50e5 28be 647c e3bd
000000c0: ca08 d1bc 1cd3 833e 17f0 af3e 9a1d a6be
000000d0: 7273 b1be 2f0d 32be 1bc9 563d 1dcc b83d
000000e0: 79e3 ce3d ed10 28bd 039e f83d 7e8c a73d
000000f0: fff1 b43a a34c c53d 3344 c23d d448 87bd
00000100: deb6 86bd 5091 0bbd a372 b8bc 02a1 793c
00000110: 9b75 ee3b 9189 323c 5475 743c 7cf3 ba3c
00000120: 5aa3 9e3d 926c 1bbe 8b78 5bbe 74db 94bd
00000130: e297 b8bd 0c9d b6bd cc39 2fbd 78e6 d03d
00000140: f772 313e 8927 e43c c322 0cbd 65be dabc
00000150: 8f1d 473c ce3b 30bd 71ec 62bd 6f8d f9bd
00000160: 0912 30bd 4fa2 02bd cb9b 923c 52ec 433d
00000170: 1d98 883d f302 103d 0191 863c 0920 473c
00000180: 9b4e 7f3c 4a19 f53c 4777 bfbb 3555 9abd
00000190: 0d05 3abd 30ad 6bbd 8907 c6bd 2f48 7cbd
000001a0: 7006 94bd 639e 85bd 2ed8 6abd 6ab7 83bc
000001b0: 3487 ddbd 5627 aabd b1f9 a7bd ae45 3abd
000001c0: 0a28 eabb 1c08 a5bd ff5a 85bd 57f8 563c
000001d0: 0ee6 b4bc 3283 fd3b 79f4 773c 478e 033d
000001e0: 987d 88bd d786 0d3d 818b c5bc 6ed6 343d
000001f0: 627e 233d 84c7 b43d a69f b83c 66e2 923c
00000200: 4795 3b3d 19ba e8bc d259 17bb 7fdb bfbb
00000210: 9876 353d a7ac 5c3d 89a8 883d 3327 57bd
00000220: f439 9a3d 3454 63ba 552b e9bd 81ac e0bc
00000230: 2223 503d c117 993b 9ed1 553d 8f5c 383d
00000240: eba3 dd3d d27a 63bd a7ac 0abd ba7e 85bd
00000250: febc b9bd 8a18 f3bd 05fc 12bd 687e 39bc
00000260: 6b04 aebc d73a 133e 1bb5 5d3d 93d5 093d
00000270: d810 923d 00a1 193d c4a9 b13c 28a0 703d
00000280: 04e5 603c ac26 633d f643 bdbe 3140 10bf
00000290: dda6 f4be 8637 30bf 1ced 4abf cb25 3dbf
000002a0: 3e2d 9abe 07b9 6dbe 99e0 83be cead baba
000002b0: 6aad 3fbd 1cfe 833c 13d2 8ebc 9c60 923c
000002c0: ea63 1c3c 13e5 8d3d ec49 7e3d 1ea7 be3d
000002d0: 101d 8abd 7c95 44bd b76a 8abc bcc4 8bbd
000002e0: 39ff 30bd 5d67 82bc 3dc3 8e3b edeb a73b
000002f0: 860e 3c3d 296f 2ebf 5598 fabe 15a5 21bf
00000300: 1733 40be ddaf c4be fd24 0abe a09e dbbe
00000310: c648 09bf f1ad 84be 4d41 263d 5813 8939
00000320: 00e7 ce3c 401a 1a3d 5481 cbbc 6179 1c3d
00000330: b35d 27bc c223 15bd edda 26bd e800 5ebd
00000340: 2074 85ba 5f4a 1bbd a3a3 98bc d37c 88bd
00000350: 6254 11bc 918e 9a3c 15ff cdbb 7f41 3f3c
00000360: 35aa 9abc 35ae 273c 96e5 3ebc a3b0 0dbc
00000370: eea3 aabb f1c1 3ebd b20f 95bc c4bc fc3c
00000380: aebb c73c e966 66bd 7014 14bd 068e 5b3c
00000390: 343f 443b 9a0a c7bb 9682 233d 83cd eb3c
000003a0: ed4f 083d 19b9 5dbc 5541 8f3e 0fd5 063f
000003b0: 458c d63e 1ba7 433e f9e2 843d 5781 173e
000003c0: 2a23 633e 9d59 163e 7355 d53d 3d0c 3ebd
000003d0: eb05 cebd f2b2 45bd fae4 90bd 01bf 6bbd
000003e0: 4780 113d 4791 203c 9510 8ebd ce8b 89bd
000003f0: bcfe cabb 2597 0d3d c0de 6b3b a6cc 383c

conv2.bias f4 [32]
0.08905432 0.09154174 0.005552101 0.018685095 -0.0035724144 -0.013670701 0.01828262 -0.0012814252
0.015755493 -0.026089959 0.04347953 -0.05419046 -0.013802664 0.031978957 -0.04575849 -0.033738486
0.073995136 0.07421287 0.017052032 -0.01725544 -0.046987217 -0.0442824 0.018509129 -0.045856047
0.020056823 0.00792856 0.014719037 0.009762156 -0.097325616 0.053146288 0.08925042 -0.038458902
00000000: 1c62 b63d 3c7a bb3d 66ee b53b 7c11 993c
00000010: 2b1f 6abb 13fb 5fbc 6fc5 953c 7ff5 a7ba
00000020: aa11 813c 9cba d5bc 9717 323d d1f6 5dbd
00000030: 9224 62bc 5efc 023d 416d 3bbd 5e31 0abd
00000040: c38a 973d ebfc 973d b4b0 8b3c 485b 8dbc
00000050: ab75 40bd 7661 35bd 75a0 973c 8dd3 3bbd
00000060: 354e a43c cae6 013c 1e28 713c 73f1 1f3c
00000070: a752 c7bd ecaf 593d edc8 b63d 1587 1dbd

conv3.weight f4 [12, 32, 3, 3]
-0.0206608 0.0681652 0.029677367 0.047033347 0.01697177 -0.05312053 0.042359553 -0.065333545
-0.03195135 -0.06282904 0.011539281 -0.010150836 -0.0041947374 0.1192145 -0.0024162512 0.018807754
0.054784436 0.005286126 0.030959196 0.071781985 0.020333031 -0.019193748 0.047860548 0.024305366
0.012048969 0.07982091 -0.06598501 0.017419223 -0.04339139 0.041758567 -0.04474422 -0.033185277
-0.0047051837 -0.020526038 -0.04758622 -0.0039080014 -0.04811949 0.009393666 -0.011234046 -0.044443477
-0.033662554 0.0057465476 -0.0061063627 -0.0071240566 -0.008860872 0.0140875615 -0.010114436 0.044373892
-0.034876175 0.004823152 0.046640687 0.058094196 0.05098555 -0.052896395 -0.012454475 0.013509662
-0.04825189 0.066265516 0.074626565 0.04758411 -0.023394588 0.04553127 -0.049803056 -0.0046778135
-0.04492399 -0.038586568 0.03117707 0.032733604 -0.0419796 0.01847635 -0.020025425 -0.05105355
0.03672728 -0.032802116 -0.010147863 -0.052106634 -0.01677684 -0.036600497 -0.034576803 -0.02367485
0.0025204925 0.031877488 -0.008488286 -0.045979027 -0.022699593 0.03464256 -0.028787494 0.052516464
-0.04907409 0.004936471 0.042557396 -0.022451699 0.033198047 -0.022671362 0.0018167802 -0.071263224
-0.041238684 0.06441936 0.0012289485 0.007771579 -0.007455191 0.01564178 0.06338596 0.10121893
0.14702132 -0.042790506 -0.010747923 0.06908599 0.0015165668 0.04324835 -0.028220458 0.057461318
0.12581001 -0.039553817 0.0108979745 0.103114106 -0.0023256794 -0.023466725 0.039580368 -0.016241819
0.0054172995 0.05572571 0.025513906 0.0025132706 -0.020871516 -0.051035818 -0.012945125 -0.049119208
0.020306008 -0.025471877 -0.003906983 0.04088031 -0.030408343 -0.03323342 -0.032031532 -0.033948652
-0.020213941 -0.03594845 -0.012830014 0.019847346 -0.052299667 -0.011043355 0.0009388636 0.039183114
-0.035296507 0.018819528 -0.0025292924 -0.024818107 0.08598974 0.0878586 -0.05411352 0.010768069
0.007177672 -0.07144117 -0.03850795 -0.009629333 -0.04318159 0.053061254 0.06267699 0.02412651
0.011637946 -0.013229139 -0.060472324 0.030819193 0.0048489706 -0.0012735182 0.03910118 0.0062163626
-0.060741987 0.026326016 -0.048115924 -0.021712765 0.06464666 0.02131634 -0.027477313 0.09440378
0.009011079 0.055018082 0.016076358 -0.074764214 -0.033631146 0.05320688 -0.018548146 0.031277135
0.0459997 0.025526734 0.0099502 0.013623985 0.016404679 0.06787594 0.0010450053 -0.07014692
0.033335317 -0.011049295 0.014951907 -0.059951995 -0.03702513 -0.033603333 0.012472708 -0.0023376227
-0.044243015 0.015385733 0.08614485 0.03819643 -0.025641453 0.039137892 0.027158633 0.043671116
0.014043325 -0.0037339574 -0.011505327 0.031648614 -0.050189305 0.04490634 0.0370733 0.056488033
-0.009125316 -0.029035527 -0.047938995 0.03629954 0.056688525 0.083793424 -0.036809735 -0.034619443
0.02274729 0.040293638 -0.0049971193 -0.011265361 -0.0038391692 0.03549734 0.062794656 -0.006133663
-0.1371072 -0.060989168 -0.07044729 0.0042414577 0.014788897 0.013283552 0.12403714 -0.018682245
-0.04160638 0.050673276 -0.07124807 -0.03201969 -0.04891915 -0.013921443 -0.006703238 0.09943618
0.07069994 0.042775735 -0.005787068 0.00028792897 0.020514784 -0.016216205 0.018371701 0.01093919
00000000: d740 a9bc 329a 8b3d f31d f33c 0aa6 403d
00000010: 6208 8b3c ea94 59bd 3681 2d3d 98cd 85bd
00000020: 6bdf 02bd 83ac 80bd 410f 3d3c b14f 26bc
00000030: 0274 89bb bb26 f43d f859 1ebb b812 9a3c
00000040: a565 603d 3d37 ad3b 249e fd3c 6f02 933d
00000050: 7591 a63c 353c 9dbc 6c09 443d 0c1c c73c
00000060: 0a69 453c 2579 a33d 2623 87bd c2b2 8e3c
00000070: 2cbb 31bd 080b 2b3d b745 37bd 49ed 07bd
00000080: f12d 9abb 3926 a8bc c5e9 42bd b10e 80bb
00000090: f118 45bd e4e7 193c 010f 38bc 5d0a 36bd
000000a0: bfe1 09bd 894d bc3b e217 c8bb eb70 e9bb
000000b0: 312d 11bc 84cf 663c 05b7 25bc 66c1 353d
000000c0: 52da 0ebd 880b 9e3b 4e0a 3f3d 2ef4 6d3d
000000d0: 39d6 503d e4a9 58bd db0d 4cbc a157 5d3c
000000e0: c6a3 45bd 37b6 873d d0d5 983d 8ee7 423d
000000f0: 02a6 bfbc ff7e 3a3d 4afe 4bbd 5848 99bb
00000100: 3802 38bd f30c 1ebd 0e67 ff3c ac13 063d
00000110: cdf2 2bbd b75b 973c 5c0c a4bc 871d 51bd
00000120: 586f 163d 835b 06bd 3943 26bc c46d 55bd
00000130: 956f 89bc 67ea 15bd 68a0 0dbd c2f1 c1bc
00000140: d92e 253b f891 023d 7412 0bbc 8154 3cbd
00000150: 7ff4 b9bc 5be5 0d3d c0d3 ebbc 811b 573d
00000160: ea01 49bd 1fc2 a13b aa50 2e3d a0ec b7bc
00000170: adfa 073d 4bb9 b9bc 0721 ee3a 74f2 91bd
00000180: e5e9 28bd 4cee 833d ab14 a13a bba8 fe3b
00000190: ad4a f4bb 3123 803c 80d0 813d df4b cf3d
000001a0: c28c 163e 1945 2fbd 0e18 30bc f57c 8d3d
000001b0: 8ac7 c63a 2f25 313d 972e e7bc 8f5c 6b3d
000001c0: 57d4 003e 2f03 22bd 6b8d 323c 7d2d d33d
000001d0: 6d6a 18bb 4a3d c0bc 061f 223d 900d 85bc
000001e0: 9a83 b13b a440 643d 8a02 d13c afb5 243b
000001f0: befa aabc ef0a 51bd ca17 54bc 3931 49bd
00000200: c958 a63c 66aa d0bc 2606 80bb 1d72 273d
00000210: eb1a f9bc c41f 08bd 7f33 03bd be0d 0bbd
00000220: b597 a5bc af3e 13bd fb34 52bc e796 a23c
00000230: 2d38 56bd 30ef 34bc 121e 763a 797e 203d
00000240: 1293 10bd 692b 9a3c 7cc2 25bb 584f cbbc
00000250: 641b b03d 36ef b33d 23a6 5dbd 8e6c 303c
00000260: ad32 eb3b c04f 92bd 83ba 1dbd 5ac4 1dbc
00000270: 2edf 30bd c256 593d cb5c 803d f5a4 c53c
00000280: 15ad 3e3c 08bf 58bc d4b1 77bd 8878 fc3c
00000290: 1de4 9e3b 2eec a6ba 8f28 203d a1b2 cb3b
000002a0: 97cc 78bd a8a9 d73c 3415 45bd f8de b1bc
000002b0: 7865 843d 9b9f ae3c 1a18 e1bc c556 c13d
000002c0: 34a3 133c a45a 613d 91b2 833c fb1d 99bd
000002d0: d0c0 09bd 75ef 593d 48f2 97bc 741c 003d
000002e0: 2e6a 3c3d 711d d13c 2a06 233c 2337 5f3c
000002f0: 1b63 863c 8a02 8b3d 8ff8 883a 30a9 8fbd
00000300: 9d8a 083d 1a08 35bc d8f8 743c 3990 75bd
00000310: aaa7 17bd a6a3 09bd 545a 4c3c cd32 19bb
00000320: 2a38 35bd 7114 7c3c b66c b03d dc73 1c3d
00000330: 060e d2bc 0e4f 203d c87b de3c 7ce0 323d
00000340: f915 663c 69b5 74bb d780 3cbc faa1 013d
00000350: 4d93 4dbd b6ef 373d 2cda 173d ff5f 673d
00000360: 5982 15bc eadb edbc ae5b 44bd d4ae 143d
00000370: 3a32 683d e39b ab3d cec5 16bd 1ecd 0dbd
00000380: 8658 ba3c f10a 253d e0be a3bb 5992 38bc
00000390: 929a 7bbb a965 113d 7c9a 803d e5fc c8bb
000003a0: d465 0cbe c7cf 79bd ab46 90bd edfb 8a3b
000003b0: 214d 723c 41a3 593c 2f07 fe3d 820b 99bc
000003c0: 746b 2abd c88e 4f3d 82ea 91bd 1427 03bd
000003d0: 725f 48bd c416 64bc d6a6 dbbb 32a5 cb3d
000003e0: 21cb 903d 9c35 2f3d 72a1 bdbb 2cf5 9639
000003f0: 9f0e a83c d9d7 84bc 4080 963c 4a3a 333c

conv3.bias f4 [12]
0.010041201 0.17024393 0.013413545 0.03375604 0.06800858 0.011585835 0.06772296 -0.057764016
0.28699046 0.037027985 0.12675565 0.07458833
00000000: d983 243c 6d54 2e3e 7cc4 5b3c c643 0a3d
00000010: 1548 8b3d 84d2 3d3c 56b2 8a3d f699 6cbd
00000020: 6af0 923e a8aa 173d 3ccc 013e c4c1 983d

fc1.weight f4 [48, 768]
0.012113182 0.029349044 -0.006788764 0.015399467 -0.012117725 0.009928148 -0.00972973 0.034077257
0.007994811 0.007986148 0.012214111 0.01103895 -0.024054777 0.019203177 0.027432648 -0.005632138
-0.016367992 0.016401064 -0.020879356 0.019812845 0.02523018 -0.0318914 -0.003834575 -0.0026044063
-0.029100535 0.020707853 0.0101967305 0.008628551 -0.023068424 0.027666477 -0.019195419 0.011262156
-0.0040242327 -0.012075653 -0.010912672 -0.008445174 0.021546498 0.01856083 0.021389779 0.009017502
-0.016780546 -0.025505463 -0.014531871 -0.007370315 0.008346728 -0.028024578 -0.016488915 -0.001978061
0.02306249 -0.007460008 0.013863077 -0.026114136 0.014216734 -0.019497529 0.03503088 -0.005624066
-0.030286884 0.0288327 0.005716305 0.014535187 -0.026564334 -0.033291448 -0.0042622886 0.034205824
0.013669445 -0.012817612 -0.02000304 -0.03074556 -0.03227888 -0.029449482 -0.014108129 0.01011795
-0.011885 -0.004200136 0.013683384 0.027758952 0.006937626 0.010637678 -0.022266809 -0.001003877
0.011013082 0.02873668 0.009905552 -0.020531274 0.023598118 -0.0302407 -0.016453907 0.030012695
0.023184838 -0.016511822 -0.009300494 0.013210018 -0.014634657 -0.004803646 -0.011728802 -0.00041114242
0.023980394 -0.013223685 -0.004314144 -0.022644931 -0.029824672 0.028072014 -0.026003856 0.0018258794
-0.0125603 -0.030496493 0.033469018 0.02261632 0.033310175 -0.031294882 0.0024336549 0.029364008
0.034342945 0.033121005 -0.01514516 0.030636108 -0.015562019 0.0033336254 -0.012980122 0.015960459
-0.010517306 -0.037585624 0.012494567 0.005328512 -0.033269215 -0.038632337 0.009490816 -8.4319436e-05
0.018999573 -0.0026996583 0.0028422102 -0.035388164 0.025516842 -0.017972264 -0.0014133565 0.0072925575
-0.0010332167 -0.009720817 -0.03480991 -0.0064407643 0.021035042 -0.013937915 0.0053024255 0.01862768
0.012814697 0.027552046 0.035530053 -0.018005993 0.0042328723 -0.02706853 -0.010406831 -0.029540535
0.03407929 -0.033380758 0.024833355 0.01730517 0.026650436 -0.0055075902 -0.033264346 0.008984912
-0.025134902 -0.0333382 -0.032351524 0.00378374 0.013475355 -0.02630882 0.022794984 0.016467609
0.009708632 -0.00040291995 0.018065099 -0.0039667115 0.016896497 -0.030721538 -0.029734377 0.005642377
0.022710979 0.0067204684 -0.011076657 0.013718709 0.021007553 0.00269055 0.013238948 0.026754841
-0.003730286 6.995723e-05 0.0032687522 0.016536761 -0.016624149 0.0016193055 0.003633298 -0.027379457
0.00023626533 0.027721286 -0.007956264 0.008287602 -0.031778783 -0.024094071 0.026167572 0.028878279
0.0020473439 0.021127585 -0.011622751 0.02128986 -0.01389622 -0.006749713 -0.014735458 -0.021396058
-0.019107608 0.009362889 -0.0020064574 -0.03295123 0.011899065 -0.03201235 0.00056624354 0.016683716
-0.007007311 -0.042029157 0.028503738 0.018353626 -0.026217414 -0.017199595 -0.037410494 -0.026386641
-0.040707495 0.015014795 -0.012912123 -0.006934714 -0.030299263 -0.012217385 -0.032894358 0.013922963
0.010638862 0.004883297 -0.0034712506 0.009214046 -0.0076987706 0.019102102 -0.013716806 -0.015087972
-0.034685653 0.022871362 -0.019400118 -0.015875628 0.023106486 -0.03793727 0.024833454 0.0012121771
0.026812019 0.029790761 -0.026814155 0.008937672 0.00039014863 -0.01940699 -0.009194625 0.0013455392
00000000: 5e76 463c 686d f03c 4874 debb 0c4e 7c3c
00000010: 6c89 46bc aca9 223c 7269 1fbc 9894 0b3d
00000020: abfc 023c 55d8 023c b21d 483c b6dc 343c
00000030: 860e c5bc fb4f 9d3c 6fba e03c cc8d b8bb
00000040: 2b16 86bc 865b 863c 2f0b abbc 8c4e a23c
00000050: 86af ce3c 8fa0 02bd 7e4d 7bbb b0ae 2abb
00000060: 3f64 eebc 84a3 a93c 3010 273c c45e 0d3c
00000070: fef9 bcbc cfa4 e23c b63f 9dbc e884 383c
00000080: b6dd 83bb f6d8 45bc 10cb 32bc a15d 0abc
00000090: 4882 b03c e20c 983c 9e39 af3c 25be 133c
000000a0: 5b77 89bc d5f0 d0bc 1617 6ebc af82 f1bb
000000b0: b7c0 083c cd93 e5bc c313 87bc 5ba2 01bb
000000c0: 8ced bc3c 1573 f4bb f621 633c 50ed d5bc
000000d0: 4eed 683c 48b9 9fbc 8a7c 0f3d 164a b8bb
000000e0: 331c f8bc 8e32 ec3c d84f bb3b fe24 6e3c
000000f0: 729d d9bc 9d5c 08bd abaa 8bbb 681b 0c3d
00000100: cff5 5f3c f600 52bc 6add a3bc 1dde fbbc
00000110: dc36 04bd 0a40 f1bc c825 67bc c2c5 253c
00000120: 4eb9 42bc 4ba1 89bb 4630 603c be66 e33c
00000130: 0655 e33b a849 2e3c e268 b6bc 8694 83ba
00000140: 3770 343c 3069 eb3c e54a 223c 3431 a8bc
00000150: d750 c13c 58bb f7bc 58ca 86bc 2fdd f53c
00000160: 21ee bd3c cd43 87bc 1961 18bc d56e 583c
00000170: 33c6 6fbc e767 9dbb 292a 40bc 9a8e d7b9
00000180: 8872 c43c 28a8 58bc aa5d 8dbb dd81 b9bc
00000190: df52 f4bc 48f7 e53c 0a06 d5bc 5952 ef3a
000001a0: b7c9 4dbc c8d3 f9bc cf16 093d dc45 b93c
000001b0: 4070 083d 102f 00bd f47d 1f3b ca8c f03c
000001c0: 30ab 0c3d e4a9 073d 6823 78bc 93f8 fa3c
000001d0: d7f7 7ebc f478 5a3b 94aa 54bc 82bf 823c
000001e0: c750 2cbc 62f3 19bd 03b6 4c3c cc9a ae3b
000001f0: 4d45 08bd f13c 1ebd 5e7f 1b3c a7d4 b0b8
00000200: fea4 9b3c c0ec 30bb 6044 3a3b 2ef3 10bd
00000210: b208 d13c 923a 93bc 6040 b9ba 68f6 ee3b
00000220: 006d 87ba 1044 1fbc d694 0ebd 0c0d d3bb
00000230: ae51 ac3c da5b 64bc f8bf ad3b 1499 983c
00000240: bcf4 513c d4b4 e13c f687 113d 4e81 93bc
00000250: e8b3 8a3b d2be ddbc 6a81 2abc fefe f1bc
00000260: ba96 0b3d 43ba 08bd 526f cb3c 92c3 8d3c
00000270: 0452 da3c 0479 b4bb 3240 08bd 7435 133c
00000280: b6e7 cdbc a38d 08bd 0883 04bd a0f8 773b
00000290: bcc7 5c3c 9885 d7bc 8cbc ba3c 14e7 863c
000002a0: f410 1f3c 003f d3b9 42fd 933c 30fb 81bb
000002b0: 866a 8a3c bcab fbbc 8295 f3bc b0e3 b83b
000002c0: 600c ba3c 6037 dc3b de7a 35bc 70c4 603c
000002d0: 0818 ac3c f053 303b 2ce8 583c f82c db3c
000002e0: d077 74bb 00b6 9238 9038 563b 1a78 873c
000002f0: 5e2f 88bc e03e d43a a01c 6e3b e24a e0bc
00000300: febd 7739 c017 e33c fd5a 02bc b9c8 073c
00000310: 782a 02bd ee60 c5bc 605d d63c 2492 ec3c
00000320: bb2c 063b c213 ad3c 5a6d 3ebc 1368 ae3c
00000330: f9ac 63bc b22c ddbb fe6c 71bc c946 afbc
00000340: 8f87 9cbc ce66 193c c57e 03bb def7 06bd
00000350: 4cf4 423c 621f 03bd f66f 143a 4aac 883c
00000360: 969d e5bb c426 2cbd ac80 e93c 585a 963c
00000370: e7c5 d6bc 2ae6 8cbc bf3b 19bd cc28 d8bc
00000380: e7bc 26bd 9d00 763c 5f8d 53bc 993c e3bb
00000390: 2936 f8bc 6d2b 48bc 3cbc 06bd 241d 643c
000003a0: 9f4e 2e3c 1004 a03b ec7d 63bb 83f6 163c
000003b0: f845 fcbb 037c 9c3c 74bc 60bc 8b33 77bc
000003c0: 8b12 0ebd b95c bb3c ffec 9ebc 9b0d 82bc
000003d0: d049 bd3c 1c64 1bbd 876f cb3c eae1 9e3a
000003e0: e1a4 db3c c10b f43c 5ca9 dbbc 506f 123c
000003f0: dd8c cc39 68fb 9ebc 0da5 16bc ce5c b03a

fc1.bias f4 [48]
-0.022343589 -0.021010444 0.076379575 -0.005355972 0.10698986 -0.021407811 -0.017251343 0.08930552
-0.017195668 0.02187959 0.1734198 -0.01847682 -0.013962182 0.0010151778 0.0111160325 0.02746674
0.099928245 0.04190701 0.048163958 0.11589376 -0.04642805 0.08774844 -0.048737217 0.00084939745
0.010012175 0.008504522 0.07718997 -0.01871287 0.05245058 0.0022099337 0.10483459 -0.020794526
0.063105814 -0.02089896 -0.013518095 0.04159196 0.07877618 0.113163315 -0.001305292 0.07818701
0.089105636 0.11364071 0.026072258 0.09668191 -0.059085634 -0.023113128 -0.00046036037 0.017277861
00000000: e709 b7bc 181e acbc e56c 9c3d 2681 afbb
00000010: 801d db3d 6f5f afbc b052 8dbc d0e5 b63d
00000020: eedd 8cbc d33c b33c f694 313e b35c 97bc
00000030: a3c1 64bc b70f 853a 0520 363c ee01 e13c
00000040: 2ea7 cc3d afa6 2b3d 9247 453d b559 ed3d
00000050: 572b 3ebd 74b5 b33d ada0 47bd 19aa 5e3a
00000060: 1b0a 243c 8d56 0b3c c615 9e3d bc4b 99bc
00000070: 6bd6 563d 89d4 103b 84b3 d63d 4859 aabc
00000080: 9f3d 813d 4c34 abbc 007b 5dbc 555c 2a3d
00000090: 6855 a13d 2bc2 e73d 5516 abba 8320 a03d
000000a0: 047d b63d 76bc e83d 7d95 d53c 2a01 c63d
000000b0: c703 72bd be57 bdbc 865c f1b9 4d8a 8d3c

fc2.weight f4 [768, 48]
0.06509428 0.03561312 -0.042506974 0.08451813 -0.052615423 -0.048253335 0.03919853 -0.10810481
0.09277791 0.04755485 0.07100169 0.08928088 -0.05910093 -0.15901059 -0.03371703 -0.03651824
0.03154424 0.13924122 0.01075882 -0.021919541 -0.112720974 -0.09402067 -0.041482586 0.06499459
0.10448622 0.10253089 -0.049012862 0.10227681 0.1342604 0.049828604 0.07368662 0.05831449
0.09000618 -0.10384294 -0.06388918 0.11153279 0.011107112 0.10129016 -0.04284169 -0.023016771
0.17870611 0.04313846 -0.08727271 0.1071242 -0.1270091 -0.10240392 0.12359685 -0.11030695
-0.08815659 0.10725766 -0.050731193 0.105032444 -0.01694474 0.0145043 -0.14368968 -0.008001389
-0.12872551 0.1368766 0.046847343 0.11179398 -0.010191978 -0.106579006 -0.014401156 0.04898559
0.035412 0.06491055 6.6228085e-06 0.07576062 0.08948765 0.018807188 0.08316894 -0.039526064
0.014730442 -0.14264837 -0.054680444 0.10350928 -0.019809281 0.09806443 -0.030902881 -0.047851216
0.002434417 0.015091419 0.0033307646 0.15377623 -0.023717856 -0.030327903 0.08211412 -0.072070606
0.049711067 -0.02922965 -0.06380447 -0.03784937 -0.099987276 -0.011884221 -0.0031218322 -0.03458653
0.08306585 -0.0018557345 0.09144906 -0.0072915275 -0.089296035 0.10909587 0.02818541 -0.021999586
0.08394361 0.013533202 0.041125495 -0.07992114 -0.06998289 -0.17893249 -0.16830191 -0.13466094
-0.013994707 -0.029721119 -0.05903479 -0.0010636391 -0.059999883 -0.16455568 0.066083975 -0.10091223
-0.05563338 0.012940045 -0.04782399 -0.061853573 0.01166521 0.050449394 0.08213339 0.092167534
0.0056806765 0.12952934 0.047193334 -0.040463924 0.06688998 -0.07541807 0.061800625 -0.074334964
-0.06210413 0.068428695 0.015478113 -0.19244839 -0.080583684 -0.0039986135 -0.11295479 0.017299753
-0.04214321 0.084628716 -0.117173105 -0.00563873 -0.14790945 -0.13401267 -0.09955525 0.041475546
0.09503559 -0.016791267 -0.026815878 -0.10813024 0.071165554 0.0057771816 0.08196351 -0.1516628
-0.1386096 -0.06432003 -0.079483956 -0.0022817724 0.006304279 0.123508364 0.07664392 0.048969608
0.050970554 -0.13180639 -0.09008481 -0.11670039 0.020573152 -0.05205395 -0.10527415 0.072284505
0.06341031 -0.049997896 0.142791 -0.103090905 -0.053939823 0.086934984 -0.08983358 -0.037401196
-0.013585462 -0.13299747 -0.029501354 -0.036111962 0.057789586 -0.011593785 0.099527106 -0.043205824
-0.011532709 -0.03222168 0.07545833 -0.08530739 -0.13562986 0.04071644 0.055452794 -0.12519968
0.037728548 -0.13344903 -0.08051959 -0.08323071 0.053357225 -0.12947045 0.02677018 0.008995698
-0.077011466 -0.013133975 -0.045388386 -0.16926605 0.09536564 0.034663543 -0.14460465 -0.039900906
-0.130382 0.08914933 -0.050955575 0.042109653 -0.16485783 0.13542427 -0.1490251 -0.04585518
0.028896356 0.0075559914 -0.014987856 -0.12649532 -0.15161061 -0.047756813 -0.0686403 -0.057054173
-0.11004382 0.006506132 0.0779035 0.049953178 0.124880314 -0.13607684 0.017845897 -0.04888559
-0.07435846 0.06883032 0.20224805 0.11277951 -0.09681218 0.06813535 -0.1127563 0.041140646
0.13661572 0.12477055 -0.1929294 0.09188278 -0.11719894 -0.03888397 -0.041861605 0.19328219
00000000: 2650 853d 10df 113d cb1b 2ebd d717 ad3d
00000010: 4583 57bd 4aa5 45bd a38e 203d 0e66 ddbd
00000020: 5802 be3d e0c8 423d 5669 913d e5d8 b63d
00000030: d113 72bd acd3 22be de1a 0abd 2694 15bd
00000040: 8834 013d 4095 0e3e c345 303c 9c90 b3bc
00000050: 41da e6bd e98d c0bd a5e9 29bd e21b 853d
00000060: dffc d53d b7fb d13d b6c1 48bd 8176 d13d
00000070: 8f7b 093e 1419 4c3d 03e9 963d 2ddb 6e3d
00000080: 2955 b83d 9bab d4bd 55d8 82bd 4e6b e43d
00000090: 9bfa 353c 3771 cf3d c57a 2fbd ab8d bcbc
000000a0: bcfe 363e f4b1 303d 09bc b2bd ef63 db3d
000000b0: ac0e 02be 25b9 d1bd 5820 fd3d 9ce8 e1bd
000000c0: 718b b4bd e7a9 db3d 83cb 4fbd 401b d73d
000000d0: b2cf 8abc 72a3 6d3c 6323 13be 4218 03bc
000000e0: 9fd0 03be 6129 0c3e 00e3 3f3d 3ef4 e43d
000000f0: 41fc 26bc 1846 dabd d4f2 6bbc 1da5 483d
00000100: 2c0c 113d d3ef 843d 7e39 de36 6228 9b3d
00000110: 4d45 b73d 8811 9a3c 7a54 aa3d 15e6 21bd
00000120: f457 713c 6a12 12be 9af8 5fbd acfc d33d
00000130: 1347 a2bc 01d6 c83d 0a28 fdbc a3ff 43bd
00000140: bd8a 1f3b 0042 773c f548 5a3b 8477 1d3e
00000150: f34b c2bc 3972 f8bc 732b a83d c199 93bd
00000160: d59d 4b3d 0573 efbc ebab 82bd f107 1bbd
00000170: 21c6 ccbd 09b6 42bc a797 4cbb 9baa 0dbd
00000180: 6e1e aa3d 1e3c f3ba a549 bb3d c4ed eebb
00000190: d7e0 b6bd a86d df3d 17e5 e63c 7a38 b4bc
000001a0: a1ea ab3d 5dba 5d3c 3573 283d b2ad a3bd
000001b0: 3053 8fbd 143a 37be 5657 2cbe 8fe4 09be
000001c0: 0e4a 65bc b479 f3bc 77ce 71bd ce69 8bba
000001d0: 70c2 75bd 4981 28be 0957 873d 12ab cebd
000001e0: d4df 63bd 7c02 543c 17e3 43bd 2c5a 7dbd
000001f0: 701f 3f3c 06a4 4e3d 8d35 a83d 55c2 bc3d
00000200: f824 ba3b 57a3 043e cc4d 413d 80bd 25bd
00000210: 9dfd 883d ca74 9abd a722 7d3d ee3c 98bd
00000220: e660 7ebd 5824 8c3d e997 7d3c 3111 45be
00000230: 0f09 a5bd cd06 83bb d754 e7bd 36b8 8d3c
00000240: 5c9e 2cbd d251 ad3d 74f8 efbd 18c5 b8bb
00000250: 9375 17be 9e3a 09be 9fe3 cbbd 43e2 293d
00000260: 05a2 c23d d78d 89bc f9ac dbbc 6373 ddbd
00000270: 3fbf 913d 834e bd3b 7cdc a73d 7e4d 1bbe
00000280: adef 0dbe 38ba 83bd 7cc8 a2bd ca89 15bb
00000290: 2094 ce3b f4f1 fc3d 7df7 9c3d 5b94 483d
000002a0: 80c6 503d 41f8 06be 637e b8bd 9d00 efbd
000002b0: 0789 a83c 8636 55bd f999 d7bd e609 943d
000002c0: 44dd 813d 98ca 4cbd ce37 123e 5321 d3bd
000002d0: 01f0 5cbd f80a b23d abfa b7bd ff31 19bd
000002e0: 8f95 5ebc 7d30 08be d3ac f1bc 23ea 13bd
000002f0: c6b4 6c3d dcf3 3dbc ded4 cb3d 97f8 30bd
00000300: b0f3 3cbc e1fa 03bd e689 9a3d a4b5 aebd
00000310: 8ee2 0abe 48c6 263d 7822 633d 5834 00be
00000320: 4089 1a3d dda6 08be 74e7 a4bd dd74 aabd
00000330: 1b8d 5a3d e793 04be 234d db3c b162 133c
00000340: 30b8 9dbd e22f 57bc 2ce9 39bd 1454 2dbe
00000350: 104f c33d 5cfb 0d3d 3e13 14be 226f 23bd
00000360: dc82 05be ed93 b63d cbb6 50bd 2c7b 2c3d
00000370: 7ed0 28be a9ac 0a3e 099a 18be a4d2 3bbd
00000380: 0db8 ec3c 4098 f73b a08f 75bc fd87 01be
00000390: d03f 1bbe a69c 43bd 4993 8cbd a3b1 69bd
000003a0: a85e e1bd 6431 d53b df8b 9f3d b49b 4c3d
000003b0: 40c1 ff3d ba57 0bbe 8f31 923c 423c 48bd
000003c0: 4049 98bd e9f6 8c3d 1d1a 4f3e f2f8 e63d
000003d0: 7745 c6bd 8c8a 8b3d c6ec e6bd 1883 283d
000003e0: fee4 0b3e b487 ff3d 498f 45be 0a2d bc3d
000003f0: ff05 f0bd cc44 1fbd 1377 2bbd c4eb 453e

fc2.bias f4 [768]
-0.013011269 -0.07767756 0.04806246 0.08340807 0.061643835 0.38875237 0.08022667 -0.09262367
-0.084364034 -0.010338367 0.26814622 -0.07964864 0.02576369 0.2839389 -0.0008947549 0.0051130056
-0.79761356 -0.13114677 -0.20887339 -0.2084665 0.13522485 0.16406624 -0.056918565 0.08156223
0.032948665 -0.076997295 0.08448804 -0.054693867 0.122400396 0.18618762 0.008369522 -0.049885675
-0.09241953 0.0884847 -0.012355847 0.14916623 -0.08433222 -0.17586043 -0.026589315 0.03371739
0.04481258 0.11755202 0.15376693 0.119670965 -0.00666721 0.11991445 0.3053314 0.08298514
0.0754936 0.11881818 0.0920522 -0.20445262 0.11053036 0.1270364 0.0787114 0.06384958
0.081760064 -0.06933606 0.08256625 0.038585532 -0.16788073 0.16162229 -0.049387626 -0.12634654
0.15999536 -0.0077197766 -0.11348048 0.1750899 -0.03335376 0.041256797 0.27062258 0.12142386
-0.15220068 -0.026186654 -0.073950075 0.060026966 0.23744887 -0.18046992 -0.7251051 -0.18328552
0.0063525867 -0.5983733 -0.19006753 -0.16757417 -0.13612622 0.37844536 -0.17748116 0.061180405
0.1294955 -0.035361756 -0.048166733 -0.08154151 0.11674566 0.12209063 -0.17036833 0.43828732
-0.22674282 0.02651271 -0.3242195 -0.11652734 0.20449327 0.002791126 -0.13168977 0.065033205
-0.32435107 -0.14453493 0.08959507 -0.07801861 -0.07746191 0.10303929 -0.09360847 -0.06075357
-0.113569856 0.048897006 0.10365554 0.057341296 0.11883907 -0.19966096 -0.09871325 -0.26239094
-0.067037486 0.11682846 0.13814193 0.09548331 -0.15256839 0.22720478 0.18270099 0.15267202
-0.124356814 -0.011194313 -0.0062769246 -0.13735846 -0.06472742 0.069306195 0.5756899 -0.079381704
-0.030981462 0.24748185 0.07915495 -0.3801768 -0.09870765 0.08416356 0.25703537 -0.19992729
0.056381896 0.05748693 0.12860505 0.025599025 0.23346817 -0.059448287 0.035486653 0.037237328
0.0610185 -0.14883183 -0.13106868 -0.052437678 0.19635694 0.018528573 -0.016648293 0.13555115
-0.17468968 0.21283454 -0.0016650532 0.06373026 0.1308778 -0.14625579 0.07036654 -0.016017243
-0.103269875 0.17334113 -0.019478234 0.17537934 0.05950607 -0.11610105 0.1115132 0.26262453
-0.13537763 0.27980947 0.33368695 0.12506175 0.02872058 -0.013046538 0.07346336 -0.09757167
-0.049364492 0.1497132 -0.0037831375 -0.8434114 -0.15036036 0.09078616 0.0060824146 -0.031123266
-0.18982796 0.014408155 0.35356757 -0.18395749 0.06641091 0.13713747 -0.009593671 0.06792172
0.4969435 0.07959597 -0.10798281 0.105342045 0.07376263 0.21351713 0.10498949 -0.12878312
0.079621926 -0.18053265 -0.091844775 0.013188724 0.04068766 -0.1437796 -0.04775439 -0.017633386
0.14411558 -0.046597876 -0.5523106 -0.03971664 0.18560827 0.1209105 -0.08254091 -0.073150754
-0.05395244 -0.12737362 -0.13621709 0.11906935 -0.06273041 0.12678374 -0.08433369 -0.13647728
-0.07735786 -0.050639644 -0.18284439 0.2816957 0.07738483 0.15912656 -0.040776942 -0.00033841236
-0.0950568 0.12392904 0.33056837 0.06213579 0.20160788 0.34454572 0.19429737 0.04244415
0.046029314 -0.09088546 0.07643999 0.24125475 -0.090594366 -0.13691056 -0.34475332 0.0405882
00000000: 382d 55bc 6a15 9fbd 24dd 443d dad1 aa3d
00000010: 3f7e 7c3d 8d0a c73e e14d a43d 7bb1 bdbd
00000020: 0dc7 acbd 4162 29bc 764a 893e d31e a3bd
00000030: 600e d33c 7160 913e fc8d 6aba 008b a73b
00000040: 6730 4cbf 574b 06be e8e2 55be 3e78 55be
00000050: 6278 0a3e fb00 283e 7123 69bd 190a a73d
00000060: 2ef5 063d c2b0 9dbd 1108 ad3d ad06 60bd
00000070: 0fad fa3d f8a7 3e3e 5220 093c ec54 4cbd
00000080: 7346 bdbd 7737 b53d 2e70 4abc 08bf 183e
00000090: 5fb6 acbd c214 34be d6d1 d9bc 3f1b 0a3d
000000a0: 658d 373d 1dbf f03d 1475 1d3e 0d16 f53d
000000b0: 9c78 dabb b595 f53d 6654 9c3e 1df4 a93d
000000c0: 639c 9a3d f256 f33d dd85 bc3d 075c 51be
000000d0: be5d e23d d415 023e 7133 a13d 92c3 823d
000000e0: d271 a73d 1000 8ebd 7e18 a93d dd0b 1e3d
000000f0: ede8 2bbe 5080 253e ae4a 4abd fd60 01be
00000100: d3d5 233e 2ef6 fcbb 7468 e8bd c44a 333e
00000110: f49d 08bd e3fc 283d 0b8f 8a3e 13ad f83d
00000120: 7fda 1bbe 6585 d6bc 2373 97bd d6de 753d
00000130: cc25 733e 1bcd 38be 7da0 39bf 33af 3bbe
00000140: 5c29 d03b fe2e 19bf 10a1 42be 9098 2bbe
00000150: ac64 0bbe 97c3 c13e 9fbd 35be 4e98 7a3d
00000160: 789a 043e 7dd7 10bd 7b4a 45bd 3cff a6bd
00000170: 5918 ef3d a70a fa3d 0975 2ebe 3267 e03e
00000180: 452f 68be 2f31 d93c 1900 a6be e3a5 eebd
00000190: af66 513e 53eb 363b afd9 06be 2130 853d
000001a0: 5811 a6be f700 14be 9f7d b73d 39c8 9fbd
000001b0: 5aa4 9ebd 4306 d33d ccb5 bfbd bcd8 78bd
000001c0: 5097 e8bd 3a48 483d 5b49 d43d b5de 6a3d
000001d0: e661 f33d ec73 4cbe 2c2a cabd 1b58 86be
000001e0: f34a 89bd c243 ef3d 1475 0d3e c18c c33d
000001f0: e33a 1cbe 5fa8 683e f815 3b3e 0e56 1c3e
00000200: c9ae febd 5a68 37bc a9ae cdbb b2a7 0cbe
00000210: cf8f 84bd 68f0 8d3d 6a60 133f e092 a2bd
00000220: d6cc fdbc e26b 7d3e fe1b a23d 89a6 c2be
00000230: 3d27 cabd f25d ac3d 249a 833e bdb9 4cbe
00000240: b4f0 663d 6a77 6b3d 0bb1 033e 0cb5 d13c
00000250: 4812 6f3e 0c80 73bd 745a 113d 2b86 183d
00000260: 89ee 793d 5f67 18be de36 06be e4c8 56bd
00000270: cb11 493e 3cc9 973c 0062 88bc eccd 0a3e
00000280: dae1 32be 4cf1 593e ea3d daba 0385 823d
00000290: d404 063e 14c4 15be 551c 903d 9836 83bc
000002a0: 287f d3bd 5680 313e d190 9fbc a496 333e
000002b0: a3bc 733d 63c6 edbd 0861 e43d b976 863e
000002c0: 6fa0 0abe 3043 8f3e 04d9 aa3e 3010 003e
000002d0: 6c47 eb3c 26c1 55bc f573 963d a8d3 c7bd
000002e0: 6c32 4abd 6b4e 193e 84ee 77bb cfe9 57bf
000002f0: 11f8 19be 18ee b93d fe4e c73b 38f6 febc
00000300: 4362 42be 2f10 6c3c cf06 b53e 5a5f 3cbe
00000310: 7102 883d c46d 0c3e c62e 1dbc 8b1a 8b3d
00000320: 616f fe3e 3603 a33d 1726 ddbd 92bd d73d
00000330: dd10 973d 3ca4 5a3e bb04 d73d b9df 03be
00000340: d210 a33d 8ddd 38be 1d19 bcbd 8515 583c
00000350: 1ba8 263d f63a 13be 1b9a 43bd e473 90bc
00000360: 0993 133e 6add 3ebd 3a64 0dbf eaad 22bd
00000370: 1810 3e3e ed9f f73d 350b a9bd 10d0 95bd
00000380: 3cfd 5cbd 3b6e 02be 7e7c 0bbe a2da f33d
00000390: cd78 80bd 99d3 013e 24b7 acbd b3c0 0bbe
000003a0: cc6d 9ebd 846b 4fbd 8f3b 3bbe 6b3a 903e
000003b0: f07b 9e3d 13f2 223e b905 27bd f06c b1b9
000003c0: 24ad c2bd 82ce fd3d 4240 a93e 1982 7e3d
000003d0: 4c72 4e3e 4c68 b03e e4f5 463e ebd9 2d3d
000003e0: 3c89 3c3d 2822 babd 928c 9c3d 7c0b 773e
000003f0: 8a89 b9bd 4832 0cbe 8283 b0be d03f 263d

deconv1.weight f4 [12, 32, 1, 1]
0.06862712 0.25076962 0.126969 -0.05651469 -0.032669216 -0.026876938 -0.24061072 -0.010459776
0.121547006 -0.12763034 0.057761703 0.15677932 0.047425866 -0.010183433 0.13698603 0.025961384
-0.12936518 0.08040663 0.077277035 -0.116116725 0.30455735 -0.07268538 0.09145887 0.044603314
-0.18878384 0.005330434 0.11539602 0.041634876 0.14086339 -0.014279661 -0.081972346 0.101334125
-0.038911067 0.02861444 -0.04148452 0.017456232 -0.089206085 0.033255134 -0.14993642 -0.11471876
-0.16780859 -0.04327874 -0.0413913 -0.06810884 0.061034422 -0.028024003 -0.055690967 -0.07312012
-0.04797104 -0.01686215 -0.019660877 0.02792088 -0.041767992 -0.03547113 0.08153694 -0.16687049
-0.005503625 -0.0103462 -0.09363891 0.109691426 -0.023025956 -0.023617767 -0.053225227 -0.045482893
-0.066731215 0.14123963 0.038337372 -0.08267198 0.03854552 -0.078881554 0.12416018 0.037874274
0.05317042 0.25472948 0.004505061 0.050347682 0.10817365 0.024391318 -0.15782483 -0.09547241
0.073579356 -0.27018833 -0.068844415 -0.042854067 0.16198525 -0.07335783 0.009477855 0.1395487
0.09529977 0.0023021342 -0.071996555 -0.0363587 0.1535126 0.027865347 -0.022445003 0.002514387
0.016392898 0.0062839193 -0.06172166 -0.123357855 0.13952765 -0.13881506 -0.02484686 0.1836202
0.14946015 0.2096611 0.0852157 0.12059141 0.032833215 0.0090927305 -0.08323696 -0.26518792
-0.16860642 0.1410632 0.08205938 0.033110153 0.023183135 0.22728959 -0.07360343 0.09638099
0.15332231 0.1855304 -0.018867267 -0.16808622 0.10836278 0.13533376 -0.07315393 -0.040458836
0.12451809 -0.104094714 0.15659145 0.117307134 -0.14720489 -0.02423188 -0.27815136 0.08961711
0.12095604 0.1426766 0.055152796 -0.07536682 -0.08568574 0.14231128 0.083298735 -0.0704621
0.045771606 -0.011437261 -0.13603127 -0.11864448 0.15724194 0.10013929 -0.0064764353 -0.041484352
-0.0031107322 -0.08482486 0.19039486 0.15396762 0.037260316 0.0812754 0.109995626 -0.11446524
0.15105328 -0.11486727 0.12131526 -0.132268 -0.120742105 -0.01500264 -0.11097096 -0.04451386
0.10141423 -0.25818178 0.03142071 0.06681483 0.033063266 0.018872997 0.084141 0.11001453
0.22767085 -0.13488185 -0.05624241 -0.20615265 -0.018313473 -0.2077176 0.06291332 -0.07874187
-0.058622174 -0.0008913827 0.16763857 0.15206769 0.0072103282 0.15839557 0.19463083 -0.0017309218
0.014719643 -0.060509425 0.039017398 -0.08854212 -0.033103682 0.18420659 -0.089507625 0.104933515
0.021604104 -0.035228647 0.03217661 0.2000227 0.058756948 0.10281222 -0.05826639 0.13815984
-0.07615885 -0.02116225 0.08134461 -0.045882106 0.027514387 -0.4133997 0.090108104 0.025448093
-0.15481745 -0.23053457 0.058162898 0.011738761 0.06258962 -0.16943486 0.04998218 0.17584752
-0.13202412 -0.34097448 0.13427809 0.0069157924 -0.05397366 0.07210438 0.16199736 0.009995817
0.12188283 -0.2499147 0.0072315256 0.06997957 -0.003361112 -0.017389543 -0.01712138 0.17240994
0.08681229 -0.206683 0.10166702 0.25960708 -0.35673594 -1.3790766 -0.01523498 0.06892249
-0.11263453 0.09590454 0.042843603 -0.064917736 -0.06607681 0.025060706 0.13868976 0.014159846
00000000: 608c 8c3d e064 803e 2904 023e f37b 67bd
00000010: 28d0 05bd 062d dcbc a862 76be 7b5f 2bbc
00000020: a3ed f83d 87b1 02be 8997 6c3d c28a 203e
00000030: a041 423d 6ad8 26bc 1146 0c3e f8ac d43c
00000040: 4e78 04be 3bac a43d 6c43 9e3d 9bce edbd
00000050: f1ee 9b3e 13dc 94bd ca4e bb3d f7b1 363d
00000060: 8d50 41be ecaa ae3b c054 ec3d 5589 2a3d
00000070: 7e3e 103e 3df5 69bc 1ee1 a7bd 4488 cf3d
00000080: 3661 1fbd d468 ea3c aceb 29bd 5f00 8f3c
00000090: aeb1 b6bd 8936 083d ef88 19be abf1 eabd
000000a0: 04d6 2bbe 0c45 31bd ec89 29bd a67c 8bbd
000000b0: 3bff 793d 9892 e5bc 361c 64bd 00c0 95bd
000000c0: 487d 44bd 7e22 8abc d90f a1bc 54ba e43c
000000d0: ea14 2bbd 2d4a 11bd d7fc a63d 19e0 2abe
000000e0: c157 b4bb 1c83 29bc c2c5 bfbd e6a5 e03d
000000f0: eea0 bcbc 0c7a c1bc b202 5abd 454c 3abd
00000100: 60aa 88bd 1fa1 103e a607 1d3d ed4f a9bd
00000110: e8e1 1d3d a78c a1bd b147 fe3d 0e22 1b3d
00000120: 3ac9 593d e76b 823e 319f 933b 5f39 4e3d
00000130: 268a dd3d 4dd0 c73c d59c 21be 0a87 c3bd
00000140: c6b0 963d 2056 8abe 4dfe 8cbd bf87 2fbd
00000150: 76df 253e a13c 96bd 0149 1b3c dbe5 0e3e
00000160: 872c c33d 67df 163b ee72 93bd dcec 14bd
00000170: 6832 1d3e de45 e43c 95de b7bc 6ac8 243b
00000180: 664a 863c 56e9 cd3b dacf 7cbd 0ba3 fcbd
00000190: 56e0 0e3e 8925 0ebe a48b cbbc ef06 3c3e
000001a0: 150c 193e 66b1 563e 9285 ae3d a1f8 f63d
000001b0: 1f7c 063d adf9 143c 2478 aabd b6c6 87be
000001c0: 29a7 2cbe df72 103e c00e a83d 839e 073d
000001d0: 8fea bd3c 9abe 683e 65bd 96bd 6663 c53d
000001e0: 8600 1d3e aefb 3d3e 878f 9abc cb1e 2cbe
000001f0: 4eed dd3d ef94 0a3e bad1 95bd 2ab8 25bd
00000200: 5703 ff3d 9c2f d5bd 8259 203e b93e f03d
00000210: e1bc 16be f081 c6bc db69 8ebe 2d89 b73d
00000220: cdb7 f73d d119 123e e6e7 613d eb59 9abd
00000230: 017c afbd 0cba 113e 8798 aa3d 6f4e 90bd
00000240: 027b 3b3d 5963 3bbc c84b 0bbe e1fb f2bd
00000250: 0804 213e d415 cd3d 4738 d4bb 7feb 29bd
00000260: 6ddd 4bbb a8b8 adbd dff6 423e b0a9 1d3e
00000270: 469e 183d b873 a63d 6345 e13d c06c eabd
00000280: b6ad 1a3e 883f ebbd 2374 f83d 4371 07be
00000290: a347 f7bd a2cd 75bc be44 e3bd 2a54 36bd
000002a0: 44b2 cf3d 6730 84be 01b3 003d 37d6 883d
000002b0: 596d 073d 8b9b 9a3c 1e52 ac3d 4c4f e13d
000002c0: 8c22 693e 781e 0abe 715e 66bd ae19 53be
000002d0: 2306 96bc ecb3 54be b3d8 803d 6b43 a1bd
000002e0: ce1d 70bd aeab 69ba 72a9 2b3e a2b7 1b3e
000002f0: 9e44 ec3b 7332 223e 4e4d 473e 19e0 e2ba
00000300: a82a 713c bbd8 77bd b5d0 1f3d 9255 b5bd
00000310: ba97 07bd a7a0 3c3e c64f b7bd 62e7 d63d
00000320: 17fb b03c ea4b 10bd 9fcb 033d c0d2 4c3e
00000330: 20ab 703d 378f d23d bda8 6ebd c679 0d3e
00000340: 2cf9 9bbd 745c adbc 0198 a63d e0ee 3bbd
00000350: da65 e13c 20a9 d3be 998a b83d 8578 d03c
00000360: 7788 1ebe 4111 6cbe 383c 6e3d ef53 403c
00000370: fd2e 803d 5580 2dbe 1dba 4c3d 5f11 343e
00000380: 5531 07be 3594 aebe 3280 093e df9d e23b
00000390: 7c13 5dbd 76ab 933d a3e2 253e 7fc5 233c
000003a0: b59d f93d a4e9 7fbe 6ff6 ec3b 7351 8f3d
000003b0: 1a46 5cbb 8474 8ebc 2342 8cbc 3b8c 303e
000003c0: a4ca b13d b5a4 53be cc36 d03d 38eb 843e
000003d0: 18a6 b6be 9585 b0bf 239c 79bc 3c27 8d3d
000003e0: efac e6bd 9969 c43d c67c 2f3d 97f3 84bd
000003f0: 4753 87bd 1c4c cd3c b004 0e3e b3fe 673c

deconv1.bias f4 [32]
-0.12675574 -0.07705759 -0.15121676 -0.12138568 -0.09198673 0.08200241 0.00063978997 0.08000824
-0.046039462 -0.0525615 -0.3635529 -0.13801742 -0.051648013 -0.1547817 0.06275557 -0.050708946
-0.074157 -0.07020764 -0.047005787 -0.07499562 -0.08860844 0.02227526 0.47595704 -0.007117237
-0.11677481 0.026419884 -0.15694389 -0.06582647 -0.002813606 -0.064019114 -0.22928372 -0.07051855
00000000: 42cc 01be 5fd0 9dbd 91d8 1abe 0e99 f8bd
00000010: 8a63 bcbd e1f0 a73d 94b7 273a 5cdb a33d
00000020: e093 3cbd ba4a 57bd 9b23 babe 7054 0dbe
00000030: de8c 53bd 187f 1ebe fe85 803d 2fb4 4fbd
00000040: a0df 97bd 06c9 8fbd 2489 40bd 4e97 99bd
00000050: 5778 b5bd 9b7a b63c a4b0 f33e b637 e9bb
00000060: a227 efbd 836e d83c e6b5 20be 07d0 86bd
00000070: 7a64 38bb 741c 83bd 5ac9 6abe 086c 90bd
