Pytorch/AutoEncoder/saved_models/cifar10/NetLargeDropout-L2Loss_cifar10.pt (torch, 288751 bytes, 16 tensors)

conv1.weight f4 [64, 3, 3, 3]
00000000: 47da 8bbd 06e2 b73d 4440 8e3d 4e93 333e
00000010: 9f69 e9bd 9fbd 183d a996 41be 2a1a 0e3e
00000020: 0eab 11be a2db e1bd df14 bdbd f4fd cabd
00000030: d518 753d 0e6d 17be dd8c 733d 4a99 373e
00000040: 6fdf ebbd c2c6 55bd abe0 b43d a086 38be
00000050: 69a6 063d 1db2 bd3d b1c0 3abe ce8c ac3d
00000060: 7c9b fd3d 1942 373d d558 ca3a ce49 0a3e
00000070: e7b2 af3d 7d7e 11bd 2956 053e 6365 d0bc
00000080: e11b f43d 6673 48bc a67e 1fbe 703c d4bd
00000090: 688c 9c3d fbcc fa3c f69b 8ebc d467 183e
000000a0: 66e9 2ebe 6170 223e 6a6b 053d f1d1 c93d
000000b0: 586f babd 7c32 03be 7173 da3b d2c1 bdbb
000000c0: a930 a13d 0e4e e3bd 30c5 a23d ae56 203e
000000d0: 69e7 e03d 1334 a6bd 1d4f 643e ec73 21bd
000000e0: 5c12 a2bd 7bac edbd fbc6 46bd 06a8 843d
000000f0: 49a1 e5bd e4c4 2ebc bbf7 263e 3510 12be
00000100: 56c7 dd3d 7290 523e 163d 37be 81db 863b
00000110: b1e3 28be 4b17 d4bd 78d1 243e 9e9d 063e
00000120: 3a0a adbd 5cdb 023e e0a6 a13d bdc3 c03c
00000130: 30ab 3d3d a1c0 983d c517 2cbe 5271 403d
00000140: 5c2d ecbd 5cb5 68bc 084d d4bd e2b3 d83d
00000150: 10a9 1a3b 1792 26bd 4103 a5bd a6fc 393e
00000160: 0b15 f0bc 9ed5 c8bd ba59 d9bd bce1 0d3d
00000170: 8a97 503e a6db 83bc 78db 2cbd 23d7 71bd
00000180: f308 573d 036e 0ebe 69a7 fabd a55d e53d
00000190: 64cb c6bd e54b 253e b3fd afbb 783e 413e
000001a0: ac36 3fbc b058 b9bd 7242 84bd d230 d1bd
000001b0: aca9 4fbe 126e 37bd 3ff3 b23d 8e44 f73d
000001c0: 66e0 73bd 8986 f5bd ce48 383e 434d 353e
000001d0: 0d4b 94bd 3dee 17be 352b 25be 43e4 b6bd
000001e0: abd6 e13d 1bd8 bbbd c457 1bbd 3cb1 6c3d
000001f0: 6026 adbc 9b1a cf3d bf3f 01bd 0b72 8cbd
00000200: e116 0b3e 456e 30bd 6033 e8bd 1f34 2d3c
00000210: 3f11 09bd e5e5 193e 9fbe 123e d5bf 08be
00000220: e064 0cbe 602d acbc 3eca 0e3e 1981 24be
00000230: 8382 fabc fa2f b73d 177f 28bb 2669 dcbc
00000240: dc2d af3d a69b 1b3d e011 0c3d 1a5c 58be
00000250: 09b2 7dbc bfab 9e3d f12a 0bbd df96 1dbe
00000260: 011d 913d 4dc3 46bd 8f31 b0bd d4b8 37bd
00000270: 642b 27bd 4c73 993c d1e0 1dbe a0c4 0f3e
00000280: f658 833d bb9f 6cbd 4c7a c1bd b82e d13d
00000290: 99e0 2e3d 51e7 72bd 30cc ddbd e203 d1bd
000002a0: b7b4 b5bd fedb e43d c82f 0d3e 2ee3 3d3e
000002b0: 56ba c5bd e537 bb3c 20ae 183e 9721 bbbd
000002c0: e1d7 23bb b8b7 093e b6a7 bebc a968 be3d
000002d0: b7c5 253e 7e2b 3dbb 4797 3a3e 7882 05be
000002e0: 41f1 433d 11cd 903d 048b 0dbe 9e5f 27be
000002f0: 8b49 0bbe 8584 523d a197 c13d fdad dfbb
00000300: 5c76 2ebd ffb1 033e 54ee 323e e712 db3d
00000310: 788b 19be 5ac8 1cbe 0639 ebbd 280e 43bd
00000320: 636a cabc 1728 113e 1b3d 033e ee46 f1bd
00000330: 378f 10be bb7f 1ebe 2183 7bbd 93d0 363e
00000340: 69d1 203e ebc7 653d 1790 24be 5f04 45be
00000350: 294c 113e 23d5 ab3d 5979 3f3e 9595 e63d
00000360: 7c0b 033e 2d20 ad3d ca37 1d3e 3400 7b3d
00000370: f456 dcbd ab5c f93d 5546 99bd 68b4 ba3d
00000380: cd3c d1bd 4c25 9c3c 192a b83d e7ad 513d
00000390: 1f45 fc3d 39e0 32be ae29 e63d 8ee7 14be
000003a0: 16fc 16be e7b1 3c3e c8b9 31be f684 2abd
000003b0: 1b68 bdbd d31e 403d 81a3 9e3c fec4 7e3d
000003c0: 8279 063d 6795 bc3c bceb 95bd f60b 2d3e
000003d0: 7839 a93d 7578 2a3d ef54 383e 8bc8 5b3d
000003e0: 2a55 20be ffd6 e5bd defa b2bd 5957 263e
000003f0: 23e3 353b 88aa cf3c b3a7 ec3c 4601 393e
-0.068287425 0.089786574 0.069458514 0.17536661 -0.11397099 0.03729021 -0.18905129 0.13877168
-0.14225408 -0.1102822 -0.092324965 -0.09911719 0.059838135 -0.14787695 0.05946051 0.17929569
-0.11517226 -0.052191503 0.088319145 -0.18020105 0.032873545 0.09262488 -0.18237568 0.08425294
0.12383172 0.04474077 0.0015437851 0.13504717 0.08579045 -0.03552102 0.13021149 -0.02543897
0.1191938 -0.012234544 -0.15575656 -0.1036309 0.07643968 0.03061532 -0.017408352 0.14883357
-0.17081222 0.15863182 0.03257314 0.09854496 -0.091032684 -0.12812227 0.0066665937 -0.0057909274
0.07870609 -0.11098872 0.07947767 0.15658066 0.10981638 -0.08115401 0.22295804 -0.039417192
-0.07913658 -0.11605164 -0.048529606 0.064773604 -0.11212403 -0.01066706 0.16305439 -0.14263995
0.10829036 0.20562914 -0.17894396 0.0041155224 -0.16493107 -0.10356005 0.16095531 0.13146064
-0.08449216 0.12778991 0.07893157 0.023530835 0.046305835 0.07458616 -0.16805942 0.04698307
-0.11532089 -0.014203396 -0.10366255 0.10581185 0.0023599304 -0.040666666 -0.08057261 0.18162784
-0.02930691 -0.09806369 -0.10612817 0.034639105 0.20370308 -0.016095947 -0.04220149 -0.05904306
0.05249877 -0.13909154 -0.12238962 0.11199502 -0.097067624 0.16142233 -0.0053708195 0.18871486
-0.01167075 -0.09050119 -0.06457986 -0.1021439 -0.20279568 -0.044782706 0.08737802 0.12073623
-0.059540175 -0.11988551 0.17996523 0.17705254 -0.07240877 -0.14836974 -0.16129763 -0.08930256
0.11027273 -0.09172078 -0.037925497 0.05778621 -0.021136463 0.101124965 -0.031554934 -0.068576895
0.13582946 -0.04307391 -0.11337924 0.010571509 -0.033463713 0.15029104 0.14330529 -0.13354428
-0.13710356 -0.02101773 0.13944337 -0.16064872 -0.030579811 0.08944698 -0.0025710517 -0.026905607
0.08553669 0.037990235 0.034196734 -0.21128884 -0.015484341 0.07747602 -0.0339765 -0.15389584
0.0708561 -0.048526097 -0.086032026 -0.044854 -0.040812865 0.018731736 -0.15417792 0.1403985
0.06413452 -0.05776952 -0.094471544 0.10213989 0.04269466 -0.05930263 -0.10829961 -0.10205819
-0.08872359 0.11174773 0.13787758 0.18543693 -0.096546814 0.022853801 0.14910173 -0.09137266
-0.00250005 0.1344899 -0.02327333 0.09297306 0.16188703 -0.0028865035 0.1822177 -0.13038051
0.0478375 0.07070363 -0.13822562 -0.16345069 -0.13602273 0.05139591 0.09452749 -0.006826161
-0.042593345 0.12860869 0.17473727 0.10696965 -0.1499461 -0.15310803 -0.11485486 -0.047620922
-0.024708932 0.1417545 0.12816279 -0.11781107 -0.14117132 -0.15478413 -0.06140435 0.17853002
0.15704884 0.05609886 -0.16070591 -0.19239949 0.14189209 0.08390262 0.18698634 0.11258999
0.1279735 0.08453403 0.15353313 0.06127949 -0.107587725 0.12175878 -0.07484118 0.09116441
-0.10216675 0.019060753 0.089924045 0.051191237 0.12317871 -0.17468347 0.112384185 -0.14541456
-0.147446 0.1842724 -0.17356026 -0.041630708 -0.09248372 0.046904396 0.019365074 0.062199585
0.032830723 0.02302046 -0.073203534 0.16899094 0.082629144 0.041618783 0.1800115 0.05365805
-0.15657488 -0.11222648 -0.08739255 0.16244258 0.0027753792 0.02534987 0.028888559 0.18066892

conv1.bias f4 [64]
00000000: 0121 4f3e dc4f 8ebe 9ab6 c5bd 0340 323e
00000010: d978 5a3d f993 903e bd67 aebd d4f5 67be
00000020: 780a adbd 26a6 adbb ae44 0d3d 141d 6d3e
00000030: 1cd9 adbd 2d30 8bbe 06b5 223e 1627 443e
00000040: 8646 b6be cb6f a23d 8277 23bc d166 923e
00000050: c567 40bb 7473 ee3d 6fcb 4b3e 7e58 583e
00000060: 2bc6 5ebc da4f 04bc 69cd 19be a7c5 32be
00000070: 1ff7 493e 59b8 d8bd 2c9a d2bc be52 1a3d
00000080: 3ddc 243e 4cb3 1dbc 32d6 9c3d 2edc f5bc
00000090: 2a0a 9abe 5ee2 e8bd 73bc 803e be77 07be
000000a0: b86e c93d a144 60bd 46eb 613e 8150 32bc
000000b0: 8542 533e 0558 d4bd 0c18 8cbd 80a0 0a3e
000000c0: bb39 113e a211 c3be 9e01 38be d96b 7c3e
000000d0: d376 edbd 3bfa 1fbe 45e7 0c3e 3377 18be
000000e0: 1c67 71be 030e 313e 402d 1b3e 4763 5c3e
000000f0: 968b 0ebe 41a6 74bb af62 94be 6810 8ebd
0.20227434 -0.27795303 -0.09653969 0.17407231 0.053337906 0.28237894 -0.0851588 -0.2265237
-0.084492624 -0.0052993475 0.034489326 0.23155624 -0.08488676 -0.27185193 0.15889367 0.19155535
-0.3560068 0.07931479 -0.009977223 0.28594068 -0.0029358726 0.11643115 0.19901823 0.21127507
-0.013597052 -0.008075679 -0.15019764 -0.17458211 0.19723175 -0.105820365 -0.02570828 0.037676565
0.16099639 -0.009625267 0.07658042 -0.030012216 -0.3008588 -0.11371301 0.25143775 -0.13229272
0.09835571 -0.05475295 0.22062406 -0.010883451 0.20630844 -0.10368351 -0.06840524 0.13537788
0.14182179 -0.3809939 -0.17969367 0.24650516 -0.115949295 -0.15622799 0.13760097 -0.14889221
-0.2357449 0.17290501 0.1515398 0.21522246 -0.13920435 -0.003733054 -0.2898154 -0.06936723

conv2.weight f4 [32, 64, 3, 3]
00000000: 058a 15bc 2968 35bc 076e a1bc f914 cebc
00000010: 2078 823a 59ed bdbc 14f6 86bd d910 26bd
00000020: 2084 5bbd 3dea 913d 5d18 e33d 974b ba3c
00000030: 1c77 b63d 72f7 5c3d c11b b8bc 7196 7939
00000040: abf5 b4bc 0cb7 67bd 5a08 f5bc bc28 c3bc
00000050: 4eac a2be ea8f bcbc 27b9 63bd 4d2f b7bd
00000060: 13d2 073d 31ac 36bd 4194 cfbd d2e3 96bd
00000070: 971d 53bd 65cc ccbd 5217 cbbc 1474 85bc
00000080: 197a 15bd 7baa 0bbd 027b 2ebd 09e4 96bc
00000090: 7e30 a33a 56d7 e2bc f3f4 40bc f96d cc3b
000000a0: 66ea 0c3c 8cbc 023c 3113 3e3c 875d ff3b
000000b0: d3a1 8d3b cf99 943c dbda 603c a18f 943b
000000c0: 0d30 423b 8ba2 6b3b b8e5 91ba c5c5 403d
000000d0: a2bc f63c 3a20 eeba d113 b0bd 6aec 5cbd
000000e0: f12d e0bd 8cf2 c6bb e72c dfbc 8840 3ebc
000000f0: 97f7 19bd 0cc8 703a a649 433d 1ea3 36bc
00000100: e86a 093d 1627 e73c 1630 1a3d 1fe7 1b3d
00000110: e717 ae3c 55df 0fbd 1ccd 9cbd 70f2 5b3d
00000120: 926b 52bc f529 9f3d 274b 31bc 9b3f cb3b
00000130: 3f9d 3e3c c307 2c3d 1ed8 00bd 0b83 323b
00000140: 95ad 303c c877 333d a01c 5d3d 6a2c 1c3c
00000150: 475c 9e3d 7e56 483d 9ad3 f73c cf2a cd3c
00000160: 8eee 9f3d f4bc 853d 3d8c 46bd 7953 d5b9
00000170: 101f 4abd b1ee 8ebd e8e4 d53a ea36 4fbd
00000180: ff4c 293d 94ac 263d 1e02 773b 8932 683c
00000190: b706 543c 999a 23bd 0aee f93b 8b31 c4b9
000001a0: f1ce 12bd 180a 653d 40bc 1c3d 18b2 febc
000001b0: a63e 2ebd c8e3 31bd 8788 7bbd 54c3 8abc
000001c0: 2f8a bf3c 6ce9 71bc c01d 85bd f7fd 03bd
000001d0: f7d4 17bc 5ab9 8c3c 3a47 37bd ae39 343d
000001e0: d6cb 34bd 6e41 b83d c3de ed3c 38e6 323c
000001f0: 9dbb aa3c 1590 b43d 03a0 863e b4e6 de3d
00000200: c0e7 923e 6d6b 0dbc f21f 6fbd d66a 413c
00000210: 81ed fc3d 6322 2f3e 2a00 c73d 0441 2cbd
00000220: a831 b1bc 3cbe 9ebc 0374 a63c edd5 8a3c
00000230: 507a 8a3b 2bfb 52bd 3215 a1bc 80b8 1fbd
00000240: 5734 fc3d ca89 97bc 638d 493e e6db 2c3e
00000250: 442a 023d 575b 173e 9d88 9c3d 972b b03d
00000260: 9a49 663d be81 eebd 05ec d8bd 8e5b b4bd
00000270: f68e 9bbd f8c3 96bc 0568 78bd 3684 6abe
00000280: 50d3 2dbe f3ca 3cbe 329b 68ba 32e4 223d
00000290: f38e 003c 1535 bc3c 0d8f d33b 8082 cf3c
000002a0: e940 3e3d 0932 483d bb17 633d 07a7 083b
000002b0: 58af edbb 3c6e 333d e45f 343d fe77 823c
000002c0: 24bd a53c a17b 71bd 5161 a9bd be3d 343b
000002d0: 0a03 c2be 0a8b 4dbd 78ee 26be 9ac0 97be
000002e0: 54c2 693b 6903 0fbe f3db bfbd d344 05bc
000002f0: a1e1 14bd b5c2 fe3c 4eaa 8e3c 76b9 85bd
00000300: 31e9 f83b cbb7 da3c e855 963c 847d 403d
00000310: c6e6 833c 03fc 053b 3171 0e3c 25d4 b33c
00000320: 3a9c a83c d80f 9e3d 9816 523d f82d 853d
00000330: d224 e33c 9c61 103d 5588 133d f7a2 da3d
00000340: fdad 2e3c 6610 193e c374 67bc 4286 e0bc
00000350: 747e 563d 8d70 db3d 5d7b 773c d205 fa3d
00000360: 8f9f af3c d77e 7d3c d006 7bbc 7717 9cbb
00000370: b70d 10bb 773b cebb 2a17 6fbc d205 293c
00000380: 8c70 913c e8cc 86bd bdaa 2dbd c537 f5bd
00000390: 6de8 d2bc 07cf 083c dca9 87bc 75f7 54bd
000003a0: 1279 43bd 098a a1bc a2d5 14bd 14e4 a53c
000003b0: 77aa 073b 20fe 923c 0574 02bc b0d4 a13c
000003c0: 7380 20bd c807 5f3c e966 e1bc 0560 6c3b
000003d0: 6754 413c ecea 283b 2eeb 67bd 58e5 073a
000003e0: 4662 6cbc c6d1 23bd 1a8f 183d b16d 0d3d
000003f0: 97d5 de3d a53c 4d3d e883 2a3c 5dbc ffbc
-0.009127145 -0.011072197 -0.019705785 -0.025156485 0.0009954013 -0.023184465 -0.065899044 -0.04054341
-0.0535928 0.071247555 0.11088631 0.022741122 0.08909437 0.05394692 -0.022474172 0.00023802534
-0.0220898 -0.05657105 -0.029911209 -0.023823135 -0.31772083 -0.023017842 -0.055596497 -0.08944569
0.033159327 -0.04459781 -0.10135699 -0.07367672 -0.05154189 -0.09999923 -0.024791393 -0.016290702
-0.036493395 -0.03409813 -0.04259778 -0.018419283 0.0012450365 -0.02769057 -0.01177715 0.0062386957
0.008600807 0.007979523 0.011601255 0.0077931318 0.0043222695 0.018139748 0.013724054 0.0045337235
0.0029630691 0.0035955037 -0.0011131084 0.047063608 0.030119244 -0.0018167563 -0.0859753 -0.0539364
-0.10946263 -0.0060713943 -0.02724309 -0.011612065 -0.037589636 0.0009185083 0.04767766 -0.011147289
0.03354922 0.02821688 0.037643515 0.03806221 0.021251632 -0.035125095 -0.07656309 0.053698003
-0.01284303 0.077716745 -0.01082114 0.0062026507 0.01163417 0.04199959 -0.031456105 0.0027238752
0.010783573 0.043815404 0.053982377 0.0095320735 0.07732444 0.04891061 0.030252267 0.025044827
0.078091726 0.065301806 -0.048473585 -0.00040688718 -0.04934603 -0.069791205 0.001631883 -0.05058948
0.041333195 0.040691927 0.003769047 0.014172205 0.012941054 -0.039942358 0.0076272534 -0.00037420946
-0.035841886 0.05591783 0.038265467 -0.031090781 -0.042540215 -0.04343012 -0.0614095 -0.016938843
0.02338132 -0.014765125 -0.06499815 -0.03222462 -0.009267083 0.017178226 -0.04474566 0.04400032
-0.044139706 0.08996855 0.029036885 0.010919146 0.020841414 0.08816544 0.26293954 0.10883847
0.28692436 -0.008631569 -0.058380075 0.011805257 0.12349988 0.17102961 0.09716828 -0.04205419
-0.021630123 -0.01937782 0.02031899 0.01694771 0.0042260066 -0.051509064 -0.019663427 -0.038994312
0.123146705 -0.01849832 0.19682841 0.1688076 0.03177859 0.14780937 0.076432444 0.08602064
0.056222536 -0.1164584 -0.10591892 -0.08806525 -0.07595627 -0.018403992 -0.060646076 -0.22901997
-0.1697514 -0.18436794 -0.00088732236 0.039768405 0.007846582 0.02297453 0.006456262 0.025330782
0.046448622 0.048875842 0.055442553 0.002085151 -0.0072535686 0.0438063 0.04403676 0.015926357
0.02023179 -0.058955792 -0.08270515 0.0027502622 -0.37892944 -0.050181426 -0.16301906 -0.2963913
0.0035668807 -0.13966145 -0.09368124 -0.008134085 -0.03634799 0.031098703 0.017415192 -0.065295145
0.007596158 0.026698967 0.01835151 0.0469947 0.016101252 0.00204444 0.008693979 0.021951744
0.020582307 0.07717866 0.05129108 0.065029085 0.027727518 0.035249338 0.03601869 0.10675614
0.010661599 0.14947662 -0.014126959 -0.02740777 0.05236669 0.10714827 0.015105096 0.122081414
0.021438388 0.0154721355 -0.015321448 -0.0047635394 -0.002198083 -0.00629371 -0.014592925 0.010316329
0.017753862 -0.065820515 -0.042399157 -0.11973528 -0.025745595 0.00835014 -0.016560487 -0.051993806
-0.047722884 -0.01971914 -0.03633655 0.020250358 0.002070097 0.017943442 -0.0079622315 0.019754738
-0.039185 0.013612695 -0.027514892 0.0036067974 0.011799908 0.002577479 -0.05662077 0.0005184016
-0.014427727 -0.039994977 0.037245847 0.034528438 0.10880583 0.050106663 0.010407425 -0.031217748

conv2.bias f4 [32]
00000000: 2a62 67bc ce11 ad3d ca22 d33c 37a8 913d
00000010: 0250 1cbd 1ad1 0d3c ffd4 52bd 5342 703d
00000020: d3cd 803d 50bc 08bd 3559 8e3d 9149 5dbc
00000030: 7143 253b b840 8b3c 1999 333c 0ed5 ad3c
00000040: ed7d 793d 0a17 0e3d 42fc 1fbc 5db5 9eba
00000050: a8b0 2b3d 605e b33d af37 a43d 38a9 883d
00000060: dcc2 f23c a93d 813c f794 5c3d 86ec a93c
00000070: 497a 4f3d 1486 97bc fbd2 5f3b d5f3 ee3c
-0.014122525 0.084506616 0.025773425 0.071121626 -0.03816224 0.008655811 -0.05147266 0.058657
0.06289258 -0.033382714 0.06950609 -0.013506309 0.00252172 0.016998634 0.010961794 0.021219756
0.060911108 0.03468994 -0.009764733 -0.0012108494 0.04191652 0.08758235 0.08018433 0.06672901
0.029633932 0.015776472 0.053853 0.020742666 0.05065373 -0.01849655 0.0034152854 0.029169003

conv3.weight f4 [12, 32, 3, 3]
00000000: 4ea7 f2bb ff58 babc 5681 83bd b906 c2bc
00000010: 79d4 dbbc 7ace 0b3c 89c3 29bb 1556 86bb
00000020: 323e 163d 5bb2 7a3c ef63 103b 0b2f 4ebc
00000030: 54a8 503c f097 f73c d86c 8e3c 8a63 fcbc
00000040: 561d 793c a906 8d3d 3415 8a3a 1af8 29bc
00000050: f88c 22bd 4bac 5c3b 700f 57bd 402c ea3c
00000060: 1e93 0abd 286f 963c 8055 953d db45 fe3c
00000070: dbe3 debc b523 1fbb 2235 b8bc 0761 1c3d
00000080: 2069 3c3d fd33 a3bb af3c 37bb fd32 5d3d
00000090: 39f5 0d3d b7ce a33c 28c2 36bd 641a 433c
000000a0: e8ce f4bc 064b e1bc 2c03 e03c 2e55 9abc
000000b0: c696 9f3c a5a5 9cbd 62b2 333d a094 00bc
000000c0: c0fc 41bc 4149 a7bb eba0 b9bc f077 313c
000000d0: e763 823a 81c2 a9ba 800c c1bb 71cb 9d3c
000000e0: 824c 74bd 2fce 3d3d 88aa 37bd 97dd 5b3b
000000f0: 5724 22bd 211c 01bb 3793 4abd 79e4 ab3c
00000100: 5f32 023c ca88 e2bb 2161 fe3b 6897 84bc
00000110: 620b 2f3d 1fd6 b8bc a0fa 563c 34f6 103d
00000120: f080 0c3c 6308 3d3c 91c7 b5bc cddd d6bb
00000130: 5d4f 09bd e17c d43c 6260 c9bb 3d82 af3b
00000140: 60d2 f13c 267e e53c 71db ca3c de28 a73c
00000150: 16b3 ec3b 38df 99bc 9c8a 543d 4188 d8bc
00000160: 9de8 31bd 79d7 69bd 60a2 aa3c 2fb9 39bc
00000170: 7ae3 34bc 5f8a 5bbc eaa0 1f3c e71d a33c
00000180: 2975 9ebc e679 6b3c 59a4 393d 48e9 febc
00000190: 42c2 47bd f009 ccbc 5d7d 42bd 8ca2 ddbc
000001a0: 4c9c 4b3d bbad 413c 149e 0f3d a17a 433c
000001b0: 0e02 9ebc 6c55 1abc bca4 d8bb a664 883c
000001c0: 2e82 a8bc 949d ce3c a11d e7bc 7787 a03c
000001d0: bcbc 173d b4f7 943c d2e9 4b3c 8c0f bcbc
000001e0: 2c03 9bba d695 c13a 8fa9 c83b 1eba 95bb
000001f0: b7af 883c ddd3 5a3d 945d b43c f23d 0dbd
00000200: 8da4 8bbc d740 65bc 7899 a7bc 18b1 313c
00000210: 271f 98bc 6f57 103c fd42 043e 5364 853c
00000220: 2288 633c 5df1 16bc 900a c1bb cf85 c6bc
00000230: cc97 b73b 7136 483b 5dc8 e63c 597e 623d
00000240: 9c2d e73c e0a8 4e3c 63b3 233c 80d0 423c
00000250: 6d23 623d 9d9d f33c 7d9b b9bb 4f98 463d
00000260: c6dc 2a3d b0e8 d6b9 b807 83bd 101a 37bd
00000270: 968a d7bc a7f1 03bd f61d 633d 5c7e 49bc
00000280: 8660 aa3c 755a 463e 0692 143d d26f 82bd
00000290: 128c 433d f925 72bd ebb5 213c 7699 f13c
000002a0: c5a7 06bc b318 77bd 9e2d cdbc 58f5 52bd
000002b0: d22f cabb 54db 203c b2a8 68bd 266b 8b3c
000002c0: 541a 263d 7165 06bd 9da5 50bb 8012 4cbd
000002d0: e091 e43c 66ca 8cbc ad57 41bc d9e1 bbbc
000002e0: 5d61 60bc 7730 313d 4d7e 563c bc21 cdbb
000002f0: 5f9a 4f3d 0106 a03c 6baf d23b 163a 8cbc
00000300: be5c debb fb35 f93a 1701 e23c 8e29 05bc
00000310: f213 253d 4be1 8b3c 196c 183d d19b 323d
00000320: 2b7c 7e3c 309a 533c aeb1 3c3d 24f4 253b
00000330: 3a2b 88bb eb9f ee3c a0e5 ccbc e759 b43c
00000340: fc68 95bc 8c7e 00bc dc6c b0bb 8c4d 9c3a
00000350: e72a 0d3b 112c 77bc 0208 933b 0ce7 8d3d
00000360: fca6 f53c f018 263d f248 32bd 7b9c dfba
00000370: 8cdd ed3c 9621 5bbd 25e6 70bb 642c af3c
00000380: 5285 04bc 2bce 993c bfc0 fbbc 1a23 8ebc
00000390: 7b12 ddbc 5f63 d13b 4769 d83c 877e 813c
000003a0: 3a22 8e3b b6f7 c33d e52b e83b 71ea e8bc
000003b0: 015c 04bd 9600 99bb 52fd dfbc 358f 10bc
000003c0: 7700 2bbc c6a8 ee3b ea30 103e 1608 69bd
000003d0: 4d90 96bc 4172 bdbc 7b08 f43c 9dfe 463d
000003e0: 9fc3 1fbc 1975 0cbd 9314 95bc be00 9dbc
000003f0: 736b 423c 3ee3 4a3c 8ac2 b5bc 9694 8c3a
-0.007405198 -0.022747515 -0.06421153 -0.023684846 -0.026834713 0.008533115 -0.0025903902 -0.0040996172
0.036680408 0.015301312 0.0022032221 -0.012584458 0.012735445 0.030223817 0.017385885 -0.030809183
0.015204748 0.06886036 0.0010534883 -0.010374093 -0.03968522 0.003367203 -0.052504957 0.028585553
-0.033831708 0.01836355 0.072916985 0.031039169 -0.02720826 -0.0024282758 -0.022486273 0.03817847
0.045998693 -0.0049805627 -0.0027959754 0.054003704 0.03465769 0.01999603 -0.044618756 0.0119081475
-0.029883817 -0.027501594 0.027345262 -0.018839445 0.019481074 -0.07648782 0.04387129 -0.007847935
-0.011840045 -0.005105168 -0.02265974 0.010831818 0.0009947986 -0.0012951643 -0.0058913827 0.019262047
-0.059643276 0.04633921 -0.044840366 0.0033548826 -0.039585438 -0.0019700604 -0.0494568 0.020982968
0.00794658 -0.006913279 0.0077630435 -0.016185477 0.042735465 -0.022563038 0.013121277 0.035391048
0.008575663 0.011537644 -0.022189887 -0.0065572024 -0.033522952 0.025938453 -0.006145523 0.005356102
0.02951926 0.028014254 0.024762841 0.02040523 0.007223497 -0.018783197 0.05189 -0.026432158
-0.043434728 -0.057090256 0.02082938 -0.011335655 -0.011040563 -0.013399689 0.009742955 0.01991172
-0.019342976 0.014372325 0.04532275 -0.031117097 -0.048769243 -0.024907082 -0.047482837 -0.027055047
0.049709603 0.011821206 0.035062864 0.0119310925 -0.01928809 -0.00941978 -0.0066114347 0.016649555
-0.020569887 0.025221623 -0.02821237 0.019595845 0.037045226 0.01818452 0.012445884 -0.022956632
-0.0011826507 0.0014769386 0.0061237286 -0.004569306 0.01668535 0.053424705 0.022017278 -0.034482904
-0.017046237 -0.01399251 -0.020458922 0.010845445 -0.018569542 0.008809908 0.12916179 0.01628319
0.013887437 -0.009212819 -0.0058911517 -0.024233727 0.0056028124 0.0030550028 0.028171713 0.055296276
0.02821999 0.012613505 0.0099915 0.011890531 0.055209566 0.029738242 -0.0056642876 0.048485097
0.041714452 -0.00040990626 -0.063979566 -0.04470259 -0.0263112 -0.03221288 0.055448495 -0.012298193
0.02079798 0.19370444 0.03627207 -0.06368984 0.047741003 -0.059118245 0.009870033 0.029492121
-0.00821871 -0.06032629 -0.025046166 -0.05150351 -0.0061702514 0.009817917 -0.056801505 0.017018866
0.040552452 -0.032811586 -0.0031836994 -0.04982233 0.02790159 -0.017186355 -0.011800689 -0.022934841
-0.013695088 0.04325911 0.013091636 -0.006260125 0.05068433 0.019534113 0.006429603 -0.017117541
-0.006785958 0.001901328 0.02758841 -0.008127583 0.040302224 0.017075201 0.037212465 0.04360563
0.015532534 0.012915179 0.046067886 0.002532252 -0.0041555436 0.02912899 -0.025011837 0.022015525
-0.018238537 -0.007842671 -0.005384071 0.0011924966 0.0021540464 -0.01508619 0.0044870386 0.06928834
0.02998685 0.040551126 -0.043526597 -0.0017060185 0.029036306 -0.053498827 -0.003675827 0.021383472
-0.008088427 0.018775066 -0.030731557 -0.017350722 -0.026986351 0.00639002 0.026417388 0.015807403
0.004337576 0.095687315 0.0070853108 -0.028432103 -0.032314304 -0.0046692593 -0.027342472 -0.008823206
-0.010437123 0.007283303 0.14081159 -0.056892477 -0.018379355 -0.02312577 0.0297892 0.048582662
-0.00975123 -0.03429136 -0.018198287 -0.019165393 0.011866438 0.01238328 -0.02218749 0.0010725434

conv3.bias f4 [12]
00000000: bffb 8a3e a093 373e 7c2d 373e 6043 e33d
00000010: 1882 503e a28a 133e 476b 533e 334c ca3e
00000020: a640 163e 0c05 453e 941f cb3d 40a3 d23e
0.27145192 0.17927408 0.17888445 0.11096835 0.20362127 0.14408353 0.20646392 0.3951126
0.14673099 0.19240206 0.099181324 0.41140175

fc1.weight f4 [24, 768]
00000000: 06e4 1a3c 4b56 493d bebd 473d 4acc dd3c
00000010: dbcc 713c 44bc 49bb 25f0 dd3c 29da 563d
00000020: 36ba bd3c a563 313d 8e42 383c 9959 b6bb
00000030: e2f5 9fbc b927 153b fd18 a93c cd0b 093d
00000040: e204 073d 0f49 fd3c 870c 18bd 7d17 0ebd
00000050: baba 05bd 3435 a43c 4ada 1f3d 76c3 903d
00000060: ff5e a83d a2f4 463c 6d6c 23bd f206 afbc
00000070: c23e 8a3d eb82 903d 32cd aa3d 6315 2b3d
00000080: 4645 5f3d 8d92 103b a9a9 c7bb afaa 063d
00000090: fe9f be3d 90df 8b3d 935a a23d ca22 f53b
000000a0: 4118 28bb 0f94 bfbb de65 bdbc 856e e63c
000000b0: ce69 663d e6b8 7e39 4f3e f23c 2d78 47bb
000000c0: 8519 2d3c 4edc f73b c958 803c 911f 373c
000000d0: 6643 d73c 7b7c ce3b bff4 c63c 6080 0b3d
000000e0: f0c4 c33d 9bf6 2e3d 34db 4a3d 271c 763d
000000f0: 9001 713d 30d4 1d3d 0f76 903d 8274 ae3d
00000100: 3b81 28bd f645 953b 84d4 aa3c 6515 063d
00000110: 1011 0c3d ff6b 0d3c e3bd 403c eee3 283d
00000120: ba2c 0ebd 92d2 58bb 22d2 8abb b485 4dbb
00000130: 51d1 13bc 7551 35bc 6bd2 c1bc db1d 44bb
00000140: 8256 b5bc ed70 65bc 6ac5 febc 1886 f1bc
00000150: 8a54 e7bc a520 17bd c2f4 f2bc 84f8 aebc
00000160: 0b51 ddbc f9c2 e6bc 2ef8 08bd c588 57bc
00000170: 45b8 14bc 3e3c 00bd 07aa c1bb 9dc6 9abc
00000180: 0dcf 61bc 8847 293c 68f0 4dbc 8d84 b9bc
00000190: 2db8 afbc 9eee afba 4d7c cb3c f736 9f3c
000001a0: 1fb7 b73c b296 283d ec57 a638 e05a 5ebc
000001b0: 4a7e 13bc f7d4 063d aad5 8b3d 94be 173d
000001c0: afda 413c 6a61 8c3c 983a 75bb c536 83bc
000001d0: cc94 e239 0f8c c23c 7ce3 f03c 0d6b bdbb
000001e0: 3af1 4abc 8f27 65bc 177a ffbc bff4 2cbd
000001f0: e263 c6bc d6b6 c7ba 8e72 a03b 9d9e 5b3c
00000200: ccc2 f03c 7e53 843c ed24 fa3b 2fb8 b83c
00000210: b4e2 a73c c2cd 843c 7a3c 943c d1a7 ea3c
00000220: 25ea b9bb 1192 963b e1b4 723c d68a 193d
00000230: bd9e d83c 9875 973c 06e4 ff3b f474 393d
00000240: 8ce7 2c3b 273b f3bb e38a 04bb fdce a83c
00000250: 8083 3e3d 8a95 db3b 636b b13c 26bf e53c
00000260: 36a0 de3b cd49 303c ccbc 983b 8162 14bc
00000270: 68be 41ba c91b d43b c770 a63c 6e11 ae3c
00000280: 8a58 fe3c 3f89 fc3c 11c1 c23c 79f0 c83b
00000290: 5bb0 41bb b579 503c d096 ea3c 03f1 023d
000002a0: 5c33 333d 5a91 0c3d 622c 2f3d 1cba bbbc
000002b0: 336f 383c a7c6 3b3c ad53 563d aee4 653d
000002c0: e9ea 073d bad8 a13c e232 ac3c f3a2 59bc
000002d0: daef efbb 1d15 e53c e386 3e3d 1546 373d
000002e0: 8a5d 093c 1e6d 12bc 941c 64bc a86d 0ebd
000002f0: 7776 a9bc 641d 4bbb 5acb 723c 999f 013d
00000300: 4822 09bd 32db 32bd 7890 04bd f2dd 5fbc
00000310: 4b6f cdba 8972 ec3a a3cb 14bd 0d4b 1ebd
00000320: fc37 70bd 9eb0 81bd 3693 9abc 16f0 c2bc
00000330: ee54 08bd 5b74 01bd 7b9e 42bc d96d d8bc
00000340: a207 60bd 54fe abbd 7419 87bd 9308 6cbd
00000350: 2b32 57bd 3e53 77bd 6656 6737 0afa fdbc
00000360: 4acc 46bd 3a9d fbbc a92e 81bd f6b6 52bd
00000370: b8d6 5bbd 3a6a 4cbd 2ff0 95bb d214 5fbc
00000380: a26c d7bc 686d 1c3c 5cb3 c3bc e1d0 3dbc
00000390: 55ef e2bc c2dc 7dbc ad51 b2bb bab9 9c3c
000003a0: e31b a2bb c70f 59bc a58c 26bc e46c 133b
000003b0: c735 e1bc 34f8 693a aab2 223b 7173 a03c
000003c0: ad63 1dbd c962 6fbc f97c 8dbc 1c03 50bd
000003d0: db4f 35bd e057 03bc 169a 073d 90ef fdba
000003e0: 49c8 2abd 0b17 45bd 9e19 66bd 93ab 99bd
000003f0: bb9c 22bd 468a 63bd fa92 85bc 1de2 7cbc
0.009453779 0.04915456 0.048764937 0.027074952 0.014758314 -0.003078238 0.027092049 0.052454147
0.023160081 0.04330792 0.011246337 -0.00556488 -0.019526426 0.0022759272 0.020641798 0.03345852
0.03296364 0.030918626 -0.037121322 -0.03469037 -0.03264878 0.0200449 0.039026536 0.07068531
0.08221244 0.012143286 -0.039898325 -0.021365616 0.06750251 0.070562206 0.08339919 0.041768443
0.054509424 0.0022060007 -0.006093223 0.03287762 0.0930786 0.068297505 0.07927432 0.007480954
-0.0025649222 -0.0058465074 -0.023119863 0.028128872 0.056253247 0.00024292208 0.029570727 -0.003043662
0.010565166 0.007564104 0.015667336 0.01117696 0.026277255 0.0063014603 0.024286626 0.034057975
0.09559047 0.04271565 0.049525455 0.060085442 0.05883938 0.038532436 0.07053768 0.08518316
-0.04113887 0.004555459 0.020853288 0.032735247 0.03419596 0.008631705 0.0117640225 0.041232996
-0.034710623 -0.0033084494 -0.0042364756 -0.003136021 -0.009022073 -0.011066784 -0.023659905 -0.0029925022
-0.022135977 -0.014003974 -0.031099994 -0.029482886 -0.028238554 -0.036896367 -0.029657725 -0.021358736
-0.027016183 -0.028169142 -0.033439808 -0.013155167 -0.009077136 -0.03130745 -0.0059101614 -0.018893534
-0.013782275 0.010331996 -0.012569524 -0.022646213 -0.021450127 -0.0013422554 0.024839545 0.019435389
0.022426186 0.04115934 7.9318736e-05 -0.013571471 -0.009002278 0.032917943 0.068278626 0.037046984
0.011831923 0.017136294 -0.0037418958 -0.016017327 0.0004321694 0.023748426 0.029405348 -0.0057805837
-0.012386614 -0.013986482 -0.031186147 -0.042225596 -0.02421755 -0.0015236984 0.0048964685 0.013404516
0.029389761 0.016153093 0.0076337964 0.022548763 0.020493843 0.016211394 0.018095244 0.028644474
-0.005673664 0.004595049 0.014813633 0.03748592 0.02644288 0.01848869 0.007809165 0.04527755
0.002638313 -0.007422823 -0.0020224384 0.020606512 0.046512127 0.006701176 0.021657651 0.028045248
0.006794001 0.010759783 0.004661178 -0.009056688 -0.00073907385 0.006473039 0.020317448 0.021248545
0.031048078 0.030827163 0.023773702 0.006132182 -0.002955458 0.01272433 0.028636366 0.031968128
0.043750152 0.034318306 0.042766936 -0.022915892 0.011256981 0.011460937 0.052325893 0.05612629
0.033183012 0.019756664 0.021020357 -0.013283479 -0.0073222937 0.02796417 0.046515357 0.04474457
0.008384118 -0.008937148 -0.013922829 -0.034772545 -0.020686371 -0.003099286 0.014818991 0.031646345
-0.03347996 -0.043666072 -0.03236434 -0.013663756 -0.0015673427 0.0018039505 -0.036327016 -0.038645793
-0.05864714 -0.06332515 -0.018869024 -0.023796123 -0.03328412 -0.031605106 -0.011878605 -0.026419567
-0.05469478 -0.083981186 -0.06596652 -0.057625365 -0.05253808 -0.06038212 1.3788789e-05 -0.031003017
-0.04853467 -0.03071462 -0.06307728 -0.051444016 -0.05367157 -0.049905993 -0.0045757513 -0.013615804
-0.026296917 0.009547569 -0.023889236 -0.011585445 -0.027702013 -0.015494527 -0.0054418654 0.01913153
-0.004947172 -0.0132483905 -0.010165368 0.0022495324 -0.027491463 0.000892523 0.002482573 0.019586297
-0.038425136 -0.014610955 -0.017271506 -0.050784215 -0.04426561 -0.0080165565 0.033105932 -0.0019373763
-0.041694913 -0.04811768 -0.056176774 -0.07503428 -0.03970025 -0.05555179 -0.016305435 -0.015434769

fc1.bias f4 [24]
00000000: 36e7 1e3e 23c2 f93d 0dde 0b3e de99 acbb
00000010: b1aa 523e 370a 30bd e08f 03bd 70ff 163e
00000020: a88d 263e fea4 1dbd 2c26 1ebd f017 aebc
00000030: 6b76 523e 8594 2f3e d17e 063e f354 4b3d
00000040: a76b 3c3e 87c8 1b3e a510 01bd 3e15 473b
00000050: f95f 903c b591 a6bc c51a 1f3b 1065 23bc
0.15517887 0.12195232 0.13658924 -0.005267366 0.20572926 -0.04297849 -0.03211963 0.14745879
0.16264975 -0.038487427 -0.038610622 -0.021251649 0.20552985 0.171465 0.13134314 0.04964156
0.18400441 0.15213214 -0.031510014 0.0030377652 0.017623888 -0.02033315 0.002427743 -0.009972826

fc2.weight f4 [768, 24]
00000000: 09f1 38be f7c0 9cbd bc6a 48bd 7fe6 27bd
00000010: 8796 babd 77bb 173e da86 64bc 64d1 32be
00000020: 8696 2cbe 0213 873d 6a61 febc 83ba 453e
00000030: 021a 3abc 6dec 5dbc c8b9 26be 8d1f 863c
00000040: 5fc2 63be e82e 99bc 42c2 ce3d 6e79 813c
00000050: 86b0 74bc 7a74 4ebe 7017 4fbe 5f54 20be
00000060: 86f7 acbe aaf0 3cbe 1308 213e d275 abbd
00000070: a28e 7e3d 89c3 33be d414 36be 2651 083b
00000080: d954 023c 2dba 2e3e 6d55 e3bd 291e 393e
00000090: 64d1 7cbe a3ce bb3d 6c67 dcbd a756 753e
000000a0: d030 613d b8d3 69be 7ea9 52be 7284 303e
000000b0: 7378 43be 556d 3cbe c0f4 f8bb a86b 12be
000000c0: 682b 263d fda5 7d3d 6a73 b83d e5f3 b1bc
000000d0: 77d5 10be e400 093e e261 c73d d33d 1abd
000000e0: 2025 bc3e 22d3 a8bd 9566 123e 174f 983d
000000f0: 97d2 353e 7303 473e 89e5 9b3d cd13 c73d
00000100: 4219 b03d 743d 4cbe a3ab f63d f74a 653d
00000110: 2627 ea3d e5cf ea3d 9b49 3c3e a62a 403e
00000120: 3b41 e5bc f2ef be3d d3fd abbc 22c5 4bbe
00000130: 3130 e9bd 4c0c 093e a325 2bbe 0d2c e0bd
00000140: 82e1 283e e865 9bbd b47c 1abd d45f 45bd
00000150: a042 06be 5b1c d83d e676 c6bd bc0d 973d
00000160: 7a40 2c3e 527d 14be 0fab e8bd 7649 09be
00000170: 00f6 f939 c162 eabd 484d ff3c 364d e0bd
00000180: 511a 98bd bcc4 953d 50f2 06be 92e9 233e
00000190: 9b63 0a3e ac7a 3b3d 8c62 88bd 43c9 c3bd
000001a0: d22d d9bd ce60 4dbe 4842 483e 904f a43c
000001b0: 5c4b 52be 6ed9 c7bd f354 c4bc a458 533d
000001c0: 1b0e 4bbe a233 abbc 6e09 293e 0099 5bbb
000001d0: 6bbd d0bd 34cc 193e 4237 0c3e 1c21 0c3e
000001e0: a5ca 883e aa19 bc3d 4cd2 123e 7a10 283e
000001f0: d005 7fbd e5f7 44be c272 cfbd 1111 e63d
00000200: f322 e13d 77ec 293e 37ad c83d 2439 b23d
00000210: d5b2 2d3e d4f7 323e b9a4 143c 8aff 2c3e
00000220: d1e2 92bc bd2e 40be 98ba 03be 0f77 1e3e
00000230: 9590 99bc 5d91 223e d048 e9bd d8dd 673c
00000240: 13cd 15be 69ed b7bc 63fa 17be 6249 b63b
00000250: b7b7 3fbe 2048 34be 0f10 d03d 4647 d73d
00000260: 9542 703c 36f9 e2bd 7891 6a3d e587 1cbd
00000270: 5948 31bd a04b 84bc 7179 b3bd f1cc 1f3d
00000280: b406 733c 5b88 16be 5ef9 4bbe fc90 c53d
00000290: 8dda 003d 58ce c7bc 6d4b d7bb b0e0 503c
000002a0: 39a9 bbbd f8ef cbbc e476 4fbe 8e52 463e
000002b0: d28b e9bd 25f0 86bd a316 4c3e 5c88 4abe
000002c0: bbdf e2bd bb8b cabc 959d 49bd 6b5b 7abc
000002d0: 9b2d a03d a271 083d f6b8 54be fbb7 39bb
000002e0: 9986 94bd 2044 82bd cc44 653d 5e00 53be
000002f0: f36e 0cbe 24ad de3b cc92 b13d 1291 8cbd
00000300: 8a7f bf3b 38f2 40be a10c e1bc d40a 2d3e
00000310: a4fd d53e e4c2 1dbe 0036 7abd 6c0b bfbd
00000320: d748 9abd d39a f9bd 8435 083d 408f eebc
00000330: 3c1c 063e 4d15 0ebe c37a 30bc c152 2a3e
00000340: 48be 073e ae8b 8b3d f87a 063e 7251 1d3e
00000350: 8a35 11be 1848 313d 91bd 233d 7971 133e
00000360: d90c b13d 8c8a 813c 79a7 fcbd ca08 4dbe
00000370: 4946 8b3e 2089 cbbd beb8 463e 47f8 c1bd
00000380: 94dd 453e d970 86bd 92e5 ebbd 668e e63b
00000390: d6cd c73d 2210 993d 41f9 49be 82bb 053e
000003a0: 47ec 853e c218 15be 78e3 833d 3f31 dabd
000003b0: dcf7 413e a8da 863c 915f 063e 3e68 713d
000003c0: 891f 213b 56e6 82be d868 5d3d c028 44be
000003d0: 5af7 203e 76a6 073e 3046 2fbe 399e 223e
000003e0: fae5 2b3e 7e2b 80bc e750 34be 4b47 cf3d
000003f0: f054 8bbd 7f4b c03d 6b07 54bd dddb 3b3e
-0.18060698 -0.076539926 -0.048929915 -0.040991303 -0.09110742 0.14817606 -0.013948167 -0.17462689
-0.16854295 0.06595422 -0.03105231 0.1930943 -0.01135874 -0.013545138 -0.16281807 0.016372466
-0.22242115 -0.018699124 0.100956455 0.015804972 -0.014934665 -0.2016162 -0.20223784 -0.15657185
-0.33782595 -0.18451181 0.15725736 -0.08372082 0.062147744 -0.1755506 -0.17781383 0.0020800321
0.0079548 0.17063208 -0.11100278 0.18077911 -0.24689251 0.09170272 -0.10761914 0.23958836
0.05497819 -0.2283467 -0.20572469 0.17238024 -0.19088916 -0.18401082 -0.007597536 -0.1429888
0.04056874 0.061925877 0.090063885 -0.021722743 -0.1414393 0.13379246 0.097354665 -0.037656616
0.36747074 -0.082433954 0.14296944 0.0743696 0.17756115 0.1943491 0.0761214 0.097205736
0.085985675 -0.19945318 0.12044456 0.055979695 0.11433248 0.11465434 0.18387453 0.18766269
-0.027985206 0.0932311 -0.020995056 -0.19899419 -0.11386145 0.13383597 -0.16713576 -0.10945902
0.16492274 -0.075877964 -0.037716582 -0.048187092 -0.13111353 0.105522834 -0.09690647 0.073756665
0.16821471 -0.14500931 -0.11360752 -0.1340693 0.00047676265 -0.11444617 0.03116478 -0.10952227
-0.074268945 0.07312915 -0.13178372 0.16007069 0.13514559 0.045771286 -0.06659421 -0.09559872
-0.10604443 -0.2005646 0.19556534 0.02005747 -0.2053656 -0.09758268 -0.023966288 0.051598206
-0.198296 -0.020898644 0.16507503 -0.0033507943 -0.101923786 0.15019304 0.13692954 0.13684505
0.26717106 0.091845825 0.14338034 0.16412535 -0.062261403 -0.1923519 -0.1012931 0.11233724
0.10992994 0.1659411 0.09798663 0.08702305 0.1696275 0.17477351 0.009072476 0.16894355
-0.01793042 -0.18767829 -0.12864149 0.15475105 -0.0187457 0.15875764 -0.11390841 0.014152013
-0.14629011 -0.022452073 -0.14841609 0.005562947 -0.18722425 -0.17605639 0.10159313 0.10511641
0.014664312 -0.110826895 0.057267636 -0.038215537 -0.043281887 -0.016149342 -0.087633975 0.039013807
0.014833141 -0.14700453 -0.19919345 0.09646794 0.031458426 -0.024390385 -0.0065702708 0.012748882
-0.09163136 -0.0248947 -0.20260197 0.1936743 -0.11403622 -0.06588773 0.1993051 -0.1977858
-0.110778295 -0.024724832 -0.049222548 -0.015280585 0.078211986 0.033311494 -0.20773682 -0.002833842
-0.07252235 -0.0636065 0.055973813 -0.20605609 -0.13714199 0.0067955423 0.086705774 -0.068636075
0.0058440613 -0.18842399 -0.027471842 0.16898662 0.41795075 -0.15406376 -0.061086655 -0.093283504
-0.07533424 -0.121877335 0.03325416 -0.029121041 0.13096708 -0.13875313 -0.010771456 0.1663313
0.1325618 0.06813751 0.13132846 0.153631 -0.1418058 0.043281645 0.039975706 0.14398755
0.086450286 0.015813135 -0.123366304 -0.20022884 0.2720206 -0.09938264 0.19406411 -0.09471183
0.19322807 -0.06564493 -0.115183964 0.007036018 0.09756057 0.0747378 -0.19723989 0.1305981
0.26156828 -0.14560226 0.064398706 -0.10653924 0.18942207 0.016461685 0.13122393 0.058937304
0.0024585447 -0.25566357 0.054055065 -0.1915617 0.15719357 0.13247094 -0.17116618 0.1588067
0.16786948 -0.015645739 -0.17608987 0.1012102 -0.0680331 0.093894 -0.051764887 0.1834559

fc2.bias f4 [768]
00000000: 25c6 e53d 0c42 6c3d 10dc 803e a05f 90be
00000010: 845a ebbd 95b0 453d 32d4 bb3a 07b4 c93d
00000020: 45b6 bfbc 3f55 f93c befc 8e3d 734c 283e
00000030: ff41 2d3e 0426 14bd c62e 8a3b 4899 ec3d
00000040: 7cb0 eabc dabb 933d faa4 2ebe fddd ce3d
00000050: 1be1 38be 5250 143e dab6 813e d9a2 92bb
00000060: df2e a73d e15b 193e c5a6 2f3e 07ed b23e
00000070: 5e39 6ebe c95d 763e c3cb 163e 3b0f f5bd
00000080: b975 c3bc 4ec4 febd b9bf 38bb 307c 133e
00000090: fd3b f43d 9bae 55be ab77 29be 9437 6c3c
000000a0: 4589 b33d 2ad4 3d3c 935e 913d 62dd f33d
000000b0: 2abb fc3d f56c 5d3d d9d1 6a3b f6ce 8c3e
000000c0: dad1 cc3d f2b1 2bbe a52b 62bc 22d1 d83d
000000d0: 9ac2 52be 4e3c 0a3e b573 373e 72a6 a83d
000000e0: f2a7 b0be de26 763e eee7 903d e38a 363d
000000f0: 2ed7 833d 6ab5 1b3e 58f9 ac3d e0e6 3c3e
00000100: 5066 09be 5f32 25be 28b8 79be 0682 863e
00000110: efbd 50bd 83d9 a4bd 6298 a5bc a71f 103e
00000120: c733 d53d 9890 88bc 809c e7bd adf9 253d
00000130: a70a 19be 9b90 afbc a366 ec3d 2ef1 86bd
00000140: c29c 2bbe c5f8 15bd e846 233e 064e b33d
00000150: bddd b13e 4246 b63d d12a fabd fd94 8abe
00000160: 85d7 67bd ce39 a2bd 1125 13bd e6b3 2f3e
00000170: c441 913d 46fd 593e 13ad 353d 3449 c03d
00000180: fcf5 9dbe 0cec 42be 4bde 76be 00de f33e
00000190: 336d 9b3e cb5b 6c3e 4658 bfbd cdfb 0b3e
000001a0: fc3e 50be 3a55 923e fd21 843e 9591 66be
000001b0: 5b1c 873d 643a 1fbd 7134 5a3e 727c b03d
000001c0: d3fc 743d 81a9 f63d c6ca 9d3e 3c30 27bd
000001d0: 2d34 833d fa3c b1bd 8193 78be 5d18 79be
000001e0: 9d32 7f3d 5aa8 1a3e cb9b 58be ef6c bd3d
000001f0: 6d96 893c 5efb 553d cab2 cf3d 175b 2d3e
00000200: 5c87 b33d 52fc b0bd 065c 2abe d8ee e7bd
00000210: 415c a83d a4f1 10be a9fd 2fbe 6c40 36be
00000220: f8dd ff3d a80b 0a3e 402b 21bd defd 063d
00000230: 9742 74be 82fa 99bd 6d59 38be 3267 d5bd
00000240: 84af b8bd 2d0a 4dbe 26db f83d 080b 2c3e
00000250: 87ff 263d cfce 263e cc61 e3bd 7af7 1ebf
00000260: 36a3 e03d dc1e cbbd 5a50 efbd caee 32be
00000270: 6411 953d 1249 d7bb 4395 26bd 4f05 bbbe
00000280: 12d2 cf3d 3ac6 dbbd 6bce cfbd b08a 823e
00000290: f9f2 8c3b dd3c 63be 4473 043e fa80 d63d
000002a0: 14c2 76be 5afa 843c a16e cc3d 213f d03d
000002b0: f197 493e 87d8 0ebe 4df9 c2bc a9d1 1abe
000002c0: 453b 173d 90e3 b43d b3f2 103e 61f1 89be
000002d0: aa57 233d 7892 7bbe 75f5 87bd fd95 343e
000002e0: 395c 193e 7f50 513e 10fb c7bd d2ad 64bc
000002f0: d29a 993d 5274 833e 67c6 c13e f23f 553e
00000300: f3dc 4dbc b57f 2f3e 0eeb 07bc e4af 833d
00000310: 8d42 56be 5694 e8bc f2d7 033e 7335 093e
00000320: 5d99 dbba 7118 683d 4869 ecbb 8ac2 5ebe
00000330: 7eca 0c3e 321a 763e 8f3a a23e d7e8 2bbd
00000340: aee5 8abd 5f20 163d 0cbc 37bc ca48 f7bd
00000350: 646a 01bb 844c 1d3e 1862 f73d 81e0 163d
00000360: 52dc b2bd fa1d 253e e8a5 5f3e 3259 dcbd
00000370: 41cc e23c 651e 76bd d4de f7bc d3f1 003d
00000380: 2623 ea3d 7c72 edbd 4a50 1c3e a888 c3bd
00000390: db3e 1d3e 6ad4 d3bd 7ee1 b7bd b1e9 99bd
000003a0: aebd 68bd 8a80 46be 593a 30bd 92cc 053e
000003b0: 6902 523e 6701 4b3e 9e4d 42be 55f2 303e
000003c0: 30f2 8fbd 2f26 1a3e 65a5 9ebd 0bc4 1d3e
000003d0: b6cc 2b3e e731 a93d 16b4 4b3e 8cc9 aa3d
000003e0: cd41 65be 0a0b 333d 5c7a 97bd 481a f4bd
000003f0: f2b3 253d 14cb 1c3e 32b9 01be d7c8 c33d
0.11219434 0.057680175 0.25167894 -0.28197956 -0.11491874 0.048264105 0.0014330207 0.098487906
-0.023402343 0.030436156 0.069818005 0.16435413 0.16919707 -0.036169067 0.0042170016 0.115526736
-0.028648607 0.07213564 -0.17055121 0.10100935 -0.18054621 0.14483765 0.25334817 -0.0044749794
0.08163237 0.14976455 0.17153461 0.34946463 -0.23264071 0.24059214 0.14726166 -0.119657956
-0.023859845 -0.12439786 -0.0028190447 0.14402843 0.11925504 -0.20867388 -0.16549556 0.014417548
0.087664165 0.011586228 0.07098117 0.1190746 0.12340386 0.054058988 0.0035830645 0.2750165
0.100009635 -0.167671 -0.013804351 0.10586764 -0.20582047 0.13499567 0.17915232 0.08234872
-0.34503132 0.24038264 0.07075487 0.044566046 0.06437527 0.15205923 0.08445996 0.18447447
-0.13417935 -0.16132496 -0.24386656 0.26271075 -0.050962385 -0.080492996 -0.020214263 0.14074574
0.10410266 -0.01667051 -0.11309147 0.040521313 -0.1494547 -0.021431258 0.11543014 -0.0658897
-0.16759017 -0.0366142 0.15945017 0.08755116 0.34739485 0.08900119 -0.12215198 -0.27066794
-0.05660202 -0.079211816 -0.03592402 0.1715847 0.07092622 0.21288022 0.04435451 0.093889624
-0.30851734 -0.19035357 -0.24108236 0.4763031 0.3035675 0.23081891 -0.09343009 0.13670273
-0.20336527 0.28580648 0.2580718 -0.22516473 0.06597205 -0.038874045 0.21309067 0.08617486
0.059811424 0.12044049 0.30818766 -0.040817484 0.06406436 -0.086542085 -0.24275018 -0.243257
0.062304128 0.15103284 -0.2115318 0.09249293 0.016795361 0.052241676 0.10141523 0.1692928
0.08766052 -0.08641876 -0.16636667 -0.11324853 0.08220721 -0.14154679 -0.17186607 -0.17798012
0.12493509 0.13481009 -0.039347887 0.03295695 -0.23853527 -0.07518484 -0.18002863 -0.104200736
-0.09017852 -0.20023413 0.12151174 0.16801083 0.040771034 0.16289829 -0.11102638 -0.6209637
0.1096863 -0.09917995 -0.11685248 -0.17473903 0.072787076 -0.00656999 -0.04066969 -0.36527488
0.101474896 -0.10731168 -0.10146793 0.25496435 0.0043014255 -0.22191186 0.12934595 0.10473819
-0.24097472 0.016232658 0.09982038 0.10168291 0.19686867 -0.13949786 -0.023800517 -0.15119042
0.03692176 0.088324666 0.14155082 -0.2694197 0.039878525 -0.24567592 -0.06638614 0.17635341
0.14976586 0.20440863 -0.09764683 -0.013957458 0.07500233 0.25674683 0.3784668 0.20825174
-0.012564885 0.1713856 -0.0082957875 0.06430033 -0.20923825 -0.028391045 0.12875345 0.13399296
-0.001675408 0.056663934 -0.007214699 -0.21753898 0.1374912 0.2403343 0.31685302 -0.0419701
-0.06782089 0.036651965 -0.011214267 -0.1207443 -0.0019747252 0.1536122 0.12079257 0.036835197
-0.08733429 0.16124716 0.21840632 -0.107592 0.027685286 -0.06008758 -0.03025762 0.03148062
0.11432485 -0.11594102 0.15265003 -0.095475495 0.15356009 -0.10343249 -0.08978556 -0.07515276
-0.056821518 -0.19384971 -0.043024395 0.13066319 0.20508732 0.19824754 -0.18974921 0.17279942
-0.070286155 0.15053628 -0.0774639 0.15406816 0.1677731 0.08261471 0.19892916 0.08339223
-0.22388382 0.0437117 -0.07396385 -0.11919075 0.040454812 0.15311843 -0.12668303 0.095597915

deconv1.weight f4 [12, 32, 1, 1]
00000000: 7e82 0d3e 8fcb f3bb d539 c6bb 1893 e23d
00000010: a3cb 8dbd 74e7 a4bd b5ff 163e 804d 1d3e
00000020: 6f60 203c 7ffa 1d3e 3a6e 5cbe 6418 2c3e
00000030: e1a8 b53d 01ef f6bc a1ee 8c3d cd5a 173e
00000040: 820d fe3c 1b0a a63c dc68 643e 414b f03d
00000050: dece ad3d fbef d33d c7dd 7b3d 529b f43d
00000060: 3aa7 dbbc 117e df3d 223c a0bd 0a82 2b3e
00000070: 820c 5c3b a298 2fbe 4865 273e 196a e43d
00000080: 4b5c 103d cd1b 6f3d 4b71 9f3a 1b85 273d
00000090: 5175 7bbe af6d 933e 7e0c 353e 380f 21bd
000000a0: 09a5 ad3d 1fcb 223e a7b5 eb39 e022 3e3d
000000b0: d5fa 303d c676 dd3c 6bc0 143e f476 af3c
000000c0: 919e 253d 4967 76bd 9815 86be a3e9 bd3d
000000d0: bf5e 803e 9658 133e 843d 883d 8e25 6a3d
000000e0: b114 933c 74c4 27bd 1515 a73d 1829 6bbd
000000f0: 1e05 56bd a217 0c3e 4bfd bdbe 75c7 c63c
00000100: b765 d53d a5d6 583c 13ba 993a 3363 41bd
00000110: f38d b43d bf0b 7e3d a765 a23d a9c3 98bd
00000120: 87c6 d4bd da52 123e bb2b 383e 3d65 c4bd
00000130: 1bd7 0f3d 7d88 6a3e 3731 51bd f36b fb3d
00000140: 5114 ad3c 97c4 823c a899 403d bb6b 73bc
00000150: f79c e4bd 0ab8 a63c 0dd0 df3c 65cd a23d
00000160: 3bb6 d83d 7258 043e b69f c33d e095 6dbe
00000170: 6c04 883e c34f 35be f6a3 dd3c b324 4b3d
00000180: c51c 503d 7192 b23d 4830 f03c f6f7 aebd
00000190: 4bed 32be 0eab 363c 24b3 b53d 5f74 2dbd
000001a0: 6df4 673e 0898 5bbd f493 4f3e db0a 80be
000001b0: e265 023a 50b1 23be 1efa 21bf 6c78 df3d
000001c0: 65f6 fa3d a7f9 2bbe d38f 4e3d 456c 033e
000001d0: 26f8 85bc 97cd 2a3d c1c4 ab3c 5195 5e3d
000001e0: cdfb a4bc 1144 e63d 009d 203e 43cb a3bb
000001f0: be63 f83d 5cff 563d 0de1 2e3e 142c ce3b
00000200: 1028 0fbe 5220 de3d 0dfa acbd 5373 d5bb
00000210: a982 36bd 3d29 743d f175 103e f1be aa3c
00000220: c381 cc3d 5953 203d 605a d73d ea67 0a3e
00000230: 58f1 993d 6622 9ebe d368 68be 15e1 6fbc
00000240: 7aec 0b3e 1403 ee3d c1b0 8fbd 3d1a 98be
00000250: 286e 8dbb 8971 b13d a506 e43d 15a8 113e
00000260: 1318 423b e76d e73d cd1f fe3d 7f7b d5bd
00000270: 1cac f6bd bc38 b13d 2033 e5bd f699 243d
00000280: f162 df3d b301 b03c 5d12 94bd 1395 493c
00000290: 9452 583e a839 ab3e cf34 a9bc fd77 0bbe
000002a0: ba95 013e 1199 f73d 9dd2 1cbe b57d 6cbd
000002b0: 7ee0 e43d 4a60 e43c 0896 373e c0b5 da3d
000002c0: 36a3 343e 2c8c e3bd c5bd 41be 1183 d83d
000002d0: 8559 eb3b d93b d93d 0dc1 debc 9d01 0e3e
000002e0: 4adb ce3d e1e6 4dbe 9cd0 da3d 4c9c 253e
000002f0: 1a2d ac3e 26da ed3d 310c 313e 1ff5 8c3c
00000300: 2b56 e83a be0d 75bd 1bcc 183e 6a0f 8f3c
00000310: d2cd 2c3e a490 34be 192b 2c3d 89af b73d
00000320: ea59 12be 8bd6 d0bd 8547 8f3d 63f1 c93d
00000330: 1f78 0dbe e992 a0bd 47cd 8dbd bc34 223d
00000340: 9095 b7bd 287f bfbc 78be b9bd aaf7 38be
00000350: 8141 82bd cbf7 14bd e4fc 9dbd 1d56 76bd
00000360: 5908 28bc 0884 56be 7f9a 5dbc 888f de3d
00000370: 61d7 01be 160e 163c 762b 5abe f394 f2b9
00000380: 8cc6 e6bd 556c 4c3d f743 583e ba9c 0f3e
00000390: 0e03 0e3e 6a71 dcbe 8243 e33d 5eab 32bb
000003a0: 57a1 0cbe 384f d13d d199 c7bd fca6 1abe
000003b0: e65e f03d 386d fd3d ffb3 663d c200 ba3d
000003c0: 7d60 543e f35e 8ebe 2360 303e fba6 6fbd
000003d0: ce14 e63d 82ff 4e3d c6cc 653d e94d 153e
000003e0: c77c ebbd dd9d 1f3e 2fb3 00bd bafd 573c
000003f0: 666f 5dbe 2bfa 13be 8bef 3e3d 7ee0 3d3d
0.1381931 -0.0074400376 -0.0060493746 0.11063212 -0.06923606 -0.08051959 0.14745982 0.15361595
0.009788617 0.15427588 -0.21526423 0.1680618 0.08870102 -0.030143263 0.06881452 0.14780731
0.0310123 0.02026849 0.22305626 0.117331035 0.084867224 0.10348507 0.0614908 0.119436875
-0.026813138 0.10912717 -0.078239694 0.16748825 0.0033576791 -0.17148069 0.1634723 0.11153049
0.035244267 0.058376122 0.0012164501 0.040898424 -0.24556471 0.2879462 0.17680547 -0.039321154
0.084787436 0.15897797 0.00044958034 0.04641998 0.043207962 0.027034175 0.14526527 0.021419026
0.040434424 -0.060157094 -0.2618835 0.09273078 0.25072286 0.14389262 0.06652358 0.05716472
0.017954202 -0.040958837 0.08158318 -0.057412237 -0.052250974 0.1368089 -0.3710731 0.02426503
0.10419791 0.013234769 0.0011728428 -0.047213744 0.08816137 0.06202292 0.07929545 -0.07459194
-0.103894286 0.14289418 0.17985432 -0.09589622 0.03511725 0.22903629 -0.051072326 0.12276449
0.021127852 0.015962882 0.047021538 -0.014857228 -0.11162751 0.020351429 0.027320886 0.07949332
0.10581633 0.12924364 0.09551947 -0.23201704 0.26565874 -0.17706208 0.027055722 0.049595546
0.050808687 0.08719338 0.029319897 -0.085433885 -0.17473333 0.011149181 0.08872059 -0.04234731
0.22651835 -0.053611785 0.20271283 -0.25008282 0.0004974288 -0.15985608 -0.63272274 0.109116405
0.12254027 -0.16794454 0.05043013 0.1283427 -0.016353678 0.041699972 0.020967843 0.054341618
-0.0201396 0.112434514 0.15684891 -0.004998596 0.12128399 0.052489623 0.17078038 0.0062918756
-0.13980126 0.10846008 -0.08446131 -0.006513992 -0.0445582 0.05960964 0.14107491 0.020843001
0.099856876 0.039141987 0.105152845 0.13516203 0.07516736 -0.3088562 -0.22696237 -0.014641066
0.13664427 0.11621681 -0.07016135 -0.29707518 -0.00431611 0.08664233 0.1113408 0.14224274
0.00296164 0.11300259 0.12408409 -0.10423946 -0.12044546 0.08653399 -0.11191392 0.04018589
0.109075435 0.021485185 -0.07230065 0.0123036085 0.21125251 0.33442426 -0.020655064 -0.1361999
0.12654772 0.12089742 -0.15314718 -0.05773707 0.11175631 0.027877945 0.17928326 0.10679197
0.17640385 -0.1111072 -0.18920048 0.10571874 0.0071823024 0.10607118 -0.027191663 0.13867803
0.1010042 -0.20107605 0.1068432 0.16172904 0.3362816 0.11613874 0.17289807 0.017206727
0.0017725875 -0.05982756 0.1492161 0.017463405 0.16875389 -0.17633301 0.04203329 0.089690275
-0.14292112 -0.10197171 0.06996063 0.09860494 -0.13815354 -0.07840521 -0.06923919 0.039601073
-0.08964074 -0.023376063 -0.09069532 -0.18063226 -0.0636015 -0.036369126 -0.07714251 -0.060140718
-0.0102558965 -0.20948803 -0.013525604 0.1086722 -0.12679817 0.009158632 -0.21305642 -0.00046268813
-0.112683386 0.049908 0.21119677 0.1402463 0.13868353 -0.43055278 0.110968605 -0.0027262787
-0.13733421 0.10220188 -0.09746135 -0.15102762 0.117368504 0.123743474 0.056324 0.09082176
0.20739932 -0.27806816 0.17224173 -0.058508854 0.11234437 0.05053664 0.05610349 0.14580502
-0.11498409 0.15587564 -0.031420883 0.013183052 -0.21624526 -0.144509 0.046615165 0.04635667

deconv1.bias f4 [32]
00000000: 3bc6 173e 5dc3 17be fe7b 1dbe 6271 e33e
00000010: f66f 5e3e 90d8 a13b 73a3 a9bd bbb4 a53d
00000020: b3fd 8a3d 1fe8 65be 45bb 003e ea22 c2bd
00000030: 1ce6 63be 423c 163e 05ff a83d acc2 b8be
00000040: 03ef 19be c2c5 883d 7202 85bc 1f2a 933d
00000050: f34b 083d ff0e 4fbe 00f6 9ebd 5b71 c53d
00000060: 0949 ed3d 0762 b53d bcee 373e 4002 23bd
00000070: f133 833d d0fb 313e bf0c 45bd a22b 5b3e
0.14821713 -0.14820619 -0.1537933 0.44422442 0.21722397 0.0049391463 -0.082831286 0.08091112
0.067866705 -0.22451828 0.12571438 -0.094793156 -0.22255749 0.14671424 0.08251766 -0.36086023
-0.15032582 0.06678344 -0.016236518 0.07185768 0.033275556 -0.20220564 -0.077617645 0.096407615
0.11586196 0.08856588 0.17962164 -0.039797068 0.064063914 0.17381215 -0.04810786 0.21403363
