Pytorch/AutoEncoder/saved_models/cifar10/NetLarge-L1Loss_cifar10.pt (torch, 288751 bytes, 16 tensors)

conv1.weight f4 [64, 3, 3, 3]
-0.18380976 0.14592601 -0.19236217 -0.13718984 -0.18464214 0.05447054 -0.0029396564 0.052343845
0.12543257 -0.14816786 -0.07704351 -0.16629927 -0.10983252 -0.17848289 0.1382776 0.07663901
-0.02551055 -0.13589734 0.0885476 -0.12376842 -0.09934653 0.046118855 -0.12990238 -0.15544733
-0.064375624 0.08790128 -0.04987526 -0.12110558 -0.014648398 -0.01970304 0.07964566 -0.13798115
0.049588587 0.110788 0.044011913 -0.060217798 -0.0911363 0.20393169 -0.080235794 -0.06260008
0.008261952 0.19154304 0.0014855104 0.011137773 -0.06502474 0.19977227 -0.1646673 0.04914573
-0.02503788 0.11385976 0.112133995 0.119589016 -0.041830402 0.14492704 -0.15508941 0.065520175
-0.06266704 -0.05865933 0.04322391 -0.04356269 -0.20078588 -0.10857777 -0.058472317 -0.12583256
-0.13450412 0.17722145 0.093046084 -0.16691497 -0.07684249 0.11029229 0.093662485 0.08178005
0.18835756 -0.0027751215 0.07614663 -0.092959516 0.11690261 0.06671244 0.07317987 0.15248528
0.07284427 0.058508527 0.086913295 0.0103651 -0.17200355 -0.036431454 0.07619653 -0.06334999
-0.20454465 -0.23295633 -0.079724416 -0.03727566 0.13391118 -0.03088326 -0.15486075 0.07172747
-0.028318303 0.17117569 0.1340223 0.05158525 0.029279273 0.08934075 -0.1108452 0.16217577
-0.16259106 0.011198822 -0.07655677 0.081808604 0.19353214 -0.026681768 0.0148835955 0.25848112
-0.03279627 0.11109014 -0.15383177 -0.11200716 -0.014936179 0.09533583 0.03248108 -0.07081405
-0.029510476 -0.09683255 -0.18149891 0.13222755 -0.16397344 -0.17235938 0.034320842 -0.017278075
0.013419221 0.069822565 0.15823962 -0.102317706 0.17622954 -0.04565365 -0.06938137 -0.119689554
0.029301388 -0.070796326 0.008453837 -0.16270149 -0.060648613 0.07090243 0.17148268 0.01086994
-0.16794404 0.15485615 -0.11037101 -0.050563496 -0.14635447 -0.03750884 -0.02496992 -0.06979182
0.1463172 0.043892376 0.019618008 0.059966836 0.148769 0.15279351 0.09456317 -0.10058166
0.08336788 0.15046057 -0.23659942 0.12681188 -0.14762783 0.094494484 -0.08257061 -0.14993379
-0.21935214 0.09388323 -0.097878516 -0.15898323 0.07719663 -0.11193745 -0.096422285 -0.0339442
-0.05479385 -0.023956522 -0.15289617 -0.081602365 -0.1549536 0.023242643 -0.119930096 -0.0013143808
-0.0017470465 0.1594727 0.0014540409 0.052676674 0.08881085 0.12856935 0.02682967 0.03214845
0.07697569 0.08221078 0.1069892 0.002986426 -0.09316249 -0.16112426 0.15103304 0.1368979
-0.12754342 0.1443504 -0.10503805 0.16179937 -0.033915926 -0.060324237 -0.076425016 0.18601057
-0.03094647 0.15560019 -0.115407266 0.17707561 0.10872286 0.042426705 -0.16200931 0.1013947
-0.06061074 -0.11281274 0.010525782 -0.06110358 -0.050277486 0.0076361923 -0.13974762 -0.12421556
0.0743419 0.01669313 0.14826342 -0.18588452 -0.15170662 0.04116402 0.1025563 0.12677386
-0.0974849 0.075613014 0.29004917 0.10470306 -0.22185561 0.16914889 -0.15744084 -0.12102842
-0.02709127 -0.09116661 -0.32128277 0.101107635 -0.006699391 0.14443412 0.11207566 0.11490462
-0.15010066 -0.11863648 0.11940227 -0.039927073 0.08337422 0.12070011 0.06167265 -0.08487997
00000000: a038 3cbe a16d 153e 97fa 44be 7e7b 0cbe
00000010: d412 3dbe 801c 5f3d 40a7 40bb 8066 563d
00000020: 6571 003e 51b9 17be fdc8 9dbd 5b4a 2abe
00000030: dfef e0bd 38c4 36be a598 0d3e eaf4 9c3d
00000040: 80fb d0bc ac28 0bbe 7258 b53d 4c7a fdbd
00000050: 3276 cbbd 20e7 3c3d 2105 05be 962d 1fbe
00000060: 5ed7 83bd 9605 b43d 004a 4cbd 3406 f8bd
00000070: d6ff 6fbc 4568 a1bc 441d a33d ee4a 0dbe
00000080: 671d 4b3d d2e4 e23d d645 343d f0a6 76bd
00000090: aba5 babd 78d3 503e aa52 a4bd 7934 80bd
000000a0: 235d 073c dc23 443e 75b5 c23a 357b 363c
000000b0: b12b 85bd 1a91 4c3e 8b9e 28be 084d 493d
000000c0: 3d1c cdbc 4e2f e93d 82a6 e53d 16eb f43d
000000d0: 5b56 2bbd c167 143e c2cf 1ebe 712f 863d
000000e0: 9457 80bd c444 70bd 8e0b 313d cb6e 32bd
000000f0: d09a 4dbe 065e debd ab80 6fbd 40da 00be
00000100: 73bb 09be 8a79 353e f28e be3d c2eb 2abe
00000110: 985f 9dbd ede0 e13d 1ed2 bf3d 4d7c a73d
00000120: cee0 403e d0de 35bb c4f2 9b3d 8f61 bebd
00000130: a36a ef3d 88a0 883d 54df 953d 1a25 1c3e
00000140: 602f 953d a3a6 6f3d 99ff b13d 61d2 293c
00000150: b321 30be 2639 15bd ed0c 9c3d a4bd 81bd
00000160: 2774 51be 1b8c 6ebe 8e46 a3bd 5dae 18bd
00000170: 0320 093e e4fe fcbc d193 1ebe dae5 923d
00000180: c9fb e7bc ae48 2f3e 243d 093e 0e4b 533d
00000190: 16db ef3c 48f8 b63d cf02 e3bd 6811 263e
000001a0: 457e 26be 447b 373c ccc9 9cbd 458b a73d
000001b0: 4a2d 463e b993 dabc 53da 733c a357 843e
000001c0: 6255 06bd 3a83 e33d 1386 1dbe 0364 e5bd
000001d0: e0b6 74bc 6e3f c33d e20a 053d f506 91bd
000001e0: f4bf f1bc 2550 c6bd dada 39be a966 073e
000001f0: a7e8 27be fa7e 30be 0394 0c3d c08a 8dbc
00000200: 4bdc 5b3c 22ff 8e3d 9109 223e f28b d1bd
00000210: 8475 343e 52ff 3abd d217 8ebd cc1f f5bd
00000220: 7709 f03c aafd 90bd f681 0a3c 389b 26be
00000230: ae6a 78bd 4b35 913d 2899 2f3e d517 323c
00000240: 86f9 2bbe 9c92 1e3e 320a e2bd ab1b 4fbd
00000250: f2dd 15be dfa2 19bd b88d ccbc 04ef 8ebd
00000260: 2dd4 153e 7ec8 333d f2b5 a03c c99f 753d
00000270: e756 183e e775 1c3e 56aa c13d c2fd cdbd
00000280: c7bc aa3d 5612 1a3e 1e47 72be f9da 013e
00000290: c02b 17be 5386 c13d c81a a9bd 3e88 19be
000002a0: d99d 60be da45 c03d 8874 c8bd 80cc 22be
000002b0: 4419 9e3d 763f e5bd 0c79 c5bd 1309 0bbd
000002c0: 846f 60bd 7840 c4bc d090 1cbe 241f a7bd
000002d0: 28ac 1ebe 5b67 be3c e99d f5bd 4d47 acba
000002e0: 27fd e4ba d04c 233e 8495 be3a 7fc3 573d
000002f0: 77e2 b53d afa7 033e e5c9 db3c 18ae 033d
00000300: 6ea5 9d3d 205e a83d 271d db3d eab7 433b
00000310: facb bebd c2fd 24be 68a8 1a3e f72e 0c3e
00000320: be9a 02be 97d0 133e 301e d7bd bcae 253e
00000330: 6deb 0abd 8c16 77bd b884 9cbd 8e79 3e3e
00000340: 7483 fdbc a855 1f3e a55a ecbd 4f53 353e
00000350: 17aa de3d a0c7 2d3d c5e5 25be 06a8 cf3d
00000360: f842 78bd 5e0a e7bd 5474 2c3c bf47 7abd
00000370: c4ef 4dbd 0639 fa3b 001a 0fbe ba64 febd
00000380: 9140 983d 08c0 883c 5ed2 173e 8358 3ebe
00000390: fb58 1bbe 9a9b 283d 0a09 d23d 02d1 013e
000003a0: 2aa6 c7bd ffda 9a3d 5381 943e 8f6e d63d
000003b0: 1e2e 63be 5e35 2d3e 2c38 21be c0dd f7bd
000003c0: 83ee ddbc 8fb5 babd 2d7f a4be 8511 cf3d
000003d0: 9186 dbbb 8ae6 133e ec87 e53d 1d53 eb3d
000003e0: fdb3 19be aff7 f2bd 2d89 f43d 928a 23bd
000003f0: 1ac0 aa3d 9f31 f73d 769c 7c3d 8dd5 adbd

conv1.bias f4 [64]
-0.10756373 -0.44857997 0.05126738 0.2474707 -0.009093007 0.06446549 0.27796328 0.15456472
0.12028384 -0.19085088 0.002212809 -0.020040577 0.055752054 -0.013308874 0.017705865 0.028002543
0.1801978 0.007565987 -0.0090453345 0.21152435 0.024431556 -0.46664947 0.12529817 0.08309742
-0.12210003 -0.4661219 -0.0114716375 -0.25001544 -0.24171712 -0.012287701 -0.017098222 -0.03381181
0.040462904 0.05842632 0.09983122 0.16617405 0.08739005 -0.023880858 0.13604541 0.0014792393
0.30263704 0.25593942 0.08721078 -0.009324405 0.04952856 0.24835959 -0.37523115 -0.009325125
-0.15205325 -0.08318405 -0.116375394 0.0054658917 0.046887994 -0.0202576 0.1846272 0.087494366
-0.23589909 -0.2956399 -0.18324366 0.04841886 -0.20988058 -0.027306 0.13783841 -0.144712
00000000: 5f4a dcbd 46ac e5be bffd 513d f668 7d3e
00000010: d6fa 14bc 7c06 843d 3451 8e3e 3746 1e3e
00000020: 6057 f63d 6a6e 43be c604 113b 232c a4bc
00000030: 445c 643d 770d 5abc e40b 913c 9765 e53c
00000040: c685 383e 19ec f73b e232 14bc d799 583e
00000050: b024 c83c aeec eebe 2a4e 003e fb2e aa3d
00000060: 950f fabd 88a7 eebe 89f3 3bbc 0602 80be
00000070: b184 77be 5a52 49bc 9211 8cbc 417e 0abd
00000080: 6ebc 253d 7050 6f3d 5074 cc3d 8829 2a3e
00000090: 8ef9 b23d caa1 c3bc 7d4f 0b3e 09e3 c13a
000000a0: 3ef3 9a3e 7e0a 833e 919b b23d 64c5 18bc
000000b0: 76de 4a3d fa51 7e3e 4c1e c0be 69c8 18bc
000000c0: d9b3 1bbe 665c aabd 3956 eebd 391b b33b
000000d0: a00d 403d 44f3 a5bc ea0e 3d3e 3f30 b33d
000000e0: 888f 71be 1d5e 97be 3aa4 3bbe db52 463d
000000f0: efea 56be d5b0 dfbc 8325 0d3e 622f 14be

conv2.weight f4 [32, 64, 3, 3]
0.002114948 -0.04020635 0.026340175 -0.00064182654 0.030217577 0.016541194 -0.030606126 0.041404802
-0.027552634 0.0073233573 -0.01944128 0.0058682184 -0.027993344 -0.023572262 0.03363889 -0.020788642
0.024701115 -0.006509728 -0.044763606 -0.01873359 0.015157271 -0.0063081966 0.030258205 -0.0069514937
0.002070439 0.016268853 -0.04218959 0.03806409 -0.039930232 -0.035636045 0.012301088 -0.025001312
-0.027101615 0.01655179 0.039443165 -0.004465929 0.023585713 0.014587586 -0.026332974 0.02217525
-0.040337153 -0.007576192 -0.011951839 0.010370972 -0.03844707 0.0120107485 0.022496535 0.015374612
-0.0029181063 -0.040486585 -0.01371143 -0.031697944 0.020292884 0.03192456 0.0214854 -0.04193801
-0.013463334 0.019883445 0.03658612 -0.043017272 -0.01942361 0.0037920994 0.024964 -0.001402059
0.010188022 -0.042219765 0.031573076 0.021137223 -0.020447645 -0.013652836 0.013405092 -0.03589173
0.02184801 0.009302877 0.0134805115 -0.02767415 -0.01770639 -0.029786676 -0.00040457555 0.002373
0.016619235 -0.020195773 0.010711362 -0.04923928 -0.043966614 0.019587535 -0.047165398 0.0117766
0.03452875 -0.009928924 0.016397534 -0.025813254 -0.01074398 -0.0036108408 0.019750116 0.009325129
-0.046145428 0.0015198701 -0.020117579 -0.03427425 -0.034527652 -0.02671528 -0.0076089827 -0.035105035
0.027790649 -0.044098098 0.021764237 -0.03915146 0.027047228 -0.021941103 -0.038946856 0.016483303
0.0004106188 0.004186926 0.02831601 0.022445569 0.018781057 -0.0077066054 -0.0010022761 -0.025269547
-0.02590697 -0.023882447 -0.025928665 -0.003053071 -0.03603342 -0.01818055 -0.003779402 -0.019573333
-0.05008051 -0.014818316 0.020273883 -0.026302798 -0.037579007 0.025594575 -0.034496263 -0.019994952
-0.030006286 0.020958241 0.0075980513 0.0140552595 -0.020547792 -0.019893123 -0.0013912303 -0.043906577
0.008164364 0.024294682 0.0038152817 -0.028026368 0.0006840196 -0.030359145 0.0022941278 -0.037022285
0.023185028 0.030389963 -0.043979157 -0.010992968 -0.04211004 0.033687662 0.030868666 -0.029652843
0.028760212 -0.024265 -0.010294549 0.028954899 0.0092531275 0.02820663 -0.013853876 -0.044701558
0.01424541 -0.02712662 -0.008569342 -0.02288458 0.011409511 -0.01980924 0.0044592884 -0.032056443
-0.040253952 0.008027126 0.007748807 -0.017641243 -0.03866579 -0.024588829 -0.04629403 0.006272749
-0.0422204 -0.0030430758 -0.024899947 0.022503626 0.007972081 0.030332386 0.0254455 -0.031656623
-0.039031316 0.01920279 -0.015110458 0.007170848 0.033499166 -0.020226633 -0.028186303 -0.0010606868
0.021393023 -0.010099295 -0.029982602 -0.030639697 -0.029590134 0.02041444 -0.024957694 -0.031240914
-0.027180994 -0.018258829 0.009708264 0.010640382 -0.029705958 -0.0061252103 -6.7057685e-05 -0.035383176
0.025299147 -0.04425491 0.013608467 -0.03771834 -0.026279068 -0.02649681 0.017935978 0.027515901
0.031059682 0.022867369 0.010012569 0.029812599 0.003462494 -0.002898061 -0.048306797 -0.018104533
0.005908761 0.03013269 0.0075262655 0.0058153435 0.01523889 0.0015448537 0.030975197 0.008325729
0.031551357 0.014775248 0.023939645 0.018943219 -0.03247603 -0.0367169 -0.00937772 -0.02521943
0.01270607 -0.040890265 -0.03900264 -0.029457916 -0.01925993 0.006366635 -0.034685448 -0.017957209
00000000: f09a 0a3b 6aaf 24bd 5ac7 d73c 4040 28ba
00000010: da8a f73c 6681 873c b3b9 fabc 1598 293d
00000020: 10b6 e1bc c6f8 ef3b 5243 9fbc 2f4a c03b
00000030: 4c52 e5bc 9e1a c1bc efc8 093d f14c aabc
00000040: fe59 ca3c 8e4f d5bb 0b5a 37bd 3077 99bc
00000050: 3456 783c fdb4 cebb 0ee0 f73c 5bc9 e3bb
00000060: 34b0 073b 4246 853c fece 2cbd 17e9 1b3d
00000070: e28d 23bd 1af7 11bd 818a 493c 8dcf ccbc
00000080: 3504 debc 9f97 873c 288f 213d ee56 92bb
00000090: d336 c13c c500 6f3c 40b8 d7bc dfa8 b53c
000000a0: 9238 25bd b441 f8bb a5d1 43bc 02eb 293c
000000b0: ad7a 1dbd bbc8 443c a74a b83c cce5 7b3c
000000c0: b33d 3fbb 43d5 25bd e8a5 60bc b4d5 01bd
000000d0: 433d a63c 54c3 023d 2602 b03c 31c7 2bbd
000000e0: 5195 5cbc 9be2 a23c 54db 153d e132 30bd
000000f0: 431e 9fbc df84 783b 4d81 cc3c 4bc5 b7ba
00000100: a9eb 263c a2ee 2cbd c552 013d f827 ad3c
00000110: d281 a7bc 25b0 5fbc 08a1 5b3c 3503 13bd
00000120: 99fa b23c 186b 183c 5ddd 5c3c e6b4 e2bc
00000130: fe0c 91bc 3003 f4bc 361d d4b9 5584 1b3b
00000140: 1025 883c 9b71 a5bc b57e 2f3c 21af 49bd
00000150: 5616 34bd 0a76 a03c 8130 41bd a4f2 403c
00000160: 056e 0d3d edac 22bc 1f54 863c 5176 d3bc
00000170: 8507 30bc dba3 6cbb ffca a13c 6dc8 183c
00000180: fd02 3dbd 6136 c73a 9fcd a4bc 2863 0cbd
00000190: de6c 0dbd 01da dabc c654 f9bb 4cca 0fbd
000001a0: 37a9 e33c 35a0 34bd ea4a b23c 485d 20bd
000001b0: 2692 dd3c d4bd b3bc bd86 1fbd fe07 873c
000001c0: 5348 d739 7b32 893b faf6 e73c c5df b73c
000001d0: bbda 993c b187 fcbb ce5e 83ba 1502 cfbc
000001e0: db3a d4bc 1fa5 c3bc 5a68 d4bc 0816 48bb
000001f0: c897 13bd 60ef 94bc d8af 77bb 4158 a0bc
00000200: 3921 4dbd 86c8 72bc 6a15 a63c f778 d7bc
00000210: 72ec 19bd b7ab d13c f44b 0dbd 74cc a3bc
00000220: becf f5bc 9eb0 ab3c 13f9 f83b 0848 663c
00000230: d853 a8bc e7f6 a2bc f159 b6ba 62d7 33bd
00000240: d3c3 053c a405 c73c ce09 7a3b 8e97 e5bc
00000250: c74f 333a beb3 f8bc 1459 163b aea4 17bd
00000260: 87ee bd3c 5ff4 f83c 7d23 34bd da1b 34bc
00000270: 947b 2cbd 13fc 093d 49e0 fc3c 85ea f2bc
00000280: 899a eb3c 65c7 c6bc 78aa 28bc d332 ed3c
00000290: 6e9a 173c 9711 e73c 5efb 62bc fb18 37bd
000002a0: 9565 693c a538 debc 6d66 0cbc 7178 bbbc
000002b0: f5ee 3a3c fd46 a2bc 391f 923b 9e4d 03bd
000002c0: 54e1 24bd 3584 033c b4e9 fd3b 5e84 90bc
000002d0: 0560 1ebd 836e c9bc cf9e 3dbd a28b cd3b
000002e0: 4cef 2cbd 576e 47bb f9fa cbbc 8659 b83c
000002f0: 559d 023c a07b f83c 1573 d03c 60aa 01bd
00000300: 4ddf 1fbd 2b4f 9d3c db91 77bc 6ff9 ea3b
00000310: 6c36 093d 53b2 a5bc f6e6 e6bc be06 8bba
00000320: 6c40 af3c 8377 25bc 139e f5bc 1a00 fbbc
00000330: 0267 f2bc 2f3c a73c 1474 ccbc f2ec ffbc
00000340: adaa debc 8a93 95bc 690f 1f3c ff54 2e3c
00000350: e959 f3bc fdb5 c8bb 52a1 8cb8 f3ed 10bd
00000360: 2840 cf3c a344 35bd 0cf6 5e3c 8c7e 1abd
00000370: 3347 d7bc d70f d9bc 79ee 923c 0769 e13c
00000380: e070 fe3c 5954 bb3c c20b 243c 8d39 f43c
00000390: 02eb 623b 65ed 3dbb 59dd 45bd f54f 94bc
000003a0: 489e c13b d5d8 f63c e49e f63b a38e be3b
000003b0: 8aac 793c b07c ca3a b2bf fd3c a368 083c
000003c0: ff3b 013d e213 723c 131d c43c cf2e 9b3c
000003d0: 9605 05bd 7664 16bd 02a5 19bc fa98 cebc
000003e0: 1f2d 503c 8d7c 27bd 3bc1 1fbd ba51 f1bc
000003f0: 00c7 9dbc 359f d03b 5412 0ebd ff1a 93bc

conv2.bias f4 [32]
0.0051458776 0.15187478 0.034122493 0.12127422 0.0010839016 -0.037190508 0.093278825 0.12984733
0.050701223 0.021923367 -0.058368612 0.023241717 -0.045352113 -0.044162627 -0.004089416 5.872165e-05
0.008342627 -0.036877897 -0.020136202 0.10550335 0.06310649 -0.022329843 0.0036303403 0.12800007
0.044930916 0.030205442 0.10453581 0.047472518 0.08853635 -0.03532936 0.0681794 0.023610497
00000000: c09e a83b 1085 1b3e 07c4 0b3d 9e5e f83d
00000010: b411 8e3a 1355 18bd f808 bf3d b3f6 043e
00000020: 16ac 4f3d a298 b33c ed13 6fbd 6a65 be3c
00000030: 23c3 39bd dfe3 34bd 8200 86bb e44b 7638
00000040: 84af 083c 470d 17bd adf4 a4bc 2412 d83d
00000050: fa3d 813d 13ed b6bc 01eb 6d3b 7312 033e
00000060: 7b09 383d 6771 f73c df16 d63d 8b72 423d
00000070: 8c52 b53d 85b5 10bd a4a1 8b3d cd6a c13c

conv3.weight f4 [12, 32, 3, 3]
-0.052201882 0.027345901 -0.037534647 0.033274468 0.013693813 -0.025226703 -0.03185962 -0.028993187
-0.029033635 -0.06099528 0.02812346 0.036275137 -0.022789864 -0.004533758 0.036113687 -0.007661791
0.018569829 -0.028340962 0.001599659 0.017362572 0.0027134134 -0.02225659 -0.013807654 -0.017761057
-0.057432003 -0.06525057 -0.0056198095 0.10701013 0.08375978 0.1397139 0.068592735 0.11920813
0.1604296 0.114328004 0.041456245 0.09226712 -0.05389764 -0.041860066 -0.04542601 0.05684076
-0.02960517 0.13636667 0.11917708 0.047768403 0.13310345 0.023753265 0.031373672 0.03628179
0.017923066 -0.036430717 0.049710218 0.0071193236 0.052763425 -0.056227364 -0.010372007 0.022861935
0.022455603 0.03282432 0.022502398 -0.05900019 -0.063035876 0.020319244 0.03240418 0.07364957
-0.020105708 0.004921023 0.06062722 0.06994533 0.06105575 -0.016912809 0.046846177 0.052791163
-0.06669055 0.050698247 -0.0044533233 0.03529789 0.038780246 -0.055421066 -0.024879586 0.03205327
-0.0497015 0.0021329308 0.008826213 -0.088959314 -0.0033895639 -0.09538899 -0.049584318 0.009892371
0.0010206602 -0.0070847585 0.037971996 -0.016887443 0.04587502 0.029890882 -0.02665354 -0.06301921
-0.057661768 -0.06621183 -0.012051799 -0.0881962 0.12885013 0.061551385 0.061007105 0.12566684
0.08974551 0.033042252 0.032977495 0.21843283 -0.044421263 0.050038163 0.046871457 0.05234954
0.03989891 -0.013441623 -0.022230115 -0.014081713 0.030873537 0.019029832 0.057622075 -0.014369519
-0.008063314 0.031294372 -0.032110173 0.052113492 -0.042423915 0.040485468 0.024922429 -0.033525907
-0.03479774 0.015328939 -0.051895402 -0.052765034 0.0026507927 -0.0064741275 0.047832984 -0.051089827
-0.016771464 -0.06111435 -0.043246053 0.005240383 -0.024735123 -0.011816155 0.0177043 -0.057993267
-0.034668013 -0.017916858 -0.002708766 0.020772822 -0.059648663 -0.06079778 0.013399871 -0.03474155
-0.05607696 -0.03311575 0.019142425 0.05597414 0.004511052 0.030306775 0.034041323 -0.006982482
-0.02607918 -0.022209458 0.028165165 0.026623184 0.078726 -0.06353558 0.029061163 0.04280794
0.012488626 0.008358916 0.024948744 -0.03288592 -0.009309016 -0.038438648 0.030717695 -0.05776427
-0.022104667 -0.015004048 0.017971236 0.012530813 0.033465628 0.022143668 0.051974423 0.008971677
-0.012210861 0.051562566 0.001116782 0.040154494 -0.039665796 -0.002050031 -0.020802116 0.0044218493
-0.0051197503 -0.05885757 0.03530523 -0.04544661 -0.007612816 0.044768367 -0.057109233 0.042387184
0.029889213 -0.05478173 -0.0005074772 0.034715597 0.030138645 -0.040404156 0.015177521 0.023286013
0.08896298 0.06066739 0.022571763 0.025262168 0.035826493 0.028644046 0.0748265 0.07066244
0.005176558 -0.046034846 0.023335937 0.022826673 -0.045999113 0.013776808 -0.0387596 0.022399873
0.03464939 0.052964278 0.029477976 -0.056403566 0.03142545 -0.021573167 -0.028690597 0.050403614
-0.00063577964 -0.010276047 -0.072739266 -0.02802269 -0.04643005 -0.0010245965 0.04253195 -0.039302815
0.0013514032 -0.015160519 0.0453434 -0.006009889 0.04140135 0.039129302 -0.03044253 0.057068944
0.01490221 0.026391527 -0.032619137 -0.014203044 -0.012623963 0.045220364 0.009603531 0.041569185
00000000: a4d1 55bd 8304 e03c eebd 19bd cf4a 083d
00000010: 045c 603c 3ba8 cebc 3c7f 02bd 1f83 edbc
00000020: f2d7 edbc 30d6 79bd 2c63 e63c 3d95 143d
00000030: cfb1 babc eb8f 94bb f2eb 133d c30f fbbb
00000040: c11f 983c 4e2b e8bc a6ab d13a f43b 8e3c
00000050: 86d3 313b 7453 b6bc 8039 62bc a37f 91bc
00000060: d23d 6bbd 17a2 85bd 6126 b8bb 2128 db3d
00000070: 3f8a ab3d 2911 0f3e 597a 8c3d 6423 f43d
00000080: a847 243e cd24 ea3d 06ce 293d 8bf6 bc3d
00000090: c6c3 5cbd 7675 2bbd a010 3abd dbd1 683d
000000a0: 8b86 f2bc b4a3 0b3e 1d13 f43d cda8 433d
000000b0: 454c 083e 3596 c23c ae81 003d 379c 143d
000000c0: 65d3 923c 6038 15bd f19c 4b3d 3749 e93b
000000d0: 761e 583d aa4e 66bd 5aef 29bc f448 bb3c
000000e0: d0f4 b73c cb72 063d f356 b83c 2faa 71bd
000000f0: f418 81bd 8b74 a63c 3fba 043d 96d5 963d
00000100: bab4 a4bc 8840 a13b 3f54 783d 7f3f 8f3d
00000110: 9815 7a3d bb8c 8abc c7e1 3f3d 8c3b 583d
00000120: 0e95 88bd f7a8 4f3d 2fed 91bb 8594 103d
00000130: 09d8 1e3d 3301 63bd 46d0 cbbc 4a4a 033d
00000140: cd93 4bbd a4c8 0b3b d29b 103c 4d30 b6bd
00000150: 7223 5ebb 4e5b c3bd ed18 4bbd 9c13 223c
00000160: acc7 853a 4327 e8bb 8688 1b3d 8957 8abc
00000170: 72e7 3b3d b9dd f43c 8658 dabc 3710 81bd
00000180: bf2e 6cbd 119a 87bd e974 45bc 36a0 b4bd
00000190: 4af1 033e 4e1d 7c3d 96e2 793d cfae 003e
000001a0: 7ecc b73d 5057 073d 6913 073d dbac 5f3e
000001b0: 12f3 35bd d1f4 4c3d 49fc 3f3d 796c 563d
000001c0: 0a6d 233d 413a 5cbc ee1b b6bc fcb6 66bc
000001d0: 80ea fc3c 73e4 9b3c 2005 6c3d 226e 6bbc
000001e0: fd1b 04bc 872e 003d f585 03bd f574 553d
000001f0: b3c4 2dbd 17d4 253d 1f2a cc3c 7652 09bd
00000200: 1388 0ebd 3b26 7b3c 4690 54bd 2620 58bd
00000210: ecb8 2d3b eb24 d4bb 85ec 433d 9143 51bd
00000220: 4f64 89bc 0a53 7abd c622 31bd 85b7 ab3b
00000230: 50a1 cabc 8c98 41bc 9c08 913c 598a 6dbd
00000240: 0c00 0ebd 60c6 92bc 8d85 31bb c42b aa3c
00000250: 2852 74bd 1807 79bd 228b 5b3c 284d 0ebd
00000260: f4b0 65bd 61a4 07bd 93d0 9c3c 2445 653d
00000270: 72d1 933b ea45 f83c ea6e 0b3d 4ecd e4bb
00000280: 01a4 d5bc 9cf0 b5bc a2ba e63c dd18 da3c
00000290: 193b a13d f11e 82bd ad11 ee3c 6157 2f3d
000002a0: 189d 4c3c d6f3 083c 4f61 cc3c 63b3 06bd
000002b0: d884 18bc d871 1dbd ada3 fb3c 3a9a 6cbd
000002c0: d914 b5bc 8ad3 75bc 6a38 933c 0a4e 4d3c
000002d0: 4113 093d a366 b53c 22e3 543d f1fd 123c
000002e0: 1010 48bc 4533 533d fc60 923a 0a79 243d
000002f0: 9a78 22bd d059 06bb 3369 aabc 29e5 903b
00000300: 94c3 a7bb a314 71bd 389c 103d 3926 3abd
00000310: ee74 f9bb 095f 373d 5feb 69bd 2f9e 2d3d
00000320: 39da f43c cf62 60bd 3808 05ba f131 0e3d
00000330: 52e5 f63c d47e 25bd 23ab 783c 4fc2 be3c
00000340: 3932 b63d 5e7e 783d 6be8 b83c 9bf2 ce3c
00000350: cdbe 123d eba6 ea3c a33e 993d 78b7 903d
00000360: 1ea0 a93b 098f 3cbd 022b bf3c 01ff ba3c
00000370: 9169 3cbd 1fb8 613c 63c2 1ebd f07f b73c
00000380: 85ec 0d3d 12f1 583d cc7b f13c 6d07 67bd
00000390: f9b7 003d 36ba b0bc 8b08 ebbc 0574 4e3d
000003a0: 73aa 26ba dd5c 28bc 53f8 94bd d78f e5bc
000003b0: 702d 3ebd c14b 86ba fb35 2e3d fdfb 20bd
000003c0: 9121 b13a d363 78bc 00ba 393d 9aee c4bb
000003d0: 7694 293d 0c46 203d 9d62 f9bc 20c1 693d
000003e0: 6628 743c 0b33 d83c a59b 05bd e2b3 68bc
000003f0: bdd4 4ebc fd38 393d 2158 1d3c 7344 2a3d

conv3.bias f4 [12]
0.1588239 0.14163646 0.012844866 0.17992046 0.040781107 0.034523502 0.09767224 0.108088054
0.20237318 0.12419175 0.06858272 -0.073485866
00000000: bca2 223e 2609 113e 4673 523c 123d 383e
00000010: 170a 273d 8468 0d3d 6208 c83d 455d dd3d
00000020: ea3a 4f3e 3f58 fe3d 1975 8c3d c27f 96bd

fc1.weight f4 [24, 768]
-0.017897232 -0.03773191 -0.030952971 0.0060831863 -0.009700086 0.0036339292 0.014914152 0.01219979
-0.009005086 -0.0024584194 0.00404927 0.009388977 -0.034898654 -0.011351002 0.02213642 0.01809277
0.018956924 -0.03136255 -0.011739936 -0.010728615 -0.026537888 -0.027939558 -0.044218015 -0.027991146
0.0018592757 -0.008907679 0.021902809 0.00790202 0.01108534 0.019708784 0.016295776 -0.007183077
-0.04931253 0.015413778 -0.018453421 0.0020014637 0.009019799 0.019646643 -0.042528845 0.023628568
0.00073712185 -0.02756869 -0.019528005 0.012298653 -0.009748841 -0.022059167 0.0077386843 0.0020380067
-0.011603415 -0.045157086 -0.039272692 -0.020845257 -0.021599922 -0.005550214 0.01769291 0.00471728
-0.022983031 0.0030361642 -0.030320916 -0.008448177 0.000696112 0.026573515 -0.024052633 -0.018648366
-0.030370938 -0.0012736385 0.0010738795 0.010895341 -0.033633105 -0.026791485 0.019750865 -0.015757987
-0.0012161991 0.00904649 -0.011345115 -0.029408842 -0.028815942 0.011664382 -0.001403867 0.01560297
-0.038021095 -0.010488911 -0.03807326 -0.044113476 -0.0093859965 -0.008381619 -0.026510086 0.007418836
-0.029932542 -0.03893818 0.007648586 -0.0056224572 0.022549879 0.022339886 -0.021360239 -0.03967206
-0.010104659 -0.021318704 -0.029700406 -0.024568956 0.021167528 -0.02143801 0.007475987 -0.037198912
-0.024219686 -0.047781367 -0.045648072 -0.0461871 -0.016504608 -0.016304575 0.0007285656 -0.025329163
-0.036777284 -0.02767628 -0.043605935 -0.044940345 0.011727732 0.014737214 0.013669906 0.015064555
-0.026819598 -0.0069595743 0.003237866 -0.02792361 0.004989547 -0.022357538 -0.041216698 0.016360257
-0.04103296 0.0007894646 -0.016108917 -0.006862248 0.015798146 0.021259734 -0.01789906 -0.035125725
-0.00035007516 -0.04799797 -0.03683806 -0.007222291 -0.014051357 -0.036968563 -0.0020268357 0.019868176
0.01176271 -0.03603892 0.013310843 -0.031126246 -0.012285146 -0.034446742 -0.028100701 -0.03497991
0.022611162 -0.04226143 -0.0096875485 -0.041320547 -0.02326884 -0.019975264 0.0050843363 0.013939491
-0.043433443 0.02048191 0.0020414474 -0.0358715 -0.0036598907 0.0017151743 -0.042027093 -0.0060039344
-0.030785505 0.014400582 -0.03725115 0.0050101513 -0.00214193 -0.037146594 0.016386155 -0.03102339
0.022569336 -0.00890101 -0.037868008 0.021898916 -0.023787314 0.011004538 -0.011933825 -0.04486923
-0.0052356967 -0.021991337 -0.024710085 -0.01765371 -0.016044343 -0.030637685 0.01961941 -0.026667807
0.0011683712 -0.045540806 -0.0041711107 0.013721601 -0.047573354 -0.03900763 -0.035853226 -0.03711661
-0.016655752 0.006341386 -0.04714174 -0.012161601 0.005865083 -0.030931782 0.022157554 -0.00018416913
-0.04565005 0.020734226 0.005826102 -0.0159363 0.01006218 -0.024948873 0.0073773814 0.0177355
-0.023702612 -0.044007264 -0.02623459 0.00062261516 0.01777226 -0.045317583 -0.0047490355 -0.027598323
-0.016211702 -0.047099832 -0.015132408 0.0014080955 -0.035829104 -0.023295252 -0.026226103 -0.045474745
-0.021575129 -0.010369384 -0.035999615 0.0013516917 0.017725721 -0.012777802 -0.007288267 0.014869247
-0.04769314 -0.034011856 -0.02597237 0.005132267 -0.029458784 -0.039747477 0.009237955 -0.01029133
-0.03667671 -0.018881388 0.0049158805 0.0066425647 -0.021682912 -0.011157119 -0.016658895 -0.0076429104
00000000: 379d 92bc c68c 1abd 1691 fdbc 7755 c73b
00000010: 1ced 1ebc 3727 6e3b 7d5a 743c a1e1 473c
00000020: 118a 13bc 6f1d 21bb bdaf 843b 39d4 193c
00000030: e4f1 0ebd 8ef9 39bc 7057 b53c 4a37 943c
00000040: 8d4b 9b3c 0476 00bd dc58 40bc 13c7 2fbc
00000050: fc65 d9bc 80e1 e4bc f31d 35bd b04d e5bc
00000060: f1b2 f33a 83f1 11bc 856d b33c 7977 013c
00000070: 499f 353c 5174 a13c b87e 853c 0460 ebbb
00000080: effb 49bd 128a 7c3c a12b 97bc fd2a 033b
00000090: c7c7 133c fff1 a03c ba32 2ebd b390 c13c
000000a0: 693b 413a bcd7 e1bc 32f9 9fbc 4a80 493c
000000b0: 9ab9 1fbc 6db5 b4bc ca94 fd3b 1490 053b
000000c0: 401c 3ebc a3f6 38bd 67dc 20bd acc3 aabc
000000d0: 52f2 b0bc 92de b5bb b9f0 903c 6a93 9a3b
000000e0: e946 bcbc 62fa 463b 9263 f8bc 396a 0abc
000000f0: 497b 363a b3b0 d93c 070a c5bc 75c4 98bc
00000100: 79cc f8bc 37f0 a6ba 6bc1 8c3a 5f82 323c
00000110: dec2 09bd d179 dbbc 91cc a13c e516 81bc
00000120: df68 9fba bb37 143c dce0 39bc d0ea f0bc
00000130: 690f ecbc f71b 3f3c f601 b8ba 99a3 7f3c
00000140: 02bc 1bbd aed9 2bbc b5f2 1bbd 55b0 34bd
00000150: b9c7 19bc 0f53 09bc ae2b d9bc b519 f33b
00000160: 1735 f5bc a47d 1fbd fda0 fa3b 973c b8bb
00000170: 86ba b83c 2302 b73c abfb aebc 2c7f 22bd
00000180: 038e 25bc 90a4 aebc 444e f3bc d644 c9bc
00000190: 8667 ad3c c49e afbc 20f9 f43b e35d 18bd
000001a0: 5d68 c6bc 65b6 43bd 79f9 3abd af2e 3dbd
000001b0: ac34 87bc 2c91 85bc 36fd 3e3a 1b7f cfbc
000001c0: c7a3 16bd 5eb9 e2bc 239c 32bd 5e13 38bd
000001d0: ac25 403c 5b74 713c bef7 5f3c 53d1 763c
000001e0: c6b4 dbbc 240d e4bb 6132 543b 0ec0 e4bc
000001f0: 5b7f a33b 2827 b7bc d7d2 28bd f205 863c
00000200: 2d12 28bd 13f4 4e3a d9f6 83bc b5dc e0bb
00000210: 1d6b 813c e528 ae3c 0da1 92bc fedf 0fbd
00000220: 4b8a b7b9 8599 44bd 81e3 16bd f8a8 ecbb
00000230: aa37 66bc 596c 17bd a9d4 04bb 96c2 a23c
00000240: 62b8 403c 8c9d 13bd b915 5a3c 78fc febc
00000250: a347 49bc 0718 0dbd 7133 e6bc 1847 0fbd
00000260: 0b3b b93c 521a 2dbd 86b8 1ebc bc3f 29bd
00000270: 4b9e bebc 2aa3 a3bc 819a a63b 7662 643c
00000280: 44e7 31bd aec9 a73c cec9 053b feed 12bd
00000290: c7da 6fbb b3cf e03a 9a24 2cbd a7bc c4bb
000002a0: e231 fcbc 6bf0 6b3c a994 18bd 322c a43b
000002b0: 9f5f 0cbb 0727 18bd 423c 863c c424 febc
000002c0: 54e3 b83c 8bd5 11bc 7c1b 1bbd 5b65 b33c
000002d0: 9ddd c2bc 614c 343c 1786 43bc ccc8 37bd
000002e0: 3590 abbb 2d27 b4bc ce6c cabc 839e 90bc
000002f0: 6d6f 83bc e2fb fabc e3b8 a03c 7276 dabc
00000300: 0824 993a ff88 3abd d0ad 88bb 91d0 603c
00000310: 47dc 42bd 77c6 1fbd d5da 12bd 9607 18bd
00000320: a571 88bc 67cb cf3b b217 41bd 7441 47bc
00000330: e22f c03b a664 fdbc c283 b53c 861d 41b9
00000340: 8cfb 3abd d3da a93c e3e8 be3b d88c 82bc
00000350: d8db 243c 9461 ccbc f6bd f13b 0a4a 913c
00000360: fb2b c2bc f640 34bd ece9 d6bc ff36 233a
00000370: 2197 913c ee9e 39bd cc9d 9bbb e115 e2bc
00000380: 67ce 84bc c1eb 40bd ebed 77bc d88f b83a
00000390: 8ac1 12bd afd5 bebc 20d8 d6bc ba43 3abd
000003a0: 53be b0bc 59e4 29bc 5574 13bd 3f2b b13a
000003b0: 8835 913c fc59 51bc 6ad2 eebb 249e 733c
000003c0: e259 43bd 0450 0bbd 02c4 d4bc 932c a83b
000003d0: 8c53 f1bc 40ce 22bd cb5a 173c f79c 28bc
000003e0: 513a 16bd 24ad 9abc 6515 a13b dfa9 d93b
000003f0: 5da0 b1bc 59cc 36bc 3c78 88bc 6171 fabb

fc1.bias f4 [24]
0.00027520687 -0.010241191 0.0068813637 -0.007537317 0.16029449 0.019729579 0.1379592 -0.026932446
0.16580345 0.12039967 0.09351455 0.09165962 -0.021538109 -0.0054751113 0.16982508 0.080927365
0.11192583 0.0016882234 0.12524772 0.0032392284 0.09376207 0.016164763 -0.02344622 0.15922733
00000000: a449 9039 abca 27bc 107d e13b 99fb f6bb
00000010: 3d24 243e ed9f a13c 2d45 0d3e 6fa1 dcbc
00000020: 61c8 293e 1a94 f63d 8e84 bf3d 0ab8 bb3d
00000030: b070 b0bc 9068 b3bb a0e6 2d3e 3fbd a53d
00000040: 5f39 e53d 6147 dd3a f040 003e 3c49 543b
00000050: 5406 c03d f76b 843c 4a12 c0bc 7d0c 233e

fc2.weight f4 [768, 24]
0.16385347 0.08468851 0.021672383 -0.025337368 0.5813812 -0.050071318 0.21102466 0.19945209
0.043058686 0.01590585 -0.19240785 -0.81102663 -0.014761895 -0.19893375 -0.027457304 -0.36500162
0.17831615 0.0074001104 0.020311726 -0.010099545 -0.38723433 0.12039176 0.059681922 -0.109851055
-0.0773851 -0.0009416107 -0.025678137 0.14190616 0.07330581 0.02284151 0.10146094 0.052100707
0.008863661 0.14876351 -0.10787772 0.0047336435 0.072256856 0.17811927 0.02686819 0.04994942
0.04485466 -0.05938314 -0.080727264 -0.03379328 -0.05024525 0.03801192 -0.18965845 -0.04122871
-0.19606389 0.02215792 0.15987378 -0.121558145 -0.05222451 0.0016676558 0.091154814 -0.056914344
-0.026040357 0.28565195 -0.096436374 0.09740432 0.046935573 0.14459682 -0.04450677 0.071859844
0.045813464 -0.047966614 0.041541975 -0.1743156 -0.04242132 0.16235536 0.08271118 0.34576452
0.17514858 0.09062218 -0.09852236 0.11187029 -0.08612069 -0.031149 0.15150413 0.05632648
0.020239444 0.1920177 -0.06387212 0.2162768 0.054782003 0.09754416 0.0741135 0.12526412
-0.1600173 0.088978976 -0.0030251106 -0.04310453 -0.025647538 -0.0134730935 0.017315347 0.11118622
-0.08125987 -0.015537461 0.052654646 0.011947146 -0.17236368 -0.1885123 0.036203302 0.039697606
0.07720818 -0.12155092 -0.04053291 -0.19247045 0.08938375 -0.19757783 -0.0071808184 -0.18517093
0.010960008 -0.063164175 -0.078565456 -0.037403993 -0.08928196 -0.19644766 0.057286 0.028684778
-0.15377317 -0.10225538 0.14994353 0.0374438 0.022729391 -0.0701608 0.07231722 0.100597106
-0.09417024 0.33840808 0.0040272153 0.13856235 -0.027589025 -0.09097909 -0.08529213 0.16666806
0.008655338 -0.14245915 0.09044657 0.18719888 -0.023593344 0.1028254 0.111650586 0.30054975
0.059161067 0.108211875 -0.18043134 0.0046752393 0.12790573 -0.26967877 0.1629505 0.08826242
-0.18284145 -0.102005616 -0.06814188 -0.02743118 0.03501613 -0.18045856 -0.01935294 0.03282958
-0.035327636 0.08882347 -0.09930212 -0.19637142 0.08306801 0.14482602 -0.09036158 -0.13417776
0.14691505 -0.12865943 0.034674227 -0.1266239 -0.20229144 -0.018565381 -0.18699674 0.103883356
0.08890784 -0.14805883 0.06352272 -0.11395586 0.12292975 -0.10334141 0.013207927 -0.1799407
-0.0018629419 -0.09036394 0.022616372 0.1402542 -0.119073965 -0.2002598 0.10070601 0.06524313
-0.18162659 -0.04751302 -0.014430335 0.09448053 -0.06443399 -0.104067735 -0.052191928 0.15241492
0.014378226 0.03858014 -0.103252575 -0.036061943 0.087590694 -0.059363518 0.090211056 -0.10256594
0.13991743 -0.19716093 0.009408931 -0.025777906 -0.08226927 0.17592789 -0.10458279 0.19741799
-0.15881725 0.11947309 0.013831479 -0.18006101 0.1017819 0.059085652 0.11063479 -0.031652093
0.061051376 0.19785783 -0.080281995 0.21519953 -0.11383988 0.009991993 0.16422902 -0.06995755
-0.14524385 -0.0010875021 -0.18166693 0.08026349 -0.008299057 -0.11495957 -0.16158675 0.0012957486
-0.1567617 0.18995655 -0.06739882 -0.1743082 0.025357328 -0.09462692 -0.055555977 -0.1746524
0.038651794 0.064053714 -0.03238269 -0.036893137 -0.01709961 -0.122279905 0.004477542 -0.20453334
00000000: 34c9 273e 2b71 ad3d 488a b13c 5090 cfbc
00000010: 66d5 143f 9517 4dbd d916 583e 2b3d 4c3e
00000020: 4e5e 303d fc4c 823c 9006 45be 719f 4fbf
00000030: e0db 71bc 4ab5 4bbe 24ee e0bc 7ee1 babe
00000040: 8298 363e a07c f23b c764 a63c 9078 25bc
00000050: 9443 c6be f48f f63d 0875 743d 97f9 e0bd
00000060: 147c 9ebd 6dd6 76ba f55a d2bc d94f 113e
00000070: 5b21 963d 1e1e bb3c c1ca cf3d 8d67 553d
00000080: e438 113c 7655 183e feee dcbd ae1c 9b3b
00000090: 67fb 933d e664 363e ae1a dc3c c397 4c3d
000000a0: 85b9 373d bc3b 73bd 5654 a5bd d36a 0abd
000000b0: f7cd 4dbd 63b2 1b3d d335 42be 70df 28bd
000000c0: f9c4 48be 8784 b53c f4b5 233e 7af3 f8bd
000000d0: 5ee9 55bd 3e95 da3a 60af ba3d 041f 69bd
000000e0: 9652 d5bc f940 923e 6f80 c5bd eb7b c73d
000000f0: 843f 403d 3011 143e bb4c 36bd 412b 933d
00000100: e6a6 3b3d a478 44bd eb27 2a3d ca7f 32be
00000110: fac1 2dbd 7c40 263e 7b64 a93d 0c08 b13e
00000120: 265a 333e 1f98 b93d 17c6 c9bd 401c e53d
00000130: 0b60 b0bd 302c ffbc e623 1b3e 98b6 663d
00000140: 31cd a53c 4aa0 443e 63cf 82bd aa77 5d3e
00000150: 1863 603d 3cc5 c73d d2c8 973d 3d45 003e
00000160: 93db 23be 9c3a b63d ef40 46bb 608e 30bd
00000170: c91a d2bc 40be 5cbc ead8 8d3c 9ab5 e33d
00000180: 936b a6bd d690 7ebc 66ac 573d f6bd 433c
00000190: 1b80 30be 5e09 41be ea49 143d f599 223d
000001a0: 531f 9e3d b0ef f8bd d605 26bd f916 45be
000001b0: d40e b73d d851 4abe 124d ebbb 739d 3dbe
000001c0: 9b91 333c 385c 81bd ede6 a0bd ee34 19bd
000001d0: 76d9 b6bd 9329 49be baa4 6a3d 57fc ea3c
000001e0: b776 1dbe 456b d1bd cc8a 193e ac5e 193d
000001f0: fd32 ba3c 77b0 8fbd 0d1b 943d db05 ce3d
00000200: 54dc c0bd d343 ad3e bbf6 833b 4ae3 0d3e
00000210: 6102 e2bc 3f53 babd a4ad aebd 08ab 2a3e
00000220: 1ecf 0d3c d0e0 11be 0d3c b93d 10b1 3f3e
00000230: d446 c1bc 2096 d23d 10a9 e43d a8e1 993e
00000240: e052 723d 309e dd3d fec2 38be c032 993b
00000250: b8f9 023e 5613 8abe 7fdc 263e edc2 b43d
00000260: ca3a 3bbe 52e8 d0bd f88d 8bbd 5bb7 e0bc
00000270: 136d 0f3d 21ca 38be 0f8a 9ebc 4f78 063d
00000280: b6b3 10bd 14e9 b53d e95e cbbd 9715 49be
00000290: 901f aa3d 464d 143e 7e0f b9bd e565 09be
000002a0: e670 163e 4cbf 03be 9006 0e3d b2a9 01be
000002b0: 7d25 4fbe 6d16 98bc 137c 3fbe ccc0 d43d
000002c0: 5015 b63d bc9c 17be 3318 823d b161 e9bd
000002d0: 98c2 fb3d a9a4 d3bd 1066 583c 6042 38be
000002e0: f52d f4ba bb10 b9bd f845 b93c cc9e 0f3e
000002f0: 0ddd f3bd e810 4dbe f43e ce3d 319e 853d
00000300: 52fc 39be 039d 42bd 366d 6cbc 027f c13d
00000310: f8f5 83bd 7721 d5bd 34c7 55bd a812 1c3e
00000320: a792 6b3c 3506 1e3d 1676 d3bd b0b5 13bd
00000330: c062 b33d 2927 73bd 93c0 b83d 170e d2bd
00000340: 8446 0f3e 8ee4 49be eb27 1a3c 302c d3bc
00000350: cb7c a8bd 7126 343e 802f d6bd f127 4a3e
00000360: fda0 22be 4fae f43d 6d9d 623c ea61 38be
00000370: 0773 d03d cc03 723d 7e94 e23d a0a5 01bd
00000380: 0211 7a3d 3e9b 4a3e e36a a4bd 445d 5c3e
00000390: e224 e9bd 75b5 233c a72b 283e e745 8fbd
000003a0: ceba 14be 848a 8eba e506 3abe 2f61 a43d
000003b0: c5f8 07bc ec6f ebbd ff76 25be 1cd6 a93a
000003c0: 2486 20be f883 423e 6408 8abd d97d 32be
000003d0: 2cba cf3c c2cb c1bd aa8e 63bd 14d8 32be
000003e0: 5851 1e3d 982e 833d b6a3 04bd 421d 17bd
000003f0: 7b14 8cbc e36d fabd 58b8 923b 3071 51be

fc2.bias f4 [768]
0.14562409 0.0982254 -0.080280624 0.104405396 0.028312068 -0.1136222 -0.21048692 -0.07950044
-0.033536404 0.19424276 -0.20339793 -0.6189594 0.04414757 0.006056758 -0.21842362 0.26952904
0.06795151 0.10011193 0.0044905506 0.22655272 0.14297459 -0.003882697 -0.33027583 -0.058370765
-0.030455343 0.024566699 0.020586886 0.34017456 0.1567948 0.30412716 0.016668186 -0.060604677
0.09968057 0.05935994 0.23326845 -0.015338459 0.029584251 -0.029044067 0.20629041 0.14822102
-0.12099693 -0.105265334 -0.1910278 0.2502279 0.21411398 0.11110368 -0.025836 0.07688733
0.031699102 0.047917876 0.0827081 -0.13587439 -0.014111647 -0.09352318 -0.2509068 -0.20319156
0.29239348 -0.14258492 0.17267208 -0.1036954 -0.35272592 -0.30052942 0.15276136 -0.7662603
0.1381132 0.10855546 0.08426658 0.5115364 0.17074543 0.08738838 -0.12863404 0.06877553
0.09409701 0.0033937546 -0.11012418 -0.14766006 0.03239688 -0.050951958 -0.25781593 -0.2598876
-0.121931806 -0.010506774 0.16345146 -0.27797753 -0.07183774 -0.07307547 -0.10971169 -0.13186017
0.285235 0.021124415 -0.2896056 0.17887916 -0.11552683 0.058396142 0.15267341 0.059842292
0.18243761 -0.4943347 -0.07275553 0.22943886 0.04678127 0.046560995 0.010216994 -0.54319733
-0.16845085 0.15388063 -0.0942227 0.22106116 0.49555644 -0.18316272 -0.3712944 -0.45357785
-0.16922376 -0.032230772 -0.59375 -0.10720168 -0.13691425 0.38496935 -0.26435152 0.25542602
0.1886934 0.23116103 0.34278473 0.39444935 0.048682813 0.25043508 -0.028849132 -0.1359681
-0.0909489 -0.26991042 0.395007 -0.24312457 -0.19406863 0.5536642 -0.085286476 0.104922615
-0.2741695 -0.03080084 -0.07669643 -0.17140195 -0.015870664 0.009674262 -0.16100149 -0.061085157
-0.075143024 0.102780096 0.048823312 0.043918837 -0.11316593 -0.19204408 -0.20509528 -0.050272502
-0.09359186 -0.11077761 0.0068345554 0.08152136 -0.17015244 0.07773275 0.15431127 -0.11633185
0.17917673 0.26862627 -0.05840255 0.23831458 0.3103136 0.1354628 -0.08023731 0.14685398
-0.06160748 -0.07203899 -0.5142985 -0.10462381 -0.10894721 0.02881505 -0.082822554 0.10848021
-0.11863962 0.12914582 -0.041832004 -0.013602652 -0.048627984 -0.23954512 -0.4044027 -0.17972197
0.0612681 0.08420127 0.154474 0.015730036 0.017947081 0.09204163 -0.18590023 0.2586989
0.08855285 0.36745575 0.10022931 0.08008487 -0.21669847 -0.19912861 0.32152447 0.178216
0.020462347 -0.03126459 -0.1274105 0.36823002 -1.2128357 0.079600126 -0.22106278 0.13892202
0.35914344 0.19167951 -0.009732309 0.15163325 0.26796708 0.044024237 -0.005809477 -0.23026466
0.30624494 0.1081246 -0.057979003 0.38342965 0.006868263 -0.05519919 -0.27416873 -0.09503045
-0.00048185073 0.055963196 0.121512964 0.40976083 1.1584098 -0.1419145 0.06388195 -0.05116723
-0.099848285 0.11690611 0.08709248 0.2089569 0.35568354 -0.47594738 0.1767005 -0.13640065
-0.15278277 -0.052913938 0.38810626 0.28720176 0.10641622 -0.076202266 -0.020903438 -0.1853622
-0.50694007 0.051349383 -0.8671744 0.13721113 -0.22999623 0.069461115 -0.24900849 0.34245837
00000000: 7b1e 153e 662a c93d 2b6a a4bd 7fd2 d53d
00000010: b6ee e73c c2b2 e8bd e289 57be 20d1 a2bd
00000020: 785d 09bd 93e7 463e 8c47 50be 2074 1ebf
00000030: 15d4 343d c577 c63b 71aa 5fbe b6ff 893e
00000040: 292a 8b3d 7c07 cd3d 7825 933b 70fd 673e
00000050: ee67 123e d974 7ebb ea19 a9be 2f16 6fbd
00000060: 7c7d f9bc 1a40 c93c d4a5 a83c 5c2b ae3e
00000070: d18e 203e 8eb6 9b3e b88b 883c 9c3c 78bd
00000080: 5425 cc3d 6923 733d eddd 6e3e 294e 7bbc
00000090: ac5a f23c d3ed edbc cb3d 533e 40c7 173e
000000a0: 3dcd f7bd 5a95 d7bd cb9c 43be df1d 803e
000000b0: b240 5b3e 548a e33d 05a6 d3bc 1b77 9d3d
000000c0: ebd6 013d 8945 443d dd62 a93d a822 0bbe
000000d0: 8a34 67bc 1589 bfbd db76 80be 7311 50be
000000e0: 99b4 953e c801 12be f3d0 303e 415e d4bd
000000f0: 7e98 b4be fede 99be 796d 1c3e a329 44bf
00000100: 8c6d 0d3e 5352 de3d f593 ac3d 0df4 023f
00000110: e4d7 2e3e aef8 b23d a4b8 03be 2fda 8c3d
00000120: efb5 c03d c169 5e3b c988 e1bd 3334 17be
00000130: 97b2 043d 00b3 50bd 7300 84be fd0f 85be
00000140: 62b7 f9bd 9b24 2cbc d25f 273e 1253 8ebe
00000150: aa1f 93bd 98a8 95bd 86b0 e0bd 5a06 07be
00000160: 520a 923e 1c0d ad3c 2f47 94be 192c 373e
00000170: 5599 ecbd cb30 6f3d 6b56 1c3e 311d 753d
00000180: edd0 3a3e 7019 fdbe da00 95bd 05f2 6a3e
00000190: b89d 3f3d beb6 3e3d 2e65 273c fb0e 0bbf
000001a0: 617e 2cbe e292 1d3e d5f7 c0bd db5d 623e
000001b0: 93b9 fd3e 028f 3bbe 4d1a bebe 5b3b e8be
000001c0: fe48 2dbe 6a04 04bd 0000 18bf 8e8c dbbd
000001d0: 4033 0cbe b41a c53e 1559 87be 33c7 823e
000001e0: d838 413e 7ab5 6c3e 7b81 af3e 44f5 c93e
000001f0: a167 473d 0739 803e 0455 ecbc 393b 0bbe
00000200: 6b43 babd b331 8abe 5c3e ca3e a6f5 78be
00000210: edb9 46be f0bc 0d3f adaa aebd abe1 d63d
00000220: f25f 8cbe 0b52 fcbc 0513 9dbd fe83 2fbe
00000230: 3203 82bc cc80 1e3c 93dd 24be 6e34 7abd
00000240: 96e4 99bd 5f7e d23d f4fa 473d 3de4 333d
00000250: 8ac3 e7bd 34a7 44be 7f04 52be 8aea 4dbd
00000260: 17ad bfbd 5fdf e2bd 68f4 df3b acf4 a63d
00000270: 713c 2ebe 5932 9f3d c603 1e3e 653f eebd
00000280: 1b7a 373e 6289 893e 8337 6fbd bd08 743e
00000290: 6de1 9e3e c3b6 0a3e 7553 a4bd e460 163e
000002a0: 2058 7cbd 2e89 93bd 11a9 03bf 0245 d6bd
000002b0: b71f dfbd 8a0d ec3c df9e a9bd df2a de3d
000002c0: 54f9 f2bd cd3e 043e 0958 2bbd a8dd 5ebc
000002d0: 232e 47bd 514b 75be df0d cfbe 0909 38be
000002e0: 42f4 7a3d b771 ac3d 6f2e 1e3e 47dc 803c
000002f0: c205 933c 5280 bc3d a15c 3ebe 2f74 843e
00000300: 325b b53d 2923 bc3e 0645 cd3d 8903 a43d
00000310: 34e6 5dbe 5fe8 4bbe db9e a43e 417e 363e
00000320: a7a0 a73c 4c0f 00bd e677 02be a588 bc3e
00000330: 333e 9bbf 6405 a33d 485e 62be 9341 0e3e
00000340: a6e1 b73e a247 443e 4374 1fbc bf45 1b3e
00000350: fb32 893e c252 343d 6d5d bebb 80ca 6bbe
00000360: 23cc 9c3e 6e70 dd3d 647b 6dbd e450 c43e
00000370: 2a0f e13b 8c18 62bd d85f 8cbe 539f c2bd
00000380: e9a0 fcb9 aa39 653d cadb f83d 2ccc d13e
00000390: c646 943f 0952 11be 8ad4 823d bb94 51bd
000003a0: 427d ccbd 786c ef3d 8b5d b23d ccf8 553e
000003b0: 271c b63e 60af f3be faf0 343e 9dac 0bbe
000003c0: 1673 1cbe 49bc 58bd ddb5 c63e 1c0c 933e
000003d0: bff0 d93d ef0f 9cbd b03d abbc 97cf 3dbe
000003e0: d3c6 01bf bb53 523d 24ff 5dbf 1381 0c3e
000003f0: 2284 6bbe a141 8e3d 15fc 7ebe b456 af3e

deconv1.weight f4 [12, 32, 1, 1]
-0.03860619 0.06334373 -0.007797352 0.052576873 0.0470611 -0.7230706 -0.08737875 0.0155964475
0.030018186 0.17081359 0.21204458 0.015516806 -0.013111329 0.13932718 -0.052982055 -0.048816107
-0.10949267 -0.05158037 -0.27960628 -0.004583037 -0.086476184 -0.02112634 0.13123359 -0.1352864
-0.07394924 0.19858205 -0.13087015 0.06325551 -0.008901949 -0.39840034 -0.054762237 -0.027777009
-0.07718406 0.14048226 -0.1801798 0.13151132 0.03183028 -0.17089187 -0.032902516 -0.036339797
0.23358908 0.13906543 0.15434009 0.06626679 0.023228072 -0.074078664 0.14547546 -0.048471693
0.06461693 -0.036800466 0.0279196 -0.049555525 0.16861755 0.013212561 0.026986219 0.113256015
-0.10596109 0.054150697 -0.16865122 -0.087662034 -0.20558205 -0.010496343 0.027429638 0.09652778
0.15220957 -0.10968258 -0.06267054 -0.09357432 -0.0709617 -0.15974993 0.035821967 -0.07885384
0.06988075 0.009964613 -0.16914362 -0.19404034 0.026246412 -0.090678364 -0.17156301 0.005127484
-0.1450553 -0.055673417 -0.060146555 -0.008419193 -0.107953005 0.11900959 0.013462549 0.025506843
0.010824048 0.071516655 -0.03714864 0.0045532323 0.025467437 -0.08394599 -0.028999457 -0.2777328
-0.04073695 0.055909622 0.10482754 0.055878818 0.0027525625 -0.7734989 -0.102983944 0.050956633
0.1545368 0.18081316 -0.013387775 0.11346202 0.20442091 0.13650973 0.16322148 -0.009113194
-0.021798152 0.22140045 0.23446305 -0.12791571 0.10732134 -0.08295039 0.016147705 -0.3313093
-0.030427512 0.045428254 -0.6905667 0.019051157 0.06891496 0.10461425 -0.121764265 -0.08050073
-0.061830513 -0.0041108355 0.08364225 0.024884406 0.08273274 -0.9732462 0.09976746 0.0021784185
-0.09475946 0.078183085 0.17301111 -0.006568607 0.31469113 0.023084424 -0.041767314 -0.01484074
0.029281957 -0.18195015 -0.07603051 0.14262243 0.1131536 -0.0053308783 -0.009029393 0.01262836
-0.030479569 0.0692504 0.017283257 0.15161817 0.18359594 0.060440373 -0.053264264 -0.08015509
-0.11118259 0.104694374 -0.009683178 0.060540564 0.06578542 -0.10546069 0.07492102 0.09118427
-0.062300052 0.13604431 0.008446295 0.13790469 0.10833363 -0.04956323 0.029614294 -0.0117576225
-0.11324286 0.12485585 0.0672336 0.16635224 0.103797026 -0.12736037 0.07208197 -0.019033857
0.0024470945 0.062051807 0.14404269 -0.058164205 -0.06458423 0.10037704 -0.0033033527 -0.009853182
-0.022566987 0.041363508 0.13001278 0.15678309 0.025008943 -0.83089185 0.11627754 0.008085952
-0.09643344 -0.1597785 0.14149272 0.09295303 -0.34560505 0.029240588 0.11934258 -0.040050197
-0.109605365 -0.12573703 -0.05410533 0.061979428 -0.06659987 0.19347979 0.11152058 -0.2769918
0.1425012 -0.030662019 -0.1790563 -0.09162247 0.17758232 0.052178543 -0.062474914 -0.12712508
0.03881221 0.02288179 0.1884243 -0.083455734 0.079315245 -0.18703577 0.14546175 -0.08111389
-0.26249757 0.014100905 0.0724215 -0.17407301 -0.2744991 0.025911728 -0.1752254 -0.031120114
-0.16885401 0.10066436 -0.09891677 0.04959704 -0.10318734 0.044854313 0.05861889 -0.2062265
0.22510906 0.14271908 -1.6098728 0.14131631 -0.13093705 -0.194656 0.11521574 0.07741253
00000000: 8621 1ebd 5cba 813d ee80 ffbb d95a 573d
00000010: 24c3 403d 281b 39bf a1f3 b2bd 3e88 7f3c
00000020: b3e8 f53c c2e9 2e3e 3722 593e 343a 7e3c
00000030: e6d0 56bc c9ab 0e3e b603 59bd 66f3 47bd
00000040: b13d e0bd f045 53bd 8e28 8fbe 4d2d 96bb
00000050: 6d1a b1bd 2511 adbc 1962 063e 8588 0abe
00000060: b372 97bd 1859 4b3e d302 06be 1b8c 813d
00000070: 7bd9 11bc 21fb cbbe 5e4e 60bd 9c8c e3bc
00000080: ad12 9ebd 95da 0f3e 0e81 38be e7aa 063e
00000090: 7860 023d 47fe 2ebe cac4 06bd 0ad9 14bd
000000a0: fa31 6f3e 2b67 0e3e 540b 1e3e e2b6 873d
000000b0: cc48 be3c 8eb6 97bd 85f7 143e 418a 46bd
000000c0: e255 843d 16bc 16bd a5b7 e43c bcfa 4abd
000000d0: 14aa 2c3e 7f79 583c 3412 dd3c c5f2 e73d
000000e0: 2102 d9bd 1fcd 5d3d e8b2 2cbe 2788 b3bd
000000f0: 1a84 52be daf8 2bbc 1fb4 e03c 5bb0 c53d
00000100: d3dc 1b3e 43a1 e0bd 6959 80bd e5a3 bfbd
00000110: 5e54 91bd 7c95 23be 0eba 123d 1f7e a1bd
00000120: a31d 8f3d 9e42 233c fc33 2dbe 83b2 46be
00000130: b702 d73c 94b5 b9bd 37ae 2fbe 7404 a83b
00000140: 6089 14be cf09 64bd 3c5c 76bd a8f0 09bc
00000150: 7716 ddbd 4dbb f33d 0692 5c3c baf3 d03c
00000160: 5957 313c 5377 923d 2c29 18bd 4833 953b
00000170: 16a1 d03c e0eb abbd 4590 edbc fe32 8ebe
00000180: cadb 26bd 7d01 653d d2af d63d 30e1 643d
00000190: 5664 343b 0604 46bf 3fe9 d2bd e7b7 503d
000001a0: e53e 1e3e 1627 393e 6658 5bbc c75e e83d
000001b0: b753 513e 35c9 0b3e 8823 273e 824f 15bc
000001c0: 0a92 b2bc cdb6 623e 1517 703e 56fc 02be
000001d0: 4acb db3d e5e1 a9bd 3148 843c 5fa1 a9be
000001e0: 1e43 f9bc fa12 3a3d fbc8 30bf 2c11 9c3c
000001f0: 4923 8d3d ff3f d63d 8b5f f9bd 91dd a4bd
00000200: fe41 7dbd 30b4 86bb a14c ab3d 62da cb3c
00000210: c86f a93d aa26 79bf e252 cc3d ccc3 0e3b
00000220: 3f11 c2bd 741e a03d d329 313e 783d d7bb
00000230: 321f a13e 8c1b bd3c 3414 2bbd 9326 73bc
00000240: b7e0 ef3c 2451 3abe e2b5 9bbd 9d0b 123e
00000250: 13bd e73d a6ae aebb 05f0 13bc 2ee7 4e3c
00000260: 4ab0 f9bc 27d3 8d3d 9e95 8d3c cb41 1b3e
00000270: 9300 3c3e 5390 773d a12b 5abd 5a28 a4bd
00000280: b3b3 e3bd 016a d63d 31a6 1ebc 62f9 773d
00000290: 82ba 863d c6fb d7bd 3170 993d d2be ba3d
000002a0: 572e 7fbd 334f 0b3e 5462 0a3c e336 0d3e
000002b0: 06de dd3d d002 4bbd ad99 f23c 0ba3 40bc
000002c0: dfeb e7bd 6db4 ff3d c5b1 893d 3e58 2a3e
000002d0: 8993 d43d c26a 02be b69f 933d e4ec 9bbc
000002e0: 6f5f 203b 092a 7e3d ed7f 133e 973d 6ebd
000002f0: bd44 84bd 7a92 cd3d 107d 58bb 3e6f 21bc
00000300: 67de b8bc c86c 293d 1222 053e bf8b 203e
00000310: 8edf cc3c 54b5 54bf eb22 ee3d f17a 043c
00000320: e57e c5bd fa9c 23be 78e3 103e 285e be3d
00000330: 25f3 b0be f589 ef3c e269 f43d ad0b 24bd
00000340: c778 e0bd 35c1 00be 8d9d 5dbd 24de 7d3d
00000350: 8365 88bd 911f 463e e764 e43d dfd1 8dbe
00000360: d6eb 113e ea2e fbbc 895a 37be 90a4 bbbd
00000370: 24d8 353e 2bb9 553d b2e5 7fbd 142d 02be
00000380: 8df9 1e3d 9772 bb3c 4df2 403e d7ea aabd
00000390: 0870 a23d 4e86 3fbe edf3 143e 0a1f a6bd
000003a0: 1566 86be 7b07 673c b951 943d 3240 32be
000003b0: 258b 8cbe d544 d43c 4a6e 33be 9cef febc
000003c0: 11e8 2cbe 1e29 ce3d e094 cabd 4426 4b3d
000003d0: e253 d3bd 28b9 373d 5c1a 703d 0a2d 53be
000003e0: fd82 663e f324 123e 5010 cebf 39b5 103e
000003f0: 5d14 06be e753 47be 3bf6 eb3d 768a 9e3d

deconv1.bias f4 [32]
0.46508804 0.084723525 0.08619274 0.09815838 0.047423057 0.21517017 -0.11106434 0.26243916
-0.10961357 0.1466964 -0.12484258 -0.12762097 0.10308572 0.09789048 0.016875431 1.1746217
-0.18485726 -0.019418824 -0.030522883 -0.1012617 -0.120187804 0.46795765 -0.2484045 0.09377108
-0.01705882 -0.073307954 -0.0065209894 -0.103216164 -0.17891647 -0.10115726 0.2888351 -0.047198635
00000000: 0520 ee3e 8783 ad3d d285 b03d 4307 c93d
00000010: ae3e 423d 9255 5c3e b375 e3bd 6d5e 863e
00000020: 147d e0bd 9537 163e 77ad ffbd 12af 02be
00000030: 9b1e d33d ce7a c83d 583e 8a3c 015a 963f
00000040: 394b 3dbe 3a14 9fbc 200b fabc 4b62 cfbd
00000050: 0625 f6bd 2598 ef3e c05d 7ebe 0d0b c03d
00000060: f0be 8bbc 7b22 96bd 06ae d5bb ff62 d3bd
00000070: e135 37be 8a2b cfbd 32e2 933e 5b53 41bd
