Pytorch/AutoEncoder/saved_models/cifar10/NetLargeDropout-L1Loss_cifar10.pt (torch, 288751 bytes, 16 tensors)

conv1.weight f4 [64, 3, 3, 3]
0	0x3e5e70d6	0.21722731
1	0xbd636f38	-0.05552599
2	0x3e2ee173	0.1707819
3	0x3db0fb45	0.08641676
4	0xbe17aee1	-0.14812805
5	0xbe31bbb9	-0.17356767
6	0xbc5748be	-0.013139902
7	0xbe22a073	-0.15881519
8	0x3bf14a71	0.0073636104
9	0x3e31c953	0.17361955
10	0xbdc08bf3	-0.09401693
11	0xbdfe0e14	-0.12405029
12	0x3daace6f	0.08340155
13	0xbe1158bb	-0.14194004
14	0x3e3756de	0.17904231
15	0xbe252b88	-0.16129887
16	0x3e3b2a81	0.18277933
17	0xbe1dc5c2	-0.1540747
18	0xbd0d2f32	-0.034468837
19	0x3d078ae5	0.033091445
20	0xbe12b824	-0.14328057
21	0xbcd4c750	-0.025973946
22	0x3d84d446	0.064858004
23	0xbd659bed	-0.056056906
24	0x3df9411b	0.12170621
25	0xbd8152f9	-0.06314654
26	0x3d21e08a	0.039520778
27	0x3beb291a	0.0071765305
28	0x3d81f0cd	0.06344757
29	0xbd96edff	-0.07369613
30	0x3c379cac	0.011206787
31	0xbe2f2750	-0.1710484
32	0x3e048380	0.12940788
33	0x3d961456	0.073280975
34	0x3da3f545	0.08005766
35	0x3e4c4d82	0.19951442
36	0x3e026af6	0.12736115
37	0x3ce08848	0.027408734
38	0x3cac0849	0.021000044
39	0xbc1eba28	-0.009687938
40	0xbcd5df4b	-0.026107451
41	0x3d6d43df	0.057926055
42	0xbe1eea84	-0.15519148
43	0x3cc992f5	0.024606207
44	0xbd29faad	-0.04149883
45	0x3da4d595	0.0804855
46	0x3e35ffaa	0.1777331
47	0x3bd71467	0.0065637114
48	0xbca6cb44	-0.020360596
49	0xbdc286d3	-0.09498372
50	0xbdca0535	-0.098642744
51	0x3e05e0b0	0.13073993
52	0x3e1d7fc1	0.15380765
53	0x3dee33bc	0.11630961
54	0xbe441870	-0.19149947
55	0x3e24221f	0.16028641
56	0xbdb1993a	-0.08671804
57	0xbda426a0	-0.0801518
58	0xbe2368a6	-0.15957889
59	0x3d8dc9b9	0.06923241
60	0xbd9d527d	-0.07681749
61	0xbdbdad90	-0.0926162
62	0xbc36f386	-0.011166459
63	0xbe0cc3f4	-0.13746625
64	0x3dac38ee	0.08409296
65	0x3d8458d3	0.064622544
66	0x3c8d3e12	0.017241511
67	0xbc9d06ea	-0.019168336
68	0xbe3f4e56	-0.18682227
69	0x3cfd2d03	0.030905252
70	0xbb224167	-0.002475822
71	0xbe38f93f	-0.1806383
72	0xbe39c319	-0.1814083
73	0x3dec054b	0.11524447
74	0x3c5fd5eb	0.013661842
75	0xbdbd71e6	-0.0925024
76	0xbd52632e	-0.051364116
77	0xbe3192cd	-0.17341156
78	0x3e010885	0.12600906
79	0x3e0f9d79	0.14024915
80	0x3e19a4f9	0.15004338
81	0x3d993f73	0.07482805
82	0x3d1b9e05	0.037992496
83	0xbd365ca1	-0.04452193
84	0xbdbec480	-0.09314823
85	0xbdc7aa69	-0.097493
86	0x3cfd981d	0.030956322
87	0xbaaf94f7	-0.0013395835
88	0xbde940f4	-0.11389342
89	0xbbe04736	-0.0068444265
90	0x3dd26bc9	0.10274465
91	0x3cdd8951	0.027043017
92	0xbd868bf4	-0.06569663
93	0xbde1157f	-0.10990428
94	0x3e0fa479	0.14027585
95	0x3cbccf12	0.023047958
96	0xbd69a26a	-0.057039656
97	0xbe3fd974	-0.18735296
98	0xbbc20ab5	-0.0059216865
99	0xbc3f77c2	-0.011686267
100	0xbdb26574	-0.08710757
101	0x3dab270d	0.08357058
102	0xbd9eecd2	-0.07760014
103	0xbd0dc023	-0.034607064
104	0xbcea4e04	-0.028601654
105	0x3e31ff85	0.17382629
106	0xbc6eeec7	-0.014583296
107	0x3dbdd193	0.09268489
108	0xbc8f5cb9	-0.017500268
109	0x3da24fe3	0.079253934
110	0x3dc84233	0.097782515
111	0x3e3b20f6	0.18274292
112	0xbb3dc8b4	-0.002895874
113	0x3d9e4311	0.07727636
114	0x3e1ca76d	0.15298243
115	0xbcaf23c9	-0.021379368
116	0x3debcb8c	0.11513433
117	0x3d140100	0.036133766
118	0x3db05d39	0.08611531
119	0xbe0b050d	-0.13576145
120	0xbe0db03d	-0.13836761
121	0x3e1397dd	0.144134
122	0xbbbf15f5	-0.005831475
123	0x3d20846f	0.0391888
124	0x3e34284a	0.17593494
125	0x3e161b61	0.14658882
126	0xbd900c3b	-0.07033583
127	0xbdca88c8	-0.0988937
128	0x3dfda5cc	0.12385139
129	0x3e30e3a2	0.17274335
130	0x3d2d47ce	0.042304806
131	0xbc683217	-0.014172099
132	0xbe15ffbb	-0.14648335
133	0x3e2d22b6	0.16907772
134	0x3e3e0ecf	0.18560337
135	0xbd9dbf68	-0.077025235
136	0x3e35262a	0.1769034
137	0xbe0f1d84	-0.13976103
138	0xbe380093	-0.17968969
139	0x3df3d191	0.11905206
140	0x3d44a4bf	0.048008677
141	0xbe20b7d7	-0.1569513
142	0x3dc84f25	0.097807206
143	0xbdd3244a	-0.10309656
144	0xbe37225b	-0.178842
145	0xbb08ae4a	-0.0020855838
146	0xbca0fadb	-0.019650867
147	0x3e4322b9	0.19056214
148	0x3e27288f	0.16324066
149	0xbd918f7f	-0.07107448
150	0xbd8d5e83	-0.06902792
151	0xbe313b6d	-0.17307825
152	0x3e1d9427	0.15388547
153	0x3de2808e	0.11059676
154	0xbd9e09ca	-0.07716711
155	0xbb3718e8	-0.002793843
156	0x3e24474c	0.16042823
157	0x3c21e5d9	0.00988146
158	0xbe44f63c	-0.19234556
159	0xbc2569cf	-0.0100960275
160	0x3db7bfc1	0.08972121
161	0x3d5322e2	0.05154694
162	0xbdcd291d	-0.10017607
163	0x3e0150a0	0.12628412
164	0xbdd990d3	-0.10623326
165	0x3e113b83	0.14182858
166	0x3dab9dd6	0.08379714
167	0x3d4ca255	0.0499595
168	0x3d993c23	0.07482173
169	0xbb86e610	-0.004116781
170	0xbe2c2d0c	-0.16814059
171	0xbdc40300	-0.09570885
172	0x3dc05e33	0.09392967
173	0xbc92f9f7	-0.017941458
174	0xbd8e6330	-0.06952512
175	0x3daa3640	0.083111286
176	0x3dd6624f	0.104679696
177	0x3d0eff5e	0.034911506
178	0xbe2a79dd	-0.1664805
179	0xb9fbac0e	-0.0004800264
180	0x3e0a9224	0.1353231
181	0xbe2bffc8	-0.16796792
182	0xbe067bfc	-0.13133234
183	0xbcc0dd0a	-0.0235429
184	0xbdbace01	-0.091213234
185	0xbcc8d17d	-0.024513954
186	0x3e2f36be	0.17110726
187	0xbe18c3c3	-0.14918427
188	0xbda27e56	-0.07934253
189	0x3dfa89bc	0.12233302
190	0xbd1896a0	-0.037253022
191	0xbe3a5cc9	-0.18199457
192	0x3dac2df1	0.084072
193	0xbde87505	-0.11350445
194	0x3e2ae0b7	0.16687284
195	0x3d94db54	0.07268396
196	0x3df964f9	0.12177462
197	0x3dc289f1	0.094989665
198	0x39347491	0.00017209562
199	0x3deb0ac7	0.11476665
200	0xbe3431b6	-0.17597088
201	0x3d2e3ca2	0.042538293
202	0x3e28d0c5	0.1648589
203	0x3d210c56	0.039318405
204	0x3dd5544e	0.104164705
205	0xbe34fbaa	-0.17674127
206	0x3d11f2c2	0.035631903
207	0x3dfca5c3	0.12336304
208	0xbe3ac761	-0.1824012
209	0xbe085572	-0.13313845
210	0xbd6338ea	-0.0554742
211	0xbd547249	-0.051866803
212	0xbe25bd07	-0.1618539
213	0x3e16fa87	0.14744006
214	0xbd6f9396	-0.05849036
215	0xbdede6f6	-0.11616318
216	0x3dab5fc2	0.08367874
217	0xbe298fdc	-0.16558784
218	0xbd79255d	-0.060826648
219	0xbe150c24	-0.14555413
220	0xbd05d894	-0.032677248
221	0xbdafcf5e	-0.08584474
222	0xbbea6020	-0.0071525723
223	0xbe0c38cb	-0.1369354
224	0x3e05d588	0.13069737
225	0xbd9e80ec	-0.07739434
226	0xbd85a8c6	-0.065263316
227	0xbdab606f	-0.083680026
228	0x3ced9cf0	0.029005498
229	0xbde834a8	-0.113381684
230	0xbe3a7e77	-0.18212305
231	0xbe27c247	-0.16382705
232	0xbd366628	-0.044531018
233	0x3d3c009e	0.045899026
234	0xbdca5be2	-0.098808065
235	0xbd98dcdf	-0.07464003
236	0x3cffa777	0.031207783
237	0xbdd9d81a	-0.10636921
238	0x3e309876	0.17245659
239	0xbcadbe4a	-0.021208901
240	0xbe34dedb	-0.17663138
241	0x3e40752b	0.18794696
242	0xbda477c2	-0.080306545
243	0x3cd0657b	0.025439015
244	0x3dce7954	0.10081735
245	0x3e0e8f20	0.13921785
246	0x3d11540d	0.035480548
247	0xbd325550	-0.04353839
248	0x3e087635	0.13326342
249	0xbb10674c	-0.0022034226
250	0x3e1dfca4	0.15428406
251	0xbd4fbfc5	-0.050719995
252	0xbdf83c17	-0.12120836
253	0x3e3a0914	0.18167526
254	0x3da9e57e	0.08295725
255	0xbd8d8bc6	-0.06911425

conv1.bias f4 [64]
0	0x3da069a9	0.07832653
1	0xbd90aa56	-0.07063739
2	0xbe3dd284	-0.18537337
3	0x3e38c1b1	0.18042637
4	0x3d884969	0.06654627
5	0xbe0a89fd	-0.13529201
6	0x3c753a28	0.014967479
7	0xbd06b929	-0.032891426
8	0xbe2cdb19	-0.16880454
9	0xbe2094e4	-0.15681797
10	0x3cc2ef20	0.023795664
11	0xbe3085a9	-0.17238487
12	0x3d774c98	0.06037578
13	0xbe356d01	-0.17717363
14	0x3db04410	0.08606732
15	0x3e221942	0.15829948
16	0x3e53a702	0.20669177
17	0xbd25664d	-0.040380765
18	0x3dd53adc	0.10411617
19	0x3dfa0dfe	0.122097
20	0x3e1b552a	0.15169206
21	0x3e3e2296	0.18567881
22	0x3e3e2990	0.18570542
23	0xba864388	-0.0010243515
24	0x3de38673	0.111096285
25	0xbe3ab57e	-0.18233296
26	0x3e391a7b	0.18076508
27	0x3e34913c	0.17633528
28	0x3e304b01	0.17216112
29	0x3ce1774f	0.027522711
30	0xbe31905f	-0.1734023
31	0x3e0e4ddc	0.13896888
32	0xbd49da8a	-0.04928068
33	0x3c320327	0.010865009
34	0x3cff1538	0.031138048
35	0x3d859322	0.06522204
36	0x3e09eaa1	0.1346841
37	0x3c61498f	0.013750448
38	0xbe17ff41	-0.14843465
39	0xbd5f9be9	-0.054592047
40	0x3bc0b8c7	0.005881402
41	0xbd9e3cb1	-0.0772642
42	0xbd8595be	-0.06522702
43	0xbdbf3bb7	-0.093375616
44	0x3db7d3e8	0.08975965
45	0x3e0f965e	0.14022204
46	0x3e2b5437	0.16731344
47	0x3e181e38	0.14855278
48	0xbb3fefc8	-0.0029287208
49	0x3cc5c135	0.02413998
50	0x3ddba409	0.107246466
51	0xbd961437	-0.073280744
52	0x3e2d41f8	0.16919696
53	0xbdc0f380	-0.09421444
54	0x3e0c4146	0.13696775
55	0xbaff9b05	-0.0019501155
56	0x3d7ef0ea	0.062241472
57	0x3e39ee19	0.18157233
58	0x3db6378c	0.088973135
59	0x3dc9702d	0.09835849
60	0x3e2e78b0	0.17038226
61	0x3c9f984b	0.019481799
62	0xbe139bfa	-0.14414969
63	0x3da06c67	0.07833176

conv2.weight f4 [32, 64, 3, 3]
0	0xbd9e1429	-0.07718689
1	0xbd36217a	-0.04446552
2	0xbd5df56a	-0.054189123
3	0xbd823e07	-0.06359487
4	0xbd83fad9	-0.0644433
5	0xbc1598f8	-0.009130709
6	0xbd40a72d	-0.04703443
7	0xbc41055c	-0.011781063
8	0xbcbb41b3	-0.022858476
9	0x3d32e8df	0.043679114
10	0x3d0f5774	0.03499551
11	0x3d038c34	0.03211613
12	0x3cd7e80b	0.026355764
13	0xbab99a8c	-0.0014160438
14	0x3d2d47c2	0.04230476
15	0x3cf8b4d8	0.03035967
16	0x3cdbc271	0.026826115
17	0x3c5c4185	0.013443355
18	0x3d056c7a	0.032574154
19	0xbc83ae8b	-0.01607444
20	0xbb37e984	-0.002806277
21	0xbcb7bcef	-0.022428958
22	0x3d2631a1	0.040574674
23	0xbb19b5f9	-0.0023454411
24	0x3c49e4ed	0.012322647
25	0x3cbaf725	0.022822926
26	0x3c3a499b	0.011370088
27	0xbd1dfc9a	-0.038570978
28	0xbca64451	-0.020296248
29	0xbbf07d01	-0.0073391204
30	0xbd2b93db	-0.041889053
31	0xbcbc0e34	-0.022955991
32	0xbc9bac02	-0.019002918
33	0xbae1f483	-0.0017239008
34	0xbc856d59	-0.016287493
35	0xbd522f89	-0.051314864
36	0x3d0655d1	0.032796685
37	0x3d49f5ce	0.049306683
38	0x3d2fa93e	0.04288601
39	0x3d433844	0.04766108
40	0x3cfbe9ca	0.030751128
41	0x3c9cc5f2	0.019137356
42	0x3d245ca6	0.04012742
43	0x3d20852c	0.039189503
44	0x3c51a5f6	0.012795916
45	0x3d2c9818	0.042137235
46	0xbcb8c22d	-0.022553528
47	0x3ab4c603	0.0013791922
48	0x3c30be33	0.0107875345
49	0xbd3845f4	-0.044988587
50	0x3c1d049a	0.009583617
51	0xbc6ed28d	-0.014576566
52	0xbcfe3e71	-0.031035634
53	0xbb8806ca	-0.0041512
54	0xbd23137e	-0.03981351
55	0xbc9ba825	-0.019001076
56	0xbc47a374	-0.012184966
57	0x3bd68373	0.0065464317
58	0x3c20e856	0.009821018
59	0xbd0abd3a	-0.033871867
60	0x3c3b1c92	0.011420386
61	0xbd25c6b6	-0.04047271
62	0x3d030b17	0.031992998
63	0xbc347d6b	-0.01101623
64	0x3c602896	0.013681551
65	0x3bb61415	0.005556593
66	0xbd0fb075	-0.035080392
67	0xbd39f184	-0.045396343
68	0xbc8eb014	-0.017417945
69	0xbc909843	-0.017650729
70	0x3c715780	0.014730334
71	0xbd242d69	-0.04008237
72	0x3d100158	0.03515753
73	0x3bc00227	0.0058596316
74	0xbcf7b92e	-0.030239668
75	0x3d2650e4	0.040604487
76	0x3ce7b4f3	0.028284525
77	0xbad9ac60	-0.0016607158
78	0xbaa6bea5	-0.0012721611
79	0x3c90f982	0.0176971
80	0x3c72dd0c	0.0148232095
81	0xbc5318c9	-0.012884327
82	0xbc8438bf	-0.01614034
83	0x3d68d5fc	0.056844696
84	0xbba91e5e	-0.0051610908
85	0x3bd9ae0a	0.0066430615
86	0x3b993087	0.0046749744
87	0x3d460890	0.04834801
88	0x3d4a2678	0.049353093
89	0x3d0ddb75	0.03463312
90	0xbb4e23b2	-0.0031454382
91	0xbd0b3347	-0.03398445
92	0xbc6866f1	-0.014184699
93	0xbb9dbbd1	-0.004813649
94	0xbd04780b	-0.032341044
95	0xbcd26e35	-0.025687316
96	0xbc6b9863	-0.014379594
97	0x3c8f66d2	0.017505083
98	0x3d354d89	0.044263396
99	0xbcce7295	-0.025201121
100	0xbc9e25c4	-0.019305117
101	0xbd02fa47	-0.031976964
102	0xbcffb5e6	-0.031214666
103	0x3d03c94b	0.03217439
104	0xbc200d41	-0.009768785
105	0xbd247eaa	-0.04015986
106	0xbd1fbfc7	-0.039001253
107	0xbb5f0bc5	-0.0034034115
108	0x3c4f7075	0.012661089
109	0x3d438e11	0.047742907
110	0xbc52035c	-0.012818184
111	0xbc389027	-0.011264837
112	0x3d143005	0.036178607
113	0xbcaaa950	-0.020832688
114	0xbd08219a	-0.03323517
115	0x3be31e66	0.006931114
116	0xbc9437d8	-0.018093035
117	0xbcf9a9da	-0.0304765
118	0xbceaffd7	-0.028686447
119	0x3ca89001	0.020576479
120	0xbc265d9c	-0.010154154
121	0xbcdd13a9	-0.026986914
122	0xbce27b2a	-0.02764662
123	0xbd06e3a2	-0.03293193
124	0xbccbad47	-0.024862899
125	0x3c809e6d	0.015700543
126	0xbd0ccdd0	-0.034375966
127	0xbd299710	-0.04140383
128	0xbd3b2304	-0.04568769
129	0xbd69931a	-0.057025053
130	0xbc3b59ea	-0.011435011
131	0xbcf12b65	-0.029439637
132	0x3c05cca3	0.008166465
133	0xbc564f2d	-0.0130804
134	0xbb1bd3bf	-0.0023777334
135	0xbcacfafb	-0.02111577
136	0xbc652408	-0.013985641
137	0xbcad7f8c	-0.021178983
138	0xbcfd5153	-0.030922567
139	0x3d003863	0.031303775
140	0xbd0258ce	-0.031822972
141	0x38250cc5	3.9350958e-05
142	0xbc2e4490	-0.010636464
143	0xbcb87418	-0.022516295
144	0xbc08afed	-0.008342725
145	0xbcd945e0	-0.026522577
146	0xbd482e91	-0.048872534
147	0xbc82251f	-0.015886841
148	0xbc0ef5f9	-0.008725637
149	0xbd7306d3	-0.05933268
150	0xbd282107	-0.041047122
151	0x3b001c9f	0.001954831
152	0xbd72e2e1	-0.0592984
153	0x3cdcba96	0.02694444
154	0x3bcbb6d0	0.0062168613
155	0x3c7eb119	0.015545153
156	0xbcb08e34	-0.021552183
157	0x3ce9b274	0.028527476
158	0xbd28a689	-0.041174445
159	0xbcd209d1	-0.025639446
160	0x3cfa1211	0.030526193
161	0xbc1c4ea6	-0.009540236
162	0xbb2ffbac	-0.002685289
163	0x3cc55097	0.02408628
164	0xbc6b35f1	-0.014356122
165	0xbc1dc510	-0.009629503
166	0x3cf6b64f	0.030116228
167	0xbd4b7ad6	-0.049677692
168	0xbc67237d	-0.014107582
169	0xbd406ba7	-0.046977665
170	0x3cbc42b1	0.02298102
171	0x3d26d527	0.04073062
172	0x3d164668	0.03668824
173	0xbc93f7cf	-0.0180625
174	0xbcb632af	-0.022240965
175	0xbc928855	-0.017887274
176	0x3c539a73	0.0129152415
177	0xbceafe57	-0.028685732
178	0xbd072a53	-0.032999348
179	0x3cc7a6b1	0.024371477
180	0xbcfbbb52	-0.03072897
181	0xbd996ece	-0.074918374
182	0xbd24c1f1	-0.04022402
183	0xbd68ceb7	-0.056837764
184	0xbd07a1d6	-0.033113323
185	0xbd4cd27a	-0.050005414
186	0xbcb1a60e	-0.021685626
187	0xbc1f12b4	-0.009709049
188	0xbcc903b4	-0.024537899
189	0xbd15b43a	-0.03654883
190	0xbd2e0963	-0.04248942
191	0x3b9c191c	0.0047637355
192	0x3c991ac2	0.018689517
193	0x3d0db5d9	0.03459725
194	0x3c4a744a	0.012356827
195	0xbd1ae56b	-0.037816446
196	0xbbf598bd	-0.0074950145
197	0x3d0075b6	0.031362258
198	0x3c7bb890	0.015363827
199	0xbd4c92ad	-0.04994457
200	0x3c26d23f	0.0101819625
201	0x3c3b9842	0.011449875
202	0x3c5aae4f	0.0133472225
203	0xbd3696dd	-0.04457747
204	0x3cd0f03a	0.025505174
205	0x3ba76c48	0.0051093437
206	0xbce320a0	-0.027725518
207	0x3c779596	0.015111348
208	0xbc512ce2	-0.012767049
209	0x3d00d2dc	0.03145109
210	0xbcc6ddff	-0.024275778
211	0xb827914d	-3.9951225e-05
212	0x3d0071a5	0.03135838
213	0x3d0cc696	0.034369074
214	0x3d20f763	0.039298426
215	0xbcd00229	-0.025391655
216	0xbd01d61b	-0.031698328
217	0xbd0a10e3	-0.03370751
218	0xbd108c1f	-0.03528988
219	0x3ca835ed	0.020533526
220	0xbc807774	-0.01568196
221	0xbc85c020	-0.016326964
222	0xbd59c2f8	-0.053164452
223	0xbd65c2cf	-0.056093987
224	0xbd1c568b	-0.03816847
225	0xbb64d4b2	-0.0034916815
226	0x3d223568	0.039601713
227	0xbb5c5732	-0.0033621308
228	0x3d1db719	0.038504694
229	0x3d70c866	0.058784865
230	0x3d13bee4	0.03607072
231	0xbc263146	-0.010143584
232	0xbcc48c64	-0.023992725
233	0x3a87a406	0.0010348565
234	0xbcbad14e	-0.022804882
235	0xbd33502f	-0.04377764
236	0x3cbb0cae	0.022833195
237	0x3cd342ef	0.025788752
238	0x3cb0b0cc	0.021568678
239	0xbd1d783a	-0.038444735
240	0xbc37842e	-0.011200948
241	0xbcea4d61	-0.02860135
242	0xbbd290bb	-0.0064259446
243	0x3c351f0b	0.0110547645
244	0x3cf93010	0.030418426
245	0xbc5dc777	-0.013536326
246	0x3cd2bb7d	0.025724167
247	0xbc961d96	-0.018324655
248	0xbcdd7367	-0.027032567
249	0xbc829933	-0.015942192
250	0xbb327920	-0.002723284
251	0x3be92e19	0.007116091
252	0xbd0746fd	-0.033026684
253	0xbd0059c5	-0.03133561
254	0xbb6d81f8	-0.0036240797
255	0xbd211173	-0.03932328

conv2.bias f4 [32]
0	0xbd17de2e	-0.03707712
1	0x3ce06bac	0.027395092
2	0xbceca271	-0.028886052
3	0xbc0ec6e7	-0.008714414
4	0xbd159cb0	-0.036526382
5	0xbce5049a	-0.027956296
6	0x3c61f1d6	0.013790568
7	0x3cad53f4	0.021158196
8	0xbd182b63	-0.03715075
9	0x3ab1b489	0.0013557832
10	0xbd01914a	-0.0316327
11	0x3cc95859	0.02457826
12	0xbb35603f	-0.0027675775
13	0x3bba4b87	0.005685273
14	0xbb01ae15	-0.00197876
15	0xbcecfda7	-0.028929545
16	0xbcdefdeb	-0.027220687
17	0xbd03465c	-0.03204952
18	0xbcab2bf1	-0.020894976
19	0xbd2c0a3a	-0.04200194
20	0xbd0e739c	-0.034778222
21	0x3bddb74f	0.006766237
22	0xbd074ec0	-0.033034086
23	0xbcdf8bd4	-0.027288355
24	0xbb7beb96	-0.003843998
25	0xbc49021d	-0.01226857
26	0x3c3e9904	0.011633161
27	0x3c81f8bc	0.015865676
28	0xbd19e26d	-0.037569452
29	0xbc90f35d	-0.01769417
30	0x3c3a5a81	0.011374117
31	0xbc9f609d	-0.019455248

conv3.weight f4 [12, 32, 3, 3]
0	0xbc9ea847	-0.01936735
1	0x3d0d1cfd	0.034451474
2	0xbd146c8e	-0.03623634
3	0xbd630180	-0.055421352
4	0xbd2bcfb5	-0.04194613
5	0xbc8a77ec	-0.016902886
6	0xbd445339	-0.04793093
7	0x3bcfc8a2	0.006341056
8	0xbc37bd29	-0.011214533
9	0xb959a24c	-0.00020755193
10	0xbc99db89	-0.01878144
11	0xbc356a97	-0.011072776
12	0x3d089fe4	0.03335561
13	0xbd5914dc	-0.05299841
14	0xbd1aa151	-0.0377515
15	0xbd5b545d	-0.053547252
16	0x3c5e8d2e	0.013583465
17	0xbd5a460d	-0.053289462
18	0x3d1639b8	0.03667614
19	0xbd4785fa	-0.048711754
20	0xbd8176b8	-0.06321472
21	0x3d306b14	0.043070868
22	0x3d540a88	0.051767856
23	0xbd1606ee	-0.036627702
24	0xbcf66fa3	-0.03008253
25	0x3d20f475	0.039295632
26	0xbc938489	-0.018007534
27	0x3b299c67	0.0025880577
28	0x3c2a2db9	0.010386878
29	0xbd5d7c90	-0.05407387
30	0xbd03372b	-0.032035034
31	0x3d39bdd3	0.045347046
32	0x3c2b2cc6	0.010447687
33	0xbd3beafc	-0.045878395
34	0xbcfa5423	-0.030557698
35	0xbc988711	-0.018619092
36	0x3d4d9ecf	0.05020028
37	0xbd1fbecb	-0.039000314
38	0x3cdf611d	0.027267987
39	0xbc616255	-0.013756354
40	0xbd427dd4	-0.04748328
41	0x3d2722e2	0.04080475
42	0xbd56ef3b	-0.05247424
43	0x3d1f78bf	0.03893351
44	0xbcb43bfd	-0.02200126
45	0xbd01c231	-0.031679336
46	0x3d251fba	0.04031346
47	0xbc8ca28f	-0.017167358
48	0x3d639c7c	0.055569157
49	0xbd422ca4	-0.047405854
50	0xbc221cb1	-0.009894536
51	0x3ca9ebde	0.020742353
52	0xbd2f7ee3	-0.042845618
53	0xbc8a76b9	-0.016902314
54	0xbcc4f776	-0.02404378
55	0x3c766300	0.015038252
56	0x39f02cb8	0.00045809685
57	0xbba59bf6	-0.0050539924
58	0xbd0230e1	-0.031784896
59	0x3d14e405	0.03635027
60	0x3d2b85a1	0.041875485
61	0x3c5a2132	0.013313578
62	0x3b9c07c1	0.0047616665
63	0xbd531062	-0.051529296
64	0xbd25a7ad	-0.04044311
65	0xbd49f6a2	-0.049307473
66	0xbd5fca1c	-0.054636106
67	0x3d208337	0.039187636
68	0xbd302674	-0.04300542
69	0x3c5c7f4a	0.013458082
70	0x3beb065d	0.0071723894
71	0xbc98a26a	-0.018632133
72	0x3d2acbfa	0.041698433
73	0xbd308a40	-0.043100595
74	0x3d1e14dc	0.03859411
75	0xbbcfd6d2	-0.0063427472
76	0xbd6281c1	-0.055299524
77	0xbd5fc19f	-0.05462801
78	0x3d6ca61d	0.057775605
79	0x3d0e718a	0.034776248
80	0xbc959563	-0.01825971
81	0xbca3226c	-0.019913875
82	0x3a88cdf4	0.0010437355
83	0x3d1fc71f	0.039008256
84	0xbc1c630a	-0.009545097
85	0x3c9203e0	0.017824113
86	0xbbc14338	-0.0058979057
87	0xbc4e72d5	-0.01260062
88	0xbcd3aa7f	-0.025838135
89	0xbd119d6b	-0.035550516
90	0x3caf4c9e	0.021398839
91	0xbd3dce50	-0.046339333
92	0x3d2b959a	0.041890718
93	0x3cad12d0	0.021127135
94	0xbcae4afb	-0.021275988
95	0xbd41ce30	-0.047315776
96	0x3d0cf369	0.03441182
97	0x3d3d4063	0.046203982
98	0x3d46a232	0.048494525
99	0xbc563fcd	-0.013076735
100	0xbc7643d5	-0.015030821
101	0xbd1ccfec	-0.038284227
102	0x3aa76618	0.0012771515
103	0xbd07a3b8	-0.03311512
104	0xbd73ad36	-0.05949136
105	0x3caa946f	0.020822732
106	0xbaf95c07	-0.0019024619
107	0xbd5d6c9d	-0.05405866
108	0xbd0d6b0f	-0.034525927
109	0xbd8899c7	-0.06669956
110	0x3c1676d6	0.009183606
111	0x3be995a8	0.007128436
112	0x3bd431dc	0.0064756703
113	0xbc864d48	-0.016394272
114	0xbd186a8e	-0.037210993
115	0x3ce45bc8	0.027875796
116	0xbd44c63c	-0.048040614
117	0xbc6b275c	-0.014352646
118	0x3d31b7e9	0.04338828
119	0xbcf8b337	-0.030358894
120	0x3d84dd66	0.06487541
121	0x3d4b10db	0.04957662
122	0xbd13c020	-0.036071897
123	0x3d791d80	0.06081915
124	0xbcaee502	-0.021349434
125	0xbd1ddc71	-0.038540307
126	0x3d58f4cd	0.052967835
127	0xbd472659	-0.048620556
128	0xbbd6d43f	-0.0065560634
129	0x3cc2908a	0.023750562
130	0xbc99b34f	-0.018762259
131	0xbd4788e5	-0.048714537
132	0x3d482f6d	0.048873354
133	0x3d09ad03	0.033612262
134	0x3d16bdbd	0.036802042
135	0xbc528672	-0.012849437
136	0xbd4bdbc5	-0.049770135
137	0xbd24d533	-0.040242385
138	0xbcab0d69	-0.020880418
139	0x3bd380e9	0.0064545763
140	0xbce08fe1	-0.027412357
141	0x3d07bdb3	0.033139896
142	0x3bed1cc9	0.0072360975
143	0x3cd637f0	0.02614972
144	0xbce47495	-0.027887622
145	0xbcae3fea	-0.021270711
146	0x3d100311	0.035159174
147	0x3d473d5a	0.048642494
148	0x3cf256ee	0.029582467
149	0xbcdd7294	-0.027032174
150	0x3d47762c	0.04869668
151	0xbd2c5f9f	-0.04208338
152	0xbb61655e	-0.0034392695
153	0xba6b4d3f	-0.0008976049
154	0xbd74024d	-0.059572507
155	0x3a9bc915	0.0011885489
156	0x3c989519	0.018625783
157	0x3cc8066f	0.02441713
158	0x3b91ed50	0.0044533387
159	0x3d45295f	0.048135158
160	0xbc8f60e8	-0.017502263
161	0xbd5807f4	-0.05274196
162	0xbc530d57	-0.012881598
163	0xbc7c48b5	-0.015398194
164	0x3cb9fd4a	0.022703785
165	0xbc04c421	-0.008103401
166	0xbce93edf	-0.028472362
167	0x3ba46012	0.0050163353
168	0xbc2d62bf	-0.010582625
169	0xbcbbab28	-0.022908762
170	0x3d421260	0.047380805
171	0x3c9f2775	0.019427994
172	0x3d371208	0.04469493
173	0xbca9e2b2	-0.02073798
174	0xbce86161	-0.028366746
175	0x3cd85e92	0.026412282
176	0x3d53a621	0.051672105
177	0x3cc85dc6	0.024458777
178	0x3db3d909	0.087816305
179	0xbc876ac8	-0.01653041
180	0xbc53150b	-0.012883435
181	0xbd81a9e2	-0.06331231
182	0x3a8e0deb	0.0010837888
183	0xbd22bfb6	-0.03973361
184	0x3ad7f63f	0.0016476585
185	0xbd2cc3d6	-0.04217895
186	0xbada3804	-0.0016648774
187	0xbd46d7cc	-0.048545644
188	0xbcb077e0	-0.021541536
189	0x3d60fce5	0.05492868
190	0xbd3a22be	-0.04544329
191	0x3c79d7cf	0.015249207
192	0xbd07feaf	-0.03320187
193	0xbc98f641	-0.01867211
194	0xbd60928c	-0.054827258
195	0xbd09ca67	-0.03364029
196	0x3c792224	0.015205894
197	0xbbc9e66e	-0.0061615026
198	0x3d615177	0.05500933
199	0x3d453405	0.048145313
200	0x3d6ab66b	0.057302874
201	0x3d48d7ca	0.049033917
202	0x3d11bf0a	0.03558258
203	0x3b9ee146	0.004848632
204	0xbd22ae33	-0.03971691
205	0xbc9c40c1	-0.019073846
206	0x3d4dba72	0.050226636
207	0xbc589914	-0.01322009
208	0x3c9babf0	0.019002885
209	0x3c159be0	0.009131402
210	0x3c19651d	0.009362486
211	0x3c859273	0.016305184
212	0xbd777823	-0.060417306
213	0x3d8143af	0.06311738
214	0x3ce93b3d	0.02847063
215	0x3d8577ce	0.065169916
216	0xbd5b7e7c	-0.05358742
217	0xbd17bed9	-0.03704724
218	0x3d1e09ca	0.038583554
219	0xbd5dd1c8	-0.05415514
220	0x3c314aa7	0.010821021
221	0xbd565741	-0.052329306
222	0x3c1edc33	0.009696054
223	0x3ca05c58	0.019575283
224	0xbd1ad672	-0.037802167
225	0x3c2d76d6	0.010587415
226	0xbcab0f51	-0.020881327
227	0xbd0ea445	-0.03482463
228	0xbd002767	-0.031287577
229	0x3c97c77d	0.01852774
230	0xbcd36593	-0.02580527
231	0x3c1f660f	0.0097289225
232	0x3d463343	0.04838873
233	0x3d125a19	0.035730455
234	0x3cc8234d	0.024430895
235	0xbccdc1de	-0.025116857
236	0xbd83e02a	-0.0643924
237	0xbc4de8b6	-0.01256769
238	0x3d215082	0.03938342
239	0x3d05eb35	0.032695014
240	0xbc8f1d7f	-0.01747012
241	0xbd75fcbf	-0.06005549
242	0x3c311a0d	0.010809434
243	0x3be92ac5	0.007115694
244	0x3d2c620a	0.042085685
245	0x3b80585e	0.003916784
246	0xbd5d6f69	-0.054061327
247	0xbc3db5da	-0.011579001
248	0x3bca7098	0.006177973
249	0x3d37fcb9	0.04491875
250	0x3be1283e	0.0068712523
251	0xbc840fe4	-0.016120858
252	0xbb769326	-0.0037624328
253	0xbd810777	-0.06300252
254	0xbc9356bc	-0.017985694
255	0x3ce666b2	0.02812514

conv3.bias f4 [12]
0	0x3d4af3db	0.049548965
1	0xbc6da3c6	-0.014504379
2	0x3bdd1ccc	0.0067478176
3	0xbd146aac	-0.036234543
4	0xbcfcb015	-0.030845681
5	0xbca7bc40	-0.020475507
6	0x3d0db275	0.034594018
7	0x3d90090e	0.07032977
8	0xb9d92627	-0.0004141789
9	0x3cc762c9	0.024339097
10	0xbc8dfc3d	-0.01733219
11	0xbcaec9ca	-0.021336455

fc1.weight f4 [24, 768]
0	0xbcb1a074	-0.021682955
1	0xbca27734	-0.019832231
2	0x3c66c0e3	0.014084074
3	0xbca64b6f	-0.020299641
4	0xbcb38df9	-0.021918284
5	0xbd1abf9e	-0.037780397
6	0x3c443d0a	0.0119774435
7	0x3cc8e533	0.024523353
8	0xbd5040dd	-0.05084311
9	0xbd3cb0f1	-0.046067182
10	0xbcd66075	-0.026169041
11	0xbd096b32	-0.033549495
12	0xbd3d9916	-0.046288572
13	0xbd0c58ab	-0.034264248
14	0xbccf1110	-0.02527669
15	0x3aaf54e2	0.0013376737
16	0xbd3346c8	-0.043768674
17	0xbd1a6f34	-0.037703708
18	0xbc9fee03	-0.019522673
19	0x3c3c0a06	0.011476999
20	0xbcd5b09b	-0.026085189
21	0xbca49cf2	-0.020094369
22	0xbd72efac	-0.0593106
23	0xbca2b20e	-0.019860294
24	0xbd918e8f	-0.07107269
25	0xbc99cb23	-0.018773621
26	0xbc54204d	-0.012947154
27	0xbce8976b	-0.028392514
28	0xbd4a9f42	-0.049468286
29	0xbcb12375	-0.021623353
30	0xbd12375d	-0.03569733
31	0xbc628b80	-0.013827205
32	0xbcc52376	-0.02406476
33	0x3c50030d	0.01269604
34	0xbd18653c	-0.03720592
35	0x3cf2f587	0.029658092
36	0xbc259adc	-0.010107722
37	0xbcb1837b	-0.02166914
38	0x3abf3c1a	0.0014590055
39	0xbd22aff0	-0.03971857
40	0xbd840aa8	-0.06447345
41	0xbabc6c98	-0.0014375625
42	0xbd4fa4ea	-0.050694384
43	0xbbeefdfe	-0.007293462
44	0x3b5ca931	0.0033670182
45	0xbd3fe463	-0.046848666
46	0xbd0182f1	-0.031619016
47	0xbc52919d	-0.0128521
48	0xbdbbb6ea	-0.091657475
49	0xbd384615	-0.04498871
50	0x3c163d79	0.00916993
51	0xbcf82d51	-0.030295046
52	0xbd358124	-0.04431261
53	0xbcffaa6d	-0.031209195
54	0xbd6e5daa	-0.058194794
55	0xbc0d3827	-0.008619345
56	0xbda2bc9c	-0.07946131
57	0xbdac9180	-0.084261894
58	0xbcd5939c	-0.026071362
59	0xbd98fddb	-0.07470294
60	0xbd4706f8	-0.04859063
61	0xbd80a14c	-0.06280765
62	0xbd7b09ae	-0.06128853
63	0xbd429fb8	-0.0475156
64	0x3c075b53	0.0082615195
65	0x3d05aa71	0.03263325
66	0xbc4180c7	-0.011810488
67	0xbc296080	-0.010337949
68	0xbc791f62	-0.015205236
69	0x3d0da5db	0.034582
70	0xbc929aab	-0.017896017
71	0xbca554c8	-0.020182028
72	0x3d127077	0.035751786
73	0xbc84202b	-0.01612862
74	0xbbc6247b	-0.0060468293
75	0x3c4e7e3e	0.012603341
76	0x3c65606e	0.014000041
77	0x3c994d71	0.018713685
78	0x3bf56ae5	0.0074895495
79	0x3ab97a93	0.001415091
80	0x3d267f04	0.040648475
81	0x3c177975	0.009245266
82	0xbc5ede1e	-0.013602762
83	0xbccecad9	-0.02524321
84	0xbaa36c1c	-0.0012468132
85	0x3c247901	0.010038615
86	0xbc831761	-0.016002359
87	0xbccbba40	-0.024869084
88	0xbc95c461	-0.018282117
89	0x3c10a46c	0.008828264
90	0x3cce9605	0.02521802
91	0x3c3b5470	0.011433706
92	0x3baa5f26	0.005199331
93	0x3be908ab	0.007111629
94	0x3d032730	0.032019794
95	0x3cb03ece	0.021514323
96	0x3cb6deeb	0.022323092
97	0x3b9f21d3	0.004856327
98	0x3ccec543	0.025240546
99	0x3c253f94	0.010085959
100	0x3cca65c2	0.024706725
101	0x3d080759	0.033210132
102	0x3c96c3a2	0.018403832
103	0x3c0bcb09	0.008532294
104	0x3d182b5e	0.037150733
105	0xbc5b785e	-0.013395397
106	0xbca06735	-0.019580463
107	0x3bb99814	0.005663881
108	0x3c91d345	0.017800936
109	0x3cd609f9	0.026127802
110	0xbbb3e991	-0.00549049
111	0x3cb2f8b1	0.0218471
112	0xbc195e1f	-0.009360819
113	0xbc806fe4	-0.015678354
114	0xbc6a8f9a	-0.014316464
115	0x3cf100bc	0.029419295
116	0x3d3e4649	0.046453748
117	0x3d612455	0.05496629
118	0x3c081353	0.0083053885
119	0x3bfd1cf6	0.0077243997
120	0xbc5cfab2	-0.013487505
121	0xbc79b84b	-0.015241693
122	0xbbff1be2	-0.0077853063
123	0xbbf57592	-0.007490822
124	0x3cc9922e	0.024605837
125	0x3c17e1e2	0.009270163
126	0x3d27114d	0.040787984
127	0x3b350cee	0.0027626115
128	0x3c149c82	0.0090705175
129	0x3c4b77ab	0.012418668
130	0xbc97ed28	-0.018545702
131	0xbcac71bd	-0.021050328
132	0x3d108487	0.035282638
133	0xbccb4391	-0.024812492
134	0xbc691e47	-0.01422841
135	0x3cbfee84	0.023429163
136	0xbca40240	-0.020020604
137	0x3a6becc1	0.00089998177
138	0xbca1487f	-0.01968789
139	0x3ca173c9	0.019708531
140	0x3a34eead	0.00069020205
141	0xbb20e86f	-0.0024552604
142	0x3cddb214	0.027062453
143	0x3ca15fd2	0.019699011
144	0x3d0ba184	0.03408958
145	0x3d131062	0.035904296
146	0x3cf0f24e	0.029412415
147	0xbc8ff552	-0.017573033
148	0xbd11f497	-0.03563365
149	0x3c77d48f	0.0151263615
150	0xbc6492d3	-0.013951021
151	0x3cd2a010	0.02571109
152	0x3c76af53	0.015056449
153	0x3cad1484	0.021127947
154	0x3cdb8bea	0.026800115
155	0xbc943174	-0.018089987
156	0x3c5cdad6	0.013479909
157	0xbc8c56d5	-0.017131248
158	0x3c9111f2	0.017708752
159	0xbcb74459	-0.022371458
160	0x3c4ca6f8	0.01249098
161	0xbccb9a86	-0.024853956
162	0x3c933d9e	0.017973717
163	0xbc963eaf	-0.018340437
164	0x3c1ea32e	0.00968246
165	0xbd08f53b	-0.033436995
166	0x3ccb636e	0.024827685
167	0x3d017828	0.03160873
168	0x3c628b53	0.013827163
169	0x3c5fb963	0.0136550395
170	0x3ce525df	0.02797216
171	0xbc8ad6fc	-0.016948216
172	0x3cddf000	0.02709198
173	0xbc99f9c0	-0.018795848
174	0x3d3cdf85	0.046111602
175	0xbc4cacce	-0.012492372
176	0x3d402ce5	0.046917815
177	0xbb6b902b	-0.0035944085
178	0x3d16e2a0	0.03683722
179	0xbc745408	-0.014912613
180	0x3ca2faf6	0.019895058
181	0x3d2db897	0.042412367
182	0x3d3fba5a	0.046808578
183	0x3d12f645	0.035879392
184	0x3d496b67	0.049174692
185	0xbc9a7e79	-0.018859135
186	0xbc3e46e6	-0.011613583
187	0x3d4a1fdd	0.049346793
188	0xbb1138d4	-0.0022159116
189	0x3d1553c9	0.036456857
190	0x3cc7cb25	0.024388859
191	0x3d1a7d20	0.037716985
192	0x3cb9fabe	0.022702571
193	0x3cc636a5	0.024195978
194	0xbcc1028b	-0.023560783
195	0x3d1199ef	0.035547193
196	0x3d004750	0.03131801
197	0xbc641e18	-0.0139231905
198	0x3d2a70a3	0.041611325
199	0x3c7b8c46	0.015353268
200	0xbcac024e	-0.020997193
201	0x3bb80026	0.005615252
202	0x3d0d64ec	0.034520075
203	0x3bed2a0c	0.0072376784
204	0xbc879d69	-0.016554551
205	0x3c9baa01	0.019001963
206	0x3c034f64	0.008014534
207	0xbc9f3770	-0.019435614
208	0x3c8493a6	0.016183686
209	0xbcab83e9	-0.020936923
210	0xbcd1dd9d	-0.025618369
211	0x3c85e376	0.016343813
212	0x3c7c090c	0.015383016
213	0x3c0982bd	0.008392987
214	0x3cb0bbdf	0.021573959
215	0x3c9b166d	0.018931592
216	0x3c7ea424	0.015542064
217	0x3cd521e1	0.026017131
218	0x3c9d2620	0.019183218
219	0x3cb35ffc	0.021896355
220	0xbcc83781	-0.024440529
221	0xbd01189e	-0.031517617
222	0x3d143eba	0.036192633
223	0x3ce9ccaa	0.028539974
224	0xbc917a3a	-0.017758477
225	0xbc15ce1f	-0.009143381
226	0x3c317e43	0.010833326
227	0xbc4eb83f	-0.01261717
228	0xbc554235	-0.013016273
229	0x3cde9be7	0.02717395
230	0x3ce68288	0.028138414
231	0x3cfde3b6	0.03099237
232	0xbccded4e	-0.02513757
233	0xbce8c134	-0.028412439
234	0xbbde74a2	-0.006788806
235	0xbccbf954	-0.024899162
236	0x3c8756c0	0.016520858
237	0xbc8e8f04	-0.01740218
238	0xbca4c2ba	-0.020112384
239	0x3d14e6fa	0.03635309
240	0xbc5997ce	-0.013280822
241	0x3c070c72	0.008242713
242	0x3ce70870	0.028202266
243	0x3d17ca2b	0.037058037
244	0x3c081def	0.008307918
245	0xbc6a924d	-0.014317107
246	0xbaeadbf6	-0.0017918337
247	0x3d3e6225	0.046480317
248	0xbbcd91f2	-0.0062735016
249	0xbc5a170a	-0.013311157
250	0x3d18ce4a	0.037306108
251	0xbc1f53fb	-0.009724612
252	0x3c02346b	0.007947068
253	0x3ca994bb	0.020700803
254	0x3d5f5e17	0.05453309
255	0x3d404388	0.046939403

fc1.bias f4 [24]
0	0xbba2426c	-0.0049517658
1	0x3c8ef3f8	0.017450318
2	0xbcefb570	-0.02926132
3	0x3c2f01ac	0.010681551
4	0xbd1ff5aa	-0.039052643
5	0x3c5dd4af	0.013539477
6	0x3cb5f898	0.022213265
7	0xbcbbb574	-0.022913672
8	0xbbece19f	-0.0072290446
9	0x3ce94d45	0.028479228
10	0xbcec8593	-0.028872287
11	0xbc4a2d0d	-0.0123398425
12	0xbc089bb7	-0.008337907
13	0xbd459b9b	-0.0482441
14	0xbcd8480b	-0.02640154
15	0xbcfd50fa	-0.030922402
16	0xbcfe094c	-0.031010292
17	0xbc2d3a6c	-0.010573011
18	0xbcc233b9	-0.023706304
19	0x3c422355	0.011849244
20	0x3c9407a6	0.018070053
21	0xbb84f155	-0.0040570893
22	0x3c3b66d0	0.011438087
23	0x3c199292	0.009373324

fc2.weight f4 [768, 24]
0	0x3b6d25ff	0.0036185978
1	0xbe344192	-0.17603138
2	0xbe4bbc9e	-0.1989617
3	0x3dcce24c	0.100041
4	0x3d6293b4	0.055316642
5	0xbd8c12b4	-0.06839505
6	0xbdf6c31e	-0.120489344
7	0x3df450ee	0.119294986
8	0xbdbbb806	-0.09165959
9	0x3c4993ab	0.012303273
10	0xbdd14953	-0.102190636
11	0xbdc92354	-0.098211914
12	0xbe137ffa	-0.14404288
13	0x3d9828be	0.07429646
14	0x3da4ebd3	0.080527924
15	0xbcbc3336	-0.022973638
16	0x3d446327	0.04794612
17	0xbe4316ce	-0.19051668
18	0xbd007c53	-0.031368565
19	0x3e0ac7fd	0.13552852
20	0xbe26e29a	-0.16297379
21	0xbdc34258	-0.095341384
22	0xbd47dd92	-0.04879529
23	0xbe06802e	-0.13134834
24	0x3e2399fc	0.15976709
25	0xbcfa7db8	-0.030577525
26	0xbd6ffa18	-0.058588117
27	0x3e16baae	0.1471965
28	0x3e1615f9	0.1465682
29	0xbe0ecb56	-0.13944754
30	0x3be13802	0.0068731317
31	0x3e05d886	0.13070878
32	0xbe244486	-0.16041765
33	0xbe3104a7	-0.17286931
34	0xbd57c948	-0.05268219
35	0xbd286df8	-0.0411205
36	0xbe1d0aaf	-0.15336107
37	0x3e1608fa	0.14651862
38	0x3deb7232	0.114963904
39	0xbd2a1069	-0.041519556
40	0xbbbe6ed0	-0.0058115497
41	0x3e1fde28	0.1561209
42	0xbc8901c8	-0.016724482
43	0xbde7ef4e	-0.113249406
44	0x3e2cbfb4	0.16870004
45	0x3d71e534	0.059056476
46	0x3d868368	0.065680325
47	0xbdb4bd96	-0.08825223
48	0xbdb1172c	-0.08646998
49	0x3e105c1e	0.1409764
50	0xbc964770	-0.01834461
51	0xbe3da504	-0.1851998
52	0x3cc0b308	0.023522869
53	0xbde8edef	-0.11373507
54	0x3c9fa1e0	0.019486368
55	0xbe44aa3c	-0.19205564
56	0xbe1af805	-0.15133674
57	0xbdb4823a	-0.08813901
58	0x3e20a5fe	0.15688321
59	0x3e23ea3c	0.16007322
60	0xbdd4acd3	-0.10384526
61	0xbe13600d	-0.14392109
62	0x3db6487c	0.08900544
63	0x3dff0088	0.12451273
64	0xbe467dea	-0.1938397
65	0xbdfbab70	-0.122885585
66	0x3e23a46c	0.1598069
67	0xbe4071a2	-0.18793347
68	0xbdd5d1c4	-0.104404
69	0xbc9221c8	-0.017838374
70	0xbd2d1f78	-0.04226634
71	0xbdd9bd8c	-0.10631856
72	0x3e11c80c	0.14236468
73	0xbd9f2e7f	-0.0777254
74	0x3ca028c8	0.019550696
75	0x3d459ee6	0.04824724
76	0x3d782b69	0.060588274
77	0x3dfef764	0.1244953
78	0xbe4bbd1c	-0.19896358
79	0x3ddae791	0.10688699
80	0x3e29a634	0.16567308
81	0xbe21fcf5	-0.15819152
82	0x3e144026	0.14477596
83	0xbd2e6c7c	-0.042583928
84	0xbd8908c1	-0.06691123
85	0xbdd95e6e	-0.10613714
86	0x3ddf38e8	0.10899526
87	0x3d0ae5e6	0.033910654
88	0x3dc85651	0.097820885
89	0x3df09b08	0.1174832
90	0xbe4dc2f7	-0.20093904
91	0xbd9978b0	-0.074937224
92	0x3e0c3eaf	0.13695787
93	0x3d917f18	0.07104319
94	0x3d9352f4	0.071935564
95	0xbe24a880	-0.16079903
96	0x3e3582f9	0.17725743
97	0x3e26160f	0.16219352
98	0x3d76b8c0	0.060234785
99	0xbe4aac7b	-0.19792359
100	0xbe1f86c6	-0.15578756
101	0xbc6c6830	-0.014429137
102	0x3cef355b	0.029200247
103	0x3d8dcdfa	0.069240525
104	0x3af86300	0.0018950403
105	0x3d8e03f8	0.06934351
106	0xbdba77b5	-0.091048636
107	0x3d6afda0	0.057370782
108	0x3c77ccf9	0.015124553
109	0x3e1285ca	0.14308849
110	0x3e0c2ece	0.1368973
111	0x3e1aa9ac	0.15103787
112	0x3e137bd8	0.14402711
113	0x3d7a1260	0.06105268
114	0x3e33de8e	0.17565367
115	0xbd224ac1	-0.039622072
116	0xbcdecf72	-0.027198527
117	0xbc4c4764	-0.012468193
118	0xbde1f649	-0.11033303
119	0xbe4828cd	-0.19546814
120	0xbde793c8	-0.11307484
121	0x3cb91660	0.022593677
122	0x3dc8f94f	0.09813177
123	0x3e25977e	0.16171071
124	0x3dd6457c	0.10462472
125	0x3e0303ab	0.12794368
126	0xbe6c236b	-0.23060386
127	0xbd57cecb	-0.052687448
128	0x3b08b249	0.002085822
129	0x3e1899a2	0.14902356
130	0x3e3926e6	0.18081245
131	0x3dca4122	0.09875704
132	0xbde83794	-0.11338726
133	0xbd29209d	-0.041290868
134	0x3e1c0c91	0.15239169
135	0x3d90e56b	0.07075008
136	0xbdcc240c	-0.09967813
137	0xbe08794f	-0.13327526
138	0xbc6aeb4d	-0.014338327
139	0x3e2f8935	0.17142184
140	0x3e14a402	0.14515689
141	0x3a2ba67f	0.0006547942
142	0x3dc5018f	0.09619438
143	0xbc88c12f	-0.01669368
144	0xbd9d3a0a	-0.07677086
145	0xbe0acd92	-0.13554981
146	0xbe0abad9	-0.13547839
147	0xbd90e262	-0.07074429
148	0xbcf60a98	-0.030034348
149	0x3d5d0ba8	0.053966194
150	0x3e187819	0.14889564
151	0x3dc613ec	0.096717685
152	0x3de29e98	0.110654056
153	0xbda0edf4	-0.07857886
154	0x3c963778	0.018336996
155	0x3e1ddf36	0.1541718
156	0x3d889110	0.066682935
157	0x3e1ae226	0.15125331
158	0xbd191ca4	-0.03738083
159	0x3d4f60dc	0.05062948
160	0x3de8c279	0.11365218
161	0xbe39964c	-0.1812374
162	0xbde1a916	-0.11018579
163	0xbdbf68df	-0.093461744
164	0x3e31f2ff	0.17377852
165	0x3d14e725	0.03635325
166	0xbe107128	-0.14105666
167	0x3dda4664	0.10657957
168	0x3e4038ca	0.18771663
169	0xbd3c2133	-0.0459301
170	0xbdc06ed3	-0.09396138
171	0xbe17e0f4	-0.14831907
172	0x3dd4b754	0.103865296
173	0xbc5fc790	-0.013658419
174	0xbe144c20	-0.14482164
175	0x3e737cf0	0.23778129
176	0x3cf7d300	0.03025198
177	0x3da05c20	0.078300714
178	0x3d9375dc	0.07200214
179	0x3e4790ce	0.19488832
180	0x3e181cbd	0.14854713
181	0x3d335cf4	0.04378982
182	0x3e294c2e	0.16532966
183	0xbdfedce4	-0.12444475
184	0x3e2a5e1c	0.16637462
185	0x3e4182f4	0.18897611
186	0xbd16c9f0	-0.036813676
187	0x3da265a9	0.079295464
188	0xbd0614e8	-0.03273478
189	0x3d4dc72a	0.050238766
190	0xbdf29051	-0.118439324
191	0x3df37348	0.118872225
192	0xbe1438ae	-0.14474747
193	0x3dd32ab9	0.10310883
194	0x3e0e9b16	0.13926348
195	0x3dfd6eca	0.12374647
196	0x3dccd418	0.10001391
197	0xbc939900	-0.018017292
198	0xbe20e757	-0.15713249
199	0x3e4edd50	0.20201612
200	0xbe3e6b3c	-0.18595594
201	0x3df838a8	0.12120181
202	0x3e2763d5	0.16346677
203	0xbd55377d	-0.05205487
204	0xbdce4cb8	-0.10073227
205	0xbd9e6029	-0.07733185
206	0xbd98133c	-0.07425544
207	0x3e3b3939	0.18283547
208	0x3d96670d	0.07343874
209	0xbd87a741	-0.06623698
210	0xbdd29b3e	-0.10283516
211	0xbd17335a	-0.036914207
212	0xbe44d909	-0.19223417
213	0x3dd00605	0.10157398
214	0x3e3688b1	0.17825581
215	0xbe0c1919	-0.13681449
216	0x3bec122d	0.007204315
217	0xbab714d6	-0.0013968002
218	0xbd3c3394	-0.045947626
219	0xbe2b47e4	-0.16726643
220	0x3d4d9e00	0.05019951
221	0xbdd5730a	-0.104223326
222	0x3e4d5a1e	0.20053908
223	0x3e31ccc7	0.17363273
224	0xbe469565	-0.19392927
225	0xbdcb695c	-0.09932205
226	0x3e4bca86	0.19901475
227	0x3e0a0720	0.1347928
228	0xbd56e891	-0.052467886
229	0x3e70ffd8	0.23535097
230	0x3d828e18	0.063747585
231	0x3de28fe4	0.11062601
232	0xbe1cdd8b	-0.15318887
233	0x3c868790	0.016422063
234	0xbd63b22c	-0.05558984
235	0x3d324684	0.04352428
236	0x3d4d8350	0.050174057
237	0x3e2ecac0	0.1706953
238	0xbe247ca6	-0.16063175
239	0x3df1c0b4	0.11804333
240	0xbe0bec9c	-0.13664478
241	0x3e0ae12d	0.1356246
242	0x3e46ebac	0.19425839
243	0x3e1dbd53	0.15404253
244	0xbd3adc87	-0.045620468
245	0x3d64fd68	0.05590573
246	0x3e0378f4	0.12839109
247	0xbcdd0f18	-0.026984736
248	0xbdc21581	-0.09476758
249	0x3def6a60	0.11690211
250	0xbe033c6c	-0.12816018
251	0x3dae17f4	0.085006624
252	0x3e565782	0.20931819
253	0x3e2ef5a9	0.170859
254	0xbdde7855	-0.10862795
255	0xbae60a3e	-0.001755066

fc2.bias f4 [768]
0	0x3e1e62e4	0.15467411
1	0xbe0baa85	-0.13639267
2	0xbd3bb62c	-0.04582803
3	0xbe1cd72a	-0.15316454
4	0xbe3caa28	-0.18424284
5	0xbd06ce1b	-0.0329114
6	0x3caa877b	0.020816555
7	0xbd56bc3e	-0.052425615
8	0x3dcb4ccb	0.099267565
9	0xbdbc8ab7	-0.09206145
10	0xbe36bac2	-0.1784468
11	0x3d9c8862	0.076432005
12	0x3dbc0531	0.09180678
13	0xbe414280	-0.18873024
14	0xbbcb0353	-0.0061954646
15	0x3e19f1cd	0.15033646
16	0x3d4452a9	0.047930393
17	0x3e0e048a	0.13868919
18	0xbc465279	-0.012104624
19	0x3da21daa	0.07915814
20	0xbd1688fd	-0.036751736
21	0x3c44c9ec	0.012011033
22	0xbe0a8666	-0.13527831
23	0x3d436d05	0.04771139
24	0xbd7b915a	-0.061417915
25	0xbd6d25a7	-0.057897236
26	0xbdfe62b2	-0.124211684
27	0xbd8a345a	-0.067482665
28	0x3e38b992	0.1803954
29	0xbd1f3b3c	-0.03887485
30	0xbdd18f41	-0.10232402
31	0xbdd26b43	-0.10274365
32	0xbd40e243	-0.04709078
33	0x3d2dcfdc	0.04243456
34	0x3d6fbd55	0.05853017
35	0x3db97b29	0.09056694
36	0xba270244	-0.0006370882
37	0xbd863ac7	-0.0655418
38	0x3e3abd90	0.18236375
39	0xbd38788e	-0.045036845
40	0x3da7e3e9	0.08197767
41	0xbd9f2aec	-0.077718586
42	0x3e3306d5	0.17483075
43	0x3e01cb83	0.1267529
44	0xbe3e5bd1	-0.18589713
45	0x3b3842dd	0.0028116025
46	0x3cc8f89f	0.024532614
47	0x3cc5891b	0.024113229
48	0x3e5866fe	0.21133038
49	0xbe56966f	-0.20955823
50	0x3e5a94fa	0.21345893
51	0x3dcbf2d3	0.099584244
52	0x3bddb41b	0.006765855
53	0x3e468fdd	0.19390817
54	0x3e3c5742	0.18392661
55	0x3e2e5a18	0.17026556
56	0xbde96558	-0.11396283
57	0x3d8776a6	0.06614427
58	0x3d769ca1	0.060207967
59	0xbe51773d	-0.20455642
60	0xbdcf0f22	-0.10110308
61	0x3e140fed	0.144592
62	0xbe19d590	-0.15022874
63	0xbdd0a910	-0.10188496
64	0x3e3aee1f	0.18254898
65	0x3e549ae0	0.20762205
66	0xbe130105	-0.14355858
67	0xbe51932b	-0.20466296
68	0x3e2fc06a	0.17163244
69	0x3c0a386c	0.008436304
70	0xbdbf2b50	-0.09334433
71	0x3d444863	0.047920596
72	0xbc23c26d	-0.009995085
73	0x3dd12cc3	0.10213616
74	0xbe26b8b7	-0.162814
75	0x3e211089	0.15728964
76	0xbda587c1	-0.08082534
77	0xbde0e0c1	-0.109803684
78	0x3be7d8c1	0.0070753996
79	0xbd8d6eac	-0.069058746
80	0xbdfc00d4	-0.123048455
81	0x3d441396	0.04787024
82	0x3ded41a5	0.11584786
83	0xbe117055	-0.14203008
84	0x3c6ebe77	0.014571778
85	0x3d880e43	0.06643345
86	0x3e2d4161	0.16919471
87	0xbe2becc8	-0.16789544
88	0x3e5a5332	0.21320799
89	0x3e8e5983	0.27802667
90	0x3e08f56f	0.13374875
91	0xbe06c52e	-0.13161156
92	0xbe453d0e	-0.19261572
93	0x3d5c1aaa	0.053736366
94	0x3e3b7255	0.18305333
95	0x3e1f8f3d	0.15581985
96	0x3d8e6555	0.06952921
97	0xbdaea4c2	-0.08527519
98	0xbcd30904	-0.025761135
99	0x3e3c0dc3	0.18364625
100	0x3da2f2da	0.079564765
101	0xbd8633e5	-0.06552867
102	0x3df52eaf	0.11971795
103	0xbd1d08ec	-0.038338587
104	0x3e332c76	0.17497429
105	0xbe0e5b72	-0.13902071
106	0x3da52190	0.08063042
107	0xbdb2fccf	-0.08739626
108	0xbe0b29f2	-0.1359022
109	0x3e47e66f	0.19521497
110	0xbe0371a4	-0.12836319
111	0x3d7174f8	0.05894944
112	0x3db915cd	0.09037361
113	0x3ddeb84a	0.10874994
114	0xbe0e9d4f	-0.13927196
115	0xbe30cc0f	-0.17265342
116	0xbe705dff	-0.23473357
117	0x3db97fba	0.09057565
118	0xbdcbccfc	-0.09951207
119	0x3df1b34d	0.11801777
120	0xbd638d3a	-0.055554606
121	0x3e5125b0	0.20424533
122	0x3df028b8	0.117265165
123	0x3dfaa25d	0.122379996
124	0xbe051028	-0.12994444
125	0x3e43671e	0.19082305
126	0xbde21148	-0.110384524
127	0xbdfca006	-0.123352095
128	0xbdd44674	-0.10365
129	0xbe039ffe	-0.12854001
130	0x3dd9f1d1	0.10641826
131	0xbe3ebb6b	-0.18626182
132	0xbdb2ddeb	-0.08733734
133	0x3d8749c3	0.06605866
134	0xbdd34a2f	-0.10316884
135	0xbe062340	-0.13099384
136	0x3d7f7b7a	0.062373616
137	0x3d9ccd15	0.07656304
138	0x3dd2148f	0.102578275
139	0xbe449d84	-0.19200712
140	0x3d35134f	0.044207867
141	0x3e1f2d53	0.15544634
142	0xbdff662b	-0.12470659
143	0xbcc562f9	-0.024095045
144	0xbd35b943	-0.044366132
145	0x3e169c56	0.14708075
146	0x3dc9617f	0.09833049
147	0xbda64a4d	-0.081196405
148	0xbe1e4a24	-0.1545797
149	0xbddd9739	-0.10819859
150	0x3d0327f0	0.03202051
151	0x3ca8fadd	0.020627433
152	0xbbcf23cc	-0.006321406
153	0xbe275ff8	-0.16345203
154	0xbb5dc426	-0.0033838837
155	0xbcae5186	-0.021279108
156	0xbd5e1c27	-0.054226067
157	0x3e32d906	0.174656
158	0xbcb9994c	-0.022656105
159	0xbd850aad	-0.06496177
160	0xbda734c6	-0.081643626
161	0x3d718636	0.058965884
162	0xbd448755	-0.047980625
163	0xbe56705a	-0.20941296
164	0xbe3e76af	-0.18599962
165	0xbdf717e3	-0.12065103
166	0x3e42c757	0.19021355
167	0x3e21c40e	0.15797445
168	0xbcde3ca2	-0.027128521
169	0xbe268b64	-0.16264111
170	0xbe17ade2	-0.14812425
171	0xbe0e46a4	-0.13894135
172	0xbe1c4ac1	-0.15262891
173	0xbd0e2857	-0.03470644
174	0x3d94c430	0.07263982
175	0x3db52e54	0.08846727
176	0x3d451766	0.048118018
177	0x3dd0a334	0.101873785
178	0xbe4c6183	-0.19959073
179	0x3d3ec8de	0.04657828
180	0xbe32abed	-0.17448397
181	0xbdc7f8b2	-0.09764232
182	0xbdae88c3	-0.08522179
183	0xbe05ad17	-0.1305431
184	0xbe303292	-0.17206791
185	0x3d8df658	0.06931752
186	0x3e3260e3	0.17419772
187	0xbdf5d6dc	-0.12003872
188	0xbe1266ec	-0.14297074
189	0x3dcd0883	0.10011389
190	0xbe0dbaa6	-0.13840732
191	0xbdd3f957	-0.10350292
192	0xbe2b3af5	-0.16721709
193	0xbdeff5bf	-0.11716794
194	0xbdeb0b2b	-0.114767395
195	0x3e236ee7	0.15960275
196	0x3d8f4413	0.06995406
197	0x3e298b00	0.1655693
198	0x3de3729f	0.111058466
199	0xbdc8e7a0	-0.09809804
200	0xbdad3e64	-0.08459166
201	0x3defca24	0.11708477
202	0xbdacdf7f	-0.08441066
203	0x3d8766eb	0.06611427
204	0xbe3f990e	-0.1871073
205	0xbcf08628	-0.029360846
206	0x3c45e891	0.012079374
207	0x3e416d38	0.1888932
208	0x3d23fcdf	0.04003608
209	0xbd16ea04	-0.03684427
210	0x3e1cbef9	0.15307225
211	0xbbb43446	-0.0054993955
212	0x3e169f24	0.14709145
213	0xbdd2001a	-0.102539256
214	0x3df7de01	0.12102891
215	0x3e18df98	0.14929044
216	0x3dd887b7	0.105727606
217	0x3d842d9e	0.06454013
218	0x3bdc1bc6	0.006717178
219	0xbe3f2f2d	-0.1867034
220	0xbdd59dca	-0.104304865
221	0xbe81353c	-0.25235927
222	0xbe02dbae	-0.12779114
223	0x3db89368	0.090124905
224	0x3e231051	0.15924193
225	0xbd9880d8	-0.0744645
226	0xbe050d91	-0.12993456
227	0xbe1bdd6e	-0.15221187
228	0xbc94afbc	-0.018150203
229	0xbcb561f4	-0.022141434
230	0xbe0326e8	-0.1280781
231	0x3dc8f92e	0.09813152
232	0xbda13ff4	-0.07873526
233	0x3d2a28b0	0.04154271
234	0x3dfb61ed	0.12274537
235	0xbe078c0e	-0.1323702
236	0x3d7940ba	0.060852744
237	0x3e0c5472	0.13704088
238	0xbe4dce3f	-0.20098208
239	0xbe27d768	-0.16390765
240	0xbe502ee8	-0.20330393
241	0xbdb61bf8	-0.08892053
242	0x3cd3fdb1	0.025877805
243	0xbd967513	-0.07346549
244	0x3d8168fc	0.06318852
245	0xbe5d4626	-0.21608791
246	0xbde8f581	-0.11374951
247	0xbe0fba20	-0.14035845
248	0x3e33663e	0.17519471
249	0xbd8011fc	-0.0625343
250	0x3e34451d	0.1760449
251	0xbcd85206	-0.0264063
252	0x3c9d6cc0	0.019216895
253	0xbcf771b8	-0.030205593
254	0xbd9dd3aa	-0.07706387
255	0xbe009f1a	-0.12560692
