Pytorch/AutoEncoder/saved_models/cifar10/NetSmall-L1Loss_cifar10.pt (torch, 166511 bytes, 16 tensors)

conv1.weight f4 [6, 3, 3, 3]
00000000: f89b 063d 645d dcbd bd8d ddbd 2a66 33be
00000010: 04ad 543d 2fbe 6abc 2f7d 95bd 426d 29be
00000020: 5582 3abd 927c 853d 3b73 33be aabd 0ebe
00000030: a074 4fbc b976 27bd fb37 c23d 4cdc 3b3d
00000040: 2766 37be d2ab 103e 10f6 20bc 247f 633c
00000050: c08e f43d f3d2 05be cd08 cc3d 6b0c 5dbd
00000060: f9b1 37be f887 a7bd 4e9a a73d 9be9 88be
00000070: 4197 353e c823 d63d 1ebd b039 638c 3a3c
00000080: e1cd cebb 14fb dc3c 06d2 da3d 5cd6 693e
00000090: d15f 17be 82ae 0dbe ac48 383e 2964 20be
000000a0: 4311 79be 1cee 2cbc 58d5 bcbd d727 013d
000000b0: d3ca 863e 5676 2abe 12d0 27be bfa5 0a3e
000000c0: d3c0 0b3a a5e5 b0bd 3add 603d 0732 1dbd
000000d0: 6b39 3e3d 2e99 1b3e 70d9 013e 999a 5bbd
000000e0: fc19 c9bd fb92 64bd 6a0a 613d c97e 86bc
000000f0: 20d0 83bc e1b4 c0bb 8789 1a3e 99ef 0e3e
00000100: 7f9a a0bd 0995 9b3d c4f3 ab3c 4493 cd3d
00000110: 9cc1 c0bc 216c b03d cc88 6bbd 4273 25bd
00000120: 0efb 98bd afbe e2bb d77f 713e b060 453e
00000130: a368 f13d bd48 b03d b45e c43d 0eab 353e
00000140: 811c 353e 7448 913d 130d fe3c d27c 23bd
00000150: fd7a f2bd 0304 58be c416 f33d 4861 123e
00000160: 097f fcba 4ac1 acbd 0005 1bbe 3177 143e
00000170: 2111 973d 3ecc a9be 1e59 273d e075 9fbd
00000180: a028 2ebe f0d3 eebc a444 493e aead 983e
00000190: 9a8d 16bd 4571 7abb fa52 c7bd 149e 203e
000001a0: 48db 14bd 2a80 653b 4825 7e3b e736 27bf
000001b0: a4fb 363e c49f 4d3c 28be 16bd 7cc3 cdbd
000001c0: 45a4 2e3e edf8 653e 5d6a 473e 43d4 94bc
000001d0: 38c7 4abd 74a6 253e 6072 3b3e 3221 c53d
000001e0: 5a40 fe3c f779 08be 48df 24bc f88b be3d
000001f0: a77a 2f3e 0287 843e 8479 d23d 218a 193c
00000200: 85d6 ec3d 700b 303e a520 e23d 9ec3 86bd
00000210: 9ae5 14be 62a8 10be b640 9abd 1a26 85bd
00000220: 9b21 3dbd 6150 03be 2720 81bc e82a 66be
00000230: 16c1 c4bd 581c 0c3d f979 503d 4e56 39ba
00000240: 472a a43c 8342 d1bd 6e49 27bd 059c f63d
00000250: 0577 703d 7075 163d ef6b 703e 3b10 473c
00000260: 7056 15be 3a24 033e 6e02 17be f5ce 29be
00000270: 64be 333c f0d1 003c bc41 043e b78c cd3d
00000280: 1099 6a3d 33a9 2fbc
0.032863587 -0.1076 -0.1081805 -0.17519441 0.051922813 -0.01432757 -0.072992675 -0.16545585
-0.04553445 0.065179005 -0.17524426 -0.13939539 -0.012662083 -0.040884707 0.09483334 0.04586439
-0.17910062 0.14128044 -0.009824291 0.013885293 0.1194129 -0.13068752 0.09962616 -0.05396692
-0.17938985 -0.08180231 0.08183728 -0.26740727 0.1773348 0.104560435 0.0003371024 0.01138601
-0.006311164 0.026975192 0.1068459 0.22835678 -0.14782645 -0.138361 0.17996472 -0.15663208
-0.24322991 -0.010554817 -0.092203796 0.031532135 0.26326618 -0.16646704 -0.16387966 0.1353979
0.0005331162 -0.08637551 0.054898478 -0.038377788 0.046441477 0.15195152 0.12680602 -0.053614233
-0.09819409 -0.055804234 0.054941572 -0.016417878 -0.016090453 -0.0058809374 0.15091525 0.13958587
-0.07841968 0.075967856 0.02099026 0.10037854 -0.02352982 0.08614374 -0.057503507 -0.04039312
-0.0746976 -0.006919704 0.23583923 0.19275165 0.11787536 0.08607624 0.09588376 0.17741033
0.17686655 0.070938975 0.031012094 -0.03991396 -0.118398644 -0.2109528 0.118695766 0.14294922
-0.0019263934 -0.084353045 -0.15138626 0.14498593 0.07376314 -0.33163637 0.040856473 -0.07786155
-0.17007685 -0.029153794 0.1965509 0.29820007 -0.036756136 -0.0038214487 -0.097326234 0.15685302
-0.036341935 0.0035019019 0.0038779546 -0.6531815 0.17869431 0.012550298 -0.03680244 -0.10047051
0.17054851 0.22458239 0.19474168 -0.01816762 -0.049506396 0.16176778 0.1830535 0.09625472
0.031036545 -0.13327776 -0.010063 0.09304041 0.17136632 0.25884253 0.102770835 0.009371311
0.11564354 0.17191863 0.11041383 -0.0658028 -0.14540711 -0.14126733 -0.07531874 -0.06501408
-0.046174627 -0.12823631 -0.015762402 -0.22477305 -0.09607141 0.03420672 0.050897572 -0.00070700503
0.02003969 -0.10217764 -0.040841512 0.12041477 0.058707256 0.03673309 0.23478673 0.012149866
-0.14583755 0.12806788 -0.1474702 -0.16582854 0.010970686 0.007862553 0.129157 0.10036605
0.057274878 -0.010721493

conv1.bias f4 [6]
00000000: 06ea 36be a96c 26bb 846f eb3d 9db4 0f3e
00000010: c07a ab3c e64b 403e
-0.1786271 -0.0025394356 0.11495879 0.14033742 0.020932555 0.18778953

conv2.weight f4 [12, 6, 3, 3]
00000000: 939e a5bd d036 1a3c 7809 39bc c818 e03d
00000010: 444f 0a3e 508f afbc f018 163d 68ff 3c3d
00000020: e4b8 ecbc d42b 74be f07c 83be c4ba 21be
00000030: ef8f 5cbd de8d bdbe b7b1 a5be 9d69 9ebc
00000040: d006 f7bc 2a2a 05be 9684 df3d 1bfc ae3d
00000050: ffec a43d a1f5 343d a322 c13c efd1 093e
00000060: f672 d63d 5a79 a43d f534 b33d 7ad4 25be
00000070: 7eff f8be b68d d23b 2e8f b5be dc08 0ebf
00000080: 7995 02be 0112 a23e fcf0 443e 8e2b 413e
00000090: b64a 72bd 20bd b0ba 3083 063d c5aa 8d3c
000000a0: 0326 ab3d cc35 623d 2bbf 07bc 759a 073d
000000b0: b33c 343d bcff 65bd 81f4 50be c58b 26bd
000000c0: cb60 113d 385a 83bd 734e a5bd 7b72 fe3b
000000d0: 81ed 54bd 7552 febd cc20 723d 20b5 4d3d
000000e0: 0eb4 b1bd 287f aabc 6a1d e8b9 006a 293b
000000f0: 24e8 a33d e4e3 693d 7688 57bd b46f eebc
00000100: d4d5 5bbe 500a 36be 39b1 00bd c435 abbd
00000110: 50b2 08be 002e 1a3d 4594 303e c525 1c3e
00000120: d1b9 dfbd 8922 29be 4926 8e3d 2508 2a3c
00000130: b8ef 6e3d 92cc 20bd e669 933d 3ebd 543d
00000140: 1a75 823d 9b49 06be ef14 83be 3002 e6bd
00000150: 9a6c 163e 1fa0 9b3e edeb 13bd 852b fa3d
00000160: 7ce2 703e ba93 6d3e 3117 9dbd d5a8 1ebe
00000170: 3052 07be 542f 6dbd 692a 1f3d d00e 8abd
00000180: aef3 113e bacc 1b3e 2cc5 0e3e 8c95 633d
00000190: 9ae1 eabd cc6f 013c ee30 e9bd a2d0 40bd
000001a0: ff2f 16be b4cb 8c3c f663 843d 1bd8 ae3d
000001b0: be7e 20bd 633c 98bd 6eb3 9d3d 3071 dd3d
000001c0: f778 81bd 84af debc 3485 d1bd f018 fd3c
000001d0: 0836 d13c 69c5 a23d 9c9b 04be 94ce 7ebd
000001e0: cefb 6fbe 6ef4 a7bd 0d03 25be 5643 473d
000001f0: 7a9b d6bd 463f cbbd 72af 8b3d d917 823d
00000200: 341f 6dbd 100e 6cbc 5135 8cbd 5639 efbd
00000210: 79f4 263d bcbd d3bd 18f0 713d fa8d 093f
00000220: 721f 93be 9e3a b1be da2c 30be 6584 51be
00000230: 1070 8abe b739 afbb 5fd6 17be f1ce f43b
00000240: 1d34 5d3e 9df8 f4bd 8315 313d da0b 5f3e
00000250: 22a0 90bd d419 c8bb a9f4 08be c917 3d3d
00000260: 48cd 15bc 6a93 113e a7b3 433d ff31 8bbc
00000270: 7302 193e a3e2 acbd f0cd b7bd ae7a 05bd
00000280: f2de 0bbe e0d0 a9bc 5216 97bd 8072 b0bd
00000290: 2466 86bc 80f8 033d eddc 04be c08b 573b
000002a0: f032 793c 89ef b5bd 8876 e53c f9ea 653c
000002b0: b262 13bd 5f2a 06be c436 c2bd 8d5d 24be
000002c0: b9e6 41bd a87a 293d 018b d93d d444 c2bd
000002d0: 78b5 a43d 0a17 b33c 40d4 3fbd 8068 a6bd
000002e0: 43fc 713c 4965 fdbd 2225 633d d2ba 97bd
000002f0: 6832 efbd 9131 64bd f248 d5bd 15eb bbbd
00000300: 64df febc 7c90 ddbc 513b d0bd 5ff3 c9bd
00000310: 0ab1 1abe dfbf e9bc 2f6b c4bc f203 acbd
00000320: 72fd fcbd 0dc7 75bb 0ad6 c0bd 3d44 b3bd
00000330: d9f5 debc 8ace 89bd e01d a5bd 5e3a 7fbd
00000340: d3c8 82bd fa04 f1bd 422f 0fbd 531f f8bd
00000350: 01c4 a43c 633d dabd c9ff dabd 8cf1 213d
00000360: 8070 2ebc f87d 063e a4c2 f1bd 262d e93d
00000370: 24e3 91bc d8dd d43c bc07 7dbd a44f 20bd
00000380: c8ab bd3d c27e 8fbc 4e58 343d d710 47bd
00000390: bdb0 f9bd 1f47 95bb 3f40 cbbc e628 abbc
000003a0: c7aa 8c3d 6f9e 7bbd 90fa 443d d820 c6bd
000003b0: a2d6 8cbd a46f 0abe bbcb 793c d442 4e3d
000003c0: faa4 183d 3633 fbbd dbc5 8fbc bf08 31bd
000003d0: ba9b 38bc 0274 f3bd 7c83 f1bd f455 8d3d
000003e0: 7159 4ebd e11e 4c3d 946b 2e3d b06f 69bd
000003f0: 6caa ffbc 0135 a43d 0c71 903b dc5b efbd
-0.08086886 0.009412482 -0.011293761 0.10942227 0.135068 -0.021430641 0.036644876 0.046142012
-0.028896756 -0.23844844 -0.25681257 -0.15793902 -0.053848203 -0.370223 -0.32362148 -0.01933747
-0.030154616 -0.13004366 0.10913961 0.08544179 0.08053016 0.044179562 0.023576086 0.1345899
0.10471146 0.080309585 0.08750335 -0.16194335 -0.48632425 0.0064255847 -0.354608 -0.5548227
-0.12752332 0.3165436 0.19232553 0.18864271 -0.05915328 -0.0013484098 0.032839954 0.017293343
0.083568595 0.055227086 -0.008285324 0.033106286 0.0440032 -0.05615209 -0.20405771 -0.04066064
0.0354927 -0.06413692 -0.080716036 0.007765112 -0.051984314 -0.12418071 0.05911331 0.050221562
-0.08676921 -0.020812586 -0.00044272403 0.0025850534 0.08003262 0.0571021 -0.052620374 -0.029105999
-0.21468288 -0.17777371 -0.031419013 -0.08359864 -0.13349271 0.037641525 0.1724406 0.15248783
-0.109241135 -0.1651708 0.06940896 0.010377918 0.058334082 -0.039257593 0.07197933 0.051938288
0.063699916 -0.13114016 -0.2560191 -0.11230886 0.14689866 0.303956 -0.03611367 0.12215332
0.23523897 0.23200884 -0.07670439 -0.15494092 -0.13214946 -0.057906464 0.038858805 -0.067411065
0.14253113 0.15214816 0.13942403 0.05556254 -0.11468811 0.00790019 -0.11386286 -0.047073968
-0.14666747 0.017186977 0.064643785 0.085373126 -0.03918337 -0.07433393 0.07700239 0.108126044
-0.063219 -0.027183302 -0.102304846 0.03089568 0.02553846 0.07947809 -0.12949985 -0.062208727
-0.234359 -0.08200918 -0.16114445 0.0486482 -0.104788736 -0.09924178 0.06820573 0.06352205
-0.057891086 -0.01440765 -0.06846107 -0.11680858 0.04076049 -0.10338923 0.059066862 0.53732264
-0.28734928 -0.34615034 -0.1720461 -0.20460661 -0.27038622 -0.0053474563 -0.1482787 0.0074709584
0.21601911 -0.11961482 0.043233406 0.21781865 -0.07061793 -0.0061065946 -0.1337458 0.04616526
-0.009143181 0.1421639 0.04777875 -0.016991613 0.1494234 -0.08441665 -0.08974826 -0.0325877
-0.13659266 -0.020729482 -0.07377304 -0.08615589 -0.016406126 0.03221941 -0.12974901 0.0032889694
0.015209898 -0.08883578 0.028010622 0.014033073 -0.035982795 -0.13102101 -0.09483102 -0.16051312
-0.047339175 0.04137674 0.10622216 -0.09485784 0.08042425 0.021861572 -0.046833277 -0.081254005
0.014769617 -0.12372834 0.055455334 -0.0740868 -0.11679536 -0.055711333 -0.10414304 -0.09175698
-0.03111238 -0.027046435 -0.10167564 -0.098608725 -0.15106598 -0.028533874 -0.02397689 -0.0839919
-0.12353028 -0.0037502677 -0.09415825 -0.0875325 -0.027216839 -0.06728847 -0.08062339 -0.062311523
-0.063859604 -0.11768527 -0.034957178 -0.121153496 0.020112993 -0.1065624 -0.106933184 0.039536998
-0.010646939 0.13133991 -0.11804703 0.113855645 -0.017808504 0.02598469 -0.061774954 -0.03913845
0.0926128 -0.017516498 0.044029526 -0.048600044 -0.12191913 -0.0045555974 -0.024810908 -0.020893525
0.06868511 -0.06143039 0.048090518 -0.09674233 -0.068768755 -0.1351915 0.015246327 0.0503567
0.03726671 -0.12265627 -0.0175504 -0.04322123 -0.011267597 -0.11887361 -0.11792657 0.0690116
-0.050378267 0.049834136 0.042583063 -0.05699128 -0.031209193 0.08017922 0.0044080075 -0.11687443

conv2.bias f4 [12]
00000000: 4a7a 1c3e b012 143d 00e8 77bc f5b4 273d
00000010: 447a 05be 3478 6c3e 7097 263e 6b5a 1d3e
00000020: fe83 4dbc d8f6 8c3d ffc4 5dbc b7fb e63d
0.15281025 0.036150634 -0.015130997 0.04094406 -0.13034922 0.23092729 0.16268706 0.15366523
-0.012543676 0.06883019 -0.013535737 0.112784795

conv3.weight f4 [12, 12, 3, 3]
00000000: dd5e b33d d97c 2ebd 0510 b7bc b70b ef3d
00000010: 5c18 093b ad44 8b3d 296f 533d bdbf c73d
00000020: d05a d63c dfbb b5bd b6ae 21bd 2007 c53b
00000030: 0961 b0bd a6b9 37be 3707 2ebd 3494 5c3d
00000040: 4f00 4fbe 958d 453b 9722 78be d8bf 6bbd
00000050: 2880 68bd 05ff 93be 6851 81bd 869b 09be
00000060: 0523 73bd ee04 0fbc 3ff5 58bd b8d7 593d
00000070: bfce 30bd c476 a9bc e232 c6bc 0e72 8c3d
00000080: 08b2 543d c90e 6e3c e8a2 f3bc b512 2cbc
00000090: 2a0e 25bb 9973 82bd 79fe b63d af87 86bd
000000a0: 3b7f 8cbc 6800 6e3d a8cf 50bd 0f67 f33b
000000b0: 75b0 a7bd c445 93bd 7cad 38bd 984b 10be
000000c0: 682e 193d 455d 543d 0aab cc3c e58b ad3c
000000d0: d132 373d 4396 93bd a1fa 0c3d 202f 633d
000000e0: 370c e03a 007f 92bd 54d8 443d 5fb4 9abd
000000f0: a02b d23d f8e3 143e 9e5b 1f3d 6837 c23d
00000100: 9d4e 433d 7fe8 663d 3a4b 703d 395e 3b3d
00000110: 9203 f7bc deca 823c 0d6e 323d 0507 8e3d
00000120: d62f f9bd 724c 41bd ba0a e8bd 8d9a a6bd
00000130: 241f 9fbd 2414 b43d 17ce 32bd c429 ee3c
00000140: fe16 8fbd 0408 b6bd 6acc bf3c 309f efbc
00000150: fd78 87be cdb3 ce3c ab37 6abc e896 ac3c
00000160: 7eb5 cd3d 3be3 39bc 9ab2 2f3d ace3 28bd
00000170: 29fe b3bc 94d1 90bd 577c d8bc d3b8 c3bd
00000180: 5736 8a3c c5d2 803c 6381 153e 35b7 9a3d
00000190: 4c53 e93c b2da 7d3d 4b66 473d 8bb5 e83c
000001a0: 367e 46bd 4a88 1f3d e601 9f3d 951c 8f3d
000001b0: 932f 65bd 1dde 9bbd 7db0 2bbd c476 a23d
000001c0: 8c45 93bd d8f4 cfbc dfe8 cfbd 8ea5 8a3d
000001d0: 7e14 023d 5ab9 9bbd a795 c5ba c8f7 773d
000001e0: f58d a2bb 6410 7ebc d1d1 dabc 66b7 e43d
000001f0: d204 26be 6cdd 7b3d d435 633e f315 8138
00000200: b50e 263e 1eb4 b03d 41f6 b6bd 65a6 b83a
00000210: a187 973d f888 2bbe 93f3 24be 1060 883d
00000220: d758 863d 7847 78bd e609 64bd 3c1d 85bd
00000230: 1b87 433c 8a86 943d 3cdf 16bd 6591 cbbc
00000240: 84de 45bd 2338 b43c ceca dcbc 3547 903d
00000250: 93ac 62bd 7903 613d 208b e63c ddad 0ebc
00000260: 4db7 83bd ed56 6bbd 24b0 253d 0892 eabc
00000270: 4ed9 cb3d a5fe 1abc 15ce fc3d 2c7e 323b
00000280: 4851 c13d ba0c ff3c cb50 02bc 0cdf 8e3d
00000290: d491 ccbd d4a9 ea3d a808 183e b582 0bbd
000002a0: 3117 babd 430e 033d 7346 c7bd fe0d a33d
000002b0: 9437 953d 88df f83c 7227 383c d8cf 383c
000002c0: 894d a23d 4968 053e b708 7fbd 9e20 13bd
000002d0: fe57 3abd 7b1d 953d 3ab6 61bc cfbf 4cbd
000002e0: b0c8 0f3e bf54 0ebd 50b4 6ebd d4fc 9a3d
000002f0: 5291 2b3d 7214 a7bd 98d4 75bd dde3 38bd
00000300: f47a 41be dcaf 993c 006d 91be efbf b4bc
00000310: e30f 263c 1d29 00be da1b 91bc 4eb9 c63d
00000320: ef6b db3b c18a ab3d 8ed8 463d 1454 af3d
00000330: 6de8 693d e8a2 f73d adac d03d c3b4 393d
00000340: 82ca efbd a29c 0a3d 8c62 813c 4b5f b23d
00000350: 0263 273d f0f8 48bd 7fa4 543d fffd 0fbc
00000360: 10b2 1dbe b74a 86bd 653f c3bd cea4 623d
00000370: f675 3e3d 78c5 903b a1d9 0dbd 460c 1bbe
00000380: 17ee 8dbd 5f6d 27be 20c3 11be 95d1 6c3d
00000390: 39d8 0fbe 4a72 09be d73e 143a 9202 27bd
000003a0: 1954 7d3b 1545 7c3d b402 0dbe 0de7 a738
000003b0: dff5 063d a804 78be 3660 cc3d 590e 0abd
000003c0: 33b4 c0bd e469 d73b 0a04 d93d d8b3 a73d
000003d0: e0e1 7dbd f97e 83bd e1f7 093d 78ed 183d
000003e0: 7c63 8c3d bd2d 7f3d 0210 ac3d 9204 41bd
000003f0: bc4c d93c 5116 61bd e151 32bd 4a9e 95bd
0.08758328 -0.042599533 -0.022346506 0.11672156 0.002091906 0.06800208 0.051619682 0.09753368
0.02616635 -0.08873724 -0.039473258 0.0060128123 -0.08612258 -0.17941913 -0.04248735 0.053852275
-0.20214961 0.0030144204 -0.24231945 -0.057556003 -0.056762844 -0.28905502 -0.06314355 -0.13438234
-0.05935957 -0.008729203 -0.05296826 0.05318424 -0.04316592 -0.020686515 -0.024194185 0.06857692
0.051927596 0.014529892 -0.029740766 -0.010502507 -0.0025185444 -0.06369705 0.089352556 -0.06568848
-0.017150512 0.058105856 -0.050979286 0.007428057 -0.081879534 -0.07191041 -0.045087323 -0.14091337
0.037397772 0.05184676 0.024983902 0.021184871 0.044726197 -0.072063945 0.034418706 0.055464864
0.0017093484 -0.071531296 0.04805787 -0.07553934 0.10262227 0.14540088 0.038905732 0.09483224
0.047682393 0.05637407 0.05866549 0.045744155 -0.03015307 0.015965875 0.043561984 0.069349326
-0.12167327 -0.047192045 -0.11330171 -0.08134947 -0.077696115 0.08792904 -0.043653574 0.02907265
-0.06986807 -0.088882476 0.023412902 -0.029250711 -0.26459494 0.02523222 -0.014295499 0.021068051
0.100443825 -0.01134568 0.042894937 -0.04123275 -0.021971779 -0.07071224 -0.026426477 -0.09556737
0.016871614 0.015725503 0.14600138 0.07554475 0.028482102 0.061976142 0.04868154 0.028406879
-0.048460208 0.038948335 0.07764034 0.069878735 -0.055953573 -0.07610724 -0.04191636 0.07932809
-0.071909994 -0.025385305 -0.101518385 0.06769858 0.031757824 -0.076037124 -0.0015074507 0.060539037
-0.0049607703 -0.0155068375 -0.026711376 0.11167793 -0.16212776 0.06149046 0.22188503 6.155288e-05
0.16216548 0.086281046 -0.08933688 0.0014087675 0.07398916 -0.16751468 -0.16108541 0.066589475
0.065599136 -0.060615033 -0.055673502 -0.06499717 0.011934067 0.07252224 -0.036833987 -0.024849603
-0.04830791 0.021999424 -0.026952174 0.07044832 -0.05534036 0.054934952 0.028142512 -0.008708444
-0.06431446 -0.057455946 0.040451184 -0.028634086 0.09953557 -0.009460126 0.123439945 0.0027235849
0.09439331 0.031133998 -0.007953833 0.069761366 -0.09988752 0.114581734 0.14847052 -0.0340602
-0.09086455 0.031996023 -0.09730234 0.07961653 0.07285991 0.030380026 0.011239873 0.011280023
0.07924945 0.13028063 -0.06226417 -0.035919778 -0.045494072 0.072810136 -0.013776356 -0.04998761
0.140414 -0.03474879 -0.05827743 0.075677544 0.041886635 -0.081581965 -0.0600172 -0.045139182
-0.18894559 0.018760614 -0.28403473 -0.022064177 0.010135624 -0.12515683 -0.017713476 0.09703313
0.0066962163 0.083760746 0.048546366 0.085609585 0.057106424 0.12091619 0.10189185 0.045338403
-0.11708547 0.033840783 0.015794061 0.08709582 0.040865906 -0.04906553 0.05191469 -0.008788585
-0.15399957 -0.065572195 -0.09533576 0.05533295 0.046499215 0.0044180714 -0.034631375 -0.151414
-0.06930178 -0.16350316 -0.1423459 0.05781706 -0.14047326 -0.13422504 0.0005655116 -0.040773936
0.0038654862 0.06158932 -0.13770562 8.006217e-05 0.032949325 -0.24220526 0.09979288 -0.03370509
-0.0940937 0.0065739024 0.105964735 0.08188599 -0.06198299 -0.064207025 0.03368366 0.037335843
0.06854913 0.06229948 0.08401491 -0.0471235 0.026525848 -0.054952923 -0.043535117 -0.07305582

conv3.bias f4 [12]
00000000: ef2a 193e 0ed4 953c 1e57 18be 2ea4 02bd
00000010: 7d0a a33d 0b44 323d 0f0d 373d 1e91 483e
00000020: ef05 e63d 18b5 633e fbe8 a1bc 386a d03e
0.14957784 0.018289592 -0.14876983 -0.031894855 0.07960985 0.043521922 0.044690188 0.19586608
0.112316005 0.2223705 -0.019764414 0.40706038

fc1.weight f4 [24, 768]
00000000: dd94 eabc 39db 553b 3ac3 f83b 411f 54bc
00000010: ad2f 893b c3f7 ddbc a473 d23b 456f 0abd
00000020: d1a7 acbb bdc0 ea3c 9e8a bbbb 6d57 b7bc
00000030: c9c5 463c 0c2e bc3b 5689 7c3c 457c d43c
00000040: 5916 d3bc 66b9 da3b 4586 8bbb fa41 e73c
00000050: 1b6e 43bb ec8b 10bd 2e5d 1abc d91c eebc
00000060: 1123 bebb 6cbb 913c e10e 14bd 3325 dfbc
00000070: f7ef d539 f8b5 d83c 570c 143c 71be 683b
00000080: 2bd5 f3bb ce98 c93c 0aeb edbc 883c f5bc
00000090: 0c92 2cbd f1ea b3bc 48b4 023b 5df5 2bbd
000000a0: b279 913a 328c 29bd 8408 e93b 2b1a 073c
000000b0: 3206 a93c c7cd 203c 2829 db3c 3a7e a5bc
000000c0: 5682 3e3c 903b e93c 5f3f 98bb fa38 04bd
000000d0: 8f66 3fbc d757 523c 1a17 983b 47dd df3b
000000e0: d996 8a3c 9aa1 ccbc 6df2 54bc bb3f 4abb
000000f0: ffa5 0bbc a7cf 1dbd d0c2 29bd cf0b ac3b
00000100: be22 ba3b 5119 833b 1cd5 083c 6bd9 2d3c
00000110: 8c6c e93c e71b 20bd c2df 523c ae59 c1ba
00000120: bd70 983c 4a24 b4bc c225 85bb b860 25bd
00000130: 5078 fbbc b0a4 e6bc f1cd dfbb d05b bdbc
00000140: ac4d d13c f722 a5bb de7b 9fbb 647a c73a
00000150: eb69 353c ed5c da3c 03c2 583c f9eb 2d3c
00000160: 15cc 98bc afea a83b a7e9 2dbd a228 10bd
00000170: ffec 3dbc 84ef d93b 1b7e 4dbb 0fcc 13bd
00000180: cf05 eb3c 6454 1cbd 17b3 60bb 93c0 00bd
00000190: 2e57 b33c 0a58 23bc 8681 1fba a2f9 40bc
000001a0: 1958 35bb 7585 8b3c 2c2c e5ba f3e5 8ebc
000001b0: 6cea 1bbc 9ab5 d5bb 1652 d33c 25e1 9bbc
000001c0: 882e 933c 1d3f 99bc fdea adbc 3edb d3bb
000001d0: f3a2 febc 845e a4bc dd53 fe3b 5650 ecbc
000001e0: 8c1e 8dbc bdf6 2139 59fc 233c 0776 38bc
000001f0: 7b8c dbbc f56b 7e3c d32e 333a d792 e83c
00000200: d89f e0bc 9036 193c 1c37 48bc cb08 8bbb
00000210: f59e 12bd 423c 693c c293 1cbd 95c9 81bc
00000220: c2e6 f6bc e53f 2fbd 737a b93b 6994 b8bb
00000230: b056 adbc 4faa 40bc 0b30 cdbc 0f1a 3aba
00000240: 5245 dcbc 8319 0dbd 4789 f3bc 0697 bbbb
00000250: 197f 3a3c c5ca bd3c 8b8a 14bd 4a23 dd3c
00000260: 9c8c 413c 4271 ba3c 75b6 2dbc bf27 cfbc
00000270: 6a2a 10bd bd96 f1bb 93a2 093b a4b6 d0bc
00000280: 6df0 e13c da39 e9ba 08f8 ddbc e04f adbc
00000290: 2da9 383c 1d6b c93c 23bd e43c 84b9 06bd
000002a0: 697d 183c 7c1a cd3a f583 ffbc b010 cbbb
000002b0: d7e5 6b3c c4f3 523b 7a4a 2ebd 5b83 0ebd
000002c0: fd8a 01bb 246a 29bc 3766 3dbb dc75 483a
000002d0: 28fb aa3c c6d9 64bc 4f90 093c 3002 ebbc
000002e0: 594c 23bd d27c 9fba 69df 2e3c e410 ba3c
000002f0: 1067 2ebd b177 31bd edd9 7fbc 75bd a33c
00000300: 0962 81bc 26ba dfbc 60ba 88bb a612 8ebc
00000310: fcb6 903c 5c8e b8bc 2bf7 94bc 8111 e43c
00000320: 6abc 96bc c137 2f3b a3bb 85bc b718 b63c
00000330: 8b22 913c 5717 28bc 0df2 d43c 97b6 24bc
00000340: 10c9 683b 0fe2 38bc 8428 b6bc 9761 febc
00000350: cbaa e53c 3ff8 2fbc f5eb d43c b387 9f3c
00000360: c7d2 d43c 374f c9bb 0a3e d73c abf0 383c
00000370: c4ee 613c 3d20 043c 29ea f5bb f2ed 27bd
00000380: 1b88 f43c 9d6f 853c 4ddd 0abc 8c95 853c
00000390: d92b 863c 88a9 47bb 3bb7 823c 41ad d2bc
000003a0: 8b8d c03c 2dd7 87bb 55f8 d9bc c9ad 44bc
000003b0: 1d07 563b cebc e5bc f8e3 92bc c00c 1d3c
000003c0: 34ea dbbb 65ec 353c c53a 98bc 66a0 de3c
000003d0: 68c6 f7bc f72b 05bd d7dd e1bc 2d5b 48bb
000003e0: 1b47 b4bc 5a2b 40bc b6ca b53c 8f44 07bd
000003f0: 57e8 8dbb 4285 ad3c bf9b b73c 3dc5 5cbb
-0.028635437 0.0032631888 0.007591632 -0.012946905 0.0041865916 -0.027095681 0.006422477 -0.03379752
-0.0052690287 0.028656358 -0.0057233116 -0.022380555 0.012132117 0.005742794 0.015413603 0.025938163
-0.025767492 0.0066749332 -0.0042579495 0.028229702 -0.0029820267 -0.03528969 -0.00942163 -0.02906649
-0.00580252 0.017789565 -0.036147002 -0.027239418 0.00040805314 0.026453957 0.009036145 0.0035513903
-0.007441183 0.024608996 -0.02904274 -0.02993609 -0.04213147 -0.021962615 0.0019943882 -0.041982044
0.001109889 -0.041393466 0.007111611 0.008245985 0.020632837 0.009814686 0.026753023 -0.020201791
0.011627754 0.028470784 -0.0046462263 -0.0322809 -0.011682167 0.012838325 0.004641426 0.0068317982
0.016917633 -0.024979401 -0.012997252 -0.003086074 -0.008523463 -0.03852811 -0.041445553 0.005250431
0.005680411 0.0040008207 0.0083515905 0.0106109185 0.028494142 -0.03908911 0.012870731 -0.0014751458
0.018608445 -0.02198996 -0.004063339 -0.04037544 -0.030697018 -0.028154701 -0.00682997 -0.023115069
0.025549732 -0.0050395685 -0.004867061 0.001521897 0.011072616 0.026655639 0.01322985 0.010615342
-0.018652001 0.0051549296 -0.042459156 -0.035195 -0.011592149 0.006650867 -0.0031355682 -0.036083277
0.028689293 -0.03816642 -0.0034286433 -0.031433653 0.021892156 -0.009969721 -0.0006084669 -0.011778267
-0.0027670918 0.01703141 -0.0017484478 -0.017443633 -0.00951634 -0.0065218927 0.025795978 -0.019028256
0.017966524 -0.018706853 -0.021230215 -0.0064653447 -0.03108356 -0.0200646 0.007761462 -0.0288469
-0.01722648 0.00015446074 0.010008895 -0.011258609 -0.026800385 0.015528669 0.00068352855 0.028390331
-0.02741997 0.009351388 -0.01222017 -0.0042429916 -0.035796124 0.014235558 -0.03822685 -0.015843192
-0.03013933 -0.042785544 0.005660349 -0.0056329262 -0.0211595 -0.011759355 -0.025047323 -0.000709922
-0.026888523 -0.034448158 -0.029728545 -0.0057247905 0.0113828415 0.023167977 -0.036264937 0.026994366
0.011813309 0.022759084 -0.010602583 -0.025287507 -0.0351967 -0.0073727057 0.0021001443 -0.025477715
0.027580464 -0.001779373 -0.02709581 -0.021156251 0.011270803 0.024587208 0.027922219 -0.032891765
0.009307244 0.0015648152 -0.031190852 -0.0061970577 0.01439806 0.0032188753 -0.042551495 -0.03479324
-0.0019766681 -0.010340247 -0.0028900036 0.0007646957 0.020871714 -0.013967937 0.008396222 -0.028687567
-0.039867733 -0.0012167937 0.010673382 0.022713132 -0.042578757 -0.043327037 -0.015615922 0.019987801
-0.015793817 -0.027310442 -0.0041726083 -0.017342877 0.017665379 -0.02252882 -0.018184265 0.027840378
-0.01840039 0.0026736113 -0.016324824 0.022228582 0.017716667 -0.010259471 0.025994325 -0.010053298
0.0035520233 -0.011284365 -0.022236116 -0.031052394 0.028035542 -0.010740339 0.02599142 0.019473886
0.025979413 -0.0061434763 0.0262747 0.011287848 0.013789836 0.008064327 -0.0075047207 -0.040998407
0.029850056 0.016288573 -0.008475614 0.016306661 0.01637833 -0.0030466039 0.015956512 -0.02571738
0.023504993 -0.004145524 -0.026607672 -0.012004324 0.0032658048 -0.02804413 -0.01793097 0.009585559
-0.006711269 0.011103724 -0.018582711 0.027176093 -0.030245975 -0.03251263 -0.027571602 -0.0030571923
-0.022006562 -0.011729086 0.022191387 -0.033024367 -0.0043306756 0.021181706 0.022413133 -0.00336869

fc1.bias f4 [24]
00000000: 5978 e03c f876 2cbc a726 96bb ad17 893d
00000010: e3e8 103e 3530 bdbd d1c9 07be b224 17bd
00000020: 0c39 97bd 7f2c d83a 77f5 a33c 7d96 96bb
00000030: f350 6dba 8fea 07be f2b1 4abd 9f59 af3b
00000040: 94f8 fc3d 8869 293c f6da 143e 931b f0b8
00000050: c6f3 ca3c 5588 19bd 504f 23bb 5d62 a43c
0.027401136 -0.010526411 -0.0045822444 0.06693969 0.14151339 -0.092377104 -0.1326058 -0.03690023
-0.07383928 0.0016492753 0.020014508 -0.0045955763 -0.0009052895 -0.13273071 -0.049486108 0.00535126
0.123521 0.010340102 0.14536652 -0.00011449228 0.024774443 -0.037483532 -0.00249191 0.020066435

fc2.weight f4 [768, 24]
00000000: 7868 69bd 788b ac3d e61d 453e 691f 0fbb
00000010: 4b23 debc a540 473d b112 753d b9e1 30be
00000020: b9b7 9f3c f048 733d e065 babb 7d55 15be
00000030: 4fd6 47be 029c ccbd fc9e e0bd a09e 843d
00000040: 7206 16be 40b7 4e3e e3c3 92bd 31f9 34be
00000050: 4070 0e3e c62a 0b3e e0fd 91bb 289c fb3d
00000060: 900c 313d 708a 033c 54c7 49bd b289 f73d
00000070: d293 973e 8a06 4c3d 922a 7dbc 1488 be3d
00000080: 8c75 deba 4ce3 e83d 5c7e 9a3d bfd3 e63d
00000090: 66ee df3e cb08 313d 7181 f13d 62a2 293e
000000a0: b2cd 873e 651c b3bd ab4d 5c3d 40b4 1a3c
000000b0: dcd1 303e 3a52 d4bd 9c0e 2f3e dc68 16be
000000c0: d457 c13d d869 403e be4e 243e 32b6 e7bd
000000d0: 1d45 99bc 3f33 9f3d b38e 5dbc 6e90 3a3e
000000e0: 4222 5e3d 4085 053d 002c 1fbc 04a9 8e3d
000000f0: fd10 b2bc 479a 1ebe 1e8f 163e 9541 2fbe
00000100: 8bc9 2abe b8e7 963c cb41 efbd 2c96 15bd
00000110: 383f 2f3e b061 58bc eac8 1d3e 149e 0f3e
00000120: 2437 3ebd 30f3 0e3c 204f 3f3e 2717 45be
00000130: 921f 793b eaa5 363c 5d32 92bd 08c7 cebd
00000140: 1c28 87be 4017 fbbc 07e6 37be c38c 40be
00000150: fb96 d9bd 5a9f c3bd f855 2bbd 8dd1 4bbe
00000160: 2f0f 16be 63e7 37be c32f 573d 181c fa3d
00000170: 470e c3bd f4a5 38bd 74c8 413e 827d 093e
00000180: 12b9 d3bd 44ea ff3c 9ad3 debd 89ae bbbd
00000190: d2b5 113e 9db7 703c c3e1 f0bd 253f 34be
000001a0: feff e8bc 511c d3bd d053 55bd 5399 01bd
000001b0: 0c55 733e 8699 ea3c bab4 2c3e ed89 d8bd
000001c0: b43f 3a3e 6a6b 1c3e 1f4c 313d a53e f4ba
000001d0: 9ce9 483e 0144 c5bd 84f7 1a3e 1f5d 653d
000001e0: 34f5 3a3e 2077 3dbe f06c 193d b009 d33d
000001f0: c2bb 5c3e 31bb f73c 198c 2abd a42e 043e
00000200: 0150 153d aa41 233e c04d 6f3d c0ce fabc
00000210: b801 193d 546f 36be 0025 e7bd 4ad8 18be
00000220: a5a1 b13e 3172 0cbe 559a d73d f86e 183d
00000230: 80a5 19bb 20ff ef3b 68a8 af3d 33ac f8bd
00000240: 643a f2bd e07e 70bd 9a9b 093e b10c f03d
00000250: d698 8b3e b2b0 893a a235 943d beb9 3fbe
00000260: 6141 51bd 2152 b8bd 4348 ffbd 5d9e f2bd
00000270: c1b8 133e 6dd9 54be 86ee 26bc f2e3 073e
00000280: fa81 6f3e 26b5 353e 24f7 963e 1d5d ddbd
00000290: f405 9f3d c53e 11be 4470 023e e073 47bd
000002a0: bf8d d43d ee20 ecbd b1bf 573d 884a bb3d
000002b0: 1c51 173e 2801 bfbb a934 48bd 2dcc 133e
000002c0: b5a8 b93d b09a 073e 0ce0 773d 7d84 15be
000002d0: 7ed3 a03d 1d0b 33bd 3277 bbbb c1a0 273e
000002e0: 9dfd 4c3e e87b 44be a6f0 013e f8d9 27be
000002f0: cfda 46be 5ed9 6bbc 3dcb 19be 9571 dd3d
00000300: 3e23 24be 0217 4a3e 9285 17be 0f58 093d
00000310: eaed 96bd 477f 923d 521c 86bb 2067 773c
00000320: 4953 9fbc 8c41 5dbd f4e1 f03d 961d 333e
00000330: d23e 21be dbe0 08be 95cb 863c 1c58 483e
00000340: 31b5 dd3d abcf d7bd 446f 65be a878 373d
00000350: acf4 cb3d 926d 1f3e ccfe 84bd 04c1 ab3d
00000360: d565 76bd 4848 243e 43cd 47be fc0d 083d
00000370: b391 b63d 6624 a83d 1f9c 9b3d c8cc c7bc
00000380: 26c4 6a3d 5fbf 053e f0bf 0c3d db79 a83d
00000390: c4b1 893e dcbf 46be 4c45 383e 5e87 aebb
000003a0: 771b 6b3e 8f4e 403e 77c5 803d b0d5 89bc
000003b0: 61fd bb3d cb39 26bd 36c4 4fbd c7a0 863d
000003c0: bc17 243d a62c 4e3e 3b42 17be 1713 07be
000003d0: 00e0 b8b8 5093 223c 7dfe 13be 235e c1bd
000003e0: db5d 01be d8d1 4a3e 06dc 83bd fa3d 16be
000003f0: ac10 bcbd 808c c73b 3427 033d 8a36 1ebe
-0.056984395 0.08425039 0.19249687 -0.002183879 -0.027116438 0.048645634 0.05983228 -0.17273606
0.019496785 0.05939573 -0.005688414 -0.14583392 -0.19515346 -0.09990694 -0.10967824 0.06475568
-0.14650896 0.20187092 -0.07166269 -0.17673184 0.13910007 0.13590536 -0.004455313 0.12285644
0.04322487 0.008028612 -0.04926236 0.1208681 0.29604965 0.049810924 -0.015452044 0.093032986
-0.0016972288 0.113714784 0.075436324 0.11270856 0.4373657 0.043221276 0.11792267 0.1656585
0.2652412 -0.0874565 0.053785007 0.009442389 0.17267555 -0.10367246 0.17095417 -0.14688438
0.0944058 0.18790376 0.16045663 -0.11314048 -0.018709714 0.07773446 -0.013522792 0.18219158
0.05423189 0.03259778 -0.00971508 0.06965831 -0.021736616 -0.1548854 0.14703032 -0.17114861
-0.16678445 0.018421039 -0.11682471 -0.03652017 0.1711396 -0.013206884 0.15408674 0.14025146
-0.046439305 0.008724973 0.18682528 -0.19247113 0.0038013202 0.011147955 -0.07138512 -0.10096556
-0.2639779 -0.030650735 -0.17958842 -0.18803696 -0.106245 -0.09551878 -0.041830033 -0.19904156
-0.1465423 -0.17959361 0.052535783 0.1221239 -0.095242076 -0.04508014 0.18924123 0.13426784
-0.10338034 0.031239636 -0.108802035 -0.09164149 0.14229515 0.014692214 -0.11761811 -0.17602213
-0.02844238 -0.10308135 -0.052081883 -0.031640362 0.23762912 0.028637659 0.16865817 -0.10573182
0.18188363 0.1527535 0.043285485 -0.0018634392 0.19620365 -0.09632111 0.15133482 0.05599701
0.182576 -0.18502474 0.037457407 0.10304582 0.21555999 0.030240627 -0.041637514 0.12908417
0.03645325 0.15943018 0.058423758 -0.030616164 0.037355155 -0.17815906 -0.11286354 -0.14926258
0.34693637 -0.13715436 0.105274834 0.037215203 -0.0023444593 0.0073241144 0.08577043 -0.121422194
-0.118275434 -0.058714747 0.13438264 0.11721171 0.27265042 0.001050493 0.07236792 -0.18723199
-0.05108774 -0.0900004 -0.12464955 -0.11846612 0.14425947 -0.20786066 -0.010188704 0.13270548
0.23389426 0.17744884 0.29485428 -0.108087756 0.07764807 -0.14184101 0.12738138 -0.04869449
0.103785984 -0.11529718 0.052673046 0.09145075 0.14777035 -0.0058289953 -0.048878346 0.14433356
0.090653814 0.13242602 0.060516402 -0.14601322 0.07852839 -0.04371177 -0.0057209963 0.16369916
0.20018621 -0.19187891 0.12689456 -0.16391742 -0.19419406 -0.014395086 -0.15018936 0.1081268
-0.16029069 0.1973534 -0.14797047 0.033531245 -0.07369597 0.071531825 -0.0040927315 0.0151002705
-0.019448893 -0.05401759 0.11761847 0.17491755 -0.1574662 -0.13367026 0.016454497 0.19564861
0.10825575 -0.105376564 -0.22405726 0.0447928 0.09958777 0.15569142 -0.06493911 0.08386424
-0.06015571 0.16043198 -0.19511895 0.03321646 0.08914509 0.082100675 0.07598137 -0.02438964
0.057315968 0.13061284 0.034362733 0.08226367 0.26893437 -0.19409126 0.17995185 -0.0053261956
0.22959696 0.18779968 0.062876634 -0.016825527 0.091791876 -0.04058246 -0.05072423 0.065736346
0.040061697 0.2013422 -0.14771359 -0.13190876 -8.815527e-05 0.009922817 -0.14452548 -0.09441783
-0.1263346 0.19806612 -0.064384505 -0.1467208 -0.091828674 0.006089747 0.03201981 -0.15450493

fc2.bias f4 [768]
00000000: f5fa aebd 9f32 c1be 320d 0dbe 4f38 23be
00000010: b53b 86be b131 8a3d 7d28 18bf 4dc5 dc3e
00000020: 25b1 33be bfc9 d9bd 63a2 f0bd a001 febe
00000030: aff1 8bbe 1a92 2f3b 7261 603c 7ed4 7e3d
00000040: c898 c1bc 625b 9abe 56e4 8dbe 48ca 973e
00000050: 93eb 59be 9a30 ae3d 7441 49be 25fa 6bbe
00000060: 9d0d 38be 2871 7e3d 8778 2bbe 1f66 1c3c
00000070: 6c6d 8d3d 603b 003e 9f92 59be f763 d9bc
00000080: 8ebc 31bf 58fd 0dbe f22a 36bd 7c6a 023f
00000090: d11c d5be fb6b c23d 8e02 ffbe 3872 80be
000000a0: 0adb 46be 4020 d83e 5e5b 913e 1512 f53e
000000b0: 9ee8 b73e f2a2 2bbe 41a0 673d 7b9f d9bd
000000c0: 62ed 143e 2d82 4d3e 2337 9f3e 8c4c 473f
000000d0: ec06 9a3e baad 57be d18b cebd e19f 763d
000000e0: 392e 813e 290c c93d dd94 923d c1f9 663e
000000f0: 2ff3 41be 6866 c2bf 2dfc 4bbd da77 043e
00000100: b66d ed3c 75cd 723e e9ff 1c3e a21f 00be
00000110: c803 133e 92e0 80bd 03d6 2cbe d708 903e
00000120: e826 5fbd 1897 113e f0bc 8f3d 1a59 c63e
00000130: 779b 65be 4c76 0a3e 7e07 22bd d631 b1be
00000140: 7d43 7bbe 5b93 61bc fcf4 97bd 2aa0 543f
00000150: 208c bbbe 3bf9 a1bc c60c ecbd eb80 8fbe
00000160: a144 d7bd b962 ba3c da48 0d3e 8eae c03e
00000170: 5ebf 58be 5262 7cbe 89f4 bfbc 9fe3 60be
00000180: 94a9 cfbd a4c5 9fbd 0203 163e 2f87 ba3e
00000190: b77b a43e 67fc 2a3e 5185 94bd a929 42bc
000001a0: ec75 0f3e 83dc 12be b34c 9dbd 51c3 403e
000001b0: 1d72 913e 2fae 733b 16a6 27bc fcbd 13bd
000001c0: 196a babd d722 04bd 2ebe 10be 8337 1d3e
000001d0: 7362 523f b2d1 27be 6c33 8cbc ee92 35be
000001e0: 29f2 8dbd 2ff5 373d 6613 b63e 20f0 ddbd
000001f0: 71d6 d2bb 7523 22be 4064 f3bd 55f1 0bbe
00000200: 053d 3ec0 0b7d 6dbd 88e9 64be 4a8b 763d
00000210: ce7a a9bd 5c19 babe 1c4c db3e 1eb9 37bf
00000220: 0264 6bbe 5c71 4cbd 7753 b23e ff8e 813e
00000230: 7aaf 83be 34ac bf3d caa4 8b3d 5403 a3be
00000240: 7f16 cebf f131 7a3d 47bd f1be 82e1 163f
00000250: ff6c fa3d d1f2 7b3e 7f27 a4be 5d95 c4be
00000260: 1a0a 653d d540 09bd f87f a83e 5465 15be
00000270: 51c7 403e 4f8f 13bf ae01 78be 30b5 303e
00000280: bc1a f43c 7b1b 153f ca49 253f eae0 60bd
00000290: e220 213f 9fff 153f 13c9 60be d781 1fbd
000002a0: 319b 6abe 32da ae3d 85c6 01be 2888 9cbd
000002b0: f4e8 483d fafa 50bd 8e1e dc3d 5a1f a13d
000002c0: 31fb 8dbd b26a 1bbd 8f8b febd 1adf f0be
000002d0: 4009 83be 6cea 68bd aa58 443c 5012 88be
000002e0: cf90 eebd 4cbf 32be 047c 17be 2f6b 6a3e
000002f0: f843 e93e 5109 423e a380 3c3e d6d5 b43e
00000300: 97f0 ab3d 6b55 32be ecdd 23bd dd9b cd3d
00000310: b32e 973d 5982 d73d bec2 31bc 2191 2fbe
00000320: 84af 13be efc3 80be f80c 3f3d 2246 d73b
00000330: 65d5 3d3d 5679 32be 83ae 9bbd beef eebd
00000340: db93 f73c 7c52 833d 2c4b bc3d 429b 3f3e
00000350: 96bd 183d 4f61 bf3d 5507 c33c ce23 aebf
00000360: 5730 983d 8411 32be 412b 8d3d bac0 8f3e
00000370: 3dfd 7b3e a4a6 36be cd8b 95bd 5459 a53d
00000380: 9e7b 6fbe df0d 00bf e10a 16be 29ae 913e
00000390: 67a3 ce3e 5710 0bbe b50f b5bd 9953 45be
000003a0: 73c3 533e ed59 47be ed6c 823e 3b32 cc3e
000003b0: 3a4c 723e 79e0 323e d714 81be 0520 83bd
000003c0: f5c1 c4bd 53e3 5ebe 5e67 cabd f8fb 11bf
000003d0: 54d2 11bf 9e6f 76bd 7b4a 19be 2a25 40be
000003e0: 6e18 7abd 3001 cf3b 46d1 6bbe 8840 7a3e
000003f0: 368d 9f3d 5fce 2cbe 5c64 b33d d933 463e
-0.0854396 -0.37733933 -0.13774565 -0.15939449 -0.26217428 0.06747759 -0.5943678 0.4311928
-0.17548044 -0.10634183 -0.11749723 -0.49610615 -0.27332827 0.0026789964 0.013695108 0.062214367
-0.023632422 -0.30147845 -0.2771327 0.29646516 -0.2128127 0.08505364 -0.19653875 -0.23044641
-0.17973943 0.062119633 -0.16745196 0.009545832 0.06905636 0.1252265 -0.21247338 -0.026536925
-0.69428337 -0.13866174 -0.04447455 0.5094373 -0.41623548 0.09493252 -0.49806637 -0.25087142
-0.19419494 0.42212105 0.2839002 0.47865358 0.3591966 -0.16761377 0.056549314 -0.106261216
0.1454368 0.2006919 0.31096753 0.77851176 0.30083406 -0.21062365 -0.100852616 0.060211066
0.25230578 0.098167725 0.071573 0.22556211 -0.18940423 -1.5187502 -0.04980104 0.12936345
0.028982978 0.23711188 0.15331997 -0.12512067 0.14356911 -0.062928334 -0.16878514 0.28131744
-0.054480463 0.14217794 0.07018459 0.38739854 -0.22422586 0.13521689 -0.039557926 -0.34608334
-0.24537463 -0.013768042 -0.07419774 0.8305689 -0.36630344 -0.019772163 -0.11525874 -0.28028044
-0.10511137 0.022752153 0.13797322 0.37633175 -0.21166751 -0.24646881 -0.023432033 -0.2196183
-0.10139766 -0.07801369 0.14649585 0.36431262 0.32125637 0.16697846 -0.072519906 -0.011850753
0.14009827 -0.14341931 -0.07680645 0.18824507 0.28407374 0.003718268 -0.010232469 -0.036069855
-0.09102268 -0.03225979 -0.14135048 0.15353207 0.8218147 -0.16388586 -0.017114364 -0.1773183
-0.06930954 0.04491156 0.35561675 -0.10836816 -0.006434255 -0.15833838 -0.118843555 -0.1366628
-2.9724743 -0.05798058 -0.2235471 0.06019143 -0.08275376 -0.36347473 0.42831504 -0.7176684
-0.22987369 -0.049912795 0.34829304 0.2530441 -0.25719815 0.09359017 0.068185404 -0.31838477
-1.6100615 0.061082784 -0.4721472 0.5893785 0.122278206 0.24604346 -0.32061383 -0.38395205
0.055917837 -0.033509094 0.32910132 -0.14589435 0.18826033 -0.57640547 -0.24219391 0.17256618
0.029797904 0.58245057 0.6456572 -0.054901995 0.629408 0.5859317 -0.21951704 -0.038942184
-0.22910763 0.08537711 -0.12673385 -0.07643157 0.049050286 -0.0510206 0.10748015 0.07867308
-0.069326766 -0.03794355 -0.124289624 -0.47045213 -0.25592995 -0.056864187 0.01198403 -0.2657647
-0.11648714 -0.17455786 -0.14793402 0.2289245 0.4555967 0.18948866 0.18408446 0.35319394
0.08395498 -0.17415397 -0.040006563 0.10039494 0.07381954 0.10522909 -0.010849653 -0.17145206
-0.14422423 -0.25149485 0.046643227 0.00656964 0.046346087 -0.17429098 -0.07601645 -0.11666821
0.03022187 0.06412217 0.091940254 0.1871157 0.03729018 0.09344732 0.023807207 -1.3604677
0.07431095 -0.17389494 0.06893016 0.28076726 0.24608321 -0.17837006 -0.073020555 0.080736786
-0.23387 -0.50021166 -0.14652587 0.28453186 0.4035904 -0.13580452 -0.088408865 -0.19270171
0.20680027 -0.19467898 0.2547373 0.39882073 0.2366189 0.17468442 -0.25211212 -0.064025916
-0.09607307 -0.21766405 -0.09882997 -0.570251 -0.5696156 -0.06016504 -0.14969818 -0.18764177
-0.061058454 0.0063172802 -0.2302905 0.24438679 0.07790606 -0.168756 0.087593764 0.19355716

deconv1.weight f4 [12, 12, 1, 1]
00000000: 8728 d6bd 0f70 843d 8fbf fcbd 0a0b 5c3d
00000010: 0c42 3e3e 63d7 5d3e 9da0 983d fb6e 443b
00000020: 42e6 143d 0ecc a23e 7411 bbbb efda 0bbf
00000030: 58e1 ad3e aba8 9a3d d7e3 973e 9b22 5f3e
00000040: 3765 2a3e 9b60 5d3e 3ea8 913c 7607 ac3e
00000050: 229c 84bd caf3 f6bd e062 b13d 882d c5bc
00000060: 32f5 993e 70a1 abbe 36f7 4b3e b6cd 07bd
00000070: 3ea3 81be e879 c33b 8bce 5abe de5a b33e
00000080: e1dc c0bd 5b11 b8bc aa41 40bd f413 093e
00000090: 73b5 d1bc 1864 f5bd 4714 6fbe 5e65 393e
000000a0: 5b42 d53e 4624 863e d5a4 b53b e54f 2b3c
000000b0: a137 09be ae83 55bc 568c de3c 62f8 a7bd
000000c0: 565a 183c 2436 35be 9a31 eb3d 39dc 11be
000000d0: 8abe 06be 7c97 a8bd b040 46bd b3ff 3ebd
000000e0: 746f 5dbb 6fad d93e 07e2 0c3c f52a 5dbd
000000f0: 8800 cebe b563 93be 3393 423e f88b 383e
00000100: dff7 1cbe c624 c8bd 061a 93be 3e96 8e3d
00000110: bf5e b83e d9e0 8439 83b0 433e ed0e debe
00000120: f3a4 02be c90c 75be 670b 0dbe 9a87 6abe
00000130: e95d 99bd 0ee8 5f3d 856b 9fbd 3976 c53c
00000140: 3922 0cbe ba9c df3e 4e87 3cbe 3c8b 04be
00000150: 4d8b 5c3e e7d0 8e3e 9a50 2dbf 9dd8 31be
00000160: 9d93 ccbe 7a0e 9ebd 4a86 913d 2933 e0be
00000170: e4da dfbe a8f7 f73d 3bf6 4ebd 06dc 983c
00000180: 8e3c 31be 519f 783e 6d98 d6be 4135 b23e
00000190: eb67 48be 4406 3d3e 90e6 f23d db3a 7dbe
000001a0: 365e 1abe 75b5 babd 5a8e 5c3e 78e5 a4be
000001b0: ec47 5abd 01ad 883e 2804 9b3d fcb0 7c3e
000001c0: 5bd8 643e cf66 0e3e be6d 003e 04e7 6fbe
000001d0: 3c7f 243e caa9 8a3b 8687 0f3e d8a7 68be
000001e0: 19bc 153c 91d2 0d3e f604 73be 3d6e 393e
000001f0: 9af6 6c3e a13b a23d d9c1 a53d 0971 79be
00000200: 090a 04bf 12ed c7bd bbc5 343e b579 8c3e
00000210: 550d 89bc 73a1 b53e ddf5 27be 47e0 de3d
00000220: 5d1a c2be 42d7 75bd d2a9 1c3e 6e5d a5be
00000230: 695d 46bd c763 15bd b2a7 3d3e a63a a03e
-0.10456949 0.06466686 -0.123412244 0.053721465 0.18579882 0.21664195 0.074525096 0.0029973376
0.036352403 0.31796306 -0.0057088677 -0.5463094 0.33960986 0.07551702 0.29666016 0.21790545
0.16640173 0.21618883 0.01778042 0.33599442 -0.064750925 -0.12058218 0.08661437 -0.024069563
0.30069882 -0.33521605 0.19918522 -0.033155166 -0.25319856 0.00596546 -0.21367852 0.35030264
-0.09417129 -0.022469213 -0.046937622 0.13386518 -0.025599217 -0.11981982 -0.23347579 0.18105075
0.41652188 0.2619955 0.005543331 0.01045606 -0.13400127 -0.013031883 0.027166527 -0.08201672
0.0092988815 -0.17696434 0.1148407 -0.14244165 -0.13158622 -0.08232018 -0.048401535 -0.046630573
-0.0033788355 0.42515132 0.008598811 -0.053996045 -0.4023478 -0.28787008 0.19001465 0.18022144
-0.1532893 -0.09772639 -0.28730792 0.0696225 0.36009786 0.00025344527 0.19110303 -0.43370762
-0.12758236 -0.23930658 -0.13773881 -0.2290329 -0.07488615 0.054664664 -0.077841796 0.024104225
-0.1368493 0.4367426 -0.1841099 -0.12943739 0.21537514 0.27893755 -0.67701113 -0.17367788
-0.3995637 -0.07717605 0.07105692 -0.43789032 -0.43721688 0.121077836 -0.050527792 0.018659603
-0.17308256 0.24279524 -0.41913167 0.34806255 -0.19570892 0.18459421 0.118603826 -0.24729483
-0.15075001 -0.091166414 0.21538678 -0.3220632 -0.053291246 0.26694492 0.07569152 0.24676889
0.22348158 0.13906406 0.12541863 -0.23427969 0.16064161 0.004231666 0.14016542 -0.22720277
0.009139084 0.13849856 -0.23732361 0.18108459 0.23140946 0.079215296 0.08093614 -0.24359526
-0.5157781 -0.097620144 0.17653553 0.27436605 -0.01672999 0.35474738 -0.16402383 0.10882621
-0.3791074 -0.06001974 0.15299156 -0.32297844 -0.048428927 -0.03647211 0.18521002 0.31294745

deconv1.bias f4 [12]
00000000: ff40 1bbe 9db8 943d a5c8 333d 94b7 5abe
00000010: a06d 823d dd60 563d 5afa 0fbf c3ab f5bd
00000020: 3c6a b4bd a6fc 5f3e ab4a 99be ba37 063e
-0.15161513 0.07261775 0.04389252 -0.21359092 0.063685656 0.05233847 -0.5624138 -0.119956516
-0.08809325 0.21873721 -0.2993978 0.13107195

deconv2.weight f4 [12, 6, 2, 2]
00000000: 3f03 0e3d 57fe dc3c 80f6 343e 458e 2c3e
00000010: 43c5 a13d 09bf 993d 586c 2b3e f69f 283e
00000020: d3c5 30bc b0b9 2ebc f6ff db3d 8ff1 d93d
00000030: ab7b 023e c991 043e a006 8d3e d201 8e3e
00000040: 719c 7d3e d554 33be 1402 c7bd f9f1 49be
00000050: 6677 053e a2fe 023e 3252 643e 535e 5e3e
00000060: db87 983e aea4 9a3e 7801 233e 9c2d 243e
00000070: a0ff da3d a52f e33d a781 a83c 814c a73c
00000080: 057e 903e 8550 8c3e 5552 433e 5e79 3a3e
00000090: 9d2b 953e 5941 903e 2194 233e 4681 173e
000000a0: d13d b63d c0b5 b13d 4f5c eebd 6333 603e
000000b0: cae7 a93d 71a3 9c3d 4feb 60bb cfa2 0bbc
000000c0: ff3c 4f3e 5b3a d53e 7ac1 c63d 83be b33e
000000d0: d0ad 7abc 8d5c 013e 3198 d7bd 27de 7a3d
000000e0: 06c0 363e b912 de3e 9633 ea3d 2955 c63e
000000f0: 97c8 11bd 9d8a ab3e 721f 4bbe fde4 2e3e
00000100: 3b84 f93d 6509 e3bd c214 a0bd 94d7 c8be
00000110: c9c6 2e3e 1efa c73e 1dab 9e3d 14ae 933e
00000120: 8ca0 4abb f947 3dbc cc49 943d 2133 5b3d
00000130: 44d9 013e da00 013e 3a7b 2e3e 62d6 263e
00000140: 8082 443d 82bc 2f3b fcb9 1d3e cd1e e03d
00000150: ef05 d63d c94a 493d d408 813e b91b 4b3e
00000160: 1ff9 8cbe 3c25 46bd 7eab a63d 9507 01be
00000170: 78a5 0b3e b3a6 c73d 1c46 663e 472a 3f3e
00000180: 3be4 903e 9ad2 923e 92b5 e1bc 4277 c9bc
00000190: 07a3 043e 4993 083e 8adb 86bd bf42 8ebd
000001a0: f2ff cd3e b4ee d03e a814 363e 6f59 393e
000001b0: ffd2 313e b1ad 3b3e db65 00be 5bd3 00be
000001c0: cc9b a03e 44af cd3c be37 5ebe 08ab 943c
000001d0: c568 093d 00e4 113d 3e26 27be cb78 22be
000001e0: c33f 9ebc be9a 62bc 8155 1a3e 01d0 2a3e
000001f0: 356d 883b 8696 793b 0f41 e93d 6793 ff3d
00000200: b5a3 a1bd 8f25 50bd 28e2 d13c 1114 5d3d
00000210: e202 993d 3d8c dc3d 5951 4c3e ee67 723e
00000220: 1e3e 08be 2eca cfbd dba3 a2be ea07 72be
00000230: c22c b23d bbc6 e63d 8e1d 2f3e a488 463e
00000240: dd3f c53d e7da b73d e819 fb3b 24b3 92bb
00000250: e093 c83d cadd c83d e130 183d 4720 e23c
00000260: b395 3a3e 3cac 3e3e 2645 d13d 34e4 d53d
00000270: 8dec ae3c ae25 063d 098e bbbd 4805 b5bd
00000280: 519c e8be 2bbe 80bc be1c 49be 60ea e23e
00000290: 917b 9e3d 937f a03d eb8a 84bb c07e 8fb9
000002a0: a14f 113e 68f3 aebd 346a 403d 0630 63be
000002b0: 97a8 3f3e ae80 1f3d d085 1b3e b4ef cdbc
000002c0: 73c2 6f3e 0fb3 18bd 9281 173e 0f76 0fbe
000002d0: 9725 be3e 1e5d aebc 4c22 a83e c405 83bd
000002e0: 39db 88be dce9 36bd a4c3 c93e 2141 3c3e
000002f0: bae6 32bd 0aac 8dbe ee9e afbd 184e 9dbe
00000300: 86dc c73e f312 c73e 654f 3e3e 20c5 433e
00000310: f8a8 603e 437a 603e fad5 b23d 310a b73d
00000320: 568f fc3e ae30 033f 360e ae3e eb15 b63e
00000330: bdad ca3e b075 d73e 3908 333e 0de5 463e
00000340: 634f 2e3f 556f 713d 77ad 553f 9fc3 0d3f
00000350: e59a 553e dc68 623e b594 663d ad6c 8e3d
00000360: d351 8dbe 8b77 8dbe cde2 a6be 4743 a8be
00000370: 408d 243d 2e39 223d 9776 ea3b 3ca5 773b
00000380: 7245 293d c413 023d 64d1 aebb 320b 74bc
00000390: c07b 69be cd40 76be 3573 86be 7764 8dbe
000003a0: cffc f7bd b754 83be c2d9 4cbe 95a4 0abd
000003b0: 0e17 3a3c 2aa4 863b 1ecf cabb 0871 4abc
000003c0: 842e ccbb 4f9d 52ba f630 1f38 c769 7b3c
000003d0: c54c 843d 3ea1 803d 4b81 903d db70 9c3d
000003e0: 32ee f13d 1c69 2b3e 7cef 963d 9ee2 fa3d
000003f0: 2a56 c83c 021b aa3d fbef 2abd 7319 933c
0.034671064 0.026976747 0.17672157 0.16851147 0.07898953 0.0750714 0.16740549 0.1646727
-0.0107893525 -0.010664389 0.1074218 0.10641777 0.12742488 0.12946238 0.27544117 0.27735764
0.24766709 -0.1751283 -0.09717193 -0.19721211 0.13033828 0.12792447 0.2229698 0.2171567
0.2979115 0.30203766 0.15918529 0.16033024 0.10693288 0.11093072 0.020569636 0.020422222
0.28221145 0.27405182 0.19074376 0.1821036 0.29134837 0.28174856 0.15974475 0.14795408
0.08898509 0.08677244 -0.116387 0.21894602 0.082961634 0.076483615 -0.0034319942 -0.008522703
0.20238112 0.41646084 0.097048715 0.35106286 -0.015300229 0.12632962 -0.10527075 0.061247017
0.17846689 0.4337366 0.114356205 0.38736847 -0.035591688 0.3350419 -0.19836214 0.1707954
0.12183424 -0.11085776 -0.07816459 -0.39226973 0.17068018 0.39058012 0.07747481 0.2884375
-0.0030918447 -0.011552804 0.07240638 0.053515557 0.12680537 0.12597981 0.17039195 0.16292718
0.047976017 0.002681524 0.15402979 0.10943375 0.104503505 0.049143586 0.25202048 0.19834794
-0.27533814 -0.048375353 0.08138178 -0.12600549 0.1363734 0.09748592 0.22487682 0.18668471
0.28299126 0.286763 -0.0275524 -0.024593 0.12952815 0.13337435 -0.065848425 -0.069463246
0.40234333 0.40807116 0.17781317 0.18100522 0.17365645 0.18327977 -0.12538855 -0.12580626
0.31368864 0.025107987 -0.21700951 0.01814796 0.03354718 0.03561783 -0.16323182 -0.15866391
-0.019317513 -0.013830839 0.1507168 0.1668091 0.004163409 0.0038084104 0.11389362 0.12479287
-0.07892553 -0.05081707 0.025620535 0.053974215 0.07471253 0.10768936 0.19952907 0.23672459
-0.13304946 -0.101459846 -0.31765637 -0.23635831 0.08699943 0.112683736 0.17101118 0.19388062
0.096313216 0.08977299 0.0076630004 -0.0044769216 0.0979383 0.09807928 0.03715599 0.027603282
0.18221168 0.1862039 0.10218267 0.10443917 0.02135303 0.032750778 -0.091579504 -0.08838898
-0.4543176 -0.01571568 -0.1963987 0.4431944 0.07738412 0.07836833 -0.0040448806 -0.00027369522
0.14190532 -0.0854252 0.046976283 -0.22186288 0.18716656 0.038941078 0.15187764 -0.025138713
0.2341402 -0.03728014 0.14795521 -0.1400988 0.37138054 -0.021284636 0.32838666 -0.06397584
-0.26729754 -0.04465662 0.39407074 0.1838422 -0.04367707 -0.27670318 -0.08575235 -0.30723643
0.39035434 0.38881645 0.18584974 0.19118166 0.21939456 0.21921639 0.08732219 0.08937491
0.49328107 0.51246154 0.33995217 0.35563597 0.39585677 0.42081976 0.17483605 0.19423313
0.68089885 0.058944065 0.8346781 0.5537662 0.20859869 0.22110313 0.05629416 0.06954322
-0.2760149 -0.27630267 -0.3259491 -0.3286383 0.04017377 0.039605312 0.0071552503 0.0037787696
0.041325994 0.03175713 -0.00533502 -0.014895247 -0.22801113 -0.24048157 -0.2625977 -0.2761571
-0.12108766 -0.2565057 -0.20004943 -0.033848364 0.011358036 0.0041089254 -0.006189241 -0.01235605
-0.006231131 -0.0008034305 3.7954153e-05 0.0153450435 0.06459955 0.062807545 0.07055911 0.07638713
0.1181301 0.16739315 0.07369897 0.12250255 0.024455149 0.083059326 -0.04173277 0.017956471

deconv2.bias f4 [6]
00000000: 1cbe 593e af36 0cbf c82d 56be e6ee 9e3e
00000010: 699f 95be bc36 93be
0.21263927 -0.5477094 -0.20915902 0.3104164 -0.29223183 -0.28752697

deconv3.weight f4 [6, 3, 2, 2]
00000000: 3f85 d83e 12bf fd3e edfd ca3e 13d3 ed3e
00000010: 5eb1 6d3e 6cb9 9a3e 942e 403e e1b2 6e3e
00000020: 441c 24bd b9cc bfb7 b9ac a1bd 32ac 6fbd
00000030: e0e3 debd cc87 5fbe c82c dbbd 4abe 56be
00000040: 1329 673d ef97 4ebd 578d af3d 6686 823c
00000050: 7259 1b3f 234b 0b3f aec3 223f d495 1a3f
00000060: 4cf7 0c3e ad6a 163e 4d85 ebbd 22b3 d9bd
00000070: 9755 7a3e 15dc 813e 7db5 a1bc 9b45 53bc
00000080: 7980 c43e 39f3 c63e fe1a 063e d2e7 093e
00000090: 34d7 bb3e cbe3 8e3e da0b e03e 730d b63e
000000a0: 187c 433e 8d11 da3d dfe7 923e 62d6 6d3e
000000b0: 90fd 47bd 16c1 c5bd 34b2 2e3d 2cca 983c
000000c0: d0cf 9c3e 8c2d 8e3e f57a ab3e cdbf 993e
000000d0: f021 a63e 9bcd 953e 615b b13e c8ec 9a3e
000000e0: ce17 d33e f72b c13e 63a2 d33e ef07 bd3e
000000f0: e5d6 8fbe f615 1bbe c709 16bd 03b4 ac3d
00000100: 98f1 05bc 213f ef3d aeec 553e d3b8 933e
00000110: cbae 1a3e 2638 643e dba6 b53e cb1c c73e
0.4228916 0.49559838 0.39646855 0.464501 0.23212191 0.3021959 0.18767768 0.23310424
-0.04006602 -2.2864306e-05 -0.07894272 -0.058513828 -0.108833075 -0.21829146 -0.10701901 -0.20971027
0.056435656 -0.050437864 0.0857188 0.015933227 0.6068336 0.54411525 0.63579834 0.6038487
0.13766211 0.14689131 -0.115000345 -0.1062987 0.24446712 0.25363222 -0.01973986 -0.012895013
0.38379267 0.3885744 0.13096234 0.13467339 0.36687624 0.27908167 0.43759042 0.35557136
0.19090307 0.10647879 0.2869253 0.23226312 -0.0488258 -0.09655969 0.042650416 0.01865109
0.30627298 0.27769125 0.33492246 0.30029145 0.32447767 0.29258427 0.3464003 0.30258775
0.412291 0.37728855 0.4133483 0.36920115 -0.2809364 -0.15145096 -0.03663042 0.08432772
-0.008175276 0.11681963 0.20891067 0.28851947 0.1510574 0.22287044 0.35478863 0.38889155

deconv3.bias f4 [3]
00000000: 6f4b db3c 22b3 543c 6bda 673c
0.026769368 0.012982162 0.014151196
