Pytorch/models/_n_301cifar_10_test.pt (torch, 146815 bytes, 10 tensors)

conv1.weight f4 [6, 3, 3, 3]
000000 65 65 41 3d 18 3a e6 bc 12 b5 6b 3d dd 28 2c be
       0.047215838 -0.028103873 0.05754573 -0.16812463
000010 71 3f de bd 2a ee ad bd a1 ae f7 bd e3 30 e0 bc
       -0.10851944 -0.08492692 -0.12093855 -0.027367061
000020 b7 f5 a0 be 15 c8 1d 3e 4f 65 86 bd 54 a7 2d 3e
       -0.31437466 0.15408356 -0.06562292 0.16958362
000030 f9 54 17 be 4a d2 01 be f5 b1 de 3c 6f b0 8c 3d
       -0.14778508 -0.12677875 0.027184466 0.068695895
000040 85 08 27 bc 91 31 b1 3d d9 07 83 3d e4 60 4f 3e
       -0.010194902 0.08652032 0.06397981 0.20251805
000050 61 fc 13 3e a0 dd e0 3d e2 4f 3a 3e 9f 6f 90 bd
       0.14451744 0.109797716 0.18194535 -0.0705254
000060 37 07 23 3e 41 68 25 3e a5 06 01 3d b3 d9 82 bb
       0.15920721 0.16153051 0.031500477 -0.003993237
000070 8b ac 2c be 9c 83 c0 3d 3c b4 fa bd c3 44 f5 bd
       -0.16862695 0.094001025 -0.12241408 -0.11976006
000080 96 2c 9a bb 25 b9 f5 bd 2f 3c 27 3d ee 43 ef 3d
       -0.004705022 -0.11998204 0.04082888 0.116828784
000090 13 ec 2a be 50 87 23 3e 87 0d cb bd 07 06 26 3e
       -0.16691618 0.15969586 -0.099146895 0.16213237
0000a0 a7 18 69 3d 34 b6 c4 bd 65 24 e8 3d 27 ab 90 3d
       0.056908276 -0.09605065 0.11335067 0.07063895
0000b0 fe 84 09 be a7 98 1d bd bb 56 6d 3c 18 7f 34 3e
       -0.13429639 -0.03847566 0.01448601 0.17626607
0000c0 14 0d e0 3d 03 77 36 3e de 2f 8c 3e a3 91 8a bc
       0.109399945 0.17818837 0.2738027 -0.016915148
0000d0 b2 49 38 3e 5c 6d 3c 3e 01 83 07 bd 90 a8 57 bd
       0.17996863 0.18401092 -0.03308392 -0.052650988
0000e0 ba 9d 0f 3e d5 07 0f be 99 d1 8e 3d a9 13 85 be
       0.14025012 -0.13967831 0.06973571 -0.25991562
0000f0 86 bb fe bd 40 c7 5b bd 09 5f ee 3d e8 9e 66 be
       -0.12438111 -0.053656816 0.1163922 -0.22521555
000100 f2 95 d0 bd 9f 1f dd bd 47 58 0d be 00 f4 db bd
       -0.1018485 -0.10797047 -0.13803206 -0.10739899
000110 28 3b 91 be 74 f9 bf 3d 93 86 5d 3d 80 74 58 be
       -0.28365445 0.09373751 0.054083418 -0.21138191
000120 a9 43 c3 bd 9c 14 d9 3d eb a5 06 3e 29 af f6 bd
       -0.095343895 0.10599634 0.1314923 -0.12045128
000130 fd a0 e5 bd 6e 61 d3 bd db 0c 0a 3d 81 26 0e 3e
       -0.11212347 -0.103213176 0.033703666 0.13881876
000140 02 43 24 3e de 08 33 3e 6b c6 f8 3d 99 48 4c be
       0.16041186 0.17483851 0.1214722 -0.19949569
000150 48 ac 83 3e cb 41 d8 bd e9 46 02 bd 5d 4c 27 3e
       0.25717378 -0.10559424 -0.031805906 0.16337724
000160 48 c2 5e 3e d6 2d 4d 3e 9f ad 0f be 7f 04 ae be
       0.217538 0.20037016 -0.14031075 -0.33987805
000170 90 f2 b4 be 7e c3 87 bd 00 a1 1b bd b1 76 8e be
       -0.3534131 -0.06629084 -0.03799534 -0.2782493
000180 62 04 8d 3e 09 57 33 3e 1d 02 83 bd 90 5c 4a be
       0.27542406 0.1751367 -0.063968875 -0.19761872
000190 16 0b 85 bd 5a ef d1 bc 25 d9 09 3d f9 b2 f5 3c
       -0.06496255 -0.025626827 0.03365435 0.029992567
0001a0 23 68 61 be ea 21 1b 3e 0e 6a a0 3e af 14 2a 3d
       -0.22012381 0.15149656 0.31330913 0.04152363
0001b0 18 a3 77 3e b2 4d c1 3d cc f8 80 bd e3 28 a1 3c
       0.24183309 0.09438647 -0.06297454 0.019672817
0001c0 a7 29 9c 3d bc b0 04 be 6b 47 b4 3c 83 ee 75 be
       0.07625132 -0.12958044 0.022006711 -0.24016766
0001d0 7c e4 1b be 05 5e 56 3e f6 39 84 be 57 a1 ce bb
       -0.15223879 0.20934303 -0.2582547 -0.0063058543
0001e0 75 42 40 3d cd 0a ab bd b3 b8 67 be 55 ff 4f 3e
       0.04693838 -0.083516695 -0.22629051 0.20312245
0001f0 d1 9c 97 be 76 31 11 3e 21 fc 19 3d 01 0e 46 be
       -0.2961183 0.14179024 0.037593964 -0.1934128
000200 b8 1a f3 3d 99 f3 6e 3c b7 d2 eb bd 6d 43 f5 3d
       0.118703306 0.014584445 -0.115148 0.11975751
000210 84 f8 7c bc 8a 36 68 be 00 ce bc 3c 71 cb 7b 3d
       -0.01544011 -0.22677055 0.023047447 0.061473314
000220 69 e9 0b be 1d b0 22 3c 30 8a 8c 3e 34 0a 39 be
       -0.13663258 0.009929684 0.2744918 -0.18070298
000230 fd ff 1c be 94 61 4b 3e a4 69 2e 3c 4c 23 cf 3c
       -0.15332027 0.19861442 0.010645304 0.025285386
000240 6c 23 75 3e d4 97 49 3e 31 5a 4b be 4e 68 f6 3c
       0.23939294 0.19686824 -0.19858624 0.030079033
000250 c9 e7 c6 3d 26 8e e2 3d 1f a2 98 3e 8d 2a 84 be
       0.09712178 0.11062269 0.2981119 -0.25813714
000260 48 aa 0c bc 3f a9 f1 bd 03 aa ac 3d c6 09 56 be
       -0.00858552 -0.11799859 0.08430865 -0.20902166
000270 f5 03 12 3e 75 e5 69 be f2 45 02 be 52 36 14 3e
       0.14259322 -0.22841437 -0.12721995 0.14473847
000280 cc f1 7a be f7 dc 29 be
       -0.245063 -0.16588198

conv1.bias f4 [6]
000000 96 31 55 3e 71 b0 9e bc 9a 4d 1b bd 11 5c 87 3c
       0.20819697 -0.019371243 -0.037915803 0.016523393
000010 11 6d da 3d ce 28 d2 3d
       0.10665334 0.10261689

conv2.weight f4 [8, 6, 3, 3]
000000 fb 86 9f bd cc b5 9a bd 6f cb a0 bd d0 5f e5 bb
       -0.07789417 -0.07554206 -0.07851302 -0.006999947
000010 32 20 ff bd cc fa 13 3e b3 76 f3 3c a5 a0 11 bc
       -0.12457313 0.1445114 0.029719686 -0.008888398
000020 32 a5 ab bd 16 01 da 3d 98 2a ab bd b4 bc 85 bc
       -0.08381118 0.106447384 -0.083577335 -0.016325332
000030 d7 06 5e bc 0e 2b b2 3c 01 1c 09 be e0 21 a8 3d
       -0.013551435 0.021749046 -0.13389589 0.08209586
000040 59 12 02 bc 33 3d 79 3d 58 32 87 bd f1 02 ca 3c
       -0.007938945 0.06084938 -0.06601399 0.024659606
000050 79 8c ff bc ce df f6 bc 72 b0 4a 3d f5 bf 56 3d
       -0.031194912 -0.030136015 0.049484678 0.05242916
000060 bf 51 d4 3d af 0c 1b 3e 26 b4 56 bc bb b5 be 3c
       0.10367154 0.15141557 -0.013104474 0.023280015
000070 1f 2c 0a 3e c5 33 86 3e 0d 5f 1a 3d 77 2b 7c bc
       0.13493393 0.26211372 0.037688304 -0.015391222
000080 c2 63 37 3e 44 ef 40 3e 16 28 76 3e 84 95 4a bc
       0.17909148 0.18841273 0.24038729 -0.012364749
000090 e2 32 f6 bb 4e 8d 08 bd dd 7a 2b 3e 91 73 ea 3d
       -0.00751339 -0.033337884 0.16746087 0.11447824
0000a0 71 de 72 bd dd b3 21 3e 1a 8f bb bd 72 af 6b 3d
       -0.059294168 0.15791269 -0.09158154 0.057540365
0000b0 5e 5c 0f 3e 6e b2 22 3d d0 a5 77 bd 87 e1 61 3e
       0.14000079 0.039720945 -0.060460865 0.22058688
0000c0 b2 d7 61 bc 01 14 80 3d 96 ce 11 3e 19 cf 66 3d
       -0.013784336 0.062538154 0.14238963 0.056349847
0000d0 ed 84 cc 3c 32 28 0c be 01 85 cb 3d d8 77 0c be
       0.024965728 -0.13687208 0.09937478 -0.13717592
0000e0 c0 0c 3b be 92 18 f8 3d f8 62 fe bd 56 5b 26 be
       -0.18266582 0.121140614 -0.124212205 -0.1624578
0000f0 df eb 15 3e 96 a8 f6 bd 0b a5 81 3d 21 82 33 3c
       0.14640759 -0.12043874 0.063303076 0.010956318
000100 43 40 6d bd fa 7d 15 be c5 1a a2 bc bb 99 02 be
       -0.057922613 -0.14598837 -0.019788155 -0.12753956
000110 6d 92 ac bd 9c 6c 8f 3d 09 d2 47 bd 89 ab da 3d
       -0.08426366 0.070031375 -0.04878429 0.10677249
000120 39 86 c6 3d e0 59 0c 3e c4 38 45 3e 6b 8c 35 3e
       0.0969357 0.1370616 0.19259936 0.17729346
000130 c3 5e f0 3d d8 93 01 3e 18 c6 2a 3d aa 0f e6 3d
       0.11736824 0.12654054 0.041692823 0.112334564
000140 54 4b e7 3d 6b a7 b4 bb f0 b2 40 3d 77 dc 5e be
       0.112936646 -0.005513122 0.047045648 -0.21763788
000150 6d ad 71 bd 4e 07 6a 3d 10 0d 20 be d3 d1 20 bc
       -0.059003282 0.057135873 -0.15629983 -0.009815651
000160 0f 48 ac 3c 29 b8 10 3d 45 31 5c 3d e5 01 82 3e
       0.021030454 0.03533188 0.053757925 0.2539207
000170 0d 0c 79 3e 4c 16 54 bd 65 72 76 3e 2d 9b a5 3c
       0.24321003 -0.051779076 0.24067076 0.020215595
000180 8a 10 27 ba 16 0f c7 3d 05 db 19 3e d4 5f 46 bd
       -0.0006373009 0.09719674 0.15024956 -0.048431233
000190 14 fb a8 bd fc 72 df bd 6d fc 93 bc ed af 0c 3d
       -0.08251014 -0.109106034 -0.018064702 0.034347463
0001a0 50 c8 28 be 77 7a 0a bd e2 e5 77 bc 27 f3 a4 bb
       -0.16482663 -0.033808198 -0.015130492 -0.005033869
0001b0 af f1 35 3e da 73 5a bd 94 39 9f 3d a1 f3 2c 3e
       0.17767976 -0.05333314 0.07774654 0.16889812
0001c0 e7 a3 fe bc 72 33 5a 3d 57 ec 98 3d 6b 11 0e bb
       -0.031084014 0.05327172 0.07466953 -0.0021677862
0001d0 02 57 98 bd 7d 88 3c 3e 6f 0a 71 bc 37 2a 98 3b
       -0.074384704 0.18411441 -0.01471196 0.0046437043
0001e0 60 93 36 3e 5d d8 f6 3d b8 62 19 3e 54 8f b4 bc
       0.17829657 0.12052987 0.14979064 -0.022041
0001f0 c4 c7 15 3d 83 75 3d 3e 68 30 40 3d 8e c3 de 3d
       0.036567464 0.18501858 0.046921164 0.10877143
000200 04 67 27 bd 18 d2 1e be a3 f7 61 bd ad b9 bd 3d
       -0.040869728 -0.15509832 -0.055167805 0.092639305
000210 a6 3f c4 3d e0 4b 00 be ff 85 d0 3d ec 07 3c 3e
       0.095824525 -0.12528944 0.10181808 0.18362397
000220 c0 67 48 3e ce 36 4a 3e a0 ad 8a 3d dd bf 35 3e
       0.19570827 0.19747469 0.067713976 0.17748971
000230 b4 3d 88 3e 95 9b 18 3e 28 a6 d3 3d 91 97 4e 3e
       0.26609576 0.149031 0.10334426 0.20175005
000240 18 35 1f be 0e ea 34 be 06 b9 9f bd 37 c9 95 bd
       -0.15547597 -0.1766741 -0.07798962 -0.07313769
000250 89 be 4a bd 72 bb 0d 3d 52 28 02 be 3d 9a 0d 3e
       -0.049498115 0.03460259 -0.12710693 0.13828368
000260 06 cb 20 3e 19 eb 1e be ba d3 7c bd 1c 7a c5 bd
       0.15702447 -0.1551937 -0.061725356 -0.09642431
000270 f2 29 75 bd 60 96 f1 3d 94 1c c0 3d f5 2b d1 bd
       -0.059854455 0.1179626 0.09380451 -0.10213462
000280 50 cb f9 3d 5e 44 56 bd 6f 90 32 3e 0f 75 1e 3e
       0.12196982 -0.052311294 0.1743791 0.15474342
000290 0c 86 13 3d 69 c6 e9 3c da 7a fc 3d 7b 78 b5 bc
       0.03601651 0.028536992 0.123281196 -0.022152176
0002a0 8f 40 bd 3d 35 98 0a 3e 92 97 df 3d 73 18 1c bc
       0.09240829 0.13534625 0.109175816 -0.0095273135
0002b0 c5 60 b4 bc ad 0d 3d 3d f3 a7 bc bd c2 4b 25 bb
       -0.0220188 0.04615562 -0.09211721 -0.0025222157
0002c0 72 01 c2 3d 8e 35 00 bb 87 31 ca 3c 15 90 9d 3d
       0.09472932 -0.001956317 0.02468182 0.07693497
0002d0 11 b2 89 bc 6a 7f 2b 3e 16 9f 97 3d 3e ff a6 bd
       -0.016808541 0.16747823 0.0740339 -0.08154152
0002e0 ef c2 bf bb a7 15 37 3d 18 d7 78 3d 2c 68 bb bd
       -0.0058520953 0.044698384 0.060752004 -0.091507286
0002f0 2c 66 eb bc d1 64 24 3e c4 ee 62 3e e5 dd 5b 3e
       -0.028735243 0.16054083 0.22161394 0.21471365
000300 58 40 b2 3c 4d 1c a4 3d f9 70 3c 3e f2 7d b9 3d
       0.021759197 0.080132104 0.1840247 0.09057225
000310 86 5e 93 bd df 30 cb bd 63 bb 32 be 00 dd a6 bd
       -0.07195763 -0.09921431 -0.17454295 -0.08147621
000320 1a 78 21 3c b6 ba 8b bc 65 18 26 bd b8 58 34 be
       0.009855295 -0.017056804 -0.04055061 -0.17611969
000330 f4 fd 38 bb 30 3c 9a bd 0a 17 a5 3d 06 95 40 ba
       -0.002822754 -0.07531011 0.08061035 -0.0007346425
000340 d3 85 83 be 60 df 46 be 22 49 3e be e5 9c 1b be
       -0.25688037 -0.19421148 -0.18582585 -0.1519657
000350 29 38 12 be 9a 9a 31 3d 1d 8a 47 3d 7f f8 18 be
       -0.14279236 0.04336033 0.0487157 -0.14938544
000360 20 80 10 3d f7 7b 14 3e bc 54 d0 3d f5 12 e7 3c
       0.03527844 0.14500414 0.10172412 0.028207282
000370 96 dd ed bd 08 79 74 bd ad 62 e1 bc 36 36 a0 3d
       -0.1161453 -0.059685737 -0.027512873 0.0782284
000380 3b c0 90 bd 4b dd 5b bd aa eb 13 3e 36 46 b1 3c
       -0.07067915 -0.05367784 0.14445367 0.021639924
000390 46 9f 70 bd fa d8 e4 bd bf f4 87 3b 4c 0f 8e 3d
       -0.058745645 -0.111741975 0.004149049 0.069365114
0003a0 e4 3b d2 bd ff 70 d1 bc 94 50 0c 3e 0d a0 88 3c
       -0.102653295 -0.025566576 0.13702613 0.01667788
0003b0 e0 2a 3c bd 4f a6 86 3e ea 94 63 3e 64 79 82 3d
       -0.045939326 0.26298758 0.22224775 0.0637081
0003c0 0f ab a1 3c 81 e4 87 3e eb 32 a0 3d f8 93 d7 3d
       0.019734887 0.26541522 0.07822212 0.1052627
0003d0 17 a2 86 3d 63 c1 dc 3c ec 26 f7 3b 31 7c 47 3d
       0.06573885 0.026947683 0.0075424816 0.048702423
0003e0 1b 6f a0 3d 4b f2 85 3d 01 c9 08 3e 0b eb aa 3e
       0.07833692 0.06540354 0.13357927 0.3338245
0003f0 66 df 79 3d de ec 73 bc 62 3a 17 3e 50 59 00 3e
       0.061004065 -0.0148880165 0.14768365 0.1253407

conv2.bias f4 [8]
000000 63 c2 ff bd 2b 67 3d 3e 6a aa 42 be c5 29 5b 3e
       -0.12488248 0.18496387 -0.1901032 0.21402653
000010 eb 55 a8 bd 4b 31 33 3e 45 9d 4a 3d 4b 99 ff b9
       -0.082195126 0.17499273 0.04946639 -0.00048751602

fc1.weight f4 [64, 512]
000000 d9 ce e0 bb d7 0e e7 bc ec 79 da 3c 50 f2 d6 bc
       -0.0068605957 -0.028205318 0.026669465 -0.02623859
000010 c6 a0 a8 bc c1 2a 75 3a 0e 72 e4 bb c4 2a 1f 3d
       -0.020584475 0.0009352379 -0.006971604 0.038859144
000020 24 2b 5f ba 58 07 aa bc ea 95 8a bd d1 87 43 bc
       -0.00085132034 -0.020755455 -0.06766875 -0.011934237
000030 90 03 41 bd d7 d8 13 bd 21 ad eb bc 8e 91 03 3d
       -0.047122538 -0.036095466 -0.028769078 0.032121234
000040 b4 ab 39 3d 15 50 bd 3c 10 8a 6d 3c 98 1c c2 bb
       0.045329764 0.023109475 0.014498249 -0.005923819
000050 a0 bd 18 bd fa 1e 72 bc 9e c5 6b 3d 31 2c 95 3d
       -0.037290215 -0.014777893 0.05756151 0.072838195
000060 9c 50 ad 3d 67 87 96 3d e1 12 d8 3c 2e 4a 23 3a
       0.08462641 0.07350045 0.02637619 0.000622901
000070 9a d3 c4 bc a0 9d 27 3d 38 18 df 3d c6 07 bf 3d
       -0.02402668 0.040921807 0.10893291 0.093276545
000080 da 4d b2 3d 79 a5 b7 3d f9 bd 0e 3d 3d c3 e8 bc
       0.08706255 0.08967108 0.03484914 -0.02841341
000090 ab 1f 3e 3d c3 15 34 3d fe 8a 1f 3e f0 22 a0 3d
       0.04641692 0.043966066 0.15580365 0.07819164
0000a0 a2 59 ed 3d ac e4 a0 3d e8 3d 06 3e 8a 5a fa 3d
       0.11589362 0.07856116 0.13109553 0.122243
0000b0 eb 81 80 3d 7e 75 c6 3d 00 5d 2b 3e 5a 11 41 3c
       0.0627478 0.096903786 0.16734695 0.011783922
0000c0 20 0b 5f 3d 81 85 a4 3d e2 7f 91 3d f8 9a 9e 3d
       0.05445397 0.08033276 0.0710447 0.07744402
0000d0 0f bc ef 3d e7 2e ab 3d e5 8f 4a 3d 50 b5 3a bd
       0.11705791 0.08358555 0.049453635 -0.04558307
0000e0 65 21 c9 bd f7 d3 54 bb 3c 86 5a bc 79 6c 7e bb
       -0.098208226 -0.0032474974 -0.013337668 -0.003882198
0000f0 7a 37 a3 bc 52 4e 08 bd 19 c4 ba bc 18 3a b4 bd
       -0.019923914 -0.033277817 -0.022798585 -0.08800143
000100 5b d3 8b bb 5f 82 19 bd d0 b4 b8 38 c5 16 66 bd
       -0.004267139 -0.037477847 8.807483e-05 -0.05617406
000110 42 a3 89 bd 57 7e 3d bc a2 98 4d bd 78 71 3b bd
       -0.06720592 -0.011565766 -0.05019439 -0.04576251
000120 90 7c 76 bd 5a d6 5d bd 42 47 ac bd 85 20 22 bd
       -0.060177386 -0.0541595 -0.08412029 -0.039581794
000130 31 c1 9d bd 68 5b 69 bd ef e9 07 bd a8 fd 1e 3c
       -0.07702864 -0.056971937 -0.03318208 0.009704031
000140 f4 e6 ae bc 6a c2 98 bd a6 74 01 bd a0 2c 6e bd
       -0.021350361 -0.074589565 -0.031605385 -0.058148026
000150 43 88 c0 bc 4c c3 f6 bc 8c 48 51 bd b8 8f 83 3b
       -0.023502475 -0.030122422 -0.051094577 0.0040149353
000160 85 43 bc bc 39 97 49 bd ca a2 ea bd b3 02 bd bd
       -0.022981415 -0.049216483 -0.11456831 -0.092290305
000170 00 48 8e bd 5a 38 0a bd 1f 0d 47 bc 98 ed 8f 3d
       -0.06947327 -0.033745147 -0.012149124 0.07027739
000180 d9 67 65 3d 2c 11 50 bd 6d a8 0c bd 29 04 d6 bc
       0.05600724 -0.050797626 -0.03434031 -0.02612503
000190 27 90 8d bd 48 5c d8 3c 4a 67 a3 3c f9 d1 81 3d
       -0.069122605 0.02641119 0.019946713 0.06338877
0001a0 56 95 53 bc c1 df 09 3d fd 36 3a 3d 7d f5 0f 3d
       -0.012914022 0.033660654 0.045462597 0.035146225
0001b0 30 50 72 3d de ef 34 3d 22 23 d9 3c 77 e6 38 bd
       0.059158504 0.044174068 0.02650601 -0.045141663
0001c0 66 b1 9b 3c ad 46 29 3c ab fc 5e 3d 7c 28 c7 bb
       0.019005489 0.010331792 0.05444018 -0.006077824
0001d0 8e 1a 00 3c 53 e6 49 bb ab bf 3d 3d 6c 33 c1 bd
       0.007818831 -0.003080745 0.046325367 -0.09433636
0001e0 30 37 c2 bd 0d 10 36 bd e5 df 1c bd 06 63 ac bc
       -0.094831824 -0.0444489 -0.03829946 -0.021043312
0001f0 75 f8 d0 3b 73 8f 2f bc e5 6d 17 bd 80 6c 0e be
       0.0063772746 -0.010715353 -0.036970038 -0.13908577
000200 9c c1 78 3d f5 da 3a bc 83 17 44 bc a6 09 91 bc
       0.060731515 -0.0114047425 -0.011968496 -0.017704796
000210 9b 84 dc 3c 34 34 aa 3c 51 84 4a 3d 79 2d b3 3b
       0.0269187 0.020776846 0.049442593 0.0054680672
000220 66 eb 33 3d a6 6a 9e 3c 9d bf 43 bd 8c 1e 33 bd
       0.043925665 0.019337963 -0.04779016 -0.043730304
000230 86 4e cb bc c3 29 02 bd 45 45 a4 3b c1 7a 0b 3d
       -0.024817716 -0.03177811 0.0050131404 0.034052614
000240 72 61 33 3c e9 a1 83 3d 7e 6d 0d bb cb 4b 86 bc
       0.010948526 0.06427366 -0.0021580155 -0.016393563
000250 e8 dd 40 bd 2a 56 07 3c 8d ce 07 bd cb 6b 41 3d
       -0.047086626 0.008260289 -0.033155967 0.04722194
000260 29 99 fb bc 26 60 79 3d 0b 2e 71 3c 12 03 ab 3c
       -0.03071268 0.06088271 0.01472045 0.020875487
000270 7d 66 4a 3d 27 41 65 bc d3 3a d0 3c 24 95 17 3d
       0.049414147 -0.013992584 0.025418675 0.037007466
000280 21 b6 12 3b b2 28 5d 3d e4 9e ad 3c ad 31 48 3d
       0.002238639 0.05399389 0.021193929 0.0488755
000290 5f 84 bc 3d 94 f8 6b 3c 98 1b d4 bc 99 58 6a bc
       0.09204935 0.014402527 -0.025892064 -0.01430335
0002a0 bd 39 6d bd 19 de a6 bb 0b 7f 96 3d 22 0d 8b 3d
       -0.05791639 -0.005092394 0.0734845 0.06789614
0002b0 2c 63 87 3d a2 0d eb 3c 02 b0 53 bd c1 ec 54 bd
       0.066107124 0.028693024 -0.051681526 -0.0519836
0002c0 f4 4d 4f 3b 0b 30 ba 3c 8d 4b 0a 3d 3a 5f 98 bb
       0.0031632157 0.022727987 0.033763457 -0.0046500238
0002d0 80 00 b2 3c 94 cc 46 bd f7 43 ed bc df 3b a1 bd
       0.021728754 -0.048534945 -0.028963072 -0.07872748
0002e0 b3 0e af bc 17 62 5a bd 1a 65 63 bd fc 92 65 3c
       -0.021369314 -0.053316202 -0.05551634 0.014012095
0002f0 42 2a 9c bd 3e b5 b9 bc 64 08 5f bc 93 40 97 bd
       -0.076252475 -0.02266943 -0.01361284 -0.073853634
000300 40 31 17 bd 98 b4 2a 3d 2c 9a e1 3c 3c 95 b0 bc
       -0.036912203 0.041676134 0.027539335 -0.021555535
000310 c8 ee 8a bc a2 dc c6 3c 94 46 35 3c 57 6d 7b bc
       -0.016959563 0.024275128 0.01106419 -0.015345893
000320 24 e0 01 bc 53 10 43 3d 58 8f be bc 39 0c 2b bc
       -0.007926974 0.04762299 -0.023261711 -0.010439926
000330 76 a2 6f 3c 6d 1f 22 bd a3 59 29 bd 5d 57 71 3c
       0.014626136 -0.03958075 -0.04134525 0.014730302
000340 52 36 a2 3c 37 aa 23 3c c2 58 b9 3c 9e 12 2b 39
       0.019801293 0.009989313 0.02262533 0.00016314766
000350 c9 47 a1 b9 31 18 51 bd 64 42 b4 3c b5 34 61 3b
       -0.00030761797 -0.05104846 0.022004314 0.0034363691
000360 30 b2 35 bd 22 39 05 3d b2 8b 74 3d c4 86 aa 3d
       -0.044359386 0.03252519 0.059703536 0.08326486
000370 da e6 82 3d 8a 3a 5e 3d 7d 60 bd 3c 84 4c 3c bd
       0.06391688 0.054255046 0.023117298 -0.04597141
000380 ed f4 7d bd 89 bd 80 3a 01 3c 56 3d f4 4c 46 3d
       -0.062001158 0.0009822111 0.052303318 0.048413232
000390 7a c8 d2 3c 58 a9 4b 3c 73 eb 19 3c 24 8b a2 bd
       0.02573036 0.012430511 0.009394514 -0.07936695
0003a0 89 66 ea bc 2d ab 82 bc bb e8 5c bc e5 1f f1 bc
       -0.028613346 -0.015950764 -0.013483222 -0.029434154
0003b0 b3 3e 0a bd 13 53 af 3c bc 18 f6 3a 1c e9 26 bd
       -0.0337512 0.021401918 0.0018775682 -0.040749654
0003c0 38 43 a4 bd aa 61 cf 3c a1 0b 56 3a 4a 81 e1 ba
       -0.080206335 0.025315125 0.0008165185 -0.0017204669
0003d0 36 b3 86 bc 1a a3 f9 bc bf 69 89 bd 0c 2b af bd
       -0.016442876 -0.03047328 -0.067096226 -0.085531324
0003e0 6c 6d 02 bd 41 3e 70 3b f0 5f 49 3d ae 62 25 3d
       -0.031842634 0.00366582 0.04916376 0.04037731
0003f0 6a 7e 69 3c c0 08 45 bd 74 ef a4 bc c3 d0 c2 bc
       0.014251331 -0.048104048 -0.020133711 -0.023781186

fc1.bias f4 [64]
000000 c7 fc 07 bc bb cb f9 bc 83 d3 ce 3c f3 8b c0 bb
       -0.008300013 -0.030492654 0.025247341 -0.0058760582
000010 80 41 f7 ba 91 f6 b7 3d ab 80 e3 3c ac 42 08 bd
       -0.0018864125 0.08982576 0.027771315 -0.03326671
000020 f6 ac cd 3c 29 e8 63 3d bd 55 7b bd 23 b6 e0 3c
       0.025106888 0.055641327 -0.061361063 0.0274306
000030 09 d0 af 3c 3b a6 8b 3d b6 f7 b5 3b 65 ce c8 3c
       0.021461504 0.06818815 0.005553211 0.02451248
000040 7b 50 9e 3d da 59 89 3c 9f d7 f8 3c 61 13 c1 bd
       0.07730194 0.016766477 0.030376254 -0.09427524
000050 d1 8a 2e bd 21 39 8a bd 61 e5 c0 3d f2 5a 8a bd
       -0.042612854 -0.06749178 0.094187506 -0.06755628
000060 2c bd 78 bc 06 cb c6 3c e3 da 34 3c 0c 94 af 3d
       -0.015181821 0.024266731 0.011038515 0.085731596
000070 78 73 ce 3c 22 81 b7 3d ed 88 83 3a fe 40 8c bd
       0.025201544 0.08960177 0.0010035314 -0.06848334
000080 df 38 01 3e 4a b1 91 bd 04 b1 98 3c fc e3 db 3d
       0.12619351 -0.07113893 0.018639095 0.10736844
000090 28 5c ad 3c d7 30 83 bc 04 37 bf bc 75 13 89 bc
       0.021162108 -0.0160145 -0.023341663 -0.01673291
0000a0 21 5e ee 3b 5c d1 3a bd e2 3c 99 bd 5b 59 23 bd
       0.0072744046 -0.045609817 -0.074823156 -0.039880138
0000b0 ed 08 8f bb cd 37 e1 3c 97 c3 19 bd bc 71 ed bb
       -0.0043650777 0.027492428 -0.037540045 -0.007246224
0000c0 07 71 54 3d c6 62 be 3d 54 47 9b 3d 71 35 87 3c
       0.051865604 0.09296183 0.07581964 0.016504975
0000d0 37 a7 43 3c 83 aa 8d bd 68 5e 32 3d 74 c9 9f 3d
       0.011941723 -0.06917288 0.043547064 0.07802096
0000e0 5a a9 46 bd 7e ab cd 3b bb bb 26 bc d6 50 4f 3c
       -0.04850135 0.006276547 -0.010176594 0.01265355
0000f0 56 16 d2 bd ac 05 08 3d 42 f8 8c 3d 14 69 2b bd
       -0.102581665 0.033208534 0.06883289 -0.041848257

fc2.weight f4 [32, 64]
000000 a6 36 fa bc c4 69 bf bb df 67 b1 3d 94 cd 04 be
       -0.030543637 -0.0058414657 0.0866239 -0.12969047
000010 a7 7d 07 3c 22 94 e2 bd 30 b0 1d 3d ed 88 a1 3d
       0.008269704 -0.1106341 0.038498104 0.07887445
000020 72 f8 45 bd 28 27 d0 bd eb 6b 09 be 45 f3 f9 bd
       -0.04833264 -0.101637185 -0.13420074 -0.12204603
000030 e3 b7 9a 3d 73 04 b0 3d 63 bc 49 bd eb ee 0f be
       0.07554605 0.085945986 -0.049251925 -0.14055984
000040 35 29 f6 bd 88 9f a8 bd ca 7f ad bd f0 d6 8b 3d
       -0.12019578 -0.08233553 -0.084716395 0.068281054
000050 6e 9a ee 3d 32 da b5 3d b7 73 24 3c 89 4d 6f 3d
       0.11650549 0.08879508 0.010037354 0.058423553
000060 b1 59 9e 3a 54 85 27 3d 4a ef 00 bd ec 34 84 bd
       0.0012081173 0.040898636 -0.031478204 -0.064554065
000070 93 a6 8a bd 9d e8 52 bb 0c 08 b7 bd df 47 98 3d
       -0.06770053 -0.0032182105 -0.08937082 0.07435583
000080 3d e1 b3 b9 f0 83 fd bd 6f 23 98 ba 64 69 1f 3d
       -0.00034309356 -0.12378681 -0.001160724 0.038918868
000090 05 e5 e6 bd 79 34 94 bb d0 0f fa bd 93 7c 27 3d
       -0.11274151 -0.004522857 -0.12210047 0.040890288
0000a0 ee 90 22 3c dc 98 e9 3d f6 b9 04 3d c5 41 d9 3d
       0.009922249 0.11406109 0.03240391 0.10608248
0000b0 6a 9e 7a 3d a6 4b 4f 3d 2c 58 e6 3c e0 03 91 bd
       0.06118623 0.050609253 0.028118216 -0.07080817
0000c0 af f8 98 bd fd 65 29 3d 8d dc a7 3b d2 37 de bd
       -0.07469308 0.04135703 0.0051227272 -0.10850491
0000d0 16 c2 22 3d e8 6d 19 be 96 ab ef b9 54 5a 13 3d
       0.039735876 -0.14983332 -0.00045713474 0.035974815
0000e0 dc fc 82 3d 32 03 2c bd 06 99 43 3d ce 85 0c 3d
       0.06395885 -0.041995235 0.047753356 0.034307294
0000f0 7a 9b b3 3b 96 06 35 3d b3 c9 e6 bd fc 76 e1 3d
       0.0054811807 0.044195734 -0.1126894 0.110090226
000100 ba 29 5a 3c 99 b8 2a bd aa 65 8a 3d 38 02 86 3c
       0.013315612 -0.041679952 0.06757672 0.01635848
000110 98 c3 2b 3e 9a df f4 bb ce e9 39 bd 30 bf b7 3d
       0.16773832 -0.0074729444 -0.04538899 0.08972013
000120 78 39 1d bc 7e 52 9f bc 29 01 0a 3e 0f a5 49 bd
       -0.009596221 -0.019448515 0.13477005 -0.049229678
000130 9c 06 59 bd ff 91 16 be 03 c0 04 3c 6b 15 4e 3d
       -0.05298482 -0.1470413 0.00810242 0.050313395
000140 da fd ad 3b 5d 5b 91 bc e8 e7 db bd 49 cb 61 3d
       0.0053098025 -0.01774376 -0.10737592 0.05512551
000150 24 c8 0a bd 57 ce 02 bd 8b f7 b2 bd a4 6f 16 3d
       -0.033882275 -0.031935062 -0.08738621 0.036727563
000160 2a e2 f2 bc 60 91 2a 3d 08 54 09 3e 95 69 96 bd
       -0.029648859 0.041642547 0.13410962 -0.07344357
000170 e4 2d 7c 3d 4c f0 cd bc cd 6d 0e bd 38 c6 ca 3d
       0.061567202 -0.025138997 -0.034772683 0.099010885
000180 99 58 c2 bd 5e a1 c0 3d 94 f4 bf bc da d9 07 be
       -0.09489555 0.09405778 -0.023432054 -0.13266698
000190 1d 1a f6 3b 08 df 94 3d 5a 6e a3 3d de b9 f9 3d
       0.007510437 0.07269102 0.07980032 0.121936545
0001a0 4d f3 24 be dc 8d fb bd 4f 33 b6 bd 03 90 4d 3c
       -0.16108437 -0.12282917 -0.08896505 0.012546542
0001b0 d0 20 9e 3c c6 ea 09 3e a3 e5 6b bd 4f 6a 95 3d
       0.019302756 0.13468465 -0.057592046 0.072956674
0001c0 a4 7b d0 3b 46 61 5e be 2d 86 ce bd e1 9f ad 3a
       0.0063623954 -0.21716794 -0.10084186 0.00132465
0001d0 63 7b 71 bd 57 36 94 3b 9a 24 0e 3d aa 20 10 be
       -0.05895556 0.0045230794 0.034702875 -0.1407496
0001e0 32 d5 b4 3d 2c 4c 36 bd 9e 1b a5 3d d1 c3 b5 bd
       0.08829726 -0.044506237 0.08061908 -0.0887524
0001f0 94 d6 9c 3d 9f 69 1c bb f6 b8 31 3d 04 b4 29 3a
       0.07658115 -0.0023866666 0.043389283 0.0006473663
000200 c7 09 fc bc b2 60 31 3c 00 eb b3 3d 6a 1e c3 bc
       -0.030766381 0.010826277 0.08785057 -0.023818213
000210 71 97 5d 3c bf 52 17 3e 50 a4 a4 3d 72 88 90 3d
       0.013524876 0.14777659 0.080391526 0.07057275
000220 69 b3 09 3e fc 0e 2e 3d 3a ea ec bd c4 27 a7 bd
       0.13447346 0.04249476 -0.11568113 -0.081618816
000230 a6 06 ea bd 9e cb 58 3b f0 bc a7 3b fe 12 1b 3e
       -0.11427049 0.003308035 0.0051189587 0.15143964
000240 25 8b 20 3d 62 5d 86 3d 03 e1 81 3c ba b4 04 3e
       0.0391952 0.0656078 0.015854364 0.12959567
000250 4b da 71 bd 32 62 0b 3e da 60 5b 3e 3e 22 f7 3d
       -0.05904607 0.13611677 0.21423665 0.12067078
000260 af b8 1b 3c 00 e1 ab bd b4 c6 1f 3e 5c 49 9c 3d
       0.009504481 -0.08392525 0.15603143 0.0763118
000270 0a 7a f8 3d 59 cd 82 3b 62 55 a4 bd 77 4c f7 bd
       0.12132652 0.0039917645 -0.08024098 -0.120751314
000280 33 8e e1 3c 7c d6 ad bd 50 47 c0 3b 0a 34 50 3e
       0.027533626 -0.08488175 0.005867876 0.20332351
000290 dc 1a ee bd f6 28 99 bd be b7 d5 3d de 26 8d bd
       -0.11626217 -0.07478516 0.10435437 -0.06892179
0002a0 c0 72 2c bd d8 1d 85 3d f3 bf 1c 3d c7 59 fc 3c
       -0.04210162 0.06499833 0.038268995 0.030804528
0002b0 7b 03 cd bd 99 b1 ea bd fa 00 40 3d 51 4d 01 3d
       -0.100104295 -0.11459655 0.04687593 0.031567875
0002c0 a2 a6 e6 3d ed 66 2b 3d 82 13 37 3e cf 7a 4d 3e
       0.112622514 0.041846205 0.17878535 0.20066379
0002d0 78 8e 3f bd af 66 75 bd d8 74 2c 3e a1 89 45 3d
       -0.04676673 -0.05991238 0.16841447 0.048226956
0002e0 96 14 b9 3d 50 0f c0 3c 07 11 b2 bd ac 0d 59 3d
       0.090371296 0.023444802 -0.08694654 0.052991554
0002f0 15 e0 3b bd d9 54 84 3d f3 18 13 3c ee 61 e0 bd
       -0.045868 0.06461496 0.008978116 -0.109561786
000300 e6 ae 0f 3c 56 cc 08 3d 80 27 34 3b f4 46 86 3d
       0.008769726 0.033397995 0.0027489364 0.06556502
000310 9b 10 f8 bd fb 6c e5 3b 18 8f 66 bd c4 f8 09 3d
       -0.12112542 0.007001517 -0.05628881 0.033684507
000320 86 de 12 be ae 36 18 be 1f 7a 7f bc 46 50 fb bc
       -0.14342698 -0.14864609 -0.015593081 -0.030677926
000330 48 ed 9f bc 8a 94 9b 3d 00 b9 e9 bc 45 a2 93 3d
       -0.019522324 0.07596691 -0.028530598 0.07208685
000340 bd 3e a7 bd f4 c7 ac 3d 10 56 94 3c 94 e4 71 bb
       -0.08166263 0.084365755 0.018107444 -0.0036909925
000350 00 6f 6f bc 27 3b e1 bd 21 85 d7 bd 32 d5 94 3d
       -0.014613867 -0.109976105 -0.10523439 0.07267226
000360 fa 50 83 bd 28 c1 d4 3d df 57 eb bd e7 2a eb 3d
       -0.064119294 0.10388404 -0.114913695 0.11482792
000370 22 e6 05 be a2 95 8c bd 8a 27 b8 3d c9 38 50 3d
       -0.1307607 -0.06864478 0.089919165 0.050835405
000380 1b d4 3f bd 86 d0 13 be 5d 7c a3 3d 16 9a d9 3d
       -0.04683314 -0.14435014 0.07982705 0.10625093
000390 45 1e c2 bd d2 25 a5 bd ec 21 34 bd ca c0 f9 3d
       -0.0947843 -0.08063854 -0.043977663 0.12194975
0003a0 13 4e c9 bc 06 f5 85 bd 04 02 c4 bd d0 61 4c bd
       -0.024573362 -0.06540875 -0.09570697 -0.04989797
0003b0 4a 56 cb bd e3 3d 51 3d e6 cd 56 3d 88 98 41 3d
       -0.09928568 0.05108441 0.052442454 0.047264606
0003c0 1a 13 83 3c 7f db 19 bd 85 43 a6 3d 40 f2 d3 3d
       0.01600032 -0.037562843 0.08118347 0.1034894
0003d0 70 d7 a7 3d 74 3e 81 bd 7c 88 79 bd ef 69 81 3d
       0.08195388 -0.0631074 -0.060921177 0.06319033
0003e0 78 21 69 3d 2c 1d 33 bd f9 24 b8 3d ec 5e 1d bd
       0.056916684 -0.043728992 0.08991427 -0.038420603
0003f0 f5 5d ae 3d 30 f7 fa bc 4f 9c 19 be 46 5b a4 3d
       0.08514015 -0.030635446 -0.15001033 0.080252215

fc2.bias f4 [32]
000000 c7 a7 32 3d 3a 84 00 be e6 7d 64 3d 7e 93 db bd
       0.043617036 -0.1255044 0.05578413 -0.10721491
000010 90 0e db bd d0 68 79 3d 0f 57 6c 3d ea fd fc bd
       -0.10696137 0.060890973 0.057700213 -0.12353118
000020 5f 36 4b 3b e8 c9 14 be 31 e6 d0 bd b8 7f d1 bb
       0.003100775 -0.14530146 -0.102001555 -0.006393399
000030 bb cc e5 3d db a4 99 bc dd 8c a9 3d b2 bd 2f 3e
       0.1122069 -0.018755367 0.08278821 0.17162207
000040 ff ea 31 3e 30 96 50 bc 66 98 3c bd 85 80 0a 3e
       0.173748 -0.01273112 -0.046043776 0.13525589
000050 5a 56 e0 3d 20 cf 3e bc b8 8d a1 bc c8 4b b8 bd
       0.1095397 -0.011646062 -0.019720897 -0.08998829
000060 9e 69 23 be 26 4c 80 3c 1b 90 2f 3d 47 f5 13 bd
       -0.15958259 0.01566131 0.04286204 -0.036122587
000070 f3 79 1e 3e ad 8d 42 bd 54 c5 0d 3d 4a b7 5c be
       0.15476207 -0.047498394 0.034612015 -0.21554294

fc3.weight f4 [10, 32]
000000 0f f7 60 3c 79 b8 ad 3c fe d2 dd 3b 6c a7 ea 3d
       0.013730778 0.021206127 0.006769537 0.114577144
000010 e1 9d 92 3c 11 e8 61 3e 84 12 34 3e 1e 8a 15 3e
       0.017897548 0.22061183 0.17585188 0.14603469
000020 04 f7 1c 3e 5a ff 6d bd 9c d6 06 3d 1a da 8c 3d
       0.15328604 -0.05810485 0.03291951 0.06877537
000030 43 52 e7 bc b6 a8 fa 3c 9b ba 71 3d 0a d5 38 be
       -0.028237468 0.030598026 0.05901585 -0.18050018
000040 20 86 9d 3d a3 90 f3 bd ae 21 af 3c ed 0d 50 3b
       0.07691598 -0.11892822 0.021378364 0.0031746582
000050 a4 6f eb bc ab 2f 44 3c 80 d5 1c 3d d3 ab fe bd
       -0.028739758 0.011974256 0.038289547 -0.124351166
000060 d1 36 7f be 3c 82 ca bd ac 2d 45 be 0d 77 03 3e
       -0.24923255 -0.098881215 -0.19255704 0.12838383
000070 7a ef 55 3e fa 5c 78 bd de 95 eb 3d 08 df 11 bd
       0.20892134 -0.060635544 0.11503194 -0.03561309
000080 4e 53 1c be d6 42 cd 3d bc e0 35 be 3e 48 10 be
       -0.15266153 0.100225136 -0.1776151 -0.14090058
000090 66 9c 61 3e 40 f3 56 bd 69 79 ee 3d 51 bf b3 3d
       0.22032318 -0.052478075 0.11644251 0.08776725
0000a0 86 63 e0 3d ba 9b 31 3d f3 db 6d 3e 80 b5 c0 bd
       0.109564826 0.043361403 0.23228435 -0.094096184
0000b0 5b 4a 61 be 13 0c 09 bc e1 26 5d 3e 36 b2 09 3e
       -0.2200102 -0.008364695 0.21596862 0.13446888
0000c0 20 62 40 be c1 f7 56 be ac 92 4a be 84 bc 4a be
       -0.18787432 -0.20992948 -0.19782513 -0.19798476
0000d0 32 01 65 bd 5b 77 b9 bb 97 4f 28 3d ab 18 34 3e
       -0.055909343 -0.0056599802 0.041091528 0.17587535
0000e0 84 f8 27 3c a2 80 76 be af 9b 06 be 57 31 df 3b
       0.010252122 -0.24072507 -0.13145326 0.0068113017
0000f0 e2 6f ce 3d a7 92 9c 3c 88 12 5e 3d 44 48 61 3e
       0.10079934 0.019112898 0.05421689 0.22000223
000100 d6 f2 3f 3d 6e 12 f8 bd ba 3e 6a 3e a6 20 d3 3c
       0.046862446 -0.1211289 0.22875491 0.025772404
000110 e1 4f 49 bc 20 04 21 3e 98 21 f9 3c 50 43 f8 bd
       -0.012287111 0.1572423 0.030411527 -0.12122214
000120 b1 0d 9b 3d 42 89 e5 bd 13 b5 5b be 91 71 eb bd
       0.07570971 -0.112078205 -0.21455793 -0.114962704
000130 88 ba b4 3d f5 cd 7d be 8b 78 6b 3d 9f 0e f0 bc
       0.088246405 -0.24785598 0.057488006 -0.029303847
000140 f4 92 06 be 7e 74 06 be 6b 44 d5 bb 84 bb 23 bd
       -0.13141996 -0.13130376 -0.0065084 -0.03997375
000150 c3 fd d3 3a 42 20 2b 3e d3 00 ff 3d 80 8e cd bd
       0.0016173649 0.16711524 0.12451329 -0.10036945
000160 39 f2 ed bd 1c 3b 9c 3d dc 56 2e 3d fc 43 c4 bd
       -0.11618466 0.07628462 0.042563304 -0.095832795
000170 6e af cc 3d ae c1 9f bd e2 2f 32 be e4 0d 88 3d
       0.09994398 -0.07800613 -0.17401078 0.066432744
000180 2c 3e 0f 3e 36 91 c6 3b 78 3d 77 3c dd cc 06 3e
       0.1398856 0.006059791 0.015090339 0.13164087
000190 0e 0e d4 3d 76 ee a0 bd 1f ed 2a be 2e d0 15 3e
       0.10354243 -0.07857983 -0.16692017 0.14630195
0001a0 7f 24 fa 3d e2 fa da bb 61 61 a5 bd 26 b1 7b 3c
       0.12213992 -0.0066827396 -0.08075214 0.01536206
0001b0 72 81 36 3e 49 02 12 be ff 07 0f 3d 77 de 3f 3e
       0.17822817 -0.14258684 0.034919735 0.18737207
0001c0 a7 1b 33 be 6c d3 32 3d 46 f1 00 3e cd 3c 33 be
       -0.17491017 0.04365866 0.12592039 -0.17503662
0001d0 77 c5 70 bd 24 52 80 bd 86 b6 05 be ec 85 67 be
       -0.058782067 -0.06265667 -0.13057908 -0.22609681
0001e0 c0 1c 7c 3d 0f f2 02 3d a9 61 0c be 45 95 c4 3d
       0.061550856 0.031969126 -0.1370913 0.095987834
0001f0 89 5c 19 be bb 80 9e bd 3b 13 0b 3c cf 1f 47 b9
       -0.14976706 -0.07739397 0.008488472 -0.00018989969
000200 18 4b 41 bd 6c 70 ce bd 1f bb 91 3d c3 ec d5 3d
       -0.047190756 -0.100800365 0.07115769 0.10445549
000210 8d a7 04 be b9 64 5c 3d 38 e8 49 bd 8e 0e ca 3d
       -0.1295454 0.053806994 -0.049293727 0.09866057
000220 1b 80 82 bc ae c3 06 be e9 5d 96 3c 39 81 17 be
       -0.015930226 -0.13160583 0.018355327 -0.14795388
000230 69 c1 39 3e 86 c5 c3 bc 00 c4 96 bd 2b 29 15 3e
       0.18140186 -0.023897897 -0.07361603 0.14566486
000240 3a 98 46 3e 23 a6 9e bd f4 94 c6 3c 0d 2f ac 3d
       0.19394007 -0.07746532 0.024240948 0.08407412
000250 82 87 67 be 6b 2c ac 3d 02 68 32 3e 29 b8 0a 3d
       -0.22610286 0.084069096 0.17422488 0.033867035
000260 ea 98 25 be 5e 04 e4 3c fa 36 65 3d a2 6a 20 be
       -0.16171613 0.027834114 0.055960633 -0.15665677
000270 6d 99 87 3d 26 20 fd 3d 92 38 01 be 8a 21 e9 bd
       0.066210605 0.123596475 -0.12619236 -0.1138335
000280 04 6f f2 bd 37 79 12 bd 71 c6 34 3e 00 e4 0a 3e
       -0.11837581 -0.03576013 0.17653824 0.13563538
000290 2d 1f 3b be 52 f1 5a be 5b 51 41 be 28 17 0a 3e
       -0.18273611 -0.21381119 -0.18878691 0.13485396
0002a0 3a 75 89 3d aa 11 2a 3e fb 17 c1 3d 56 48 85 3d
       0.06711812 0.16608301 0.09428402 0.065079376
0002b0 db 64 07 be e7 a1 d6 bd b6 06 2c be d5 d0 79 3d
       -0.13222067 -0.10480099 -0.16799435 0.060990173
0002c0 95 d6 03 be 66 ae dd 3d 83 93 77 3d 50 04 69 3d
       -0.12874825 0.108242795 0.060443413 0.05688888
0002d0 53 8d 02 3e 58 1a 8e 3d 11 d3 cd bd 08 54 67 be
       0.12749223 0.069386184 -0.10050023 -0.22590649
0002e0 99 90 a3 3c c5 aa 60 3d c5 e2 71 3d e1 ca 3e 3e
       0.01996641 0.05485036 0.059054155 0.1863208
0002f0 b0 24 15 be 67 8f ad bd 3a 7a 3c be 51 57 5f bb
       -0.14564776 -0.084746175 -0.18406 -0.0034079144
000300 ea 38 c6 bc 8e 60 2b be 5f 15 69 be 6a 74 98 3d
       -0.02419706 -0.16736051 -0.22762059 0.07444079
000310 d9 ce ed bc 4d 6a 03 bb a7 50 fb bd 66 8a 3e 3c
       -0.029029297 -0.0020052374 -0.122712426 0.011629676
000320 52 21 88 bd e5 48 42 3e 84 06 ed 3c f9 69 d9 3d
       -0.0664698 0.1897312 0.028933771 0.10615916
000330 4a d1 52 3e 16 ee f0 3c 7e 7a 6e 3e b0 d8 d6 3d
       0.2058765 0.029410403 0.23288915 0.104905486
000340 58 a4 89 bd 7d da 66 be 81 ba 84 3d ca d5 f0 3d
       -0.06720799 -0.22544284 0.06480885 0.11759527
000350 16 2d 2e bc 14 73 f8 3d 85 f9 20 be ab e8 53 be
       -0.0106308665 0.121313244 -0.15720184 -0.20694225
000360 b7 ef 83 3d 07 16 59 3e ab 8b 40 bd d7 4f 40 be
       0.06442206 0.21199809 -0.047008198 -0.18780456
000370 80 a9 92 3d 21 00 54 3e a5 80 30 be d3 18 ea bc
       0.07161236 0.20703174 -0.17236574 -0.02857629
000380 8f b0 39 3d ae 3c 1f be d5 0d f9 bd d7 d2 c6 bd
       0.045334395 -0.15550491 -0.121608414 -0.09708183
000390 88 0e db 3d b8 9a 52 be 87 71 8b bc 8f 9d 68 3d
       0.10696131 -0.20566833 -0.017021907 0.056790885
0003a0 0b d4 d7 3d 66 c9 05 3e 32 4c 8a bb c2 db 07 be
       0.10538491 0.13065109 -0.004220509 -0.13267425
0003b0 0a 26 f0 3c 84 47 58 3d fe 64 1f be f8 b1 1c be
       0.029315013 0.052802578 -0.15565869 -0.15302265
0003c0 b4 e6 05 be c7 18 54 3e 1e 5f cd 3d 01 67 3b 3e
       -0.13076288 0.20712577 0.10027908 0.18301012
0003d0 29 bb 10 be d0 35 d0 3d 97 9e 39 3e 6f a9 12 3e
       -0.14133896 0.10166514 0.18126903 0.14322446
0003e0 a3 6e 5d 3d dc 5f 95 bd 50 50 76 bd e6 ee 42 3c
       0.05406059 -0.07293674 -0.060135186 0.011897778
0003f0 21 c4 18 bd 6b d4 18 be d3 6f 7b bc f3 ee 2e 3d
       -0.037296418 -0.14924781 -0.015346485 0.04270835

fc3.bias f4 [10]
000000 58 c7 f0 bb ae 5d 44 be 82 7b 49 3e d2 f1 20 3e
       -0.0073479824 -0.19176361 0.1967602 0.15717247
000010 68 5e 1b 3e a9 83 a1 bd d7 85 5f bd e4 6d 1f be
       0.15172732 -0.0788644 -0.054571 -0.15569264
000020 af de 36 3d 37 9a 9f bd
       0.04464596 -0.07793086
