Pytorch/models/cifar_10_test.pt (torch, 146943 bytes, 10 tensors)

conv1.weight f4 [6, 3, 3, 3]
0	0xbeb181b5	-0.3466927
1	0xbf23062b	-0.63681287
2	0xbf187c33	-0.5956451
3	0xbdc53aaf	-0.09630334
4	0x3e990b14	0.29891264
5	0x3e8c6175	0.27418104
6	0x3e36b264	0.17841488
7	0xbe7f145f	-0.24910115
8	0xbea33f56	-0.3188426
9	0xbeb7275c	-0.35772216
10	0xbed0de2f	-0.40794513
11	0xbda4071e	-0.0800917
12	0x3e5f72b7	0.21821104
13	0x3ec744bb	0.38919625
14	0x3f1aead3	0.60514563
15	0x3ed98fcd	0.42492524
16	0x3ea8e012	0.32983452
17	0xbe58284c	-0.21109122
18	0xbd8c7e8a	-0.06860073
19	0xbd252ffa	-0.040328957
20	0xbd87ac58	-0.06624669
21	0x3e526011	0.20544459
22	0x3eebef3f	0.46080968
23	0x3f2c434b	0.6729018
24	0xbd8f3a23	-0.069935106
25	0xbc6d0b03	-0.014467957
26	0x3d904aeb	0.070455395
27	0x3cea725d	0.028618986
28	0x3d450db0	0.048108757
29	0xbe058fa4	-0.13043076
30	0x3ec81ee7	0.39086077
31	0x3f026d02	0.5094758
32	0x3f0217bb	0.5081746
33	0x3ee51e23	0.44749555
34	0x3eb4705c	0.35241973
35	0x3e8c3272	0.27382237
36	0xbe89c867	-0.26910707
37	0xbe2f63e5	-0.1712795
38	0x3e07d75e	0.1326575
39	0xbe8b2355	-0.27175394
40	0xbbb28648	-0.0054481365
41	0xbe836388	-0.25661874
42	0xbe3dfa00	-0.18552399
43	0xbe6c7b14	-0.23093826
44	0x3d95446b	0.0728844
45	0x3da361b5	0.079776205
46	0x3d75d2d3	0.06001551
47	0xbc84270f	-0.016131906
48	0xbe0ebf77	-0.13940226
49	0xbf06fa6c	-0.52725863
50	0xbe5c79f2	-0.21530893
51	0xbebcb332	-0.36855465
52	0xbe1be998	-0.15225828
53	0xbe79146d	-0.24324198
54	0xbe0dfc93	-0.1386588
55	0xbe4324f1	-0.19057061
56	0xbe39dc94	-0.1815055
57	0x3e1bcb8f	0.1521437
58	0x3e29be07	0.16576396
59	0xbed754dc	-0.4205693
60	0x3d4d34cf	0.05009919
61	0x3e21989b	0.1578087
62	0xbe7cf8ed	-0.24704333
63	0x3d9e5faa	0.0773309
64	0xbd85a20c	-0.065250486
65	0xbefb6caa	-0.49106342
66	0x3e2d7047	0.16937362
67	0x3da6a463	0.08136823
68	0xbefc0ceb	-0.49228606
69	0x3e2448d1	0.16043402
70	0x3eb5792d	0.35444012
71	0xbebbc5c7	-0.3667433
72	0x3f1ae9ed	0.6051319
73	0x3e6d6119	0.23181571
74	0xbf07bba4	-0.5302069
75	0x3eaed074	0.34143412
76	0x3f16c5df	0.5889568
77	0xbe824f2d	-0.2545103
78	0x3de6c0f1	0.112672694
79	0x3f0e9160	0.55690575
80	0xbe55b727	-0.20870648
81	0x3f1bee09	0.6091009
82	0x3e237c1a	0.1596531
83	0x3daf5fad	0.085631706
84	0xbe2de1f7	-0.1698073
85	0x3d3bdc83	0.045864593
86	0x3e6cf290	0.23139405
87	0xbf475141	-0.7785836
88	0xbf1663d9	-0.58746105
89	0x3d7e7238	0.062120646
90	0x3e0bc58c	0.13649577
91	0xbd22ab0b	-0.0397139
92	0xbe04c56e	-0.12965938
93	0xbe84a99a	-0.25910646
94	0xbd609d56	-0.054837547
95	0x3d891a23	0.06694438
96	0xbf4b8b2c	-0.79509234
97	0xbf05a927	-0.5221123
98	0xbe00a21c	-0.1256184
99	0x3ed97604	0.4247285
100	0x3e91e560	0.28495312
101	0x3e2c614f	0.16833995
102	0x3dac4c14	0.08412948
103	0xbd66ee64	-0.05637969
104	0x3eb53b16	0.35396641
105	0xbefd55d0	-0.49479532
106	0xbde425aa	-0.11139996
107	0xbc99546b	-0.018717011
108	0xbe82b592	-0.25529152
109	0xbdf58f43	-0.11990216
110	0x3eba1480	0.36343765
111	0xbf43a554	-0.76424146
112	0x3f0bbbd4	0.5458348
113	0x3f03b919	0.5145431
114	0x3e38e238	0.18055046
115	0x3ef76c47	0.48324797
116	0xbecca728	-0.3997128
117	0xbe6d2514	-0.23158675
118	0xbeae6e27	-0.34068415
119	0x3f02c483	0.51081103
120	0xbf56d0f7	-0.83912605
121	0x3eb8eba4	0.3611728
122	0x3f2b4c3d	0.66913205
123	0xbe71433e	-0.23560807
124	0x3e9f99fc	0.31172168
125	0xbde8af92	-0.113616124
126	0xbefd95f5	-0.4952847
127	0xbecdb2fe	-0.40175623
128	0x3eba2fc4	0.36364567
129	0xbf589daa	-0.84615576
130	0x3df17166	0.11789207
131	0x3ea2eec6	0.31822795
132	0x3e0f5f5c	0.1400122
133	0x3ec9a0ee	0.39380592
134	0xbeef0aa0	-0.46687794
135	0x3dce9957	0.10087841
136	0x3e8a5f6f	0.27025935
137	0x3ecdb976	0.40180558
138	0x3ec24d6d	0.37949696
139	0x3e9df20f	0.3084874
140	0x3ecf5573	0.4049488
141	0x3e82fdf1	0.25584367
142	0x3e01b5e5	0.12667044
143	0x3cae7f59	0.021300958
144	0x3e0d9640	0.13826847
145	0x3dfd5a59	0.12370748
146	0xbdbbfef2	-0.09179486
147	0x3e630c4a	0.22172657
148	0x3e2ebd36	0.17064366
149	0x3e0269ed	0.1273572
150	0x3a29488b	0.0006457648
151	0xbd58b41d	-0.052906144
152	0xbe4ead67	-0.20183335
153	0xbd8f8739	-0.070082135
154	0xbc685367	-0.014180041
155	0x3da26d2b	0.079309784
156	0x3e2c37a1	0.16818096
157	0x3e53ebeb	0.20695464
158	0x3e81d51c	0.25357902
159	0x3e1f1355	0.15534718
160	0x3e0f4a25	0.13993128
161	0xbe33c52a	-0.17555681

conv1.bias f4 [6]
0	0x3f5e5583	0.8684923
1	0xbf014f2c	-0.5051143
2	0x3f23a36c	0.63921237
3	0xbd52b2ae	-0.051439933
4	0x3e886c25	0.26645008
5	0x3f923062	1.1421015

conv2.weight f4 [8, 6, 3, 3]
0	0x3e1a1786	0.15048036
1	0x3d614417	0.054996576
2	0x3bea8b9a	0.007157755
3	0xbde58ef7	-0.11208909
4	0xbe56a70a	-0.20962158
5	0xbe80f61a	-0.2518776
6	0xbe4b4348	-0.19849885
7	0xbe917182	-0.28406912
8	0x3b2a2ce1	0.0025966691
9	0xbcafce95	-0.02146081
10	0xbda6e8af	-0.081498496
11	0xbdfa0276	-0.12207501
12	0x3e33e9f3	0.17569713
13	0x3e00b5b2	0.12569311
14	0x3d0f1f29	0.034941826
15	0x3e2eeb75	0.17082007
16	0xbd1ad95c	-0.037804946
17	0x3e05a4ea	0.13051191
18	0xbdd6a468	-0.10480577
19	0x3e2157f2	0.15756205
20	0xbdfb03ad	-0.122565605
21	0xbd8a9c96	-0.06768148
22	0xbb098220	-0.0020982102
23	0x3dd944d9	0.10608835
24	0x3e1d0d53	0.15337114
25	0x3d729c3d	0.05923103
26	0x3e2d366e	0.16915295
27	0x3d4b44dc	0.049626216
28	0x3dd420f4	0.10357848
29	0x3dcd0933	0.1001152
30	0x3e125a9f	0.14292382
31	0x39a56232	0.00031544414
32	0x3e51d8fb	0.20492928
33	0x3dc2619b	0.09491273
34	0x3db85b36	0.09001772
35	0xbca8dd48	-0.020613328
36	0x3df4e65d	0.11958001
37	0x3d8760c0	0.066102505
38	0x3e0117be	0.12606713
39	0x3e9c729d	0.30556193
40	0xbe47e652	-0.19521454
41	0xbe3818b6	-0.17978176
42	0xbc94bc58	-0.018156216
43	0xbe4e3bd8	-0.20140016
44	0xbe102e44	-0.14080149
45	0x3d8aba49	0.06773812
46	0xbb63604d	-0.003469485
47	0xbe302d63	-0.17204814
48	0x3ea80401	0.32815555
49	0x3ef04cd0	0.46933603
50	0x3e612044	0.21984965
51	0x3eedfeb1	0.46483377
52	0x3ebf5561	0.37369826
53	0x3ebfe2e4	0.3747779
54	0x3e03b67a	0.12862578
55	0xbe6c4001	-0.2307129
56	0xbf0c378c	-0.5477226
57	0x3e34439b	0.17603914
58	0xbe9c9e6e	-0.30589622
59	0xbf175b94	-0.5912411
60	0x3de7171c	0.11283705
61	0xbe442e90	-0.19158387
62	0xbe9a4fb5	-0.30138937
63	0x3d2cbd45	0.04217269
64	0x3db830ec	0.08993706
65	0x3e34c81e	0.17654464
66	0x3aee6df4	0.0018190728
67	0x3d5eb6bc	0.054373488
68	0x3e3b8a56	0.1831449
69	0xbd6b5161	-0.057450656
70	0x3e3f3dcd	0.18675919
71	0x3e681d9f	0.2266755
72	0x3ed7c3f8	0.421417
73	0x3e931e78	0.28734183
74	0xbe4ddc94	-0.20103675
75	0x3f0bb474	0.54572225
76	0x3ee2b4c7	0.44278547
77	0xbd306dd8	-0.043073505
78	0x3f036829	0.5133081
79	0x3f04d24d	0.51883394
80	0x3e5ab06d	0.21356364
81	0xbdaa3b1b	-0.08312055
82	0xbe314ef4	-0.17315274
83	0x3e690d67	0.22759019
84	0xbe812b77	-0.25228474
85	0xbc202d90	-0.009776488
86	0x3e6085b4	0.21926004
87	0xbe52541a	-0.20539895
88	0x3d15e78f	0.036597785
89	0x3e97d46a	0.29654247
90	0x3dfa576a	0.12223704
91	0xbe810827	-0.25201532
92	0x3db3e7a5	0.08784417
93	0xbda5d59d	-0.08097384
94	0xbf00ac51	-0.50262934
95	0x3e72e2d0	0.23719335
96	0xbdc55afd	-0.09636495
97	0xbf0a7b0e	-0.54094017
98	0x3e72d46b	0.23713844
99	0x3e009d3f	0.12559985
100	0x3dd0a836	0.10188334
101	0xbe422d36	-0.18962559
102	0xbd20b4a1	-0.03923476
103	0x3e2177d4	0.15768367
104	0xbe2dc8d9	-0.16971149
105	0x3d499ca5	0.049221653
106	0xbd375b48	-0.044764787
107	0xbcecd1ab	-0.028908571
108	0xbd5c5c48	-0.053798944
109	0x3e91ae21	0.28453162
110	0x3e37ccd1	0.17949225
111	0xbc898165	-0.016785333
112	0x3e5d5141	0.21613027
113	0x3dac16bb	0.08402773
114	0x3e04a9f0	0.12955451
115	0x3ce924a9	0.028459864
116	0x3d74a2eb	0.059725683
117	0xbe5631f9	-0.209175
118	0xbdb52666	-0.088452145
119	0x3d8fe55e	0.0702617
120	0xbdb8a58c	-0.090159506
121	0xbe3fad29	-0.18718399
122	0x3c9bf26e	0.019036498
123	0xbe63e67f	-0.22255896
124	0xbe056d88	-0.13030064
125	0xbdf20831	-0.11817969
126	0xbc408d41	-0.011752428
127	0xbd3ec3a8	-0.04657331
128	0xbc03762b	-0.008023779
129	0xbdbbbf8c	-0.09167394
130	0x3d14c2a2	0.03631843
131	0x3d1a9ad6	0.03774532
132	0xbdbf9604	-0.09354785
133	0x3ed050ed	0.4068674
134	0xbabdfe8b	-0.0014495415
135	0x3e33c9fa	0.17557517
136	0x3c040883	0.00805867
137	0xbd272c59	-0.040813778
138	0x3e1e92a6	0.1548563
139	0xbe5d7b05	-0.2162896
140	0xbe389dd8	-0.18028963
141	0x3da95ead	0.08270011
142	0xbebb3d45	-0.36570182
143	0x3d80fee1	0.06298614
144	0x3c545e0e	0.0129618775
145	0x3f083909	0.5321203
146	0xbce65f95	-0.028121749
147	0x3f2a3580	0.66487885
148	0x3e9207b9	0.28521517
149	0x3d8d15fa	0.06888957
150	0x3f848d5e	1.0355642
151	0xbe3c5f4f	-0.18395732
152	0x3e575042	0.2102671
153	0xbbe9618e	-0.007122225
154	0xbdd57183	-0.10422041
155	0xbd921999	-0.071337886
156	0xbddfabfb	-0.109214745
157	0xbd3ffd80	-0.046872616
158	0xbd0c1ad9	-0.03420529
159	0xbe81c0aa	-0.25342304
160	0x3d0d0b38	0.034434527
161	0xb77b66a4	-1.4984664e-05
162	0x3e163e10	0.14672112
163	0xbbd53e32	-0.0065076584
164	0xbe2274d8	-0.15864885
165	0x3d8bcdd2	0.068263665
166	0xbd2e44e8	-0.042546183
167	0xbe21b552	-0.15791824
168	0xbd9e793e	-0.07737969
169	0x3d833cb5	0.06408063
170	0x3ea11d03	0.31467447
171	0x3e0e7801	0.13912965
172	0x3e6cb028	0.23114073
173	0x3e02d6a8	0.12777197
174	0x3e96a652	0.29423767
175	0x3e9cb5a2	0.30607325
176	0x3d8c4a79	0.06850142
177	0xbe2e7af1	-0.17039086
178	0x3d9cf362	0.07663609
179	0xbe1f81e7	-0.15576898
180	0x3d9ab95f	0.07554888
181	0xbd7f944c	-0.062397286
182	0x3e146480	0.14491463
183	0x3dd2e107	0.10296827
184	0x3c84e680	0.016223192
185	0xbd2a9a24	-0.041650906
186	0xbdb8e414	-0.090278774
187	0xbe8b4979	-0.27204493
188	0xbe10da14	-0.1414569
189	0x3e3a2f2e	0.1818206
190	0x3cc8070e	0.024417426
191	0x3e8e0a45	0.2774221
192	0x3e651417	0.22370945
193	0x3ec994e9	0.39371422
194	0x3ef68a3d	0.48152342
195	0x3f0382c4	0.5137141
196	0x3f364d1e	0.7121142
197	0x3ed8bf52	0.42333466
198	0x3d8bd32f	0.068273894
199	0xbddff72a	-0.10935815
200	0xbda1650a	-0.078806
201	0x3e9c8302	0.305687
202	0x3e2e9765	0.1704994
203	0xbd120734	-0.0356514
204	0xbe43f774	-0.19137365
205	0x3ea56eee	0.32311195
206	0x3ed03c64	0.40671074
207	0x3d3cc195	0.04608305
208	0x3e9cdb35	0.30635992
209	0x3cb1e442	0.021715287
210	0x3ea8148e	0.32828182
211	0x3db74e57	0.08950489
212	0xbef6dd31	-0.4821563
213	0xbe83fe63	-0.2578002
214	0xbe76a25d	-0.24085374
215	0x3d8d3ce0	0.068963766
216	0xbdcd59c2	-0.100268856
217	0xbeb2b743	-0.34905443
218	0xbe37edcc	-0.17961806
219	0xbd205bdd	-0.039150108
220	0xbe06f79b	-0.13180391
221	0xbe151f43	-0.14562707
222	0xbdbd32d8	-0.09238213
223	0xbe858dd9	-0.26084784
224	0xbdf3e527	-0.11908942
225	0x3df24fce	0.11831628
226	0xbcdeb475	-0.027185658
227	0xbd3abed1	-0.045592133
228	0xbdb51257	-0.08841389
229	0xbdf06c92	-0.11739458
230	0xbd3f5a5f	-0.046717044
231	0xbd9b5c29	-0.075859375
232	0xbd72e4f6	-0.059300385
233	0xbe1b4a05	-0.15164955
234	0x3e15a4cb	0.14613645
235	0x3eae5d3a	0.340555
236	0xbd8b34a0	-0.06797147
237	0x3e38e845	0.18057354
238	0x3eada77e	0.3391685
239	0xbd7dace8	-0.061932474
240	0x3ed556d5	0.4166781
241	0x3e686ac6	0.22696981
242	0x3eab31e2	0.33436495
243	0xbebd4eb8	-0.3697412
244	0xbeb4054d	-0.35160294
245	0x3e0bbebf	0.13646983
246	0xbdd7b214	-0.105320126
247	0xbeeedbaa	-0.46651965
248	0xbe62c8c0	-0.22146893
249	0xbdd1b05b	-0.10238715
250	0x3e45bb18	0.19309652
251	0xbba86e34	-0.0051400904
252	0x3e8c2d13	0.2737814
253	0x3ecc354c	0.39884412
254	0x3f21d7d5	0.6321996
255	0x3e77f922	0.2421613

conv2.bias f4 [8]
0	0xbe9f461f	-0.31108186
1	0x3e9c6468	0.30545354
2	0xbeab132c	-0.33413064
3	0xbe53de79	-0.20690335
4	0xbe40643d	-0.18788238
5	0x3dc99a9c	0.098439425
6	0xbef48f24	-0.47765458
7	0x3f7014ec	0.93781924

fc1.weight f4 [64, 512]
0	0xbd6720d7	-0.056427803
1	0xbc73fc12	-0.014891641
2	0x3ceca076	0.028885107
3	0x3d725159	0.05915961
4	0xbd3abdf4	-0.04559131
5	0x3a6bd5b5	0.00089963834
6	0x3cacabb7	0.021077974
7	0x3ca2db4b	0.019879958
8	0xbd91d0d9	-0.07119913
9	0xbc713cd5	-0.014723976
10	0x3c871144	0.016487725
11	0xbc013e0d	-0.007888329
12	0xbc192a5e	-0.00934848
13	0xbd17346b	-0.036915224
14	0x3cd914a9	0.02649911
15	0xbc552ed8	-0.013011657
16	0xbc03e764	-0.008050773
17	0x3c41f566	0.011838293
18	0xbd6f519d	-0.058427442
19	0x3d7873bc	0.060657248
20	0xbdd1ef71	-0.10250748
21	0xbd01b4ba	-0.031666495
22	0x3d566936	0.05234643
23	0x3c2de048	0.010612555
24	0x3d02f637	0.03197309
25	0x3c611e13	0.01374008
26	0x3d6cc9dd	0.0578097
27	0x3cba62ab	0.022752127
28	0x3c9bdf8d	0.019027496
29	0x3d27201b	0.040802103
30	0xbb0d6af7	-0.0021578649
31	0x3d7b5618	0.061361402
32	0xbc9e16d0	-0.019297987
33	0x3c01c897	0.0079213595
34	0xbbd0b2d1	-0.006368973
35	0x3d0b7859	0.03405032
36	0x3d735f6d	0.059417177
37	0xbc36e842	-0.011163773
38	0xbda7352c	-0.081644386
39	0xbd80d4d2	-0.06290592
40	0xbcf6e7ee	-0.03013989
41	0xbd11655c	-0.035497054
42	0xbd7fe2a3	-0.062471997
43	0x3ddb6692	0.10712923
44	0x3d770ddb	0.060315948
45	0xbcf40752	-0.029788647
46	0x3c60765c	0.013700094
47	0xbd101fab	-0.03518645
48	0xbc558ded	-0.013034326
49	0xbd603cf5	-0.054745633
50	0x3d413ae2	0.047175296
51	0x3cc562d8	0.024094984
52	0xbc3e06a3	-0.011598262
53	0x3d5b9e2d	0.053617645
54	0xbd6881b0	-0.056764305
55	0xbd79b509	-0.060963664
56	0xbbd7e7e7	-0.006588924
57	0x3d29735a	0.041369773
58	0x3b37983f	0.002801433
59	0x3c0c13da	0.008549655
60	0x3c6390e4	0.013889525
61	0xbdad0543	-0.08448269
62	0xbc2658cc	-0.010153007
63	0x3c9f66c5	0.019458184
64	0x3ca52c4a	0.02016272
65	0xbadd631b	-0.0016890498
66	0x3baaa19e	0.0052072546
67	0x3dbe23f3	0.092842005
68	0x3c90f7a4	0.01769621
69	0x3cf5d0f7	0.030006869
70	0x3d3a9594	0.045552805
71	0x3c90b1e8	0.017662957
72	0x3ce85124	0.028359003
73	0x3c9c7533	0.019098854
74	0x3be14569	0.0068747294
75	0x3bd3e447	0.0064664218
76	0x3d044e2d	0.032301117
77	0x3d173d32	0.036923595
78	0x3c9051dd	0.01761716
79	0xbc766281	-0.015038134
80	0x3cd64f92	0.026160989
81	0x3d095ac4	0.033533826
82	0x3c7f337e	0.015576242
83	0xbda3902b	-0.07986482
84	0xbd49f334	-0.049304202
85	0xbc874fbc	-0.016517513
86	0x3c9cfb98	0.019162938
87	0xbc96dcf1	-0.0184159
88	0x3c89895b	0.016789129
89	0xbd7968ca	-0.06089095
90	0xbd2faf7a	-0.042891957
91	0xbc635bf3	-0.013876903
92	0x3c92827b	0.017884484
93	0xbda93476	-0.08261959
94	0xbcdb6d82	-0.026785616
95	0xbcec2ae1	-0.02882904
96	0x3c960f0e	0.018317726
97	0xbd637f85	-0.055541534
98	0xbd607450	-0.054798424
99	0xbcbe74ca	-0.023249049
100	0x3d16b4e6	0.036793612
101	0xbcde18e8	-0.027111486
102	0xbba52a64	-0.0050404537
103	0xbd4e62ff	-0.05038738
104	0xbc40317e	-0.01173055
105	0xbb9923d3	-0.00467346
106	0xbc2ef18f	-0.010677709
107	0xbcd9b460	-0.026575267
108	0xbbdddd13	-0.006770739
109	0x3ceb4c94	0.028723039
110	0xbd55440c	-0.052066848
111	0xbc44bd2f	-0.0120079955
112	0xbc3ce88f	-0.011530056
113	0xbd4d525a	-0.050127365
114	0xbb8d8526	-0.004318851
115	0x3b75c12c	0.0037499173
116	0xbd44927b	-0.047991257
117	0xbcf66a30	-0.030079931
118	0x3d33ddaf	0.043912586
119	0xbd223f2d	-0.03961103
120	0xbcb9ae61	-0.022666158
121	0xbd1c2bb4	-0.038127616
122	0xbc0e837e	-0.008698342
123	0x3dbe9121	0.09305025
124	0x3d53df87	0.051726844
125	0x3bea9329	0.007158656
126	0x3daeb23f	0.085300915
127	0x3dd3462a	0.10316117
128	0x3d108fdc	0.035293445
129	0xbd0f78dd	-0.035027374
130	0xbcadf3d5	-0.021234432
131	0xbd92357e	-0.07139109
132	0x3cf3b9e2	0.029751722
133	0x3cf2292f	0.029560653
134	0xbd5bc322	-0.05365289
135	0x3c88a342	0.01667941
136	0xbc04f0da	-0.008114064
137	0xbd84cb6c	-0.06484112
138	0x3d386d6d	0.04502623
139	0xbd8f1628	-0.06986648
140	0xbd87fe8c	-0.06640348
141	0xbcca8d67	-0.024725629
142	0xbb2687a4	-0.0025410438
143	0xba671adc	-0.0008815953
144	0xbd2db940	-0.042412996
145	0xbd06a6b9	-0.032873843
146	0xba876ffb	-0.0010333055
147	0xbd0dfefe	-0.034667008
148	0xbd145305	-0.036211986
149	0xbd64e088	-0.055878192
150	0x3d8c2296	0.06842534
151	0xbc42bba4	-0.011885557
152	0xbd8cd7ab	-0.06877073
153	0xbc8688c0	-0.01642263
154	0x3bb81f8f	0.0056189965
155	0x3db5bf79	0.08874411
156	0x3be80ff6	0.007081981
157	0x3baa203c	0.005191831
158	0x3c4ab601	0.012372495
159	0xbbf03241	-0.0073302095
160	0xbc3f1bbf	-0.01166433
161	0x3c8966bb	0.016772619
162	0x3ca566a6	0.020190548
163	0x3d0407fe	0.032234184
164	0x3c858908	0.016300693
165	0xbca4b5c3	-0.020106202
166	0x3c750983	0.014955881
167	0x3aca6e25	0.0015444203
168	0x3d200ba5	0.039073605
169	0xbd8d596c	-0.069018215
170	0xba26620e	-0.0006347009
171	0xbd4d8e20	-0.05018437
172	0x3c3c7015	0.011501332
173	0x3c9c63d9	0.01909058
174	0xbcac6355	-0.021043459
175	0x3ca97c04	0.020689018
176	0xbcd2623f	-0.025681613
177	0xbd83cd6e	-0.06435667
178	0xbd629b16	-0.055323683
179	0x3cb493ce	0.022043135
180	0x3c341a6c	0.010992628
181	0x3c1d58fc	0.009603735
182	0xba53fc6a	-0.0008086624
183	0x3c427bb9	0.011870318
184	0xbcb37a6d	-0.021908963
185	0xbca09758	-0.019603416
186	0xbdbe34b9	-0.092874
187	0x3c82415d	0.015900308
188	0xbd22f5d0	-0.039785206
189	0x3c7e6bc6	0.015528625
190	0xbc5c7b1a	-0.013457084
191	0xbdd2815e	-0.10278581
192	0x3d2a669a	0.041601755
193	0x3d0e94cd	0.034809876
194	0x3c95009b	0.018188765
195	0x3d1f8fdb	0.03895555
196	0xbb7f02d7	-0.0038911605
197	0x3bd89203	0.006609203
198	0x3c7ec1b3	0.015549111
199	0x3bc64bc5	0.006051513
200	0xbdb04b26	-0.086080834
201	0x3d39d415	0.045368273
202	0x3d2b2c9f	0.0417906
203	0xbae583d9	-0.0017510607
204	0x3d2cd074	0.042190984
205	0x3dad73e8	0.08469373
206	0xbc671b58	-0.01410564
207	0xbc074a1b	-0.008257414
208	0xbd39ed9e	-0.045392625
209	0xba453a24	-0.0007523617
210	0x3c41811b	0.011810566
211	0x3c3257ba	0.010885173
212	0x3b3f6689	0.0029205403
213	0x3d5c0a9f	0.053721067
214	0xbc60271a	-0.013681198
215	0xbc34aec5	-0.011027996
216	0xbd305c24	-0.043056622
217	0xbc019f3a	-0.007911498
218	0x3d600273	0.054689836
219	0x3d1cc229	0.038271103
220	0x3d7f1e4e	0.06228476
221	0x3d10ad9b	0.035321813
222	0x3c90498a	0.017613191
223	0xbb52623f	-0.0032102016
224	0xbac81b66	-0.0015266954
225	0xbd3646be	-0.04450106
226	0x3d9680e1	0.073488005
227	0x3dcee746	0.10102706
228	0x3d8716b9	0.06596131
229	0xbcb12139	-0.021622287
230	0x3cbe196f	0.023205487
231	0xbd984a88	-0.07436091
232	0xbd6714db	-0.056416374
233	0xbbfc770b	-0.0077046207
234	0xbd618fd5	-0.05506881
235	0xbc815291	-0.015786441
236	0xbd3c5256	-0.04597696
237	0x3cfc3828	0.030788496
238	0x3d4a7a46	0.049433015
239	0xbb70371b	-0.003665394
240	0xbdbece9c	-0.09316751
241	0xbdafc3a2	-0.08582236
242	0x3d02e4a9	0.03195635
243	0x3d36de83	0.044645797
244	0x3d424378	0.047427624
245	0x3d486857	0.04892763
246	0x3b30a5b9	0.0026954247
247	0xbdb999cd	-0.09062538
248	0xbdb3cf94	-0.08779827
249	0xbd9388ed	-0.07203851
250	0x3cd088ab	0.025455793
251	0xbc6c4f15	-0.0144231515
252	0xbcdfe44e	-0.027330544
253	0xbd306c67	-0.04307213
254	0xbd7413c7	-0.059589174
255	0xbdc9638b	-0.098334394

fc1.bias f4 [64]
0	0xbc279ba8	-0.010229982
1	0xbac1cf58	-0.0014786525
2	0xbb3dbd15	-0.0028951813
3	0x3e00c0c5	0.12573536
4	0x3c9dda71	0.0192692
5	0x3d0e66c9	0.034765992
6	0x3d68d9d6	0.05684837
7	0xbd5d110c	-0.053971335
8	0xbca30e64	-0.019904323
9	0x3e3c5d6e	0.18395016
10	0x3df93db0	0.12169969
11	0x3c4c1eea	0.012458542
12	0x3d236679	0.039892647
13	0xbd651f33	-0.055937957
14	0x3d8d3b4e	0.06896077
15	0x3c378cb9	0.0112029845
16	0x3e0a0f42	0.13482383
17	0x3d643620	0.05571568
18	0xbd8c1faf	-0.06841981
19	0x3d906523	0.0705054
20	0x3d6fa72a	0.05850903
21	0xbbcb8091	-0.0062103947
22	0x3de7f39f	0.11325764
23	0x3c042fc3	0.008068028
24	0x3d50a7c5	0.050941247
25	0x3e499914	0.19687301
26	0x3cf53fbf	0.029937623
27	0xbc620a30	-0.013796374
28	0xbc39a3ea	-0.011330584
29	0x3dd549f0	0.10414493
30	0xbc82908a	-0.015938062
31	0x3d1a7e52	0.037718125
32	0x3d1e8474	0.038700536
33	0x3d837582	0.06418897
34	0xbd4e7565	-0.050404925
35	0x3d615632	0.055013843
36	0x3d08f789	0.033439193
37	0xbc64f646	-0.013974732
38	0x3cf9a572	0.030474398
39	0x3d10e388	0.03537324
40	0x3c5fe3b2	0.013665127
41	0xbd8c22dd	-0.06842587
42	0x3cf107ed	0.029422725
43	0xbbe78d06	-0.007066372
44	0xbd350e44	-0.044203058
45	0xb90abc3d	-0.0001323083
46	0xbd506f4c	-0.05088739
47	0xbc5da140	-0.0135272145
48	0xbc23eb7f	-0.010004877
49	0xbd658dc4	-0.0560434
50	0x3ca5b7bc	0.020229213
51	0x3d89ea44	0.06734136
52	0x3cae485f	0.021274744
53	0x3d0a7170	0.03379959
54	0xbcd9031e	-0.026490744
55	0xbda80846	-0.08204703
56	0xbcadeb7d	-0.021230454
57	0x3ca0ef84	0.01964546
58	0x3e01c20b	0.12671678
59	0x3d8dc8a3	0.06923034
60	0xbd132aa9	-0.035929356
61	0xbc8b9714	-0.017039813
62	0x3c75f0f3	0.01501106
63	0xbd39cab7	-0.04535934

fc2.weight f4 [32, 64]
0	0xbd31d82a	-0.04341904
1	0x3d394ae3	0.045237433
2	0x3d2c8324	0.042117253
3	0x3d87bb87	0.06627565
4	0x3d892e4e	0.06698285
5	0x3e3f75d5	0.18697293
6	0xbca30a6e	-0.019902434
7	0x3e0081c9	0.12549509
8	0xbd418769	-0.047248278
9	0x3e25427d	0.16138645
10	0xbe42a619	-0.19008674
11	0x3dbe06a2	0.09278609
12	0x3e3191df	0.17340802
13	0x3d44593a	0.047936656
14	0xbe8c149c	-0.27359474
15	0xbc0967d3	-0.00838657
16	0x3de9f4e1	0.1142366
17	0x3e2f1821	0.17099048
18	0x3d8f5878	0.06999296
19	0x3e5e4c16	0.21708712
20	0x3db9e1cb	0.0907627
21	0x3dd3cbca	0.10341604
22	0xbe00478e	-0.12527296
23	0x3df98c43	0.12184956
24	0x3dfa3594	0.122172505
25	0xbe210d64	-0.15727764
26	0xbbb72053	-0.00558857
27	0x3e16bdc7	0.14720832
28	0x3d882652	0.06647934
29	0x3e014707	0.12624751
30	0x3d8267aa	0.063674286
31	0xbd3bda31	-0.04586238
32	0xbc15ae7c	-0.009135839
33	0x3db94987	0.09047227
34	0xbd9ec538	-0.0775246
35	0xbd7110e2	-0.05885399
36	0x3ca5bc5e	0.020231422
37	0xbe655354	-0.22395068
38	0xbe33e2be	-0.17566964
39	0x3d07160b	0.032980006
40	0xbdf5627e	-0.119816765
41	0x3cfeb1df	0.031090675
42	0x3d598d09	0.053113017
43	0xbdde2085	-0.10846046
44	0xbdfe71eb	-0.12424072
45	0xbd865d1c	-0.06560728
46	0x3d899d31	0.06719435
47	0xbc6a08e1	-0.014284343
48	0xb9c92e02	-0.00038371986
49	0xbdfe9d0b	-0.12432297
50	0xbda7456c	-0.08167538
51	0x3c5a5626	0.013326203
52	0xbcbf072f	-0.023318855
53	0x3d5e8599	0.054326627
54	0xbb5483f7	-0.003242729
55	0xbe2f6c4b	-0.17131154
56	0x3dbdb04b	0.09262141
57	0x3d83aaac	0.064290375
58	0x3d53ade4	0.051679507
59	0x3d9d0ee3	0.07668855
60	0xbe883068	-0.2659943
61	0x3e0ef036	0.1395882
62	0xbdb6eb8a	-0.08931644
63	0xbd56e18e	-0.0524612
64	0x3dd78396	0.10523145
65	0x3dc3cda1	0.09560705
66	0xbd85ec6d	-0.06539235
67	0x3ce294ba	0.027658809
68	0xbcbc2b75	-0.02296994
69	0xbdb10a72	-0.086445704
70	0xbd2d5d16	-0.0423251
71	0x3e2caf0d	0.16863652
72	0x3b2edc60	0.0026681647
73	0xbd46ee91	-0.04856736
74	0xbe6a1fca	-0.22863689
75	0xbd219e39	-0.039457534
76	0xbd8c6b25	-0.06856374
77	0xbbae163b	-0.0053127087
78	0xbdb0faa2	-0.086415544
79	0xbe285fc1	-0.16442777
80	0xbdc5f662	-0.096661344
81	0x3dfca94b	0.123369776
82	0x3c520ad3	0.0128199635
83	0xbdf02b7c	-0.11727044
84	0x3c940fa0	0.018073857
85	0xbe0da37c	-0.13831896
86	0xbde2cb78	-0.11073965
87	0xbcdbab13	-0.026814973
88	0xba66afd4	-0.0008800004
89	0xbd8a37d7	-0.06748932
90	0x3de4012b	0.11133035
91	0x3d764b4f	0.060130414
92	0xbe01c7d2	-0.12673882
93	0x3d234f35	0.03987046
94	0x3d4d2656	0.050085388
95	0x3d8e1b58	0.06938809
96	0xbd816d2b	-0.0631965
97	0xbe2fe140	-0.1717577
98	0xbdbf0b34	-0.09328309
99	0xbda4d25b	-0.080479346
100	0xbdfabef1	-0.122434504
101	0x3e3d49e7	0.18485223
102	0xbd085297	-0.03328189
103	0x3dcb5bc9	0.09929616
104	0x3d8d6cc1	0.06905509
105	0x3d887d88	0.06664568
106	0xbdf62851	-0.120194085
107	0x3e2915ca	0.16512218
108	0x3e58b341	0.2116213
109	0x3cc6c771	0.024265023
110	0x3d71af50	0.05900508
111	0xbe287397	-0.16450344
112	0x3e1e0eae	0.15435287
113	0x3e2e8302	0.17042163
114	0x3dcec4cc	0.1009613
115	0xbd4e1c5e	-0.05032002
116	0x3e04bdf5	0.12963088
117	0x3c8aa44c	0.016924046
118	0x3d0bd555	0.034138996
119	0x3e888997	0.26667473
120	0xbdc3af33	-0.09554901
121	0xbcc8a0cd	-0.024490738
122	0x3d9ad94c	0.07560977
123	0x3d8e5334	0.069494635
124	0x3e240016	0.16015658
125	0xbde73c6c	-0.112908214
126	0x3dd2e4b5	0.10297529
127	0xbd71dec4	-0.059050336
128	0xbe3bfad2	-0.18357399
129	0xbbbe5ea4	-0.005809622
130	0x3b1a63ee	0.0023558098
131	0xbe582fdf	-0.21112011
132	0x3c938518	0.0180078
133	0x3e188529	0.14894547
134	0xbe003555	-0.12520345
135	0x3d3729d5	0.04471763
136	0x3df275af	0.118388526
137	0xbdc716cf	-0.09721147
138	0xbdc46e34	-0.09591332
139	0x3de5fcfd	0.11229894
140	0xbd4e1603	-0.05031396
141	0xbdb61274	-0.088902384
142	0xbda93258	-0.082615554
143	0xbd33dcf3	-0.043911885
144	0xbe0a5d77	-0.13512217
145	0x3d19c3b9	0.03754017
146	0xbbaa4c33	-0.005197072
147	0x3dcbd3c7	0.09952503
148	0x3e496eab	0.19671123
149	0xbe2e2b07	-0.17008601
150	0x3e87fb8b	0.265591
151	0xbdb2e79c	-0.08735582
152	0x3d70e5ce	0.05881291
153	0xbd6e2479	-0.05814025
154	0x3de34ff9	0.11099238
155	0xbc8a6850	-0.016895443
156	0x3e9f44ac	0.3110708
157	0xbdec91b4	-0.11551228
158	0xbd975811	-0.07389844
159	0xbddac103	-0.10681345
160	0xbe1b1385	-0.15144165
161	0x3e52d096	0.20587382
162	0x3e6070fc	0.219181
163	0x3db800af	0.089845054
164	0xbdcc26e1	-0.09968353
165	0xbe52f0fb	-0.20599739
166	0xbdec403b	-0.115356885
167	0x3db8cd54	0.09023538
168	0xbe005b35	-0.12534793
169	0x3e30cf6d	0.17266627
170	0x3e0c6742	0.13711265
171	0x3e60361a	0.21895638
172	0x3e7afefd	0.24511333
173	0x3e0ed3f5	0.13948043
174	0xbd6193e2	-0.055072673
175	0xbea4a6f3	-0.32158622
176	0x3e27796c	0.16354913
177	0x3e148b26	0.14506206
178	0x3e44170c	0.19149417
179	0x3de29ebd	0.11065433
180	0xbe4f2679	-0.2022952
181	0x3e876c5b	0.26449856
182	0xbe33c2e6	-0.17554817
183	0x3e1c22d7	0.15247665
184	0x3e3cb127	0.18426953
185	0xbe0de094	-0.13855201
186	0xbde31ffd	-0.11090086
187	0x3d3fd33d	0.046832312
188	0x3e1debf1	0.15422036
189	0x3c70b7b4	0.014692236
190	0x3db96a45	0.090534724
191	0x3e07119f	0.13190316
192	0x3dde217c	0.108462304
193	0x3e00a943	0.12564568
194	0x3e51333e	0.20429704
195	0xbba4cc5a	-0.0050292434
196	0xbe026238	-0.1273278
197	0x3cb8a723	0.022540634
198	0x3e032d0a	0.1281015
199	0xbd9be53f	-0.076120846
200	0x3dc8c570	0.09803283
201	0x3d968230	0.0734905
202	0x3e2ec5bb	0.17067616
203	0x3e29fad6	0.16599593
204	0xbd53ff35	-0.051757056
205	0xbd9157ec	-0.07096848
206	0xbd1ea6dd	-0.038733352
207	0x3d40c9ca	0.04706744
208	0xbe39e9ec	-0.1815564
209	0xbd0f6064	-0.035004035
210	0xbbd91cab	-0.006625732
211	0xbbef12f2	-0.0072959596
212	0x3e4cc329	0.19996323
213	0xbd32a8d5	-0.043618042
214	0x3d654d04	0.05598165
215	0xbe2b7992	-0.16745594
216	0x3df62a96	0.120198414
217	0x3d280fff	0.04103088
218	0x3ded243a	0.11579175
219	0xbc5673a2	-0.013089092
220	0x3e0b52f1	0.13605858
221	0x3c63e928	0.013910569
222	0xbd01e0e8	-0.031708628
223	0x3daee72e	0.08540188
224	0xbe82b0de	-0.25525564
225	0x3dce4a59	0.100727744
226	0xbdd04bcb	-0.10170706
227	0xbe0ec81e	-0.13943526
228	0xbe096e0a	-0.13420883
229	0xbdf03663	-0.117291234
230	0xbc81cd2a	-0.0158449
231	0xbe0e45d3	-0.13893823
232	0x3ddd2c10	0.1079942
233	0x3e2147a8	0.15749991
234	0xbd6ada24	-0.05733694
235	0x3e35e17e	0.177618
236	0x3d443350	0.047900498
237	0xbcffa81f	-0.031208096
238	0x3de0d1af	0.10977494
239	0xbd901f65	-0.07037238
240	0xbd07cc6c	-0.033153936
241	0x3c9805d0	0.01855746
242	0x3cb7cda0	0.022436917
243	0xbe4e50d6	-0.20148024
244	0xbe2e7dee	-0.17040226
245	0xbc92df71	-0.01792881
246	0xbe155640	-0.14583683
247	0xbe2d957e	-0.16951558
248	0x3e33069d	0.17482992
249	0xbe102a24	-0.14078575
250	0xbdeb1b1f	-0.11479782
251	0x3c410cc2	0.011782827
252	0x3e4de46c	0.20106667
253	0xbde93bc9	-0.11388356
254	0xbdcbb13c	-0.09945914
255	0x3e05801c	0.13037151

fc2.bias f4 [32]
0	0x3e046299	0.12928237
1	0xbb825605	-0.0039775395
2	0x3c2da467	0.010598279
3	0xbdb6d436	-0.08927195
4	0x3e5f4e88	0.21807301
5	0x3d927c5d	0.07152627
6	0x3e34fe24	0.17675072
7	0xbc0993d2	-0.0083970595
8	0x3dcd1912	0.100145474
9	0xbdf3c43e	-0.119026646
10	0xbcd341bd	-0.025788182
11	0x3b1e6de6	0.0024174391
12	0x3de7fc14	0.11327377
13	0xbcbc2dcc	-0.022971056
14	0xbddb77cd	-0.107162096
15	0x3d16702c	0.03672807
16	0x3cbcadf7	0.023032172
17	0xbdbfb8ed	-0.09361444
18	0x3dadbb06	0.084829375
19	0xbd9b70c0	-0.07589865
20	0x3c04a8bf	0.008096873
21	0xbdf8fe97	-0.12157934
22	0xbd3afd56	-0.045651756
23	0x3d80d21d	0.06290076
24	0x3e9d4fd0	0.30724955
25	0xbd06e2dd	-0.032931197
26	0x3ea45661	0.32097152
27	0xbdc1a61e	-0.094555125
28	0x3d05aa5c	0.03263317
29	0xbd6190c0	-0.055069685
30	0xbd730028	-0.05932632
31	0x3de777af	0.11302125

fc3.weight f4 [10, 32]
0	0x3e1f1edc	0.15539116
1	0x3eac7282	0.33681113
2	0xbf22276d	-0.6334141
3	0xbefb6414	-0.4909979
4	0xbf24962a	-0.6429163
5	0x3d641db0	0.055692375
6	0xbe10838b	-0.1411268
7	0xbe180614	-0.14846069
8	0x3e0b2803	0.13589482
9	0x3e1e033b	0.1543092
10	0xbda5805c	-0.08081123
11	0x3db40948	0.08790833
12	0x3efd646f	0.49490687
13	0xbdf3c38f	-0.11902534
14	0x3db6cf6e	0.08926283
15	0x3ed73a6c	0.4203676
16	0x3ea44f98	0.32091975
17	0x3e8102e1	0.2519751
18	0xbd8deb32	-0.069296256
19	0x3e459a6d	0.1929719
20	0xbddb085e	-0.10694955
21	0xbde037bd	-0.10948131
22	0x3e3bdedd	0.18346734
23	0xbeda6a11	-0.42659047
24	0xbd57356b	-0.052541178
25	0xbd866b25	-0.06563405
26	0x3e46c525	0.19411142
27	0x3dc48e62	0.0959747
28	0x3e29eb9c	0.16593784
29	0xbe2690c6	-0.16266164
30	0xbe8325e1	-0.25614837
31	0x3ecb4fbe	0.39709276
32	0xbe88f8e7	-0.26752397
33	0x3e850d9a	0.2598694
34	0x3d86ec76	0.0658807
35	0x3e829f4d	0.25512162
36	0xbd9524cc	-0.07282409
37	0xbe1cd1dc	-0.1531443
38	0x3e80a6ca	0.2512725
39	0x3ed9cf98	0.42541194
40	0xbd9e3935	-0.07725755
41	0x3e036362	0.1283088
42	0xbda1fd18	-0.07909602
43	0xbde913e0	-0.11380744
44	0xbf30155b	-0.68782586
45	0x3e6a5bb5	0.22886546
46	0x3e0bda13	0.13657407
47	0x3e031f52	0.12804917
48	0x3ea51ef8	0.3225019
49	0x3db9ef85	0.09078888
50	0xbe83de4f	-0.25755545
51	0x3e2c2c57	0.1681379
52	0xbe9bde8c	-0.30443227
53	0x3d6585d1	0.05603582
54	0xbe435f67	-0.19079362
55	0xbea2c4a0	-0.31790638
56	0xbf1f65ea	-0.62264884
57	0xbd8157f4	-0.06315604
58	0xbebeb499	-0.3724716
59	0x3e77451b	0.24147455
60	0x3ea3b49d	0.31973734
61	0x3eb04b02	0.34432226
62	0x3e498885	0.19680984
63	0x3d577f39	0.052611563
64	0xbe83df38	-0.2575624
65	0xbe1b069a	-0.15139237
66	0xbe9c418c	-0.30518758
67	0xbead8bb0	-0.33895636
68	0xbe661e36	-0.22472462
69	0xbea1ef9c	-0.3162812
70	0x3e4810ec	0.19537705
71	0x3e8469c2	0.25861937
72	0x3e196ca0	0.14982843
73	0xbd940c55	-0.07228915
74	0x3da11d92	0.07866968
75	0x3db1ff54	0.08691278
76	0xbead8b02	-0.33895117
77	0x3e67a652	0.2262204
78	0x3cb2972d	0.021800602
79	0x3ecf0748	0.40435243
80	0xbdf4470a	-0.11927612
81	0x3b3f7e56	0.002921959
82	0x3ef184a6	0.47171515
83	0x3e90c690	0.2827649
84	0xbd0e45f0	-0.034734666
85	0xbda86628	-0.0822261
86	0x3e0dca62	0.13846734
87	0x3eb959e4	0.36201394
88	0x3f34ddfa	0.7065121
89	0x3b9100ca	0.004425143
90	0x3f0f35f5	0.55941707
91	0xbe5ebc39	-0.21751489
92	0xbd1f5911	-0.0389033
93	0x3e382f80	0.1798687
94	0x3dee0fc4	0.11624101
95	0xbc3a3fae	-0.0113677215
96	0x3efa3c74	0.48874247
97	0xbed58fb7	-0.41711208
98	0xbe0de232	-0.13855818
99	0x3d7abb27	0.06121364
100	0x3edcc523	0.43119153
101	0xbd4794a1	-0.048725728
102	0x3e77e74a	0.24209324
103	0x3dd9ef4a	0.10641344
104	0xbe016c27	-0.12638913
105	0x3d80b36d	0.06284223
106	0x3c0218d2	0.007940488
107	0xbdc2f6c3	-0.09519722
108	0x3e1cfeef	0.15331624
109	0x3dd8bdb4	0.10583058
110	0x3e0a613f	0.13513659
111	0xbdfd3d43	-0.123652
112	0xbe3f3798	-0.18673551
113	0xbe05c768	-0.13064349
114	0x3dea8920	0.11451936
115	0xbe3d6045	-0.18493755
116	0xbd03dfe5	-0.032195944
117	0x3e8aa001	0.27075198
118	0xbe504497	-0.20338665
119	0xbd16be9e	-0.03680288
120	0x3e1728c6	0.14761648
121	0x3c2d0731	0.010560797
122	0x3db6054d	0.0888773
123	0x3c34ed97	0.011042974
124	0xbe0620f6	-0.13098511
125	0x3eae1f51	0.34008268
126	0x3e5cda3c	0.21567625
127	0x3e024248	0.12720597
128	0xbe2f4f94	-0.171202
129	0xbd14ff0e	-0.03637605
130	0x3d1ad85e	0.037804
131	0xbd2d0861	-0.04224432
132	0x3e8a02ca	0.26955253
133	0x3e2f98bf	0.17148112
134	0x3e814474	0.25247538
135	0xbf0bd361	-0.54619414
136	0x3dfe6a50	0.12422621
137	0xbca9a105	-0.020706663
138	0xbdb8e70c	-0.09028444
139	0xbc5897c3	-0.013219777
140	0xbc66bf5f	-0.014083712
141	0xbf243aa4	-0.6415198
142	0xbda7617e	-0.08172892
143	0xbe6a00f4	-0.22851926
144	0x3ceb7348	0.028741494
145	0xbe49d058	-0.19708383
146	0x3e52ee0a	0.20598617
147	0x3e689caa	0.22716013
148	0xbf0967d8	-0.5367408
149	0xbe94c7eb	-0.29058775
150	0x3f082a72	0.53189766
151	0x3ea869b1	0.32893136
152	0xbdddf62b	-0.108379684
153	0xbdf77e0b	-0.12084588
154	0x3eaba127	0.33521387
155	0x3e78cd77	0.24297129
156	0x3f00487d	0.5011061
157	0xbef20997	-0.4727294
158	0x3e27c0ca	0.16382137
159	0xbda5b9ae	-0.08092056
160	0x3dcc1bb5	0.09966222
161	0x3d728b58	0.05921492
162	0x3e21fd01	0.1581917
163	0x3d986514	0.07441154
164	0x3edbdce5	0.42941967
165	0x3ead88f0	0.33893538
166	0xbe7fcf69	-0.24981464
167	0xbe05cd61	-0.13066627
168	0xbe0f49fa	-0.13993064
169	0x3d3eee5d	0.04661404
170	0x3dc8f149	0.098116465
171	0xbcb60c2d	-0.022222603
172	0x3e954b29	0.29158905
173	0x3e04bc05	0.12962349
174	0x3c6e2888	0.014536031
175	0x3e896fb5	0.26843038
176	0xbf3a386b	-0.72742337
177	0xbd85ae17	-0.06527346
178	0xbdfa9076	-0.12234585
179	0x3e24b4cd	0.16084595
180	0xbd9bed04	-0.076135665
181	0x3d888cc5	0.06667475
182	0xbe906e65	-0.28209224
183	0xbe173ffc	-0.14770502
184	0x3eb410c8	0.35169053
185	0x3ddbdb0b	0.107351385
186	0xbe2097f3	-0.15682964
187	0xbd9ea50f	-0.07746326
188	0x3d86b86c	0.065781444
189	0x3eb7e97d	0.35920325
190	0x3d055c87	0.032558944
191	0xbcb0a6b8	-0.021563873
192	0xbe871fad	-0.26391354
193	0xbdf3fdfd	-0.11913679
194	0xbe87b9ba	-0.26508886
195	0xbc2e7bcd	-0.010649634
196	0x3e6a0e2b	0.22856967
197	0x3f01e750	0.5074358
198	0x3e82fd23	0.25583753
199	0x3eab5abc	0.33467662
200	0x3dc7eca8	0.097619355
201	0x3daf9a3a	0.08574338
202	0xbd6ea981	-0.05826712
203	0xbe1b1858	-0.15146005
204	0x3d019955	0.03164037
205	0x3d805f08	0.06268126
206	0xbdc7e733	-0.097608946
207	0xbd3f0b3f	-0.046641584
208	0xbe6e1953	-0.23251848
209	0xbdf150cf	-0.11782991
210	0xbf0a7cde	-0.5409678
211	0xbef9d60c	-0.48796117
212	0x3f1bf39b	0.6091859
213	0xbe2741b6	-0.1633366
214	0xbd98512f	-0.074373595
215	0x3eca3b86	0.39498538
216	0xbdfa5529	-0.12223274
217	0xbdd7810d	-0.10522661
218	0x3ef7068e	0.48247188
219	0x3ee0b05e	0.43884557
220	0xbec82475	-0.39090315
221	0xbe89f1e3	-0.26942357
222	0x3d8e0343	0.06934216
223	0xbe75584a	-0.23959461
224	0xbdf61f14	-0.120176464
225	0xbd2a604f	-0.041595753
226	0x3e235e1f	0.15953873
227	0xbd858e81	-0.06521321
228	0x3ddbac8a	0.107262686
229	0x3e75edee	0.24016544
230	0xbeee9efa	-0.46605664
231	0xbe574e7f	-0.21026038
232	0x3e1db13e	0.15399644
233	0x3e257b2d	0.16160269
234	0x3e33b346	0.17548856
235	0xbd8a5378	-0.06754202
236	0x3eb1670c	0.3464893
237	0xbea9ec94	-0.33188307
238	0xbcd696e5	-0.026194999
239	0xbf08a57b	-0.53377503
240	0x3ec92182	0.39283377
241	0xbea38ee7	-0.31944963
242	0x3e994830	0.29937887
243	0x3e6fd819	0.23422278
244	0x3eeccd82	0.4625054
245	0xbe855d81	-0.260479
246	0x3e800bb4	0.2500893
247	0xbed15c99	-0.4089096
248	0xbe33dd48	-0.17564881
249	0x3e2b0ecc	0.16704863
250	0xbeb4e488	-0.35330606
251	0xbf15abf6	-0.58465517
252	0x3e80454a	0.25052863
253	0x3c16ea22	0.009211095
254	0xbd8ba8db	-0.06819316
255	0xbf2c5f40	-0.6733284

fc3.bias f4 [10]
0	0xbe00a247	-0.12561904
1	0xbc09c5d2	-0.00840898
2	0x3de98829	0.114029236
3	0xbdc12003	-0.09429934
4	0x3ecaf9e7	0.39643785
5	0xbe226650	-0.15859342
6	0x3d30cf2e	0.043166332
7	0xbda88b00	-0.08229637
8	0x3e444037	0.19165121
9	0xbdd827d6	-0.10554473
