Pytorch/MNIST/models/appa_mnist.pt (torch, 36591 bytes, 8 tensors)

conv1.weight f4 [4, 1, 3, 3]
-0.12484386 0.05372434 -0.12569468 -0.22409336 0.050121874 -0.3432856 -0.20840485 0.11454752
0.1027876 -0.172303 0.31568727 0.1465193 -0.43657637 -0.5140068 -0.48811013 -0.4373746
-0.33179057 -0.32329655 0.42190674 0.1584299 0.126667 0.24978483 0.33680537 0.48884907
0.42088443 0.449777 0.41842034 0.35116208 0.15265423 0.44655162 0.45139718 0.39939064
0.33519074 0.30790773 0.2689415 0.59467906
00000000: 23ae ffbd 0e0e 5c3d 1bb6 00be bb78 65be
00000010: 984c 4d3d 21c3 afbe 1568 55be e497 ea3d
00000020: 4e82 d23d 3370 30be c3a1 a13e 2809 163e
00000030: f086 dfbe f395 03bf 92e9 f9be 90ef dfbe
00000040: 74e0 a9be 2087 a5be 2904 d83e 733b 223e
00000050: feb4 013e 98c7 7f3e c171 ac3e 6d4a fa3e
00000060: 2a7e d73e 2c49 e63e 313b d63e 84cb b33e
00000070: 6451 1c3e 6aa2 e43e 881d e73e ee7c cc3e
00000080: 1f9e ab3e 15a6 9d3e b3b2 893e e33c 183f

conv1.bias f4 [4]
-0.30345592 0.82524157 0.1305483 0.113443285
00000000: 935e 9bbe 0843 533f 74ae 053e f454 e83d

conv2.weight f4 [8, 4, 3, 3]
-0.15143974 0.120181754 -0.056875274 -0.113411665 -0.06647125 -0.15748103 -0.0057976097 0.11717963
0.16020012 0.1375537 0.50092024 0.3402453 -0.6983748 -0.46287373 0.06806353 0.20668362
-0.17900087 -0.37146214 -0.14741127 -0.41204607 -0.2615897 0.4235637 0.5037295 -0.13556312
-0.45720014 0.03304318 0.057560585 -0.22573173 -0.38827452 -0.17782956 0.5023244 0.40884548
-0.18909386 -0.4363104 0.12639745 0.050292846 -0.12499073 -0.06764666 0.015437141 0.042302176
-0.11558653 0.09187319 0.059790354 -0.05739748 0.11332584 0.36946374 -0.452509 -0.21332514
0.5790205 -0.62751603 0.12728557 0.20549281 -0.65917337 0.09264787 -0.22923785 0.22373563
-0.073367015 -0.40850976 0.43221292 -0.2669561 -0.3089174 0.5084953 -0.33383095 -0.2624362
0.29024366 -0.1131965 -0.3722757 0.46061316 -0.30817032 -0.32566392 0.51550454 -0.29213306
0.020186765 -0.06437454 -0.016692923 -0.1187038 -0.1447871 -0.059335917 0.13725366 -0.04993849
0.050947327 0.13858098 0.26649764 -0.29613402 0.26945636 -0.19131085 -0.24051388 0.11129366
-0.3124548 0.074353315 0.53209484 -0.8643781 0.12431906 -0.3921435 -0.03527041 0.19732754
-0.49213833 0.233677 0.0090625165 0.4402168 -0.7325356 0.101017825 -0.24832769 -0.08337243
0.20241489 -0.52980536 0.30565837 0.004944961 -0.01775065 0.10469733 0.054873094 0.09049679
-0.07758684 0.09772033 0.11740703 0.05522643 -0.11812522 -0.30712274 -0.19828916 -0.24063359
0.21088307 0.0636324 0.05408145 0.13232042 0.1237541 0.18060613 0.2793794 -0.07268953
0.15849936 -0.17642432 0.09008944 0.1932765 -0.5002056 0.08951106 -0.43938258 0.26344803
-0.061684784 0.10465134 -0.11344454 0.06640233 0.23236449 -0.42109066 0.05739405 -0.4668218
-0.02053082 -0.10032408 -0.010610466 0.09575815 -0.10351803 0.06257178 0.041288067 0.12654327
-0.037209794 0.30520543 0.27011502 0.37322038 -0.097240366 -0.20656596 -0.37166375 -0.23716679
-0.04706862 -0.033392496 -0.60022 0.3704246 -0.70232695 -0.13098659 0.02919706 0.185667
0.22993435 -0.064492665 0.15686847 -0.46201557 0.30299115 -0.57498986 -0.24007924 -0.0216056
0.08685633 0.22495523 -0.0098948525 0.1636679 0.13537043 -0.1248555 -0.06340135 0.01685006
-0.104135126 -0.15622835 0.109595284 0.12669893 -0.117416546 -0.20301113 -0.024275027 0.09908222
-0.023296572 -0.28207594 -0.48648348 0.17610171 0.26163226 0.27364734 -0.11210939 -0.27686352
-0.16925482 0.42102116 0.4332925 0.43147317 -0.46200722 -0.28231302 -0.2621937 -0.10747248
-0.32640642 -0.17399873 0.42983055 0.46629158 0.4187109 -0.48480555 -0.3160659 -0.26517394
-0.04211311 0.14933272 -0.020881116 0.0056076003 0.109738216 -0.12280406 0.051132336 -0.14799455
0.009307742 -0.20011838 -0.8693766 0.9019146 0.49705213 -0.62531435 -0.4677614 0.2484936
0.29217613 -0.5541507 -0.019847823 0.3193495 -0.547795 -0.38155 0.58487976 -0.12307438
-0.30532518 0.018619461 0.05874317 0.026720516 0.22971892 -0.5084466 -0.3424383 0.6061244
-0.20600319 -0.31259525 0.055029195 0.06508881 -0.025564324 0.0051988037 0.062528506 -0.11721181
00000000: 0513 1bbe da21 f63d 0cf6 68bd 6044 e8bd
00000010: 1422 88bd b542 21be e0f9 bdbb e0fb ef3d
00000020: 800b 243e e1da 0c3e 4f3c 003f a234 ae3e
00000030: b1c8 32bf c9fd ecbe e464 8b3d dfa4 533e
00000040: 014c 37be 4930 bebe fbf2 16be b4f7 d2be
00000050: 16ef 85be 57dd d83e 6bf4 003f 0fd1 0abe
00000060: 2316 eabe 4958 073d a6c4 6b3d 3826 67be
00000070: ebcb c6be f418 36be 5598 003f 3254 d13e
00000080: d2a1 41be 1464 dfbe 556e 013e dfff 4d3d
00000090: 24fb ffbd 558a 8abd 10ec 7c3c 0c45 2d3d
000000a0: a1b8 ecbd 0328 bc3d bbe6 743d 9f19 6bbd
000000b0: 6117 e83d 5a2a bd3e 42af e7be e871 5abe
000000c0: b03a 143f e4a4 20bf 2657 023e b56c 523e
000000d0: 96bf 28bf 2bbe bd3d 54bd 6abe f41a 653e
000000e0: 7241 96bd 3128 d1be 034b dd3e 78ae 88be
000000f0: 6c2a 9ebe bf2c 023f e4eb aabe 0a5e 86be
00000100: d19a 943e 91d3 e7bd ec9a bebe 7dd5 eb3e
00000110: 80c8 9dbe 6cbd a6be 1bf8 033f 7792 95be
00000120: b75e a53c ccd6 83bd 99bf 88bc fa1a f3bd
00000130: 1243 14be 380a 73bd 398c 0c3e 4d8c 4cbd
00000140: 25ae 503d 2ce8 0d3e 6172 883e e19e 97be
00000150: 2ff6 893e fee6 43be 4549 76be eeed e33d
00000160: 13fa 9fbe 8d46 983d 5e37 083f e247 5dbf
00000170: fe9a fe3d 08c7 c8be b577 10bd 3b10 4a3e
00000180: 8ef9 fbbe 0649 6f3e f37a 143c 1964 e13e
00000190: 7487 3bbf 6fe2 ce3d 9d49 7ebe 2abf aabd
000001a0: d945 4f3e 53a1 07bf 417f 9c3e 5709 a23b
000001b0: d069 91bc 8e6b d63d 9cc2 603d 6256 b93d
000001c0: d9e5 9ebd 9921 c83d 1973 f03d 1c35 623d
000001d0: a3eb f1bd 313f 9dbe 500c 4bbe a768 76be
000001e0: bbf1 573e b451 823d 8384 5d3d 017f 073e
000001f0: ca72 fd3d d0f0 383e d10a 8f3e 40de 94bd
00000200: a84d 223e 94a8 34be d080 b83d 46ea 453e
00000210: 790d 00bf 9351 b73d c1f6 e0be a9e2 863e
00000220: 2fa9 7cbd 7153 d63d 9c55 e8bd f2fd 873d
00000230: f5f0 6d3e 3299 d7be 0616 6b3d 4403 efbe
00000240: 4030 a8bc b676 cdbd 85d7 2dbc d91c c43d
00000250: 4301 d4bd a225 803d ad1d 293d 8f94 013e
00000260: 4c69 18bd e343 9c3e 844c 8a3e be16 bf3e
00000270: f525 c7bd 0786 53be b64a bebe dadb 72be
00000280: 06cb 40bd 92c6 08bd 05a8 19bf 4ba8 bd3e
00000290: b3cb 33bf 5921 06be ac2e ef3c 7d1f 3e3e
000002a0: e973 6b3e bb14 84bd 21a2 203e 4e8d ecbe
000002b0: a821 9b3e 8932 13bf 55d7 75be 3afe b0bc
000002c0: bbe1 b13d aa5a 663e 051e 22bc 8f98 273e
000002d0: 8c9e 0a3e 3eb4 ffbd 91d8 81bd 2309 8a3c
000002e0: cc44 d5bd 53fa 1fbe 7e73 e03d 5dbd 013e
000002f0: 1678 f0bd 26e2 4fbe 6cdc c6bc 9eeb ca3d
00000300: 74d8 bebc 426c 90be 5d14 f9be 0254 343e
00000310: aaf4 853e 811b 8c3e 9c99 e5bd 0ec1 8dbe
00000320: 2351 2dbe 1690 d73e 84d8 dd3e 0dea dc3e
00000330: 368c ecbe 558b 90be 413e 86be 881a dcbd
00000340: be1e a7be b92c 32be c012 dc3e c5bd ee3e
00000350: 4661 d63e 6f38 f8be 64d3 a1be e1c4 87be
00000360: cc7e 2cbd adea 183e e00e abbc f6bf b73b
00000370: 6ebe e03d b280 fbbd 2470 513d e28b 17be
00000380: 807f 183c d5eb 4cbe 778f 5ebf e0e3 663f
00000390: 9e7d fe3e 9a14 20bf 6c7e efbe 1b75 7e3e
000003a0: 1c98 953e d2dc 0dbf e797 a2bc c781 a33e
000003b0: 4b3c 0cbf 865a c3be aeba 153f 6c0e fcbd
000003c0: 9553 9cbe d787 983c ae9c 703d fce4 da3c
000003d0: 703b 6b3e 8e29 02bf 1354 afbe f82a 1b3f
000003e0: 80f2 52be 7c0c a0be 4b66 613d 484d 853d
000003f0: 466c d1bc ba5a aa3b f20e 803d bf0c f0bd

conv2.bias f4 [8]
0.026694763 -0.004590229 -0.015957346 -0.016538203 -0.014677665 -0.0065978845 -0.070914194 -0.008808645
00000000: faae da3c a269 96bb fbb8 82bc 207b 87bc
00000010: 977a 70bc 1133 d8bb 763b 91bd 2352 10bc

dense1.weight f4 [20, 392]
0.14537328 0.40577018 0.12611084 0.009224787 0.11393673 0.2743818 0.17125773 0.20779343
0.09520506 -0.08212042 -0.12115566 -0.02519211 -0.0791437 -0.028972302 -0.3579395 -0.31503198
-0.49309903 -0.44461423 0.05867345 0.018723372 0.18312572 0.20603207 0.41665265 -0.073642015
0.39753857 0.5725802 0.5636127 0.21401381 0.6789048 0.6884679 0.2977074 0.009587739
0.31890035 0.21119656 0.020879377 0.43508795 0.06069666 -0.16688031 0.080241986 -0.12596612
-0.24286348 0.11537414 0.20191371 -0.20173924 0.0761307 -0.080275536 -0.3966004 -0.27081418
0.30702928 0.39644733 0.60428655 0.9289946 0.43653938 0.24732615 0.78398526 0.5684806
0.037849065 0.53657484 0.32679975 0.4913061 0.11289631 -0.393736 -0.1056457 0.3764478
0.067659214 0.03179476 0.16300838 -0.6918623 -1.1504711 -0.41961542 -0.2957122 0.04569891
0.18359777 0.09737129 -0.4229897 -0.35896188 0.035516888 -0.10298338 -0.21717845 -0.034922566
-0.14486966 0.03076649 0.0015645722 0.031467255 -0.18950172 -0.5195064 -0.17320555 -0.0059595136
-0.20920843 0.033691276 0.851678 0.31675494 -0.41246763 0.29646987 0.019359976 -0.010794241
-0.25099048 0.30687675 0.31337535 0.18582703 0.119463064 0.38728988 0.38974798 0.514998
0.14582504 0.12760389 0.051329546 0.056132395 0.21650742 0.5366876 0.90996385 0.27181762
-0.26321906 -0.0873144 0.35439676 0.38012385 0.078806266 0.10176186 0.28460258 -0.38516605
0.018893454 0.5511563 0.13720095 -0.38526526 -0.50664383 -0.015972849 -0.04646125 -0.08528908
-0.19217007 -0.25216898 0.14230677 0.19312526 0.14231224 -0.090401076 0.07600414 0.3882768
0.53921795 0.034240898 0.45527047 0.049800288 -0.18615946 -0.09569396 -0.07648019 0.23170966
-0.008513292 -0.1637987 -0.025716437 0.09328301 0.10431718 0.047954123 0.053417016 0.057078693
0.029565027 0.15875843 -0.1537966 0.06633074 -0.12559684 -0.27578235 -0.023156172 0.34611604
0.4885151 0.20160337 0.12369722 -0.30413294 -0.535877 -0.06145193 0.8349047 0.6224371
-0.30653825 0.1832931 0.051267866 -0.010994861 0.21534592 0.20626286 -0.11618816 0.028749185
0.12372241 0.35417837 0.5012334 -0.09292604 -0.45623362 -0.37395144 -0.11924706 0.034992225
0.03378489 0.05378798 0.027867673 -0.024648394 -0.06281237 -0.26301393 -0.0068892613 0.029294875
-0.040645067 -0.030698506 -0.15903871 -0.100467175 0.33804664 0.10813161 0.008169469 0.022304581
0.028314758 0.24509993 0.25577503 -0.26615062 0.0014403265 -0.11473316 -0.036071625 -0.003708495
0.040143754 -0.22579293 -0.7232934 -0.46337637 0.08470262 0.11834853 0.39756346 0.1580856
-0.28985465 -0.10855822 -0.09215178 -0.15978016 0.23269974 0.09640825 0.44329128 0.2688573
0.30031937 0.18624634 0.20452014 -0.13983826 -0.06971989 -0.059748616 0.0028943222 0.10734529
0.81521744 0.38756 0.17516883 0.33124703 -0.42094734 -1.0666269 0.26230785 0.16622165
0.36281684 0.32581648 0.18210223 0.17832743 0.12488062 -0.004216011 -0.17864741 -0.29739442
-0.07862093 -0.24168102 -0.12000397 -0.044187047 0.17649746 0.21173069 -0.08216308 -0.16132618
00000000: bcdc 143e 1cc1 cf3e 3323 013e 9023 173c
00000010: a957 e93d c57b 8c3e 305e 2f3e cdc7 543e
00000020: dffa c23d c02e a8bd 7520 f8bd af5f cebc
00000030: 1816 a2bd 5257 edbc d943 b7be df4b a1be
00000040: 7a77 fcbe 7aa4 e3be 9253 703d c261 993c
00000050: 4f85 3b3e 12fa 523e 7f53 d53e a0d1 96bd
00000060: 2d8a cb3e 9e94 123f ec48 103f 7026 5b3e
00000070: b4cc 2d3f 6f3f 303f 1b6d 983e e415 1d3c
00000080: e846 a33e e943 583e 3a0b ab3c d9c3 de3e
00000090: 109d 783d ace2 2abe e955 a43d 43fd 00be
000000a0: 34b1 78be 4749 ec3d 78c2 4e3e bb94 4ebe
000000b0: 6aea 9b3d 8067 a4bd 350f cbbe 28a8 8abe
000000c0: f132 9d3e 25fb ca3e 86b2 1a3f 97d2 6d3f
000000d0: 1782 df3e 1143 7d3e 42b3 483f f287 113f
000000e0: 9f07 1b3d f85c 093f 4c52 a73e 798c fb3e
000000f0: 2e36 e73d c497 c9be c65c d8bd c4bd c03e
00000100: ea90 8a3d 393b 023d abeb 263e e31d 31bf
00000110: a342 93bf d5d7 d6be 9767 97be c82e 3b3d
00000120: 0e01 3c3e 996a c73d 1b92 d8be dac9 b7be
00000130: 287a 113d f3e8 d2bd 0764 5ebe f70a 0fbd
00000140: b658 14be 020a fc3c 5512 cd3a cfe3 003d
00000150: bd0c 42be 5ffe 04bf cc5c 31be 0648 c3bb
00000160: bc3a 56be ddff 093d 9207 5a3f b42d a23e
00000170: f52e d3be e6ca 973e d098 9e3c 54da 30bc
00000180: d381 80be f31e 9d3e bc72 a03e 7149 3e3e
00000190: 0da9 f43d dc4a c63e 0c8d c73e e9d6 033f
000001a0: 2953 153e 98aa 023e ee3e 523d 15eb 653d
000001b0: 1fb4 5d3e 5c64 093f 64f3 683f ae2b 8b3e
000001c0: a6c4 86be e4d1 b2bd 7e73 b53e 989f c23e
000001d0: 2e65 a13d 8668 d03d 6eb7 913e 7c34 c5be
000001e0: 72c6 9a3c 9418 0d3f 687e 0c3e 7d41 c5be
000001f0: 69b3 01bf 7ed9 82bc 274e 3ebd 0bac aebd
00000200: 3bc8 44be 4b1c 81be deb8 113e a1c2 453e
00000210: 4dba 113e 3324 b9bd 0fa8 9b3d 37cc c63e
00000220: 300a 0a3f 2f40 0c3d 3619 e93e 63fb 4b3d
00000230: 96a0 3ebe 32fb c3bd a5a1 9cbd 4c45 6d3e
00000240: 567b 0bbc d9ba 27be 47ab d2bc 2a0b bf3d
00000250: 3fa4 d53d 8b6b 443d cdcb 5a3d 59cb 693d
00000260: 5b32 f23c 9291 223e db7c 1dbe 69d8 873d
00000270: 759c 00be 5833 8dbe 03b2 bdbc 1f36 b13e
00000280: a71e fa3e 1d71 4e3e f854 fd3d 50b7 9bbe
00000290: 3c2f 09bf 05b5 7bbd 50bc 553f 0a58 1f3f
000002a0: 95f2 9cbe 30b1 3b3e 41fe 513d ca23 34bc
000002b0: a483 5c3e 9236 533e 0ff4 edbd 6983 eb3c
000002c0: 2d62 fd3d de56 b53e d550 003f 0250 bebd
000002d0: 7497 e9be 9076 bfbe cd37 f4bd 0254 0f3d
000002e0: 0662 0a3d c950 5c3d bf4a e43c 6eeb c9bc
000002f0: c6a3 80bd c3a9 86be 50bf e1bb cefb ef3c
00000300: 717b 26bd 6f7b fbbc 0bdb 22be bcc1 cdbd
00000310: 7314 ad3e 1b74 dd3d 3dd9 053c 19b8 b63c
00000320: 5af4 e73c 7afb 7a3e f2f4 823e e544 88be
00000330: 56c9 bc3a 38f9 eabd d7bf 13bd 390a 73bb
00000340: c76d 243d 4336 67be c229 39bf ab3f edbe
00000350: 9178 ad3d b760 f23d 708d cb3e 31e1 213e
00000360: d467 94be c653 debd 13ba bcbd 699d 23be
00000370: d748 6e3e b071 c53d 13f7 e23e aaa7 893e
00000380: 76c3 993e 5cb7 3e3e ba6d 513e c331 0fbe
00000390: 4dc9 8ebd f7ba 74bd abae 3d3b d9d7 db3d
000003a0: 17b2 503f 446e c63e 755f 333e 3699 a93e
000003b0: 6986 d7be 3b87 88bf 374d 863e 0236 2a3e
000003c0: 21c3 b93e 6bd1 a63e 0279 3a3e 779b 363e
000003d0: 69c1 ff3d 7726 8abb 59ef 36be 1544 98be
000003e0: 0304 a1bd 3b7b 77be a4c4 f5bd 7afd 34bd
000003f0: c0bb 343e eecf 583e 1e45 a8bd b132 25be

dense1.bias f4 [20]
0.441488 0.65946275 0.46993744 0.20667312 0.5073728 0.44563648 0.044238526 0.61353785
0.38159454 0.23949033 -0.053751834 0.021366963 0.54222834 0.46046373 0.22364417 0.6147095
0.53789186 0.44872034 0.2171384 0.3004438
00000000: b70a e23e 8dd2 283f a49b f03e 1ea2 533e
00000010: 2fe3 013f 772a e43e 7533 353d d110 1d3f
00000020: 5c60 c33e f43c 753e e22a 5cbd c509 af3c
00000030: 7acf 0a3f e7c1 eb3e fa02 653e 9a5d 1d3f
00000040: 48b3 093f acbe e53e 8759 5e3e c5d3 993e

dense2.weight f4 [10, 20]
-0.6448666 0.43956843 0.10729996 0.25266516 0.20044206 0.012521536 -0.5541992 -0.099611044
0.34298244 0.22254455 -0.18430372 0.57354075 -0.080881074 -0.47381184 -0.65579057 -1.1483725
0.508578 -0.06937733 -0.23772168 -0.13220769 -0.21920578 0.18502115 0.7784957 -0.2151831
-0.5939821 -0.8368772 -0.31327498 -0.37008092 0.52118444 0.13124043 -0.16156025 0.50794417
0.11402034 0.3828415 0.790027 -0.050586686 -0.5212098 0.36539268 -0.09037889 -0.019216653
-0.31088203 -0.039655063 -0.5736888 0.23011331 -0.12696777 -0.074288845 0.16440932 0.36894193
0.44402862 -0.019833649 -0.21966861 0.20099778 -0.559316 0.43143153 -0.2358855 -0.36660367
-0.4695368 -0.06624603 0.21165696 0.0025632423 0.36559218 0.17659801 -0.6312242 0.253082
-0.60380316 -0.19870104 0.21497773 0.11871965 -0.3761905 0.046355806 -0.10780607 -0.27918437
-0.70253104 -0.10454014 0.3631208 -0.05817157 0.12426044 -0.09602594 0.016576879 0.20579599
0.07292104 -0.7526275 -0.11285339 -0.88562644 0.25356445 0.06310742 0.20660509 0.21730578
-0.17206228 -0.9050871 0.1791901 -0.50455797 0.11523348 -0.39404878 -0.22189346 0.25830403
-0.12562786 0.55593777 -0.12569681 -0.08406162 0.43072194 -0.2198666 -0.3964085 -0.14115843
-0.06429289 0.020249508 -0.28431478 -0.15920137 -0.24367924 0.28323054 -0.13582805 0.08754042
0.14367092 -0.118175715 0.3277035 -0.22047266 0.15803559 -0.73806775 0.24364543 -0.13342477
0.2511007 0.34978122 -0.24028397 0.16737452 0.50621223 0.040132117 -0.66223806 -0.237085
-0.15965396 0.1953221 -0.21630365 -0.045924827 0.28893217 0.25765058 -0.52402544 -0.7017417
-0.4295907 -0.5788964 -0.58703625 -0.17213355 -0.20726112 -0.23087913 -0.080644056 0.043870248
-0.6231355 0.4487358 0.20059115 -0.09293648 0.30663878 -0.22428446 -0.024208367 -0.24180022
-0.3660694 0.57481104 0.08465443 0.37832278 0.022084916 -0.18304999 -0.34428683 -0.41783306
-0.15176089 0.26471505 -0.4532131 0.21659854 0.025635468 -0.2690414 0.27839983 -0.6283554
-0.15553762 0.033084057 -0.110953756 -0.44287598 0.31190875 -0.31355268 -0.39865628 -0.018499149
0.010641571 -0.24009411 0.06444562 0.25345987 -0.16428898 -0.4602936 0.3153605 -0.120376915
0.0022465913 0.2557596 -0.34398705 0.088243455 -0.5760565 -0.40513113 0.022989497 -0.2774547
-0.23215774 -0.6448085 0.14273176 0.31615487 0.051229455 0.08401086 0.35678226 0.41852713
00000000: fa15 25bf 1d0f e13e 15c0 db3d 545d 813e
00000010: af40 4d3e 2127 4d3c 00e0 0dbf e000 ccbd
00000020: 659b af3e b8e2 633e 1dba 3cbe 91d3 123f
00000030: faa4 a5bd 7797 f2be e4e1 27bf dffd 92bf
00000040: 2b32 023f b415 8ebd 506d 73be 7461 07be
00000050: 7b77 60be 2f76 3d3e 7f4b 473f f558 5cbe
00000060: 360f 18bf 963d 56bf 9465 a0be 3f7b bdbe
00000070: 586c 053f e463 063e 0d70 25be a108 023f
00000080: 7f83 e93d cd03 c43e 363f 4a3f fc33 4fbd
00000090: 016e 05bf c014 bb3e 9118 b9bd 3e6c 9dbc
000000a0: ee2b 9fbe 596d 22bd 45dd 12bf d3a2 6b3e
000000b0: d703 02be c024 98bd eb5a 283e f5e5 bc3e
000000c0: b857 e33e 2d7a a2bc cff0 60be 5dd2 4d3e
000000d0: 552f 0fbf 98e4 dc3e f88b 71be 7ab3 bbbe
000000e0: 2167 f0be 00ac 87bd 9abc 583e 12fc 273b
000000f0: e62e bb3e 1cd6 343e e997 21bf f793 813e
00000100: d892 1abf 4978 4bbe 1f23 5c3e 4a23 f33d
00000110: 0b9c c0be 96df 3d3d 6ec9 dcbd 41f1 8ebe
00000120: 13d9 33bf 2419 d6bd f8ea b93e 5045 6ebd
00000130: 427c fe3d 3fa9 c4bd 3ccc 873c 2fbc 523e
00000140: a057 953d 32ac 40bf ae1f e7bd 6ab8 62bf
00000150: 33d3 813e 773e 813d 4990 533e 6885 5e3e
00000160: 1831 30be cab3 67bf 9c7d 373e b62a 01bf
00000170: 88ff eb3d c3c0 c9be 0a38 63be 6d40 843e
00000180: 97a4 00be f051 0e3f aab6 00be 8028 acbd
00000190: 9687 dc3e b624 61be 0ef6 cabe d68b 10be
000001a0: feab 83bd 4ce2 a53c b591 91be af05 23be
000001b0: 0d87 79be 9803 913e 8216 0bbe 6448 b33d
000001c0: 781e 133e 1c06 f2bd c1c8 a73e 96c3 61be
000001d0: 15d4 213e 02f2 3cbf 307e 793e 81a0 08be
000001e0: 4590 803e 8616 b33e 000d 76be 3a64 2b3e
000001f0: 2097 013f 9361 243d 6f88 29bf 69c6 72be
00000200: 547c 23be 8402 483e b47e 5dbe ac1b 3cbd
00000210: ebee 933e c7ea 833e 8826 06bf 58a5 33bf
00000220: 50f3 dbbe 8e32 14bf 0248 16bf c743 30be
00000230: 423c 54be 946b 6cbe b628 a5bd 4ab1 333d
00000240: cf85 1fbf b3c0 e53e c467 4d3e 7b55 bebd
00000250: c2ff 9c3e d3aa 65be a050 c6bc 7a9a 77be
00000260: 736d bbbe d126 133f 4d5f ad3d 86b3 c13e
00000270: 6deb b43c 7571 3bbe 5d46 b0be 37ee d5be
00000280: 3567 1bbe bb88 873e 8c0b e8be 02cc 5d3e
00000290: 7901 d23c cbbf 89be 6c8a 8e3e e6db 20bf
000002a0: 4145 1fbe 2683 073d b93b e3bd a4c0 e2be
000002b0: 81b2 9f3e fa89 a0be ad1c ccbe 878b 97bc
000002c0: fc59 2e3c 3bdb 75be 11fc 833d 7ec5 813e
000002d0: 5f3b 28be 9aab ebbe ee76 a13e 2c88 f6bd
000002e0: 8c3b 133b ecf2 823e 121f b0be fcb8 b43d
000002f0: 7078 13bf 596d cfbe 7854 bc3c 8b0e 8ebe
00000300: c2ba 6dbe 2b12 25bf 4628 123e 0ddf a13e
00000310: fad5 513d e30d ac3d 2aac b63e 3049 d63e

dense2.bias f4 [10]
0.21453518 -0.12501086 0.023882626 -0.005905266 0.097464725 -0.22516702 0.20923086 -0.12443991
0.052896865 -0.011587638
00000000: 1caf 5b3e d902 00be 7fa5 c33c f680 c1bb
00000010: 969b c73d 2f92 66be 9d40 563e 5ada febd
00000020: 62aa 583d 14da 3dbc
