Pytorch/AutoEncoder/saved_models/ChanSmall_mnist.pt (torch, 17775 bytes, 15 tensors)

conv1.weight f4 [4, 1, 3, 3]
0	0xbd990ef4	-0.07473555
1	0xbd3f63cf	-0.046726044
2	0xbdc7cca2	-0.097558275
3	0xbd91fc70	-0.07128227
4	0x3d30a3cd	0.043124963
5	0x3dc4ec4a	0.09615381
6	0xbde31ea8	-0.110898316
7	0xbe53d3d4	-0.20686275
8	0xbe8e504f	-0.27795646
9	0x3e818412	0.25296074
10	0x3e340c80	0.17582893
11	0xbea04020	-0.31298923
12	0xb992c628	-0.00027994928
13	0x3dee3057	0.11630314
14	0xbd609412	-0.05482871
15	0x3e58b973	0.21164493
16	0xbe2a063a	-0.16603938
17	0x3e23d59b	0.15999453
18	0x3e8485f7	0.25883457
19	0x3d822c00	0.063560486
20	0xbd8895e8	-0.06669217
21	0xbb944b8c	-0.0045256075
22	0xbd2767c6	-0.04087045
23	0xbe65ece5	-0.2245365
24	0x3dca89e1	0.098895796
25	0xbcdeb87b	-0.027187577
26	0xbe58852e	-0.21144554
27	0x3e785e04	0.24254614
28	0x3eb6c319	0.35695723
29	0x3e58cd0f	0.21171974
30	0x3daffde6	0.08593349
31	0x3d8136f6	0.06309311
32	0xbdaf2c06	-0.08553319
33	0x3dad9148	0.08474976
34	0x3e89e33e	0.26931185
35	0x3e57424d	0.21021385

conv1.bias f4 [4]
0	0x3ea435de	0.32072347
1	0xbe41aed0	-0.18914342
2	0xbb7dd970	-0.003873434
3	0x3e59bf37	0.21264349

conv2.weight f4 [8, 4, 3, 3]
0	0xbd74f6cf	-0.059805688
1	0xbce4c3c6	-0.027925383
2	0x3e0438e4	0.12912327
3	0x3df9827a	0.121830896
4	0xbe090f4e	-0.13384745
5	0xbd073c80	-0.03301668
6	0x3dd6eab5	0.104939856
7	0x3cac1b55	0.021009127
8	0xbe1d4496	-0.15358195
9	0xbd89930d	-0.06717501
10	0x3cb3a2f0	0.02192828
11	0xbb704761	-0.003666364
12	0x3cac830b	0.02105858
13	0xbe634851	-0.22195555
14	0xbe2e22aa	-0.17005411
15	0x3dc6c0dc	0.09704754
16	0xbd597f33	-0.053099822
17	0xbdbccc07	-0.09218603
18	0x3d3f95ab	0.046773594
19	0xbcbb1245	-0.02283586
20	0x3df110fc	0.11770818
21	0xbe00b7c8	-0.12570107
22	0xbe60d1fd	-0.21955104
23	0xbd84ef54	-0.06490961
24	0xbceb9179	-0.02875589
25	0x3dbef2c7	0.0932365
26	0xbc951e4e	-0.018202927
27	0xbce7f8dd	-0.02831691
28	0xbdbeffc7	-0.093261294
29	0xbe08f5c1	-0.13374998
30	0xbe333e51	-0.1750424
31	0x3d7ad88d	0.061241675
32	0x3c944a3f	0.01810181
33	0xbdf8aa8e	-0.12141906
34	0x3d1120b2	0.03543157
35	0x3dfef051	0.124481805
36	0xbe51a458	-0.20472848
37	0xbca7cd82	-0.020483736
38	0x3bc26460	0.005932376
39	0xbe6cb15c	-0.23114532
40	0xbe81f008	-0.25378442
41	0xbe1c2f55	-0.1525243
42	0xbd753814	-0.059867933
43	0xbe75c2c3	-0.24000077
44	0xbdd9b6df	-0.10630583
45	0x3ccaddd6	0.024763983
46	0xbdd73012	-0.105072156
47	0xbda9c096	-0.08288686
48	0xbd7e544f	-0.06209212
49	0xbdd9c44e	-0.10633145
50	0xbd467220	-0.04844868
51	0x3e109456	0.14119086
52	0xbc5f6087	-0.013633854
53	0xbd78f15f	-0.060777064
54	0xbe4c7136	-0.19965062
55	0xbe2e3a6a	-0.1701447
56	0x3a4891bb	0.000765111
57	0xbe2a154e	-0.1660969
58	0x3d7a204c	0.061065957
59	0x3d209309	0.039202724
60	0xbe036178	-0.1283015
61	0x3dd94432	0.1060871
62	0x3de296ab	0.11063894
63	0xbe1a8a45	-0.15091808
64	0xbdef6215	-0.116886295
65	0xbdb643f9	-0.088996835
66	0x3c164523	0.009171757
67	0x3c1b6dee	0.0094866585
68	0xbe1178dc	-0.1420626
69	0x3cae13b1	0.021249624
70	0x3d8cb707	0.06870847
71	0xbd9b6604	-0.07587817
72	0xbbdf209c	-0.0068093073
73	0xbd56369f	-0.052298184
74	0x3cf9ba96	0.030484479
75	0x3bd846af	0.006600223
76	0xbe4770b3	-0.19476585
77	0xbdcfdbb2	-0.101493254
78	0xbe12927a	-0.14313689
79	0xbde604ca	-0.11231382
80	0xbbbbda22	-0.0057327906
81	0x3d5fedc7	0.05467012
82	0x3d7aa0d4	0.061188534
83	0x3d88f6d4	0.06687704
84	0x3e138c25	0.1440893
85	0xbd9802e4	-0.07422426
86	0x3e0e9a91	0.1392615
87	0xbd103250	-0.03520423
88	0xbe3d7e30	-0.18505168
89	0xbe43c485	-0.19117935
90	0xbddf3b9d	-0.10900042
91	0xbcbc991b	-0.023022225
92	0x3d82dd96	0.063899204
93	0x3d38782a	0.045036472
94	0xbbd87198	-0.0066053383
95	0x3df70deb	0.120632015
96	0xbde304b2	-0.1108488
97	0xbd418483	-0.047245514
98	0x3dd0df16	0.101988
99	0xbd728ab5	-0.059214313
100	0xbda869ad	-0.08223281
101	0xbe25c0aa	-0.16186777
102	0xbd5fb155	-0.054612476
103	0x3dc69521	0.09696413
104	0xbc740117	-0.014892838
105	0xbe023df3	-0.12718944
106	0xbcc19f8a	-0.023635644
107	0x3d8739d0	0.06602824
108	0x3e327f42	0.17431358
109	0x3e0c55e2	0.13704637
110	0x3e556aae	0.20841476
111	0x3e6189ca	0.22025219
112	0xbdbd3db5	-0.09240285
113	0x3d3a6e05	0.04551508
114	0x3e26cd0e	0.1628916
115	0x39eeb573	0.00045530088
116	0x3e550d35	0.2080582
117	0x3d095930	0.03353232
118	0xbde4bc17	-0.11168688
119	0x3d15b31f	0.036547776
120	0xbc5cdfd7	-0.013481102
121	0xbea026a8	-0.31279492
122	0xbe10ead5	-0.14152081
123	0xbe365aa8	-0.1780802
124	0xbd32721c	-0.043565854
125	0xbe053692	-0.13009098
126	0x3e01659a	0.12636414
127	0xbd07f8fd	-0.033196438
128	0x3dd5dcc4	0.10442498
129	0xbce9912c	-0.028511606
130	0xbdf2f540	-0.11863184
131	0x3d7bfbe1	0.061519507
132	0x3df650fa	0.12027164
133	0xbe13d809	-0.1443788
134	0xbde5d96c	-0.112231106
135	0xbc568b87	-0.013094789
136	0xbdc6fba5	-0.09715966
137	0xbd9cb203	-0.076511405
138	0xbd77321d	-0.060350526
139	0x3d14a6c5	0.036291856
140	0xbe0c2929	-0.13687576
141	0x3ce46361	0.027879419
142	0xbd9e60d3	-0.077333115
143	0x3d35f0ed	0.044419218
144	0xbe6abae2	-0.22922853
145	0xbe65066f	-0.22365735
146	0xbd8a2020	-0.067444086
147	0x3c655161	0.013996453
148	0xbe26bb6f	-0.16282438
149	0xbcca40c1	-0.02468908
150	0xbe4fad47	-0.20280944
151	0xbd6434a7	-0.055714276
152	0xbe15624c	-0.14588279
153	0x3da95296	0.08267705
154	0x3d43753d	0.04771923
155	0x3e0c00d9	0.13672198
156	0x3c9ab007	0.018882765
157	0xbc5c0e4f	-0.013431146
158	0xbd1a4cfd	-0.037671078
159	0xbda62866	-0.08113174
160	0xbd23d2d7	-0.039995994
161	0xbc0bab51	-0.008524732
162	0xbd2e8bed	-0.042613912
163	0xbd14e329	-0.03634945
164	0xbdab36ed	-0.08360086
165	0xbd4407c7	-0.04785898
166	0x3d1f928d	0.03895812
167	0x3dca8fb5	0.09890691
168	0x3bb0be28	0.005393762
169	0x3df33f72	0.118773356
170	0x3d6b0299	0.057375524
171	0x3e007aac	0.12546796
172	0x3df140fb	0.11779972
173	0x3cade343	0.02122653
174	0x3da22ef4	0.07919112
175	0x3e07dca0	0.13267756
176	0x3d9fea90	0.07808411
177	0x3d733b0c	0.059382483
178	0x3d61ddbb	0.0551431
179	0xbd8086e4	-0.06275728
180	0xbddf6518	-0.10907954
181	0xbec1ee38	-0.3787706
182	0x3da14861	0.07875133
183	0xbdc11243	-0.09427311
184	0xbea21225	-0.31654468
185	0x3dbdfa58	0.09276265
186	0xbd0964de	-0.03354346
187	0xbebeb0af	-0.37244174
188	0xbda86163	-0.082217
189	0xbd8ea4cf	-0.069650285
190	0x3de719af	0.11284196
191	0x3e09aa14	0.13443786
192	0xbce72ba7	-0.028219057
193	0xbd68f3a4	-0.05687298
194	0xbdc4425c	-0.095829695
195	0x3e48ebf8	0.19621265
196	0x3d234bd0	0.039867222
197	0x3e14ef24	0.1454435
198	0x3e299916	0.16562304
199	0x3e955df0	0.2917323
200	0x3e80738a	0.2508815
201	0x3e314fd0	0.17315602
202	0x3d97cb4a	0.07411821
203	0x3e0fdcae	0.14049026
204	0xbd2a44c7	-0.041569497
205	0x3b005043	0.001957909
206	0x3e51c31a	0.20484582
207	0xbd67774b	-0.05651025
208	0x3e5f3742	0.21798423
209	0xbd11aac2	-0.035563238
210	0xbe17c0aa	-0.1481959
211	0x3a797a8f	0.0009516859
212	0xbe889a06	-0.2668001
213	0xbc6418fa	-0.0139219705
214	0x3e201bf0	0.15635657
215	0xbbcf7479	-0.0063310233
216	0x3db48dea	0.088161305
217	0xbe2e0c61	-0.1699691
218	0xbe857e92	-0.26073128
219	0x3cd302bc	0.02575814
220	0xbddab9de	-0.106799826
221	0xbe61f75d	-0.22067018
222	0xbd54f109	-0.05198768
223	0xbe1fdeb4	-0.15612298
224	0xbe7e0a3e	-0.24808595
225	0x3dd7e259	0.10541219
226	0x3dab358a	0.08359821
227	0x3e20ae65	0.15691526
228	0xbd05bf7e	-0.032653324
229	0x3e1d595b	0.15366118
230	0xbd9fca39	-0.07802243
231	0xbe83fa54	-0.25776923
232	0xbe0008fc	-0.12503427
233	0x3e420e5a	0.18950787
234	0xbe2913d0	-0.16511464
235	0x3bbb70f8	0.005720254
236	0x3dfde20d	0.123966314
237	0xbe6f06d7	-0.23342453
238	0xbd7cdcad	-0.06173389
239	0xbe3d391b	-0.18478815
240	0xbe15bbed	-0.14622469
241	0xbe470de3	-0.19438891
242	0xbd8fa863	-0.07014539
243	0xbcc6ad15	-0.024252454
244	0x3c1d9946	0.009619063
245	0x3d944279	0.07239241
246	0xbe1e6b67	-0.15470658
247	0xbd5bd2c6	-0.053667806
248	0x3e4bd08a	0.1990377
249	0xbd8ffa7b	-0.07030197
250	0x3d3851fc	0.04500006
251	0x3de36dbf	0.11104917
252	0xbd9e7154	-0.077364594
253	0xbdb70a9d	-0.08937571
254	0xbe534fcc	-0.20635909
255	0xbe438123	-0.1909223

conv2.bias f4 [8]
0	0x3d9845fc	0.074352235
1	0x3d48bbaf	0.049007114
2	0xbcce1e95	-0.025161067
3	0x3e14d5fc	0.14534754
4	0xbd965504	-0.07340434
5	0xbb1e7071	-0.0024175907
6	0x3d914d10	0.07094777
7	0x3d37f85a	0.04491458

conv3.weight f4 [8, 8, 3, 3]
0	0x3d3dd252	0.046343155
1	0xbcb477fa	-0.022029866
2	0xbeb83718	-0.35979533
3	0x3c091f4c	0.008369278
4	0xbca37408	-0.019952789
5	0xbd96422f	-0.07336842
6	0xbd90a1ad	-0.07062087
7	0x3d11fcf4	0.035641626
8	0x3d3db61f	0.046316262
9	0x3d3b12e5	0.045672316
10	0xbda4f4fe	-0.08054541
11	0x3c4d0af4	0.012514818
12	0x3d800835	0.06251565
13	0x3dcccd13	0.10000052
14	0xbcaf11da	-0.021370817
15	0xbd0325aa	-0.03201834
16	0xbdbbfa44	-0.09178594
17	0x3dd277f6	0.10276787
18	0x3cb082cc	0.021546744
19	0x3df8d48c	0.12149915
20	0xbdb0540f	-0.08609783
21	0xba558746	-0.00081454625
22	0x3d53b06a	0.051681913
23	0x3b281848	0.0025649238
24	0xbe2d6482	-0.16932872
25	0x3d502017	0.050811853
26	0x3c87c5a6	0.016573738
27	0x3dd42aa7	0.10359698
28	0xbd972ef3	-0.07382002
29	0xbdd0e242	-0.10199405
30	0x3da4c69a	0.08045693
31	0xbd8dad81	-0.06917859
32	0xbd23a0f6	-0.039948426
33	0x3dff5d8b	0.12469014
34	0x3d6da1b2	0.058015533
35	0xbe339fdc	-0.1754145
36	0xbd901cb3	-0.07036724
37	0x3d638676	0.055548154
38	0x3d8c4546	0.0684915
39	0x3e3b8a10	0.18314385
40	0x3e072b1a	0.13200036
41	0xbd23db16	-0.04000386
42	0xbe42ac93	-0.19011144
43	0xbe5dcff1	-0.21661355
44	0x3ddabe50	0.106808305
45	0x3de66ef6	0.11251633
46	0x3e0d0b34	0.13773805
47	0x3b38506a	0.0028124102
48	0xbd858630	-0.06519735
49	0xbe6f0a7c	-0.23343843
50	0xbe11ee2b	-0.1425101
51	0xbdd696eb	-0.10478004
52	0xbdd64d45	-0.10463957
53	0x3d18f2fe	0.03734111
54	0xbe68e72c	-0.22744435
55	0x3e348df0	0.1763227
56	0xbe1b979e	-0.15194556
57	0xbe4578c2	-0.19284347
58	0xbe239ae0	-0.15977049
59	0x3d7b063d	0.061285246
60	0xbe8e70c5	-0.2782041
61	0xbd73687a	-0.05942581
62	0x3d9f7a54	0.07787004
63	0xba15aa58	-0.0005709282
64	0x3cea959c	0.028635792
65	0xbd73d267	-0.059526827
66	0x3e1194b0	0.14216876
67	0x3e523698	0.20528638
68	0x3cae6028	0.021286085
69	0xbe687330	-0.2270019
70	0x3c03f126	0.0080531
71	0x3d946b59	0.072470374
72	0xbd608f24	-0.05482401
73	0x3d46ef12	0.04856784
74	0x3d96c5e1	0.07361961
75	0xbc321247	-0.0108686155
76	0xbd918318	-0.07105082
77	0x3d218fe9	0.039443884
78	0x3cf24162	0.029572193
79	0x3e1808a3	0.14847045
80	0x3d9e607f	0.07733249
81	0xbdc65d59	-0.096857734
82	0xbd9589ab	-0.07301649
83	0xbddab6ff	-0.10679435
84	0x3ca259d6	0.019818228
85	0xbccbfd47	-0.024901045
86	0xbda57995	-0.080798306
87	0xbdc5578c	-0.09635839
88	0x3d9ae5ae	0.07563339
89	0xbc07af82	-0.00828159
90	0x3d456a08	0.048196822
91	0x3d620b5d	0.055186618
92	0xbde67a30	-0.11253774
93	0x3b63a57e	0.0034736092
94	0x3d34454e	0.044011407
95	0x3d94686c	0.072464794
96	0x3d3ab6b6	0.045584403
97	0xbd2ed174	-0.04268022
98	0x3dfb617a	0.122744516
99	0xbd94d452	-0.072670594
100	0x3deacf6b	0.11465343
101	0x3e189f16	0.14904436
102	0xbc24528e	-0.010029448
103	0x3cfa1d43	0.030531531
104	0x3d14c4a3	0.03632034
105	0x3e3099ab	0.1724612
106	0x3d2a46c4	0.041571394
107	0x3e25dd12	0.16197613
108	0xbd472654	-0.048620537
109	0x3d49b2bb	0.049242716
110	0xbdd33061	-0.10311962
111	0x3d0049d8	0.031320423
112	0xbdae1b28	-0.085012734
113	0xbcf95508	-0.030436054
114	0xbe02eb3b	-0.12785046
115	0x3c64e1e0	0.013969868
116	0xbde8923c	-0.11356017
117	0xbd923b2c	-0.071401924
118	0x3da54140	0.08069086
119	0xbe5aab69	-0.2135445
120	0xbb196a14	-0.0023409175
121	0xbd2e68bf	-0.042580362
122	0xbe746814	-0.23867828
123	0xbd94bdf8	-0.07262796
124	0xbc04d311	-0.008106963
125	0x3e22a280	0.15882301
126	0x3d3f2841	0.04666925
127	0x3c0655c0	0.008199155
128	0xbd0cb6cd	-0.03435402
129	0x3d177b92	0.03698308
130	0xbc920ecd	-0.017829323
131	0xbe0197df	-0.1265559
132	0xbe33afb5	-0.17547496
133	0x3dd584bf	0.1042571
134	0x3c26cee6	0.010181164
135	0x3cc21e20	0.023696005
136	0xbdf3dc50	-0.11907256
137	0x3d683516	0.05669125
138	0xbca5d484	-0.020242937
139	0xbcbd2cb0	-0.023092598
140	0xbddc38f8	-0.107530534
141	0x3e02c798	0.12771451
142	0xbcfd04b1	-0.030886026
143	0xbd1f8a9d	-0.03895055
144	0xbd4a0836	-0.049324237
145	0x3e0f13fc	0.13972467
146	0x3b897804	0.004195215
147	0xbdef30c8	-0.11679226
148	0xbd3192b4	-0.043352798
149	0x3c882ee9	0.016623931
150	0xbe1807f5	-0.14846785
151	0x3adccf20	0.0016846396
152	0x3e13cc34	0.14433366
153	0x3dbf194a	0.093309954
154	0x3d59bd77	0.053159203
155	0xbdfeed56	-0.12447612
156	0x3d9368e6	0.07197742
157	0x3b1ddff1	0.0024089778
158	0x3d867f30	0.06567228
159	0xbd93ced1	-0.072171815
160	0x3c9e69cd	0.01933756
161	0x3cc2358b	0.023707172
162	0x3c8fb812	0.017543826
163	0xbd71e204	-0.059053436
164	0xbdad913c	-0.08474967
165	0xbcac5d53	-0.021040594
166	0xbd093086	-0.03349354
167	0x3dbeebee	0.09322344
168	0xbd486259	-0.048921917
169	0xbdd40fbc	-0.103545636
170	0x3dfef3bd	0.12448833
171	0xbe1b6259	-0.15174235
172	0xbd054968	-0.03254071
173	0x3dd17d76	0.10229008
174	0xbeb31734	-0.3497864
175	0x3e52abdb	0.2057337
176	0x3dea9bd5	0.11455504
177	0xbda1b1f0	-0.07895267
178	0x3dc6410c	0.096803755
179	0x3c1990cc	0.009372901
180	0xbc519a6c	-0.012793165
181	0xbcfed100	-0.031105518
182	0x3ca02fb7	0.019554002
183	0x3ce4e6c3	0.027942067
184	0xbcb7954f	-0.022410063
185	0xbd3db177	-0.04631182
186	0x3d6609e0	0.05616176
187	0xbce74dc7	-0.02823533
188	0xbd77063a	-0.060308672
189	0x3d29c6a0	0.04144919
190	0xbd159d6d	-0.036527086
191	0x3ddacafe	0.10683249
192	0x3e997f16	0.2997977
193	0x3d0418a1	0.03225005
194	0xbdd7f78d	-0.105452634
195	0x3dda5224	0.10660198
196	0xbde7a40a	-0.11310585
197	0xbec67a33	-0.38765106
198	0x3e083a10	0.13303399
199	0x3d02b197	0.031907644
200	0xbe5aef92	-0.21380451
201	0x3e24e2c8	0.16102135
202	0xbe6a4ec6	-0.22881612
203	0xbd04fba9	-0.032466564
204	0x3d172085	0.036896247
205	0xbe331d1b	-0.17491572
206	0xbdb8734e	-0.090063676
207	0xbd868cf5	-0.06569854
208	0x3d6fdd55	0.058560688
209	0xbd806628	-0.06269485
210	0x3d69fb38	0.057124346
211	0xbe276537	-0.16347204
212	0x3d9eaaae	0.07747398
213	0x3de8f952	0.11375679
214	0x3cb2cec1	0.021827104
215	0x3e8c20d7	0.27368805
216	0xbd750efe	-0.05982875
217	0xbd9e261e	-0.07722114
218	0xbdaca489	-0.0842982
219	0x3d0a4ffb	0.03376768
220	0xbcb040d0	-0.02151528
221	0x3d944b81	0.07240964
222	0x3dac1c29	0.084038086
223	0xbcd95e6c	-0.026534282
224	0xbdda0720	-0.1064589
225	0x3df5c46e	0.120003566
226	0x3cf432fa	0.029809464
227	0x3dd4fdbb	0.10399958
228	0x3d805cf5	0.0626773
229	0x3e0abaaf	0.13547777
230	0x3db3d9d2	0.0878178
231	0x3cd7fe82	0.026366476
232	0xbdc3dfa4	-0.095641404
233	0x3c59ed94	0.013301272
234	0x3d86484e	0.0655676
235	0xbddb7168	-0.1071499
236	0xbd881b35	-0.06645814
237	0x3ce37103	0.02776385
238	0x3d820010	0.06347668
239	0xbcf95955	-0.030438105
240	0xbdec37ed	-0.115341045
241	0xbd509f90	-0.05093342
242	0xbc9f8d22	-0.019476477
243	0x3d60c17f	0.054872032
244	0x3df225dc	0.11823627
245	0xba3a3643	-0.00071034225
246	0xbdddccd6	-0.10830085
247	0xbdc7fab4	-0.09764615
248	0xbd6c6501	-0.057713512
249	0xbdc2c197	-0.095095806
250	0x3cbc3aa1	0.022977175
251	0xbd30af4c	-0.043135926
252	0xbd9e9a45	-0.07744268
253	0xbd86fd86	-0.065913245
254	0xbbc67283	-0.0060561313
255	0xbdb63c4c	-0.088982195

conv3.bias f4 [8]
0	0x3debe3b7	0.115180425
1	0x3d7a5a01	0.06112099
2	0x3d3eda66	0.046595
3	0xbdbb60e6	-0.09149341
4	0x3d51aae3	0.05118836
5	0x3e3352fd	0.17512126
6	0x3e2fa5df	0.17153119
7	0x3d76c20d	0.060243655

fc1.weight f4 [2, 392]
0	0xbd7072dd	-0.058703292
1	0xbd4dfda7	-0.05029073
2	0x3cb5b03e	0.022178765
3	0x3b747dc0	0.0037306398
4	0xbd2e6000	-0.04257202
5	0xbd6162ab	-0.055025738
6	0x3a83d7b5	0.0010058793
7	0xbd632d2f	-0.055463012
8	0xbc0aeadf	-0.008478849
9	0xbd3d2c6e	-0.04618495
10	0x3d010265	0.031496424
11	0xbc35da64	-0.011099432
12	0xbd2cd1d8	-0.04219231
13	0xbd15aa42	-0.036539324
14	0xbbb8f724	-0.005644696
15	0xbcefaed3	-0.029258167
16	0xbba0c2e0	-0.0049060434
17	0x3c89b91b	0.016811898
18	0xbcd4a4ab	-0.025957426
19	0x3c2869a3	0.010279092
20	0x3d368d81	0.044568542
21	0x3ae63827	0.0017564342
22	0xbbc9ac11	-0.006154545
23	0x3ab14979	0.0013525925
24	0x3c997c47	0.018736018
25	0xbd3bf173	-0.04588456
26	0xbc57d7f2	-0.013174044
27	0x3ceab24a	0.028649468
28	0xbae6c07c	-0.0017604972
29	0x3d04eb24	0.03245081
30	0x3ba2c72d	0.0049675913
31	0x3cbae586	0.022814523
32	0xbd3fcfb1	-0.04682893
33	0xbd99940f	-0.07498943
34	0x3ca62d98	0.020285413
35	0xbc20cb0f	-0.009814038
36	0x3ca9e8ae	0.020740833
37	0x3cac0f20	0.021003306
38	0x3c432089	0.011909612
39	0xbd90d144	-0.07071164
40	0xbd38ff53	-0.04516537
41	0x3b2dda25	0.002652773
42	0x3cb870cf	0.022514729
43	0x3cfa5e16	0.030562442
44	0xbd4b0d17	-0.04957303
45	0x3d1c9455	0.038227398
46	0xbd4d5aac	-0.0501353
47	0xbd07cb00	-0.03315258
48	0xbcdfcd2b	-0.027319511
49	0xbd15e2aa	-0.036593117
50	0xbc34b919	-0.011030459
51	0xbd0ea0e4	-0.034821406
52	0xbd018450	-0.031620324
53	0x3d16011f	0.036622163
54	0xbcba0db8	-0.02271162
55	0x3ca0d44d	0.019632483
56	0x3b91e463	0.0044522746
57	0x3d051f8d	0.032500792
58	0x3d08f5ff	0.033437725
59	0xbd53d722	-0.05171884
60	0xbcf631fc	-0.030053131
61	0xbcbeffb1	-0.023315283
62	0xbd4ac544	-0.049504533
63	0xbc7436f6	-0.014905682
64	0xbd2bec66	-0.041973494
65	0xbd3d462c	-0.0462095
66	0xbd55005f	-0.052002307
67	0xbc8f58ae	-0.01749834
68	0x3ca694d5	0.02033464
69	0xbab883dd	-0.0014077384
70	0xbc63cfd0	-0.013904527
71	0x3be6b401	0.007040501
72	0x3ce90e60	0.028449237
73	0xbc3fde1e	-0.011710672
74	0xbd636baf	-0.055522617
75	0x3c599a75	0.013281454
76	0xbd0193bd	-0.031635035
77	0xbd496301	-0.049166683
78	0x3c8515c3	0.016245728
79	0xbcd7b96a	-0.02633353
80	0xbcc3ca6c	-0.023900233
81	0x3c1f3224	0.009716544
82	0x3d2e4ff4	0.042556718
83	0xbcfaa2c8	-0.030595198
84	0xbc8d5d9e	-0.017256554
85	0xbc92b485	-0.017908344
86	0xbc79b385	-0.015240555
87	0x3c4505de	0.012025325
88	0x3d26ff50	0.04077083
89	0xbd09b47e	-0.033619396
90	0xbd5b0568	-0.053471953
91	0xbd0b933e	-0.034075968
92	0x3ba3c634	0.004997993
93	0xbbb7d276	-0.0056098057
94	0xbd45370b	-0.048148196
95	0x3c21fe99	0.009887361
96	0xbb5e3b5f	-0.00339099
97	0x3cee091f	0.029057084
98	0xbb7594bc	-0.0037472686
99	0xbc8c6d86	-0.017142069
100	0x3c7b49e8	0.015337445
101	0xbc531ec8	-0.012885757
102	0xbd315616	-0.04329499
103	0xbd2ad643	-0.041708242
104	0xbcb46b30	-0.022023767
105	0xbc985f19	-0.018600034
106	0xbd79451d	-0.060856927
107	0x3c0c1b4f	0.008551433
108	0xbcf7d95f	-0.030255018
109	0xbd9e1cc2	-0.07720329
110	0xbd1b682a	-0.037941135
111	0xbc66476a	-0.014055112
112	0x3d13b0d9	0.036057327
113	0xbca00dff	-0.019537924
114	0xbb4f53f1	-0.0031635726
115	0xbc1dac21	-0.009623558
116	0xbd73dc30	-0.05953616
117	0xbcd60729	-0.026126461
118	0x3ae683ac	0.0017586849
119	0xbd322289	-0.043489967
120	0xbd3c5011	-0.045974795
121	0x3cbe8f58	0.023261711
122	0xbab2322e	-0.0013595277
123	0x3d0e7d60	0.034787536
124	0xbbaf3027	-0.0053463164
125	0x3d1b673f	0.03794026
126	0xbc81d36f	-0.01584789
127	0xbd13b2b8	-0.03605911
128	0xbca44716	-0.020053428
129	0xbc55dd78	-0.013053291
130	0xbd2c6e72	-0.042097516
131	0xbbd52602	-0.006504775
132	0xbc65c2d4	-0.014023501
133	0xb9ab75e1	-0.00032703488
134	0xbb4fc8b1	-0.0031705315
135	0xbd1390c4	-0.03602673
136	0xbd6467b7	-0.055762973
137	0xbd154827	-0.036445763
138	0x3d30c268	0.04315415
139	0xbce8b114	-0.02840475
140	0x3c07d795	0.008291145
141	0xbd40adc3	-0.047040712
142	0xbd428a69	-0.04749528
143	0xbd1bf434	-0.038074687
144	0xbaa34731	-0.001245713
145	0x3d0ddcca	0.03463439
146	0xbd083fe8	-0.03326407
147	0xbd49e979	-0.049294923
148	0x3cedf19c	0.029045872
149	0x3ce51350	0.02796331
150	0xbd2fde9b	-0.042936902
151	0x3cab70a8	0.020927742
152	0xbd14481b	-0.036201578
153	0x3cb7834c	0.022401474
154	0xbca3d4bd	-0.019998902
155	0x3d38af7e	0.045089237
156	0xbc880f48	-0.01660885
157	0xbce8c081	-0.028412106
158	0xbac94440	-0.0015355423
159	0x3c204fd8	0.009784661
160	0xbc8bcbc2	-0.017064933
161	0x3c642218	0.013924144
162	0xbcf4d8c9	-0.029888527
163	0x3d1de46a	0.03854791
164	0xbd05b6ee	-0.03264516
165	0x3c9ea7e8	0.019367173
166	0xbc9bb120	-0.019005358
167	0x3cd4c050	0.025970608
168	0x3a1545c0	0.00056942925
169	0x3d029c70	0.03188747
170	0xbc7212b0	-0.014774963
171	0xbce2f974	-0.02770684
172	0xbd07cabe	-0.033152334
173	0xbcc6060a	-0.024172802
174	0x3d3a9094	0.045548037
175	0xbcfb3d86	-0.030668985
176	0xbd2aa5a3	-0.04166187
177	0x3d153126	0.036423825
178	0xbd007982	-0.03136588
179	0x3d171018	0.036880583
180	0x3b0a94b0	0.0021145754
181	0x3d0658c8	0.032799512
182	0x3cfaad9c	0.030600362
183	0x3d3d97e4	0.046287432
184	0xbd169f6e	-0.036773138
185	0x3beceea8	0.0072305985
186	0xbd3c1df6	-0.04592701
187	0xbd000110	-0.031251013
188	0xbc4e7198	-0.012600325
189	0x3d0ad1d2	0.033891506
190	0x3d32e30e	0.043673567
191	0x39c29180	0.0003711097
192	0xbd471ecb	-0.04861335
193	0x3c823c78	0.015897974
194	0x3c87f6fc	0.016597264
195	0xbd018a7a	-0.031626202
196	0xbd56e33b	-0.052462798
197	0xbc0d0640	-0.008607447
198	0xbd4f4291	-0.050600592
199	0xbd43ac2b	-0.047771614
200	0xbce5a9f4	-0.028035142
201	0xbc429a32	-0.011877583
202	0xbd24af00	-0.040205956
203	0x3cb599ad	0.022168005
204	0x3c631753	0.013860541
205	0xbb666394	-0.0035154568
206	0x3cac0e6c	0.02100297
207	0xbc5876ba	-0.0132119
208	0xbcc3a1d1	-0.023880871
209	0xbbf36a3d	-0.007428436
210	0xbd5a7d8b	-0.053342383
211	0xbcad8216	-0.021180194
212	0x3cc8f4f2	0.024530862
213	0xbc008c24	-0.007845912
214	0xbd6d757a	-0.057973363
215	0x3d02f743	0.03197409
216	0x3bce434e	0.0062946444
217	0xbcb363e0	-0.02189821
218	0xbd541938	-0.051781863
219	0xbbfab6fe	-0.007651209
220	0xbd82702e	-0.06369053
221	0xbd529900	-0.051415443
222	0xbd54ea8e	-0.0519815
223	0xbb01d7bd	-0.0019812428
224	0xbd2e32ad	-0.042528797
225	0x3d09d996	0.03365477
226	0x3cf0dbac	0.029401623
227	0xbb4ec1d8	-0.0031548645
228	0xbd6e9992	-0.058251925
229	0xb8fc90b2	-0.00012043248
230	0xbd0f496c	-0.03498213
231	0x3d2a77fb	0.04161833
232	0xbd031977	-0.032006707
233	0xbb70daf0	-0.003675159
234	0x3cb3fc00	0.021970749
235	0xbbd2b718	-0.006430518
236	0xbd6f7c0e	-0.058467917
237	0xbca85288	-0.020547166
238	0xbd42f3c7	-0.047595765
239	0xbb2a355a	-0.0025971741
240	0xbc60c082	-0.013717772
241	0x3cc163a0	0.023607075
242	0xbce61938	-0.028088197
243	0xbcf0a2bb	-0.029374471
244	0xbd06118a	-0.03273157
245	0x3b68f2b6	0.0035545058
246	0xbccab898	-0.024746224
247	0xbd1c8bd7	-0.0382193
248	0x3ce63f63	0.028106397
249	0x3c8b6c19	0.017019318
250	0xbce17eb5	-0.027526239
251	0xbd297dc5	-0.04137971
252	0xbc8d40fc	-0.017242901
253	0x3c468822	0.0121174175
254	0x3c08e9cf	0.008356526
255	0x3c80eaec	0.01573702

fc1.bias f4 [2]
0	0xbd6fd25f	-0.058550235
1	0x3df374bc	0.118875

fc2.weight f4 [392, 2]
0	0xbf2376e9	-0.6385332
1	0xbf20aad9	-0.6276069
2	0xbf08bcc3	-0.5341303
3	0xbf011022	-0.5041524
4	0x3f26be17	0.65133804
5	0xbc81be00	-0.01583767
6	0xbe767e40	-0.24071598
7	0xbef20890	-0.47272158
8	0x3ec5e1a2	0.38648707
9	0xbf2f24fc	-0.6841581
10	0xbe95bee0	-0.2924719
11	0x3ef9c2b9	0.48781374
12	0x3cf64e40	0.03006661
13	0xbe9a4666	-0.30131835
14	0xbf05077e	-0.5196456
15	0x3e76687d	0.24063297
16	0xbeefa066	-0.46802062
17	0xbf745b8d	-0.95452195
18	0xbf2112b0	-0.6291914
19	0x3da20f60	0.07913089
20	0x3e97d9e6	0.2965843
21	0xbf2b3c69	-0.66889054
22	0x3f04b8e4	0.5184462
23	0x3effd28a	0.49965316
24	0xbf0873f0	-0.53301907
25	0xbe7d67d4	-0.24746639
26	0xbb225c00	-0.0024774075
27	0xbf2b3d28	-0.6689019
28	0x3e8dc056	0.27685803
29	0xbe1e55f8	-0.15462482
30	0xbd6018ea	-0.05471126
31	0x3ceb9ebb	0.028762212
32	0x3e31241c	0.17298931
33	0x3e0732e4	0.13203007
34	0x3ef5dd8e	0.48020595
35	0x3ea52410	0.32254076
36	0x3db424f5	0.087961115
37	0x3f6936d7	0.91099304
38	0x3f230231	0.6367522
39	0x3c9950e0	0.018715322
40	0xbee0c448	-0.4389975
41	0x3f784d1c	0.9699266
42	0x3f14cd52	0.58125794
43	0x3f3bb663	0.73325175
44	0xbf172f30	-0.5905638
45	0x3f29ef34	0.6638062
46	0x3e829f9a	0.2551239
47	0xbeb193d0	-0.34683084
48	0xbecfea9d	-0.40608683
49	0x3f30455a	0.6885582
50	0x3ede2424	0.43386948
51	0xbecc67db	-0.39922985
52	0xbf0bbb35	-0.5458253
53	0x3ee3cb1c	0.44490898
54	0xbe989fba	-0.29809362
55	0xbf0f26c9	-0.55918556
56	0xbe930b2c	-0.2871946
57	0xbeefb550	-0.46818018
58	0x3ee897b6	0.45428246
59	0x3e4507f1	0.1924131
60	0x3e90a33c	0.28249538
61	0xbf007fc2	-0.5019494
62	0xbf36633c	-0.7124517
63	0x3f0b0fbe	0.54320896
64	0x3e3e58f4	0.1858862
65	0xbf1cf0b0	-0.6130476
66	0x3ec71f3d	0.3889102
67	0x3e6dba64	0.23215634
68	0x3f04c966	0.5186981
69	0xbe90fcf7	-0.28317997
70	0x3f264f93	0.6496517
71	0xbf87ddb4	-1.0614533
72	0xbf0d9f45	-0.5532115
73	0x3d7c8957	0.061654415
74	0xbe90f4f6	-0.2831189
75	0x3eaa7483	0.33292016
76	0xbd8734c8	-0.06601864
77	0x3eaa5b2d	0.33272687
78	0x3e76796a	0.24069753
79	0xbebf7732	-0.37395626
80	0x3ebffc7e	0.37497324
81	0xbf524318	-0.82133627
82	0x3f2250d5	0.6340459
83	0xbeec66f2	-0.4617229
84	0xbe56d986	-0.20981416
85	0xbe8fd380	-0.2809105
86	0x3e2df1d6	0.16986784
87	0xb9811df7	-0.00024627123
88	0x3e789e4c	0.24279135
89	0xbe83d70c	-0.25750005
90	0x3e789602	0.24275973
91	0x3f2f0686	0.6836933
92	0xbe50a584	-0.20375639
93	0xbec6d8d4	-0.38837302
94	0xbf10d418	-0.5657363
95	0x3d4f0670	0.05054325
96	0x3ebce5f6	0.36894196
97	0xbe4339d8	-0.19065034
98	0xbe9e8208	-0.3095858
99	0xbadcf835	-0.001685864
100	0x3f11e16e	0.56984603
101	0x3e211b45	0.15733059
102	0x3f23476e	0.6378087
103	0x3e2a98c3	0.16659836
104	0xbe9a4db3	-0.30137405
105	0x3d78a573	0.06070466
106	0xbeb60aa9	-0.35555008
107	0x3def769a	0.11692543
108	0xbf215f5c	-0.6303613
109	0x3e432202	0.19055942
110	0xbe403b42	-0.18772605
111	0xbe21b38c	-0.15791148
112	0xbe391710	-0.18075204
113	0xbea9a19a	-0.33131105
114	0xbbdd7c00	-0.0067591667
115	0x3e66a268	0.2252289
116	0xbedb8b96	-0.42879933
117	0xbe958a1b	-0.2920693
118	0xbdf37840	-0.1188817
119	0xbf110d3e	-0.5666083
120	0xbf1be7a3	-0.60900325
121	0x3e836dd5	0.25669733
122	0x3efe6480	0.4968605
123	0x3e558076	0.20849785
124	0x3e58beb0	0.21166492
125	0xbe1a9ae8	-0.15098155
126	0xbe77c5a4	-0.24196488
127	0x3d80229b	0.062566005
128	0x3f002e99	0.500711
129	0x3dcb1028	0.09915191
130	0x3ee147b6	0.44000024
131	0xbd80e060	-0.06292796
132	0xbe8655df	-0.2623739
133	0xbf1f0875	-0.6212228
134	0x3de91d5e	0.113825545
135	0x3e9a9ff5	0.30200163
136	0x3d8f3218	0.069919765
137	0xbed225e6	-0.4104454
138	0x3ebfbf61	0.37450698
139	0x3f3c5aa5	0.7357581
140	0xbf0d79b0	-0.55263805
141	0xbef927f8	-0.48663306
142	0xbebb08bb	-0.36530098
143	0x3f32b9fb	0.69815034
144	0xbe8c505a	-0.27405053
145	0xbf0efe7b	-0.55857056
146	0x3f0e7e37	0.5566134
147	0xbecf6020	-0.40503025
148	0x3c8aa4b6	0.016924243
149	0x3e04086e	0.1289384
150	0xbeaefdb0	-0.34177923
151	0x3f1f31b4	0.62185216
152	0x3b49fa00	0.0030819178
153	0xbe388ae8	-0.18021739
154	0x3e858ab3	0.26082382
155	0xbbf78d72	-0.0075547034
156	0xbee65246	-0.44984645
157	0x3f34e0cc	0.7065551
158	0x3e0118cc	0.12607116
159	0xbe9b8867	-0.30377504
160	0x3f0fb8dc	0.5614145
161	0x3d8a78b3	0.06761303
162	0xbece60d2	-0.40308243
163	0xbefb13b4	-0.4903847
164	0xbef1c8ce	-0.47223514
165	0x3ebed73f	0.37273595
166	0x3f254db1	0.6457167
167	0xbde7a8e4	-0.1131151
168	0xbf00ab57	-0.50261444
169	0x3e0f3a28	0.13987029
170	0x3e52b17c	0.20575517
171	0x3e9bdacc	0.30440366
172	0xbeab0499	-0.33401945
173	0x3e9b5afd	0.30342856
174	0x3eca370a	0.39495116
175	0xbdea2fa4	-0.11434868
176	0xbec740dc	-0.3891667
177	0xbd74b932	-0.05974693
178	0x3f176f0c	0.5915382
179	0x3e251a12	0.16123226
180	0xbe9581b8	-0.2920053
181	0xbe8ddf06	-0.27709216
182	0xbf1bcf6d	-0.6086338
183	0x3e1cbc35	0.1530617
184	0xbf259915	-0.6468671
185	0xbe84b3df	-0.2591848
186	0x3f124773	0.5714027
187	0x3c9be6e0	0.019030988
188	0xbeceb99f	-0.40375993
189	0x3f2a909a	0.66626894
190	0xbf320daf	-0.6955213
191	0xbdec5e99	-0.115414806
192	0xbefcbe52	-0.49363953
193	0x3e83e385	0.2575952
194	0x3eff0051	0.4980493
195	0xbe807465	-0.25088802
196	0xbe44160a	-0.19149032
197	0xbdde3f26	-0.10851888
198	0x3ef732a6	0.4828083
199	0x3ba2b200	0.004965067
200	0xbedb9445	-0.42886558
201	0x3b12d57b	0.0022405076
202	0x3ecf42fc	0.40480793
203	0x3df3a0a0	0.11895871
204	0xbe297b64	-0.16550976
205	0x3e714acd	0.2356369
206	0x3ecb6a17	0.39729378
207	0x3e8b2404	0.27175915
208	0xbf223c96	-0.63373697
209	0xbdc4c9b9	-0.09608788
210	0xbf06d410	-0.5266733
211	0xbda224f1	-0.07917202
212	0xbe75cd16	-0.24004015
213	0xbd494f6b	-0.049148005
214	0x3ecdd04a	0.40197974
215	0xbe90a704	-0.28252423
216	0x3ecec05e	0.4038114
217	0xbd95ca9f	-0.073140375
218	0xbf1a1d4b	-0.6020095
219	0x3f09ebe3	0.5387556
220	0x3f250684	0.6446307
221	0xbd39c68a	-0.045355357
222	0xbe2e06bd	-0.16994758
223	0xbb5ad7db	-0.003339282
224	0xbe97500a	-0.29553252
225	0x3e09e020	0.13464403
226	0xbf2ad0de	-0.66724956
227	0xbe4469b9	-0.19180955
228	0x3f0f2d5e	0.559286
229	0x3e674fda	0.22589055
230	0xbed1643a	-0.4089678
231	0xbf34be78	-0.7060313
232	0x3e691275	0.22760947
233	0x3dfbda74	0.12297526
234	0xbc1a6202	-0.009422781
235	0x3e788767	0.24270402
236	0xbec3c4cc	-0.38236082
237	0x3e6a373c	0.22872633
238	0xbec14e41	-0.37755015
239	0x3e714f7b	0.23565476
240	0xbdc405a8	-0.09571391
241	0xbf16786d	-0.58777505
242	0xbed7ec42	-0.42172438
243	0xbe3ae71c	-0.18252224
244	0xbf0fb95b	-0.56142205
245	0x3de6ae3f	0.112637036
246	0xbea755b3	-0.3268257
247	0xbf224d8d	-0.63399583
248	0xbe5b2246	-0.21399793
249	0x3e34e66d	0.17666025
250	0xbf0b20c1	-0.54346853
251	0x3a62187d	0.0008624865
252	0xbe9a0793	-0.30083904
253	0xbc9c5735	-0.019084552
254	0x3f0457ce	0.5169648
255	0x3e9e31a2	0.30897242

fc2.bias f4 [392]
0	0xbf2a3aa2	-0.66495717
1	0xb9c89bd0	-0.00038263062
2	0xbe947be2	-0.29000765
3	0xb9bf84b0	-0.0003652922
4	0xbe9cd91d	-0.30634394
5	0xbd3963e1	-0.045261268
6	0xbe826da0	-0.25474262
7	0xbd36964d	-0.04457693
8	0xbb51d67a	-0.0032018707
9	0xbf0d34e6	-0.5515884
10	0xbee47e04	-0.44627392
11	0x3e54ad5e	0.2076926
12	0xbe9d1cc6	-0.30686015
13	0xbafe797d	-0.0019414868
14	0xbe87036c	-0.26369798
15	0x3e87c1c8	0.2651503
16	0xbf199837	-0.59997886
17	0xbeed5b2f	-0.4635863
18	0x3eccd39f	0.40005204
19	0xbe909685	-0.28239837
20	0xbe90f3f4	-0.2831112
21	0xbdefdacf	-0.11711656
22	0xbf19f33e	-0.60136783
23	0x3f737901	0.9510651
24	0x3f7f1df6	0.9965509
25	0x3f77274d	0.96544343
26	0x3ed0f6e8	0.40813375
27	0xbf1ce420	-0.6128559
28	0xba446c3d	-0.00074929354
29	0xbf005dd0	-0.50143147
30	0xbe958129	-0.29200104
31	0xbeaa6067	-0.33276674
32	0x3fa3d98f	1.2800769
33	0x3d16b26b	0.036791246
34	0xb9ed1bdd	-0.00045224922
35	0xbad31505	-0.0016104287
36	0xbe2ba1b9	-0.16760911
37	0x3e4ff19d	0.20307012
38	0xbe22c8ce	-0.15896913
39	0x3f1e1ad9	0.61759716
40	0xbb01bbb4	-0.0019795718
41	0xbb7a32bc	-0.0038177213
42	0xbb28bc01	-0.0025746825
43	0xbc33e4d2	-0.010979848
44	0xbe8d5516	-0.27603978
45	0xbef6c760	-0.48198986
46	0xbe546a9c	-0.20743793
47	0xbf15dfd6	-0.5854467
48	0xbc3c0896	-0.011476656
49	0x3ee197da	0.44061166
50	0x3e0d35d1	0.1379006
51	0xbefead76	-0.49741715
52	0x3ec60822	0.3867808
53	0x3ed618cc	0.41815794
54	0x3efaa429	0.4895337
55	0x3f0764c4	0.5288813
56	0xbec56d82	-0.3856011
57	0xbf234514	-0.6377728
58	0x3ec25f19	0.3796318
59	0xbf054126	-0.52052534
60	0xbf1a460b	-0.6026313
61	0xbdbdbfdd	-0.09265111
62	0xbf19dd6a	-0.60103476
63	0xbe32ed5b	-0.17473356
64	0xbf14d3bb	-0.58135575
65	0xbe9af401	-0.30264285
66	0xbf162e24	-0.58664155
67	0xbea9330b	-0.33046755
68	0xbb0f4ed4	-0.0021867054
69	0x3eb3f36b	0.3514665
70	0xbf130bb5	-0.5743974
71	0xbecccd85	-0.4000055
72	0x3f389da4	0.7211554
73	0xbbb095cb	-0.0053889505
74	0xbeac5dd6	-0.3366534
75	0x3e8a62c8	0.2702849
76	0xbee07a20	-0.43843174
77	0x3f852f32	1.0405028
78	0xbec72b75	-0.38900343
79	0x3efefee6	0.49803847
80	0xbe2f88a7	-0.17141972
81	0xbbdebf42	-0.006797702
82	0x3f2ecf98	0.6828551
83	0x3f872a2c	1.0559745
84	0x3ed330e8	0.4124825
85	0x3d300dd8	0.042981952
86	0x3dcfe688	0.10151392
87	0x3e35e716	0.17763934
88	0x3eeb3b20	0.45943546
89	0x3f631f7b	0.8871991
90	0x3f2902ff	0.66020197
91	0x3f0d8116	0.55275095
92	0x3f058f18	0.5217147
93	0xbefcfbf7	-0.49410984
94	0x3f3843c0	0.7197838
95	0x3f886d25	1.0658308
96	0x3f039f90	0.5141535
97	0x3f481e05	0.78170806
98	0x3e9535ad	0.29142514
99	0xbe9c251c	-0.30497062
100	0x3f3fc4c6	0.7490963
101	0x3f4b1d69	0.7934175
102	0xbf1ccad3	-0.61246985
103	0x3e889fd2	0.26684433
104	0x3f2f77f1	0.6854239
105	0x3ed281bb	0.41114601
106	0x3f3788b6	0.7169298
107	0xbe466390	-0.19373918
108	0x3da065a5	0.07831887
109	0x3d96b4f2	0.07358731
110	0x3dbe2550	0.092844605
111	0x3faa8fd4	1.3325143
112	0xbeb9df59	-0.36303213
113	0x3ec8da88	0.39229226
114	0xbeb237d3	-0.34808215
115	0xbc18c12c	-0.0093233995
116	0xbd99cd36	-0.07509844
117	0xbdf4eb06	-0.1195889
118	0x3f0bbb71	0.5458289
119	0x3ed1e203	0.40992746
120	0xbe6d5094	-0.2317527
121	0xbdb652e0	-0.08902526
122	0xbeaf1f65	-0.3420364
123	0xbc4eb26d	-0.012615782
124	0x3ecf0f64	0.4044143
125	0x3eb6d844	0.35711873
126	0x3f7cc3bf	0.98736185
127	0x3de035ce	0.109477624
128	0x3ed818a7	0.42206308
129	0x3f7b81c8	0.98244905
130	0xbe1bcc50	-0.15214658
131	0xbdedbbc2	-0.116080776
132	0x3f07e152	0.53078187
133	0xbf1bb398	-0.60820913
134	0x3ee5697a	0.44807035
135	0xbeaa48f5	-0.33258787
136	0xbc8512e9	-0.016244369
137	0xbe3bb393	-0.18330221
138	0xbed0da23	-0.40791425
139	0x3f305509	0.68879753
140	0xbf27f288	-0.6560445
141	0xbe6d9fd2	-0.23205498
142	0xbf31e098	-0.6948333
143	0xbf1c30ca	-0.61011946
144	0x3eff5513	0.49869594
145	0x3ef0d53e	0.4703769
146	0x3f321baf	0.6957349
147	0x3f1b0430	0.60553265
148	0x3f565cbd	0.8373526
149	0x3efdb25c	0.4955014
150	0xbef85713	-0.48503932
151	0x3edf3458	0.43594623
152	0x3e7654e4	0.2405582
153	0x3bb2555e	0.0054423055
154	0x3f34a29d	0.7056063
155	0x3e41d25b	0.189279
156	0xbe9018f4	-0.28144038
157	0xbf306e64	-0.6891844
158	0x3d85f706	0.065412566
159	0xbf3d5475	-0.73956996
160	0xbf2f4bf5	-0.68475276
161	0x3eed466c	0.4634279
162	0x3eb1d07f	0.34729382
163	0x3ddc04cb	0.10743102
164	0x3f04dd15	0.51899844
165	0xbca9c5c0	-0.020724177
166	0xbc7b61e0	-0.015343159
167	0x3f4ac605	0.79208404
168	0x3f2c684c	0.67346644
169	0xbb92dedb	-0.004482133
170	0xbe97ee6b	-0.29674086
171	0xbf2cfcf4	-0.67573476
172	0xbc48b210	-0.012249485
173	0xbe21cbd2	-0.15800408
174	0x3c9beccd	0.019033814
175	0xbe8d5110	-0.27600908
176	0xbc3285c0	-0.010896146
177	0xbf2a1ae2	-0.6644727
178	0xbedbad68	-0.42905736
179	0xbd7674c0	-0.060169935
180	0xbeb55bf7	-0.35421726
181	0xbe1aad9c	-0.15105289
182	0x3f07b5f9	0.53012043
183	0xbe82fec9	-0.2558501
184	0xbf25dc2a	-0.6478907
185	0xbf331df4	-0.6996758
186	0xbdae483c	-0.08509871
187	0xbee6ac52	-0.45053345
188	0x3f364e0d	0.71212846
189	0x3ed1c36b	0.40969405
190	0x3f5e0b9c	0.86736465
191	0x3fabcaab	1.3421224
192	0x3e088b67	0.13334428
193	0x3e993345	0.29921928
194	0xbf19552e	-0.598956
195	0x3ee11283	0.43959436
196	0xbb53062c	-0.0032199724
197	0x3eef07ec	0.4668573
198	0xbd03ad00	-0.032147408
199	0x3e3bca6a	0.18338934
200	0x3f6ac687	0.9170918
201	0x3f309f8b	0.68993443
202	0x3f351138	0.707294
203	0x3e593343	0.21210961
204	0xbee155df	-0.44010827
205	0x3ef9ff8a	0.48827773
206	0xbf038da0	-0.5138798
207	0xbf2e2cd8	-0.68037176
208	0xbdde4525	-0.10853032
209	0xbefaff72	-0.49023014
210	0x3f18247f	0.5943069
211	0x3f77515a	0.9660851
212	0xbf02ab40	-0.51042557
213	0x3c87bfb4	0.016570903
214	0xbdfad455	-0.1224753
215	0xbe291cfc	-0.16514963
216	0x3e4d79fc	0.20066065
217	0xbe0f8298	-0.14014661
218	0x3f72ee91	0.94895273
219	0x3e8b9d54	0.2726847
220	0xbf0b2dd3	-0.543668
221	0xbf1ed333	-0.62041014
222	0xba9b37af	-0.0011842157
223	0x3ec91f0b	0.39281496
224	0xbf391873	-0.7230293
225	0x3d4574a5	0.048206944
226	0xbf220803	-0.63293475
227	0xbf2887c2	-0.6583215
228	0x3f49ca77	0.7882456
229	0xbea2f448	-0.31826997
230	0xbcff42a0	-0.031159699
231	0x3f388d3f	0.72090524
232	0xbe554740	-0.20827961
233	0xbe85d151	-0.26136258
234	0xbd19bf06	-0.03753569
235	0xbf00f32a	-0.5037104
236	0xbea4ee1e	-0.3221292
237	0x3e3a60ea	0.18201032
238	0x3eba8b50	0.36434412
239	0xbea6e783	-0.32598504
240	0x3f1e778c	0.61901164
241	0x3f615bcc	0.88030696
242	0x3f018153	0.5058796
243	0x3ec16f17	0.37780067
244	0xbc0cf880	-0.008604169
245	0xbc4b8c80	-0.0124236345
246	0x3f03b1a1	0.51442915
247	0x3e04f850	0.12985349
248	0x3f16687c	0.5875318
249	0x3f0f60c6	0.5600704
250	0x3ee6b4fc	0.45059955
251	0x3ecf28ea	0.40460902
252	0xbcfa4ee0	-0.030555189
253	0xbc39b200	-0.011333942
254	0x3f793152	0.9734088
255	0x3d70ee4c	0.058821008

deconv1.weight f4 [8, 8, 1, 1]
0	0xbf1b45f3	-0.6065361
1	0xbf78414b	-0.9697463
2	0xbeb77adc	-0.35835922
3	0xbf689002	-0.9084474
4	0xbf1db0e3	-0.6159803
5	0x3e4936d9	0.19649829
6	0xbf1f4831	-0.6221953
7	0xbebe6b9d	-0.37191477
8	0x3e3a5e61	0.18200065
9	0xbe1a2c24	-0.15055901
10	0x3ea8dc02	0.32980353
11	0x3dd5344f	0.10410368
12	0x3e398098	0.18115461
13	0xbf49ec35	-0.7887605
14	0x3eb430e6	0.35193557
15	0x3ea5d451	0.32388547
16	0x3efc7290	0.49306154
17	0x3ea0fe60	0.31444073
18	0x3e7d12dc	0.24714226
19	0x3d725197	0.05915984
20	0x3f18908e	0.5959557
21	0xbef031e9	-0.46913078
22	0x3ed994b3	0.4249626
23	0xbe6d1362	-0.23151925
24	0x3ee1a77c	0.44073093
25	0xbe2e5f6c	-0.17028588
26	0x3ecb8c1a	0.39755327
27	0x3e383412	0.17988613
28	0x3e600a09	0.21878828
29	0xbf12e1c0	-0.5737572
30	0x3f073e1f	0.52829164
31	0x3e85b21d	0.26112452
32	0x3ee3118e	0.4434933
33	0x3e750bcd	0.23930283
34	0xbd40b0e7	-0.047043707
35	0x3eb39a6a	0.35078746
36	0x3e97b549	0.29630497
37	0x3ebcff19	0.36913374
38	0x3e875e2a	0.2643903
39	0xbd555c5b	-0.05209003
40	0x3e0481be	0.12940118
41	0xbee77fdc	-0.45214736
42	0x3e0ee838	0.13955772
43	0x3f0e637c	0.5562055
44	0x3e591211	0.21198298
45	0x3f0b99c1	0.54531485
46	0x3e8c84e2	0.27445132
47	0x3f3072c7	0.68925136
48	0x3e8e318c	0.27772176
49	0x3e87ea22	0.26545817
50	0x3f159866	0.58435667
51	0x3e441693	0.19149236
52	0x3ebdf929	0.37104157
53	0xbf3fd8d5	-0.74940234
54	0x3ef0b64a	0.47014076
55	0x3dd23316	0.1026365
56	0x3eb5629d	0.35426798
57	0x3edb492a	0.42829257
58	0x3dc50407	0.09619909
59	0x3e86ac58	0.26303363
60	0xbe091aad	-0.13389082
61	0x3bad1f4c	0.005283272
62	0x3e21d329	0.15803207
63	0xbf0c2f2d	-0.54759485

deconv1.bias f4 [8]
0	0xbdcdfa16	-0.10057466
1	0x3e5a8726	0.21340618
2	0x3e4865cf	0.19570087
3	0xbdea6c11	-0.11446393
4	0x3de5a493	0.11213031
5	0x3e790d67	0.24321519
6	0xbdd4afa0	-0.1038506
7	0x3edebfd7	0.43505737

deconv2.weight f4 [8, 4, 2, 2]
0	0x3efb4a93	0.49080333
1	0xbe06032b	-0.13087146
2	0x3f2bd252	0.671178
3	0x3cad3f2d	0.021148289
4	0x3e7b2204	0.24524695
5	0x3dc488ac	0.095963806
6	0x3f5e61ed	0.8686817
7	0xbd8b8fa0	-0.06814504
8	0x3e8838e3	0.266059
9	0xbe17eebc	-0.14837164
10	0x3e55f36f	0.20893644
11	0x3d257cc0	0.040402174
12	0xbdf2bbce	-0.11852227
13	0xbbc0be80	-0.0058820844
14	0x3dd99c67	0.106255345
15	0xbe53cb34	-0.20682985
16	0x3e1b3791	0.15157916
17	0xbd33e814	-0.0439225
18	0x3ef64087	0.48096105
19	0x3e74c9e9	0.23905148
20	0xbc80c37a	-0.01571821
21	0xbe86d2c9	-0.2633269
22	0x3f1469a6	0.57973707
23	0x3d9af31c	0.07565901
24	0x3e89ae9d	0.26891032
25	0xbe11ece4	-0.14250523
26	0xbe80c95d	-0.25153628
27	0xbe3a58d6	-0.1819795
28	0xbe8ab71c	-0.27092826
29	0xbe53e2d1	-0.20691992
30	0x3d942bbf	0.072349064
31	0x3e104048	0.14087021
32	0x3cb0438f	0.02151659
33	0x3d891100	0.066926956
34	0xbe805cdc	-0.25070846
35	0xbdf06efc	-0.117399186
36	0xbe621aa8	-0.22080481
37	0xbe8416d1	-0.25798658
38	0xbd34f951	-0.04418308
39	0xbe7c3074	-0.24627858
40	0xbda0ec74	-0.078576
41	0x3e904d00	0.28183746
42	0xbddc27a5	-0.10749749
43	0xbe709995	-0.23496087
44	0x3e4d24aa	0.20033517
45	0x3d405bcd	0.046962548
46	0xbe2c352c	-0.16817158
47	0x3cffc162	0.031220142
48	0x3e943e8d	0.28953972
49	0x3eeb2bb2	0.45931774
50	0xbdc566f0	-0.096387744
51	0x3e57751f	0.21040772
52	0xbdaaea25	-0.08345441
53	0x3dbc09a0	0.09181523
54	0x3dbf2b82	0.0933447
55	0xbd1deec4	-0.038557783
56	0x3eda2de9	0.42613152
57	0x3f02d9cc	0.5111358
58	0xbd9e5fda	-0.07733126
59	0xbda4f0ce	-0.08053742
60	0xbc8c37e9	-0.017116504
61	0x3d9eb4d0	0.07749331
62	0xbe6d77a1	-0.23190166
63	0x3ec93a51	0.39302304
64	0x3ea35d46	0.319071
65	0x3ea0968f	0.31364867
66	0x3d345137	0.044022765
67	0x3d9ec4a5	0.07752351
68	0x3d65ee25	0.056135315
69	0xbe744e1f	-0.23857926
70	0x3d9fef8a	0.0780936
71	0xbe7982fa	-0.2436637
72	0x3eaaddc4	0.3337232
73	0x3eaac8b7	0.33356258
74	0x3e369c7b	0.1783313
75	0xbc04187e	-0.00806248
76	0xbb437e35	-0.0029829864
77	0xbdce05a5	-0.1005967
78	0xbe845ab3	-0.25850448
79	0x3d8783ae	0.06616913
80	0x3f534301	0.82524115
81	0x3e9af40f	0.30264327
82	0x3f0e1377	0.5549845
83	0xbf00e3a6	-0.50347364
84	0xbe84010c	-0.2578205
85	0xbcaa58d0	-0.020794302
86	0xbec8b45a	-0.39200097
87	0x3e04ce17	0.12969242
88	0x3e1fa696	0.15590891
89	0xbea632d5	-0.32460657
90	0x3cc20744	0.023685105
91	0x3dc57cdd	0.096429564
92	0x3edc5631	0.4303451
93	0xbdc5a1cc	-0.09650001
94	0x3dd4a0cf	0.10382234
95	0xbfb78393	-1.4337028
96	0x3eb1c064	0.34717095
97	0x3f2d1b29	0.6761957
98	0x3f00cf02	0.5031587
99	0x3f1e2ab2	0.617839
100	0xbe289a39	-0.16465081
101	0x3e37f722	0.17965367
102	0x3edd9405	0.43276992
103	0xbe58f38e	-0.21186659
104	0x3ed4b8c1	0.41547206
105	0x3ebca2ca	0.36842948
106	0x3d61dc4b	0.05514173
107	0xbdf7c7b3	-0.120986365
108	0x3e9f9132	0.31165463
109	0xbe6e90f8	-0.23297489
110	0xbe0b860f	-0.13625358
111	0x3f1411b2	0.578395
112	0xbefbba98	-0.49165797
113	0xbe51f170	-0.20502257
114	0xbd925a03	-0.071460746
115	0x3ed690a7	0.41907236
116	0xbdb222b8	-0.08698028
117	0xbd4cd6df	-0.050009605
118	0x3f0d7f5d	0.55272466
119	0xbdc579df	-0.09642386
120	0xbd45c8e9	-0.048287306
121	0x3e7b756e	0.24556515
122	0xbe2537e8	-0.16134608
123	0x3da530f1	0.080659755
124	0xbe7cce35	-0.24688037
125	0xbdeed933	-0.11662521
126	0xbdd9363d	-0.10606048
127	0x3f4bfc4e	0.7968186

deconv2.bias f4 [4]
0	0xbdc2fe3d	-0.09521148
1	0xbe881bc2	-0.26583678
2	0xbe41d07a	-0.18927184
3	0xbcf4f929	-0.029903965

deconv3.weight f4 [4, 1, 2, 2]
0	0xbf047730	-0.51744366
1	0xbcce659d	-0.025194937
2	0xbeadd239	-0.3394945
3	0x3e1803fc	0.1484527
4	0xbdde241d	-0.10846732
5	0xbec32b3b	-0.3811892
6	0xbe568d69	-0.20952381
7	0xbef4a8c5	-0.4778501
8	0xbe58cdc7	-0.21172248
9	0xbf2334ec	-0.6375263
10	0xbeba6b90	-0.3641019
11	0xbf48935d	-0.7834986
12	0xbde14531	-0.10999525
13	0xbef5cf79	-0.48009852
14	0xbe79195d	-0.24326082
15	0xbf1b585d	-0.60681707
