Pytorch/AutoEncoder/saved_models/Chan_cifar10.pt (torch, 341295 bytes, 15 tensors)

conv1.weight f4 [32, 1, 3, 3]
000000 a3 fc 90 3e 94 d9 9b bd 6e 44 02 3e 80 07 73 3c
       0.28317747 -0.07609859 0.12721416 0.014833331
000010 5b a8 9f 3e ac 77 98 bd b8 58 71 bd c4 84 bd 3d
       0.31183133 -0.074447006 -0.0589225 0.09253839
000020 d0 87 6e be 1c c0 b9 3d 05 f9 93 3e c6 05 5c be
       -0.23293996 0.09069845 0.28900924 -0.21486577
000030 e3 2d 24 be 2c 5e 81 3d 48 92 44 be ca 5c 50 3e
       -0.1603313 0.0631679 -0.19196427 0.20347896
000040 e0 72 80 3d 68 e6 32 3d 13 f2 6d be c4 00 e5 3d
       0.06271911 0.043676764 -0.23236875 0.11181787
000050 82 c7 32 3e 20 d8 48 bc f1 fa a7 3e 25 85 9d 3e
       0.17458919 -0.012258559 0.3280864 0.30765644
000060 56 56 5d 3e 92 a7 72 3e bd f0 a0 3e ae a1 79 3e
       0.21614966 0.23696736 0.3143367 0.24378082
000070 e0 38 3e 3d d0 d4 95 bc 5e e7 a0 be 90 61 76 be
       0.04644096 -0.018289953 -0.3142652 -0.24060655
000080 80 10 2a be 9c ea 8e be b9 61 a6 3e 9c f7 a4 3d
       -0.16607857 -0.27913368 0.3249643 0.0805504
000090 cf ff 81 be 35 5b 82 3e 06 fa 76 be 39 fd 8e 3e
       -0.2539048 0.2546021 -0.24118814 0.2792757
0000a0 eb b3 4a be b6 c6 8f be 4e 0d 56 be da 46 4f 3e
       -0.19795196 -0.28081292 -0.20903513 0.20241871
0000b0 84 c9 d2 3d 1c 70 a3 be 20 13 0b 3c 76 81 0a be
       0.10292342 -0.3192147 0.0084884465 -0.13525948
0000c0 4b d0 a0 3e 68 1e 88 be 9a 2e 29 3e d0 ae a0 3c
       0.31408915 -0.26585698 0.16521683 0.019614607
0000d0 11 c9 89 3e 68 e9 77 be ab 85 14 be 00 99 ec bb
       0.26911214 -0.24210131 -0.14504115 -0.0072203875
0000e0 63 10 8b 3e 98 bc 6b 3d 86 d5 cf bd 40 04 8f 3c
       0.2716094 0.057552904 -0.10148148 0.017458081
0000f0 f7 39 81 3e d8 95 06 3d 10 73 ab 3c 58 ce 26 3d
       0.25239536 0.032857746 0.02092889 0.04072413
000100 f8 d4 5d be da 9d 9c be 40 1f 8b bc e6 a9 d8 bd
       -0.21663272 -0.3058918 -0.016982675 -0.105792806
000110 5a 93 56 3e 24 f0 d1 3d 60 54 4e 3c e4 19 9e bd
       0.20954648 0.10250881 0.012593359 -0.07719782
000120 80 9a ec bc 00 50 ff b8 00 3c d3 ba f6 0a 38 be
       -0.028882265 -0.00012174249 -0.0016115904 -0.17972931
000130 34 da b8 3d 06 33 58 be 16 e5 ae bd d0 48 ae bd
       0.09025994 -0.21113214 -0.085397884 -0.08509982
000140 2c 3d a3 bd 0b 99 73 be cc 24 d1 3d 76 7d 11 be
       -0.07970652 -0.2378885 0.102120966 -0.14208016
000150 37 69 a6 be d8 b7 73 bd 00 b0 bc b8 ab c8 30 be
       -0.32502148 -0.0595015 -8.997321e-05 -0.17264049
000160 d4 6f e3 3d 94 28 f8 3d da a2 64 3e 78 71 3a 3d
       0.11105314 0.12117115 0.22327748 0.04551837
000170 ac 8e 91 be 6e 36 69 3e 9e a5 86 be 6a 4a 39 3e
       -0.28429163 0.2277467 -0.2629823 0.18094793
000180 25 b5 87 3e 18 d2 6f be fc c1 e6 bd be d4 40 be
       0.2650539 -0.23419988 -0.11267468 -0.18831155
000190 cc ab 87 bd 08 ba 89 be 50 21 ff 3c 23 cb 55 be
       -0.066245645 -0.26899743 0.031143814 -0.20878272
0001a0 60 04 03 bd 22 00 33 3e 74 1e 94 bd 58 b2 22 3e
       -0.031986594 0.1748052 -0.07232371 0.15888345
0001b0 a0 f3 f8 bd b8 98 16 3d 4e 60 54 3e 25 e8 90 3e
       -0.12155843 0.036766738 0.20739862 0.28302112
0001c0 ce 83 35 be 9b 4d 89 3e 9e f1 44 be f6 77 49 3e
       -0.17726061 0.2681702 -0.19232795 0.19674668
0001d0 26 71 81 be ad da a1 3e 2b 2d 97 be ee 39 35 be
       -0.25281638 0.3161215 -0.29526648 -0.1769788
0001e0 20 0d 69 3c e0 02 4b 3c f8 ed 0e 3e a0 e6 d6 bd
       0.014224321 0.012390822 0.13957965 -0.10493207
0001f0 a0 a2 4d be c0 24 d5 bc 6a 96 8e be 7f 7f 91 3e
       -0.20081568 -0.0260185 -0.27849132 0.28417584
000200 38 63 27 3e 3e ba 36 be cf cd 90 be 80 5e 28 bc
       0.16346443 -0.17844483 -0.2828202 -0.010276437
000210 c0 79 83 bb 34 1b 81 3d 13 7a 23 be 9a 04 06 3e
       -0.0040123165 0.06304017 -0.15964536 0.13087693
000220 23 44 59 be a8 bd 8d be 50 f0 d1 3c 90 2b 65 be
       -0.21217398 -0.2768376 0.025627285 -0.22379899
000230 20 52 f6 3d 62 0c 6b 3e 3b 18 98 3e 28 2b 2e 3d
       0.12027383 0.22953942 0.29705986 0.042521626
000240 27 4f 8b be b6 82 f9 bd 06 ac c9 bd f6 2d 25 3e
       -0.27208826 -0.12183134 -0.09847264 0.16130814
000250 d8 92 00 3d f3 90 54 be e3 40 8f 3e 36 81 1e be
       0.03139004 -0.20758419 0.27979192 -0.15478978
000260 00 5b 3c 3c e4 40 80 bd 88 31 2b be 46 14 6d 3e
       0.0114963055 -0.06262377 -0.16718113 0.23152265
000270 a8 48 59 be d2 16 6a 3e 9d 8a 9c 3e 33 ad 1d be
       -0.21219122 0.22860268 0.30574504 -0.15398102
000280 16 76 16 be e2 70 2b 3e b8 be 47 be 10 5d 0b 3e
       -0.14693484 0.1674228 -0.19506347 0.1360972
000290 50 d2 a1 be a9 0b 94 3e a1 2d 96 3e 63 8b 1b be
       -0.31605768 0.28915146 0.29331687 -0.1518989
0002a0 20 e7 41 3d 8a d0 32 3e c0 e7 9e 3d e1 17 9e 3e
       0.04733956 0.17462364 0.077590466 0.30877593
0002b0 20 a8 39 3c 88 8c 37 3d 06 c4 9b be 00 06 04 3b
       0.011331588 0.044811755 -0.30422992 0.0020145178
0002c0 3b d1 99 be ea c4 78 3e e6 03 9f be 2c 3b df 3d
       -0.30042443 0.24293867 -0.31057662 0.10899958
0002d0 a6 de 40 be 1b c3 6f be 29 c7 8b 3e e6 d9 79 be
       -0.18834934 -0.2341427 0.27300385 -0.24399528
0002e0 da 81 52 3e 92 48 35 3e 78 1e 3a bd a8 20 6e bd
       0.20557347 0.17703465 -0.045439214 -0.058136612
0002f0 95 48 a1 3e 6f 0f 91 3e 3b 47 2f be f1 d3 9c 3e
       0.31500688 0.28332087 -0.17117016 0.30630448
000300 1c d2 a3 bd fe 8e 78 be 97 8f 8d 3e 16 0e 20 be
       -0.079990596 -0.24273297 0.27648613 -0.15630373
000310 0c af 9b bd b0 ca a6 bc e3 88 57 be 68 cc 1c be
       -0.07601747 -0.02036032 -0.21048312 -0.1531235
000320 f5 9d a4 3e 22 61 71 3e cb ef 15 be ce 03 2d be
       0.32151762 0.2357221 -0.14642255 -0.16895983
000330 b4 ee 9a bd ca d1 59 3e f2 be 6b 3e 58 8a 92 be
       -0.0756506 0.21271434 0.23022059 -0.28621173
000340 d2 3f 0e 3e aa e1 3c 3e 72 ba 23 3e 3c 5e 80 bd
       0.13891533 0.18445459 0.15989092 -0.06267974
000350 68 0a 3c 3d 92 e4 33 3e b0 a5 f4 3d bb 5b 79 be
       0.04590836 0.17567661 0.11945665 -0.24351399
000360 51 43 95 3e ee 37 79 3e 3e 51 1f 3e 03 7d 7c be
       0.2915292 0.24337742 0.15558335 -0.24657063
000370 8a 5d 05 3e e3 87 a6 3e 60 cf 46 3c 90 ca ff bd
       0.13023964 0.32525548 0.012134403 -0.124898076
000380 2b 42 5a be 8b 3c 75 be d2 01 a2 be 38 61 0a bd
       -0.21314304 -0.23948877 -0.31642014 -0.03378412
000390 f3 53 76 be 34 f5 98 be 36 0d fd bd d6 19 dd bd
       -0.24055462 -0.29874575 -0.123560354 -0.107959434
0003a0 c1 77 a4 3e 08 9f 6b bd 6e b0 0e be a0 f1 57 bd
       0.32122615 -0.05752471 -0.1393449 -0.052720666
0003b0 e4 e6 c4 3d 0a 30 79 3e f6 d0 24 be d2 c7 74 3e
       0.096143514 0.24334732 -0.16095337 0.2390435
0003c0 a8 2a 6b bd 48 74 5f be ea ed 2c 3e 4a ce 47 3e
       -0.057413727 -0.21821702 0.16887632 0.19512287
0003d0 36 c1 2b be 80 d9 1c 3e 2c 6b 96 bd 1a da 09 3e
       -0.16772923 0.15317345 -0.0734466 0.13462105
0003e0 60 b7 a5 3d 22 07 36 3e ec 54 d9 3d 08 44 5c be
       0.08091617 0.17776158 0.10611901 -0.21510327
0003f0 70 06 20 be 36 98 2e 3e 74 5e 9d bd f7 e0 9b be
       -0.15627456 0.17050251 -0.07684031 -0.30445072

conv1.bias f4 [32]
000000 ad a7 9c 3e 4b d2 93 be ab dc 9a 3e 24 cb d5 3d
       0.30596676 -0.28871378 0.3024648 0.104391366
000010 80 45 b9 bc 70 b1 aa 3d 59 a8 83 3e 78 c7 52 3d
       -0.022616148 0.08334625 0.25714377 0.05145976
000020 9c 70 8e 3d 94 b4 9d be d4 d6 c7 3d 0d 81 83 3e
       0.06955072 -0.30801833 0.09757772 0.25684395
000030 4a 93 54 3e 34 5f ea 3d c0 b0 d0 bc 24 f8 af 3d
       0.20759311 0.1144394 -0.025474906 0.08592251
000040 0b 54 27 be 1b c1 13 be 4f 58 8d 3e 91 a7 a1 3e
       -0.16340654 -0.14429133 0.27606437 0.31573156
000050 84 dc 87 be 63 57 a9 be d6 4e 7f be 2a d2 73 3e
       -0.26535428 -0.33074483 -0.24932417 0.2381064
000060 cb 35 46 be 97 11 a4 be a0 fe 1b be c0 7c 53 3d
       -0.19356458 -0.3204467 -0.1523385 0.051632643
000070 d0 58 cd bc d0 8a 85 3d 94 24 97 3d 0c 9b 84 3d
       -0.025066763 0.06520617 0.073800236 0.06474885

conv2.weight f4 [64, 32, 3, 3]
000000 f3 4a 71 3d fe 8c ea 3c ce 7e e2 3c 91 f2 3b 3d
       0.058909368 0.028631683 0.027648356 0.045885626
000010 8b 1f 19 3d 97 2f 66 3d bd 6c 30 3d 36 db 15 bd
       0.037383597 0.05619773 0.04307245 -0.03658601
000020 14 e8 22 bd 13 6c 2c 3d 54 d9 3a bc 21 49 52 bd
       -0.03977211 0.042095255 -0.011404354 -0.051339272
000030 f0 99 70 bb dd 1a 6a bd d6 74 9f bc fb f2 44 3d
       -0.0036712848 -0.057154525 -0.019464891 0.048083287
000040 74 d5 34 bc 00 49 6b bb d6 00 33 bd 48 3e c6 bb
       -0.011037219 -0.0035901666 -0.04370197 -0.006049905
000050 20 fc 4b bd c0 06 5b bb 10 ab 31 bd 3d 35 50 bd
       -0.049800992 -0.0033420771 -0.04337603 -0.050832022
000060 2a 4d ca bc e8 e7 52 bc d4 71 1d bc 8e 11 5c bd
       -0.024694998 -0.012872674 -0.009609658 -0.05372768
000070 70 56 7b bc 0a d7 15 bd 8c 43 3d 3c ce 37 5f bd
       -0.0153404325 -0.03658203 0.011551749 -0.05449658
000080 93 eb 4d 3d 55 7b 5e 3d d5 02 38 3d 27 81 0b 3d
       0.05027349 0.054316837 0.044924576 0.034058716
000090 76 7c 14 bd cf 88 55 3d c8 7f bc 3b 1a 0b ae 3c
       -0.036251508 0.052132424 0.0057525374 0.021245528
0000a0 b5 a8 21 3d 67 01 ee bc 5c cf 24 3c ac b6 1e bd
       0.039467532 -0.029053403 0.010059204 -0.03874843
0000b0 4d 8d 3c 3d 77 82 4a 3d 36 b6 49 bd c1 1e 4a bd
       0.046033192 0.049440827 -0.049246036 -0.049345735
0000c0 0d 0e 04 3d e9 30 ed bc 2d 95 13 3d 72 34 c2 bc
       0.032239962 -0.028953986 0.036030937 -0.023706648
0000d0 75 44 27 3d ba 26 82 bc 48 37 c2 bb e1 e9 fb bc
       0.04083677 -0.015887607 -0.005927 -0.03075117
0000e0 fc 8b 27 bc 44 65 f4 bc ba da 8a bc a0 28 fe 3a
       -0.010226246 -0.029833443 -0.01695 0.0019390769
0000f0 60 f9 7c bc af d2 2c 3d b1 81 3c 3d 20 84 57 bd
       -0.015440315 0.04219311 0.04602212 -0.05261624
000100 78 d6 c9 bb 20 0a d2 bc 36 ae 31 bd 80 9a 8c bb
       -0.0061596 -0.025639594 -0.04337903 -0.004290879
000110 e4 77 1d 3c 4a fd c8 bc b4 e0 4e bc de 5f 8a 3c
       0.009611104 -0.02453484 -0.012626816 0.016891416
000120 a5 d5 59 3d 1d bd 26 bd 2a d3 a7 3c 1b 18 2a 3d
       0.053182263 -0.040707696 0.020486433 0.041526895
000130 69 dc 53 3d 58 8e 25 bd 7f d2 07 3d 12 5c fa 3c
       0.05172387 -0.040418953 0.03315973 0.03056148
000140 b8 e1 f7 3b ed 4e 28 bd be e0 a8 bc cd 41 63 3d
       0.0075647496 -0.041090894 -0.020614978 0.055482674
000150 8c 36 3c 3c d1 ae 6b 3d ee 0f 9f 3c 32 a2 32 bd
       0.011487614 0.057539765 0.019416776 -0.043611713
000160 59 60 6b 3d d8 cd 2d bc f0 83 38 3b 01 8b 37 3d
       0.05746493 -0.010608159 0.0028154813 0.0448103
000170 04 4a 03 3c 37 72 69 3d 49 41 ea bc b6 af ee 3c
       0.008013252 0.05699369 -0.028595584 0.02913652
000180 e4 df 55 bd 6a 1b 9f bc 76 b8 b8 bc 32 f2 6e bd
       -0.052215472 -0.019422252 -0.022548895 -0.058336444
000190 e8 87 e1 bb 09 f2 53 3d fc 23 b3 bc e4 80 08 3c
       -0.0068826564 0.051744495 -0.021867745 0.008331511
0001a0 2e d6 9d 3c c2 a0 a0 3c f8 26 e2 3b b7 e3 59 bd
       0.019267168 0.019607905 0.006901618 -0.05319568
0001b0 f9 c6 2f 3d 9c cb 7e 3c 3a e7 90 3c 4d c8 48 3d
       0.042914364 0.015551474 0.017688382 0.049019147
0001c0 ce e6 b9 bc a2 85 a6 3c 70 5e 39 3b 06 00 6a bd
       -0.022693064 0.020327393 0.002828505 -0.05712893
0001d0 be 6f b8 bc 91 1d 54 bd 74 da a9 bc e8 f5 b2 3b
       -0.02251422 -0.05178601 -0.02073405 0.005461443
0001e0 42 73 38 bd c8 db ba 3b 95 9e e5 bc 60 74 49 bd
       -0.045031793 0.0057024695 -0.02802972 -0.04918325
0001f0 68 a5 a1 bc 8f 12 65 3d 8d 78 02 3d 30 e1 d8 bc
       -0.019732192 0.055925902 0.031853247 -0.026474565
000200 8d 37 3b 3d 4b fb 5f 3d 74 1b 0d 3c 71 91 6c bd
       0.045707274 0.05468301 0.008612502 -0.05775589
000210 26 6e fc bc d3 a2 70 3d af 1e 01 3d 85 19 38 3d
       -0.030814242 0.05874903 0.031523403 0.044946212
000220 e4 2e 25 3c 8d f0 69 3d d2 33 3e bd bb 59 6d 3d
       0.01008198 0.057114173 -0.04643614 0.0579469
000230 00 cc 2f ba 56 7e 51 bd 38 e6 0a bc 71 1c 34 3d
       -0.00067061186 -0.051145874 -0.00847774 0.043972436
000240 95 91 37 3d c9 7f 65 3d e0 e7 1e 3b 9d 02 69 3d
       0.044816572 0.05603007 0.0024247095 0.056887258
000250 da c0 af bc a0 fa cc bb 54 3e 17 3c 58 c3 cb bc
       -0.021454263 -0.0062554628 0.009231169 -0.02487342
000260 aa 0c ad 3c bc 20 35 bd 89 2d 0d 3d 90 0b 9b bb
       0.021124203 -0.04422067 0.034467254 -0.004731603
000270 e8 d0 97 3b cb f4 6d bd b1 b3 6e bd fa e8 b3 bc
       0.004633058 -0.05809478 -0.058276836 -0.021961678
000280 80 8b 2e 3b db 95 39 3d 3e 05 48 bd d4 c4 4b bd
       0.0026633441 0.04530893 -0.048833124 -0.049748257
000290 c0 31 c4 bc 7c 50 23 bc 08 e0 25 bc c8 21 05 bd
       -0.023949504 -0.009967919 -0.010124214 -0.03250292
0002a0 57 69 14 3d 7a b0 01 bd 3e c4 5a bd 5c a3 56 3c
       0.036233272 -0.03166244 -0.053409807 0.013100471
0002b0 5a e4 db 3c 08 fd 28 bd 51 4f 51 3d 9b ca 6a 3d
       0.026842285 -0.041256934 0.051101033 0.057322126
0002c0 40 f0 66 ba 8c cd 66 3c d2 d5 62 bd 3f a7 27 bd
       -0.0008809604 0.014087092 -0.055379696 -0.040930983
0002d0 10 5f 8b bc 3e 8c 8e 3c 42 4b 2e bd 92 25 54 bd
       -0.017013103 0.017400857 -0.04255224 -0.051793642
0002e0 9d be 1b bd 1a b8 b2 3c e0 6f a5 3a ac 23 a5 bc
       -0.03802358 0.021816302 0.0012621842 -0.020158611
0002f0 6c d1 70 3c a0 2d e6 3a 78 8f 04 bc bc f8 c2 bc
       0.014698368 0.0017561205 -0.008090846 -0.023800246
000300 28 c0 18 bc ae 8b 50 bd 57 1d 06 3d 14 dd 7c 3c
       -0.009323157 -0.05091446 0.032742824 0.0154335685
000310 f8 3f ba 3b 20 2f 3e bb c0 c4 d1 ba f8 4a 7f bc
       0.005683895 -0.0029019788 -0.0016004071 -0.015581839
000320 04 7f 5c bc 48 3c 86 bc a0 a5 1e bc 9c 57 1d 3c
       -0.013458017 -0.016386166 -0.009683043 0.009603407
000330 9f 5a 47 3d 7d 17 53 bd 91 73 04 3d e8 c7 96 3b
       0.048670407 -0.051536072 0.032336775 0.0046014674
000340 20 7d a5 ba 46 68 88 bc 9a e7 c4 3c ec c6 74 bc
       -0.0012625791 -0.016651284 0.024036217 -0.014940005
000350 a7 c9 68 3d 0c ba 40 3c e7 df 16 3d ba a8 fe bc
       0.056832936 0.011763107 0.036834624 -0.031086314
000360 4e 22 f8 bc c3 81 57 3d 49 e9 f2 bc 5e 65 b5 3c
       -0.030289795 0.052613985 -0.029652255 0.022143062
000370 da 58 ba 3c f0 ba 55 bd 94 7a 74 3c f9 43 0b 3d
       0.022747446 -0.05218023 0.014921803 0.03400037
000380 7e 82 a5 3c 88 33 d0 3b 70 92 66 bd 26 bb 2d bd
       0.020203825 0.0063537993 -0.056291997 -0.042414807
000390 f7 bd 5b 3d ff 38 6c bd 84 2c 11 3c 40 a8 4c bc
       0.05364796 -0.057671543 0.008860711 -0.012491286
0003a0 54 7c 38 3c fc 38 70 bc b7 5b 1f 3d 5f 96 48 3d
       0.011260111 -0.014662024 0.038905825 0.04897153
0003b0 fa d7 c3 bc 2c cb 1d bd 65 36 04 bd bb 7d 0e 3d
       -0.023906697 -0.038523838 -0.032278437 0.034787875
0003c0 44 19 7b 3c f5 a9 4a 3d 5f d9 6a 3d 05 1e 38 3d
       0.015325848 0.04947849 0.057336207 0.044950504
0003d0 c5 47 16 3d 00 54 ad b8 b7 a5 57 3d 24 70 11 bc
       0.03668954 -8.264929e-05 0.052648272 -0.008876834
0003e0 a8 0c 91 bb 60 f2 2b bd 37 87 60 bd 54 bc 30 3c
       -0.0044265576 -0.041979194 -0.05481645 0.010787088
0003f0 e4 3d ae bc 37 59 69 3d c9 81 24 3d 6e a9 e0 3c
       -0.021269746 0.056969848 0.040162835 0.02742454

conv2.bias f4 [64]
000000 d5 6d 51 3d fe e7 ae 3c b7 3c 15 bd 7c 60 4b bc
       0.051130135 0.021350857 -0.036434855 -0.01241314
000010 6e 29 45 bd cb ca 19 bd 5a 26 c8 3c e4 80 ce bc
       -0.048135214 -0.037546914 0.02443235 -0.025207944
000020 77 92 34 3d 7f 06 38 3d dd 49 25 3d 90 c9 89 bb
       0.044084992 0.04492807 0.040353645 -0.0042049363
000030 84 38 2d bc e0 f4 81 bc 84 a9 17 bd 2c b1 18 3c
       -0.010572556 -0.015863836 -0.037026897 0.009319585
000040 87 df 4d bd fd c1 18 bd fa fd a5 3c 50 2a 3d bb
       -0.050262 -0.037294377 0.020262707 -0.0028864332
000050 29 18 54 3d 38 e3 b1 bb 42 af 83 bc ac d0 4d bc
       0.051780853 -0.005428698 -0.01607478 -0.012561958
000060 3c ed 18 3c 92 5c cb 3c ba 47 a8 bc 9b 8e 12 3d
       0.009333905 0.024824414 -0.020542014 0.03578053
000070 ff d5 5c 3d 44 8f 0f bd fd 9f 26 bd ea 6e bb 3c
       0.05391502 -0.035048738 -0.04067992 0.022880036
000080 52 aa e3 3c b5 05 0c 3d c5 c6 54 bd 00 fc 3d 39
       0.027791176 0.03418513 -0.051947374 0.00018118322
000090 04 86 4d bc bc ea 5d 3c c1 bf 4f 3d 40 eb 5f 3a
       -0.012544159 0.013544735 0.05071998 0.000854183
0000a0 7c 32 c9 bc 9c 83 3f bd e4 3d 13 3c 99 05 67 3d
       -0.024560206 -0.04675637 0.008986924 0.056401823
0000b0 00 73 ea 3a 0b c3 0f 3d 8f 95 36 3d 04 af f0 bc
       0.0017887056 0.035098117 0.044576224 -0.029380329
0000c0 04 42 21 3c c7 7e 38 3d bd fe 5d bd 8d 85 6b 3d
       0.0098423995 0.04504278 -0.054198015 0.05750041
0000d0 cc 4c ca bc d2 f7 be 3c 90 b6 7f bb a4 37 b5 bc
       -0.024694823 0.02331153 -0.0039018728 -0.022121258
0000e0 66 29 13 bd a5 21 6d 3d d8 fc 99 3b 0c 34 5c bd
       -0.035928153 0.057893414 0.004699331 -0.053760573
0000f0 33 a3 1a 3d 26 b4 68 bd 18 7f c4 bb 24 97 13 bd
       0.037753295 -0.056812428 -0.005996596 -0.03603281

conv3.weight f4 [64, 64, 3, 3]
000000 44 28 74 3c 2a b2 da 3c 40 a3 ab bb 00 54 b5 3a
       0.014902178 0.026696283 -0.005237967 0.0013834238
000010 c8 f3 9d 3c 12 99 0c bd bc 4c 1c 3c 20 2f eb ba
       0.019281283 -0.034325667 0.009539779 -0.0017943121
000020 e0 71 1e 3c f0 39 54 bc 2a 7f be 3c f2 a2 aa 3c
       0.009670705 -0.0129532665 0.023253996 0.020829652
000030 5e c2 d3 bc 4a e2 16 bd 00 52 1e 3a 48 9e a4 3b
       -0.025849517 -0.0368369 0.00060394406 0.0050237514
000040 0b 93 8a bc 77 32 14 3d 70 22 75 bc e0 79 80 3a
       -0.016915819 0.03618094 -0.014961824 0.0009801947
000050 d2 d6 e0 3c 10 3a 3b bc 8a 73 e3 3c 3c f6 7e bc
       0.027446184 -0.011427417 0.027765054 -0.015561637
000060 6e dc ba 3c 71 f9 27 3d b8 31 f6 3b 30 b9 5f bb
       0.022810187 0.04100937 0.007513251 -0.003413748
000070 24 de 27 bc d4 c8 02 bd e5 09 06 3d 04 11 6a 3c
       -0.010245834 -0.031929806 0.03272428 0.014286283
000080 81 14 03 3d 78 04 b5 3b c0 9d 37 3a 3f b3 11 bd
       0.032001976 0.0055242144 0.00070044026 -0.035571333
000090 26 ad bd 3c 44 99 23 3c 3e 1c c7 bc 16 65 93 bc
       0.023153853 0.009985272 -0.02430546 -0.017992537
0000a0 c2 57 a0 3c 7d ec 01 3d 10 67 39 bb ac 94 5d bc
       0.019573096 0.031719673 -0.002829019 -0.013524216
0000b0 e2 97 dc 3c 52 ab ed 3c ea 85 fa 3c c0 b2 4a ba
       0.026927892 0.029012356 0.030581433 -0.00077323243
0000c0 2e fe 8a 3c 18 d7 9e 3c bc 7d 5a 3c 20 26 af ba
       0.016966905 0.019389674 0.0133356415 -0.0013362803
0000d0 c0 fc a9 bc c0 2e 21 bb 7f 2c 00 3d f4 69 76 3c
       -0.020750403 -0.0024594516 0.031292435 0.01503991
0000e0 16 90 ba bc b0 ef 3b bc 0c 42 23 bc b6 6a f5 bc
       -0.022773784 -0.01147072 -0.009964477 -0.02995811
0000f0 f0 ba 17 3c 00 5f 3a 3b b8 28 8d 3c fb 5f 93 bc
       0.009260878 0.0028437972 0.01723133 -0.017990103
000100 0e 06 27 bd f0 91 10 bb 50 1d 92 3c 41 4b 10 3d
       -0.04077726 -0.0022059642 0.017836243 0.035228018
000110 d2 5f de 3c 08 1e 9c 3b b6 69 11 bd 6e 18 97 bc
       0.0271453 0.004764322 -0.035501204 -0.018444266
000120 a3 dd b2 bc c8 09 f7 3b b9 3e 09 3d 85 9c 26 3d
       -0.0218342 0.007539008 0.033507083 0.040676612
000130 8b 5e db bc 06 42 34 bc 55 10 0f 3d 40 7b 73 3c
       -0.02677848 -0.011002069 0.034927685 0.014860928
000140 64 4c 1b bd 80 00 f0 bc e2 7a c1 3c 50 3c 75 3c
       -0.03791465 -0.029297113 0.023618165 0.014967993
000150 30 1b 73 3b 80 1e 55 3c 40 2a 45 bc 49 1c 01 3d
       0.0037095062 0.01300776 -0.012033999 0.031521115
000160 28 b3 94 bb d6 c1 19 bd 2d 46 25 3d 76 1f b3 3c
       -0.0045379587 -0.037538372 0.040350128 0.021865588
000170 40 62 35 bb 66 f6 d9 bc 4b 36 26 bd e0 2c 93 ba
       -0.002767697 -0.02660675 -0.04057912 -0.0011228584
000180 22 42 e6 3c 85 23 1a 3d 3c 7e 17 bc 18 5e a7 bc
       0.028107706 0.03763153 -0.009246405 -0.02043061
000190 e7 75 08 bd d8 b5 bf bc 1c 61 2b 3c 70 fe 5f 3b
       -0.033315565 -0.02340214 0.010460164 0.0034178756
0001a0 db 62 27 bd fe fc c2 bc 80 01 8a 3b 38 c8 b6 bb
       -0.04086576 -0.023802277 0.0042116046 -0.005578067
0001b0 e0 32 d8 bb c1 ed 25 3d a8 84 90 3c 80 9f 88 bc
       -0.0065978616 0.040509943 0.01764138 -0.016677618
0001c0 32 0c de 3c 86 e8 cb bc 30 ed e4 bc e4 1e 02 bd
       0.027105425 -0.02489115 -0.027945131 -0.03176774
0001d0 80 78 90 39 df ab 1d bd 12 f2 c4 3c 6b 74 dc bc
       0.000275556 -0.038493987 0.02404121 -0.026910981
0001e0 b1 d1 17 3d ba a5 a3 3c 32 da 17 bd 3d ce 17 3d
       0.03706521 0.019976486 -0.03707332 0.03706192
0001f0 e8 f6 e6 3b f0 22 47 bc 50 20 7a bc 20 f4 2f bc
       0.0070484765 -0.012154326 -0.015266493 -0.010739356
000200 a0 62 cb 3a 96 f8 22 bd c0 37 20 bb f4 75 25 bd
       0.0015517063 -0.03978785 -0.0024447292 -0.040395692
000210 40 09 de bb 50 eb 82 3c 60 c2 bf bc ca 32 dd 3c
       -0.006776005 0.015981346 -0.023408115 0.027001757
000220 40 20 56 ba 06 f2 fa bc d8 6c a1 3b 4c 6c 45 bc
       -0.0008168258 -0.030632984 0.0049263053 -0.012049746
000230 90 59 43 bc 89 66 26 3d 62 42 24 bd 50 a4 58 3c
       -0.011923209 0.04062513 -0.04010237 0.013222769
000240 87 88 1b bd 00 c9 be bc 58 a6 d5 bc db d9 9f bc
       -0.037972 -0.023289204 -0.026080295 -0.019513061
000250 70 08 1a bc 4a c0 d4 3c 08 cd d6 3b 8b 70 88 bc
       -0.009401426 0.025970597 0.0065552033 -0.016655227
000260 70 e2 2c 3c f8 d0 c6 3b f0 0d 22 bc 82 5e f7 3c
       0.010552034 0.0060673915 -0.009891018 0.030196432
000270 00 2e ef 38 14 5d 2e 3c 6c cf 32 bc 40 96 5e bc
       0.00011404976 0.010642309 -0.010913711 -0.013585627
000280 36 dd 61 bc 16 dd de bc a0 99 c3 bb 92 5d 8b 3c
       -0.013785651 -0.027205031 -0.0059692413 0.017012391
000290 40 9a 5f 3a 3c d1 2c bc e0 08 bd bc 67 ef 13 bd
       0.000852976 -0.010547932 -0.023075521 -0.036116984
0002a0 a0 0e c7 bc 6e b1 ce 3c a0 a1 86 bb c0 f8 f0 bc
       -0.024298966 0.02523109 -0.0041086227 -0.029415488
0002b0 41 4a 17 3d 3b b0 00 bd 96 df 13 bd 16 b4 b9 bc
       0.03693605 -0.031418066 -0.0361019 -0.02266888
0002c0 15 3e 05 3d 7e bf 1a bd 8a 51 89 3c 48 a6 c9 bb
       0.03252991 -0.037780277 0.016762514 -0.0061538555
0002d0 53 1a f2 bc 68 6c 8c 3b 94 8f 02 3c e0 56 d4 3b
       -0.029553568 0.004285384 0.007968802 0.006480083
0002e0 8e 5d fb bc 86 4d da 3c a0 3b 95 bc 66 69 cf bc
       -0.030684259 0.026648294 -0.018216908 -0.025318813
0002f0 b2 30 99 3c 5e 40 a7 3c 73 82 29 3d 50 3f 38 3b
       0.018699978 0.020416435 0.04138417 0.002811391
000300 94 8c 67 3c ba bd 15 bd 88 dd d4 bc 60 b9 66 3c
       0.0141326375 -0.03655789 -0.02598454 0.014082283
000310 d0 1d 59 bc d8 8e b8 3b 1e c7 ea bc 78 25 d8 bb
       -0.013251737 0.0056322627 -0.0286594 -0.0065962635
000320 70 9e e0 bc ed 7e 17 3d 1b 43 11 3d 7d 08 17 3d
       -0.027419299 0.03698628 0.035464387 0.03687333
000330 28 ea ad 3b ae 3a 81 bc 6a 89 b9 3c f0 da 69 3b
       0.0053074546 -0.015775051 0.022648532 0.0035683475
000340 50 4d 73 bc 72 4f cb 3c c8 12 84 3b 30 1b 78 3c
       -0.014849976 0.024818156 0.004030559 0.015143201
000350 e6 24 4d bc 60 19 25 bd f0 90 63 bb 36 ed f8 bc
       -0.012521004 -0.040307403 -0.003472384 -0.030386548
000360 03 f4 ff bc 00 b6 51 3c d8 91 1a bd 8a b7 c8 3c
       -0.031244284 0.01279974 -0.037736744 0.02450158
000370 bc 14 65 bc e8 48 81 bb f2 74 be 3c 7f db 1f bd
       -0.013981994 -0.0039454587 0.023249123 -0.039027687
000380 28 f3 c6 bc 5c 4e 09 bd 0b b1 1f 3d 49 be 1f 3d
       -0.024285868 -0.033521995 0.0389872 0.03899983
000390 76 39 06 bd ad bd 1b 3d 80 73 8d 3a 24 0d 27 bc
       -0.032769643 0.038022686 0.0010791868 -0.010196004
0003a0 8e 04 8a bc 72 84 e0 3c 2c 42 00 3c d0 76 47 3c
       -0.016847875 0.027406905 0.007828277 0.012174323
0003b0 c0 c0 1d bb 39 07 01 3d 4c c7 05 3c f1 83 1d 3d
       -0.0024071187 0.03150103 0.008165192 0.038455907
0003c0 d8 8b a2 bc 80 f7 d8 b9 c0 41 1f bd e6 2f 0f bd
       -0.019842073 -0.00041383132 -0.038881063 -0.03495779
0003d0 ec d8 40 3c 5a 62 e9 3c 72 32 b2 3c 7a c2 e8 3c
       0.011770468 0.02848928 0.02175257 0.028413046
0003e0 76 a5 c4 bc 00 b5 1d 39 b6 46 91 bc 99 de 1f 3d
       -0.02400468 0.00015040115 -0.017733913 0.039030645
0003f0 49 ec 0d 3d 3b 2d 2a 3d 1b b8 d3 bc 20 ed 97 3a
       0.034649167 0.04154704 -0.025844624 0.0011591054

conv3.bias f4 [64]
000000 c0 dd 0e 3c e3 d2 17 bd 03 0f 21 bd b8 dc ed bb
       0.0087198615 -0.03706635 -0.039320957 -0.0072589777
000010 1b 29 16 3d 20 e3 8b ba 47 0b 01 bd 7f eb 0c bd
       0.036660295 -0.0010672547 -0.031504896 -0.034404274
000020 36 d4 cf 3c 76 e3 ed 3c e8 5e b1 3b e3 b3 07 bd
       0.025369745 0.029039126 0.005412925 -0.033130538
000030 f1 9a 0a 3d e0 b1 7a bc d2 69 93 3c fb 47 1b 3d
       0.03383917 -0.015301198 0.017994795 0.037910443
000040 10 23 2d 3c f6 aa 56 bc 2a 86 ba 3c 95 5b 14 3d
       0.010567442 -0.013102284 0.022769053 0.036220152
000050 22 d7 bb 3c 2f 17 14 3d 02 ef 02 bd 60 de dc 3b
       0.022929732 0.036154922 -0.031966217 0.0067403764
000060 87 e8 17 3d b8 20 9f 3b 95 c7 22 3d 90 fa d7 bc
       0.03708699 0.0048561953 0.039741118 -0.026364595
000070 7c d8 10 bd bc 39 4c 3c 56 36 51 bc 00 72 68 bb
       -0.035362706 0.012464937 -0.012769302 -0.003546834
000080 60 e7 89 bc 76 73 19 bd b8 6c c1 bb eb b1 80 bc
       -0.016833961 -0.037463628 -0.005902853 -0.015709838
000090 b0 e6 8e bc 10 3f 7b 3c b6 db 45 bc c4 f3 0e 3c
       -0.017443985 0.0153348595 -0.012076309 0.00872511
0000a0 da b5 ac 3c e0 95 cd 3b 0b d3 d6 bc df 04 26 3d
       0.021082807 0.00627397 -0.02622368 0.04053199
0000b0 b3 c3 8f bc cb e5 eb bc 1c 26 62 3c 13 e6 1d 3d
       -0.017549371 -0.028796097 0.013803031 0.038549494
0000c0 6c df 1c bd 48 5d ae 3b b6 5c 06 bd 58 2b 88 3b
       -0.03829901 0.0053211786 -0.03280326 0.0041555576
0000d0 06 9f 73 bc 88 96 0d bd d9 4e 07 3d e0 f5 5b bc
       -0.014869457 -0.034567386 0.03303418 -0.01342532
0000e0 10 1f 5d bc 78 91 9b 3c 00 dc e1 bc 8e af cc 3c
       -0.013496175 0.018990263 -0.027570724 0.024986055
0000f0 23 dc 1d bd 00 6d b6 3b 82 7f a1 3c 53 eb 0b bd
       -0.038540017 0.005567193 0.01971412 -0.03415997

fc1.weight f4 [2, 3136]
000000 07 6b 8e 3c 24 b8 bb 3b de 1e 5d bc 22 1a 91 bc
       0.017385019 0.0057287384 -0.013496129 -0.017712656
000010 b0 bc a1 3b d0 95 f9 3a 5c fb 3b 3c 0c a1 23 3c
       0.0049358234 0.001904184 0.011473503 0.009987127
000020 6d 8f 90 bc c2 95 72 3c a0 3a 43 ba d6 fb 68 3c
       -0.017646516 0.014806213 -0.00074473955 0.014220199
000030 5c 7e cc bb 80 3c 39 39 48 45 35 bc e6 14 b0 bb
       -0.006240649 0.00017665513 -0.011063881 -0.005373585
000040 40 f7 f9 bb 95 26 02 bc de 82 6c 3c ab 13 8c bc
       -0.0076283514 -0.007943769 0.014435498 -0.017099222
000050 ac ee 19 3c 3a 7a 84 bc 10 c6 01 3c 41 f6 8c 3c
       0.009395283 -0.016171563 0.007920757 0.017207267
000060 ce 9b 68 3c 4a d0 97 bb e4 32 c5 3b 3e d5 0e 3c
       0.014197303 -0.0046329843 0.0060180295 0.008717833
000070 24 65 cb 3b bc 5e e7 bb 53 0d 8e 3c a8 39 92 bc
       0.0062071253 -0.0070608538 0.017340338 -0.017849758
000080 47 d1 8a bc 41 49 8c 3c 0c 7f 35 bc c0 f6 74 3b
       -0.016945494 0.017124774 -0.011077654 0.003737852
000090 1c b1 8c 3b 2a 9a 5a 3c b8 8f 5f bb a5 e2 8b bc
       0.004293574 0.01334242 -0.0034112763 -0.017075846
0000a0 80 56 a0 ba 5c b6 23 bb 97 02 8f 3c 00 1c 04 b9
       -0.001223281 -0.002498052 0.01745729 -0.00012598932
0000b0 a6 d2 32 3c b1 a7 8e 3c 26 3d 33 3c d2 cf b8 bb
       0.01091448 0.017413946 0.010939872 -0.0056400085
0000c0 cd da 8b bc eb b1 85 bc 53 c5 36 bc 38 52 19 3c
       -0.017072106 -0.01632019 -0.011155444 0.009357981
0000d0 b8 b4 00 bb e4 4e fd 3b 58 72 0f bb 43 35 81 3c
       -0.0019638967 0.0077303518 -0.0021888223 0.015772467
0000e0 40 b6 87 3b f0 2f 2e 3b 24 19 aa 3b ee b2 8e bc
       0.004141599 0.0026578866 0.0051909853 -0.017419305
0000f0 e4 bd 1c bb 02 5c 79 3c fc 81 ab bb 45 cb 7a bc
       -0.0023916895 0.01521969 -0.005234001 -0.015307252
000100 00 f7 07 ba ec 50 21 bc a6 b5 9f bb 2a d8 4d bc
       -0.0005186647 -0.009845953 -0.004873949 -0.012563745
000110 06 19 7d 3c 73 b1 8b bc 50 43 01 3b 67 b2 82 bc
       0.015447861 -0.017052388 0.001972396 -0.01595421
000120 c5 9c 7a bc 00 c0 30 b6 ba 52 10 bc e3 a3 91 3c
       -0.015296166 -2.6337802e-06 -0.008808786 0.017778343
000130 12 95 68 3c 38 9b 25 3c 30 17 d4 ba c4 62 a7 3b
       0.014195697 0.010107808 -0.0016181227 0.0051082093
000140 1c 4b 61 bc 86 44 70 3c e0 f5 f1 ba 68 a1 5a bc
       -0.013750818 0.014664775 -0.0018460117 -0.013344146
000150 24 e4 21 bb f2 43 ca bb 54 25 cb 3b 14 bc 90 bc
       -0.0024702633 -0.0061726505 0.006199518 -0.017667808
000160 ae d9 14 bc 52 0a 33 3c d8 ed d0 3b 0a 53 25 3c
       -0.009085102 0.0109277535 0.0063760094 0.010090599
000170 55 87 72 bc f9 6a 80 3c 00 e3 9e b8 e8 81 26 3c
       -0.0148027735 0.015676009 -7.576309e-05 0.010162808
000180 de 98 72 bc 4e e0 66 bc 30 ff 33 bc 1a 03 7b 3c
       -0.014806954 -0.014091564 -0.010986134 0.015320564
000190 8a f0 23 bc 60 23 93 3a 9a 13 2b bc 3c ca 13 3c
       -0.010006079 0.0011225753 -0.010441685 0.009020384
0001a0 2c 1d 05 3c 21 2e 87 3c 4c 60 21 3c ef af 84 3c
       0.008124631 0.016501488 0.009849619 0.016197173
0001b0 10 7d f3 3a 5c 59 ae 3b 50 dc f7 ba 72 15 83 bc
       0.00185767 0.005320711 -0.0018910263 -0.016001437
0001c0 6e b5 b7 bb b6 6e 53 3c 94 11 f2 3b a3 4c 68 bc
       -0.005606345 0.0129048135 0.0073873494 -0.014178428
0001d0 66 83 bb bb d4 0d ff 3b bc 74 9c 3b 90 47 c3 3a
       -0.005722451 0.007783631 0.004774658 0.0014898647
0001e0 7c c5 e2 bb ae 90 48 3c dc 2c 45 bb 20 1b 53 ba
       -0.0069205146 0.012241526 -0.0030086553 -0.0008053053
0001f0 78 53 33 3b 9c 2b 32 bb f8 c1 39 bc 56 5e 84 bc
       0.0027362984 -0.0027186638 -0.01133775 -0.016158264
000200 80 b3 70 bb 37 7b 8a bc e0 82 49 3a 8c fe 0c bc
       -0.0036728084 -0.016904457 0.00076870434 -0.008605611
000210 70 4d d0 ba e3 59 2e bc 08 ca d1 3b b5 ad 87 3c
       -0.0015892219 -0.010641548 0.006402258 0.016562322
000220 e8 22 86 bc 84 8e bd 3b 70 2b 3f 3c 48 6b 2a bc
       -0.016374066 0.0057848115 0.011668071 -0.010401554
000230 45 a3 15 bc ac 99 81 bc 9c 32 99 3b 95 d2 2d bc
       -0.009133165 -0.015820347 0.0046752226 -0.010609289
000240 0e ec 42 3c 13 93 51 bc d5 2a 82 bc 68 0e 68 3b
       0.0118971 -0.012791413 -0.015889565 0.0035408977
000250 7c 55 c9 bb b8 f9 ac bb 64 19 f6 3b 80 92 70 39
       -0.0061442237 -0.005278792 0.007510351 0.00022942759
000260 78 2a 4f 3b 6e 9b 01 3c 0c 57 49 bc f0 b9 8d ba
       0.0031611007 0.0079105925 -0.01228882 -0.001081286
000270 de 15 57 bc 88 74 59 bb f8 d0 e7 3b 93 ce 2a bc
       -0.013127772 -0.003318103 0.0070744716 -0.010425228
000280 de 85 3c bc 6c 2a 8b bc b8 d4 b9 bb 1e 35 46 3c
       -0.011506526 -0.016988002 -0.00567111 0.012097625
000290 0e 54 77 3c ea 45 d3 bb f8 42 7d 3b a0 b6 4a 3c
       0.015095724 -0.0064475434 0.0038644653 0.012372643
0002a0 68 da 73 3b 00 27 d4 3b 8c a5 24 bc ca d9 88 bc
       0.0037209038 0.0064743757 -0.010049235 -0.016705412
0002b0 f2 20 85 bb 06 42 53 3c b5 55 56 bc 9e 16 74 bc
       -0.0040627653 0.012894159 -0.013081958 -0.0148979705
0002c0 4a f0 bd bb 00 b4 ed 3a ce e2 7c 3c 30 2b 2e 3b
       -0.005796467 0.0018135309 0.015434934 0.0026576035
0002d0 2a bb 25 3c 7c 4c 36 3c 4a e6 39 3c 60 0b 8e 3b
       0.010115424 0.011126634 0.011346409 0.004334852
0002e0 00 c8 c4 37 f5 02 20 bc 0a 29 46 bc 08 de ee 3b
       2.3458153e-05 -0.00976633 -0.012094745 0.007289652
0002f0 b4 e4 f6 bb 91 61 84 3c bc c6 01 3c a8 4b 58 3b
       -0.0075345878 0.016159805 0.007920917 0.003300408
000300 ca 9f 78 bc 9c 32 ff 3b 28 80 9b 3b 73 e2 6a bc
       -0.015174815 0.0077880155 0.004745502 -0.014336216
000310 f0 37 e9 ba 68 65 39 3b 5e d2 6c bc 00 1a ae ba
       -0.001779316 0.0028289203 -0.014454452 -0.0013282895
000320 9c 61 e5 3b f3 d2 1c bc fe fc 73 3c 4f 45 92 3c
       0.0070001613 -0.009571779 0.014891861 0.017855315
000330 b2 4f 6d 3c e5 de 1b bc f3 e5 28 bc dc 23 8d 3b
       0.014484333 -0.009513591 -0.01030873 0.0043072533
000340 48 31 22 3c e3 8b 7d bc e0 b5 6b ba dc 1c 67 bc
       0.009899445 -0.015475246 -0.000899164 -0.014106002
000350 50 63 dc 3a 60 b0 5a ba 84 4c c3 3b 97 a8 8f 3c
       0.0016814265 -0.0008342322 0.005960049 0.017536445
000360 7a 24 58 bc 25 2c 89 3c c0 0c 43 3c e0 91 b6 ba
       -0.01319229 0.016744683 0.011904895 -0.0013928972
000370 43 3f 7f bc b3 78 25 bc fb a7 83 3c 43 18 18 bc
       -0.015579048 -0.010099578 0.01607131 -0.009283128
000380 f8 dc 25 bc f0 fc fa ba dc 53 9c bb 38 0a 81 bc
       -0.010123484 -0.0019148868 -0.004770739 -0.015751943
000390 5a e9 45 3c 7a 8c 5d bc 66 91 73 3c 48 ec 2a 3b
       0.012079561 -0.013522262 0.014866209 0.0026080776
0003a0 10 b2 d2 3a 48 ed 8d 3b 40 66 43 bc f8 78 0f bb
       0.0016074795 0.0043312646 -0.011926234 -0.0021892171
0003b0 10 18 98 3a 2e 10 22 3c 50 9f eb 3a 7c f3 5b bc
       0.0011603851 0.009891553 0.0017976556 -0.01342475
0003c0 00 5c e7 3b 14 3d b7 3b 3e c5 1f 3c 20 66 fa ba
       0.007060528 0.005591998 0.009751616 -0.0019103922
0003d0 80 05 88 39 00 0f c0 38 43 5d 89 bc 90 b9 a8 3a
       0.0002594404 9.1580674e-05 -0.016768103 0.0012872685
0003e0 08 fb 49 3b 88 68 0e 3b 1e 33 47 bc 63 70 84 bc
       0.0030819792 0.0021729786 -0.012158183 -0.016166871
0003f0 88 4f 61 bc a0 36 c3 3b 02 2f 50 3c e4 b0 8e 3b
       -0.013751872 0.0059574395 0.01270652 0.004354583

fc1.bias f4 [2]
000000 33 37 86 bc 94 b2 82 3b
       -0.016383743 0.0039885733

fc2.weight f4 [3136, 2]
000000 74 43 38 3e 7a 99 b6 3e 35 3d 25 3f 9a 6f b3 3e
       0.17994481 0.35663968 0.6454652 0.35046083
000010 ca 9b db 3e de ad a3 be 22 28 20 bf 34 46 2c 3e
       0.42892295 -0.31968588 -0.6256124 0.16823655
000020 cd 12 0e 3f b2 b0 02 bf 68 0b 95 3e 30 32 3c be
       0.5549744 -0.51050866 0.29110265 -0.1837852
000030 80 0e ad bb 10 35 45 3e 60 e9 96 be c2 65 98 3e
       -0.0052812696 0.19258523 -0.29474926 0.29765135
000040 5a d0 33 bf f8 67 0d bf 56 74 fd 3e 80 db be 3d
       -0.70239794 -0.5523677 0.4950282 0.0931921
000050 00 4f 9d 3d 00 93 a4 3d b8 78 95 bd e0 2a b7 3c
       0.07681084 0.080358505 -0.07298416 0.022359312
000060 96 88 f8 3e 90 7f a9 bd 60 d0 1f 3e aa de ad 3e
       0.48541707 -0.08276284 0.15606833 0.33958942
000070 d3 6d 0b 3f f9 16 0d 3f 60 f5 d4 bc 5b d2 2f bf
       0.54464453 0.5511318 -0.02599591 -0.6868035
000080 01 c6 1e 3f 58 11 b8 3d e4 8a 55 3e f4 78 65 be
       0.6202088 0.08987683 0.20853764 -0.22409421
000090 3a 27 c8 3e 43 4c 1a 3f fe e6 fe be d0 01 93 3d
       0.39092427 0.60272616 -0.49785608 0.0717808
0000a0 80 29 bf bc 04 d5 14 3e c2 87 d5 3e 00 51 98 bd
       -0.023335218 0.14534384 0.41705137 -0.074373245
0000b0 58 c6 91 3e 48 d5 5a be 99 ab 30 bf b1 64 0f bf
       0.28471637 -0.21370423 -0.6901184 -0.5601302
0000c0 de 2d b2 be c6 17 cc 3e 43 c0 cb be f0 ee 8f 3e
       -0.3480062 0.39861888 -0.39795122 0.28111982
0000d0 86 4b 7d be f0 ac 8c 3e 68 d1 81 bd a0 e4 bf 3c
       -0.24735841 0.2747569 -0.06338769 0.023424447
0000e0 17 7a 84 be 80 f6 3c 3e 45 75 1e 3f f2 3a e0 3e
       -0.25874397 0.18453407 0.6189769 0.43794972
0000f0 a3 2b 21 bf 28 eb dd 3d c0 f1 98 3d b7 95 29 3f
       -0.6295721 0.10835868 0.07467985 0.6624407
000100 ee 11 d6 3e f7 e1 33 3f 86 a2 30 bf 10 62 3f 3e
       0.41810554 0.7026667 -0.6899799 0.18689752
000110 82 23 c6 be 72 c0 82 be 7a b2 22 bf c3 7e fa be
       -0.38698965 -0.2553745 -0.63553584 -0.48924837
000120 f1 18 88 be 58 4a 83 be 90 03 45 bd a6 44 75 be
       -0.2658153 -0.25642657 -0.0480991 -0.23951969
000130 ac 12 24 bf 4d cd 92 be 46 84 e7 3e 2d c7 9f be
       -0.6409099 -0.28672257 0.45218104 -0.31206647
000140 54 1f 22 bf 30 6a 6a be 93 2e 0f bf 86 21 f7 3e
       -0.6332905 -0.2289207 -0.5593044 0.48267764
000150 70 af 66 3e 80 0e a3 be 42 1c 81 3e 70 d4 fb bd
       0.22527862 -0.31847 0.25216872 -0.122963786
000160 54 bf 3f be 6e ad fa be 96 81 b0 3e 18 a8 e5 bd
       -0.1872533 -0.4896044 0.34473866 -0.11213702
000170 81 17 24 3f bf 71 2d 3f ff ff 0b 3f c0 85 74 be
       0.64098364 0.6775169 0.54687494 -0.23879147
000180 cc e9 72 3e 1a c6 fe be 52 b1 e6 3e e2 0c bd 3e
       0.23721999 -0.49760514 0.4505716 0.3692389
000190 9d 1d 1b 3f 1b 92 14 3f 60 09 2e 3d 50 6b 94 3d
       0.6059206 0.5803544 0.04248941 0.07247031
0001a0 5c b8 31 be ba 5b de 3e 18 56 ab 3d 14 1a 7c 3e
       -0.17355484 0.43429357 0.083660305 0.24619323
0001b0 c8 01 93 be 08 81 49 3e 80 71 33 bc d7 0f 03 bf
       -0.28712296 0.19678128 -0.0109523535 -0.51196045
0001c0 89 76 b6 be c0 c0 08 3c 2c 1d 1a be 40 3d 68 3c
       -0.3563731 0.008346736 -0.1505019 0.014174759
0001d0 6a 7f b7 3e 68 86 e2 bd 28 0e e7 3d 7a 16 08 bf
       0.35839397 -0.11060792 0.11281997 -0.53159297
0001e0 87 1e 93 be 7b 00 0c bf e0 0c 84 3d 2c 5c 14 bf
       -0.28734228 -0.54688233 0.06447768 -0.57953143
0001f0 be 78 c2 3e b8 52 d6 bd b5 39 80 be 78 9b 9b bd
       0.37982744 -0.10464996 -0.25044027 -0.07598013
000200 a2 fb ee 3e 9c 2f 18 be d1 df 2d 3f 30 19 1f 3e
       0.46676356 -0.14861912 0.6791964 0.15536952
000210 f2 fe d0 3e bd 1a 29 bf 2c e3 47 be 74 08 36 be
       0.40819508 -0.66056424 -0.19520253 -0.17776662
000220 a6 76 19 bf 50 12 fb bd 66 91 e4 3e 0c c6 6d be
       -0.5994667 -0.12259352 0.4464218 -0.2322008
000230 e5 e7 2b bf cb b9 c8 be 2c 78 00 3e 8d 1d 13 bf
       -0.6715072 -0.3920425 0.12545842 -0.57466966
000240 ed 03 8c be 48 3a ff be 7c 96 20 3e 9b 4e 01 3f
       -0.27346745 -0.49849153 0.15682405 0.5051057
000250 90 33 a2 be a4 97 12 be 0c e5 b9 be e1 dd 1f 3f
       -0.31679964 -0.14315659 -0.3630756 0.62447935
000260 02 c4 2e bf be ba b4 3e 0f dc 12 3f 50 a4 b0 bd
       -0.68267834 0.35298723 0.5736703 -0.0862509
000270 a1 49 0b 3f c0 a0 3a be 6d 1b 2d bf ca 54 b2 be
       0.54409224 -0.18225384 -0.67619973 -0.34830314
000280 fa 71 9f 3e 47 5d 30 3f e6 ec ed 3e b4 a0 00 bf
       0.31141645 0.6889233 0.46469802 -0.50245214
000290 a0 c3 8f 3e 7e 14 e9 3e 20 f8 9c be d3 5e cf be
       0.28078938 0.45523447 -0.30658054 -0.40502033
0002a0 cc ad 5f be 7c 4e 7c 3e f1 d7 01 3f b5 1f 0a bf
       -0.21843642 0.24639314 0.50720125 -0.5395463
0002b0 f4 97 bd be 36 21 ae 3e 71 cb 12 3f 7b 0a 2b bf
       -0.37029994 0.34009713 0.57341677 -0.66812867
0002c0 68 30 d5 bd ba dd a3 be 42 d3 c0 be 63 e4 0c 3f
       -0.104096234 -0.320051 -0.37661177 0.5503599
0002d0 e5 42 2c 3f 40 14 59 3e db 6c 12 3f 6b f3 04 bf
       0.6728957 0.21199131 0.5719735 -0.51933926
0002e0 c0 4f 04 bf e0 f1 9a 3d 2a 22 91 3e 46 b2 01 bf
       -0.5168419 0.07565665 0.28346378 -0.5066265
0002f0 d0 d3 bd 3d 82 26 5c be a2 9f ff 3e 16 1a b3 3e
       0.09268916 -0.21499065 0.49926478 0.3498084
000300 eb 59 b2 be 20 cd 29 bd 90 15 1c 3d 9b 88 a4 be
       -0.34834227 -0.041455388 0.0381065 -0.32135472
000310 a8 11 ff 3d 5c dc 13 bf 8e 9c 99 3e 42 62 2d bf
       0.124545395 -0.57758117 0.30002254 -0.67728055
000320 8e b6 20 bf b8 13 f4 3d 20 21 21 be ca 25 f9 3e
       -0.62778556 0.119178236 -0.15735292 0.48661643
000330 98 f2 4d 3e a4 e4 88 3e fa 07 ae 3e 1c a5 2d be
       0.20112073 0.2673694 0.3399046 -0.16957515
000340 6c 5d 36 3e 94 73 55 be 37 57 1b 3f 5c 8c 31 bf
       0.17809075 -0.20844871 0.60679954 -0.69354796
000350 00 1e a5 bc 5c 71 49 be 70 7e 7b bd 40 28 6b 3c
       -0.020155907 -0.1967215 -0.061399877 0.014352858
000360 b4 dc 0a 3e c3 4f 1b bf 40 bb 9f bc 58 7a c8 3d
       0.13560754 -0.6066858 -0.019498467 0.0978896
000370 2a ca ea 3e 8e 24 14 bf 9c c9 7e be d0 1a 0e be
       0.45857364 -0.5786828 -0.24881595 -0.13877416
000380 b0 69 0b 3d 30 3e e8 bd a8 58 c1 be e0 f8 d1 3c
       0.03403634 -0.11339986 -0.37762952 0.025631368
000390 80 a9 86 be b4 f6 e3 be 1b e5 20 3f 3e e9 a4 3e
       -0.26301193 -0.44524157 0.6284959 0.322092
0003a0 cc 01 2e bf 1a 84 67 be 18 a4 20 3e a6 76 d8 3e
       -0.6797149 -0.22608986 0.15687597 0.42278022
0003b0 0a 94 2f bf 04 6b d7 be 14 42 11 be 4d fb 32 3f
       -0.68585265 -0.42073834 -0.14185363 0.69914705
0003c0 ea 43 9d 3e 40 99 a9 bd fb 3c 00 3f 1c 91 7d be
       0.30715877 -0.08281183 0.5009305 -0.24762386
0003d0 c0 6d 3a bc 58 89 bf 3d bc dd 69 3e 9d 22 ec be
       -0.0113787055 0.09352368 0.22838491 -0.46120158
0003e0 fb 8a b9 be 2e 1f e7 be 67 6c f5 be ea 75 98 3e
       -0.36238846 -0.45140976 -0.47934267 0.2977746
0003f0 1c 97 56 3e 48 1a 4c be 69 4f 28 3f 60 42 7c 3d
       0.20956081 -0.199319 0.6574617 0.061586738

fc2.bias f4 [3136]
000000 f5 31 1a 3f 99 1d 0c 3f 4c ab 70 3e 4c 66 72 be
       0.6023248 0.5473266 0.23502845 -0.23671836
000010 47 4d 07 3f e4 0a 2d be 6a 8c fa 3e 3c d3 1a be
       0.5285229 -0.16898686 0.48935252 -0.15119642
000020 7c 95 98 be 3d cb 15 bf fd 5d 10 3f 6f ec 15 bf
       -0.29801548 -0.5851324 0.56393415 -0.58563894
000030 46 30 e9 3e bb 07 13 bf 05 a2 2a 3f 50 9c fb be
       0.45544642 -0.5743367 0.6665347 -0.49142694
000040 07 93 24 bf 4e b3 12 bf da 33 fe be fa 7f d9 3e
       -0.64286846 -0.5730485 -0.49648935 0.4248045
000050 83 b8 30 3f 98 36 31 bf e0 09 c9 3c 9e dd bb 3e
       0.6903154 -0.6922393 0.024540842 0.36692518
000060 00 9b 60 3e 6c 40 1b bf c0 2d 3d bd 37 9e 1e bf
       0.21934128 -0.60645175 -0.04618621 -0.61960167
000070 f6 39 ef 3e 00 ea 2e bf f4 91 24 3e 6a c0 aa 3e
       0.46723908 -0.68325806 0.16071302 0.33349925
000080 a3 98 12 3f 9d f8 19 3f a0 bd bd bd e7 15 06 3f
       0.57264155 0.6014498 -0.09264684 0.5237717
000090 7f 7f 08 3f 25 32 24 3f 8a 08 c3 3e cc 82 52 be
       0.53319544 0.64139014 0.38092452 -0.20557708
0000a0 00 38 03 ba 00 21 8a bd e7 7e a4 be c2 ba 9b be
       -0.0005005598 -0.067445755 -0.3212807 -0.30415922
0000b0 b0 27 c5 bd 38 df c9 3d c8 b6 2a 3e 60 b4 67 3e
       -0.096267104 0.09857029 0.16671288 0.22627401
0000c0 5e 69 f1 3e 00 e9 65 3c f2 16 0d bf a4 f2 bf be
       0.471507 0.014032602 -0.55113137 -0.37489808
0000d0 38 b2 23 3e 23 cf 9c be e0 18 81 3c e2 4a 0c bf
       0.15985954 -0.30626783 0.015758932 -0.5480176
0000e0 50 d7 99 bd 56 e3 b4 3e f6 e8 13 bf 39 38 89 be
       -0.07511771 0.35329694 -0.57777345 -0.26800707
0000f0 8e d3 e6 3e 98 bc 75 be f4 2e 24 bf 98 4d 22 3e
       0.45083278 -0.23997724 -0.64134145 0.15849912
000100 b9 28 ad be 40 05 88 3d b0 ed fc be 4b c5 12 3f
       -0.3382013 0.06641626 -0.4940009 0.57332295
000110 c0 1a b7 be 9e 65 b2 be 4a f1 d0 be 44 12 76 3e
       -0.35762596 -0.34843153 -0.4080909 0.24030405
000120 d6 23 fe 3e e8 16 0b bf de 60 fb 3e ab 6f 21 3f
       0.49636716 -0.5433183 0.4909734 0.63061017
000130 e6 5d 8d 3e f2 7d e2 3e ed a6 18 3f c4 a9 d8 be
       0.276107 0.44236714 0.5962971 -0.4231702
000140 4a 57 56 be 60 b5 46 be f5 ab 25 3f 9f 37 1a 3f
       -0.20931736 -0.19405127 0.6471551 0.6024112
000150 ff ef 12 3f 2a 04 85 be 3a 9b 92 3e c5 18 29 3f
       0.57397455 -0.2597974 0.28634053 0.6605342
000160 22 5a a5 3e 90 64 00 bd 80 08 d3 bb ca 6b 1f bf
       0.32295328 -0.031345904 -0.0064402223 -0.6227385
000170 4c e4 3f 3e 4d 95 b9 be 72 d1 1b bf 76 6d 99 be
       0.18739432 -0.3624672 -0.60866463 -0.29966325
000180 68 7f e9 3d e2 09 bf 3e 4e 4d c4 be dd 32 bc be
       0.11401254 0.37312227 -0.3834023 -0.36757556
000190 80 ed d4 be ae 8c b0 3e a8 9b d2 3d 49 50 98 be
       -0.41587448 0.3448233 0.10283595 -0.29748753
0001a0 aa 99 19 bf 34 36 75 3e 3d f6 2f bf f7 46 19 3f
       -0.600001 0.23946458 -0.68735105 0.5987391
0001b0 76 82 89 3e 51 69 19 bf 27 be 0d 3f b0 ea 74 3d
       0.26857346 -0.59926325 0.55368274 0.059794128
0001c0 c6 7a a2 3e 69 ff 14 bf a4 5c 00 3e ae 79 ad 3e
       0.31734294 -0.58202225 0.1253534 0.33881897
0001d0 60 aa 05 3d 0c 9a 4e 3e ae 1a ec be 38 2c 8f bd
       0.032633185 0.20175952 -0.46114105 -0.06990856
0001e0 4d 18 88 be b6 f6 bc be d3 d4 c0 be bb a3 18 bf
       -0.2658104 -0.36906976 -0.37662372 -0.5962483
0001f0 68 24 c1 be 50 e0 fa bd 6d 72 a3 be 0f 52 a6 be
       -0.37723088 -0.122498155 -0.31923237 -0.3248448
000200 8a ef ca 3e f0 aa de bd 88 39 ef be a8 bf b9 bd
       0.3963588 -0.108724475 -0.4672358 -0.09069759
000210 0d 4e 02 3f 98 1b 4a be 38 09 c7 3d 0a 45 e1 3e
       0.50900346 -0.19737089 0.09718555 0.43997985
000220 fe ef e6 be 48 a9 a7 bd 5c 25 68 3e 85 88 9d be
       -0.45104975 -0.08186585 0.22670501 -0.3076822
000230 26 a8 cb 3e 1f 53 14 bf 40 85 14 3c 0f 05 85 be
       0.39776725 -0.5793933 0.009064972 -0.25980422
000240 0a c1 c1 3e b6 e4 cf 3e b4 a5 7d 3e dd f5 8d be
       0.3784259 0.4060418 0.24770242 -0.2772664
000250 52 8d cd 3e f8 da 21 be 76 7f cb be 6f 68 9f be
       0.4014688 -0.15806186 -0.39745682 -0.31134364
000260 c0 26 3a 3c 56 c1 fd 3e 21 6f 9f be ee 83 94 3e
       0.011361778 0.49561566 -0.31139472 0.29006904
000270 40 02 e6 3c 55 aa 0e 3f 9e 09 f8 3e be 48 85 be
       0.028077245 0.55728656 0.48444837 -0.2603206
000280 78 90 0a 3e a4 58 50 3e 67 c9 0d bf 2e 44 ae 3e
       0.13531673 0.20346314 -0.5538544 0.34036392
000290 6d 54 b0 be 29 29 0f 3f 1e 2f 66 be 46 7e ff 3e
       -0.34439412 0.5592218 -0.22478911 0.49901026
0002a0 4a 40 f3 3e bb 9a 20 3f 7c 5d 21 3e 9c 67 2a be
       0.47509986 0.627361 0.15758318 -0.16641086
0002b0 88 43 8d bd 50 0d e3 be 09 7d 01 3f f4 a0 5f be
       -0.06897646 -0.44346094 0.50581414 -0.21838742
0002c0 58 52 32 be 60 86 af bc ca 12 bc be 50 21 d1 bd
       -0.17414224 -0.02142638 -0.36733085 -0.10211432
0002d0 30 0b 41 be c0 10 17 bd 18 b3 52 3e d0 55 2a bf
       -0.18851924 -0.03688121 0.20576131 -0.6653719
0002e0 ac cb d4 be f5 6e 29 3f 5c ec 4d 3e 01 86 cd be
       -0.4156164 0.6618493 0.20109695 -0.401413
0002f0 81 84 30 3f 60 2b 4d be 89 9e 2a 3f 68 7d 02 3e
       0.68952185 -0.20036077 0.66648155 0.12743151
000300 42 f8 95 3e c8 7c 42 3e 1a 20 ad 3e bf 74 2b 3f
       0.29290968 0.18992913 0.33813554 0.66975015
000310 6f ae 0e 3f d5 a2 c4 be f7 91 29 bf d8 a1 8e bd
       0.55734915 -0.3840548 -0.6623835 -0.06964463
000320 a4 42 20 3e 44 55 00 3e 2b f3 14 bf a3 b7 34 3f
       0.15650421 0.12532526 -0.58183545 0.7059271
000330 60 71 76 bd c7 9d 1b 3f 36 9b 34 bf e8 31 76 be
       -0.060166717 0.60787624 -0.70549333 -0.24042475
000340 6e 3d f7 3e df d8 24 bf c3 c1 80 be 49 af 24 bf
       0.48289055 -0.6439342 -0.25147828 -0.64329964
000350 82 85 b6 3e d8 2f 9d 3d 43 61 21 3f 70 83 30 be
       0.35648733 0.07675141 0.63039035 -0.1723764
000360 1e b3 2b bf 18 04 40 be db e3 91 be b8 0d 88 3e
       -0.67070186 -0.18751562 -0.28494152 0.26572967
000370 30 76 32 3d 30 c2 f4 3d 2a 96 9d be 3c 31 1d bf
       0.043569744 0.11951101 -0.3077863 -0.6140325
000380 fc c7 33 bf 55 ee 0f 3f 03 7b 0f 3f 47 84 15 3f
       -0.70227027 0.5622304 0.56047076 0.58404964
000390 40 4c 93 bc 88 ce 8a 3e 06 06 ec 3e b6 f8 da 3e
       -0.017980695 0.27110696 0.46098346 0.42767876
0003a0 b8 a9 0e 3e 2f e1 fe be 1b f5 31 3f ce 7b 25 bf
       0.1393193 -0.49781176 0.69514626 -0.64642036
0003b0 d6 2f fe 3e a2 5a 25 bf 3a 09 af 3e 07 65 0a bf
       0.4964587 -0.6459142 0.34186727 -0.54060405
0003c0 b2 59 bf be 40 fe ba bc 00 90 4d bc 75 f4 29 bf
       -0.3737312 -0.022826314 -0.012546539 -0.66388637
0003d0 2e fb 07 bf 76 c4 c1 3e ed cb b2 be 9e 84 dd 3e
       -0.53117645 0.378452 -0.34921208 0.4326524
0003e0 16 53 ce 3e d7 d2 23 bf 2c 1e 1a bf c6 3b 83 3e
       0.40297765 -0.6399359 -0.6020229 0.2563154
0003f0 7b 49 ea be 9f 9e 9a be 02 4b 54 be 38 17 d3 3d
       -0.45759186 -0.30199143 -0.20731738 0.10307163
