Pytorch/AutoEncoder/saved_models/Chan_mnist.pt (torch, 341295 bytes, 15 tensors)

conv1.weight f4 [32, 1, 3, 3]
00000000: ffa6 cb3d e723 78bd 7423 5c3e 80c0 223e
00000010: defa 503e 2875 61be f6f1 87bd a706 593e
00000020: afe0 82be 7358 9cbe f745 e23d 9640 98be
00000030: 0698 a43e 9796 92be 08b0 65be d913 3d3e
00000040: 3d9c c2bb b933 a53e cf4e 42be 043b 163e
00000050: 60f7 38be 0bbb ecbd 540c c0bc 82cd d1bc
00000060: 6a1c 37be 7dee 513e 3063 ed3d a982 88be
00000070: 0cb9 1a3e 765c a2be fab2 97bd 55ca 89be
00000080: 241a 623e d5d5 71be cde1 06be 943b 2d3e
00000090: a8eb 943d 1c5b 403e 587b 36be 382f 823e
000000a0: 585e 96bd 561e ec3c cc4d 113e bc80 9c3e
000000b0: 6146 cfbd 9ae1 533e d45c 313d 2704 2abd
000000c0: d386 05be 0892 37be 3a3c 463e 5c41 4ebe
000000d0: 67de fd3d 963b 0f3e 4375 173e 13db 593c
000000e0: 9772 83be f25b bbbd 076a 943e ef77 b0bc
000000f0: 8836 8c3e 88ba 11be 6966 803e b6db 9fbe
00000100: 9609 8c3d a417 18be f27a 893e 91c8 6ebd
00000110: 92af dcbc 12bc 91be 9db4 e6bc 0f3a 12be
00000120: 505f 82bc 7f73 0dbe 4054 aa3d 0ff3 3cbe
00000130: 6048 7d3e f4b3 86bd aea9 60be a381 9ebd
00000140: b4f4 bf3b 7fe9 b5bd d475 d4bd 7ee2 98be
00000150: 4391 fa3c 2ce2 6c3c 589b bdbd ab0c d63d
00000160: 941f 623e 7449 5fbd cba1 d6bd cbd3 07be
00000170: 4867 8dbe 4f70 543e 3fa0 9fbe 8657 6b3e
00000180: 811d 323d a353 f8bd f6e9 8ebe bfb4 4dbe
00000190: e67f 363d 82ec 9dbe e8c4 93be a63f 203d
000001a0: f412 e4bc c12c 7e3e d79d eabd c005 0fbd
000001b0: cfe5 593e c7bb 85be a721 833e 00cb 5ebe
000001c0: 357a 3ebe 3ad4 e2bb a349 f23d 436b 403e
000001d0: afc7 913e 5f2b aabe 2cae 0ebd bccb 59bd
000001e0: e7d3 973e bd7e 9d3e 0049 cdbc 788e 6cbe
000001f0: 197e 933e 7343 e9bc 9f37 693e b00d 23be
00000200: 7d05 cb3d 3e97 34be b59d 1cbd 8846 a73e
00000210: 5f32 3ebe aae7 973e 1a9b 273e 93b2 e03d
00000220: 1cf4 a63e ef3e 7bbe 6c50 d1bd 9e03 6bbe
00000230: 8b8e 2d3c 6a32 babc 2bdb 9d3e fe8e bcbd
00000240: 564c 373c 8d4a a73e d96e 963e ad22 09be
00000250: 58f3 ae3d fea7 a33e 9d62 fabc 6e32 b53c
00000260: 62ed 4f3e 56ab c83d 1083 843e d168 173e
00000270: 824e 33bb b20d 3bbe e995 3ebe 32cd 9dbe
00000280: 07d3 e9bd 3d6d 8cbe 7455 88be 7619 943e
00000290: 56ff 9d3e 7f49 0e3d 142f 4c3e bd44 6abd
000002a0: 66c2 783e 89bd 87be 29ef f33d f516 463c
000002b0: 1db1 233e 691d 14be e7d8 76be 91ac 61bd
000002c0: 9c17 123e 3c9f 7cbe bd20 02be 4bec cf3c
000002d0: f4a6 873e a96b 023e 539d 86bc 392b 8cbe
000002e0: 740f 58be b0e8 31be 9a54 79be 23b9 b4bc
000002f0: 5338 3ebb a6ff e53d 1e39 f93d 628e 653d
00000300: 1097 813e 3399 acbe 2fd4 b4bc 46b0 d9bc
00000310: f1b7 ca3d 337a 3fbd 2a1d 18bc 4e52 44be
00000320: ac34 a63e 524d c93d b648 123e 5ffa 4a3e
00000330: b059 70be 61e3 7a3b d781 43bd 8026 083b
00000340: 4211 a2be b420 ca3d 4f98 a8be 50cd 97bc
00000350: a865 75be dc62 f23d 2e1a 4ebe e06b 273d
00000360: 99d5 5dbe 2f95 233e 2fca 82be 9850 33be
00000370: 5032 a3bc bc19 143e 031f 853e 6937 383e
00000380: a07a 793d b5a4 51be ed43 a3be e2d7 dabd
00000390: 8b6b 7dbe 1b98 8e3e 9c24 9d3e c22f 833e
000003a0: 16bd 4bbe 437d 5abe 1e27 4abe 43d2 b9ba
000003b0: 3341 b3bc 8695 7c3e 1b20 b8bd 3053 193e
000003c0: 2632 97be f9fc 413e 2580 143e 5319 e63d
000003d0: 0480 483e 50af 6fbe 1cc3 803d 8fe3 5fbe
000003e0: c0d9 32be 8d38 8d3c ef04 eb3b 2d51 dc3d
000003f0: 406c 3ebe 6ec5 dabb 211e 903e 85e5 d03d
0.09943961 -0.060581114 0.214979 0.15893745 0.20408198 -0.22017348 -0.06637947 0.21193944
-0.25562045 -0.3053623 0.11048501 -0.29736775 0.32147235 -0.28630516 -0.22430432 0.18464603
-0.005939035 0.32266024 -0.18975376 0.1467095 -0.18063116 -0.11559113 -0.023443379 -0.02561069
-0.17881933 0.20501132 0.11591184 -0.26662186 0.15109652 -0.31711167 -0.07407184 -0.2691218
0.22080284 -0.23616727 -0.13172074 0.16917259 0.0727151 0.18784755 -0.1782049 0.2542665
-0.073422134 0.028823059 0.14189833 0.30566967 -0.101208456 0.20691529 0.04330142 -0.041507866
-0.13039713 -0.179268 0.19358912 -0.2014212 0.123959355 0.13987574 0.14790826 0.01329686
-0.25673363 -0.091483966 0.28987142 -0.021541564 0.27385354 -0.14231312 0.25078133 -0.31222314
0.06837766 -0.14852768 0.26851612 -0.058296744 -0.026939187 -0.284638 -0.028162295 -0.1427996
-0.01591459 -0.1381359 0.08316851 -0.18452094 0.2473464 -0.06577292 -0.21939728 -0.0773957
0.0058580283 -0.088824265 -0.103740364 -0.298603 0.030586844 0.01445822 -0.09258145 0.10451635
0.22082359 -0.05451341 -0.10480078 -0.13264386 -0.2761786 0.20745967 -0.31176946 0.22982606
0.04348517 -0.121253274 -0.27912873 -0.2008848 0.044555567 -0.30844504 -0.28861165 0.0391232
-0.027841069 0.2482176 -0.11455887 -0.034917593 0.21279071 -0.26119825 0.25611612 -0.21757126
-0.18601306 -0.006922272 0.11830451 0.18790917 0.2847266 -0.33236215 -0.034834072 -0.053172812
0.29653856 0.30760756 -0.025059223 -0.23101223 0.28807142 -0.028474545 0.22775124 -0.1592319
0.09913156 -0.1763582 -0.03823634 0.32671 -0.18573903 0.29668933 0.1636776 0.1097156
0.32608116 -0.24535726 -0.102204174 -0.22950599 0.010593067 -0.022729117 0.30831274 -0.09206961
0.0111876335 0.32674065 0.29381445 -0.13392134 0.08542508 0.31964105 -0.0305646 0.022118773
0.20305398 0.09798305 0.25881243 0.14786078 -0.0027360027 -0.18266943 -0.18611874 -0.30820614
-0.114172034 -0.27427092 -0.26627696 0.28925675 0.30858868 0.03473806 0.19939834 -0.05719446
0.24292907 -0.2651179 0.119108506 0.012090434 0.15985532 -0.14464344 -0.24106179 -0.055096213
0.14266819 -0.24670118 -0.12707801 0.025381228 0.26494563 0.12736382 -0.01643244 -0.27376726
-0.21099645 -0.1737392 -0.24348679 -0.022060936 -0.002902527 0.11230402 0.12169097 0.05604399
0.25310564 -0.33710632 -0.022073833 -0.026573312 0.09898365 -0.046747398 -0.009284297 -0.19172022
0.3246206 0.09829201 0.1428555 0.19822071 -0.23471713 0.00382825 -0.047731247 0.00207749
-0.31653792 0.09869519 -0.32928702 -0.018530518 -0.2396456 0.11835262 -0.20127174 0.040874362
-0.21663512 0.15974878 -0.2554488 -0.17511213 -0.019921452 0.14462942 0.26000223 0.17989887
0.06090796 -0.20472987 -0.3188776 -0.10685708 -0.24748056 0.27850422 0.30691993 0.25622374
-0.1989635 -0.21336846 -0.19741485 -0.0014177043 -0.021881675 0.24666414 -0.08990499 0.1497314
-0.29530448 0.18944158 0.14502008 0.11235299 0.19580084 -0.2340672 0.06287214 -0.2186415
-0.17465878 0.01723888 0.007172219 0.107576706 -0.18595982 -0.0066763675 0.28147987 0.102000274

conv1.bias f4 [32]
00000000: 08f6 763d 9bc4 053d 27de 8b3e e52d 9dbe
00000010: 87fd 1a3e 75fd 603e 7f37 11be 7a6f be3d
00000020: 7082 603d 987c 2dbe 9c0b 50be c7d5 f53b
00000030: 62d3 5a3d 35e0 7a3e 77ee 9abe 6236 2a3e
00000040: 584d 763e 6bc7 9f3a 62ac babd fe4a 5d3d
00000050: 14d1 a5bd fd34 723d bfaa 4dbe 1250 91be
00000060: 0287 123e cd5d 9cbd 56e0 68be d0fc 11be
00000070: 86e7 55be 45ce d33d 62c5 db3d d1fe db3d
0.060293227 0.0326582 0.27317926 -0.30699077 0.15135776 0.21971686 -0.14181326 0.09298606
0.054811895 -0.1694206 -0.20316929 0.007502291 0.053424247 0.2449959 -0.3026006 0.16622308
0.24052942 0.0012190168 -0.09114911 0.054026596 -0.08096519 0.059132565 -0.20084666 -0.283814
0.14309314 -0.076350786 -0.22741827 -0.14256597 -0.208891 0.10342077 0.10731007 0.10741962

conv2.weight f4 [64, 32, 3, 3]
00000000: cdfb 413d 62f8 123b fa19 3ebd 0945 a13b
00000010: c797 41bd a8d4 bbbb 45ef ecbc 9987 93bc
00000020: 2099 943b 7b69 913c d8bd 72bd 81dd e1bb
00000030: 0478 eb3c 605a 073d 4391 18bd 0824 9cbc
00000040: 7096 febc 2117 523d 19a8 ba3c 8826 0bbd
00000050: c06e 0cbd ce07 47bc 81b7 e93c bcad 61bd
00000060: f6ef 2b3d 7d31 5abd f777 b2bc 6da4 ed3c
00000070: f9b2 623d 3cd6 663d adcf e33c 3a40 00bd
00000080: cb58 6fbd 5e9e 9e3c 688f 163d 2ad9 c5bc
00000090: f535 10bd d477 b53c 7efa 173d f454 5abd
000000a0: 6737 07bd 7509 dcbc 6030 0abd d6ec 5cbc
000000b0: c118 6dba bfa3 c7bc 12ee 81bd dbfb 033b
000000c0: 3e1a ca3c 7e92 2a3d 8e19 41bd df2f 323d
000000d0: aa21 3f3d 3862 73bd d716 54bd 5f09 1e3c
000000e0: 6934 b03c 7adb 6fbd 04ce 0b3d 3eda 0d3d
000000f0: c6e8 563d 6177 cebc 5d9e 413d 5a32 90bc
00000100: f8d5 2bbd b1df 7abd 019a 083d a2aa 40bd
00000110: 430e 0ebd e38e 9ebb 2e53 753d 3f24 633d
00000120: 1d00 a7bc d46d 34bd c448 fcbb c874 da3c
00000130: c5ef 4bbd 230b 0c3d 9509 893c da75 2f3d
00000140: d678 1e3d e693 4ebb e290 033d 5616 72bd
00000150: 2dcf 85bc 9a63 933c 45de 72bd ac08 163d
00000160: 2088 64bb 1417 12bd c747 6c3b 99e3 fabc
00000170: 97f6 ddbc a422 023c c8a2 db3b 4a36 633d
00000180: e5f5 113d ecb4 f0bc ece4 17bd 5bcd 6abc
00000190: 331d 313d 2404 1cbd 85f5 4f3d 9706 22bb
000001a0: a704 3a3d a16d 733c b6be 703c 1c94 07bb
000001b0: 91d5 bb3c e1dd ffbb 61bd 50bd 8b5a 4b3d
000001c0: 4efa 0ebc cdff be3c 91d5 133d e33d b93c
000001d0: b033 68bd 1115 923c 6b3c 4d3c bffc 513d
000001e0: cf4f 5cbd 5be9 783c 83b4 29bc 8942 83bd
000001f0: cb26 ef3b 5c8c 4cbd fb25 eb3c 91b4 93bc
00000200: d13b 283d 6350 8fbc 59fe d8bb 2028 59bd
00000210: 66da 2fbd 79b3 63bd c269 0e3d d377 e33c
00000220: 0c8f ab3b 78c0 fcbc 259c e63c 4950 303d
00000230: d568 79bd 1071 72bd 9a4a 77bd 5410 06bc
00000240: 102d 323d fa6b c2bc 0428 6dbd 2bb9 82bd
00000250: 5954 d0bc 0de5 4b3c 5135 4fbd d8b6 6ebd
00000260: 0279 063d 81ea 13bd d2ed 58bd bb81 0bbc
00000270: e599 eb3b a9bb e0bb 8288 3f3c e01b 01bc
00000280: bfa5 5dbd 7c45 0cbd 4bff 6dbd ad7b 8bbc
00000290: f141 60bd 65e8 b9bc d014 f73c 1104 873c
000002a0: 40ec d2bb cbc8 333d 6b37 4d3d 1a47 d1bc
000002b0: 9035 85bc 4855 5e3d d9b1 80bd e72a 02bd
000002c0: a9f6 e03c 2ad6 fabb f420 2ebd 80cf 20bd
000002d0: cf00 243d 54fc 56bd d5d8 5bbd 02fe 3c3c
000002e0: 696f 85bc abe8 31bd 6d43 d93c 5ea7 a83c
000002f0: 3c8f 5e3c 45de 95bb fb84 39bd 3930 8b3c
00000300: 1fd1 2abd cb56 efbc 7e3c 40bd 1b91 4ebd
00000310: 7c64 d0bc 6858 37bb 0b59 e73c a3f9 3a3d
00000320: 26a3 bb3c 57c2 1abd 1779 04bd 13e7 723d
00000330: d08f 4b3a 7a16 e23c ed22 b63c 16bf dabc
00000340: 9d6d 593d 387e 85bc bb3d 513d 1619 dd3c
00000350: 2d1d 443d 1d3e 383d e08e f8bb b2aa c33c
00000360: f949 313d e103 1c3c bdcd b9ba e397 423d
00000370: 4391 2c3b 148a 1cbd 3ed9 2bbd 91bf fbbc
00000380: 6a37 ed3c 9d3b 323d 417e 7b3c fa45 70bb
00000390: 0a00 4cbd ff1e 1c3d 4fc3 3d3d 8c1f 26bb
000003a0: d170 51bc c1c6 45bc 0e5f a0bc 2266 403d
000003b0: cb87 41bc a897 ff3b d4dc 8cbc 9b8a 1b3d
000003c0: fd5d 5c3c b793 cdbc b712 99bc 337e 21bd
000003d0: 1e27 003d 3e81 1e3d dbbf 3f3d 115c 3f3d
000003e0: 4bed 0a3d 3078 76bd ba45 2abd dfe6 2b3d
000003f0: 6dbe e13c 40a2 223d 0c26 2b3d 613e 75ba
0.047359277 0.002242588 -0.046411492 0.0049215597 -0.047263887 -0.0057321377 -0.028922686 -0.018008994
0.0045348555 0.017750492 -0.05926308 -0.0068928604 0.028743751 0.033045173 -0.037247907 -0.01906015
-0.031077594 0.05129159 0.022785233 -0.033972293 -0.034285307 -0.012147857 0.028529884 -0.055097327
0.04197689 -0.053269852 -0.02178572 0.029009068 0.055346463 0.056356654 0.027808988 -0.03131125
-0.05843429 0.019362625 0.036757857 -0.024151403 -0.035207707 0.022151865 0.037104122 -0.053303674
-0.03301182 -0.026859978 -0.03373754 -0.0134842 -0.0009044521 -0.024370072 -0.063442364 0.0020139131
0.024670716 0.041643612 -0.04714351 0.043502685 0.046662964 -0.05941984 -0.051779594 0.009645789
0.021509366 -0.05855892 0.03413202 0.03463196 0.052468084 -0.025203409 0.047270168 -0.017602134
-0.041952103 -0.061248485 0.033349995 -0.047037728 -0.03468157 -0.004838811 0.05989378 0.05545449
-0.020385796 -0.044050053 -0.007699104 0.026667014 -0.04978921 0.03419031 0.016728202 0.042837
0.038689457 -0.003152126 0.032120593 -0.059103332 -0.01633414 0.01799183 -0.059294004 0.036629364
-0.0034871176 -0.03566654 0.0036053525 -0.030626105 -0.027095122 0.007942829 0.0067027546 0.055471696
0.035634894 -0.029383145 -0.03708355 -0.014331187 0.043240737 -0.038089886 0.050771255 -0.0024723166
0.045414593 0.014857681 0.0146939065 -0.0020687645 0.022928985 -0.0078084324 -0.050961856 0.049646895
-0.0087266695 0.023315335 0.036092345 0.022612518 -0.056689918 0.01783231 0.012526612 0.051266428
-0.05378705 0.015192355 -0.010357979 -0.06409175 0.0072983257 -0.049938545 0.028704634 -0.018030437
0.04107267 -0.017494386 -0.0066221175 -0.05301678 -0.04293289 -0.05559108 0.034768827 0.027767098
0.0052355584 -0.030853495 0.028150627 0.043045316 -0.06089099 -0.059189856 -0.06037388 -0.008182604
0.043500006 -0.023733128 -0.05789949 -0.06382974 -0.025430845 0.012444747 -0.050587956 -0.058279842
0.032830246 -0.036112312 -0.052961178 -0.008514817 0.0071899765 -0.0068583083 0.011690261 -0.007880181
-0.054113146 -0.034245953 -0.058104794 -0.017026747 -0.054750387 -0.022693822 0.030161291 0.016481431
-0.0064368546 0.043892663 0.05010168 -0.0255466 -0.016260892 0.05428055 -0.06283922 -0.031779196
0.027461367 -0.007654925 -0.042511895 -0.039260387 0.040039834 -0.052486733 -0.053673584 0.01153517
-0.016288476 -0.04343478 0.026521409 0.02058762 0.013583954 -0.0045736157 -0.045292836 0.016990768
-0.04170334 -0.02921619 -0.04693269 -0.050431352 -0.02543854 -0.0027976278 0.028240701 0.04564823
0.022904944 -0.037782993 -0.032342043 0.0593024 0.0007765265 0.027598608 0.02223345 -0.026702445
0.05308305 -0.016295537 0.05108426 0.026989501 0.047879387 0.04498111 -0.0075853914 0.023885105
0.043283436 0.009522409 -0.0014175695 0.04750813 0.00263317 -0.03821762 -0.041955225 -0.030730994
0.028957088 0.043513883 0.0153499255 -0.0036662803 -0.049804725 0.038115498 0.04632884 -0.0025348393
-0.012783245 -0.012071312 -0.019576576 0.0469724 -0.011812161 0.0078000613 -0.017195143 0.03797398
0.013450143 -0.02509485 -0.018685682 -0.039426994 0.031287305 0.038697474 0.046813827 0.04671866
0.033917706 -0.060173213 -0.041570403 0.041968223 0.027556622 0.039705515 0.04178433 -0.00093553035

conv2.bias f4 [64]
00000000: 2978 f8bc 6606 adbb 8508 90bc d3aa 07bd
00000010: bf95 333c 7060 32bd 2c18 a43c 716f 0b3d
00000020: ed95 3a3d b4d3 e63c dca6 1a3d 66e9 95bc
00000030: ba92 51bd 2041 74bb 16cc 8c3c 21e7 90bb
00000040: fd6b 35bd f33a 123b 08a9 58bd 6a91 d4bc
00000050: c8d7 15bd cd55 11bd 8219 10bd cd16 573d
00000060: ab37 0cbd f2d1 953a 094d 3dbd 186a 3ebd
00000070: 313e 4b3d fffd b7bb 80c8 04bc 3f4e cfbc
00000080: edd1 efbc 4471 8abc 6adc 693d 0b77 3c3d
00000090: 02be a2bc b4f5 7bbd 2bfc 19bd 7258 13bd
000000a0: b124 49bd 01c9 7dbd 0f05 cc3b 511c 1e39
000000b0: d945 80bc dc28 283d a9d0 88bc 18c4 473d
000000c0: f28d c7bb 2824 cebb d9e4 7c3d f84e f4bb
000000d0: 4bcb 023d 2472 25bd bb20 e43b bc64 29bd
000000e0: 110b 133c 3339 fbbb 1a8b 2ebd d75e 3d3c
000000f0: cf34 a2bc 7f67 d93c 2cce 19bb 4294 47bd
-0.030330734 -0.005280304 -0.017582187 -0.033121895 0.010960995 -0.043549 0.020031057 0.034041826
0.045553137 0.02817712 0.037756786 -0.01829977 -0.05116532 -0.0037270263 0.01718716 -0.004422084
-0.04429244 0.0022312969 -0.052895576 -0.025948245 -0.03658274 -0.035482217 -0.035180576 0.05251198
-0.034232777 0.0011430366 -0.046216045 -0.046487898 0.049619857 -0.0056149955 -0.008104444 -0.025305865
-0.029274905 -0.016899712 0.05709497 0.046011966 -0.019865993 -0.061513618 -0.037594 -0.03597302
-0.049107257 -0.06195927 0.006226189 0.00015078603 -0.015658306 0.04105459 -0.01670106 0.048770994
-0.0060899192 -0.0062909313 0.061741684 -0.007455703 0.031932157 -0.040392056 0.0069619096 -0.041355833
0.008974806 -0.007666731 -0.042613126 0.011558256 -0.019800572 0.026538609 -0.0023468835 -0.048725374

conv3.weight f4 [64, 64, 3, 3]
00000000: 9c7c 33ba 8e39 ea3c faf1 d8bc 2e1a 86bc
00000010: 44ac c1bb d0c7 373d a418 a1bc 2f8f cf3c
00000020: ef93 35bb ebff b63c b288 c7bc 14a9 f53c
00000030: 9546 f33c bcb1 a4bc 6fef c43b e9c5 e53c
00000040: 0321 a7bc 09c8 a7bc b7bf 19bc b970 0abd
00000050: 179d 13bc 9b2e b3bc 8e9e 6abc 1201 ac3c
00000060: 7ebe 033d 4644 0abd b84d 113d 05b6 703c
00000070: 5f33 0f3d ba1e 6e3c 634c dbbc 649b 9e3c
00000080: 5ae6 b7bc c3e4 f7bc 41ee a83c 3a73 023b
00000090: d435 193c 7788 edbc 00e7 e1bc 5901 eb3c
000000a0: c62b 17bc d322 f6bb d3e9 1d3c 5b23 8b3b
000000b0: ff2c 24bc 9f5c d83c 86ba b3bc 4548 41bd
000000c0: d8dc 54bc c3f0 a7bc 2480 e43c 2645 273d
000000d0: 8737 4cbb f632 713c 5fac 9f3c 381b 3a3d
000000e0: ffcb 06bd c8b2 633c f011 dcbc 140c 063c
000000f0: 0e8b 453c 5b7e 683c 2988 d33c 606c 033d
00000100: 684f 023d 46c4 39bc fead cbbc 1ee3 16bc
00000110: d0b5 053d 0057 e8bb 87b0 fc3c c1fe d93c
00000120: aba2 603c bb11 1dbd 2eb4 d1bc 9865 be3c
00000130: afca 0a3d 115e 2dbd 7d30 8d3c c01d 0abd
00000140: 530a 9c3c 798a 653c 8a88 2abc 24af 0d3d
00000150: 35cc 933c f603 a4bb 3a1f e23c 8661 fd3a
00000160: 04b9 dc3b e365 a5bc a5de 8cbc df0a 76bc
00000170: 2175 02bc 68ac 9dbc 1494 0f3c d413 d53c
00000180: 280e 123d c86a debc 6e1f 3bbd a076 a6bc
00000190: 644a 15bd b130 08bd 6cf3 63ba 4120 873b
000001a0: ef1f f53c 9a43 813c 3387 173d dd08 e4bb
000001b0: ba31 bd3c eee8 b7bc 8874 23bd 3077 153d
000001c0: 1b73 f1bc ce77 2fbd 888d 403d 299e 743c
000001d0: dec8 19bd ab52 babc 50b2 9d3c 2634 6bbc
000001e0: 33e4 dcbc 6500 103d 1008 2f3b d832 b73b
000001f0: 808e 53bb 20c7 b03a 2fdf d43c 4faa 85bc
00000200: f506 a83c 9109 92bb 38f7 09bd e081 abbc
00000210: 11dc d438 e0e2 a1ba 20d2 e53c ca56 983b
00000220: 150b 163d 2e02 0d3d b567 993b 1dea 52bc
00000230: 4d50 e83c c4d4 1dba 1a84 653b fa1d e33c
00000240: 1370 8abc 1e5e cc3b aa57 05bc b124 06bd
00000250: 13fa 04bd 096a b73c 1d1f ad3c 8a75 00bb
00000260: aa20 1f3d ba56 333d a121 14bd 1cd4 edbc
00000270: 60ae 473c 9053 02bd 6219 7d3c b2c4 04bc
00000280: 9d15 923c 77e1 3a39 1913 043d cb62 c6bc
00000290: 8518 dfbc 894f 393c 74f2 35bc 5b81 debc
000002a0: ea7a 213b 176c f0bc 5c9e 49bc b071 a7bc
000002b0: b53d 533b d048 0fbd 688a c6bb fdff 233c
000002c0: 19a6 cf3c c99c 813c 9730 8e3b 68e4 a23b
000002d0: ecbe b8bb e6b1 80bb 2440 5b3a b089 9b3a
000002e0: 11cc ee3c 8990 9c3c c010 b5bb 141b 02bd
000002f0: 12b6 92bb f562 403d 61eb c33c 3785 06bd
00000300: 4c4f 6cbc 0f59 03bd 5e59 12bc ba55 f1bc
00000310: ddb0 2d3d 31c1 06bd 35dd e63c 9f62 293d
00000320: 16c3 bdbc 0dad fcbc 9abb fabc 25d3 48bc
00000330: 121a 0f3b 2da7 a5bc 705c 023d f9e4 a5bc
00000340: e7d7 283d 1e0d 1b3d d945 f5bc 6e38 13bd
00000350: 3827 a23c 29e3 7e3b 7f9c 0a3d 4d2a a43a
00000360: 5463 a4bc 8185 dab9 1db9 113d 1e40 173d
00000370: f376 f33c dfef 19bc c816 793c ec52 5eb9
00000380: 048f e5bc f41e 393d e35e 263d d6ac 94bb
00000390: 30ee c13c 57cf 213b b870 d43c 9f8c d53c
000003a0: 5816 c1bc ac70 8fbc d7d9 98bc b0d9 f7bc
000003b0: ced7 e8bc 5aee 72bb abb9 fa3b f68a b5bc
000003c0: 1a79 f8bc ce53 0dbd 4715 6ebc 7f68 ca3c
000003d0: 90e8 153d 300c 123c 530a d33a 693a c93b
000003e0: 71aa 0ebd 6f95 f23a a148 173d aa5b 323a
000003f0: 8179 4dbc 97ed 1e3d 0365 9cbc 70b1 1d3d
-0.00068468763 0.028591897 -0.02648257 -0.016369905 -0.0059104282 0.04486829 -0.01966507 0.02533683
-0.0027706583 0.022338828 -0.024357174 0.02998785 0.029696742 -0.020104282 0.006009988 0.028048472
-0.020401483 -0.020481126 -0.009384087 -0.033798907 -0.009009621 -0.02187281 -0.014320029 0.020996604
0.03216409 -0.033756517 0.03547451 0.014691834 0.0349611 0.014533693 -0.026769822 0.019361205
-0.022448707 -0.03026045 0.02062142 0.0019905106 0.0093512125 -0.028995736 -0.02757597 0.028687166
-0.009226745 -0.0075114756 0.009638268 0.004246158 -0.0100204935 0.026411353 -0.021939527 -0.047188062
-0.012992106 -0.020500546 0.027893133 0.04083743 -0.0031161027 0.014721623 0.019491373 0.045436114
-0.03290939 0.013897605 -0.026864022 0.008181591 0.012057079 0.014190282 0.025821762 0.032085776
0.03181401 -0.011338299 -0.02486324 -0.009209422 0.032644093 -0.0070904493 0.030845894 0.026610734
0.013710658 -0.038346987 -0.025598612 0.023241803 0.0338847 -0.042326037 0.017235035 -0.033719778
0.019047892 0.014010065 -0.01040853 0.034590855 0.01804171 -0.005005355 0.02760278 0.0019331432
0.006735923 -0.020190185 -0.017196009 -0.01501724 -0.007962496 -0.019247249 0.008763332 0.026010431
0.03565803 -0.027150527 -0.04568427 -0.020320237 -0.036447898 -0.03324956 -0.00086956355 0.004123718
0.029922454 0.015779305 0.03699417 -0.0069590644 0.023095 -0.022449937 -0.039906055 0.03649062
-0.029473832 -0.042838864 0.047009975 0.014930286 -0.037545078 -0.022744497 0.019250065 -0.014355695
-0.026964283 0.035156626 0.0026707686 0.005590778 -0.0032280982 0.0013487078 0.025985328 -0.016316561
0.02051113 -0.004456707 -0.03368303 -0.020935953 0.00010149938 -0.0012350939 0.028054297 0.004649018
0.036631662 0.034425907 0.0046815523 -0.0128732 0.028358603 -0.0006020779 0.0035021366 0.027724255
-0.016899144 0.0062368056 -0.0081385765 -0.032749835 -0.03246505 0.022389429 0.021133 -0.0019601309
0.03884951 0.04378388 -0.036164884 -0.029031806 0.01218757 -0.031817973 0.015447946 -0.008103536
0.017832572 0.00017822334 0.032244775 -0.02421703 -0.027233372 0.011310467 -0.011105169 -0.02716129
0.0024639913 -0.029348416 -0.012305822 -0.020439953 0.0032232825 -0.03498155 -0.00605898 0.010009763
0.025347756 0.015821831 0.0043392885 0.004971076 -0.005637994 -0.003927457 0.0008363745 0.0011866596
0.02915004 0.019111888 -0.0055256784 -0.031764105 -0.004477271 0.046969373 0.023915948 -0.032841887
-0.014423203 -0.032067355 -0.00893244 -0.029459823 0.042404998 -0.032899085 0.028181652 0.041353818
-0.023164313 -0.030844236 -0.030607034 -0.012257372 0.0021835607 -0.020221317 0.031826437 -0.020250784
0.041221526 0.037854306 -0.029940533 -0.035942487 0.019794092 0.0038892722 0.033840653 0.0012524814
-0.020066895 -0.00041679668 0.03557693 0.03692638 0.029719805 -0.009395569 0.015203185 -0.0002120246
-0.028022297 0.045195535 0.040617835 -0.004537205 0.023673147 0.0024690235 0.025932655 0.02606803
-0.023570225 -0.01750978 -0.018658562 -0.030255169 -0.028423216 -0.0037068338 0.007651528 -0.022160988
-0.030331183 -0.03450375 -0.01453144 0.02470803 0.036598742 0.008914039 0.0016101099 0.0061409962
-0.034830514 0.001850767 0.0369345 0.000680382 -0.012541176 0.038800802 -0.019091135 0.038499296

conv3.bias f4 [64]
00000000: 58a8 a5bc b886 313d a165 d93c 1ae8 61bc
00000010: 9f5d 113d eaa9 c53c 3c0b 8bba 06bd cf3c
00000020: b63f 0dbc 9d87 ed3b 01f0 b1bc 7cad 0abd
00000030: 3f85 283d 4aaa 4e3c b569 b4bc 5bf5 c1bb
00000040: 9f1f debc 0e76 cc3c c765 00bd 70b8 ddbc
00000050: 1ec0 043d 0ea8 19bc 79cb e9bb 74f0 0bbd
00000060: efa2 d63c 193b 893c b897 e7b9 4cc0 ebbc
00000070: 44d3 fb3c ebf5 bb3c ee13 8ebc 30e6 6fbc
00000080: 56fd 08bd c74a b93c 9a23 843c 8851 413d
00000090: 5dcd 09bc c0f1 d23c b411 28bc 7a2d 4abc
000000a0: 010c 8a3c 6c54 98bc eb53 0abd dc21 09bd
000000b0: e8df 00bc b540 2b3d 4430 18bc 402a 6bbc
000000c0: 8134 823c b695 36bb 1fe5 20bc d4ce 06bd
000000d0: c40f 2f3c defe d9bc 71c0 ffbc f7ce a0bc
000000e0: 05db d9bc cf9b 30bc 5c29 223d 9887 e83c
000000f0: 4500 ba3b 4a8a 0c3d 8f9a c63a 5d91 983c
-0.020221874 0.04334137 0.026537718 -0.0137882475 0.035489675 0.024128873 -0.0010608207 0.025358688
-0.008621147 0.0072488324 -0.021720888 -0.033856854 0.0411427 0.012613842 -0.022023061 -0.005919141
-0.027114687 0.024958637 -0.031347062 -0.027065486 0.03240978 -0.009378446 -0.0071348515 -0.03416486
0.02620074 0.016751813 -0.00044172793 -0.028778218 0.030740388 0.022944411 -0.017343488 -0.014642283
-0.033444725 0.022618664 0.016130257 0.047196895 -0.008410779 0.025750041 -0.010258127 -0.012339944
0.016851427 -0.018594943 -0.033771437 -0.033479556 -0.007865883 0.041809756 -0.009288851 -0.014353335
0.015894176 -0.002786023 -0.009820252 -0.03291209 0.010684911 -0.026610788 -0.031219693 -0.019629939
-0.026593694 -0.010779335 0.039590225 0.028384969 0.0056763017 0.03431157 0.0015152263 0.018624002

fc1.weight f4 [2, 3136]
00000000: 871d b5bc 9bd5 83bc 5687 a3bc 6bbc cc3b
00000010: 289f 31bc 4c57 3cbc dc00 4bbc 47a8 e7bb
00000020: 0ba9 a2bc 8d79 81ba f3c3 413c 066d 6dbc
00000030: 28e3 333c 9a66 bdbc 29d4 5fbc 9828 21bb
00000040: 9f01 e73b 970b 5bbc 716d cc3b 82b8 88bc
00000050: 1a95 acbc d161 c33b cced 5dbb 717d 1ebc
00000060: 0c0d 8d3b 33c0 81bc d8ea dfbb 7fc1 2dbc
00000070: cc50 a23c f7b4 b1bb 4456 733b 08b9 b5bb
00000080: fe08 c5bb 99c6 b0bc 15cd 2f3c 4c57 b5bb
00000090: b09e a6bc 00aa 71bc 1805 96bc 28a5 a1bc
000000a0: e7d4 edbb 1ef1 0f38 e439 6dbb 3560 2c3c
000000b0: f650 2bbc 3d6b d63b da7e b6bc 1675 4dba
000000c0: e805 383c e088 c0bc 88db 75bc 834e 6dbc
000000d0: 9c50 a6bc a09b 33bc 5460 1dbc 90c7 523b
000000e0: ce2f 973b 9839 213c 6060 d93b 7ffb 41bc
000000f0: 3363 8cbc bbc0 74bc 64cf 0e3b 9ab6 9fba
00000100: 93d4 fd3b 51c0 59bc 0056 15bc 5f80 033c
00000110: 20a9 8dbc da69 17bc 8b37 373c 3507 4dbc
00000120: 25d7 873b a19c 5a3a c921 a3bc 55eb 30bc
00000130: 88f9 18bc 15f6 9fbc a009 103c 891c 81bc
00000140: 9622 68ba 22f1 0fbc 7f0e 6cbc b8a6 5ebb
00000150: fa32 cbba 98e6 073a 214a 3d3c 05d9 75bc
00000160: af88 143c 794b 92bc b733 7a3b 6aae b8bc
00000170: c814 b7bc 617e be3b 5cd9 f23b a7b9 403b
00000180: 5008 df3b 602d b7bc 588e 5abc d6f8 b3bb
00000190: 90fe dcbb 50fc 28bc 0e8f 213c 00a8 04bc
000001a0: 480f 74bc 550a 213c 8bf5 863c 85a5 863c
000001b0: 01e7 573c b0a7 bb3b 9ee7 5e3c aed1 d9bb
000001c0: 2104 393c c62b 2dbc c770 79bc f07b 66bc
000001d0: 5667 043c 79fa 903c fe2a 403c 61ba 8fbb
000001e0: 5984 3fbb a817 0c3c 573f e239 729d babb
000001f0: faa6 763c 9f2d 913c dd59 60bb e5bc 3dbc
00000200: 7b42 173b 6fbf bcbb 9587 f93b 4694 8d3c
00000210: 9ca7 5cbb 670f f9bb 85a9 be3b 8755 993b
00000220: 5b9f 83bc 37e0 8abc e8df aa3c 5c33 bd3b
00000230: 4527 7cbc 2f03 4a3b 1a91 0b3c eaaf bcbb
00000240: 5354 89ba 0941 afbc 24a5 2e3c 2099 7b3a
00000250: 165e 293c 50e5 953c c9d6 a9bc 5717 2bbc
00000260: 9f9a 623c 1ef2 a8bc 3e22 08bc a80f 523c
00000270: 55bd 0a3b e84d 2dbc b68a d7bb 5c39 cd3b
00000280: c0c9 70bb 2ea8 0f3c fc98 493c f18b 73bb
00000290: 5908 09bb 7030 87bc 3bb4 a7bc cd35 243c
000002a0: e876 373c c1ea 363b 5045 293b 4844 a3bc
000002b0: 8b3d 2e3b 8bfe 9c3c f434 dbbb 51ba 4abc
000002c0: e4d6 6bbb a7fd f73a 5140 afbb 1e06 abbc
000002d0: 54b6 a6ba 44e2 8d3b b4eb 41bc 50a8 463c
000002e0: 5663 e93b 9eb7 baba 2711 8c3c 0074 27b9
000002f0: 3e30 613c 07c8 2cbc 00e7 b9bb 7823 df3b
00000300: c565 58bc 8e94 80bc 0066 95b8 58de 4a3c
00000310: 2cf2 f9bb 4746 28bb 72c1 bbbc 02b3 5d3b
00000320: 52a2 2bbb 1e25 bebc d5ee 013c 312a 1bbb
00000330: 0977 94bc ceff 79bc 6f40 cb39 4760 28b9
00000340: 2c01 8bbc d08c f6bb 45b7 0abc f53a 88bc
00000350: 8f76 b9bc 667c c7bb f34c 76bc 2d47 b93b
00000360: aed3 b4bc 3f58 803b 273e 4b3b c0ad 09bc
00000370: 7764 a23b e001 ca3b a176 c2bb 5ef0 9fbc
00000380: a677 9abc 0f91 1a3c 79ad e9bb 4790 d6bb
00000390: ca3d 11bb 10a3 183c e701 1dbc 56c4 b6bb
000003a0: a049 a7bc 082e 78bb 4922 86bc 49fb 63bc
000003b0: c2a3 133c 6611 4a3b 3814 dbbb 5a7c a8bb
000003c0: e5e5 cd3b 8e60 053c 77cb 69bc 6c2f 3d3b
000003d0: 0b2a aabb 12b5 83bc e5d1 8cbc 49b7 56bc
000003e0: ffc9 5d3b af85 853a 07ea 203c e0d2 0c3c
000003f0: fa31 0f3c 4433 c8ba ba3e 6d3b f614 11bc
-0.022108806 -0.016093066 -0.019961994 0.006248047 -0.010841168 -0.011495423 -0.012390342 -0.007069621
-0.019855997 -0.0009878144 0.011826503 -0.014491325 0.010979451 -0.023120213 -0.013661423 -0.0024590846
0.007049754 -0.013369462 0.0062386324 -0.016689543 -0.02106719 0.0059625884 -0.0033863662 -0.009673462
0.004304534 -0.015838718 -0.0068334155 -0.010605215 0.019813918 -0.005423184 0.0037130276 -0.005545739
-0.006013035 -0.021579074 0.010730048 -0.0055340882 -0.02033934 -0.014750004 -0.018312976 -0.019732073
-0.007258046 3.4318415e-05 -0.0036197836 0.010520984 -0.010456314 0.0065435455 -0.022277284 -0.00078375766
0.011231877 -0.023502767 -0.015005954 -0.014484051 -0.02030211 -0.010962397 -0.009605486 0.0032162406
0.004613853 0.009840392 0.0066338032 -0.0118397465 -0.017137146 -0.014938529 0.0021791095 -0.0012185157
0.007746288 -0.013290481 -0.009114742 0.0080262115 -0.01729256 -0.009241546 0.011182676 -0.012513925
0.0041455203 0.00083393796 -0.019913571 -0.010798295 -0.009336837 -0.01952652 0.008791357 -0.015760677
-0.00088552514 -0.008785518 -0.014407753 -0.0033973884 -0.0015502863 0.00051842025 0.011553318 -0.015005355
0.009065791 -0.017858254 0.0038177797 -0.022544105 -0.022348776 0.0058134054 0.007411165 0.0029407532
0.006806411 -0.022360504 -0.013339601 -0.00549231 -0.0067442134 -0.010314062 0.009860767 -0.008096695
-0.014896221 0.0098291235 0.016474506 0.016436348 0.013177634 0.005726777 0.0136050265 -0.00664731
0.011292488 -0.010569518 -0.015224642 -0.014067635 0.008081278 0.01769756 0.011729 -0.004386232
-0.0029223172 0.008550562 0.0004315327 -0.0056950385 0.015054459 0.01772195 -0.003423325 -0.0115806805
0.0023080397 -0.0057601254 0.0076150396 0.017282616 -0.003366924 -0.007600713 0.005818548 0.004679385
-0.016067198 -0.016952617 0.02085872 0.005773945 -0.015390222 0.0030824651 0.008518482 -0.0057582753
-0.0010477401 -0.021393316 0.01065949 0.00095977075 0.010337373 0.018297821 -0.0207323 -0.010442576
0.01383081 -0.020623263 -0.008308945 0.012821116 0.002116998 -0.010577656 -0.006577815 0.0062629413
-0.0036741346 0.0087681245 0.012304541 -0.003716227 -0.0020909517 -0.016502589 -0.020471683 0.010022593
0.011197783 0.002791092 0.0025828667 -0.01993002 0.0026586975 0.019164344 -0.006689662 -0.012373523
-0.003598624 0.0018920199 -0.0053482433 -0.02087694 -0.0012719133 0.0043299515 -0.011835981 0.01212509
0.0071224375 -0.0014245396 0.017098023 -0.00015969574 0.013744412 -0.010545737 -0.0056732893 0.006809648
-0.0132078575 -0.015695836 -7.123873e-05 0.012382112 -0.007627746 -0.0025676654 -0.02291939 0.003382862
-0.002618928 -0.023211058 0.007930477 -0.002367627 -0.018123167 -0.0152587425 0.00038767184 -0.00016057595
-0.016968332 -0.0075241104 -0.008466546 -0.016629675 -0.022639541 -0.0060878275 -0.015032995 0.005654237
-0.022073593 0.0039167698 0.0031012387 -0.008403242 0.004955824 0.0061647743 -0.005934552 -0.019523796
-0.018855881 0.009433999 -0.0071312753 -0.006547961 -0.0022162073 0.009316221 -0.009582973 -0.0055776043
-0.02042085 -0.0037869234 -0.01637377 -0.0139148915 0.009011211 0.0030833124 -0.00668576 -0.005141777
0.006283509 0.008140696 -0.014269701 0.0028867377 -0.005193 -0.016077552 -0.01718993 -0.013105222
0.0033842323 0.0010186936 0.0098214215 0.008595198 0.008739943 -0.0015274067 0.0036200718 -0.008855095

fc1.bias f4 [2]
00000000: 6598 78bc ae14 23bb
-0.015173052 -0.0024884152

fc2.weight f4 [3136, 2]
00000000: 3b8f 02be 2110 9cbd ecb0 24bf 1791 23bf
00000010: e6cc 2cbf 40b3 9cbe 60cc 873c e889 913e
00000020: 95bd 953e 7d0d a83e 072b af3d 5e2a 853e
00000030: a4d5 673e a24b a03e 324e 953e e5e8 a33e
00000040: dcd8 6c3e e6bd cb3e 8463 bc3e 3f0c b9be
00000050: 000f febc 102a 0b3d 92b0 a63e 2c66 ad3e
00000060: 00ed 6abd bacc 913e cd79 2a3f 56e3 b03e
00000070: 2f7e d4be 7932 fb3e 4162 1bbf 00c9 ea3b
00000080: 747f bdbe ecae 863e 4d0d c0be 03c4 41be
00000090: b157 67be ef87 ffbe 40d7 05be 40fb 443e
000000a0: f0b2 5dbd 3fe0 293f 24cd 0abf ae17 c13e
000000b0: 802c 7c3e e701 d6be 627c d83e fcae 333d
000000c0: 6f32 f13e 6de9 1abf 7053 493e eeda d0be
000000d0: 8ca5 24be db6f 043f 1df6 2e3f ea37 d7bd
000000e0: 66dc 183f bbe2 0bbf 9c56 2ebe 1281 57be
000000f0: 6461 bcbe be55 15bd 18a5 34be f18d 2a3f
00000100: 1582 25bf 8881 9dbd fa6b 943e 6028 d1bc
00000110: feb4 48bc 9e5b 8dbe 47b1 18bf 78fe 78be
00000120: 29bc 6bbd a9f9 053f b850 00bf 8624 1cbf
00000130: 7946 273e 527e 21be 7424 48be 91bc 5c3e
00000140: a8d1 f4be c0aa 6bbc ff2e 31bf c3fa 08bf
00000150: bb23 10bf cd95 94be 12ac 28bf 71c7 203f
00000160: 4f7c cbbe 54e6 b2be 608d 963c 828c 03bf
00000170: 12c8 33bf 0050 cb3d 6515 853e f356 debe
00000180: 11c4 183f c176 e33d a3bc 223f 2f28 013f
00000190: f7b5 ba3e 9f34 eb3e 80c3 4a3e e4fc 3ebe
000001a0: 9789 0b3f 3ca8 603e 6f1e d43e c60d 1f3f
000001b0: bc20 c0be b907 1fbf ed8c ecbe b0f2 a7bb
000001c0: 68f5 1b3f f0aa 87be dffb 523c e3b0 0abf
000001d0: 2641 243f 8e75 7fbd 81a1 0cbf 0590 573d
000001e0: 10b2 3e3d 40d9 99be 6312 e2be cd87 d3bd
000001f0: 5b52 a83e f3e0 083f 27bb 9ebb a26d d8be
00000200: 2494 393e 0dde 023f 0084 8a3b 3d7a 143f
00000210: 8b65 c9be 3e5a d03e 93b5 16bf 4039 193f
00000220: 4201 c4be 3dd3 103f 960e 78be bccc 2bbe
00000230: f073 fbbd fa6b 24bf 3bd6 2cbf 8556 e33d
00000240: cb70 183e 39eb 11be d995 1fbd 24ae 4b3e
00000250: c6ec a83e 009e 87bc e00d 76bd 4067 ea3d
00000260: 438e 803e 478c e03e cef7 bb3e 8d0e b7be
00000270: eb6d 323f da98 b4be 28f7 233e f506 0a3f
00000280: f4ff 2bbf 2154 f33e e46c f3be b6cb 643d
00000290: d059 203e d702 f6be b0f7 b9be 95bf 2e3f
000002a0: 3b6b ebbe bc3f 8cbe e407 553e 4afb e63e
000002b0: 12e4 e63e c75b 193f 719c b1be fade 323f
000002c0: 5861 f33d 189c e1be f03f fabe 6bb0 0f3f
000002d0: 074e 6ebd 62e2 01bf 5c76 fdbe 205b 253e
000002e0: f8ee bf3d 9171 8e3d 8981 393e 3c85 2d3f
000002f0: e03d 42bd 3a13 a8be dab6 063f d536 393d
00000300: 000a 353c 508f 303d 9df6 93bd 4bfd c3be
00000310: 6cca 31bf d2d1 12bf 6dd5 303f c968 2f3f
00000320: 2bba 0dbf 961d b43e 4720 1fbf d9b9 cb3e
00000330: c098 31bc d098 653e e550 08bf c744 0f3f
00000340: 158b 043f 13a1 afbe 0092 1abe 08ad d63d
00000350: 2c7e d3be 7062 45bd 7662 243f 344e b53e
00000360: 711d d7bd 4da2 143f 70e9 493e 00db 09bc
00000370: 68e2 28bf 12b5 f43e d09b 433d bd33 0d3f
00000380: 441b 1bbe b2f3 1dbf 2d23 283f 20a5 253d
00000390: 814b 0f3f bd5d 13bf 4bba e13e b0a8 3ebd
000003a0: c881 55be 3e30 cdbe 0b7b ccbe b97b 1e3f
000003b0: 02b4 0dbf 3fba 213f 3933 b63e 6706 6d3e
000003c0: 9e3e 27bf 408d 52be 6483 cebe 7002 bbbe
000003d0: 39a6 cd3e d66b f9be ae46 28bf b066 513e
000003e0: ca7f dc3e 0e46 a43e 8c37 2fbf 36c5 22be
000003f0: ff8b 0f3f dbd2 2ebf de0a 0dbf de46 dd3e
-0.1274995 -0.07620264 -0.6433246 -0.63893265 -0.6750015 -0.30605507 0.016576946 0.28425527
0.29246202 0.3282279 0.08553129 0.26008886 0.22640091 0.31307703 0.2916122 0.32013622
0.231296 0.3979332 0.36794674 -0.36142156 -0.031013012 0.03397566 0.32556587 0.33867013
-0.057354927 0.28476506 0.66592103 0.34548444 -0.4150252 0.49061945 -0.606968 0.0071650743
-0.37011302 0.2630533 -0.37510148 -0.18922429 -0.22592045 -0.49908397 -0.13070393 0.1923647
-0.054125726 0.663578 -0.5421927 0.3771338 0.2462635 -0.41798326 0.42282397 0.04386805
0.4710879 -0.6051243 0.19660735 -0.4079203 -0.16078776 0.5173318 0.6834429 -0.10508712
0.597113 -0.5464284 -0.17025226 -0.2104533 -0.36793053 -0.036458723 -0.17641103 0.66622835
-0.64651614 -0.07690722 0.2898863 -0.025531948 -0.012250183 -0.2760896 -0.59645504 -0.24315822
-0.05755249 0.52334076 -0.5012317 -0.6099323 0.16335477 -0.15770844 -0.19545156 0.21556307
-0.47816205 -0.014383972 -0.69212335 -0.5350763 -0.5630452 -0.2902054 -0.6588756 0.62804323
-0.39743277 -0.3494135 0.01837796 -0.5138627 -0.7022716 0.09927368 0.25992885 -0.43425712
0.59674174 0.11106635 0.63569087 0.5045194 0.36466953 0.45938584 0.1980114 -0.18651158
0.5450682 0.21939176 0.4142947 0.6213039 -0.37524974 -0.6212116 -0.46201268 -0.005125366
0.60921335 -0.26497602 0.012877434 -0.5417616 0.6416191 -0.06236797 -0.54933935 0.052627582
0.046556532 -0.3004856 -0.44154653 -0.10328636 0.32875332 0.53468245 -0.0048440876 -0.42271143
0.18122917 0.5112007 0.0042271614 0.5799902 -0.39335284 0.4069385 -0.5887081 0.5985298
-0.3828221 0.56572324 -0.24224314 -0.16777319 -0.12277973 -0.6422726 -0.6751439 0.11100487
0.14886777 -0.14249887 -0.038961265 0.19890648 0.32993144 -0.016554832 -0.060071826 0.114454746
0.25108537 0.43857023 0.36712497 -0.3575329 0.6969897 -0.35272866 0.16012251 0.53916866
-0.6718743 0.47525123 -0.47544014 0.055858336 0.15659261 -0.48049042 -0.36321783 0.6826108
-0.45980248 -0.27392375 0.20803791 0.45113593 0.4509588 0.59905666 -0.34689668 0.69871485
0.11883801 -0.44064403 -0.48876905 0.5612857 -0.05817988 -0.5073606 -0.49504364 0.16148043
0.093717515 0.06955255 0.1811582 0.67781425 -0.04742229 -0.3282717 0.5262276 0.045218308
0.0110497475 0.043105423 -0.07224772 -0.38279185 -0.69449496 -0.5735141 0.6907566 0.68519264
-0.55362195 0.35178822 -0.62158626 0.39790228 -0.010839641 0.22421575 -0.53248435 0.5596432
0.5177472 -0.34302577 -0.15094757 0.10482222 -0.413072 -0.04818958 0.6421274 0.35411227
-0.105036624 0.5806015 0.19717956 -0.00841403 -0.6597047 0.47794396 0.047756016 0.5515707
-0.1514712 -0.61699975 0.65678674 0.04044068 0.55974585 -0.5756491 0.44087443 -0.04654759
-0.20850289 -0.40075868 -0.39937624 0.61907536 -0.55352795 0.63174814 0.35585955 0.23146974
-0.6532992 -0.20561695 -0.40334618 -0.36525297 0.4016588 -0.48715085 -0.6573285 0.20449328
0.43066245 0.32084697 -0.6844413 -0.15895543 0.5607299 -0.6829049 -0.55094707 0.4321813

fc2.bias f4 [3136]
00000000: c2ce 5fbc 21d5 84be 5c05 0abf c0fb 8dbe
00000010: f49b 8d3d 7164 813e cb4c 11bf 2c82 1b3f
00000020: bb3b 24bf 173f 093f 0ec4 9cbe 808d c43e
00000030: da50 2ebf c5b6 90be a8ca 5a3e 1e64 ffbe
00000040: 025f b23e 6045 3e3f 65b4 fd3e 687e bebd
00000050: 42ab 00bf 2200 f6be 5378 a7be a5aa 323e
00000060: 4557 d93d dea2 28bf 2c0d 51be e9f9 aa3e
00000070: e4ec da3e ee00 23bf 52cf b53e 1075 f3bd
00000080: 00c2 febb 9cd2 63be c594 2b3f f1ea cfbe
00000090: c4e5 183e 20f6 15bf 76c4 5b3f 16f4 1c3f
000000a0: 70a9 3cbd e5fe 033e d90a aa3e a0b7 84bd
000000b0: 939f 0c3e 9b07 0abf 205c 0ebd b208 6c3e
000000c0: c3e4 b43d 46fc febe 44f6 9b3e 8e73 1fbf
000000d0: 1540 8fbe e3fb 183f ac24 0dbf 1bde 633c
000000e0: d97f 113e 9601 ff3d d879 523e 3f72 4d3e
000000f0: 7c17 27bf a1c8 053f b9d1 733c 6512 433d
00000100: 6050 1ebf 9b04 b1be 17dc aebe 266e 0f3f
00000110: 40c8 e03e 9476 3bbe a27d c8be e244 9f3e
00000120: b8c4 1b3f 3950 3c3f d8dc aebd 797b cbbe
00000130: 1159 c83e 60c4 26bd f26c b8be 88f1 59be
00000140: 7bc9 0a3f bfcd 9b3d a3c3 2e3f 69b4 f0be
00000150: af51 e53d c067 febc 4746 413f fa43 3dbb
00000160: 5300 aabe 17e0 efbe d111 c3ba 8a89 e0be
00000170: ad91 a73e a07f ea3e 1067 84bd de91 d13e
00000180: 30b5 10be 2a66 a63d 94d4 183e 6c1a aebe
00000190: 50db 45bd 50ca 713e 3eef 31bf 49e3 f93e
000001a0: f58b f3be 80b2 ddbd d7de a6be 1472 833e
000001b0: 9e1b 253f b438 82be 20c6 f2bd 6ef3 d7be
000001c0: 7020 a6bd b0ee 72bd 9ad2 b0be 72bb 163f
000001d0: b4ce 29bf 3682 f63e 9808 923c 4984 c13e
000001e0: a030 1dbe cf3f 283e 14e7 8d3e ee02 363f
000001f0: 3ca8 003e c127 d23e 7dfe 023f 0f50 c8be
00000200: 70b7 09bd 1481 3bbe 1091 a3bd 292c c4be
00000210: 653a 01bf d0c2 41be 2945 d73b 68b5 03bf
00000220: 5643 8c3d 8183 31bb 888f f9bd a63c f03e
00000230: 2297 10bf 9a68 febe bb98 143f a131 f43c
00000240: e593 33bf e03a e4bc 6ec6 9abe 10ec c4be
00000250: 87a4 bc3e 733c c73e a46b 44be 5136 083f
00000260: 6226 5b3d 8417 923e 861c 703e 0fab b6be
00000270: f036 1abe e616 433e 9382 07bf 73f8 273f
00000280: 0c3f 1dbf 50d9 eabe 11bb e83e a162 87be
00000290: ba2e 1dbc a79b 80be a0f1 2dbd 1a63 ba3e
000002a0: 8989 93be 90e1 57be a05c 83bc 3ba9 923e
000002b0: c3d3 433e 9609 17bf f757 e4be aa26 15bf
000002c0: c901 16bf a603 acbe fead 623c 08fc 1e3e
000002d0: c814 f4bd bd8f b63e 1bbc 973e 8484 39be
000002e0: 89bd e83e 0b52 ee3d 5a1e 953e a287 d83e
000002f0: 4e21 d6be 4ddd c4be 076f fc3e 4e32 1d3f
00000300: 1bba f1be b030 5dbe e779 133f d3b3 613e
00000310: 5d5d 8b3e 210f 013f 2ef4 5ebe e941 0ebf
00000320: e03f 263f 0a68 c93e 36e9 bd3e 7410 61be
00000330: f751 93bb 1020 f33e a227 05bf 9e1e 1d3f
00000340: c04c 06bd f027 123f d201 6f3e df43 0abf
00000350: 4053 0cbc 29b1 5f3e 423a c03e 28c9 efbe
00000360: 0366 e33e 2814 ac3e f53a a63e a43b 0ebf
00000370: bc69 febe b0ab a8bd 5247 213f facb e8be
00000380: c762 30bf 50f5 34bd d84c b7be 9c4b c5be
00000390: 6258 65bb 5ca9 08be e4b9 d13d a9f5 f73e
000003a0: 2dad 8fbe 48a7 ec3d acce 2dbf dbc0 103f
000003b0: aa36 383e 4c45 2c3f ccd4 893e 3635 963e
000003c0: 3502 1b3f 744a 27be 6020 0abf b006 35bd
000003d0: e459 313f b1ad e8be 3bd2 0c3f dd97 003f
000003e0: 10b2 23bd 714d f63d ff3d 8c3e 054d 023f
000003f0: a885 c83e 5601 013e 0b43 eb3e 7644 cb3e
-0.013660135 -0.25943854 -0.5391443 -0.27731133 0.06914511 0.25271943 -0.567578 0.607455
-0.6415364 0.5361189 -0.30618328 0.38389206 -0.6809212 -0.28264442 0.2136637 -0.4988107
0.3483811 0.7432461 0.49551693 -0.09301454 -0.5026132 -0.48046976 -0.32708988 0.17447908
0.106123485 -0.65873516 -0.20415181 0.3339379 0.42758858 -0.63673294 0.35509735 -0.11887562
-0.0077745914 -0.2224831 0.6702388 -0.40608934 0.14931399 -0.5857868 0.8584665 0.61309946
-0.046060026 0.12890203 0.332114 -0.06480336 0.13732748 -0.53917855 -0.034755826 0.23050192
0.08832695 -0.49801844 0.30461323 -0.622857 -0.27978578 0.5975935 -0.5513408 0.013907935
0.14208926 0.12451474 0.20554292 0.20063113 -0.6527021 0.5225926 0.014881545 0.047624964
-0.6184139 -0.34573826 -0.3415229 0.5602745 0.4390278 -0.18306953 -0.3915835 0.3110724
0.60847044 0.7355991 -0.08538216 -0.3974264 0.39130452 -0.04071462 -0.3602062 -0.21283543
0.54213685 0.07607602 0.6826727 -0.47012642 0.111972205 -0.031055331 0.7549786 -0.0028879629
-0.33203372 -0.46850654 -0.0014882629 -0.43854934 0.3272833 0.45800495 -0.0646497 0.409316
-0.14131618 0.08124955 0.14924842 -0.34004533 -0.048304856 0.23612332 -0.6950568 0.48806217
-0.47567716 -0.10825062 -0.32591888 0.25672972 0.64495265 -0.25433886 -0.118541956 -0.4217791
-0.08111656 -0.05930966 -0.34535676 0.5887977 -0.6633103 0.48146218 0.017826363 0.37796238
-0.1535058 0.16430591 0.2771536 0.7109822 0.12564176 0.41045955 0.5116957 -0.3912358
-0.033622205 -0.18310958 -0.07986653 -0.38314942 -0.5047973 -0.18921971 0.006569524 -0.5144868
0.06848781 -0.002708644 -0.121855795 0.4692127 -0.5648061 -0.4968918 0.5804555 0.029808821
-0.70147544 -0.027860105 -0.30229515 -0.3846135 0.36844274 0.38913307 -0.19181687 0.5320788
0.0535034 0.28533566 0.23448381 -0.35677382 -0.1506002 0.19051704 -0.52933615 0.6561348
-0.61424327 -0.4586892 0.4545522 -0.26442435 -0.00959366 -0.25118753 -0.04246676 0.36403733
-0.28815868 -0.21082139 -0.016035378 0.28644738 0.1912375 -0.58999 -0.44598362 -0.5826212
-0.58596474 -0.33596534 0.013835428 0.1552583 -0.11918026 0.3565654 0.296357 -0.18116957
0.45457104 0.11636742 0.2912472 0.4229098 -0.41822284 -0.3845009 0.49303457 0.61404884
-0.472123 -0.21600604 0.57607883 0.22041254 0.27219668 0.5041371 -0.21772835 -0.5556932
0.64941216 0.39337188 0.37091988 -0.21978933 -0.004495855 0.474854 -0.520136 0.61374843
-0.03278804 0.5709219 0.23340538 -0.54009813 -0.00856477 0.21844925 0.37544447 -0.46833158
0.44413766 0.33609128 0.32466856 -0.55559754 -0.49690044 -0.08235872 0.6299945 -0.45468122
-0.6890072 -0.04417926 -0.35800815 -0.38534248 -0.0034995307 -0.13345855 0.10240534 0.4842961
-0.2806181 0.11555344 -0.6789348 0.56544274 0.17989603 0.6729324 0.26920164 0.29337472
0.6055024 -0.16336995 -0.5395565 -0.04419583 0.6927779 -0.45445016 0.55008286 0.50231725
-0.039964736 0.120264895 0.2739105 0.5089877 0.39164472 0.12598166 0.45949587 0.3970067

deconv1.weight f4 [64, 64, 1, 1]
00000000: b07b bfbc 5cf3 a0bd 8018 b7bd 232c 5abd
00000010: b7d3 babc 4573 a53b a35f 563c 1da0 fb3d
00000020: e8f2 04be cf89 f23d ece0 dd3d 1549 e33d
00000030: 9e8b b7bd 684d d03d 5190 8ebd d83f ff3b
00000040: 2c18 55bd 6ac7 a03d c8a6 e7bd 47f1 5f3e
00000050: 5225 013d 5219 cfbd 5e42 cb3d 44c7 08be
00000060: 2a9d 943d 212d b9bc 808b 69bd 4b08 fdbd
00000070: 595d cabd b617 a43d 69d3 963c 5816 30bd
00000080: f199 62bd f226 07bd f3ad 113e eeeb a3bd
00000090: 79f8 8cbd e7ea 3bbd 5346 4ebd aef1 703c
000000a0: 10e4 2cbd 50f0 2ebd 1d3f d7bd 903b a73d
000000b0: b587 f63a 0a7e ce3d adff 533d 9ee2 7bbd
000000c0: 1436 9e3d 3ce3 c73d c987 2dbd 29ff dc3d
000000d0: 99ec 87bd 499b 16bc fc6d fabd 64ba efbd
000000e0: cf6d 8abd 0fcd 22bc c018 383d 922a d13c
000000f0: eb55 8fbc a0ac 133d ee7b 9b3c f82c c9bd
00000100: bbdf af3d fe44 25be 6648 c43d 0dc4 a5bc
00000110: e023 45bd e0da a9bd e445 8b3d fd18 183d
00000120: e0f2 8a3d 8e87 27bd 0eb5 c6bc 2f36 e9bd
00000130: 81ee a1bd 9637 84bc 8571 9bbd adb8 d33d
00000140: 4016 60bc bb25 f3bd 224f cd3a 82fd e0bb
00000150: d458 eebd e55f ef3d 090b 3bbd b6aa 6f3c
00000160: c889 413d 7b10 dc3d e9d9 4a3c 42d2 0ebe
00000170: 608f 013d 5484 f1bd 7f0c 473e 5861 d2bc
00000180: 0309 8c3d 12c6 8b3d a7fb 4bbc 0ecc 8cbd
00000190: bd3a 03be 8936 e8bc cb6f 5cbd 2d6b bc3d
000001a0: decd fabd 17d6 a53d f2d3 f93d 6f6e 5ebd
000001b0: 470d 80bd 4008 26bd 317a 2ebe cd7e b83d
000001c0: b98c b3bb 1bf0 b93d b94e ea3d 1c84 ed3b
000001d0: cd37 e1bc 6e14 5a3d b6a6 e83d c09b 44bd
000001e0: 7203 0cbc 5778 01be 1e28 68bd 273b 8b3c
000001f0: bedc 32bd 1b3b 76bd a25a 343c 67b9 a23c
00000200: c72a 76bd 8512 d53d 33e3 7e3c 46aa 6abc
00000210: 301a 7fbd a9d2 bb3d fdf8 d7bd 6d35 b5bd
00000220: 4d49 d63d 10bb 1e3d 0ce6 123d 516e c53c
00000230: 63a7 b93d abef 4bbd 7614 22bd 165a 5abd
00000240: 0050 fa3d cd89 aebd b0c7 26bd 8579 bbbd
00000250: 1cdf 67bd 4820 323d 7ac6 873d e281 bcbd
00000260: ec2b aebd d739 62bd 0e60 123d 4b0b e1bb
00000270: 8012 b5bd 2c4e bdbc 0de2 71bd 5ce3 4cbd
00000280: f1ca d0bd 65be a63d 2894 98bd 3322 1a3e
00000290: 1ecb 3bbc b613 eb3d 5e44 8abd 0124 bc3d
000002a0: 8cfd 8fbd 8ea9 a33d a455 5dbd 677b 9bbd
000002b0: 890a 80bd dc1b c6bd d69c 76bb 5b67 eb3d
000002c0: dc87 17bc 276e 2f3d f5a9 9bbd 27b6 55bd
000002d0: 258d 8abd 6491 18bd 937b 20bd 4d3c 3c3d
000002e0: 5b41 01be 108d a9bd fb15 01be f5e4 16bd
000002f0: 9d99 753d 82fb fb3c 2a00 76bd 8655 2c3d
00000300: 2840 813d 192e bb3d 90bf c33d a511 29bc
00000310: 7d0b 0cbd b56c b2bd ca25 d5bd 2e9f 143d
00000320: bda4 d3bc 95e0 b8bd f376 e9bd a738 b33d
00000330: da1f 87bd 225a a53d 352f 973d 217d e83d
00000340: 5069 f13c b5db 97bc baa8 24bd a945 48bd
00000350: 12b7 e7bd 32af aabd ff70 36bc f7c8 503b
00000360: 8cec 8b3d af6e 943d 520c a43d f122 c4bd
00000370: 5e9d b7bd 8380 813d 6649 783c 00a4 e33d
00000380: f60d 863d 3c30 18bc 1f68 b13c 45a5 683d
00000390: 169c 36bc b199 db3c 4705 843d a14e 59bd
000003a0: fc29 adbd ac29 333d e47c 05be 458b b6bd
000003b0: 49ec d33d 4b94 dfbc e382 443d 25c1 e1bd
000003c0: b5c5 bb3d 746b 4abd 9334 e63d 1760 1d3c
000003d0: 2b33 ad3c 33e7 e0bd fc39 653d d4d2 683d
000003e0: c94e 4d3d 448f 233c f094 51bc afcf 85bd
000003f0: 2f38 73bc b434 493c 45ba 06be 8543 b83d
-0.023374408 -0.07858917 -0.0894022 -0.05326475 -0.022806032 0.0050491416 0.013084325 0.122863986
-0.12983286 0.11842691 0.10833916 0.11097924 -0.08962177 0.10171014 -0.0696112 0.007789593
-0.052025005 0.07850535 -0.11311108 0.21869384 0.031529732 -0.10112251 0.09924768 -0.13357264
0.07256539 -0.022604527 -0.057017803 -0.123550974 -0.09881086 0.08012335 0.018411355 -0.04299006
-0.05532259 -0.032996126 0.14226513 -0.080039844 -0.0688333 -0.045878317 -0.050360035 0.014706058
-0.042209685 -0.04270965 -0.10510085 0.081656575 0.0018808754 0.10082634 0.051757503 -0.061495416
0.07725158 0.097601384 -0.042365823 0.107908554 -0.06636924 -0.009192296 -0.12228009 -0.11705473
-0.067592256 -0.009936585 0.04494548 0.025532994 -0.017497024 0.0360533 0.018979993 -0.0982303
0.08587595 -0.161396 0.095841214 -0.020235086 -0.048129916 -0.082937 0.0680044 0.037133206
0.06784606 -0.04090076 -0.024256255 -0.11387288 -0.07906819 -0.016139787 -0.075900115 0.103379585
-0.01367718 -0.11872431 0.0015663842 -0.006866158 -0.11638036 0.11688212 -0.04566482 0.014628103
0.04725054 0.10745331 0.012381055 -0.13947394 0.031630874 -0.11792818 0.1943836 -0.025681183
0.06837656 0.06824888 -0.012450135 -0.06874858 -0.12815376 -0.028346317 -0.05381755 0.0920013
-0.12246297 0.08097475 0.121986285 -0.054304536 -0.062525325 -0.04053521 -0.170388 0.0900856
-0.005479422 0.090789996 0.114407964 0.0072484147 -0.027492428 0.05324214 0.113599226 -0.048000097
-0.008545743 -0.12643562 -0.056678884 0.01699598 -0.043667547 -0.06011496 0.011007937 0.019863797
-0.06009939 0.10403923 0.015557098 -0.014322823 -0.062280834 0.091710396 -0.105455376 -0.08848081
0.104632 0.038752615 0.03586392 0.024100455 0.090651296 -0.049789112 -0.039570294 -0.05330857
0.1222229 -0.08522377 -0.04071778 -0.091540374 -0.056609258 0.043487817 0.06629653 -0.09204461
-0.08504471 -0.05523094 0.035736136 -0.0068678013 -0.08841419 -0.023108564 -0.05905347 -0.050021514
-0.10194958 0.081417836 -0.074501336 0.15052108 -0.011462001 0.11478369 -0.06751321 0.09186555
-0.07030782 0.07991324 -0.05403675 -0.075918965 -0.062520094 -0.096732825 -0.0037630103 0.11494323
-0.0092487 0.04282966 -0.07600776 -0.052175667 -0.067652024 -0.03724803 -0.03918035 0.045955945
-0.12622587 -0.08278859 -0.12606041 -0.036839444 0.05996095 0.030759577 -0.06005875 0.04207375
0.06311065 0.09139652 0.09558022 -0.010319148 -0.034190644 -0.087121405 -0.10407598 0.036284618
-0.02583539 -0.090272106 -0.11399641 0.0875104 -0.06597872 0.08073832 0.07382051 0.113519914
0.029469162 -0.018537382 -0.040199973 -0.048894558 -0.11314215 -0.08334197 -0.011135339 0.0031858066
0.06832227 0.07247674 0.080101624 -0.09576977 -0.08965562 0.0632334 0.015154218 0.11115265
0.065456316 -0.009288844 0.021656094 0.05679824 -0.011145612 0.026806684 0.06446319 -0.053053502
-0.084552735 0.043740913 -0.13035923 -0.08913282 0.10347802 -0.027292391 0.047976386 -0.110231675
0.09168569 -0.04941888 0.112404965 0.009605429 0.021142563 -0.10981598 0.0559635 0.056841686
0.050123964 0.009982888 -0.012791857 -0.06533753 -0.014844938 0.012280632 -0.13156994 0.08997253

deconv1.bias f4 [64]
00000000: 7ffb dd3b a902 9c3d d50e a73b 1dbf a7bc
00000010: 869f 6d3d 8f24 a93d ff30 963d 275f 9c3d
00000020: d2a7 3a3d 7bd3 d93d 9aa3 c63b 1ae8 c6bc
00000030: 7d66 f23b eda9 0d3d e5f2 97bd b807 213d
00000040: 0c47 dabd d1bd b7bd 166e 603d f48b b1bc
00000050: 4963 363c ea74 b53c 8736 4d3d 0f71 39bd
00000060: c6a7 3ebd c8c1 073b 2c05 d7bd 3736 9d3d
00000070: 77c2 483c b5d1 8d3b afab 46bc f881 efbd
00000080: 24bc 9bbd 740f 533d 4f31 99bc 0c64 1a3d
00000090: 04ff 81bd aaff db3d 99f9 d6bc ca6f 513d
000000a0: 1409 5abd 0498 d73b a1aa 1bbd 9f0a 463d
000000b0: b5d6 66bd 129d c33d 245a 41bd bc6b 853d
000000c0: fc19 a73d 1f9c fc3c d7c4 843c bbd2 393b
000000d0: 677a 5b3c 66cf d43c e89c cdbd 78fa 69bd
000000e0: e2c6 f83d 0853 903d 167a a3bb aebb bf3c
000000f0: ec8c cc3d 1343 90bb 5f95 6f3c ae86 d43d
0.0067743654 0.07617695 0.0050982037 -0.020476872 0.05801346 0.08258926 0.07333564 0.07635336
0.045570202 0.1063604 0.0060619833 -0.024280597 0.0073974715 0.034585882 -0.07419375 0.039314
-0.10658082 -0.089717515 0.054792486 -0.02167318 0.01113207 0.022150476 0.05010083 -0.045273837
-0.04654672 0.0020714868 -0.10499033 0.07676356 0.012253395 0.0043279775 -0.0121258935 -0.116947114
-0.07604244 0.05152841 -0.01870027 0.03769307 -0.063474685 0.107421234 -0.026242064 0.051132
-0.053231314 0.006579401 -0.03800452 0.048349973 -0.056357104 0.09551443 -0.047205105 0.06514689
0.08159253 0.030836163 0.016207142 0.0028354365 0.013395882 0.025977802 -0.10039693 -0.05712363
0.12147309 0.07047087 -0.004988919 0.023404922 0.09987816 -0.004402527 0.014623015 0.103772506
