Pytorch/AutoEncoder/saved_models/Chan_mnist.pt (torch, 17775 bytes, 15 tensors)

conv1.weight f4 [4, 1, 3, 3]
0	0xbddab7fc	-0.106796235
1	0xbdbadd6c	-0.09124264
2	0xbe6e7b6e	-0.23289272
3	0x3bea12c0	0.0071433485
4	0xbea7057c	-0.32621372
5	0x3d44f7c8	0.048087865
6	0xbe161b43	-0.14658837
7	0x3c8a7510	0.016901523
8	0xbd9b6084	-0.07586768
9	0x3d0ff6c9	0.035147462
10	0x3d239f02	0.039946564
11	0xbdc22be7	-0.0948103
12	0x3ed3d10d	0.4137043
13	0xbd94eaef	-0.072713725
14	0xbd679a49	-0.056543622
15	0x3de4a090	0.11163437
16	0x3dcda5b7	0.10041373
17	0x3e0a58b2	0.13510397
18	0x3e84fa85	0.2597238
19	0xbe860ce1	-0.261817
20	0x3e533d6e	0.20628902
21	0x3e0eafb3	0.13934211
22	0xbd6768f2	-0.056496568
23	0xbe3c7966	-0.18405685
24	0xbe029b2f	-0.1275451
25	0x3df651b3	0.12027302
26	0xbf0604c1	-0.52351004
27	0x3ec356ca	0.38152152
28	0x3e82730e	0.25478405
29	0x3ea89a34	0.32930148
30	0xbd01e8c5	-0.031716127
31	0x3ec43004	0.38317883
32	0xbe111eb5	-0.1417187
33	0x3ea3f4d4	0.32022727
34	0x3e183e71	0.1486757
35	0x3ebb4ff0	0.36584425

conv1.bias f4 [4]
0	0xbe3231d8	-0.17401826
1	0x3dd277f6	0.10276787
2	0x3e52875b	0.20559447
3	0x3dc6d58a	0.09708698

conv2.weight f4 [8, 4, 3, 3]
0	0x3b4a8ec0	0.003090784
1	0xbd0812d0	-0.033221066
2	0xbd33ca86	-0.043894313
3	0x3e10dd35	0.14146884
4	0xbe0f8660	-0.14016104
5	0xbd101f70	-0.03518623
6	0xbddf3e2b	-0.109005295
7	0x3d28ce7c	0.041212544
8	0x3db4f506	0.08835797
9	0xbd5af136	-0.053452693
10	0xbd83932b	-0.064245544
11	0x3cdddd48	0.027083054
12	0x3dbd3d92	0.09240259
13	0x3d937840	0.0720067
14	0xbdaded5e	-0.0849254
15	0xbb9cdee0	-0.004787311
16	0xbe05c7e0	-0.13064528
17	0xbccf79c8	-0.025326625
18	0x3e0ca023	0.13732962
19	0xbca12ee8	-0.019675687
20	0xbd6cf436	-0.057850085
21	0xbbd51960	-0.006503269
22	0xbc425350	-0.011860684
23	0x3e246ef5	0.16057952
24	0x3cd78340	0.026307702
25	0x3b6594c0	0.003503129
26	0xbc9685c0	-0.018374324
27	0xbde84130	-0.113405585
28	0x3e0beee9	0.13665356
29	0xbd563d80	-0.052304745
30	0xbd80ff28	-0.06298667
31	0xbe0a872a	-0.13528123
32	0xbe0f1452	-0.13972595
33	0x3c9735e0	0.018458307
34	0x3d92fe26	0.07177381
35	0x3d0745ac	0.03302543
36	0xbe116366	-0.14198074
37	0x3da81ac6	0.08208232
38	0x3df0bdb2	0.117549315
39	0x3db3545a	0.08756323
40	0x3decc6fa	0.11561389
41	0xbd004e1c	-0.03132449
42	0xbc9d7688	-0.01922156
43	0x3dfde6fa	0.12397571
44	0xbe203913	-0.15646772
45	0x3dea777a	0.114485696
46	0x3e4e0dc2	0.20122436
47	0x3dcfe66e	0.10151373
48	0xbe03e1fd	-0.12879176
49	0x3dcf2100	0.10113716
50	0x3abb54ba	0.0014292218
51	0x3dfe70fd	0.124238946
52	0x3e01712f	0.12640832
53	0xbda880d0	-0.08227694
54	0x3c00a6c6	0.007852262
55	0x3dc6c3b8	0.09705299
56	0x3dab9972	0.08378877
57	0xbd7e3321	-0.06206048
58	0x3cc9fd8c	0.024657033
59	0x3dfe341d	0.124122836
60	0xbd52e41a	-0.051487066
61	0xbe26d1be	-0.16290948
62	0xbe39e896	-0.1815513
63	0x3e6f8eaf	0.23394273
64	0x3a4d7e58	0.0007838956
65	0xbd96fa35	-0.07371942
66	0x3d894014	0.06701675
67	0xbddfcbca	-0.109275416
68	0x3b3ce7b0	0.002882462
69	0x3e5d27e0	0.21597242
70	0x3deba161	0.1150539
71	0x3e5672d1	0.20942236
72	0x3e11c649	0.14235796
73	0x3d8cd388	0.06876284
74	0x3b91b300	0.0044463873
75	0x3bc10a80	0.0058911443
76	0x3cc2d980	0.023785353
77	0xbdd5788e	-0.104233846
78	0xbddfc0ab	-0.109254204
79	0x3d02d8bc	0.031944975
80	0x3b74e940	0.0037370473
81	0xbde99dd0	-0.114070535
82	0x3e33405e	0.17505023
83	0xbd25d621	-0.040487412
84	0x3d796fed	0.060897756
85	0xbd337853	-0.043815922
86	0x3d64f61f	0.055898782
87	0xbd0301e9	-0.031984244
88	0xbb97b2f1	-0.004629486
89	0x3db751d6	0.08951156
90	0xbdcf5018	-0.101226985
91	0xbdad4cf0	-0.0846194
92	0xbe5fab02	-0.21842578
93	0xbe7c3c9a	-0.24632493
94	0xbd897538	-0.06711811
95	0xbe74d090	-0.23907685
96	0xbe2edef1	-0.17077233
97	0xbd1fe8c5	-0.039040346
98	0x3bd01ef6	0.006351347
99	0x3de93d4b	0.11388644
100	0x3d83ac48	0.064293444
101	0xbdcd3e74	-0.100216776
102	0x3d9557fd	0.07292173
103	0x3e5f1785	0.21786316
104	0x3df509ef	0.11964785
105	0x3db1eaff	0.086874
106	0x3de6c099	0.11267204
107	0x3e0f3a99	0.13987197
108	0xbddea9eb	-0.10872253
109	0x3e19bf11	0.15014292
110	0xbd2ba4ac	-0.04190509
111	0xbdebd31e	-0.11514877
112	0x3c3fb230	0.011700198
113	0x3c364530	0.011124894
114	0xbd7d9d56	-0.061917625
115	0x3e1f9af1	0.15586449
116	0xbdee33a0	-0.116309404
117	0x3d07b337	0.033129897
118	0x3d2714d3	0.040791344
119	0xbc50fe7e	-0.012755988
120	0x3e2f621c	0.1712727
121	0x3e06bb9f	0.1315751
122	0xbd92b465	-0.07163314
123	0xbe079883	-0.13241772
124	0xbe34bd17	-0.17650257
125	0x3c96ba72	0.01839945
126	0x3e3b54b1	0.18294026
127	0x3dc8ee19	0.098110385
128	0x3d5813a7	0.052753117
129	0x3e717d74	0.23583013
130	0x3df07392	0.11740793
131	0x3e1c1057	0.15240608
132	0x3e5f53e9	0.21809353
133	0x3e3be923	0.18350653
134	0xbcd0851c	-0.025454096
135	0x3e7c207f	0.24621771
136	0x3e36f821	0.17868091
137	0xbc3c62a2	-0.011498125
138	0x3dec8d34	0.1155037
139	0xbdee45a1	-0.116343744
140	0xbd687db8	-0.05676052
141	0xbdbaec4e	-0.09127103
142	0xbea65f41	-0.32494548
143	0xbd848ec6	-0.06472544
144	0x3daea5c2	0.085277095
145	0xbe198de4	-0.14995533
146	0x3d5b3be4	0.053523913
147	0x3d901040	0.070343494
148	0xbdb4bdd6	-0.08825271
149	0xbd93a913	-0.07209983
150	0xbd8a6168	-0.0675686
151	0x3df353da	0.11881228
152	0x3dc3117a	0.09524818
153	0xbe3b5e9b	-0.18297808
154	0xbc07c6e0	-0.008287162
155	0x3dde9aa5	0.1086934
156	0xbcf6b342	-0.030114774
157	0xbd8cc18e	-0.06872855
158	0x3d54f3f3	0.05199046
159	0x3e41d408	0.1892854
160	0x3e27d178	0.163885
161	0x3e83fcf1	0.25778916
162	0x3c3e71a0	0.01162377
163	0x3d07c943	0.033150923
164	0xbdd57ab9	-0.10423798
165	0xbdb61f59	-0.08892698
166	0xbdce3836	-0.10069315
167	0xbe0cb2d3	-0.13740091
168	0xbd30aba0	-0.043132424
169	0x3de1b45c	0.11020729
170	0x3da9e02e	0.08294712
171	0xbe02c26f	-0.12769483
172	0x3d3490b8	0.044083327
173	0x3e622002	0.22082523
174	0x3d22e3ef	0.039768156
175	0x3e2dbb7e	0.16966054
176	0xbd7cfb7a	-0.061763264
177	0x3e354868	0.17703402
178	0x3e671ec7	0.22570334
179	0x3ddaff24	0.106931955
180	0xbd8fdd1b	-0.070245944
181	0x3de18492	0.11011614
182	0xbe1c685a	-0.15274182
183	0x3d6fdf1c	0.058562383
184	0xbe07c7f7	-0.13259874
185	0x3df6f102	0.12057687
186	0x3dd9c202	0.10632707
187	0x3d8a984e	0.06767331
188	0x3dc93902	0.098253265
189	0x3e1cf9fa	0.15329733
190	0x3d48caa8	0.049021393
191	0xbe54222c	-0.2071616
192	0x3df3b10a	0.11899002
193	0x3dc92e31	0.098232634
194	0x3c9a7dcc	0.018858813
195	0x3ddcacaf	0.10775124
196	0x3dbcfd2c	0.09227976
197	0x3e016127	0.12634717
198	0x3e782b01	0.24235155
199	0xbdcec675	-0.100964464
200	0xbd3d7e41	-0.046262983
201	0x3e2ee139	0.17078103
202	0xbda9f3e1	-0.08298469
203	0x3d95a8c0	0.07307577
204	0x3e861b0b	0.26192507
205	0xbdba2427	-0.09088927
206	0xbd197937	-0.037469115
207	0xbcab4285	-0.020905742
208	0xbd208ace	-0.039194874
209	0xbeae8f20	-0.3409357
210	0x3e046de4	0.12932545
211	0xbd7a6a08	-0.061136276
212	0xbe1bf016	-0.15228304
213	0xbdce8df4	-0.10085669
214	0x3c46efe7	0.012142158
215	0x3d4a4e5a	0.049391128
216	0x3ddc7a3e	0.10765503
217	0x3d94d5a2	0.0726731
218	0x3e0a560b	0.13509385
219	0x3cc89fa8	0.024490193
220	0x3e02a3ff	0.12757872
221	0x3e0b77e5	0.13619955
222	0x3d98cc8e	0.07460891
223	0x3d051064	0.032486334
224	0xbd64ea3c	-0.055887446
225	0x3dc954fa	0.09830661
226	0x3d6ad57f	0.057332512
227	0xbd7c1508	-0.061543494
228	0x3d44784c	0.047966287
229	0xbd3592f3	-0.044329595
230	0xbddcb513	-0.10776725
231	0x3da8b184	0.082369834
232	0xbe09f59e	-0.13472602
233	0xbe0665aa	-0.1312472
234	0xbe1c1b4d	-0.1524479
235	0x3d0a2efb	0.03373621
236	0x3de5367d	0.111920334
237	0xbe0cb7cb	-0.13741986
238	0x3ba74caa	0.0051055746
239	0xbddbc5c4	-0.1073108
240	0x3d099a9f	0.033594724
241	0xbe275f48	-0.1634494
242	0xbdc37c76	-0.095452234
243	0x3d3068e9	0.0430688
244	0xbc522adb	-0.0128276
245	0xbd9b9283	-0.07596304
246	0xbe479ca6	-0.1949335
247	0xbd39e537	-0.045384612
248	0xbe1f9cc7	-0.1558715
249	0xbd060f9b	-0.032729726
250	0x3d633821	0.05547345
251	0xbd480f3b	-0.04884265
252	0xbe1d010b	-0.15332429
253	0x3ba8c800	0.005150795
254	0x3de51202	0.11185075
255	0xbe23e344	-0.16004664

conv2.bias f4 [8]
0	0xbe285dd8	-0.16442049
1	0xbdc7451e	-0.0972998
2	0x3d96d6a9	0.07365162
3	0x3ad78364	0.0016442356
4	0xbd758fe0	-0.059951663
5	0x3e0ffb58	0.14060724
6	0xbe3e4c34	-0.18583757
7	0x3df7f12a	0.12106545

conv3.weight f4 [8, 8, 3, 3]
0	0xbde05de5	-0.10955409
1	0x3c89bbc4	0.016813166
2	0x3ddeeae5	0.10884646
3	0x3c60cff8	0.013721459
4	0x3c0c9db8	0.008582525
5	0x3b350a20	0.0027624443
6	0xbcbf9548	-0.023386613
7	0x3dadc1ef	0.084842555
8	0x3d9e78a1	0.07737852
9	0xbe097ad6	-0.13425764
10	0x3bf15907	0.007365349
11	0xbdc838ac	-0.09776434
12	0x3da0d4c2	0.0785308
13	0x3e8eebe6	0.2791435
14	0x3e0969d3	0.13419275
15	0xbe3a286f	-0.18179487
16	0x3e34368e	0.17598936
17	0x3dce0f39	0.10061497
18	0x3de4bea7	0.111691765
19	0x3cec365a	0.02883451
20	0xbe8d6f4d	-0.27623978
21	0x3dec39ef	0.115344875
22	0xbcc168a0	-0.02360946
23	0x3ca1e610	0.019763023
24	0xbd40deda	-0.047087528
25	0x3e1bb326	0.15205058
26	0xbdc0c33e	-0.094122395
27	0xbc29f960	-0.010374397
28	0xbce830bf	-0.028343556
29	0x3d26c89e	0.040718667
30	0xbe17d658	-0.1482786
31	0x3da06af6	0.07832901
32	0xbe02dc86	-0.12779436
33	0x3cbf6edd	0.023368293
34	0x3e182876	0.14859185
35	0x3dbc6fc6	0.092010066
36	0x3de6092f	0.112322204
37	0xbb855af0	-0.0040696785
38	0xbf00a640	-0.5025368
39	0x3d90306c	0.07040486
40	0xbd395f05	-0.045256633
41	0xbda2ef21	-0.079557665
42	0x3e61d4f7	0.22053896
43	0xbd68051c	-0.056645498
44	0x3ca53628	0.020167425
45	0xbd3c55cc	-0.04598026
46	0x3d0cd20c	0.034380004
47	0x3e1b5c4b	0.15171926
48	0xbd90a608	-0.07062918
49	0x3e2bdfe2	0.16784623
50	0x3e6f371a	0.23360863
51	0xbd7c1078	-0.061539143
52	0x3e22550e	0.15852758
53	0xbcf4ad13	-0.029867684
54	0x3ba7f279	0.0051253405
55	0xbd48c97e	-0.049020283
56	0xbd917f4c	-0.07104358
57	0x3d974b15	0.07387368
58	0x3ddc0467	0.10743027
59	0x3d83f1d5	0.0644261
60	0x3dc4f6ec	0.09617409
61	0x3a3cbdf3	0.00071999355
62	0x3d99adea	0.075038746
63	0xbcbf52cf	-0.023354916
64	0xbd8b4894	-0.068009526
65	0x3dd39876	0.10331814
66	0xbd8393cc	-0.064246744
67	0x3c99b84c	0.018764637
68	0xbd28996d	-0.041161943
69	0x3dead5df	0.11466574
70	0xbcf3e5ad	-0.029772604
71	0x3e2c3cf5	0.16820128
72	0x3d8c1c41	0.068413265
73	0x3d7114b6	0.058857642
74	0xbd87eb5e	-0.066366896
75	0xbda36122	-0.07977511
76	0x3d72b9b2	0.059259124
77	0xbd98abd2	-0.07454647
78	0xbd741458	-0.059589714
79	0x3ae476c0	0.001743041
80	0xbd84d8cc	-0.06486663
81	0x3e254e97	0.16143261
82	0xbe0e2ffd	-0.13885494
83	0x3d123e93	0.035704207
84	0xbd1d7e40	-0.03845048
85	0x3deae533	0.114694975
86	0x3b05df8f	0.002042744
87	0x3cba017a	0.022705782
88	0xbc50be62	-0.012740703
89	0x3e0ab98c	0.13547343
90	0x3dd5ea31	0.10445059
91	0xbdd8002e	-0.10546909
92	0xbc3105d6	-0.010804614
93	0x3e042b74	0.12907201
94	0xbc77548e	-0.015095843
95	0x3b61d629	0.0034459925
96	0x3d7a54ad	0.06111591
97	0xbdbf6bb8	-0.093467176
98	0x3e11cd35	0.14238437
99	0xbd438520	-0.04773438
100	0xbd7bf2bc	-0.061510786
101	0x3dbe0069	0.09277422
102	0x3b724e3f	0.0036972908
103	0xbddb5785	-0.107100524
104	0xbc149368	-0.0090683475
105	0xbd05504c	-0.03254728
106	0xbdd5e33c	-0.10443732
107	0xbdcf20c6	-0.10113673
108	0x3db3e118	0.087831676
109	0xbddfa5f9	-0.10920329
110	0x3d98427b	0.07434555
111	0xbaf0b0ee	-0.0018363276
112	0x3c1a1f07	0.009406812
113	0x3d5094fe	0.05092334
114	0x3e0421df	0.12903546
115	0xbd13c450	-0.03607589
116	0x3dfca7e0	0.12336707
117	0xbbd4bd44	-0.006492289
118	0xbc820bc8	-0.015874758
119	0x3e0447a4	0.12917954
120	0x3d78194a	0.060570993
121	0x3cb306d7	0.021853847
122	0x3d78368c	0.060598895
123	0xbe08da45	-0.13364513
124	0x3b3ee4e7	0.0029128136
125	0x3d2e201d	0.042511094
126	0x3c99cefa	0.018775452
127	0xbdb7a0cb	-0.08966216
128	0x3d28ab56	0.041179024
129	0xbd6504e7	-0.05591288
130	0xbc9f6e06	-0.019461643
131	0xbd8f99dd	-0.07011769
132	0xbd3492c2	-0.04408527
133	0x3dbee01a	0.09320088
134	0x3d61f015	0.0551606
135	0xbca98d23	-0.020697182
136	0xbd03ef98	-0.032210916
137	0x3e226ccd	0.15861817
138	0xbe16c9b1	-0.14725377
139	0x3db01526	0.08597784
140	0x3d652a72	0.055948682
141	0x3d611607	0.054952648
142	0xbe2eebd3	-0.17082147
143	0xbf0f52f5	-0.5598596
144	0xbd3ce9f6	-0.04612156
145	0xbdab1216	-0.08353059
146	0xbd195d84	-0.0374427
147	0xbd6a6eff	-0.05723476
148	0x3d9e95c5	0.0774341
149	0x3d9b2fbd	0.07577465
150	0x3daa9611	0.08329404
151	0xbd053e8a	-0.032530345
152	0xbd315b5e	-0.043300025
153	0x3dca5f82	0.09881498
154	0x3dbfa705	0.09358028
155	0x3e161a1c	0.14658397
156	0xbd9a9f02	-0.075498596
157	0x3d304bbc	0.043040976
158	0x3d8ba05f	0.06817698
159	0x3d93111e	0.07180999
160	0x3d2e02da	0.04248319
161	0xbc57b2b2	-0.013165163
162	0x3be3cf77	0.006952222
163	0x3d8659c2	0.06560089
164	0x3d629e82	0.055326946
165	0x3e40a4c7	0.18812858
166	0x3cb95c63	0.022627061
167	0x3e1a8387	0.15089236
168	0x3d76a2b7	0.06021377
169	0xbc963f32	-0.01834068
170	0xbc327832	-0.010892915
171	0x3d192e0a	0.037397422
172	0xbc389ba5	-0.011267577
173	0xbd99c614	-0.075084835
174	0x3d76a3f5	0.060214955
175	0xbdcac3e0	-0.099006414
176	0xbc926500	-0.017870426
177	0x3d142915	0.03617199
178	0x3d5c0356	0.05371412
179	0xbd9e7dd1	-0.07738841
180	0x3d6e9895	0.058250982
181	0xbd0a2d8f	-0.033734854
182	0x3e0381ee	0.12842533
183	0x3d9fe459	0.07807226
184	0xbcfb477d	-0.030673737
185	0xbd1394eb	-0.03603069
186	0x3e11f266	0.14252624
187	0xbe09e565	-0.13466413
188	0x3c21e504	0.009881262
189	0x3d983c5e	0.07433389
190	0xbd594bc3	-0.053050768
191	0xbe7ad8cd	-0.24496765
192	0x3dbba7aa	0.09162839
193	0xbc5e36be	-0.013562856
194	0xbe2775a7	-0.16353475
195	0xbc82ccc8	-0.015966788
196	0xbd2135d5	-0.03935798
197	0xbde48273	-0.11157694
198	0xbb388dc9	-0.0028160682
199	0x3d39b529	0.045338783
200	0xbda7aa24	-0.081867486
201	0x3c5dc46a	0.013535598
202	0xbc0b6cf5	-0.008509864
203	0xbd7cbbec	-0.061702654
204	0x3dc79a38	0.09746212
205	0xbd84b9fb	-0.064807855
206	0x3da2b181	0.079440124
207	0x3d591f3a	0.053008296
208	0x3e10b55a	0.1413168
209	0x3e80b387	0.25136968
210	0x3dc23f78	0.09484762
211	0x3df16d7f	0.11788463
212	0xbdff4188	-0.12463671
213	0xbe1344f4	-0.14381772
214	0xbde5864b	-0.11207255
215	0xbe2f0814	-0.17092925
216	0xbd80d6d4	-0.06290975
217	0x3d9445d3	0.072398804
218	0xbd6aef65	-0.05735721
219	0xbdba9d98	-0.0911209
220	0x3d806791	0.06269754
221	0x3def1bf5	0.11675254
222	0x3da8f89d	0.08250544
223	0xbc5559e0	-0.013021916
224	0x3d19c616	0.037542425
225	0xbdbaf939	-0.09129567
226	0x3d7df93b	0.062005263
227	0x3a900365	0.001098734
228	0x3d55d57a	0.05220554
229	0x3db5b011	0.088714726
230	0xbde5c444	-0.11219075
231	0x3e204a31	0.15653302
232	0x3d3580fe	0.04431247
233	0xbe0fa552	-0.14027908
234	0x3d3ee9d1	0.046609703
235	0x3e11949d	0.14216848
236	0x3d3781fd	0.0448017
237	0xbd8aeccb	-0.06783446
238	0xbde9eca6	-0.1142209
239	0xbc6239d0	-0.013807729
240	0x3dfb477a	0.122694924
241	0xbbd3db49	-0.00646535
242	0x3dc0dba0	0.0941689
243	0xbd053841	-0.03252435
244	0x3d7ed926	0.062218808
245	0x3df4632f	0.1193298
246	0x3d8c8223	0.06860759
247	0x3e2a2510	0.166157
248	0x3dc245c1	0.09485961
249	0xbc1cbd28	-0.009566583
250	0x3cb616ed	0.022227729
251	0xbe6b5fea	-0.22985807
252	0x3d9ce1ad	0.07660232
253	0x3dfe24f4	0.12409392
254	0xbce4e386	-0.027940523
255	0x3deab726	0.11460714

conv3.bias f4 [8]
0	0xba038fde	-0.00050186913
1	0x3dc1807f	0.09448337
2	0xbd5dc793	-0.054145407
3	0x3c856741	0.016284587
4	0xbd744504	-0.05963613
5	0x3c76149a	0.01501956
6	0xbe0bb843	-0.13644509
7	0x3e2e142e	0.16999885

fc1.weight f4 [2, 392]
0	0xbcade74b	-0.021228453
1	0xbd1f31ac	-0.03886573
2	0x3cc6d800	0.024272919
3	0x3d88ccaf	0.06679665
4	0x3dc3f4e3	0.09568193
5	0x3e0699d0	0.13144612
6	0x3b3ac60a	0.0028499388
7	0x3d972c0a	0.07381447
8	0x3d3933e8	0.045215517
9	0x3d88bec5	0.066770114
10	0xbbabfb5c	-0.00524847
11	0xbc0baef2	-0.008525597
12	0xbdcb1ba3	-0.09917381
13	0xbcba08f8	-0.022709355
14	0x3baf7eac	0.0053556766
15	0x3e601315	0.21882279
16	0xbd2aab49	-0.041667257
17	0x3d8ac8ee	0.067766055
18	0x3c49117d	0.012272236
19	0x3dedb130	0.116060615
20	0x3e16e3b2	0.14735296
21	0xbd8fac67	-0.07015305
22	0xbd525557	-0.051350918
23	0xbbcb2ccb	-0.006200408
24	0xbcc04e7d	-0.023474926
25	0xbdae8974	-0.08522311
26	0x3e27a2bb	0.1637067
27	0x3d9980cf	0.074952714
28	0xbe2b97d2	-0.16757134
29	0x3e143c76	0.14476189
30	0x3f080b05	0.53141814
31	0xbe24cd5a	-0.1609396
32	0x3d67d313	0.05659778
33	0x3e7af616	0.24507937
34	0xbdb05ddb	-0.086116515
35	0x3e672a31	0.22574688
36	0xbd8e8f0d	-0.069608785
37	0xbd8a7ec2	-0.067624584
38	0xbe609032	-0.21930006
39	0xbdccdb77	-0.10002797
40	0x3cf6baa5	0.030118296
41	0xbdac6bcc	-0.08418998
42	0x3de39e6b	0.111142
43	0x3e86a874	0.26300395
44	0xbd9bb318	-0.07602519
45	0xbedd7531	-0.43253472
46	0x3db9dbdd	0.09075139
47	0xbd16e9bd	-0.036844004
48	0x3d48d764	0.049033538
49	0x3d979156	0.074007675
50	0x3e0380ca	0.12842098
51	0x375c10cb	1.3116932e-05
52	0x3d6ac195	0.05731352
53	0x3da6057b	0.08106514
54	0xbdc794cd	-0.09745178
55	0x3d8fb8f7	0.07017701
56	0x3d9addca	0.07561834
57	0x3e0dba24	0.13840538
58	0x3cfaf241	0.030633094
59	0x3d903e74	0.07043162
60	0x3da2b60a	0.079448774
61	0x3d4e0d99	0.050305936
62	0xbb8ffe74	-0.004394347
63	0x3d9ccec6	0.076566264
64	0x3da510a8	0.080598176
65	0xbd1ab7ed	-0.03777306
66	0x3d152925	0.03641619
67	0xbd0e7ea3	-0.03478874
68	0xbbfbb288	-0.0076811947
69	0x3d31bb8e	0.043391757
70	0x3deec9f3	0.116596125
71	0x3dc996a4	0.098431855
72	0xbc50b17a	-0.012737626
73	0x3d9e8abb	0.077413045
74	0x3c9ed28a	0.019387502
75	0x3d6cc132	0.057801433
76	0x3d859c2f	0.0652393
77	0x3d71c2b4	0.059023574
78	0x3dbc0fcf	0.09182703
79	0xbd138d4b	-0.03602342
80	0x3d8fbea0	0.07018781
81	0xbd163c94	-0.036678866
82	0xbc4125a2	-0.0117887575
83	0x3d93c719	0.07215709
84	0xbd80b01d	-0.06283591
85	0xbd951f4c	-0.0728136
86	0x3da1172a	0.07865746
87	0x3cf450f9	0.029823767
88	0x3d044e4d	0.032301236
89	0xbd214025	-0.039367814
90	0x3de92573	0.11384096
91	0xbd6fa4df	-0.058506843
92	0xbd939d51	-0.0720774
93	0xbe3043fe	-0.17213437
94	0x3ddbc896	0.10731618
95	0x3dd04d5d	0.10171006
96	0x3bc8678e	0.0061158603
97	0x3cc1a6a1	0.023639025
98	0xbe3e486d	-0.18582316
99	0xbe882b89	-0.26595715
100	0xbea73014	-0.32653868
101	0xbe91dd49	-0.2848914
102	0xbe15546f	-0.1458299
103	0xbdb83825	-0.08995084
104	0xbc0aefdf	-0.008480041
105	0xbdc67c07	-0.09691625
106	0xbda65d54	-0.0812327
107	0x3dfeac5e	0.1243522
108	0x3e74238b	0.23841684
109	0x3e061a02	0.13095859
110	0x3d813865	0.063095845
111	0x3d2aa39b	0.041659933
112	0xbe332a9e	-0.17496726
113	0xbdbfe010	-0.093689084
114	0xbc916d54	-0.017752327
115	0x3ce59210	0.02802375
116	0xbdf51bdb	-0.11968204
117	0xbe003ee6	-0.12523994
118	0x3d86a744	0.06574872
119	0xbea878d1	-0.32904676
120	0x3dd7dd70	0.10540283
121	0x3d8e43dc	0.06946537
122	0xbcc83d25	-0.024443218
123	0xbe3daeb2	-0.18523672
124	0x3d02b813	0.031913828
125	0x3e55fc09	0.20896925
126	0x3e2b1e96	0.16710886
127	0x3e0fae34	0.14031297
128	0x3df1a542	0.117990986
129	0xbc0d6219	-0.008629345
130	0xbd4444da	-0.047917224
131	0x3dd551aa	0.10415967
132	0x3e7c4a59	0.24637736
133	0x3eabff0d	0.33593026
134	0x3da5d64b	0.08097514
135	0x3e1423e7	0.1446682
136	0x3dc18f13	0.09451117
137	0x3dc1d38f	0.0946418
138	0x3e032a8b	0.12809198
139	0xbae53e4e	-0.0017489882
140	0xbe1893cd	-0.14900132
141	0xbca5d47d	-0.020242924
142	0xbcefd0bf	-0.029274343
143	0xbc5aada6	-0.013347065
144	0xbd408bd4	-0.04700835
145	0xbe2650de	-0.16241786
146	0xbe8c5293	-0.2740675
147	0x3da76145	0.081728496
148	0x3cd00402	0.025392536
149	0x3d68e9b8	0.056863517
150	0x3d5d0271	0.053957406
151	0x399e6652	0.00030212343
152	0x3d102281	0.035189155
153	0xb9bccfa2	-0.00036012853
154	0x3c8149ae	0.015782204
155	0x3e737241	0.23774053
156	0xbc989684	-0.018626459
157	0xbd3e7c4d	-0.04650526
158	0xbd035544	-0.032063738
159	0x3dd80bed	0.1054915
160	0x3b97e30d	0.004635221
161	0x3d868526	0.06568365
162	0xbc5f6fbc	-0.013637479
163	0x3d85c106	0.06530957
164	0x3cda3876	0.02663825
165	0xbcf0477b	-0.02933096
166	0xbd554b76	-0.05207392
167	0x3d0e4c19	0.03474054
168	0x3dc8b4f1	0.09800137
169	0xbe4b0db4	-0.19829446
170	0x3c865a96	0.016400617
171	0x3de27d35	0.110590376
172	0x3d2910cd	0.041275788
173	0x3bfcebd7	0.007718544
174	0x3dfec11e	0.12439178
175	0x3c5dbd2d	0.013533873
176	0xbc8da4dc	-0.017290525
177	0x3ddd9f40	0.1082139
178	0x3db28d9e	0.087184176
179	0xbdb164da	-0.08661814
180	0x3d8aef95	0.06783978
181	0x3e10b637	0.1413201
182	0xbd6d4f68	-0.057937056
183	0xbdeff435	-0.11716501
184	0x3cb5cb24	0.022191592
185	0xbdd8cb68	-0.10585672
186	0x3d728077	0.059204545
187	0x3e4734b9	0.19453706
188	0x3e0af222	0.13568929
189	0xbda44936	-0.080217764
190	0xbbf686b8	-0.007523384
191	0x3d7bdd1a	0.061490156
192	0xbd091e35	-0.033476073
193	0x3de222f4	0.11041823
194	0x3dde8c64	0.10866621
195	0xbdd2bf70	-0.1029042
196	0xbd691db8	-0.056913108
197	0xbd4597da	-0.04824052
198	0x3d3171e4	0.043321505
199	0x3d07da69	0.033167277
200	0xbcf1df0b	-0.0295253
201	0xbc09b01f	-0.008403807
202	0xbe0aa9da	-0.13541356
203	0x3d7589d5	0.0599459
204	0x3d14d59e	0.036336534
205	0x3db55bc9	0.08855397
206	0x3d65a47b	0.056065064
207	0xbcef16dc	-0.029185705
208	0xbe2e61f4	-0.17029554
209	0xbe5bff1e	-0.21484038
210	0x3cfef041	0.031120421
211	0x3e0850de	0.13312098
212	0x3daf1dfd	0.08550642
213	0x3d919dd0	0.071101785
214	0x3cd7ef27	0.026359154
215	0xbdab4ad9	-0.083638854
216	0xbd41398d	-0.047174025
217	0x3db5ffb3	0.088866614
218	0x3dcdb27d	0.100438096
219	0x3d9b46ab	0.07581838
220	0xbc917e65	-0.017760465
221	0x3e3c982b	0.18417422
222	0x3e6ea448	0.23304856
223	0x3e42bf1a	0.19018212
224	0x3d237875	0.0399098
225	0x3a7732d0	0.0009429874
226	0x3e037ced	0.12840624
227	0x3d84cbbf	0.06484174
228	0x3df56f84	0.119841605
229	0x3f09257f	0.5357284
230	0xbe5fc36b	-0.2185189
231	0xbdde1b46	-0.10845046
232	0x3d85c643	0.06531956
233	0xbe5bdaed	-0.21470232
234	0xbe7e8278	-0.24854457
235	0xbf1bc510	-0.6084757
236	0xbce70f8f	-0.028205661
237	0xbdac1128	-0.0840171
238	0xbdbfeb0f	-0.09371006
239	0xbdd6a9a6	-0.104815766
240	0xbde93c8f	-0.11388504
241	0xbd077ed3	-0.033079933
242	0xbe2a38f1	-0.16623284
243	0x3e39c418	0.1814121
244	0xbc17fc78	-0.009276502
245	0xbd1030d1	-0.035202805
246	0x3d223bd2	0.03960783
247	0xbc5e5743	-0.0135706095
248	0xbd562469	-0.052280817
249	0x3d893fff	0.067016594
250	0xbc69cf5c	-0.01427063
251	0x3d152eab	0.03642146
252	0x3d57a50b	0.05264763
253	0xbe4b8d37	-0.19878088
254	0xbdb19e45	-0.08672766
255	0xbc222c06	-0.009898191

fc1.bias f4 [2]
0	0x3e2842de	0.16431758
1	0x3db052ac	0.086095184

fc2.weight f4 [392, 2]
0	0xbf1fbe24	-0.62399507
1	0xbbee48e1	-0.0072718714
2	0xbf166d3b	-0.5876042
3	0xbe2c660b	-0.16835801
4	0x3dc6e359	0.09711332
5	0x3ec7098d	0.38874474
6	0x3df80ea4	0.121121675
7	0x3c6a4069	0.014297583
8	0xbed57cff	-0.41696927
9	0x3be69fc8	0.0070380904
10	0x3ee41b54	0.445521
11	0x3ea6914e	0.32532734
12	0xbc95b92b	-0.018276772
13	0x3cd37e33	0.025817012
14	0x3e6fd41f	0.23420762
15	0x3db56c5d	0.08858559
16	0x3e850860	0.25982952
17	0xbe6ea8f6	-0.23306641
18	0xbf3da8e5	-0.7408584
19	0x3dbd9e62	0.09258725
20	0xbdcfaf4d	-0.10140858
21	0xbadf724a	-0.0017047611
22	0xbd896659	-0.067089744
23	0x3f3f089a	0.746225
24	0xbf0385e7	-0.51376194
25	0xbc925bb2	-0.01786599
26	0x3dd70451	0.1049887
27	0xbf1599fa	-0.58438075
28	0xbd2dba6d	-0.042414118
29	0xbde4aedd	-0.11166165
30	0x3de7f25b	0.113255225
31	0x3e85b43c	0.2611407
32	0x3ea6fcce	0.3261475
33	0xbe5f3978	-0.21799266
34	0xbfaed6d7	-1.3659314
35	0x3e91cad6	0.28475064
36	0x3f0f9a39	0.560947
37	0x3e76c786	0.2409955
38	0xbeacfff5	-0.3378903
39	0x3c3a804a	0.011383126
40	0x3ef4d572	0.47819096
41	0x3e8c3d07	0.2739031
42	0x3e84d522	0.25943857
43	0x3db13095	0.086518444
44	0x3ee6548d	0.44986382
45	0xbeb6f7d5	-0.35735956
46	0xbf1d62ba	-0.6147877
47	0xbe7ad552	-0.24495438
48	0x3e0edd8b	0.139517
49	0xbe678993	-0.22611074
50	0x3f1dc838	0.61633635
51	0x3d3b55c1	0.04573608
52	0x3f7589ba	0.9591328
53	0xbe1fe0f9	-0.15613164
54	0x3e58a1d1	0.21155478
55	0xbe02a356	-0.1275762
56	0x3e9029e7	0.2815697
57	0xbeff5df0	-0.49876356
58	0x3e5f2159	0.21790065
59	0xbf03505c	-0.51294494
60	0xbe7a5eda	-0.24450245
61	0xbea3f321	-0.3202143
62	0xbe0285e1	-0.12746383
63	0x3f1c2e4c	0.61008143
64	0xbdd34898	-0.103165805
65	0xbd1ea140	-0.038728
66	0x3e91e0f6	0.28491944
67	0xbefa07c7	-0.4883406
68	0x3d44b7b5	0.04802676
69	0xbef7f50c	-0.48429143
70	0xbe9e74b3	-0.3094841
71	0x3d6cb951	0.05779392
72	0xbf15371b	-0.5828721
73	0xbf2236e6	-0.6336502
74	0x3ed0258e	0.40653652
75	0x3efb4ad9	0.49080542
76	0xbf044c78	-0.5167918
77	0xbdff5ac8	-0.12468487
78	0x3f02cb20	0.51091194
79	0xbd6c56ab	-0.05769984
80	0x3f0059d7	0.50137085
81	0x3e114574	0.1418665
82	0x3e64aac6	0.2233077
83	0xbf865484	-1.0494542
84	0xbd8614ef	-0.065469615
85	0xbedd46b2	-0.43218
86	0xbed12498	-0.4084823
87	0xbf1d3931	-0.6141539
88	0x3d9cc27d	0.07654283
89	0xbec8ef38	-0.3924501
90	0xbe1586f0	-0.14602256
91	0x3d908b06	0.070577666
92	0xbf0ce05e	-0.5502986
93	0xbef1d8f9	-0.4723585
94	0xbe0e9655	-0.13924535
95	0x3d60301d	0.054733384
96	0xbdbd464c	-0.09241924
97	0x3d6627fb	0.056190472
98	0xbf0c08f2	-0.5470115
99	0xbe087e14	-0.13329345
100	0xbe7edfcd	-0.2489006
101	0xbe0ad47d	-0.1355762
102	0xbee07966	-0.4384262
103	0xbe40dc51	-0.18834044
104	0x3e1e1ab1	0.1543987
105	0xbda82e89	-0.08212001
106	0xbeb4f408	-0.3534243
107	0xbd8d7408	-0.06906897
108	0x3e0d5210	0.13800836
109	0xbe4f3a80	-0.2023716
110	0xbdf943d2	-0.12171139
111	0x3d5c7170	0.05381912
112	0xbf4c19b6	-0.7972673
113	0x3dd0f5f0	0.10203159
114	0x3d4af84c	0.0495532
115	0xbe4dcf75	-0.2009867
116	0xbe06549b	-0.13118212
117	0x3e082321	0.1329465
118	0x3e762b51	0.24039961
119	0xbe1bc6b2	-0.15212515
120	0x3e8a2c6b	0.26987013
121	0xbcb26149	-0.021774905
122	0xbf0d6abc	-0.5524099
123	0x3c2533cd	0.010083151
124	0x3e4bc83f	0.19900607
125	0x3b705e43	0.0036677278
126	0x3dafea90	0.08589661
127	0xbe83ad16	-0.25717992
128	0xbe0f6821	-0.14004566
129	0x3e3576b6	0.17721066
130	0x3e44981f	0.19198655
131	0x3ef40a69	0.47664192
132	0xbea6755a	-0.32511407
133	0xbefb6a35	-0.49104467
134	0xbdc4fd00	-0.096185684
135	0x3f430f14	0.7619488
136	0xbecd0e5e	-0.40050024
137	0x3f0e3adb	0.55558556
138	0xbea0c1dc	-0.31397903
139	0x3ec32057	0.3811061
140	0xbf26e098	-0.6518645
141	0xbcda8df3	-0.026679015
142	0x3f182fbc	0.59447837
143	0xbf3b786d	-0.7323063
144	0x3eaad2e4	0.33364022
145	0x3e1dfcd5	0.15428479
146	0xbe6c3c6e	-0.23069927
147	0xbeeaeec4	-0.4588529
148	0x3e7ede31	0.24889447
149	0x3f3b0086	0.73047674
150	0x3ed40cee	0.41416115
151	0xbf2dc451	-0.6787768
152	0xbd116d0a	-0.03550438
153	0x3ea1f4c8	0.31632066
154	0xbd9d6225	-0.07684735
155	0xbe41c39a	-0.18922272
156	0x3effdb8e	0.49972194
157	0x3e812ebf	0.25230977
158	0xbdce4a34	-0.10072747
159	0x3e76aaf0	0.24088645
160	0xbf13b085	-0.5769122
161	0x3f3b0006	0.7304691
162	0xbe160410	-0.14649987
163	0x3f123ba4	0.57122254
164	0x3f49cdf7	0.788299
165	0xbe8c77db	-0.27435192
166	0xbf2c5252	-0.6731311
167	0x3db322b6	0.08746855
168	0xbf1244e9	-0.571364
169	0x3d9408a1	0.07228208
170	0xbe7fbcbe	-0.24974343
171	0xbf175583	-0.59114856
172	0xbe8745d9	-0.26420477
173	0x3f286526	0.6577934
174	0xbf24c693	-0.643655
175	0x3e90a5c1	0.2825146
176	0x3ebe04cf	0.37113044
177	0xbe56d58c	-0.20979899
178	0xbf1bb4c1	-0.60822684
179	0x3eb5385c	0.3539456
180	0x3d4c0d67	0.04981747
181	0x3eb9a1f4	0.36256373
182	0x3e9348b9	0.2876642
183	0xbef95773	-0.4869953
184	0x3e446d54	0.1918233
185	0xbf2aab12	-0.6666728
186	0xbf00963c	-0.5022924
187	0x3f25b05e	0.6472224
188	0xbeaf6ef0	-0.34264326
189	0xbefe6921	-0.49689582
190	0x3d22d914	0.039757803
191	0x3eb66941	0.35627177
192	0xbf31ce91	-0.6945582
193	0x3da2f702	0.07957269
194	0x3c03b60a	0.008039007
195	0xbe6694ed	-0.22517748
196	0xbf01919e	-0.5061282
197	0xbed81052	-0.4219995
198	0xbeb78df7	-0.35850498
199	0xbf139409	-0.5764776
200	0xbf0ae6be	-0.54258335
201	0x3f0e0d32	0.55488884
202	0xbd10e000	-0.035369873
203	0xbd9aacc8	-0.07552487
204	0xbe0460b2	-0.12927511
205	0x3e942503	0.28934488
206	0x3df15623	0.117840074
207	0x3f063c8f	0.52436155
208	0xbe9c2d11	-0.30503133
209	0xbf2e2a05	-0.68032867
210	0x3ecb8a8d	0.39754143
211	0xbf188e89	-0.5959249
212	0xbe17da63	-0.14829402
213	0x3e4dd2ee	0.20099995
214	0xbf0656e9	-0.52476364
215	0x3ed27ef5	0.41112486
216	0x3e27fc49	0.16404833
217	0xbf17de17	-0.5932326
218	0xbf0aee34	-0.5426972
219	0xbf385a83	-0.7201311
220	0x3e05442c	0.13014287
221	0x3e127d77	0.14305674
222	0x3e1f1ae7	0.15537606
223	0x3e31026a	0.17286077
224	0x3e915c5d	0.2839078
225	0xbef6de14	-0.48216307
226	0x3e67c948	0.22635376
227	0x3d334e61	0.04377592
228	0x3cfe8c00	0.031072617
229	0xbef98566	-0.48734587
230	0x3e8e2f5e	0.27770513
231	0xbf6d6784	-0.9273608
232	0x3e4c1dcd	0.19933243
233	0xbf6782f2	-0.9043418
234	0xbd82157b	-0.06351753
235	0x3e413ed0	0.18871617
236	0xbabca494	-0.001439231
237	0x3f263a77	0.6493296
238	0x3f37e246	0.7182964
239	0xbf1d5845	-0.61462814
240	0x3d04bd18	0.032406896
241	0x3f395009	0.7238775
242	0xbf874f59	-1.057109
243	0x3e70ddbb	0.23522083
244	0xbdddd148	-0.10830933
245	0xbda8a100	-0.08233833
246	0x3bb43072	0.005498939
247	0x3e99b114	0.30017912
248	0xbef670a6	-0.4813282
249	0xbeafc8d5	-0.3433291
250	0x3f2743bf	0.6533775
251	0x3f28c0eb	0.6591937
252	0x3f4ff0aa	0.812266
253	0xbeb42aa1	-0.35188773
254	0xbe2b26b1	-0.16713978
255	0x3eebfe6f	0.46092555

fc2.bias f4 [392]
0	0x3cbbfd06	0.0229478
1	0x3eefe6ae	0.46855682
2	0x3e9ac845	0.3023092
3	0x3f2e563a	0.6810032
4	0xbdb03887	-0.08604532
5	0x3e6c2a6f	0.23063062
6	0xbe52d8d2	-0.20590523
7	0x3e35987c	0.1773395
8	0x3f3b39bd	0.73134977
9	0xbf78a978	-0.9713359
10	0xbea9d7c7	-0.33172438
11	0x3df5bf85	0.1199942
12	0xbe14f19a	-0.14545289
13	0xbeb65d2b	-0.35617957
14	0x3eb76bf8	0.3582456
15	0x3f6e23ab	0.93023175
16	0xbecf0f9b	-0.40441594
17	0x3fbed36a	1.4908268
18	0xbf6126bf	-0.87949747
19	0xbe066979	-0.13126172
20	0x3f03770e	0.5135354
21	0xbea7707d	-0.3270301
22	0xbf7f3b91	-0.99700266
23	0x3f27edcc	0.65597224
24	0xbf126fd6	-0.572019
25	0x3eb070bc	0.3446101
26	0xbed9f8a7	-0.4257252
27	0x3e7af6ca	0.24508205
28	0x3ec7c42e	0.3901686
29	0xbdd058d5	-0.10173193
30	0xbdfdecb0	-0.1239866
31	0x3f01c1d6	0.50686395
32	0xbdbe0658	-0.09278554
33	0xbe832bf0	-0.2561946
34	0x3e783ec3	0.24242692
35	0xbef60f67	-0.48058626
36	0xbeb4962a	-0.35270816
37	0xbee5109e	-0.4473924
38	0xbeb568a1	-0.35431388
39	0x3cf0e7f5	0.02940748
40	0x3e8f8786	0.28033084
41	0xbf6c108a	-0.92212737
42	0x3f2a2778	0.66466475
43	0x3ed2a2f5	0.4113995
44	0xbe98cd97	-0.29844353
45	0xbf308b64	-0.68962693
46	0x3f3b5798	0.7318053
47	0xbf048c04	-0.51776147
48	0x3e073683	0.13204388
49	0xbf344e35	-0.70431834
50	0x3e20ffbe	0.15722558
51	0x3e0c5a5e	0.13706347
52	0x3e850c86	0.25986117
53	0x3eb35040	0.35022163
54	0x3ef826b6	0.48467034
55	0xbf05f52a	-0.52327216
56	0xbe813fbd	-0.2524394
57	0xbeb5b597	-0.35490105
58	0x3f13b229	0.57693726
59	0x3f02b891	0.51062876
60	0x3ceabbc8	0.028653994
61	0xbec84638	-0.39116073
62	0xbf32e234	-0.6987641
63	0x3e824d88	0.25449777
64	0x3ca3a220	0.019974768
65	0xbef59c47	-0.47970793
66	0x3ed7795c	0.42084777
67	0x3db0b741	0.08628703
68	0xbd4b6025	-0.049652237
69	0x3ee7f304	0.45302594
70	0x3dd70b05	0.10500149
71	0xbcba0392	-0.02270678
72	0xbe0da37e	-0.13831899
73	0xbd3708d0	-0.04468614
74	0x3e0bfdf1	0.1367109
75	0x3ea23a24	0.31684983
76	0xbe9851e0	-0.29749966
77	0x3e8d77b0	0.27630377
78	0x3eb8ff4e	0.36132282
79	0x3eceb082	0.4036904
80	0x3f42a533	0.76033324
81	0x3ef5f7c6	0.480406
82	0x3dd2ba1b	0.10289403
83	0xbeecf403	-0.46279916
84	0xbf0c2abc	-0.5475271
85	0xbf215c95	-0.63031894
86	0x3ea25d25	0.3171169
87	0x3f291497	0.6604704
88	0x3f084d37	0.5324282
89	0xbce371eb	-0.027764281
90	0xbf0273ee	-0.50958145
91	0x3e392f25	0.1808439
92	0xbf4f2137	-0.80910057
93	0xbde483fd	-0.11157987
94	0xbf1d185e	-0.61365306
95	0x3eb9ff77	0.36327717
96	0xbf2325f3	-0.6372978
97	0x3ce44d74	0.027868964
98	0xbeb8e516	-0.3611228
99	0x3edaa20e	0.42701763
100	0xbda9e07b	-0.082947694
101	0xbeadee18	-0.33970714
102	0xbf11f878	-0.5701976
103	0x3ea7f321	0.3280268
104	0xbe8537e4	-0.26019204
105	0xbeaf5baf	-0.34249637
106	0xbc0b2b6d	-0.00849424
107	0xbe8331ef	-0.25624034
108	0xbf847895	-1.0349299
109	0x3ede0816	0.43365544
110	0x3cef6718	0.029223964
111	0x3ecb14d5	0.3966433
112	0x3f1dfe8e	0.61716545
113	0xbf83d966	-1.030072
114	0xbef3778d	-0.47552148
115	0xbf5c3776	-0.86022127
116	0x3d2c5d76	0.04208132
117	0x3dc58295	0.09644047
118	0x3efdbc4c	0.49557722
119	0xbeee6d9d	-0.46568003
120	0xbefe717b	-0.49695954
121	0x3e714c14	0.23564178
122	0xbe2d6144	-0.16931635
123	0xbe3333bc	-0.17500204
124	0x3e11fda9	0.1425692
125	0x3efeb8cb	0.4975036
126	0xbf09a90a	-0.5377356
127	0x3e87fe99	0.2656143
128	0xbf06f44b	-0.5271651
129	0xbe5e74ee	-0.21724293
130	0xbd689e93	-0.056791853
131	0xbf075f1c	-0.528795
132	0x3f02fcc0	0.51166916
133	0xbf04b97f	-0.51845545
134	0xbc9a2ac0	-0.018819213
135	0xbf4094c0	-0.75226974
136	0xbf1b89f3	-0.6075737
137	0x3f18cb29	0.59685
138	0x3ed3fdd5	0.41404596
139	0x3e205834	0.15658647
140	0x3dc253e4	0.09488657
141	0x3ec4a6bf	0.38408467
142	0xbf308c38	-0.68963957
143	0xbf15146d	-0.5823429
144	0xbea917aa	-0.33025867
145	0xbde5ece6	-0.112268254
146	0xbcab18a0	-0.020885766
147	0x3efc38a1	0.49261954
148	0xbf232dd6	-0.63741815
149	0x3e4bdf9f	0.19909523
150	0xbf140ab6	-0.57828844
151	0xbf04d9fc	-0.5189512
152	0xbee28b42	-0.4424687
153	0xbf35a741	-0.70958334
154	0x3cb367fd	0.021900171
155	0xbf1e91c9	-0.619412
156	0x3f53aa6e	0.8268193
157	0x3f371bdc	0.71526885
158	0xbeae0f21	-0.33995917
159	0xbdb2ac62	-0.08724286
160	0x3e9b478b	0.3032802
161	0xbe0a75ec	-0.13521546
162	0x3e856e9b	0.26060948
163	0xbe90641b	-0.28201374
164	0xbf07d91e	-0.5306567
165	0xbf2f6304	-0.6851046
166	0xbf38a7d9	-0.72131115
167	0xbf118316	-0.56840646
168	0xbf094f7f	-0.53636926
169	0x3eaca5ff	0.33720395
170	0xbe5db3b9	-0.2165059
171	0x3fac837a	1.3477623
172	0x3eb70a82	0.35750204
173	0x3efd94b5	0.49527517
174	0x3eb93322	0.36171824
175	0xbf2fbbb1	-0.6864577
176	0xbf870dc7	-1.055108
177	0xbc52f00b	-0.0128746135
178	0x3edb130e	0.42787975
179	0x3edd5375	0.43227735
180	0x3de3c9f2	0.111225024
181	0x3eaf6a74	0.34260905
182	0xbf6d02ae	-0.92582214
183	0x3f0d9061	0.5529843
184	0x3f04482d	0.5167263
185	0xbf16d91e	-0.58925045
186	0xbdb4dd32	-0.08831252
187	0x3bfa969d	0.007647349
188	0xbf3b3020	-0.7312031
189	0xbef9cdff	-0.48789975
190	0x3eba842d	0.36428967
191	0x3d581dbd	0.052762736
192	0xbf026a60	-0.50943565
193	0xbe7b5e8a	-0.24547783
194	0x3de49d75	0.11162845
195	0xbeb1dcdb	-0.34738812
196	0x3e177589	0.1479093
197	0xbf072aea	-0.52799857
198	0x3f2865c2	0.6578027
199	0xbe33c074	-0.17553884
200	0xbecd47ae	-0.4009375
201	0xbe7d7196	-0.24750361
202	0xbefe179c	-0.49627388
203	0xbe3ab676	-0.18233666
204	0x3f3bb635	0.733249
205	0x3c7593ae	0.014988823
206	0x3ef0e252	0.4704767
207	0xbf73c9ba	-0.95229685
208	0xbe170cc0	-0.14750957
209	0x3f182b8f	0.59441465
210	0xbf2b72ac	-0.6697185
211	0x3f63dada	0.89005816
212	0x3e8f5e52	0.28001648
213	0x3f646436	0.8921541
214	0xbf2e69b7	-0.6813006
215	0xbf480879	-0.7813793
216	0xbe91a6fa	-0.28447706
217	0x3f3aafa9	0.72924286
218	0x3f0ff369	0.5623079
219	0x3dbb8554	0.0915629
220	0xbf2623cd	-0.6489838
221	0xbe4c56d3	-0.19954996
222	0x34ae79c3	3.249862e-07
223	0xbe41d31b	-0.18928187
224	0xbea41fe2	-0.32055575
225	0x3da9497b	0.082659684
226	0xbf25794f	-0.6463823
227	0x3e07f1ff	0.13275908
228	0x3e9aa1ea	0.30201656
229	0x3f011ea8	0.504374
230	0xbcdfdf7d	-0.027328247
231	0xbedde0fb	-0.4333571
232	0x3ddeef8e	0.10885535
233	0xbc4b83c0	-0.012421548
234	0x3e37da2d	0.17954321
235	0x3f262569	0.64900833
236	0xbf2adeaf	-0.6674604
237	0x3f0335bc	0.5125387
238	0x3e2a55c8	0.16634285
239	0x3e46d7eb	0.19418304
240	0xbecdb8cb	-0.40180048
241	0xbe49646b	-0.19667213
242	0x3e0ad9cf	0.1355965
243	0x3d589e86	0.052885555
244	0xbf046e95	-0.51731235
245	0xbe70c18c	-0.23511332
246	0xbe8a9fc6	-0.27075022
247	0xbf07b0e1	-0.5300427
248	0xbdce9a41	-0.10088015
249	0xbed3ebc1	-0.41390803
250	0xbf352d52	-0.7077228
251	0xbe8f21d8	-0.27955508
252	0xbeeadd34	-0.4587189
253	0xbf5bc763	-0.85851115
254	0xbceb5440	-0.028726697
255	0x3f20cbea	0.6281115

deconv1.weight f4 [8, 8, 1, 1]
0	0xbaec6318	-0.0018034903
1	0xbeb7bb4c	-0.35885084
2	0xbe2d5284	-0.16926008
3	0x3ed63099	0.41833952
4	0xbdba82b9	-0.091069646
5	0x3dcd50e2	0.10025193
6	0x3e5c702a	0.21527162
7	0xbec58354	-0.38576758
8	0x3e952772	0.29131657
9	0x3edb82d7	0.4287326
10	0x3ebebb6e	0.37252373
11	0x3d8c3a68	0.068470776
12	0xbf363dcb	-0.7118804
13	0x3eacec16	0.3377387
14	0xbe5f9c84	-0.2183705
15	0x3ebdd0c0	0.37073326
16	0xbef20054	-0.47265875
17	0xbf39da0f	-0.72598356
18	0xbf9b25f8	-1.2120962
19	0xbe1dd913	-0.15414838
20	0x3dce5c2a	0.10076173
21	0xbdd01bda	-0.10161562
22	0xbe91c7d1	-0.2847276
23	0xbe82bc82	-0.25534445
24	0x3e8c328e	0.2738232
25	0x3e9fa30f	0.3117909
26	0xbe068fcb	-0.1314079
27	0xbcf43492	-0.029810224
28	0xbf1a32d5	-0.60233814
29	0xbed73143	-0.4202977
30	0x3ee8a691	0.4543958
31	0x3e9cfa0c	0.3065952
32	0xbf6a615c	-0.9155481
33	0x3e6a577b	0.22884934
34	0xbf4bdec4	-0.7963679
35	0xbdda2b86	-0.10652833
36	0xbee704c9	-0.45120838
37	0x3e8a5db8	0.27024627
38	0x3e1b908c	0.15191859
39	0x3d9eca22	0.077533975
40	0x3e1dcc8f	0.15410064
41	0x3e1328bf	0.14371012
42	0xbdfc32d9	-0.12314386
43	0x3e2e4e44	0.17022043
44	0x3dbc655c	0.0919902
45	0x3e3a6853	0.18203859
46	0xbc860d51	-0.016363772
47	0x3eb051c7	0.3443739
48	0x3e1ba502	0.15199664
49	0xbe43f347	-0.19135772
50	0x3e6afe45	0.22948559
51	0xbf1c8609	-0.6114202
52	0x3e65d627	0.22444974
53	0xbeab9dd3	-0.33518848
54	0xbf21101c	-0.62915206
55	0xbe9587a3	-0.29205045
56	0x3daa3c51	0.08312286
57	0xbde88710	-0.11353886
58	0xbdf7f80d	-0.12107859
59	0x3d6d5311	0.057940546
60	0x3e25827d	0.16163059
61	0x3cbab044	0.022789128
62	0x3e94b265	0.29042354
63	0xbe5fab39	-0.2184266

deconv1.bias f4 [8]
0	0xbeb19b7f	-0.34688947
1	0xbe69bf51	-0.22826888
2	0x3c9abab1	0.01888785
3	0xbd0cb2e5	-0.034350295
4	0xbf07dd8d	-0.53072435
5	0xbf01ee5c	-0.5075433
6	0xbea45aba	-0.3210047
7	0xbeed1e70	-0.46312284

deconv2.weight f4 [8, 4, 2, 2]
0	0x3d72dc0b	0.05929188
1	0x3ed76921	0.42072394
2	0x3e5f4caa	0.21806589
3	0x3ee7e194	0.4528929
4	0xbe687680	-0.22701454
5	0x3ea740dc	0.3266667
6	0x3dcabc60	0.09899211
7	0x3ecb0464	0.39651787
8	0xbeb9ee48	-0.36314607
9	0xbe53975b	-0.20663206
10	0xbd81850f	-0.06324207
11	0xbe490b86	-0.19633302
12	0xbe720ccd	-0.23637696
13	0x3e3aaa39	0.18228997
14	0x3e75adbf	0.2399206
15	0x3e2f7d31	0.171376
16	0x3e911d80	0.2834282
17	0x3e94a2f9	0.29030588
18	0x3c9bf537	0.019037826
19	0xbbd93c99	-0.0066295383
20	0x3e5b810f	0.2143595
21	0x3eb02ed4	0.34410727
22	0xbd8e34b1	-0.06943644
23	0x3c9631a0	0.01833421
24	0xbf205d1e	-0.62642086
25	0xbe548454	-0.20753604
26	0x3e2f4417	0.17115818
27	0xbe20af03	-0.15691762
28	0xbe4900b0	-0.19629169
29	0xbe327230	-0.17426372
30	0xbd88c4bb	-0.06678148
31	0xbd9c8cbb	-0.0764403
32	0xbe2963aa	-0.16541925
33	0xbe9d268d	-0.30693474
34	0xbbdf8272	-0.00682097
35	0xbd82324e	-0.06357251
36	0x3db11e57	0.08648365
37	0xbe00f93e	-0.12595078
38	0x3e56b346	0.20966825
39	0x3e328085	0.17431839
40	0xbebe0a82	-0.37117392
41	0xbea726ab	-0.3264669
42	0x3e9a1d2f	0.3010039
43	0xbd5c0778	-0.05371806
44	0x3e1fbf65	0.15600355
45	0x3e0ed4f0	0.13948417
46	0x3e5886a7	0.21145116
47	0x3e5160bb	0.20447056
48	0x3e2ebb85	0.1706372
49	0x3c43c1f6	0.011948099
50	0x3ddcb747	0.10777145
51	0xbd3b9418	-0.04579553
52	0x3e946280	0.289814
53	0x3dd111e0	0.102084875
54	0x3e36faff	0.17869185
55	0x3cf3766e	0.029719558
56	0x3ec808d7	0.39069244
57	0x3e3874c0	0.18013287
58	0xbd346507	-0.04404166
59	0x3dbb8b81	0.09157468
60	0xbe9091ee	-0.28236336
61	0xbdd7c762	-0.10536076
62	0xbdfd5204	-0.12369159
63	0xbedf6831	-0.4363418
64	0xbcfef2be	-0.031121608
65	0xbe6cd1a5	-0.23126848
66	0x3dd2e04e	0.10296689
67	0xbe34fe5d	-0.17675157
68	0x3e6dd394	0.23225242
69	0xbd88ee4d	-0.06686077
70	0x3f08931a	0.5334946
71	0x3d20e89a	0.039284326
72	0x3d3365f8	0.043798417
73	0x3d18bcb0	0.03728932
74	0xbdcdec6d	-0.1005486
75	0x3d539082	0.051651485
76	0xbcf3cfc5	-0.029762158
77	0x3d0baca9	0.03410021
78	0xbe225977	-0.1585444
79	0xbae2a3da	-0.0017291263
80	0x3de9b830	0.11412084
81	0x3ebe3457	0.37149307
82	0x3e0fc136	0.14038548
83	0x3ebe31c7	0.37147352
84	0xbd667ef0	-0.0562734
85	0x3ebc790c	0.368111
86	0xbc472b76	-0.012156358
87	0x3ea5e9a5	0.3240482
88	0x3cd2b853	0.025722658
89	0x3e13c043	0.14428811
90	0x3deeaf37	0.11654513
91	0xbeac60ef	-0.33667704
92	0xbe90dc23	-0.2829295
93	0x3e4fc643	0.20290475
94	0x3da22fbe	0.07919262
95	0x3dd77dad	0.10522018
96	0xbd2c1709	-0.042014156
97	0x3ca16a9e	0.01970416
98	0x3e55e7ff	0.2088928
99	0x3e70b900	0.23508072
100	0xbbc11360	-0.0058922023
101	0x3e44287a	0.19156066
102	0x3ed18ca7	0.40927622
103	0x3ebc2086	0.36743563
104	0xbe5788db	-0.210483
105	0xbc9d4d7f	-0.019201992
106	0x3d659fef	0.056060728
107	0xbe717305	-0.23579033
108	0xbe130f83	-0.14361386
109	0x3e94b082	0.29040915
110	0x3e805764	0.25066674
111	0x3e13f4f2	0.14448908
112	0x3cd01460	0.02540034
113	0xbeea2570	-0.45731688
114	0xbe427035	-0.18988116
115	0xbeda9d85	-0.42698303
116	0x3ef9e926	0.4881069
117	0xbeaee27b	-0.34157166
118	0xbc83f484	-0.016107805
119	0xbe965951	-0.29365018
120	0x3d5be5df	0.05368602
121	0x3e28a57b	0.16469376
122	0x3e636004	0.22204596
123	0xbe02fdf7	-0.12792192
124	0xbdd948b7	-0.106095724
125	0xbe726730	-0.23672175
126	0xbe40061f	-0.18752335
127	0xbe226106	-0.15857324

deconv2.bias f4 [4]
0	0x3cf5aee6	0.029990625
1	0x3d25fdab	0.04052512
2	0xbe51e79a	-0.20498505
3	0xbcf8c223	-0.03036601

deconv3.weight f4 [4, 1, 2, 2]
0	0x3dc1c157	0.09460705
1	0x3f0f86dc	0.56065154
2	0x3d354f5f	0.044265147
3	0x3f011501	0.50422674
4	0x3ed75e03	0.42063913
5	0x3db61aad	0.08891807
6	0x3edfac24	0.4368602
7	0x3dca3fa3	0.09875419
8	0x3ef69b8c	0.48165548
9	0x3eba7559	0.36417654
10	0x3eba72c1	0.36415675
11	0x3e7a4964	0.24442059
12	0xbf0f982f	-0.5609159
13	0xbe97d14e	-0.29651874
14	0xbe9b4c4d	-0.3033165
15	0xbd12ae60	-0.03581083
