Pytorch/AutoEncoder/saved_models/ChanSmall_mnist.pt (torch, 17775 bytes, 15 tensors)

conv1.weight f4 [4, 1, 3, 3]
-0.6803962 0.3186274 -0.3726549 -0.10102745 -0.54997694 -0.2762164 -0.44554844 -0.58248657
-0.58231443 -0.3125743 -0.9225576 -0.7369376 0.3093863 -0.038968146 0.0046142954 0.61385113
0.2547544 0.28628418 0.23952916 -0.17891966 -0.82475555 0.57895255 -0.305635 -1.012608
-0.04232864 -0.47524118 -1.0253648 0.2890934 0.21881887 0.043083336 0.1915319 -0.27101216
-0.08057488 0.43051994 -0.09434477 0.04175968
00000000: 722e 2ebf 2123 a33e a0cc bebe 7be7 cebd
00000010: 4acb 0cbf 3c6c 8dbe ed1e e4be d71d 15bf
00000020: 8f12 15bf bd09 a0be bc2c 6cbf f1a7 3cbf
00000030: e267 9e3e 109d 1fbd 8433 973b 5925 1d3f
00000040: 2b6f 823e d793 923e 2247 753e b736 37be
00000050: 2e23 53bf 3c36 143f 317c 9cbe 249d 81bf
00000060: cc60 2dbd d052 f3be 273f 83bf 0d04 943e
00000070: 0e12 603e 2778 303d f020 443e 1bc2 8abe
00000080: 7104 a5bd 1c6d dc3e d537 c1bd 330c 2b3d

conv1.bias f4 [4]
0.7944343 -0.3775741 0.035648443 -0.12472975
00000000: 0c60 4b3f 6451 c1be 1a04 123d 5072 ffbd

conv2.weight f4 [8, 4, 3, 3]
-0.0035480934 -0.22457875 -0.308376 0.0118993465 -0.12632231 -1.6221436 0.8582286 0.08011379
-1.5613909 0.3371663 -0.72061944 0.79967123 0.45093098 0.09335282 0.44664767 0.67207646
0.23775649 -0.17233096 -0.02737086 -0.9538712 0.69205767 0.06577142 -0.06698572 -0.43733853
-0.11109667 -1.5388725 0.15154083 0.20497546 0.579002 0.31237015 -0.29592797 -0.24047928
0.6553888 -0.50307435 0.32752043 1.0934657 -0.22728367 -0.042554285 -0.014579718 -0.26254964
-0.25528106 -0.18251531 -0.075979024 -0.29093894 -0.1350639 0.024763983 -0.105072156 -0.08288686
-0.06590312 -0.14333537 -0.063295834 0.13562715 -0.029803537 -0.07176381 -0.19343735 -0.19492294
-0.018334676 -0.16626723 0.006742501 0.01543648 -0.15740198 0.06885312 0.0754643 -0.16974702
-0.14493127 -0.10792741 -0.021009447 -0.030556917 -0.1885776 -0.010192611 0.040086057 -0.10855825
-0.0043163034 -0.0957443 -0.03839698 -0.05097017 -0.23581211 -0.14022967 -0.20011675 -0.17984545
-0.12328861 0.027920373 0.023419494 0.050671425 0.15193184 -0.067726985 0.085497834 -0.0682741
-0.23647496 -0.26470166 -0.0793515 -0.040350024 -0.12647244 -0.050874077 -0.049823977 0.009317825
-0.1559735 -0.09596178 -0.034163944 -0.07232055 -0.16750182 -0.23449536 -0.09412963 0.026599443
-0.08297563 -0.13852602 -0.083057046 0.0022436858 0.25349283 0.48267373 0.18665718 0.12835784
0.037574336 0.3663853 0.30567512 0.46528342 0.6447102 -0.13007224 -0.6801404 -0.5359969
-0.21266337 -0.10594262 0.1501814 -0.17404114 -0.20345582 0.17896515 -0.6985767 -0.13865213
-0.16028291 0.17909762 0.044350274 -0.10782603 0.08015275 0.25242203 0.52156067 -0.9252263
-0.45421672 -0.28664723 -0.8414939 -0.7107206 -0.4152489 -0.24638636 -0.05714604 -0.19515987
0.007344236 -0.94709367 -0.23465876 -0.71427697 -0.31718403 -0.017155962 -1.0236664 -0.04421457
0.16561073 0.47768816 0.27744907 0.091730915 0.29536408 -0.52158934 -0.046727397 0.13268451
-0.21021824 0.37152225 0.27101633 -0.023143295 0.08777864 -0.31034994 -0.13187991 -0.021443099
0.4678915 0.31138417 0.48958164 -0.12585886 0.32940435 0.6951422 0.15226635 -0.07222128
0.5038336 0.7091249 0.4952348 -0.10392624 0.34706026 0.085427195 -0.38864154 -0.01293229
-0.26148146 -0.14542978 -0.098449156 -1.6012002 0.12980965 0.28487518 -0.70923775 -0.50797987
-0.52858216 -0.19542374 -0.52733064 -1.0896983 -0.0066525848 -0.1272851 0.021535067 -0.13842915
0.19982037 -0.47542262 0.23041306 -0.068884805 0.66164184 0.059156578 0.2300277 -0.11926181
-0.062222138 0.30320528 -1.1223903 0.12007049 0.042598277 -0.07409316 0.66959137 0.61307687
0.6355216 0.008985534 -0.9706387 0.60554296 0.14366104 -0.2420753 -0.13203831 -0.17240974
-0.71537155 -0.12352147 -0.35102907 -1.2189262 -1.9805866 -0.7502812 -1.7450669 -3.717687
-0.1794637 -0.29129344 -0.19154282 0.13470896 -0.51315325 -0.2937248 0.12540832 -0.34759155
-0.4238499 0.3602934 0.12569317 -0.20867494 -0.55435467 0.12865607 -0.30815762 -0.13714023
-0.018423216 0.2857663 0.18733464 0.2822519 -0.013470934 0.0059904247 0.22202177 -0.56269825
00000000: 2187 68bb f9f7 65be 76e3 9dbe 7af5 423c
00000010: a35a 01be 67a2 cfbf dfb4 5b3f b312 a43d
00000020: a8db c7bf 10a1 ac3e 847a 38bf 41b7 4c3f
00000030: 6de0 e63e c32f bf3d 01af e43e 340d 2c3f
00000040: 7076 733e 8777 30be db38 e0bc e730 74bf
00000050: b12a 313f 2bb3 863d cf2f 89bd d6ea dfbe
00000060: a786 e3bd c6f9 c4bf 852d 1b3e 16e5 513e
00000070: 7a39 143f fbee 9f3e df83 97be 3340 76be
00000080: 8fc7 273f 7bc9 00bf c2b0 a73e aff6 8b3f
00000090: 0dbd 68be 674d 2ebd c5df 6ebc e86c 86be
000000a0: 33b4 82be 4be5 3abe e49a 9bbd f3f5 94be
000000b0: 314e 0abe d6dd ca3c 1230 d7bd 96c0 a9bd
000000c0: 37f8 86bd 82c6 12be 3fa1 81bd d8e1 0a3e
000000d0: 8c26 f4bc e8f8 92bd 7114 46be e199 47be
000000e0: 9a32 96bc f541 2abe 33f0 dc3b 4ae9 7c3c
000000f0: fc2d 21be dd02 8d3d 078d 9a3d 2ad2 2dbe
00000100: dd68 14be 0c09 ddbd 011c acbc 8052 fabc
00000110: 7d1a 41be e9fe 26bc 4731 243d ca53 debd
00000120: c76f 8dbb 9615 c4bd 2746 1dbd 19c6 50bd
00000130: bb78 71be 5e98 0fbe 68eb 4cbe 6829 38be
00000140: bd7e fcbd 44b9 e43c 3dda bf3c d78c 4f3d
00000150: 0594 1b3e 72b4 8abd 7d19 af3d 4bd3 8bbd
00000160: 7e26 72be fa86 87be 0a83 a2bd 1146 25bd
00000170: fe81 01be 5661 50bd 3a14 4cbd caa9 183c
00000180: 84b7 1fbe 9c87 c4bd 7eef 0bbd cc1c 94bd
00000190: 9985 2bbe 8d1f 70be 09c7 c0bd 13e7 d93c
000001a0: 21ef a9bd c4d9 0dbe d019 aabd cd0a 133b
000001b0: d0c9 813e 0321 f73e 0f23 3f3e 3d70 033e
000001c0: 8ce7 193d db96 bb3e 7381 9c3e a139 ee3e
000001d0: ba0b 253f a831 05be ae1d 2ebf 1837 09bf
000001e0: 6dc4 59be 72f8 d8bd 27c9 193e d737 32be
000001f0: b956 50be a442 373e ecd5 32bf d3fa 0dbe
00000200: 3421 24be 5e65 373e a2a8 353d e5d3 dcbd
00000210: 2027 a43d 763d 813e 0085 053f a1db 6cbf
00000220: 188f e8be 6dc3 92be 256c 57bf c9f1 35bf
00000230: 819b d4be b54c 7cbe f711 6abd fdd7 47be
00000240: eba7 f03b bb74 72bf 634a 70be dbda 36bf
00000250: f265 a2be a98a 8cbc 8007 83bf 561a 35bd
00000260: dc95 293e 8b93 f43e ce0d 8e3e 6bdd bb3d
00000270: f639 973e e186 05bf 3a65 3fbd 73de 073e
00000280: 7343 57be 2a38 be3e a7c2 8a3e 0297 bdbc
00000290: 4ac5 b33d 30e6 9ebe 870b 07be 70a9 afbc
000002a0: 7a8f ef3e bf6d 9f3e 72aa fa3e 25e1 00be
000002b0: b0a7 a83e d7f4 313f b6eb 1b3e c0e8 93bd
000002c0: 3dfb 003f 3689 353f 6a8f fd3e 48d7 d4bd
000002d0: e2b1 b13e 74f4 ae3d 06fc c6be f5e1 53bc
000002e0: e6e0 85be 8beb 14be b69f c9bd 21f4 ccbf
000002f0: d2ec 043e 29db 913e 9b90 35bf f80a 02bf
00000300: 2951 07bf 291d 48be 24ff 06bf 3c7b 8bbf
00000310: edfd d9bb 0657 02be 4f6a b03c 5fc0 0dbe
00000320: b69d 4c3e 986a f3be 67f1 6b3e 7a13 8dbd
00000330: 5c61 293f 2b4e 723d 628c 6b3e 893f f4bd
00000340: a4dc 7ebd b93d 9b3e 7caa 8fbf 84e7 f53d
00000350: 887b 2e3d 28be 97bd 576a 2b3f 9bf2 1c3f
00000360: 8bb1 223f 1038 133c c77b 78bf dd04 1b3f
00000370: e11b 133e 96e2 77be 0d35 07be 2e8c 30be
00000380: 9722 37bf d3f8 fcbd 15ba b3be c605 9cbf
00000390: dd83 fdbf 6e12 40bf 5a5e dfbf 95ee 6dc0
000003a0: 55c5 37be 6a24 95be cd23 44be 25f1 093e
000003b0: 035e 03bf 1963 96be 0a6b 003e 85f7 b1be
000003c0: db02 d9be 6078 b83e b6b5 003e e2ae 55be
000003d0: 30ea 0dbf 6bbe 033e d6c6 9dbe 7d6e 0cbe
000003e0: 49ec 96bc f64f 923e a7d4 3f3e 5283 903e
000003f0: 31b5 5cbc 534b c43b ad59 633e fe0c 10bf

conv2.bias f4 [8]
-0.4715417 0.018366715 -0.10522165 -0.34777656 0.11229194 -0.4185327 -0.013166421 0.24003011
00000000: ea6d f1be cb75 963c 737e d7bd c50f b2be
00000010: 51f9 e53d eb49 d6be f9b7 57bc 74ca 753e

conv3.weight f4 [8, 8, 3, 3]
-0.012616402 0.056589462 -0.015295733 -0.015434117 -0.030463208 0.087823644 -0.1644135 -0.18704037
-0.17460862 0.049636513 -0.07266075 0.033888366 0.08751169 0.14348035 -0.030032134 -0.022252163
-0.09186285 0.08945984 0.102646865 0.14473902 -0.07185288 -0.012165716 0.03747688 -0.0076688104
-0.1619619 0.009328046 -0.058333583 0.2742844 -0.1611974 0.05711746 -0.250689 -0.14283507
0.079560794 -0.12512255 -0.048971497 0.13976003 -0.14569749 0.028854989 -0.05734179 0.051354785
0.06901444 0.035786226 -0.16997218 0.038075086 0.052474447 0.05180448 0.10472262 -0.038776256
-0.04643645 0.00985894 -0.013696937 -0.19276153 -1.1288368 -0.41296798 0.046916194 0.13169575
-0.080995776 -2.6532266 -0.23936257 -0.06413307 0.11280779 -0.25209033 -0.27632067 -0.024990417
-0.006695033 -0.035145205 0.08586251 -0.03596693 0.08288 -0.11332508 0.032931443 -0.21268223
0.019109951 -0.052914187 0.06439848 -0.013316181 -20.700724 -0.12364844 -0.060969334 0.025439259
0.06064036 -0.09743964 -0.0460499 -0.082654856 0.053821262 -0.030178422 -0.079936385 -0.036969207
0.07552904 -0.016476214 0.015444077 0.06634758 -0.02692373 0.060295865 0.11742133 0.112346895
0.06113197 0.0071259835 0.234213 -0.026418494 -0.18218236 0.025926065 -0.06821658 0.05295359
0.099145584 0.08246559 -0.020522429 0.018683108 0.052940965 0.15401389 -0.032562356 0.019901494
-0.07244407 -17.124544 -0.019325022 0.092829 0.098740354 0.048227638 -0.11114701 -0.040781643
-0.019569261 -0.14166409 -0.08311622 -0.17324916 -4.448345 0.30884454 0.018435841 -0.00028562752
-0.1507499 0.009194539 0.061106186 -0.3971828 -0.21865326 -0.21085203 0.016808942 -0.03212718
-0.035659 -0.11918895 0.028673857 0.07513117 0.01572354 0.10316015 0.029183973 0.033737127
0.46866593 -0.5581549 -0.9247425 -0.031052908 0.034071844 0.3064601 0.7419432 0.39959762
-2.1609304 0.048213407 0.06169564 -0.12681173 0.10454968 0.013875946 0.0551769 -0.05039018
0.019709775 0.06446884 0.010547501 -0.12929237 -0.03627007 -0.07803205 0.04584782 0.1945227
0.0019728276 -0.08466341 0.14948201 -1.5677111 -3.2155254 0.10130786 -2.2637913 -1.2673767
-1.5294387 -0.6000269 -2.6753683 -4.0070896 -0.19001158 0.63749427 -0.43144152 0.61855686
0.16296953 -0.96719784 -2.2675765 0.2753863 0.7522463 0.67829335 -0.38256362 -1.1415871
1.0715079 -0.34555238 -0.3723002 -0.438414 -1.1810043 -2.1219573 1.3603953 -0.21857433
-2.5621424 0.63862526 -2.1754937 -0.6837495 0.91956 -2.7091737 -5.2109475 -0.8741438
-1.0033866 -2.886732 -1.2831774 -0.13241614 1.2462825 -2.532759 0.68923247 0.15811081
-0.05982875 -0.1574235 -0.18843983 -0.023647113 -0.07152207 0.03748137 0.060091686 -0.123513006
-0.080343336 0.120003566 0.029809464 0.10399958 0.0626773 0.13547777 0.0878178 0.026366476
-0.095641404 0.013301272 0.0655676 -0.1071499 -0.06645814 0.02776385 0.06347668 -0.030438105
-0.115341045 -0.05093342 -0.019476477 -0.037036777 0.039504025 -0.07823347 -0.19493346 -0.15855707
-0.072660476 -0.17845918 -0.042445812 -0.13124906 -0.07744268 -0.065913245 -0.058267035 -0.088982195
00000000: 06b5 4ebc 5aca 673d f49a 7abc 61df 7cbc
00000010: fa8d f9bc e2dc b33d 035c 28be 8387 3fbe
00000020: 9acc 32be a84f 4b3d 29cf 94bd 87ce 0a3d
00000030: 5439 b33d 83ec 123e f305 f6bc 2b4a b6bc
00000040: 9722 bcbd b836 b73d 8538 d23d 7736 143e
00000050: 9a27 93bd b652 47bc 5b81 193d a54a fbbb
00000060: 57d9 25be a9d4 183c 32ef 6ebd 016f 8c3e
00000070: ee10 25be fff3 693d 4f5a 80be 5b43 12be
00000080: c5f0 a23d 2020 00be 5696 48bd 411d 0f3e
00000090: b931 15be 4c61 ec3c 3adf 6abd 6559 523d
000000a0: 7157 8d3d 9494 123d 300d 2ebe 9ff4 1b3d
000000b0: 72ef 563d ef30 543d d078 d63d dad3 1ebd
000000c0: 2634 3ebd 6487 213c 1e69 60bc 4763 45be
000000d0: b97d 90bf 8a70 d3be 322b 403d 40db 063e
000000e0: 1de1 a5bd 77ce 29c0 761b 75be 3358 83bd
000000f0: c507 e73d fc11 81be e779 8dbe b4b8 ccbc
00000100: 0262 dbbb 6bf4 0fbd afd8 af3d 0f52 13bd
00000110: fdbc a93d fb16 e8bd 1fe3 063d 5fc9 59be
00000120: 798c 9c3c 8cbc 58bd 5ae3 833d 1c2c 5abc
00000130: 159b a5c1 653b fdbd fbba 79bd fe65 d03c
00000140: 0762 783d 6f8e c7bd d29e 3cbd f346 a9bd
00000150: af73 5c3d bd38 f7bc b0b5 a3bd 066d 17bd
00000160: f8ae 9a3d 20f9 86bc 2709 7d3c 3de1 873d
00000170: 278f dcbc ccf8 763d 987a f03d 2116 e63d
00000180: 8465 7a3d 1581 e93b 88d5 6f3e 996b d8bc
00000190: 038e 3abe e662 d43c 22b5 8bbd dde5 583d
000001a0: d70c cb3d b8e3 a83d a71e a8bc 510d 993c
000001b0: a0d8 583d d1b5 1d3e 1b60 05bd 7508 a33c
000001c0: 8e5d 94bd 11ff 88c1 824f 9ebc 211d be3d
000001d0: 6238 ca3d 588a 453d 0ba1 e3bd a70a 27bd
000001e0: b74f a0bc 6410 11be d638 aabd 3a68 31be
000001f0: d858 8ec0 df20 9e3e c306 973c 47c0 95b9
00000200: 2f5e 1abe b1a4 163c 7b4a 7a3d 8b5b cbbe
00000210: a4e6 5fbe 98e9 57be e8b2 893c ca97 03bd
00000220: 2c0f 12bd 5619 f4bd 70e5 ea3c 5fde 993d
00000230: a7ce 803c a145 d33d 3a13 ef3c f12f 0a3d
00000240: fbf4 ef3e 3de3 0ebf edbb 6cbf ab62 febc
00000250: eb8e 0b3d 57e8 9c3e fdef 3d3f 0f98 cc3e
00000260: af4c 0ac0 6c7b 453d 91b4 7c3d efda 01be
00000270: 251e d63d f057 633c 2c01 623d ef65 4ebd
00000280: 6576 a13c 3d08 843d 6dcf 2c3c 3865 04be
00000290: ed8f 14bd 44cf 9fbd ecca 3b3d f530 473e
000002a0: 8e4a 013b 0364 adbd d011 193e c2aa c8bf
000002b0: 2bcb 4dc0 7f7a cf3d f5e1 10c0 6639 a2bf
000002c0: a6c4 c3bf 5d9b 19bf 3c39 2bc0 143a 80c0
000002d0: 6592 42be d332 233f e7e5 dcbe be59 1e3f
000002e0: 7ce1 263e 479a 77bf f91f 11c0 6fff 8c3e
000002f0: 3793 403f a2a4 2d3f 61df c3be 871f 92bf
00000300: 2c27 893f 3eec b0be 229e bebe cd77 e0be
00000310: 262b 97bf 26ce 07c0 6f21 ae3f f3d1 5fbe
00000320: 24fa 23c0 f27c 233f 4a3b 0bc0 350a 2fbf
00000330: 4968 6b3f 1a63 2dc0 15c0 a6c0 e3c7 5fbf
00000340: f96e 80bf 38c0 38c0 283f a4bf 1998 07be
00000350: 2f86 9f3f b918 22c0 8a71 303f cde7 213e
00000360: fe0e 75bd a033 21be 5ff6 40be 97b7 c1bc
00000370: 2a7a 92bd 1186 193d b322 763d 63f4 fcbd
00000380: 0c8b a4bd 6ec4 f53d fa32 f43c bbfd d43d
00000390: f55c 803d afba 0a3e d2d9 b33d 82fe d73c
000003a0: a4df c3bd 94ed 593c 4e48 863d 6871 dbbd
000003b0: 351b 88bd 0371 e33c 1000 823d 5559 f9bc
000003c0: ed37 ecbd 909f 50bd 228d 9fbc e0b3 17bd
000003d0: f9ce 213d df38 a0bd a39c 47be c95c 22be
000003e0: 04cf 94bd 01be 36be a9db 2dbd 2766 06be
000003f0: 459a 9ebd 86fd 86bd 6aa9 6ebd 4c3c b6bd

conv3.bias f4 [8]
0.7069687 0.21922359 -0.61873996 -0.17066966 -0.2853824 -0.11528073 0.4284863 -0.45531893
00000000: e7fb 343f 267c 603e be65 1ebf 07c4 2ebe
00000010: a41d 92be 4e18 ecbd 8e62 db3e 901f e9be

fc1.weight f4 [2, 392]
-0.11357484 0.07057233 -0.060380783 0.04255345 -0.032893777 -0.10433676 -0.081288464 0.48882183
0.23854193 0.17818 -0.066531144 -0.027863834 0.041486293 -0.012362492 0.1737023 -0.18999718
-0.09100851 0.03515383 -0.0069531314 -0.11570143 -0.13432217 -0.13135198 0.08718176 -0.06839285
-0.02817096 -0.016188676 0.07745608 0.0072366404 -0.20991442 -0.042767078 0.029542118 0.03538938
0.054656345 -0.014410382 0.048190724 0.13733895 -0.0015173028 -0.0026766725 -0.0025225806 0.16620475
-0.14827152 0.036347162 -0.10855285 -0.020786555 0.051611345 0.036814123 -0.042407967 -0.17070831
-0.07043099 -0.3498763 -0.021043058 0.0001618517 0.015931603 0.041264594 0.06478324 0.050240185
0.20570013 -0.057980105 0.013728797 0.004236989 0.009418948 0.121726006 0.10350567 -0.06164564
-0.09175481 0.1357717 0.00096318097 0.015710121 0.055177364 0.05964667 0.2678738 0.15795046
-0.09559892 -0.008515836 0.019982168 0.09646888 0.111200124 0.01137478 0.02065053 -0.0024448861
-0.0034042788 0.726651 0.06501341 0.016240478 -0.22765258 -0.050945476 -0.007210638 0.027431615
0.015014292 -0.0188862 -0.1751017 -0.004082113 -0.09364246 0.47786498 0.2364148 -0.03623075
-0.030040916 0.008970542 0.19861466 0.0632984 0.13711184 0.008403138 0.038383238 -0.038993113
-0.022023767 -0.1204231 -0.36898753 0.06856312 -0.015071548 -0.10726249 0.059374057 -0.0043227538
-0.072636135 -0.09664493 0.004210259 0.007003381 -0.008744565 -0.050296556 -0.06485744 0.022921138
-0.07753529 -0.021192828 0.0014005974 0.012800979 -0.19780113 -0.00045683674 -0.079146646 0.011338481
-0.004241365 0.0016211607 -0.03129433 0.025970554 0.038771674 0.027236821 -0.009892579 -0.013804099
0.023544695 -0.01170217 -0.37365866 -0.056580134 -0.053213406 0.17658679 0.023054883 0.00786083
0.008828618 0.0051163603 -0.30858782 -0.049294923 0.029045872 0.02796331 -0.042936902 0.020927742
-0.036201578 0.022401474 -0.04783385 0.06713789 -0.01660885 -0.028412106 -0.0015355423 0.009784661
-0.017064933 -0.0052266917 -0.010259461 0.0073282705 -0.03264516 0.019367173 -0.019005358 0.025970608
0.0038739103 0.00020333017 -0.014774963 -0.02770684 -0.033152334 -0.024172802 0.045548037 0.08075716
-0.04166187 0.036423825 -0.03136588 0.036880583 0.0021145754 0.032799512 -0.023579275 0.046287432
-0.017499998 0.0072305985 -0.04592701 -0.031251013 -0.012600325 0.033891506 0.043673567 0.0003711097
-0.04861335 0.015897974 0.016597264 -0.031626202 0.02109787 -0.04205067 -0.11260505 0.41579354
-0.22196327 -0.15088317 0.02902797 -0.06316406 0.0002323837 0.5772789 -0.17611668 0.027228564
-0.011402624 -0.07473763 -0.14899631 0.10295547 0.26155075 -0.19357742 0.008427349 0.05734254
-0.2688139 0.05043432 0.17151545 -0.29389542 -0.019029178 -0.04063993 0.004357138 0.30569792
-0.1696609 -0.33267885 -0.00996997 -0.07812611 -0.006535651 0.037921347 0.08690269 0.20508765
0.07024127 -0.076500215 0.1360456 -0.11498645 0.0027943512 -0.15001576 -0.018507112 -0.119429804
0.15958217 -0.10322778 0.13056928 -0.1787362 -0.009306595 -0.0721103 0.12838648 -0.4112754
-0.22997132 -0.047443938 -0.13413574 0.0036622083 0.011825652 -0.00541473 -0.057930365 -0.0056867213
00000000: ed99 e8bd 3a88 903d d751 77bd 874c 2e3d
00000010: a0bb 06bd 83ae d5bd 917a a6bd db46 fa3e
00000020: 5644 743e d174 363e 7b41 88bd b242 e4bc
00000030: 88ed 293d 0d8c 4abc 04df 313e 9f8e 42be
00000040: ab62 babd 76fd 0f3d 18d7 e3bb dff4 ecbd
00000050: c08b 09be 2281 06be 5a8c b23d 8d11 8cbd
00000060: c9c6 e6bc 1d9e 84bc 4ba1 9e3d 5721 ed3b
00000070: cef3 56be 882c 2fbd 5002 f23c 74f4 103d
00000080: 55df 5f3d 8619 6cbc a363 453d 95a2 0c3e
00000090: 3ce0 c6ba 1d6b 2fbb e151 25bb 9431 2a3e
000000a0: 7dd4 17be c3e0 143d f550 debd 9148 aabc
000000b0: 6b66 533d 68ca 163d fab3 2dbd 29ce 2ebe
000000c0: 1f3e 90bd fd22 b3be 7e62 acbc bcb6 2939
000000d0: fe82 823c 1005 293d 13ad 843d a7c8 4d3d
000000e0: 0ea3 523e 8c7c 6dbd c0ee 603c 71d6 8a3b
000000f0: ee51 1a3c 7c4b f93d c8fa d33d 2380 7cbd
00000100: f2e9 bbbd bd07 0b3e fb7d 7c3a 83b2 803c
00000110: a901 623d 1150 743d c126 893e c4bd 213e
00000120: 5ec9 c3bd 0186 0bbc a5b1 a33c 7a91 c53d
00000130: e4bc e33d 495d 3a3c 4d2b a93c 623a 20bb
00000140: 521a 5fbb cd05 3a3f c025 853d c00a 853c
00000150: c21d 69be 34ac 50bd 3747 ecbb 44b8 e03c
00000160: 81fe 753c 3bb7 9abc dc4d 33be 3fc3 85bb
00000170: 9ec7 bfbd b8aa f43e b916 723e b266 14bd
00000180: 5e18 f6bc 2ef9 123c a461 4b3e 97a2 813d
00000190: 0c67 0c3e 51ad 093c be37 1d3d 3eb7 1fbd
000001a0: 306b b4bc 63a0 f6bd efeb bcbe d26a 8c3d
000001b0: a7ee 76bc 70ac dbbd 3632 733d e3a5 8dbb
000001c0: 41c2 94bd c7ed c5bd 36f6 893b 9e7c e53b
000001d0: 5d45 0fbc c303 4ebd fad3 84bd 1cc5 bb3c
000001e0: d2ca 9ebd 959c adbc 4094 b73a 33bb 513c
000001f0: 618c 4abe 9783 efb9 a317 a2bd 09c5 393c
00000200: 26fb 8abb 207d d43a 7c2e 00bd 33c0 d43c
00000210: 0ccf 1e3d c11f df3c 7c14 22bc 962a 62bc
00000220: cee0 c03c 75ba 3fbc 3050 bfbe 92c0 67bd
00000230: 4df6 59bd 2bd3 343e 98dd bc3c b6ca 003c
00000240: e8a5 103c 24a7 a73b 39ff 9dbe 79e9 49bd
00000250: 9cf1 ed3c 5013 e53c 9bde 2fbd a870 ab3c
00000260: 1b48 14bd 4c83 b73c 6ded 43bd 977f 893d
00000270: 480f 88bc 81c0 e8bc 4044 c9ba d84f 203c
00000280: c2cb 8bbc ab44 abbb 4c17 28bc fd21 f03b
00000290: eeb6 05bd e8a7 9e3c 20b1 9bbc 50c0 d43c
000002a0: 6ee1 7d3b 0735 5539 b012 72bc 74f9 e2bc
000002b0: beca 07bd 0a06 c6bc 9490 3a3d 0364 a53d
000002c0: a3a5 2abd 2631 153d 8279 00bd 1810 173d
000002d0: b094 0a3b c858 063d 5329 c1bc e497 3d3d
000002e0: 285c 8fbc a8ee ec3b f61d 3cbd 1001 00bd
000002f0: 9871 4ebc d2d1 0a3d 0ee3 323d 8091 c239
00000300: cb1e 47bd 783c 823c fcf6 873c 7a8a 01bd
00000310: 71d5 ac3c 533d 2cbd 7a9d e6bd e4e2 d43e
00000320: 574a 63be 1e81 1abe 11cc ed3c 295c 81bd
00000330: 06ac 7339 8dc8 133f ee57 34be 700e df3c
00000340: 12d2 3abc 0b10 99bd 7d92 18be 51da d23d
00000350: fbe9 853e 2939 46be dd12 0a3c 03e0 6a3d
00000360: faa1 89be 3894 4e3d bfa1 2f3e 7679 96be
00000370: 14e3 9bbc 0e76 26bd 53c6 8e3b 7084 9c3e
00000380: 96bb 2dbe e254 aabe 1659 23bc 9500 a0bd
00000390: 0429 d6bb 6a53 1b3d 0afa b13d 7f02 523e
000003a0: a8da 8f3d 25ac 9cbd 8a4f 0b3e 047e ebbd
000003b0: 6f21 373b bb9d 19be 3a9c 97bc 9d97 f4bd
000003c0: 8269 233e 1669 d3bd f4b3 053e 9f06 37be
000003d0: b07a 18bc 91ae 93bd bf77 033e b092 d2be
000003e0: 9a7d 6bbe 9354 42bd e15a 09be a901 703b
000003f0: 61c0 413c 0c6e b1bb 6448 6dbd ad57 babb

fc1.bias f4 [2]
0.5085532 1.5916717
00000000: 8b30 023f e6bb cb3f

fc2.weight f4 [392, 2]
-0.6385332 -0.6276069 -0.5341303 -0.5041524 0.23343514 -0.09424953 -0.24071598 -0.47272158
0.16423574 -0.6841581 0.118663386 0.040749468 0.03006661 -0.30131835 -0.5196456 0.0015633963
-0.46802062 -0.95452195 -0.6291914 0.07913089 0.46478552 -0.58883756 -0.12170794 -0.036519233
-0.53301907 -0.24746639 -0.0024774075 -0.6689019 0.1400032 -0.15462482 -1.3095716 -0.16898991
0.77294767 0.2509945 -0.13336973 0.38206622 0.7271686 0.8374492 0.24743494 -0.1315818
0.04139621 0.3549571 0.113834076 -0.115295075 -0.47837943 0.07635896 0.34268007 -0.30000964
-0.15358362 -0.20120732 1.6210161 -16.29996 0.14382248 0.30654338 -0.29809362 -0.55918556
-0.2871946 -0.46818018 0.16469976 0.06519352 0.1761278 -0.38014883 -0.29875416 1.5323375
-0.14762667 -0.6162601 1.141425 0.77045715 0.12492711 -0.28317997 0.14699097 -1.0614533
-0.5532115 0.019594103 0.8250603 0.12211183 -0.0008344425 1.4403679 -0.14080003 -0.43335372
0.521604 -0.47147742 0.13504739 -0.4617229 -0.20981416 -0.2809105 0.030839022 -0.061744954
0.12839583 -0.25750005 -0.12584785 0.6326742 -0.20375639 -0.38837302 -0.5657363 0.05054325
0.08367662 -0.16424108 -0.3095858 -0.026406225 0.016877083 0.018522985 0.29184258 -0.1089922
0.09709026 -0.29660878 -0.029227631 0.039029934 -0.0034850198 -0.052142806 -0.18772605 -0.05565204
-0.18075204 -0.33131105 0.020886896 0.016364032 0.19869824 -0.37024698 -0.1188817 -0.5666083
-0.68044347 1.3675703 0.008829924 -0.007690334 0.21166492 -0.15098155 -0.24360119 0.031571444
-26.882826 0.1748268 1.1045297 0.16511314 -0.2623739 -0.6212228 0.021630518 0.12025236
0.008400712 -0.4104454 0.28682977 -0.1437647 -0.55263805 -0.48663306 0.4322066 0.78332496
0.28563994 -2.2850108 0.16298312 -0.85782325 0.014439837 0.9023207 0.0060977777 0.8771839
0.0030819178 -0.18021739 0.05843913 -0.08378312 -0.3514116 0.09753667 0.18790875 -0.75141966
0.16984428 0.5360803 -0.40308243 -0.4903847 0.3153835 -0.24893263 0.024992133 -0.13304335
-0.008567189 0.0073912875 -0.05124391 -0.10579018 -0.3260688 1.0391906 0.11946388 0.95639366
-0.3891667 -0.049857825 -2.1665425 -1.5701902 -0.30617645 -0.06309444 0.015615733 0.018718041
-0.109170094 -0.091056235 -0.060867675 0.017570809 0.95796955 0.8998465 -0.49904558 0.3559616
0.012001004 -0.077442035 0.10510575 -0.14009906 -0.0015954286 -0.004149096 0.19832873 -0.0963358
0.0034694872 -0.0012440741 -0.04563464 0.07427627 -0.15769757 0.20378207 0.11733938 0.0015774574
-0.0018005661 -0.004015981 -0.0008420928 -0.0041713226 -0.0031906522 0.10714694 0.5423616 -0.48854116
0.7344784 -0.89979845 -0.45882496 0.1650581 0.16557367 -0.1309816 -0.010554936 -0.0043310164
-0.29553252 0.08908769 0.17167893 0.011711888 -0.04379836 0.8435549 -0.4089678 -0.7060313
0.07721903 -0.157395 -0.009422781 -0.007981278 -0.17093371 0.487871 0.0011527281 -0.004668358
-0.09571391 -0.58777505 -0.42172438 -0.18252224 -0.6067 0.19820814 -0.3268257 -0.63399583
0.36800322 2.1639419 0.00066539145 -0.0037407572 -0.007239679 -0.0009216427 0.09507727 0.568897
00000000: e976 23bf d9aa 20bf c3bc 08bf 2210 01bf
00000010: 9f09 6f3e e605 c1bd 407e 76be 9008 f2be
00000020: 6a2d 283e fc24 2fbf ca05 f33d eae8 263d
00000030: 404e f63c 6646 9abe 7e07 05bf e0ea cc3a
00000040: 66a0 efbe 8d5b 74bf b012 21bf 600f a23d
00000050: 5ef8 ed3e 0fbe 16bf 0342 f9bd 3195 15bd
00000060: f073 08bf d467 7dbe 005c 22bb 283d 2bbf
00000070: 005d 0f3e f855 1ebe 0ba0 a7bf b10b 2dbe
00000080: e6df 453f 5a82 803e 1392 08be 2f9e c33e
00000090: b927 3a3f 1263 563f 965f 7d3e 61bd 06be
000000a0: 138f 293d f0bc b53e d721 e93d d31f ecbd
000000b0: 26ee f4be 1662 9c3d c373 af3e dd9a 99be
000000c0: 0645 1dbe 4b09 4ebe 757d cf3f 5166 82c1
000000d0: 3346 133e 41f3 9c3e ba9f 98be c926 0fbf
000000e0: 2c0b 93be 50b5 efbe 0ea7 283e 2e84 853d
000000f0: d95a 343e dea2 c2be 4ef6 98be a323 c43f
00000100: 722b 17be 39c3 1dbf 371a 923f ae3c 453f
00000110: c9d9 ff3d f7fc 90be cd84 163e b4dd 87bf
00000120: 459f 0dbf d083 a03c 2737 533f c415 fa3d
00000130: 7dbe 5aba fa5d b83f e22d 10be 8ae0 ddbe
00000140: d787 053f 7d65 f1be dd49 0a3e f266 ecbe
00000150: 86d9 56be 80d3 8fbe 1ea2 fc3c 47e8 7cbd
00000160: 327a 033e 0cd7 83be 42de 00be f0f6 213f
00000170: 84a5 50be d4d8 c6be 18d4 10bf 7006 4f3d
00000180: a65e ab3d d02e 28be 0882 9ebe de51 d8bc
00000190: cf41 8a3c 84bd 973c 646c 953e 4d37 dfbd
000001a0: 42d7 c63d 1bdd 97be c96e efbc dadd 1f3d
000001b0: ee64 64bb b293 55bd 423b 40be 65f3 63bd
000001c0: 1017 39be 9aa1 a9be ff1a ab3c dd0d 863c
000001d0: 8d77 4b3e 0391 bdbe 4078 f3bd 3e0d 11bf
000001e0: 8b31 2ebf 8b0c af3f 63ab 103c 33ff fbbb
000001f0: b0be 583e e89a 1abe 9772 79be 0f51 013d
00000200: 0710 d7c1 cc05 333e 3b61 8d3f 6b13 293e
00000210: df55 86be 7508 1fbf 7c32 b13c df46 f63d
00000220: 24a3 093c e625 d2be 5adb 923e 0e37 13be
00000230: b079 0dbf f827 f9be 2f4a dd3e fc87 483f
00000240: 663f 923e 9e3d 12c0 0ce5 263e 4e9a 5bbf
00000250: 1195 6c3c 7dfe 663f decf c73b 208f 603f
00000260: 00fa 493b e88a 38be df5d 6f3d 7c96 abbd
00000270: 39ec b3be 4ec1 c73d 276b 403e 0a5d 40bf
00000280: a9eb 2d3e 8f3c 093f d260 cebe b413 fbbe
00000290: f279 a13e 32e8 7ebe 4dbc cc3c 843c 08be
000002a0: 655d 0cbc 9d32 f23b 22e5 51bd 86a8 d8bd
000002b0: 7df2 a6be 3304 853f 7ba9 f43d 37d6 743f
000002c0: dc40 c7be b837 4cbd a2a8 0ac0 fefb c8bf
000002d0: 29c3 9cbe a837 81bd 22d9 7f3c 9456 993c
000002e0: 9294 dfbd b17b babd 6250 79bd a8f0 8f3c
000002f0: 7e3d 753f 575c 663f e782 ffbe 9940 b63e
00000300: dc9f 443c ee99 9ebd af41 d73d 2176 0fbe
00000310: b31d d1ba 24f5 87bb b016 4b3e b44b c5bd
00000320: 5660 633b 3310 a3ba 63eb 3abd 281e 983d
00000330: 797b 21be 3fac 503e a14f f03d b0c2 ce3a
00000340: f900 ecba 7e98 83bb e4bf 5cba 97af 88bb
00000350: 431a 51bb db6f db3d 36d8 0a3f 1122 fabe
00000360: c706 3c3f 3159 66bf 1beb eabe fe04 293e
00000370: 258c 293e 0a20 06be 9cee 2cbc 33eb 8dbb
00000380: 0a50 97be 9b73 b63d 9acc 2f3e 38e3 3f3c
00000390: e965 33bd 37f3 573f 3a64 d1be 78be 34bf
000003a0: 0325 9e3d 282c 21be 0262 1abc e8c3 02bc
000003b0: 3f09 2fbe 3aca f93e 2317 973a 06f9 98bb
000003c0: a805 c4bd 6d78 16bf 42ec d7be 1ce7 3abe
000003d0: b150 1bbf 13f7 4a3e b355 a7be 8d4d 22bf
000003e0: eb6a bc3e 067e 0a40 aa6d 2e3a 7e27 75bb
000003f0: d43a edbb 659a 71ba dfb7 c23d 3ca3 113f

fc2.bias f4 [392]
-0.66495717 -0.00038263062 -0.7031555 -0.0003652922 -0.5285623 0.3441964 -0.25474262 -0.008307843
-0.0032018707 -0.5515884 -0.84873205 2.0084624 -0.30686015 -0.0019414868 -0.40045065 1.0997772
-1.2951099 -0.60525066 2.829758 -0.25116912 -0.11291098 -0.41687202 0.13228664 0.7563102
2.4763904 5.6671333 0.25092155 -0.6128559 -0.00074929354 -0.1873173 -0.011928103 -0.9751921
2.0836987 -1.9365071 -0.35492742 -0.4571086 -0.2073463 -1.0212046 -0.45579502 1.1975793
-0.4940103 -0.4568029 -0.0025746825 -0.1714253 -0.39538506 -1.0985007 -0.20743793 -0.5854467
-0.2635717 -0.00051187765 0.8965328 -0.8344766 0.54319316 0.78759134 -0.002261682 -0.0010278558
-0.3856011 -0.24809618 -0.0645728 -0.52052534 -3.5387383 -0.030536748 -0.60103476 -0.20441237
0.4128153 -1.2901125 -0.58664155 -0.7158338 -0.08991472 0.56592405 -0.5743974 -0.059151646
1.6046213 1.0575098 -2.375065 -0.28626594 -0.43843174 -0.19056717 0.46303722 0.9807687
-1.510007 -0.006797702 0.68581116 -0.16095373 0.890868 0.42262733 2.0569665 -0.776533
-0.0018649981 3.4986448 -0.0014000454 0.898076 0.7078326 -0.1798466 -0.9792205 1.2844548
-0.041470952 -0.34481198 1.6536603 -0.5874557 1.6294832 1.4653114 -0.53555244 1.5528855
1.6533717 1.6521615 0.8922955 -1.1888928 -0.81472576 3.379029 -0.49233213 1.6454666
-0.39853686 1.0105991 -2.6017778 -0.0093238745 0.80412555 -0.0026768374 1.5138615 1.6500294
-0.2317527 -0.08902526 -0.118610434 -0.012615782 0.01840219 1.6439693 1.6502819 1.0450721
-0.30504516 0.25547224 -0.49735165 -1.0161551 1.684926 -0.7236697 1.9761363 0.71271306
-0.4498561 -1.4340729 1.9517252 1.6473681 -0.6857405 -0.23205498 -0.6948333 -2.5180118
0.62874556 1.6546172 1.6535116 -0.0037952028 -0.0025198082 -0.0006495951 -0.48503932 0.11607103
-0.0045785336 -0.24249443 -0.00042886072 1.6052911 0.48743075 -0.7209455 -0.0054559824 -1.2342013
-0.81162333 -0.06885683 1.7475022 -0.470114 0.9574245 -0.11593414 0.75891155 0.2480605
-0.13990743 -0.03629375 1.5076689 -0.8893287 -0.1523328 -0.016584154 -0.0029419877 -0.4435918
-0.010896146 -0.5959196 -0.45656863 -1.0984929 -0.19380376 -0.15105289 -0.03474425 1.0057814
-3.068832 -0.6996758 2.4908638 -0.45053345 -0.0024151374 -0.23178601 1.3315752 2.7186613
2.891134 0.858019 -0.86805964 -0.0032321604 -0.0032199724 1.2036498 -0.34600163 0.39693356
1.0327225 0.42252317 -0.26214024 -0.27144974 -0.44010827 0.4588016 -0.5138798 -2.2998495
0.45193866 -0.49023014 -0.0006639816 2.4412432 -0.51042557 -0.0012599678 -0.1224753 -0.16514963
0.32983866 -0.14014661 1.0758393 0.40217015 -0.70210445 -3.5975251 1.1708584 -0.0060499893
-0.98461 0.87313896 0.21384928 -1.3299068 -0.037096873 -0.31826997 -0.051344797 1.1991435
-0.3016853 -0.05085632 -1.2484279 -0.5037104 -0.3221292 -0.006608838 1.2032223 -0.32598504
0.20591795 -0.631308 0.7868139 -0.0068869647 -0.43518507 -0.3933016 0.40638885 -0.003958751
-0.00015197297 0.7682721 0.42888862 -0.0014778856 -0.2832825 -0.010243453 2.1522567 2.5049405
00000000: a23a 2abf d09b c8b9 0002 34bf b084 bfb9
00000010: dc4f 07bf 833a b03e a06d 82be 9e1d 08bc
00000020: 7ad6 51bb e634 0dbf 8146 59bf a68a 0040
00000030: c61c 9dbe 7d79 feba de07 cdbe 80c5 8c3f
00000040: 29c6 a5bf b5f1 1abf c11a 3540 3d99 80be
00000050: df3d e7bd 4070 d5be 2676 073e 8c9d 413f
00000060: 2e7d 1e40 2859 b540 ca78 803e 20e4 1cbf
00000070: 3d6c 44ba 1bd0 3fbe 176e 43bc 31a6 79bf
00000080: 525b 0540 77df f7bf 0cb9 b5be 230a eabe
00000090: 9752 54be d5b6 82bf f75d e9be 474a 993f
000000a0: ebee fcbe 12e2 e9be 01bc 28bb 1d8a 2fbe
000000b0: e96f cabe ac9b 8cbf 9c6a 54be d6df 15bf
000000c0: dff2 86be 872f 06ba 2c83 653f 42a0 55bf
000000d0: b50e 0b3f 969f 493f ba38 14bb 1eb9 86ba
000000e0: 826d c5be ed0c 7ebe bf3e 84bd 2641 05bf
000000f0: b07a 62c0 3428 fabc 6add 19bf 7a51 51be
00000100: 875c d33e 6822 a5bf 242e 16bf e240 37bf
00000110: 3525 b8bd 66e0 103f b50b 13bf ff48 72bd
00000120: 3b64 cd3f 7b5c 873f 1101 18c0 7391 92be
00000130: 207a e0be 0a24 43be 3713 ed3e a813 7b3f
00000140: e947 c1bf 42bf debb 5291 2f3f 0ed1 24be
00000150: ed0f 643f 9c62 d83e 57a5 0340 deca 46bf
00000160: f472 f4ba cce9 5f40 ba81 b7ba 4fe8 653f
00000170: 8434 353f b529 38be 32ae 7abf 0469 a43f
00000180: 72dd 29bd 328b b0be 24ab d33f 7f63 16bf
00000190: e892 d03f 538f bb3f f719 09bf f4c4 c63f
000001a0: afa1 d33f 077a d33f 7a6d 643f a42d 98bf
000001b0: de91 50bf 0342 5840 f512 fcbe a69e d23f
000001c0: 060d ccbe 505b 813f 8783 26c0 2ac3 18bc
000001d0: 2cdb 4d3f e16d 2fbb 37c6 c13f 2a34 d33f
000001e0: 9450 6dbe e052 b6bd 07ea f2bd 6db2 4ebc
000001f0: 31c0 963c 966d d23f 703c d33f ecc4 853f
00000200: e12e 9cbe 42cd 823e e0a4 febe 5f11 82bf
00000210: a8ab d73f 6b42 39bf 09f2 fc3f 5d74 363f
00000220: 8a53 e6be b38f b7bf 22d2 f93f f5dc d23f
00000230: b08c 2fbf d29f 6dbe 98e0 31bf 1b27 21c0
00000240: 78f5 203f 7fca d33f 45a6 d33f f0b8 78bb
00000250: 5e23 25bb 9749 2aba 1357 f8be a6b6 ed3d
00000260: 8607 96bb 7650 78be b6d8 e0b9 2e7a cd3f
00000270: 8690 f93e e28f 38bf 19c8 b2bb 4ffa 9dbf
00000280: 8cc6 4fbf cf04 8dbd 27ae df3f c8b2 f0be
00000290: c619 753f e16e edbd 0748 423f 9203 7e3e
000002a0: e543 0fbe c1a8 14bd 4bfb c03f 0cab 63bf
000002b0: 21fd 1bbe 7edb 87bc 5dce 40bb 771e e3be
000002c0: c085 32bc 308e 18bf 5dc3 e9be 6a9b 8cbf
000002d0: 7e74 46be 9cad 1abe fd4f 0ebd 72bd 803f
000002e0: be67 44c0 f41d 33bf 506a 1f40 52ac e6be
000002f0: 4847 1ebb 5059 6dbe 0e71 aa3f 8cfe 2d40
00000300: 5708 3940 22a7 5b3f 2839 5ebf a7d2 53bb
00000310: 2c06 53bb 3211 9a3f 2027 b1be e03a cb3e
00000320: 4030 843f f554 d83e 3f37 86be 76fb 8abe
00000330: df55 e1be 0be8 ea3e a08d 03bf bc30 13c0
00000340: 8164 e73e 72ff fabe 0d0f 2eba 543d 1c40
00000350: 40ab 02bf 8125 a5ba 55d4 fabd fc1c 29be
00000360: 9de0 a83e 9882 0fbe 1ab5 893f 3fe9 cd3e
00000370: 1ebd 33bf da3d 66c0 b0de 953f fd3e c6bb
00000380: 670f 7cbf 0986 5f3f 4efb 5a3e 633a aabf
00000390: e4f2 17bd 48f4 a2be ec4e 52bd 897d 993f
000003a0: 7f76 9abe b74e 50bd 7ccc 9fbf 2af3 00bf
000003b0: 1eee a4be f48e d8bb 3003 9a3f 83e7 a6be
000003c0: 28dc 523e 679d 21bf a36c 493f 0cac e1bb
000003d0: 94d0 debe d45e c9be 3312 d03e 69b8 81bb
000003e0: ef5a 1fb9 7bad 443f 4a97 db3e 9db5 c1ba
000003f0: 670a 91be 28d4 27bc 93be 0940 f250 2040

deconv1.weight f4 [8, 8, 1, 1]
-2.1630075 -1.4481016 -1.2287852 -1.859063 -0.58530396 0.23194885 -1.4918673 -0.076076865
0.5223485 -0.94142485 0.43786263 -0.29685733 -0.07649046 -1.6857051 0.7817697 0.37445524
1.3744917 -0.084284045 0.88431567 0.1841865 0.5958211 -1.2168845 0.8815121 -0.0135366935
0.4127927 -0.36270708 -0.44320193 0.65909207 -0.47780746 -0.61182606 0.77834076 0.43247956
0.47217053 0.538974 -0.09769322 0.46397668 0.38386792 0.3762283 0.031310648 -0.36474434
0.6811996 -0.6513997 -0.013265711 0.9713083 -0.25327966 1.0823578 1.7569587 1.0737855
0.27970517 0.39920303 0.05624018 0.45465294 -0.3777587 -1.7535658 0.113707274 -0.07490075
0.15618762 1.6953555 -0.25893107 1.1138229 -1.1337465 1.3641086 -0.54361635 -0.5308053
00000000: b76e 0ac0 655b b9bf d548 9dbf c7f5 edbf
00000010: 7bd6 15bf 0084 6d3e 82f5 bebf 30ce 9bbd
00000020: a2b8 053f 3801 71bf 882f e03e affd 97be
00000030: 08a7 9cbd 2fc5 d7bf 0f22 483f 99b8 bf3e
00000040: 58ef af3f 1d9d acbd 8362 623f 639b 3c3e
00000050: bb87 183f dfc2 9bbf c7aa 613f 02c9 5dbc
00000060: 9159 d33e beb4 b9be 5deb e2be 42ba 283f
00000070: 2ea3 f4be a2a0 1cbf 5741 473f f66d dd3e
00000080: 56c0 f13e 33fa 093f 6213 c8bd 5a8e ed3e
00000090: 568a c43e ffa0 c03e 983f 003d c5bf babe
000000a0: 1963 2e3f 21c2 26bf 6d58 59bc a9a7 783f
000000b0: dfad 81be b38a 8a3f 06e4 e03f ce71 893f
000000c0: 8435 8f3e 5764 cc3e 1a5c 663d 45c8 e83e
000000d0: 9769 c1be d874 e0bf 5cdf e83d 9065 99bd
000000e0: a6ef 1f3e 6901 d93f 9d92 84be c091 8e3f
000000f0: 9b1e 91bf 1c9b ae3f 712a 0bbf dbe2 07bf

deconv1.bias f4 [8]
0.2912418 0.62426484 2.0899749 -0.33983463 1.7130864 0.5664018 -0.5391497 0.5860047
00000000: a51d 953e d2cf 1f3f 26c2 0540 cefe adbe
00000010: 6a46 db3f b5ff 103f b705 0abf 6704 163f

deconv2.weight f4 [8, 4, 2, 2]
0.430078 0.55607843 0.996104 0.124720186 -4.1290383 -6.028632 -0.7586125 1.4493219
-0.39613673 -1.1686723 -0.03348125 -2.3373184 -0.85579187 0.38256595 -1.3770986 -0.813324
-0.20460428 -0.3367738 0.03555461 0.43131608 -0.7488817 -3.1669512 0.9010408 -0.1434934
0.55701745 0.6039849 -0.5355379 -1.0170265 -1.0173299 2.8036783 -1.6234424 0.6341623
-0.65267986 -0.9606026 -1.4593031 -1.2779018 -5.2898316 0.57155514 0.072573766 -5.5270786
-0.33388132 0.77805144 -8.795788 -2.4868212 0.35750106 -5.460495 -2.4646378 0.9809106
0.74271876 1.0231004 0.5123365 0.43662548 -2.6233847 -3.5305443 -0.060935248 -0.03994912
0.38314041 -0.01813202 0.38429403 -0.18964188 -0.060903646 -1.771415 -0.9621459 -0.12753983
0.9731202 1.2592316 1.3537215 1.4410993 0.7827795 -0.21394275 0.56190616 -1.7244569
1.0010386 0.116641656 -2.6915588 1.5532247 -0.31329617 1.5362992 1.3836015 -0.11907613
0.48123434 0.39617676 0.7479204 -0.13093768 -0.98189956 0.893821 -1.5748631 1.247926
-1.0739877 -1.3841158 0.7654179 -0.32588604 1.0491743 -0.5994621 -0.44483134 -1.5462832
-0.6260883 -0.18721342 -0.62212604 0.9623479 0.84989625 -0.07551552 1.3416184 0.65483445
1.0770391 1.2071444 -0.19580011 0.5978184 -0.23972222 0.35895577 0.7516084 0.43283063
-0.14692609 -0.7349962 -0.22241546 -0.91196144 0.26958302 -2.0279684 0.3286564 -2.3405244
-0.053306606 0.40176716 -1.1005307 0.13534105 -0.46707463 0.7832868 0.4023001 1.3444002
00000000: 2f33 dc3e 285b 0e3f ac00 7f3f 4c6d ff3d
00000010: 1521 84c0 8eea c0c0 6e34 42bf 6183 b93f
00000020: 6fd2 cabe 0e97 95bf a323 09bd a096 15c0
00000030: 2d15 5bbf afdf c33e c444 b0bf 0036 50bf
00000040: c983 51be 9e6d acbe b6a1 113d 76d5 dc3e
00000050: b6b6 3fbf 54af 4ac0 9caa 663f efef 12be
00000060: b298 0e3f c19e 1a3f 0319 09bf ed2d 82bf
00000070: de37 82bf 776f 3340 f6cc cfbf 7658 223f
00000080: 0716 27bf 0dea 75bf 72ca babf 4992 a3bf
00000090: 4d46 a9c0 7051 123f 8ea1 943d d4dd b0c0
000000a0: 7ef2 aabe 612e 473f 8cbb 0cc1 1428 1fc0
000000b0: 610a b73e 60bc aec0 a0bc 1dc0 f51c 7b3f
000000c0: d122 3e3f f4f4 823f 7c28 033f 608d df3e
000000d0: 89e5 27c0 70f4 61c0 3d97 79bd b0a1 23bd
000000e0: fb2a c43e 9a89 94bc 30c2 c43e 7b31 42be
000000f0: 1a76 79bd babd e2bf 324f 76bf cd99 02be
00000100: 681e 793f 802e a13f bf46 ad3f f175 b83f
00000110: 3d64 483f cf13 5bbe 15d9 0f3f 01bb dcbf
00000120: 0822 803f d2e1 ee3d 8042 2cc0 11d0 c63f
00000130: 5b68 a0be 74a5 c43f db19 b13f 30de f3bd
00000140: 5964 f63e aed7 ca3e b677 3f3f 8714 06be
00000150: c55d 7bbf 74d1 643f 1d95 c9bf 0abc 9f3f
00000160: 6e78 89bf b52a b1bf 6df2 433f 89da a6be
00000170: 584b 863f 5976 19bf efc0 e3be 9cec c5bf
00000180: 5347 20bf e0b4 3fbe a743 1fbf 6f5c 763f
00000190: cd92 593f e2a7 9abd 27ba ab3f 3ba3 273f
000001a0: 6bdc 893f b583 9a3f d37f 48be a00a 193f
000001b0: be79 75be 0dc9 b73e 6869 403f fa9b dd3e
000001c0: cb73 16be b628 3cbf e1c0 63be 4e76 69bf
000001d0: c906 8a3e 3cca 01c0 a745 a83e 27cb 15c0
000001e0: 0758 5abd 6db4 cd3e 31de 8cbf d896 0a3e
000001f0: 6824 efbe 7c85 483f 47fa cd3e 4e15 ac3f

deconv2.bias f4 [4]
0.55684066 0.9445766 0.7001987 0.5039506
00000000: 1c8d 0e3f c6cf 713f 3940 333f e802 013f

deconv3.weight f4 [4, 1, 2, 2]
-0.4211465 -0.3243892 -0.35566086 -0.25798523 -0.45016053 -0.48366278 -0.4716972 -0.50498134
-0.4361223 -0.48423478 -0.46880654 -0.517538 -0.40229866 -0.42799586 -0.4206829 -0.44561806
00000000: 84a0 d7be 5716 a6be 2e19 b6be a416 84be
00000010: 717b e6be a6a2 f7be 4c82 f1be 7546 01bf
00000020: 6c4b dfbe 9fed f7be 6907 f0be 5f7d 04bf
00000030: 17fa cdbe 4622 dbbe c063 d7be 0d28 e4be
