Pytorch/AutoEncoder/saved_models/Clapton_mnist.pt (torch, 409455 bytes, 15 tensors)

conv1.weight f4 [32, 1, 3, 3]
0.011006817 -0.06409438 -0.12695822 0.10388917 0.069090456 0.060246106 0.0043404973 0.0008913894
0.02652041 0.079987146 -0.046261612 0.055577062 -0.19690643 -0.017262977 0.117232755 0.008844457
0.109420225 -0.19750117 -0.17808399 -0.11676955 -0.041585974 -0.099241905 -0.037668176 0.1278816
-0.119302526 -0.08202202 0.0572206 0.07232974 -0.00043093445 -0.07723433 0.08384721 0.006434566
-0.08054922 0.06489857 0.0011760223 -0.085514866 0.091927424 0.057860576 0.045601945 -0.01011387
-0.018004386 0.0073766415 -0.086145215 -0.055821672 -0.030499822 0.004451092 0.0055255275 -0.082956165
0.0015442318 0.09861557 0.12857758 -0.06899551 -0.0919293 -0.077789664 -0.07124994 0.035427157
-0.07277649 0.032866705 0.028919905 -0.060889665 0.120150946 0.024214683 0.01790056 0.01976999
-0.03894921 0.056625478 0.08923272 0.116582274 0.049960423 0.16898897 -0.022853374 0.17438148
-0.072168104 -0.029088916 -0.027752833 -0.054956928 0.017548617 0.055259034 0.03066101 0.10777894
0.044168435 -0.14773682 -0.17581539 -0.11945798 0.1469655 0.11833065 -0.2835872 -0.0009960476
-0.19418678 -0.021345425 -0.09012185 -0.07392087 -0.11633744 -0.08662886 -0.01509656 -0.05470764
-0.10049436 -0.020075863 -0.04581036 -0.24410729 -0.004164617 -0.069600075 -0.08224082 -0.0806242
-0.017336503 0.0012679513 -0.014738197 0.17777748 0.07990143 -0.05929508 -0.023575723 -0.0984736
-0.07118849 -0.056492887 0.02340086 0.012590513 0.07028261 0.15046175 0.085685946 -0.04918337
-0.1094509 -0.082791604 0.13047495 -0.13336112 -0.10919583 0.19724298 -0.011305572 -0.08473631
0.037349977 0.074284285 -0.07479816 0.034223184 0.11167435 -0.09105454 0.019033909 0.06844378
0.11765537 0.035954088 -0.025627183 0.036448132 0.07300422 -0.05705954 0.019043243 0.086920924
-0.1060457 -0.1183416 0.07158458 -0.26055136 0.07580991 0.16481446 -0.26976612 -0.13486111
-0.18696377 -0.14755158 0.117027335 0.096223205 -0.09614212 0.080253124 -0.0152888205 0.108276255
0.068675585 -0.11133892 -0.06826424 0.14496464 -0.121146195 -0.109637484 0.09424886 -0.11325491
-0.24698226 -0.29055506 -0.106779076 -0.0491093 0.08774656 -0.058050483 -0.08714365 0.13879669
-0.033111807 -0.09983937 0.17400663 -0.06299459 0.0028335224 0.030431207 0.068581514 -0.077422
-0.020677872 0.06977494 -0.81486315 -0.10884573 -0.07717629 -0.20530976 0.16272555 0.016471859
-0.01412147 0.099226065 -0.04930225 -0.2787853 -0.13547549 -0.32703027 0.054047406 0.050321013
-0.06859887 0.013638602 -0.06093521 -0.09455786 0.06590435 -0.054776598 -0.1607712 0.15019736
0.18308853 0.037572306 0.13081476 0.0954237 0.025939642 0.0026354594 0.034347728 0.052609824
-0.19514751 -0.14904553 0.06867219 0.024420355 0.20776568 -0.14545725 0.020146834 -0.031626835
-0.16036585 0.007775026 0.0870066 -0.014858738 -0.10041936 0.18477568 -0.20687145 -0.16601431
-0.07329703 -0.031757124 -0.03982765 -0.069093116 -0.08271286 0.11681787 -0.12100899 0.19723514
0.25117862 -0.22205241 0.27530465 0.08593413 -0.06773081 -0.35240602 0.07673278 0.053441696
-0.28969175 -0.10666482 -0.107517324 -0.6058773 -0.0407143 -0.05918696 0.110337436 -0.07556293
00000000: f055 343c ea43 83bd 5601 02be d8c3 d43d
00000010: 4c7f 8d3d 9fc4 763d bb3a 8e3b 21ac 693a
00000020: 5541 d93c 4dd0 a33d d17c 3dbd c6a4 633d
00000030: d7a1 49be 166b 8dbc ba17 f03d 57e8 103c
00000040: b617 e03d bf3d 4abe a65b 36be e024 efbd
00000050: 0e56 2abd 573f cbbd f249 1abd 65f3 023e
00000060: e254 f4bd 29fb a7bd 2660 6a3d 9d21 943d
00000070: 0bef e1b9 082d 9ebd 16b8 ab3d 0dd9 d23b
00000080: fdf6 a4bd 8be9 843d c324 9a3a 6b22 afbd
00000090: 7244 bc3d 36ff 6c3d 1bc9 3a3d a5b4 25bc
000000a0: ef7d 93bc c1b7 f13b e76c b0bd 44a5 64bd
000000b0: c3da f9bc 77da 913b 7c0f b53b ece4 a9bd
000000c0: d267 ca3a f6f6 c93d d7a9 033e 854d 8dbd
000000d0: 6e45 bcbd 3050 9fbd 7deb 91bd 111c 113d
000000e0: d70b 95bd 3d9f 063d 70e9 ec3c 7167 79bd
000000f0: b311 f63d df5d c63c 32a4 923c adf4 a13c
00000100: 3589 1fbd 1ef0 673d a5bf b63d b0c2 ee3d
00000110: 4da3 4c3d 720b 2d3e 0037 bbbc 0f91 323e
00000120: dfcc 93bd e14b eebc e959 e3bc 841a 61bd
00000130: 1ec2 8f3c 4c57 623d cc2c fb3c 34bb dc3d
00000140: f6e9 343d 5248 17be f308 34be 63a6 f4bd
00000150: 207e 163e 5757 f23d 5732 91be d08d 82ba
00000160: e6d8 46be 9adc aebc ce91 b8bd d363 97bd
00000170: 5342 eebd 796a b1bd 9057 77bc 1e15 60bd
00000180: fdcf cdbd 2376 a4bc a5a3 3bbd 43f7 79be
00000190: 5777 88bb 7c8a 8ebd e06d a8bd 4d1e a5bd
000001a0: 4805 8ebc 6331 a63a 7b78 71bc 4d0b 363e
000001b0: 5ca3 a33d 66df 72bd e021 c1bc 87ac c9bd
000001c0: 45cb 91bd 1665 67bd 29b3 bf3c 7048 4e3c
000001d0: 54f0 8f3d a512 1a3e 1d7c af3d 8074 49bd
000001e0: cb27 e0bd a58e a9bd 3a9b 053e d18f 08be
000001f0: 10a2 dfbd 10fa 493e 023b 39bc 3b8a adbd
00000200: 4afc 183d 5c22 983d c72f 99bd 9c2d 0c3d
00000210: 86b5 e43d cd7a babd 00ed 9b3c 412c 8c3d
00000220: 4cf5 f03d 9844 133d 19f0 d1bc a34a 153d
00000230: 3d83 953d 44b7 69bd 9300 9c3c 9903 b23d
00000240: 7d2e d9bd 155d f2bd f09a 923d fd66 85be
00000250: 3a42 9b3d 1fc5 283e c91e 8abe 0819 0abe
00000260: 6e73 3fbe c317 17be 07ac ef3d ac10 c53d
00000270: 29e6 c4bd c05b a43d f67d 7abc f1bf dd3d
00000280: c9a5 8c3d a905 e4bd 1fce 8bbd 9c71 143e
00000290: 7f1b f8bd 9e89 e0bd 8c05 c13d 31f2 e7bd
000002a0: ebe8 7cbe a2c3 94be fdae dabd d526 49bd
000002b0: 78b4 b33d 58c6 6dbd 5f78 b2bd b820 0e3e
000002c0: 3fa0 07bd 9578 ccbd cb2e 323e 4f03 81bd
000002d0: 9eb2 393b de4a f93c 7774 8c3d 6d8f 9ebd
000002e0: a464 a9bc 2ae6 8e3d df9a 50bf 83ea debd
000002f0: 9a0e 9ebd b93c 52be 87a1 263e feef 863c
00000300: bd5d 67bc 0937 cb3d 28f1 49bd f2bc 8ebe
00000310: 16ba 0abe 8370 a7be d060 5d3d 681d 4e3d
00000320: 907d 8cbd 7174 5f3c 3397 79bd 8da7 c1bd
00000330: dcf8 863d 6d5d 60bd 35a1 24be 56cd 193e
00000340: 8f7b 3b3e 6be5 193d 4ef4 053e 806d c33d
00000350: 5f7f d43c acb7 2c3b 34b0 0c3d 667d 573d
00000360: c0d4 47be 649f 18be 01a4 8c3d 320d c83c
00000370: 87c0 543e bff2 14be f90a a53c 248b 01bd
00000380: f236 24be a5c5 fe3b 8430 b23d 1072 73bc
00000390: aaa8 cdbd d635 3d3e 1cd6 53be a8ff 29be
000003a0: c11c 96bd c213 02bd 5122 23bd b180 8dbd
000003b0: 5c65 a9bd 353e ef3d 90d3 f7bd 02f8 493e
000003c0: 7c9a 803e b561 63be bbf4 8c3e 3cfe af3d
000003d0: 73b6 8abd 906e b4be 1326 9d3d aee5 5a3d
000003e0: 7a52 94be 1673 dabd 0b32 dcbd c61a 1bbf
000003f0: 0ac4 26bd 076e 72bd 98f8 e13d bdc0 9abd

conv1.bias f4 [32]
0.0001489415 -0.064245686 0.0006644794 -0.0014975475 -0.007905068 -0.0052518416 0.019672856 -0.22972918
-0.00067632017 0.03331005 0.16919498 -0.0008314008 0.1183351 -0.21647269 0.05787366 -0.16582671
-0.001207373 -0.13295087 0.06376941 -0.04398854 -0.017954197 -0.0015719335 0.0010309777 0.00074171094
-0.010270392 -0.0049208724 -0.2952238 -0.00029603564 -0.00057862 -0.002932865 0.001584367 -0.19516566
00000000: 2e2d 1c39 3e93 83bd 7530 2e3a 5b49 c4ba
00000010: 4284 01bc a417 acbb f828 a13c 203e 6bbe
00000020: 144b 31ba 1e70 083d 7341 2d3e 5df2 59ba
00000030: ac59 f23d 04ab 5dbe ee0c 6d3d 7ace 29be
00000040: b740 9eba 4624 08be 8999 823d 542d 34bd
00000050: ae14 93bc 5609 ceba df21 873a 616f 423a
00000060: 2545 28bc 453f a1bb 9327 97be 3b35 9bb9
00000070: 88ae 17ba 4f35 40bb 89aa cf3a 82d9 47be

conv2.weight f4 [32, 32, 3, 3]
-0.0048354436 -0.045082424 -0.008666232 0.025679195 -0.008025661 -0.0040677767 0.015667588 0.015323841
-0.03672861 0.027117444 -0.002826564 -0.04638482 0.019036587 -0.016752766 0.05644137 -0.039178383
-0.045241896 0.01053508 -0.05710534 -0.035542443 0.02451341 0.034870785 0.005451951 -0.04178889
-0.00076925877 -0.025718266 -0.031861488 0.034891043 0.0059477566 -0.058422867 0.0033407689 0.019815732
0.021233793 -0.046643946 0.013554779 -0.032083318 0.009701047 0.056866426 0.054689992 -0.007006597
-0.012679718 0.018957976 0.022164475 -0.036302492 -0.0569083 -0.010610748 0.037190236 -0.05896558
-0.03488438 -0.012785476 -0.01723005 -0.06295552 0.013439656 0.021299468 -0.043334216 -0.07616874
0.019695753 -0.034397997 -0.0036236164 0.015301963 -0.06713464 0.022099132 0.007723007 -0.029593388
0.039290033 -0.027686082 -0.051036853 -0.0066423872 -0.048865408 -0.03975958 0.012088511 -0.04846259
0.037307557 -0.028576752 -0.05318486 0.028845293 -0.00096042827 -0.027077544 -0.06226543 -0.01402961
0.055413734 -0.034444444 -0.03320246 -0.013697282 -0.050325487 -0.04081325 -0.063071035 -0.03628718
0.02145762 0.010172874 -0.027802108 -0.027809441 0.034091078 -0.058109436 -0.028059747 -0.014411448
-0.011503088 0.03313748 -0.042661577 -0.06265996 -0.036583647 0.05277426 0.031769443 -0.058616888
-0.044568203 -0.032825075 -0.012971209 -0.059054248 0.0051075025 -0.018084753 0.0048207617 0.043320388
0.019860357 -0.04275241 -0.061810464 -0.02701232 0.038349587 0.013591333 -0.025188234 0.039667394
-0.026346158 0.048340064 -0.04377491 -0.0439533 -0.054003228 -0.03864713 -0.035153944 -0.0376875
-0.019928887 -0.042494353 -0.02513427 -0.05940903 0.02506585 -0.054546904 -0.0055204635 -0.056984764
-0.023669142 0.048572596 -0.011661485 -0.03315553 0.0003189817 0.04266839 0.049282435 -0.04225315
-0.04937472 -0.0009203665 0.0002709329 0.04163684 -0.049178235 0.04467648 0.038785663 -0.02192583
-0.051960018 0.05319887 -0.036566325 -0.027856328 0.01988234 0.019413244 -0.0050134882 0.014812145
-0.043176323 0.00402103 -0.03482245 -0.012361881 -0.059972156 0.037287626 0.022688719 0.0036435204
-0.045521215 0.018828558 -0.03614459 -0.04125229 0.033942383 -0.025848351 0.020329569 -0.072721094
0.045765538 -0.04983555 0.037339095 -0.05108123 -0.04754131 -0.039985754 0.0006782897 -0.049580127
0.036768157 -0.03663058 -0.05597579 -0.0573107 -0.04062154 -0.0064432435 -0.015869405 -0.020804416
-0.0206477 0.04380407 -0.028419277 -0.008378133 -0.029659152 0.018765498 0.011033954 -0.061017055
-0.057912316 -0.040534213 -0.06623989 -0.020820124 -0.031441286 -0.065690905 0.057023365 0.020776605
-0.004524467 -0.025267433 -0.009170962 0.0057900706 -0.02401669 0.012753934 -0.07551065 -0.041607607
-0.03770131 -0.041391622 0.041674957 -0.015897283 -0.053142846 -0.022342026 0.046006545 -0.03326082
-0.041080717 -0.03825126 -0.021342413 0.014800859 -0.038968764 0.039854687 0.034702253 -0.061633512
0.03410154 0.04622692 -0.043202557 0.016829442 0.04655605 0.0024346749 0.02472705 -0.015346784
-0.054388717 -0.051286414 -0.01629674 -0.0049308985 0.02141457 -0.016282972 -0.045250136 0.008611206
-0.048485667 -0.028107854 -0.001772925 0.03294852 0.011606644 -0.04398934 -0.05338267 -0.01935439
00000000: a472 9ebb 59a8 38bd d0fc 0dbc 2d5d d23c
00000010: 107e 03bc fc4a 85bb 5059 803c d910 7b3c
00000020: bd70 16bd 6725 de3c e03d 39bb 02fe 3dbd
00000030: 9ef2 9b3c 193d 89bc 112f 673d 8379 20bd
00000040: 914f 39bd 549b 2c3c 4ae7 69bd f494 11bd
00000050: 59d0 c83c abd4 0e3d 48a6 b23b d42a 2bbd
00000060: 15a8 49ba 1daf d2bc 3181 02bd e9e9 0e3d
00000070: 66e5 c23b d14c 6fbd cdf0 5a3b 9a54 a23c
00000080: 7ef2 ad3c b90d 3fbd dd14 5e3c cc69 03bd
00000090: 24f1 1e3c c5ec 683d 9d02 603d 9897 e5bb
000000a0: 98be 4fbc c24d 9b3c 4692 b53c ecb1 14bd
000000b0: ad18 69bd b4d8 2dbc ca54 183d e485 71bd
000000c0: ece2 0ebd 2c7a 51bc 0926 8dbc d3ee 80bd
000000d0: 0132 5c3c 397c ae3c 387f 31bd 5bfe 9bbd
000000e0: fd58 a13c eae4 0cbd 327a 6dbb 16b5 7a3c
000000f0: e37d 89bd 3d09 b53c 4711 fd3b d56d f2bc
00000100: 96ee 203d eccd e2bc 050c 51bd 62a8 d9bb
00000110: 1827 48bd f1da 22bd e40e 463c b580 46bd
00000120: cfcf 183d cb19 eabc 5ed8 59bd f74c ec3c
00000130: 40c5 7bba bad1 ddbc 090a 7fbd 73dc 65bc
00000140: 83f9 623d 9e15 0dbd 4dff 07bd 916a 60bc
00000150: 1922 4ebd cb2b 27bd 632b 81bd dea1 14bd
00000160: e4c7 af3c 20ac 263c 3fc1 e3bc a0d0 e3bc
00000170: 16a3 0b3d 2904 6ebd 8edd e5bc fe1d 6cbc
00000180: 7377 3cbc 2bbb 073d e8bd 2ebd dd53 80bd
00000190: bcd8 15bd d329 583d ad20 023d 4318 70bd
000001a0: 268d 36bd 9673 06bd 3285 54bc dee2 71bd
000001b0: d65c a73b 7a26 94bc 7bf7 9d3b b870 313d
000001c0: 30b2 a23c 271d 2fbd f82c 7dbd f148 ddbc
000001d0: 7514 1d3d 2fae 5e3c 8e57 cebc 477a 223d
000001e0: e6d3 d7bc 3b00 463d 524d 33bd 6008 34bd
000001f0: 7d32 5dbd 744c 1ebd 95fd 0fbd 355e 1abd
00000200: e841 a3bc 8f0e 2ebd 62e6 cdbc e256 73bd
00000210: e656 cd3c 936c 5fbd 01e5 b4bb db68 69bd
00000220: cae5 c1bc 0ff4 463d d00f 3fbc 18ce 07bd
00000230: 003d a739 0dc5 2e3d 61dc 493d a411 2dbd
00000240: 253d 4abd c044 71ba 000c 8e39 648b 2a3d
00000250: 1e6f 49bd affe 363d b7dd 1e3d cc9d b3bc
00000260: 07d4 54bd 0fe7 593d 92c6 15bd f432 e4bc
00000270: 4ae0 a23c 8608 9f3c 3048 a4bb a4ae 723c
00000280: a8d9 30bd d8c2 833b fca1 0ebd 7d89 4abc
00000290: 5da5 75bd e9ba 183d b1dd b93c 21c8 6e3b
000002a0: 7474 3abd 593e 9a3c 590c 14bd 29f8 28bd
000002b0: 2b07 0b3d ecbf d3bc 328a a63c ccee 94bd
000002c0: a574 3b3d 5d20 4cbd e1f0 183d 8d3a 51bd
000002d0: adba 42bd 1ac8 23bd 40cf 313a 8814 4bbd
000002e0: 359a 163d f209 16bd df46 65bd a0be 6abd
000002f0: c662 26bd d821 d3bb 8e00 82bc 066e aabc
00000300: 5e25 a9bc e66b 333d 8bcf e8bc 7044 09bc
00000310: c0f7 f2bc 1aba 993c c2c7 343c 05ed 79bd
00000320: 7735 6dbd 3407 26bd c8a8 87bd f78e aabc
00000330: 94c8 00bd f488 86bd 5591 693d b333 aa3c
00000340: fb41 94bb a6fd cebc cd41 16bc a2ba bd3b
00000350: a6be c4bc e0f5 503c 54a5 9abd bd6c 2abd
00000360: b06c 1abd 438a 29bd 5cb3 2a3d 053b 82bc
00000370: 50ac 59bd a006 b7bc 5c71 3c3d 7f3c 08bd
00000380: 4144 28bd 5aad 1cbd 49d6 aebc 4d7f 723c
00000390: b69d 1fbd ab3e 233d f323 0e3d 6c73 7cbd
000003a0: 0eae 0b3d 7058 3d3d 2af5 30bd e6dd 893c
000003b0: 8fb1 3e3d 118f 1f3b 6290 ca3c 1471 7bbc
000003c0: b4c6 5ebd b411 52bd be80 85bc 6093 a1bb
000003d0: 9c6d af3c de63 85bc 3558 39bd 0416 0d3c
000003e0: e898 46bd 7142 e6bc 7e61 e8ba 07f5 063d
000003f0: cb29 3e3c 2b2e 34bd c9a7 5abd 198d 9ebc

conv2.bias f4 [32]
-0.075796574 0.020402603 0.039650373 0.080768436 0.015696486 0.0410863 0.034436163 -0.058273546
0.026312154 0.034728725 0.061007634 -0.00017291222 -0.049988627 0.12802754 0.13002041 0.024875732
0.036465872 0.0033259958 0.13134608 0.025856318 0.03754852 0.06329388 0.05503554 0.14657159
0.06710243 -0.025439575 -0.002886089 0.07980673 0.09150061 -0.077642955 -0.030526934 0.10432661
00000000: 3c3b 9bbd 5c23 a73c 6e68 223d ec69 a53d
00000010: eb95 803c 1c4a 283d ef0c 0d3d 3eb0 6ebd
00000020: 968c d73c b53f 0e3d 24e3 793d c54f 35b9
00000030: e0c0 4cbd a719 033e 1224 053e 31c8 cb3c
00000040: 3d5d 153d f3f8 593b 967f 063e a1d0 d33c
00000050: 7acc 193d 39a0 813d f26c 613d dd16 163e
00000060: 006d 893d a866 d0bc 8a24 3dbb b671 a33d
00000070: ac64 bb3d 4503 9fbd 9f13 fabc 31a9 d53d

conv3.weight f4 [32, 32, 3, 3]
-0.047295816 0.05665526 -0.021558873 -0.017785218 0.008899864 -0.011011861 0.020362865 0.054885518
0.03711504 -0.01136506 0.023095837 -0.019890334 0.06741945 0.042170513 -0.013498208 0.10320938
-0.26304817 -0.09332856 -0.054269284 0.051309153 -0.022259995 0.043097828 -0.08494694 0.007757131
0.18388072 -0.19132793 0.03588532 -0.00403178 -0.10864849 0.10432448 -0.00997243 0.032061983
0.07955622 0.04965705 -0.07191783 0.048986536 0.05005079 0.0036858146 0.14473593 -0.03733932
0.052121345 0.018520586 -0.046523206 0.05871423 -0.10504801 0.16958402 -0.0076790852 0.059593715
0.0032669106 -0.017195351 -0.022422275 0.24138814 -0.2361076 -0.22520176 -0.018611511 -0.07079453
0.053897124 -0.08481551 -0.09697418 -0.0048745126 0.07294138 0.06009074 -0.02626701 0.045404896
-0.040027045 0.03643095 0.051602423 0.054859277 -0.053851172 -0.005774031 -0.054332685 -0.0067259665
0.10980792 -0.056562386 0.043031204 0.05985305 -0.027749566 0.037237063 -0.23488075 -0.11620514
0.040462248 0.11767788 0.002635953 0.05547242 -0.08710374 0.10175002 -0.0045402977 -0.0089665
-0.14131545 -0.16582574 0.08125738 0.077446245 0.08165962 -0.026519937 -0.06788412 0.010729827
0.004955563 -0.045591958 0.058046296 -0.005096493 0.0075336425 -0.009782208 0.0288438 0.062184405
-0.0264575 -0.00055767386 0.040805396 -0.030357238 -0.033827893 -0.019621368 0.031039355 -0.008994299
0.017893877 -0.02696165 -0.019656904 0.034765277 -0.005892665 -0.09581268 -0.110962115 -0.6473705
-0.10118226 -0.22324091 -0.08519234 -0.06005042 -0.09573324 0.026826836 0.03496755 0.027675567
-0.012690653 -0.009966217 0.056429334 -0.033986595 -0.057352368 0.10000462 -0.05242421 0.010051945
0.042308755 0.08341849 -0.017314078 0.21545877 -0.014427295 -0.046048436 0.055923935 0.013567251
-0.010572496 -0.09132463 0.059784353 0.08412275 -0.01755758 0.1269495 0.023693115 0.24685606
0.038704097 -0.031357784 0.036717113 -0.042244438 -0.058669947 -0.012955144 -0.045243595 0.2298335
-0.2505301 -0.043064684 -0.32001448 -0.23113705 0.9132675 0.04659501 0.08184108 -0.09024505
-0.017364772 -0.04245435 0.28332815 0.16584116 -0.07292655 0.063106366 0.018866053 -0.060242366
0.05191328 0.05534587 0.025999788 -0.09437597 -0.025920115 0.0025638663 -0.03100162 -0.08582939
0.019667994 0.06436073 0.057757664 -0.15428606 -0.02790958 0.028348442 -0.034717582 -0.033823878
-0.047091994 0.011876696 0.06295433 0.08644366 -0.04137596 0.044689395 0.09691991 0.036888026
-0.011880819 -0.082706876 0.10395543 0.012093875 -0.013312726 0.050754514 0.0085153775 -0.122035734
0.004011146 -0.007136389 -0.09577722 -0.08254912 0.07104163 -0.07420722 0.11670695 0.056264024
0.026288947 -0.023803549 0.07580819 0.00392164 0.09105869 -0.0041028694 -0.027204597 -0.018787561
0.07553224 0.050939627 -0.055750094 -0.02877584 0.029889775 0.0035432177 0.022972746 0.010055463
0.022481665 0.008769035 0.052840374 0.055063438 -0.049353417 0.01702891 -0.04042618 0.0034329835
0.060336605 -0.025832769 -0.018850908 0.020315865 -0.003900734 -0.06174868 0.05862425 -0.124551706
0.09277932 -0.08852374 0.16688226 0.08107323 0.14406897 -0.048852187 -0.028071119 -0.08720802
00000000: 42b9 41bd 590f 683d 3c9c b0bc 4eb2 91bc
00000010: bcd0 113c 186b 34bc 06d0 a63c a3cf 603d
00000020: f105 183d 8434 3abc 7b33 bd3c 0ef1 a2bc
00000030: 3513 8a3d fdba 2c3d 9627 5dbc 705f d33d
00000040: 40ae 86be 0b23 bfbd 7849 5ebd 8c29 523d
00000050: 985a b6bc 5987 303d a9f8 adbd 882f fe3b
00000060: 3a4b 3c3e 78eb 43be 7cfc 123d 061d 84bb
00000070: 1983 debd 13a8 d53d 6763 23bc 6d53 033d
00000080: 5fee a23d 3165 4b3d a849 93bd 1ba6 483d
00000090: 0f02 4d3d b58d 713b a835 143e 1df1 18bd
000000a0: 317d 553d 7cb8 973c 1e8f 3ebd 557e 703d
000000b0: 6923 d7bd 6fa7 2d3e d6a0 fbbb 8a18 743d
000000c0: aa19 563b 44dd 8cbc ebae b7bc 742e 773e
000000d0: 31c6 71be 4a9b 66be 2b77 98bc b9fc 90bd
000000e0: 3bc3 5c3d c1b3 adbd 669a c6bd 60ba 9fbb
000000f0: 4a62 953d b521 763d ea2d d7bc 7cfa 393d
00000100: 66f3 23bd 9f38 153d 105d 533d 1fb4 603d
00000110: 0c93 5cbd 1534 bdbb f38b 5ebd 7f65 dcbb
00000120: fae2 e03d f6ad 67bd 7d41 303d 7928 753d
00000130: 0f53 e3bc e485 183d 9484 70be f6fc edbd
00000140: bebb 253d 1a01 f13d f4bf 2c3b 0c37 633d
00000150: 7263 b2bd 5162 d03d c7c6 94bb 3ae8 12bc
00000160: ffb4 10be 39ce 29be 456a a63d 239c 9e3d
00000170: 293d a73d 5740 d9bc d406 8bbd 28cc 2f3c
00000180: 4762 a23b a2be 3abd f4c1 6d3d 7b00 a7bb
00000190: c6dc f63b 8e45 20bc d549 ec3c 13b5 7e3d
000001a0: 66bd d8bc dc30 12ba 8f23 273d beaf f8bc
000001b0: 1e8f 0abd febc a0bc 3f46 fe3c d35c 13bc
000001c0: 2e96 923c aede dcbc 8407 a1bc 0966 0e3d
000001d0: 4217 c1bb 7039 c4bd 1b40 e3bd 13ba 25bf
000001e0: a538 cfbd 4499 64be 5279 aebd 6ef7 75bd
000001f0: ca0f c4bd f4c3 db3c 223a 0f3d dfb7 e23c
00000200: 75ec 4fbc 5849 23bc 7222 673d 8735 0bbd
00000210: 51ea 6abd 39cf cc3d c5ba 56bd eab0 243c
00000220: f24b 2d3d 50d7 aa3d 41d6 8dbc 39a1 5c3e
00000230: 7660 6cbc 499d 3cbd 7f10 653d 2d49 5e3c
00000240: 4338 2dbc 6808 bbbd 70e0 743d 8c48 ac3d
00000250: ead4 8fbc 0dff 013e 1018 c23c d6c7 7c3e
00000260: 3088 1e3d 0571 00bd af64 163d 8108 2dbd
00000270: e64f 70bd d041 54bc 5951 39bd 7959 6b3e
00000280: 7b45 80be 9864 30bd f0d8 a3be 31af 6cbe
00000290: e6cb 693f 69da 3e3d 4c9c a73d 66d2 b8bd
000002a0: 9140 8ebc 9de4 2dbd 6310 913e 44d2 293e
000002b0: 845a 95bd e93d 813d fb8c 9a3c b3c0 76bd
000002c0: 05a3 543d 5ab2 623d 82fd d43c 3048 c1bd
000002d0: 6c56 d4bc 8a06 283b 1cf7 fdbc 52c7 afbd
000002e0: c61e a13c 8fcf 833d 4d93 6c3d 2afd 1dbe
000002f0: a2a2 e4bc fe3a e83c 0634 0ebd e88a 0abd
00000300: 89e3 40bd 7996 423c 33ee 803d 6009 b13d
00000310: d779 29bd 3a0c 373d f27d c63d e617 173d
00000320: c4a7 42bc 3962 a9bd 96e6 d43d 6325 463c
00000330: 9f1d 5abc f7e3 4f3d 1584 0b3c dfed f9bd
00000340: ee6f 833b 5fd8 e9bb d926 c4bd 830f a9bd
00000350: 467e 913d f4f9 97bd 0e04 ef3d 1b75 663d
00000360: eb5b d73c a9ff c2bc 5341 9b3d 1a81 803b
00000370: fa7c ba3d 5d71 86bb 2ddc debc 5fe8 99bc
00000380: a6b0 9a3d 12a6 503d 365a 64bd 4fbb ebbc
00000390: 67db f43c 5435 683b 5731 bc3c abbf 243c
000003a0: 782b b83c 00ac 0f3c 266f 583d 338a 613d
000003b0: cf26 4abd 3680 8b3c ec95 25bd e8fb 603b
000003c0: 8423 773d 3e9f d3bc 386d 9abc 756d a63c
000003d0: 75a3 7fbb 2fec 7cbd fb1f 703d f714 ffbd
000003e0: 1603 be3d ef4b b5bd 2fe3 2a3e b909 a63d
000003f0: d186 133e 3b19 48bd 67f5 e5bc 1e9a b2bd

conv3.bias f4 [32]
0.011441496 0.064177215 0.055847198 -0.030731807 -0.004695712 0.095476404 0.03998438 0.116328984
-0.0054167374 0.037671335 0.06525431 0.0863816 0.01994808 0.07197025 -0.0017026785 0.029232267
0.015005466 -0.047580875 0.07299337 -0.0622624 0.014735922 0.04284857 -0.075449176 -0.052911542
0.09821539 -0.030112883 0.079921275 0.019677093 0.089092515 0.06315355 -0.055563215 0.08571896
00000000: 1d75 3b3c 586f 833d 08c0 643d 45c1 fbbc
00000010: 7dde 99bb 2289 c33d a9c6 233d e43d ee3d
00000020: e37e b1bb 424d 1a3d 0da4 853d d6e8 b03d
00000030: 286a a33c 2365 933d 692c dfba 8278 ef3c
00000040: 7cd9 753c 2ae4 42bd 8c7d 953d dc06 7fbd
00000050: f06e 713c fb81 2f3d 1985 9abd c6b9 58bd
00000060: 2725 c93d 4baf f6bc c4ad a33d db31 a13c
00000070: 2376 b63d a656 813d 4196 63bd 6c8d af3d

fc1.weight f4 [24, 1568]
-1.2864995 0.10812316 0.020690227 -0.043926246 -0.012874111 -0.17759934 0.15126224 0.30690143
0.037155736 -0.012252229 0.029144203 -0.057856616 0.07984732 -0.2940178 0.12661126 0.014254695
0.09804964 0.06190253 0.030148074 0.24314785 -0.14057639 -0.026856506 -0.048192948 0.024427908
-0.013144745 -0.032762375 0.040990558 0.061848804 0.08419996 -0.04985064 -0.025483737 -0.03782301
-0.16695915 -0.09759433 -0.019125354 0.009996287 0.048891038 0.10641074 0.08877086 -0.67559594
-0.03187886 -0.1297911 0.08391691 0.08232695 -0.5162011 -0.55171967 0.35763523 0.024950316
0.019758064 0.17779446 0.14879635 0.09817866 0.07157961 0.04500234 0.016518936 -0.056083485
0.11636217 0.049578223 0.045295186 0.11693379 0.077589 0.17166065 0.06849765 -0.009712759
0.0822267 0.1102327 0.0978432 0.09116696 0.15196817 0.11379359 0.03926069 0.10764309
0.08912558 0.1285554 0.16692191 0.08222636 0.061986823 0.13440418 0.19780028 0.11650752
0.08594967 0.17658436 -0.033718035 0.09300284 -0.49720693 -0.20146096 -0.19949828 0.09143552
-0.07088574 -0.19271985 0.030673053 -0.17542328 0.0005429155 -0.1165987 -0.1263834 -0.0996858
-0.051521253 0.057090357 0.036419157 -0.12452853 -0.23396228 -0.18212983 -0.11253786 0.028703952
-0.09054519 -0.0049027875 -0.5520289 0.053878825 -0.040675774 -0.011994295 -0.012772125 -0.08019412
-0.0013818057 0.17265856 0.075915754 0.04847812 0.011622238 0.052562434 0.019389799 0.04438305
-0.0359751 0.027945267 0.25017455 0.05775193 -0.006050717 0.06659279 0.02229109 -0.18236417
-0.07711777 -0.01887774 0.032859433 -0.041124705 0.040495474 -0.04779374 -0.13371333 0.0880244
0.068479024 -0.048149846 -0.039556447 0.074189514 0.05853466 -0.010312909 0.09527116 -0.06903895
-0.3277772 -0.07476621 -0.70431757 -0.02132484 0.017347252 0.021959187 0.018957786 0.016011234
-0.0051247333 -0.01128869 0.01842456 0.008750596 0.026638724 0.014317024 0.0035326693 0.037065327
0.0057423585 -0.001389307 -0.0075940266 0.02913954 0.032688443 0.008964151 0.00011220898 0.016739633
-0.002181936 0.036428608 -0.00749238 -0.011574289 0.009798769 -0.0048536467 0.03577217 0.0062150336
-0.010272983 0.017576598 -0.020212593 0.025849909 0.016015878 -0.008525758 -0.075589806 -0.011217988
0.022504346 0.022172498 0.012180734 0.015276891 0.006152796 -0.014705695 -0.00032702638 0.0023458821
-0.0046644127 -0.0067990436 0.0033694725 -0.004581062 0.077471405 0.038575962 0.040723037 0.009500523
0.08351528 -0.006508555 0.116170235 -0.038818482 -0.00056338613 -0.06356525 0.014833649 0.030382635
0.0019920564 -0.035934523 -0.08969099 0.0045559127 0.0045942604 0.025490945 -0.0132272085 0.04075819
0.025616612 -0.03330028 0.07725264 0.16077186 0.18195976 0.08293222 0.10479199 0.036312003
0.005512841 0.106432654 0.010104528 0.046237197 0.11373722 -0.02203085 -0.08432683 0.022617398
-0.04599966 -0.099830195 -0.16149093 0.12261005 -0.05893654 -0.17482653 0.014567071 0.017124325
-0.35516435 0.84260184 0.19597338 0.009967789 -0.0014486343 0.03814471 -0.04766368 -0.35200718
-0.24892884 -0.03842928 -0.041536745 0.04842936 0.04354626 -0.08594666 -0.7468907 -0.4419173
00000000: 04ac a4bf ad6f dd3d 8d7e a93c 02ec 33bd
00000010: efed 52bc 9adc 35be 7de4 1a3e 2f22 9d3e
00000020: 9d30 183d 93bd 48bc d3bf ee3c 0ffb 6cbd
00000030: fe86 a33d 8089 96be 62a6 013e 868c 693c
00000040: 40ce c83d 828d 7d3d 18f9 f63c c0fb 783e
00000050: 42f3 0fbe 2d02 dcbc f865 45bd 091d c83c
00000060: 0e5d 57bc d731 06bd b7e5 273d 2c55 7d3d
00000070: 0771 ac3d 2f30 4cbd 45c3 d0bc 4dec 1abd
00000080: 57f7 2abe 89df c7bd c6ac 9cbc 77c7 233c
00000090: f841 483d e0ed d93d 7fcd b53d dbf3 2cbf
000000a0: 6893 02bd f5e7 04be a1dc ab3d 089b a83d
000000b0: c125 04bf 803d 0dbf f71b b73e 9b64 cc3c
000000c0: aadb a13c c00f 363e 125e 183e e511 c93d
000000d0: 5598 923d 6054 383d b852 873c ccb7 65bd
000000e0: 4a4f ee3d 8912 4b3d 7287 393d fc7a ef3d
000000f0: fbe6 9e3d cfc7 2f3e 7f48 8c3d 4422 1fbc
00000100: 7966 a83d afc1 e13d 0462 c83d beb5 ba3d
00000110: 8b9d 1b3e 9d0c e93d d1cf 203d fb73 dc3d
00000120: 7987 b63d 07a4 033e 94ed 2a3e 4b66 a83d
00000130: e5e5 7d3d 40a1 093e 288c 4a3e 7f9b ee3d
00000140: 6106 b03d 88d2 343e ec1b 0abd 4678 be3d
00000150: e891 febe c84b 4ebe 4749 4cbe 8c42 bb3d
00000160: 8b2c 91bd 5a58 45be 0e46 fb3c 29a2 33be
00000170: 7152 0e3a 4dcb eebd a66a 01be 1228 ccbd
00000180: f307 53bd 94d7 693d 412c 153d d008 ffbd
00000190: cf93 6fbe 3e80 3abe 407a e6bd 8d24 eb3c
000001a0: c26f b9bd 90a7 a0bb c451 0dbf 0bb0 5c3d
000001b0: a49b 26bd b883 44bc 2d42 51bc d13c a4bd
000001c0: b51d b5ba 68cd 303e b879 9b3d fe90 463d
000001d0: 336b 3e3c b54b 573d 5bd7 9e3c 00cb 353d
000001e0: a05a 13bd 79ed e43c e116 803e 4a8d 6c3d
000001f0: 1845 c6bb cd61 883d ce9b b63c acbd 3abe
00000200: ecef 9dbd 7da5 9abc 9d97 063d 6172 28bd
00000210: 95de 253d 5ec3 43bd 26ec 08be 2346 b43d
00000220: bb3e 8c3d c638 45bd f105 22bd acf0 973d
00000230: 0ac2 6f3d 7af7 28bc 871d c33d 4b64 8dbd
00000240: 6ad2 a7be 071f 99bd 284e 34bf 6eb1 aebc
00000250: d31b 8e3c c1e3 b33c 5c4d 9b3c fe29 833c
00000260: 61ed a7bb 33f4 38bc 1aef 963c a95e 0f3c
00000270: 7439 da3c f391 6a3c 5b84 673b d0d1 173d
00000280: 652a bc3b 6819 b6ba 50d7 f8bb 0bb6 ee3c
00000290: 51e4 053d 60de 123c bd51 eb38 8e21 893c
000002a0: d0fe 0ebb 2a36 153d a482 f5bb 16a2 3dbc
000002b0: 048b 203c 570b 9fbb d785 123d 7ba7 cb3b
000002c0: 0450 28bc ccfc 8f3c e194 a5bc 30c3 d33c
000002d0: bb33 833c 9faf 0bbc d4ce 9abd a7cb 37bc
000002e0: 095b b83c 19a3 b53c b491 473c ed4b 7a3c
000002f0: 659d c93b 28f0 70bc bd74 abb9 5fbd 193b
00000300: eed7 98bb 83ca debb 5ed2 5c3b bc1c 96bb
00000310: 54a9 9e3d d401 1e3d 33cd 263d 15a8 1b3c
00000320: 0f0a ab3d b745 d5bb a9ea ed3d 2100 1fbd
00000330: 34b0 13ba 7f2e 82bd d508 733c 01e5 f83c
00000340: 298d 023b 1430 13bd e9af b7bd c449 953b
00000350: 738b 963b 63d2 d03c efb6 58bc 0ff2 263d
00000360: eed9 d13c e065 08bd a236 9e3d 61a1 243e
00000370: a953 3a3e 5ed8 a93d 2f9d d63d e5bb 143d
00000380: 10a5 b43b 5df9 d93d 768d 253c 3763 3d3d
00000390: 0fef e83d 0b7a b4bc 8cb3 acbd 1f48 b93c
000003a0: 246a 3cbd c673 ccbd e15d 25be fa1a fb3d
000003b0: 7167 71bd ba05 33be b9aa 6e3c 5048 8c3c
000003c0: 1ad8 b5be c1b4 573f 3fad 483e f04f 233c
000003d0: 1ae0 bdba a13d 1c3d fe3a 43bd 493a b4be
000003e0: 34e7 7ebe 0568 1dbd 6f22 2abd dd5d 463d
000003f0: 905d 323d cd04 b0bd 3b34 3fbf fc42 e2be

fc1.bias f4 [24]
0.1338154 -0.030969135 -0.03166569 -0.024886565 0.018835193 0.17660953 -0.019472687 -0.00570759
-0.0012362264 0.110285446 0.16742706 0.0130432965 0.15111656 -0.031181477 0.011308045 0.023571802
-0.03276716 -0.007241222 0.15904638 -0.03262924 -0.027123986 0.09397797 0.16831501 0.13512044
00000000: e706 093e fcb2 fdbc e2b3 01bd e9de cbbc
00000010: 434c 9a3c 21d9 343e 2f85 9fbc bc06 bbbb
00000020: e008 a2ba 56dd e13d 0072 2b3e 8db3 553c
00000030: 4dbe 1a3e 4c70 ffbc 6145 393c a719 c13c
00000040: dc36 06bd c647 edbb 0edd 223e 3da6 05bd
00000050: 1f33 debc 8677 c03d c55a 2c3e 035d 0a3e

fc2.weight f4 [1568, 24]
0.057773877 0.028356627 0.14307128 0.005805388 0.16055226 0.051282022 -0.083743684 0.11303446
-0.09598807 0.056935027 0.05980682 -0.014721647 0.07634285 -0.06388523 -0.17832807 0.05497783
0.009791766 -0.06707579 0.040492684 -0.07106312 0.010343338 0.06725476 0.04757007 0.074618794
0.04263244 -0.18076357 0.15185587 0.19209784 -0.13904627 0.07454252 -0.05010218 0.093867555
-0.09194969 0.06304355 0.10949391 -0.038425803 0.1034861 0.023284083 -0.00841011 0.07696041
0.01730906 -0.05607797 0.035480537 0.16229609 -0.034429826 0.065889865 0.07451148 0.06329067
-0.13565244 -0.17488647 -0.042599335 0.08439997 0.10415574 -0.1228961 -0.08743312 0.17247541
0.009167114 0.048840504 -0.15972042 0.1684399 0.02604522 -0.1432123 -0.06508351 -0.1072859
0.20005602 -0.024161087 -0.12485289 0.061067283 0.07755962 -0.24391522 0.1511845 -0.004386605
-0.23171331 -0.1389187 0.08794427 0.056659043 -0.14026007 0.15162311 -0.10340443 -0.18796785
0.06867379 -0.060415998 0.025380543 -0.05493529 -0.18264377 -0.06768513 -0.006117806 -0.2182857
0.11499581 0.09878057 -0.22698928 0.07048166 -0.068927854 0.09650629 -0.07239872 0.1131812
-0.1543519 -0.042146444 -0.04531145 0.20153145 0.028563112 -0.09031789 0.02451083 -0.08203271
0.1738189 -0.117749855 -0.16459024 -0.21019177 -0.06398316 -0.20501062 0.10818494 -0.095850654
-0.13169578 -0.013846657 0.1687461 -0.12018194 0.005475208 -0.07518244 0.10811482 -0.0717581
0.035462216 -0.114896655 -0.17007655 0.0674968 -0.10614132 0.03513508 -0.17643848 0.16064696
-0.13489345 0.044490576 0.052362207 -0.1612195 0.04841404 0.06619444 -0.036045045 0.03311147
0.13294736 0.008795258 0.013507662 -0.08502262 -0.20186839 0.04758217 0.0385774 0.055754974
0.14636444 -0.098068886 0.16817938 -0.15958315 0.12959535 0.11076485 0.16071068 -0.18258852
0.048821986 0.14289853 -0.0051854895 -0.1993659 0.08348624 -0.063485004 0.010672108 0.073880605
0.03654565 -0.16284506 0.122101046 0.10348058 0.036754683 0.119859084 0.113490805 0.12829174
0.06821197 -0.18301147 -0.058758978 -0.020111024 0.111762345 0.04057508 0.15876274 -0.08809611
-0.078056574 0.06259843 0.07039822 -0.06323402 0.092297964 0.18319064 -0.0272704 0.049822237
0.123455204 0.16510949 0.033848997 0.18290724 -0.07894741 0.079445966 0.059824463 0.08069481
-0.14417054 -0.17243615 -0.02756761 -0.03575763 0.12924701 -0.20395228 -0.078703314 0.14760512
0.072508305 0.055648237 0.15407595 0.093041 0.18670006 0.038288713 0.10262364 -0.011466318
0.042094216 0.12046802 -0.05264736 0.09547958 -0.19417937 -0.22353242 -0.08649043 -0.100597784
-0.17947531 -0.0079890145 0.13070315 0.1776433 -0.07782076 0.010046402 0.056734145 0.09829199
-0.046192423 0.108051285 0.027702518 -0.039731488 -0.14614654 -0.010072485 -0.08173948 -0.04673652
-0.19392695 0.032223776 -0.08338977 -0.17781162 -0.089012265 0.31294155 -0.24181046 -0.12234354
-0.058112524 0.07405236 -0.18903877 0.010966405 0.019773468 -0.1264782 0.18457317 -0.1773869
0.16334549 0.06334865 0.12835076 0.1931751 -0.16150689 -2.4020672e-05 -0.13783024 0.08031059
00000000: 4da4 6c3d 284c e83c 4781 123e 203b be3b
00000010: d067 243e 190d 523d cf81 abbd 9c7e e73d
00000020: 6595 c4bd b434 693d fff7 743d 1033 71bc
00000030: a459 9c3d 42d6 82bd a29b 36be 6f30 613d
00000040: a56d 203c 085f 89bd a8db 253d 8b89 91bd
00000050: 1b77 293c ddbc 893d d5d8 423d bdd1 983d
00000060: 5a9f 2e3d 161a 39be 1b80 1b3e 4cb5 443e
00000070: 2562 0ebe c0a9 983d f237 4dbd a23d c03d
00000080: 1e50 bcbd fa1c 813d 583e e03d 6064 1dbd
00000090: 85f0 d33d 43be be3c 8fca 09bc 6b9d 9d3d
000000a0: bbcb 8d3c 03b2 65bd 0a54 113d f230 263e
000000b0: 4a06 0dbd 44f1 863d 7a99 983d 8a9e 813d
000000c0: 79e8 0abe 7015 33be a47c 2ebd e4d9 ac3d
000000d0: 9b4f d53d f3b0 fbbd 2310 b3bd 659d 303e
000000e0: aa31 163c fb0c 483d c08d 23be 827b 2c3e
000000f0: c95c d53c 3fa6 12be 814a 85bd b6b8 dbbd
00000100: 7cdb 4c3e 79ed c5bc dfb2 ffbd b021 7a3d
00000110: 94d7 9e3d e9c4 79be 1cd0 1a3e 83bd 8fbb
00000120: 4146 6dbe b440 0ebe 201c b43d 5013 683d
00000130: 56a0 0fbe 1743 1b3e b4c5 d3bd a57a 40be
00000140: d8a4 8c3d c476 77bd dbea cf3c d403 61bd
00000150: f806 3bbe 809e 8abd e077 c8bb 4986 5fbe
00000160: ec82 eb3d 784d ca3d e16f 68be b058 903d
00000170: 0c2a 8dbd 17a5 c53d c845 94bd 8ccb e73d
00000180: 6d0e 1ebe c0a1 2cbd 8098 39bd 435e 4e3e
00000190: 30fd e93c 96f8 b8bd f0ca c83c c400 a8bd
000001a0: 95fd 313e d626 f1bd 588a 28be 833c 57be
000001b0: 9a09 83bd 4eee 51be 1190 dd3d 594d c4bd
000001c0: 42db 06be 17dd 62bc c7cb 2c3e f321 f6bd
000001d0: 6069 b33b 40f9 99bd 4e6b dd3d e9f5 92bd
000001e0: d440 113d f04e ebbd 8c28 2ebe c33b 8a3d
000001f0: 9f60 d9bd cde9 0f3d 4aac 34be a380 243e
00000200: 8221 0abe c03b 363d c179 563d b916 25be
00000210: cd4d 463d f390 873d f8a3 13bd e59f 073d
00000220: 5a23 083e fc19 103c 3e4f 5d3c 5720 aebd
00000230: 96b6 4ebe 86e5 423d 5603 1e3d 545f 643d
00000240: 8fe0 153e 57d8 c8bd 3737 2c3e c469 23be
00000250: a5b4 043e afd8 e23d 5791 243e 7cf8 3abe
00000260: 90f9 473d fe53 123e 0aeb a9bb 9326 4cbe
00000270: d5fa aa3d 6d04 82bd 11da 2e3c b74e 973d
00000280: e4b0 153d dbc0 26be 1d10 fa3d a0ed d33d
00000290: 148c 163d ae78 f53d de6d e83d e95e 033e
000002a0: b8b2 8b3d 5c67 3bbe 41ad 70bd e0bf a4bc
000002b0: a8e3 e43d 0e32 263d b392 223e bc6b b4bd
000002c0: 20dc 9fbd 9b33 803d f12c 903d d680 81bd
000002d0: b706 bd3d 5496 3b3e 2d66 dfbc 6712 4c3d
000002e0: 15d6 fc3d 7612 293e 3fa5 0a3d 094c 3b3e
000002f0: 2eaf a1bd 91b4 a23d 7f0a 753d 5243 a53d
00000300: 71a1 13be 1a93 30be 78d5 e1bc 9876 12bd
00000310: 5459 043e ded8 50be 342f a1bd cc25 173e
00000320: 3c7f 943d 68ef 633d 16c6 1d3e 488c be3d
00000330: 4d2e 3f3e a0d4 1c3d 582c d23d 39dd 3bbc
00000340: fc6a 2c3d f0b7 f63d c2a4 57bd cc8a c33d
00000350: f5d6 46be afe5 64be e521 b1bd 3606 cebd
00000360: 60c8 37be 5be4 02bc 0cd7 053e 20e8 353e
00000370: 7e60 9fbd aa99 243c 1062 683d 504d c93d
00000380: 4434 3dbd fe49 dd3d 64f0 e23c 7cbd 22bd
00000390: 70a7 15be 1007 25bc 0767 a7bd cb6e 3fbd
000003a0: c994 46be 14fd 033d 41c8 aabd 4014 36be
000003b0: 104c b6bd e039 a03e 299d 77be 408f fabd
000003c0: 6607 6ebd c4a8 973d 6193 41be 70ac 333c
000003d0: f8fb a13c 8083 01be c000 3d3e e9a4 35be
000003e0: 0a44 273e f0bc 813d 626e 033e b2cf 453e
000003f0: 1062 25be 0080 c9b7 5f23 0dbe e179 a43d

fc2.bias f4 [1568]
0.060055718 0.482572 0.023459109 -0.24249983 0.1623774 0.27278587 0.21732563 0.3568925
-0.18666108 0.24344794 -0.17721274 -0.15206265 -0.16093643 -0.014554665 -0.12812024 -0.21006498
0.5845298 -0.13534757 0.47084042 0.06282546 -0.16823858 0.084038265 0.14831394 0.2281795
-0.22655651 0.5313703 -0.4275642 -0.004726217 0.312323 -0.3273664 -0.6711816 0.052386485
-0.09934014 0.07355946 -0.06476841 0.16729185 -0.08746888 0.58821696 0.364361 0.13821729
0.05795624 -0.294928 0.08447263 0.14875504 -0.21967088 0.040272966 -0.4839049 -0.0896892
-0.0940124 0.03244776 -0.18815617 0.16818772 -0.1862416 -0.08909092 -0.017249323 -0.1957194
0.012818604 -0.077612266 0.059081305 0.31700444 0.038165364 -0.010896609 -0.029624153 -0.18401772
0.006628662 0.26624924 0.036628816 -0.10569163 -0.06313023 0.03082432 -0.09377939 -0.010902375
0.1101451 0.022244144 0.4821303 -0.0046964884 0.072561614 0.007877597 -0.37585935 -0.3255913
-0.34565485 -0.80898166 0.061951324 -0.12521122 -0.01796881 -0.124160334 -0.18126388 0.58861834
-0.60184306 -0.0873204 -0.027858818 0.08157118 -0.22094476 -0.13157582 1.2621728 -0.044776987
-0.12213343 0.18205981 0.31862703 0.05739354 -0.09094053 0.090824954 0.18847242 0.124064505
0.06949037 0.34467223 0.21373165 0.15599625 -0.42168492 0.4433901 -0.15019688 0.38403234
-0.098621115 0.51123804 -0.07326925 -0.9356672 0.33718315 -0.59081244 0.5224152 0.21747799
0.109527946 -0.16559185 -0.24234897 0.82255685 -0.26042438 0.15672053 0.038034294 -0.034201503
-0.23958647 0.054154586 0.640047 -0.30304137 0.039696474 -0.15637325 0.033270128 -0.094609514
-0.53236675 -0.07177932 0.24276844 0.16284692 -0.06391962 0.23432249 -0.2143075 0.23031174
-0.12478695 0.041298125 0.379005 -0.044809904 0.101854675 0.19166864 0.14042477 0.24641006
0.027118798 -0.09574157 -0.21733153 0.10203273 -0.10972533 -0.24646218 -0.20039703 0.37844396
-0.17761427 0.042264894 -0.011924416 -0.21383543 0.46755484 -0.0034642639 0.47874027 0.023537204
-0.104430825 0.10416215 -0.067692235 -0.13133892 -0.19979328 0.4116722 -0.008202753 0.034771893
-0.15610297 0.3042439 -0.5341266 0.061738666 0.44304085 0.13146849 0.08597051 -0.8138421
0.679678 -0.107429676 0.41584003 0.6137379 0.05115417 -0.017994817 -0.17241678 -0.05373627
0.6558591 -0.2322017 -0.03778048 0.15360732 0.1773117 0.12669079 0.21129356 0.6391726
0.15060237 0.26446646 0.04400962 0.18040192 0.050734628 0.3098081 0.29929978 0.22132939
0.15074252 0.04040414 0.018755198 -0.13502422 -0.33815303 -0.15098055 -0.59306145 0.26861206
-0.03949375 -0.17003909 0.5404023 -0.026311966 -0.20337512 0.044926964 0.26866284 0.2742256
0.050222766 -0.25639126 0.03100203 0.15599385 -0.044112444 0.14942029 -0.046721954 -0.011610865
0.104945615 -0.20813474 -0.826685 -0.0962382 0.14868726 0.17394853 0.12155672 -0.016442828
0.7419808 1.0436571 -0.21956721 0.025688669 0.09695531 -0.17427889 0.024568804 0.07930104
0.12082164 0.09858884 -0.07069524 -0.01717236 0.10855843 -0.1565239 -0.081100315 -0.046434555
00000000: fcfc 753d ad13 f73e 512d c03c e051 78be
00000010: 4346 263e 97aa 8b3e 9c8a 5e3e 9dba b63e
00000020: 1524 3fbe 6b4a 793e 4277 35be 50b6 1bbe
00000030: 85cc 24be b176 6ebc f431 03be 461b 57be
00000040: bfa3 153f 8e98 0abe ff11 f13e a3aa 803d
00000050: bc46 2cbe 411c ac3d 9cdf 173e e3a7 693e
00000060: 6efe 67be e207 083f b2e9 dabe 62de 9abb
00000070: cde8 9f3e 929c a7be 8fd2 2bbf 3693 563d
00000080: d872 cbbd 58a6 963d 4da5 84bd 8e4e 2b3e
00000090: e222 b3bd 6395 163f 868d ba3e d588 0d3e
000000a0: 8663 6d3d ce00 97be fcff ac3d 3e53 183e
000000b0: 67f1 60be 44f5 243d 62c2 f7be f9ae b7bd
000000c0: 9389 c0bd f1e7 043d 03ac 40be 6739 2c3e
000000d0: 1eb6 3ebe 4d75 b6bd 744e 8dbc ab6a 48be
000000e0: 1f05 523c 2ef3 9ebd 3dff 713d 684e a23e
000000f0: 4953 1c3d b187 32bc 5aae f2bc 246f 3cbe
00000100: 3f35 d93b d251 883e 1908 163d da74 d8bd
00000110: 6c4a 81bd 4983 fc3c 690f c0bd e09f 32bc
00000120: c193 e13d 5a39 b63c c8d9 f63e 00e5 99bb
00000130: 2f9b 943d 0911 013c a370 c0be e7b3 a6be
00000140: acf9 b0be 6c19 4fbf acc0 7d3d 5f37 00be
00000150: 5333 93bc c647 febd 3d9d 39be b1af 163f
00000160: 6312 1abf 0ad5 b2bd 2d38 e4bc ca0e a73d
00000170: 583f 62be d0bb 06be e18e a13f 1368 37bd
00000180: 1721 fabd e36d 3a3e 1523 a33e 7d15 6b3d
00000190: 073f babd 6f02 ba3d eafe 403e 8815 fe3d
000001a0: f850 8e3d e178 b03e 78dc 5a3e 7bbd 1f3e
000001b0: 16e7 d7be 0704 e33e 36cd 19be e39f c43e
000001c0: def9 c9bd 7fe0 023f 300e 96bd e387 6fbf
000001d0: 45a3 ac3e 7c3f 17bf 01bd 053f 8db2 5e3e
000001e0: 3050 e03d e990 29be 542a 78be 1693 523f
000001f0: 5856 85be 597b 203e d9c9 1b3d e016 0cbd
00000200: 2856 75be 33d1 5d3d 1fda 233f 3d28 9bbe
00000210: c598 223d 4f20 20be 4246 083d a2c2 c1bd
00000220: 3049 08bf 0901 93bd 4a98 783e 58c1 263e
00000230: 4ae8 82bd 3cf2 6f3e 6d73 5bbe d7d6 6b3e
00000240: 4d90 ffbd 3928 293d f20c c23e 978a 37bd
00000250: 2f99 d03d c944 443e 83cb 0f3e eb52 7c3e
00000260: 3e28 de3c 2814 c4bd 288c 5ebe 89f6 d03d
00000270: acb7 e0bd 9560 7cbe e134 4dbe 68c3 c13e
00000280: 84e0 35be f41d 2d3d a05e 43bc adf7 5abe
00000290: 5963 ef3e b408 63bb 721d f53e 18d1 c03c
000002a0: d4df d5bd f752 d53d 3aa2 8abd b67d 06be
000002b0: 9c96 4cbe b3c6 d23e d764 06bc f96c 0e3d
000002c0: 75d9 1fbe dbc5 9b3e 85bc 08bf afe1 7c3d
000002d0: 40d6 e23e ad9f 063e 4f11 b03d f557 50bf
000002e0: 61ff 2d3f 1704 dcbd fce8 d43e ed1d 1d3f
000002f0: 0987 513d de69 93bc 068e 30be 901a 5cbd
00000300: 62e6 273f 48c6 6dbe b4bf 1abd 3d4b 1d3e
00000310: 3391 353e 3bbb 013e 575d 583e d1a0 233f
00000320: 8237 1a3e 2668 873e 6e43 343d 48bb 383e
00000330: 1dcf 4f3d 2b9f 9e3e d23d 993e 2ca4 623e
00000340: 3f5c 1a3e d07e 253d 80a4 993c ca43 0abe
00000350: 6522 adbe a59a 1abe e0d2 17bf 8587 893e
00000360: 33c4 21bd ba1e 2ebe ce57 0a3f 318c d7bc
00000370: 9141 50be 5605 383d 2d8e 893e 4c67 8c3e
00000380: 63b6 4d3d b745 83be f8f7 fd3c dabc 1f3e
00000390: 40af 34bd a201 193e 855f 3fbd 7f3b 3ebc
000003a0: baed d63d 4621 55be a1a1 53bf 8918 c5bd
000003b0: 7941 183e 901f 323e bbf2 f83d 1cb3 86bc
000003c0: 74f2 3d3f 8e96 853f 3ad6 60be 0b71 d23c
000003d0: 8190 c63d 2a76 32be 8444 c93c 9568 a23d
000003e0: 5671 f73d f2e8 c93d aac8 90bd 0dad 8cbc
000003f0: e253 de3d cd47 20be ec17 a6bd 2932 3ebd

deconv1.weight f4 [32, 32, 1, 1]
-0.0671684 -0.12287622 -0.10540924 0.20424841 -0.22357439 -0.0072446163 -0.17288548 0.031474695
-0.26510385 0.11667864 -0.06278828 0.25815427 -0.6364524 -0.021259697 -0.1894237 -0.19444484
0.05277928 0.12510224 -0.14691266 0.0026852752 -0.20101146 -0.11640952 -0.29624522 -0.94267726
0.20816185 -1.0278715 0.36627865 -0.16007571 -0.007957559 0.078179404 0.27158046 -0.017274693
0.29234937 -0.2970448 -0.11000914 -0.049413465 -0.32853258 -0.040448286 -0.030854417 0.3398866
-0.012380727 0.07822739 0.20850204 -0.06641514 0.01083093 0.24920529 0.35374227 -0.30124635
-0.18432008 0.25845465 0.36502317 0.47278836 0.2363769 0.13953729 -0.86056966 -0.2294358
0.649646 -0.057386305 0.136112 0.03386102 0.1346132 0.037586365 0.20514573 -0.0007864507
-0.44120634 0.42023772 0.02968398 -0.14943078 0.059820604 0.028126296 -0.031092098 0.009731712
-0.42654532 -0.0025063956 -0.19944915 0.23139562 -0.113149464 -0.0067287157 -0.10261768 0.09603527
0.17973535 -0.06904029 -0.185415 -0.15111238 -0.016800802 0.04096654 0.31090897 0.2905968
0.10577825 -0.3314673 0.056891765 -0.058986362 -0.1648762 -0.007664074 -0.5428909 -0.06571416
0.23113526 0.14516051 -0.060612377 -0.01665022 -0.41126478 0.05670265 -0.09941424 0.068887375
-0.4251449 0.26242575 0.2651378 -0.42447737 0.014990464 -0.13104604 -0.21784991 0.07754733
0.15359086 -0.11217167 0.025388671 -0.18240221 0.25394702 0.38116065 -0.3786207 0.08629559
-0.5702155 -0.09021785 0.03797995 -0.13267411 -0.11167677 -0.11213474 -0.2579486 -0.035451815
0.35840556 0.15529908 -0.3308937 -0.24041949 0.024520619 0.01297209 0.16383846 -0.057768352
-0.30296063 0.0022414406 -0.07105232 -0.24517594 0.0040263413 0.007037919 -0.2553296 -0.20923808
-0.2726506 -0.36918685 0.25966898 -0.30402577 -0.75027037 0.18685327 0.43496424 -0.21779715
-0.012031105 -0.50761014 -0.46762425 -0.30647585 -0.22476381 -0.040602792 -0.58665454 -0.014598923
0.0070398753 0.17989033 0.21688837 -0.5422524 -0.39121482 0.0016158136 0.27614033 -0.33956
-0.21826695 -0.14284778 0.10438714 -0.011131402 0.33532277 0.09797936 0.42518097 -0.11700764
0.0373787 0.16323176 0.094219014 0.04789946 0.22379883 0.11083528 0.4293762 -0.635742
-0.017042696 0.20149978 0.19044502 -0.3856005 0.19009231 -0.014077126 0.103470095 -0.02164913
0.03161399 -0.21570075 -0.15471812 0.13016789 0.28697097 0.022680907 0.030534232 -0.21168363
0.0095869675 0.06921687 0.17786779 0.3209245 -0.057553258 -0.1259942 -0.28172597 -0.10897897
-0.23943572 -0.2739194 0.13191065 -0.26173997 -0.4746961 0.02972686 -0.21087165 0.39157814
0.4825738 -0.33098227 0.0801696 -0.22487141 0.05904706 -0.024401017 -0.05044156 -0.001296021
-0.16343586 -0.07485376 0.01549142 -0.6889767 0.19465022 0.017989071 -0.05127203 -0.043476377
0.008272045 0.13746117 -0.116127856 -0.33428618 -0.34343356 -0.11868301 0.2116115 0.23400934
0.117645845 -0.13001625 -0.2835373 0.012607575 0.3529281 -0.12845257 0.006536311 0.09528319
-0.15329576 -0.14867848 0.17817381 -0.2673033 -0.02349689 -0.027617425 0.17743766 0.00830327
00000000: 968f 89bd 87a6 fbbd cde0 d7bd 7f26 513e
00000010: aff0 64be 3f64 edbb e408 31be 9ceb 003d
00000020: b1bb 87be 36f5 ee3d 2497 80bd cc2c 843e
00000030: 8bee 22bf d128 aebc 49f8 41be 8c1c 47be
00000040: 162f 583d cd1a 003e 4670 16be 71fb 2f3b
00000050: f3d5 4dbe 1d68 eebd 74ad 97be 4c53 71bf
00000060: 6128 553e 4b91 83bf e088 bb3e e3ea 23be
00000070: 6c60 02bc 861c a03d 980c 8b3e a883 8dbc
00000080: d1ae 953e 4216 98be 794c e1bd c665 4abd
00000090: 6c35 a8be 1aad 25bd 67c2 fcbc 9e05 ae3e
000000a0: 88d8 4abc af35 a03d 8f81 553e a904 88bd
000000b0: 3774 313c ac2f 7f3e b51d b53e f63c 9abe
000000c0: 67be 3cbe 2b54 843e 51e4 ba3e 5111 f23e
000000d0: c90c 723e dde2 0e3e 4b4e 5cbf 38f1 6abe
000000e0: 334f 263f e70d 6bbd f260 0b3e dab1 0a3d
000000f0: 0bd8 093e 29f4 193d b911 523e d029 4eba
00000100: cce5 e1be 6629 d73e d12b f33c 6204 19be
00000110: 7306 753d 1e69 e63c dbb4 febc c271 1f3c
00000120: 2664 dabe 5742 24bb 663c 4cbe f9f2 6c3e
00000130: e8ba e7bd 8f7c dcbb 3829 d2bd 24ae c43d
00000140: 8b0c 383e ff64 8dbd 6edd 3dbe 34bd 1abe
00000150: d6a1 89bc 88cc 273d 762f 9f3e 1bc9 943e
00000160: 44a2 d83d 15b6 a9be 5707 693d af9b 71bd
00000170: 4ed5 28be ea22 fbbb e6fa 0abf 2595 86bd
00000180: b9ae 6c3e f5a4 143e af44 78bd 0b66 88bc
00000190: 4c91 d2be 0a41 683d b199 cbbd d314 8d3d
000001a0: 98ac d9be ab5c 863e 24c0 873e 1955 d9be
000001b0: 909a 753c ef30 06be 0c14 5fbe 22d1 9e3d
000001c0: ec46 1d3e 43ba e5bd e7fb cf3c a5c7 3abe
000001d0: 5805 823e 7d27 c33e 93da c1be bebb b03d
000001e0: a5f9 11bf 23c4 b8bd dd90 1b3d b9db 07be
000001f0: cab6 e4bd e6a6 e5bd d711 84be ec35 11bd
00000200: ef80 b73e b906 1f3e e66a a9be 8730 76be
00000210: 77df c83c e488 543c 45c5 273e 829e 6cbd
00000220: a81d 9bbe 22e5 123b e183 91bd 670f 7bbe
00000230: 66ef 833b 589e e63b 90ba 82be 8242 56be
00000240: dc98 8bbe 0f06 bdbe 55f3 843e 44a9 9bbe
00000250: b811 40bf 7756 3f3e a2b3 de3e 3706 5fbe
00000260: 1d1e 45bc bdf2 01bf 726c efbe 67ea 9cbe
00000270: 7c28 66be 1d4f 26bd fe2e 16bf 5230 6fbc
00000280: c1ae e63b 2c35 383e fc17 5e3e 0ed1 0abf
00000290: 4f4d c8be b5c9 d33a 4462 8d3e cfda adbe
000002a0: 5f81 5fbe b046 12be edc8 d53d 7c60 36bc
000002b0: 6daf ab3e 67a9 c83d 52b1 d93e b4a1 efbd
000002c0: 681a 193d 3a26 273e e6f5 c03d 3932 443d
000002d0: 852b 653e 9bfd e23d 33d7 db3e fdbf 22bf
000002e0: 209d 8bbc f555 4e3e 0504 433e 6e6d c5be
000002f0: 8fa7 423e bfa3 66bc 21e8 d33d 8459 b1bc
00000300: ac7d 013d a8e0 5cbe 6d6e 1ebe bb4a 053e
00000310: dced 923e 4fcd b93c ed22 fa3c 98c3 58be
00000320: a812 1d3c 93c1 8d3d f922 363e 3750 a43e
00000330: f7bc 6bbd a004 01be 633e 90be 5e30 dfbd
00000340: a32e 75be 2a3f 8cbe 9613 073e c802 86be
00000350: 5e0b f3be be85 f33c bdee 57be ee7c c83e
00000360: ea13 f73e 8276 a9be f62f a43d b144 66be
00000370: 54db 713d a4e4 c7bc cf9b 4ebd 40df a9ba
00000380: bb5b 27be ee4c 99bd bacf 7d3c c760 30bf
00000390: 6352 473e d15d 933c 9f02 52bd 4914 32bd
000003a0: 7987 073c 9fc2 0c3e 71d4 edbd 8f27 abbe
000003b0: 86d6 afbe 1410 f3bd afb0 583e 25a0 6f3e
000003c0: 4ef0 f03d fb22 05be cd2b 91be 0190 4e3c
000003d0: feb2 b43e 1289 03be 8d2e d63b d523 c33d
000003e0: 90f9 1cbe 2c3f 18be 3273 363e fadb 88be
000003f0: 8d7c c0bc f03d e2bc 38b2 353e 700a 083c

deconv1.bias f4 [32]
0.05895849 0.14670661 0.085070245 -0.037382267 -0.13891135 0.20778078 0.1810414 0.22764502
0.091564335 -0.06391311 0.081937514 -0.033302065 0.19614516 0.15519492 0.07867641 0.09787474
0.14883937 -0.03596894 0.1981001 0.0882311 -0.06901675 -0.0018748711 -0.23536593 -0.11052375
0.0030935048 -0.09696104 -0.11559221 -0.008080976 0.20324522 0.07485803 -0.06886765 0.21979837
00000000: 757e 713d 423a 163e 4f39 ae3d 261e 19bd
00000010: c73e 0ebe 7cc4 543e eb62 393e c71b 693e
00000020: 1586 bb3d e0e4 82bd dbce a73d bf67 08bd
00000030: 47da 483e 6beb 1e3e 1921 a13d 8d72 c83d
00000040: 5969 183e 2b54 13bd c1da 4a3e 82b2 b43d
00000050: a758 8dbd 3cbe f5ba c403 71be 475a e2bd
00000060: 66bc 4a3b 8293 c6bd 9cbb ecbd 1266 04bc
00000070: 841f 503e 2b4f 993d 7c0a 8dbd d312 613e
