Pytorch/AutoEncoder/saved_models/LittmanNet_2_cifar10.pt (torch, 229871 bytes, 16 tensors)

conv1.weight f4 [4, 3, 3, 3]
0.117074475 -0.12545148 0.1543218 -0.10070722 -0.0763757 0.12151165 -0.13775466 -0.07745754
-0.06723854 0.08562185 0.101178095 -0.077514894 -0.16689391 0.17160632 0.18537672 0.109850064
-0.18737862 -0.09101064 0.1227466 -0.15073393 0.047451243 0.07246743 -0.10099674 -0.119177505
0.017695546 -0.1797265 -0.031967 -0.114487916 -0.10047495 -0.046712935 -0.10572483 -0.16081351
0.04485473 -0.006209329 -0.075334415 -0.11845936 -0.053576276 0.04303029 -0.026278362 -0.124025136
-0.14012295 -0.1250208 0.022089854 -0.07643266 -0.18328935 0.065165594 -0.15625429 -0.08971323
0.17254327 -0.105347045 0.09621628 -0.114359766 0.17539243 0.12394746 0.11081873 0.0931388
-0.04936549 -0.07577891 0.05126661 -0.17958091 0.13946868 0.08450745 0.1283798 -0.057438746
-0.13698635 -0.1381712 -0.16806732 -0.09331478 -0.05008465 -0.1050694 -0.17441753 -0.07947381
0.08532424 0.11264111 0.1854053 -0.1604742 -0.10194169 -0.13913752 0.05669786 -0.021928012
0.1423934 0.10449232 0.090012565 0.18787815 0.07605781 -0.12034141 0.11777301 0.13385312
-0.1507225 -0.12553021 -0.13070935 -6.6012144e-06 0.14170282 0.010936782 0.07673304 0.119028285
0.06338851 -0.14617383 0.18836285 -0.15946558 0.10152684 0.17024247 0.042441532 0.03888233
0.068222865 0.12161519 -0.14921534 0.16557257
00000000: bec4 ef3d 5a76 00be 8906 1e3e 963f cebd
00000010: dd6a 9cbd 1adb f83d 8f0f 0dbe 0fa2 9ebd
00000020: 5cb4 89bd 825a af3d 7636 cf3d 21c0 9ebd
00000030: 3de6 2abe 91b9 2f3e 65d3 3d3e 12f9 e03d
00000040: 2ee0 3fbe c963 babd 9262 fb3d ff59 1abe
00000050: 3c5c 423d ce69 943d 61d7 cebd 5613 f4bd
00000060: 40f6 903c 390a 38be d4ef 02bd a478 eabd
00000070: d0c5 cdbd 1056 3fbd 4286 d8bd 4cac 24be
00000080: 98b9 373d a077 cbbb ee48 9abd d29a f2bd
00000090: cc72 5bbd 8840 303d b845 d7bc e400 febd
000000a0: 647c 0fbe 7405 00be c8f5 b43c ba88 9cbd
000000b0: 34b0 3bbe 8a75 853d 2001 20be 92bb b7bd
000000c0: 2faf 303e 31c0 d7bd 0a0d c53d 7435 eabd
000000d0: 139a 333e 2ad8 fd3d eef4 e23d 8ebf be3d
000000e0: 7833 4abd f931 9bbd f0fc 513d 0fe4 37be
000000f0: e1d0 0e3e 3e12 ad3d ff75 033e e444 6bbd
00000100: 2646 0cbe c07c 0dbe d719 2cbe d21b bfbd
00000110: 9025 4dbd a02e d7bd 829a 32be 2ac3 a2bd
00000120: 7abe ae3d 62b0 e63d e3da 3d3e 5953 24be
00000130: cec6 d0bd 117a 0ebe 043c 683d 60a2 b3bc
00000140: 93cf 113e 1200 d63d 8258 b83d 2163 403e
00000150: 32c4 9b3d 8f75 f6bd fa32 f13d cb10 093e
00000160: 0057 1abe fe8a 00be acd8 05be 0080 ddb6
00000170: 8b1a 113e 3030 333c 3626 9d3d 1ac5 f33d
00000180: d6d1 813d 98ae 15be 31e2 403e f24a 23be
00000190: 4eed cf3d 0b54 2e3e 2cd7 2d3d 1443 1f3d
000001a0: 6eb8 8b3d 6211 f93d e8cb 18be db8b 293e

conv1.bias f4 [4]
-0.13395669 -0.116964675 -0.08865438 0.014070511
00000000: f12b 09be 2d8b efbd 6d90 b5bd 0088 663c

conv2.weight f4 [5, 4, 3, 3]
0.10362221 -0.021031305 -0.111667715 -0.1027336 0.030134916 0.06731351 0.0150704235 -0.08653468
0.037812114 0.12088068 0.09203656 -0.12347498 -0.06373861 0.06865759 0.029020503 -0.13623959
-0.14934179 -0.13867466 0.018382594 0.0946867 0.035463735 -0.110092185 -0.007116914 0.1431417
-0.00095431507 0.07921888 -0.112293504 0.09992637 0.120502576 -0.1566618 -0.10468161 -0.05235885
-0.065930605 0.074701175 -0.09441336 -0.12990052 0.044931635 -0.064356804 0.14382578 0.1308576
-0.15696165 0.1483833 0.114010945 -0.10204399 0.03924012 -0.15076904 -0.14582264 0.1129023
0.12295391 0.011498287 -0.131792 0.05461836 -0.11389836 0.121445045 -0.084425986 -0.12712434
0.02381368 -0.05468887 0.13412927 -0.011440158 0.057384387 0.086067215 -0.02261357 0.12094511
-0.16368632 0.04444933 -0.12783483 -0.10013972 -0.010332584 0.057347074 -0.14928588 0.06002921
-0.15833567 0.05673401 0.09602676 -0.012645379 -0.046640836 -0.06085535 0.14667223 0.076422274
0.12319781 0.09169172 0.09585102 -0.059396252 0.12911244 -0.08347529 -0.10639028 0.13101001
0.1363119 -0.1334195 -0.033409894 -0.03957762 -0.049367175 0.0824808 -0.06803533 -0.009059057
-0.13131714 0.1382894 0.050856456 -0.07855624 -0.13687518 -0.1291281 -0.11729958 0.08374323
-0.14806607 -0.13682103 -0.0259251 -0.14942148 -0.12867591 -0.03985727 0.10043363 -0.08598717
0.1548493 0.07426238 -0.15882628 -0.15578632 -0.026100025 -0.14120024 0.1620241 0.10205056
0.060667947 0.00022776425 -0.13861391 0.065821454 -0.053609632 -0.12700579 0.085604265 -0.13927901
-0.09823978 0.14283247 -0.05795815 -0.09625586 0.0034475774 0.10229345 -0.10658401 0.018969
-0.116358005 0.118541434 0.13137485 0.035752043 0.081763625 0.06829643 0.024151161 -0.15812752
-0.031450793 -0.13645194 -0.091202006 0.059825063 -0.08240235 0.15988286 -0.06518811 0.10332678
0.07589327 -0.0041092485 0.08529545 0.100038424 0.12166275 0.004893601 -0.13663226 -0.14020553
-0.13013431 0.079777524 -0.018821374 -0.001896441 -0.008198082 -0.10225022 -0.035550818 -0.093070135
0.09665243 0.13291539 0.04167311 -0.09466418 -0.11327128 -0.10199897 0.15198483 -0.011821583
-0.14921662 0.16627721 -0.1341078 -0.12666422
00000000: e237 d43d d849 acbc 0bb2 e4bd fe65 d2bd
00000010: 80dd f63c aadb 893d f0e9 763c 1839 b1bd
00000020: e0e0 1a3d 4a90 f73d aa7d bc3d 73e0 fcbd
00000030: 6389 82bd 5a9c 8c3d 68bc ed3c 6482 0bbe
00000040: 0eed 18be bb00 0ebe 1897 963c 1aeb c13d
00000050: 6c42 113d 0378 e1bd 0035 e9bb bd93 123e
00000060: 002b 7aba 823d a23d 23fa e5bd 32a6 cc3d
00000070: 0eca f63d f36b 20be 5063 d6bd 3c76 56bd
00000080: a006 87bd eefc 983d cb5b c1bd a404 05be
00000090: 3c0a 383d 80cd 83bd 1147 133e 89ff 053e
000000a0: 8eba 20be cbf1 173e 927e e93d 70fc d0bd
000000b0: 40ba 203d 3363 1abe 8852 15be 5239 e73d
000000c0: 42cf fb3d 5063 3c3c 7bf4 06be 80b7 5f3d
000000d0: 8b43 e9bd 2eb8 f83d 88e7 acbd e22c 02be
000000e0: e814 c33c 7001 60bd 2f59 093e 806f 3bbc
000000f0: e40b 6b3d 0244 b03d 1840 b9bc 12b2 f73d
00000100: 639d 27be 8010 363d 22e7 02be 0e16 cdbd
00000110: 004a 29bc c4e4 6a3d 66de 18be 30e1 753d
00000120: bf22 22be ec61 683d aea9 c43d 902e 4fbc
00000130: 760a 3fbd 7643 79bd 3f31 163e 4883 9c3d
00000140: 224f fc3d dec8 bb3d 8a4d c43d 7c49 73bd
00000150: 0d36 043e 18f5 aabd 26e3 d9bd 7d27 063e
00000160: 5995 0b3e 1f9f 08be d0d8 08bd 241c 22bd
00000170: 3c35 4abd b2eb a83d 1b56 8bbd 706c 14bc
00000180: 0078 06be bd9b 0d3e dc4e 503d 18e2 a0bd
00000190: 0229 0cbe 283a 04be c33a f0bd 9281 ab3d
000001a0: a29e 17be d01a 0cbe e060 d4bc f201 19be
000001b0: 9ec3 03be 6041 23bd 26b0 cd3d 0b1a b0bd
000001c0: d190 1e3e e016 983d 5ba3 22be 7386 1fbe
000001d0: b8cf d5bc cc96 10be a5e9 253e e2ff d03d
000001e0: f47e 783d 00d4 6e39 cef0 0dbe 66cd 863d
000001f0: c695 5bbd ce0d 02be 4a51 af3d 289f 0ebe
00000200: f031 c9bd ad42 123e 8665 6dbd cb21 c5bd
00000210: c0f0 613b 3a7f d13d b848 dabd e064 9b3c
00000220: 1b4d eebd dac5 f23d 2187 063e bc70 123d
00000230: b073 a73d 00df 8b3d a8d8 c53c 2eec 21be
00000240: 8cd2 00bd 0fba 0bbe 1ec8 babd 200b 753d
00000250: 90c2 a8bd 55b8 233e 5881 85bd fe9c d33d
00000260: ee6d 9b3d e0a6 86bb 62af ae3d f2e0 cc3d
00000270: 522a f93d 805a a03b 54e9 0bbe 0a92 0fbe
00000280: ee41 05be 6662 a33d 482f 9abc 0092 f8ba
00000290: 4051 06bc 9068 d1bd bc9d 11bd 8e9b bebd
000002a0: b6f1 c53d f91a 083e 6cb1 2a3d 4bdf c1bd
000002b0: c6fa e7bd d6e4 d0bd e9a1 1b3e 50af 41bc
000002c0: 3ecc 18be 9344 2a3e 8e53 09be 44b4 01be

conv2.bias f4 [5]
0.009014472 -0.13218898 0.12346567 0.043860674 0.104983106
00000000: 70b1 133c 8c5c 07be 92db fc3d 40a7 333d
00000010: 6201 d73d

fc1.weight f4 [80, 320]
-0.04408743 0.02569341 0.020499557 -0.006678857 -0.043996546 -0.03716634 -0.008995108 -0.021662883
0.0004640147 0.038914844 0.01543811 0.017157018 0.011378244 -0.03102644 0.033989765 0.013202399
-0.020480156 -0.0014731102 0.016840763 -0.036551036 0.03941199 0.04005502 -0.042122304 -0.027945245
0.002634406 0.024031296 -0.04484673 -0.054878667 0.034120075 0.047937177 -0.055100147 -0.008194383
0.038950473 -0.0032070056 0.046736196 0.027693108 -0.039215326 -0.025177805 0.04276842 0.05216673
0.018245995 -0.032509733 -0.028252408 -0.027281903 0.04786463 -0.020061933 0.01893051 0.019367725
-0.011069726 0.037459143 0.0018957667 0.03291127 0.043614194 -0.008217681 0.03933277 -0.014663663
0.055834554 -0.03121006 0.016985029 -0.00089714304 -0.025462897 -0.049973108 0.019391075 0.011719525
-0.03740257 -0.048691522 -0.024558991 0.03358067 -0.047528386 -0.022094078 0.032462634 -0.037667923
-0.050657775 0.011418894 -0.0295247 -0.030484643 0.0020043068 -0.009333789 -0.02623325 -0.013017833
-0.0515743 0.047256432 -0.025320508 -0.016947404 -0.044713374 -0.0346027 0.006115414 -0.012552399
-0.052630886 0.049238093 -0.032159586 0.039638348 -0.024072342 0.027217917 0.016441904 -0.02382901
-0.011037227 -0.051840737 -0.03955473 -0.027348017 -0.05401254 -0.017484646 0.037285127 -0.05046392
0.022324875 0.01497338 -0.013918962 -0.02661467 -0.0054030344 0.01479014 -0.0050635897 0.035266966
-0.049968284 0.015281908 0.015197031 -0.04133962 0.052517653 0.05237464 0.021566026 0.03922426
0.01233843 -0.033588596 -0.053273436 0.019960321 0.013599403 0.047550015 -0.032858014 0.0038607977
0.031403832 0.020892054 -0.0035498068 0.0069845244 0.025610022 -0.025009438 0.037058577 -0.021382261
0.0026014186 -0.039786857 0.02410116 -0.020315617 -0.04920907 0.037758365 -0.046608463 -0.023439214
-0.0467595 0.02371613 0.017871037 0.018008202 -0.04200005 0.016218007 0.011184022 -0.020602249
0.028696805 0.013652906 -0.03813501 0.05260621 0.051939435 0.0010683984 -0.04608557 0.052733928
0.0024268553 -0.05479185 0.014198385 0.048534103 0.05321864 -0.0020582303 -0.034240708 -0.030084303
0.0103834495 0.0041045994 -0.0014731325 -0.0107331015 0.0067600384 -0.030099837 0.05237004 0.04523406
-0.04209758 -0.02574881 0.027561024 -0.031596884 -0.04231712 -0.00096222013 -0.010799587 0.014062807
0.027999014 0.030314423 -0.004019387 -0.008328769 -0.03164185 0.011154033 -0.0067666546 0.0108208135
0.049626976 -0.009926222 -0.012451049 -0.010143012 0.025921293 0.02556689 -0.048851185 0.0082073435
-0.038362946 -0.029465724 0.0139255 0.012211584 -0.03569325 -0.010277569 -0.03862616 0.029018931
0.00422018 0.052293673 0.052314296 0.039872542 0.031893536 0.042761467 0.029438958 0.028841712
0.01450289 0.01971364 -0.049356468 0.025371127 0.002648726 0.005396854 0.0224251 0.01896339
-0.00036322698 -0.030996365 -0.025609272 0.0066433847 -0.04972846 -0.018919855 0.032289393 -0.05482952
-0.018715676 -0.03434749 -0.013359949 0.016595013 0.0005918108 0.0008941293 -0.045152865 0.04484923
-0.044903874 0.055381767 -0.044065487 -0.026071914 -0.022547677 -0.004548546 0.050535977 -0.045042433
-0.0487047 -0.020039953 -0.020858325 0.039096482 0.0018464476 -0.00033349916 -0.046061326 0.041081563
00000000: 0595 34bd fc7a d23c b0ee a73c 50da dabb
00000010: b935 34bd bb3b 18bd 3860 13bc 5c76 b1bc
00000020: 0047 f339 2c65 1f3d 20f0 7c3c e08c 8c3c
00000030: d06b 3a3c 292b febc da38 0b3d e04e 583c
00000040: 00c6 a7bc 6015 c1ba a4f5 893c 8ab6 15bd
00000050: 786e 213d bc10 243d 7088 2cbd 6ded e4bc
00000060: 00a6 2c3b 48dd c43c 34b1 37bd 74c8 60bd
00000070: 7ec1 0b3d c659 443d b1b0 61bd bc41 06bc
00000080: 888a 1f3d a02c 52bb 746e 3f3d a8dc e23c
00000090: 40a0 20bd af41 cebc f02d 2f3d c8ac 553d
000000a0: a078 953c ed28 05bd 9871 e7bc 4c7e dfbc
000000b0: b40d 443d ec58 a4bc 2814 9b3c 10a9 9e3c
000000c0: cc5d 35bc c26e 193d 607b f83a f8cd 063d
000000d0: cca4 323d 74a3 06bc 661b 213d dc3f 70bc
000000e0: c6b2 643d 3dac ffbc 3024 8b3c 402e 6bba
000000f0: 9197 d0bc 9ab0 4cbd 08da 9e3c 4003 403c
00000100: 7033 19bd c370 47bd f02f c9bc e28b 093d
00000110: 20ad 42bd a4fe b4bc 8af7 043d ae49 1abd
00000120: 877e 4fbd 5016 3b3c c9dd f1bc eeba f9bc
00000130: b05a 033b c0ec 18bc 1de7 d6bc c048 55bc
00000140: 933f 53bd f68f 413d f46c cfbc 48d5 8abc
00000150: 5f25 37bd 90bb 0dbd d063 c83b 94a8 4dbc
00000160: 7c93 57bd e2ad 493d c5b9 03bd d25b 223d
00000170: 5c33 c5bc 1cf8 de3c 2cb1 863c 0e35 c3bc
00000180: 7cd5 34bc f456 54bd 2404 22bd f308 e0bc
00000190: 413c 5dbd f63b 8fbc 4ab8 183d 41b3 4ebd
000001a0: a8e2 b63c e852 753c 5c0c 64bc 0207 dabc
000001b0: f00b b1bb 5852 723c 78ec a5bb 1874 103d
000001c0: 8bab 4cbd f860 7a3c f8fc 783c bc53 29bd
000001d0: c01c 573d ca86 563d 3cab b03c 9ea9 203d
000001e0: 2027 4a3c 3294 09bd 3f35 5abd d483 a33c
000001f0: 08d0 5e3c cec3 423d 2096 06bd 7005 7d3b
00000200: 4ea1 003d d025 ab3c e0a3 68bb 70de e43b
00000210: 1ccc d13c 98e0 ccbc bcca 173d da29 afbc
00000220: 907c 2a3b 8bf7 22bd cc6f c53c f06c a6bc
00000230: 738f 49bd 84a8 1a3d 84e8 3ebd 9803 c0bc
00000240: e486 3fbd 5448 c23c 4866 923c f085 933c
00000250: 3f08 2cbd a0db 843c 303d 373c 0cc6 a8bc
00000260: 9015 eb3c 70b0 5f3c 7533 1cbd 9c79 573d
00000270: 72be 543d 8009 8c3a 39c4 3cbd 88ff 573d
00000280: e00b 1f3b 6b6d 60bd 58a0 683c b2cb 463d
00000290: cafb 593d 60e3 06bb fc3f 0cbd 5b73 f6bc
000002a0: 581f 2a3c e07f 863b 2016 c1ba e4d9 2fbc
000002b0: 5083 dd3b ef93 f6bc f881 563d 5a47 393d
000002c0: 836e 2cbd 2bef d2bc a8c7 e13c bc6b 01bd
000002d0: b754 2dbd 803d 7cba c0f0 30bc b067 663c
000002e0: 305e e53c f455 f83c 10b5 83bb 6475 08bc
000002f0: e29a 01bd 68bf 363c d0ba ddbb c849 313c
00000300: a845 4b3d 98a1 22bc 7cff 4bbc e02e 26bc
00000310: e458 d43c a871 d13c 2e18 48bd 1878 063c
00000320: 7722 1dbd 1a62 f1bc c827 643c 1813 483c
00000330: 1633 12bd 4063 28bc 7736 1ebd 1cb9 ed3c
00000340: 7049 8a3b e431 563d 8447 563d 6451 233d
00000350: cca2 023d a626 2f3d f829 f13c 7445 ec3c
00000360: 889d 6d3c 807e a13c 022a 4abd 1cd7 cf3c
00000370: 4096 2d3b 18d8 b03b d8b4 b73c 1c59 9b3c
00000380: 806f beb9 17ec fdbc 89ca d1bc c0b0 d93b
00000390: 12b0 4bbd d0fd 9abc e241 043d eb94 60bd
000003a0: 9e51 99bc f4af 0cbd b0e3 5abc 44f2 873c
000003b0: c023 1b3a 0064 6a3a 36f2 38bd d4b3 373d
000003c0: 20ed 37bd fed7 623d 037e 34bd c494 d5bc
000003d0: e8b5 b8bc f80b 95bb d0fe 4e3d 6a7e 38bd
000003e0: 947e 47bd d42a a4bc 14df aabc a223 203d
000003f0: 8004 f23a 80d9 aeb9 cdaa 3cbd 2445 283d

fc1.bias f4 [80]
0.018591166 0.021828175 0.023214996 0.021182872 0.021133043 -0.02358441 -0.036587935 -0.053986438
0.009607442 0.0055917054 0.045105852 -0.038626347 -0.04507883 -0.022620529 0.0010635331 0.030701235
0.04715801 -0.016931202 -0.05434045 -0.024393853 -0.028438848 -0.0033666342 0.0053284243 -0.022621915
-0.010833893 -0.025494112 -0.009882756 0.03926199 -0.017997544 -0.03560581 0.009924568 0.008390151
0.053469375 0.05261544 -0.0017810613 0.03102348 0.005122844 0.04946758 0.044312626 0.015633322
0.010437027 0.027613908 -0.0056638233 -0.008413497 -0.03827513 -0.012240637 0.02619996 0.048150346
0.032255232 0.05196047 0.022824205 0.022873826 0.02358038 0.031181775 0.0001312159 -0.0021237694
-0.022741191 -0.012096744 -0.010654185 0.038717248 -0.05444224 0.039053872 -0.049052805 0.04801371
0.021206893 -0.055802867 -0.04553798 -0.052496 0.026080273 0.03945878 0.017616935 -0.013543479
-0.051688716 -0.050502058 0.019303821 -0.021953586 0.032223113 0.005726617 0.0075852573 -0.031054296
00000000: 804c 983c 00d1 b23c 602d be3c b487 ad3c
00000010: 341f ad3c 1834 c1bc 3bdd 15bd e220 5dbd
00000020: 8868 1d3c a03a b73b eac0 383d a936 1ebd
00000030: 94a4 38bd b04e b9bc 4066 8b3a 2881 fb3c
00000040: c228 413d 4eb3 8abc 1794 5ebd 9ed5 c7bc
00000050: 96f8 e8bc c0a2 5cbb 109a ae3b 9851 b9bc
00000060: a480 31bc 07d9 d0bc 48eb 21bc 2ed1 203d
00000070: 966f 93bc 66d7 11bd a89a 223c d876 093c
00000080: b402 5b3d 4a83 573d 8072 e9ba f424 fe3c
00000090: 88dd a73b 849e 4a3d 2881 353d 7411 803c
000000a0: 1000 2b3c 9036 e23c 9897 b9bb c4d8 09bc
000000b0: 62c6 1cbd f48c 48bc 4ca1 d63c 4c39 453d
000000c0: 101e 043d 80d4 543d d4f9 ba3c e461 bb3c
000000d0: a42b c13c ec70 ff3c 0097 0939 f02e 0bbb
000000e0: bc4b babc 6c31 46bc e48e 2ebc fa95 1e3d
000000f0: d4fe 5ebd f4f6 1f3d 98eb 48bd 06aa 443d
00000100: 14ba ad3c 8c91 64bd 0886 3abd 0c06 57bd
00000110: 4ca6 d53c 889f 213d 6451 903c 78e5 5dbc
00000120: 8cb7 53bd 3fdb 4ebd 0c23 9e3c 02d8 b3bc
00000130: 62fc 033d 58a6 bb3b c08d f83b 9465 febc

fc2.weight f4 [24, 80]
0.06421183 0.07808423 -0.03853398 0.09609757 -0.060412508 -0.0043328702 -0.048961088 0.07017447
-0.05873454 -0.014347665 0.045164943 -0.09214714 0.097499296 -0.036823794 -0.048726715 -0.0910409
-0.07602897 0.023475677 -0.09061166 -0.040519252 -0.07722062 -0.05032249 0.060924366 0.053011715
-0.08025693 -0.008206755 -0.014205709 -0.07736625 0.033981502 0.029527724 -0.10899295 0.08148189
0.037021324 0.076688334 0.09244427 0.08711851 0.028691813 0.015319347 0.03841366 -0.089922935
0.06936683 0.014282435 -0.032487676 0.028172404 -0.031938285 0.045632035 0.100995466 0.036736622
-0.011697695 -0.013347529 0.00027941912 0.00420101 0.105159715 -0.051602937 0.044851348 -0.05076403
-0.02569706 -0.073271915 -0.06273178 0.06019099 -0.06886485 -0.10148319 0.014250055 0.05367671
-0.09549208 0.09048483 -0.05622433 -0.060883228 0.10844603 0.085272506 0.0038052946 -0.11014491
0.10195772 -0.06806564 0.098820776 0.047893435 0.06531009 -0.07947434 0.083894506 0.026899382
0.03235598 -0.0017816201 -0.09139621 -0.10309374 -0.10238315 -0.048036084 -0.0009540841 0.0986159
-0.032719687 0.039346293 -0.0070490763 -0.04397046 0.065990806 0.094138056 -0.0011116639 -0.092353374
0.09796515 0.033860475 0.07423492 0.09574422 -0.056919307 0.07872951 0.05422668 -0.059623342
0.004544571 0.06411378 0.010734096 0.06930509 0.06867853 -0.075296275 -0.091937326 0.041683942
0.10231817 0.10901496 0.0768439 -0.017594405 0.011519246 0.066073194 -0.00032123178 0.0044710785
-0.042933844 -0.033223927 -0.008479491 0.08703552 0.031574696 0.0563737 -0.02289804 0.03753008
0.07332663 0.101402 -0.053111333 -0.0015291721 -0.009608641 -0.030604534 0.032408282 -0.04271689
0.018329278 -0.08385413 -0.0742397 -0.03943047 -0.070619956 -0.005602613 -0.10469192 0.098679826
-0.08423024 -0.048618145 -0.026050366 0.057827726 -0.06881547 0.08864766 0.041381568 -0.03177263
-0.005582325 -0.041113064 0.051344246 -0.064961374 -0.095407024 0.05357811 0.111244336 0.010822952
-0.043147825 -0.018499658 0.015950784 0.0444687 -0.06817608 -0.08990506 -0.014880583 -0.10603648
-0.024412386 0.0018702373 -0.040308855 0.080095634 0.04294142 -0.09964811 -0.097255 -0.09679657
0.057381347 0.105204 0.093121946 -0.101586804 0.03722121 -0.051535886 -0.11035644 0.0031543896
0.007625565 -0.09020781 -0.11027712 -0.02886191 -0.03584609 0.025304496 -0.10272473 -0.037183955
-0.060551118 -0.002489321 -0.028831951 -0.083370745 -0.003068544 0.016926318 0.0598754 0.08659114
-0.06625436 -0.0037314147 0.013643727 0.05598171 -0.10707878 -0.11020048 0.062176347 -0.08305916
-0.08859626 0.03860922 -0.04598608 0.058422968 -0.10772003 -0.0030348375 0.045424715 -0.026120648
-0.0117054805 -0.1011667 -0.073788136 -0.01724758 0.10055758 0.08395629 -0.09740533 -0.103937596
0.0009207651 0.032293856 0.0001828894 0.062761396 -0.015517876 -0.0024962947 0.0010698885 -0.091496676
-0.06321466 -0.06259866 -0.004698172 -0.03419093 -0.10556685 -0.10268447 -0.057405576 -0.030302107
-0.057797275 -0.10668555 0.08476713 0.003989935 0.01022891 -0.014151953 -0.09812035 0.025889367
-0.046524845 -0.11111775 -0.075755164 0.06885935 -0.10602825 0.08835548 0.046658188 0.046855226
00000000: 7e81 833d a0ea 9f3d ced5 1dbd cece c43d
00000010: 1b73 77bd c0fa 8dbb 6c8b 48bd a2b7 8f3d
00000020: a193 70bd 7812 6bbc e0fe 383d a4b7 bcbd
00000030: b6ad c73d 8cd4 16bd aa95 47bd a773 babd
00000040: 14b5 9bbd 1050 c03c 9b92 b9bd 84f7 25bd
00000050: d825 9ebd f51e 4ebd d48b 793d d022 593d
00000060: bf5d a4bd a075 06bc 10bf 68bc 3272 9ebd
00000070: 3030 0b3d 20e4 f13c b237 dfbd fadf a63d
00000080: aca3 173d c60e 9d3d 6c53 bd3d 306b b23d
00000090: 180b eb3c 00fe 7a3c a457 1d3d 8429 b8bd
000000a0: 3210 8e3d e000 6a3c cc11 05bd d0c9 e63c
000000b0: b8d1 02bd a8e8 3a3d b6d6 ce3d 2479 163d
000000c0: b0a7 3fbc 98af 5abc 007f 9239 a0a8 893b
000000d0: fa5d d73d 9a5d 53bd 0cb6 373d f2ed 4fbd
000000e0: a482 d2bc 960f 96bd 8579 80bd d48a 763d
000000f0: 0409 8dbd 6bd6 cfbd 1079 693c 1cdc 5b3d
00000100: 5a91 c3bd 1c50 b93d 7c4b 66bd b160 79bd
00000110: f418 de3d 5aa3 ae3d 4062 793b a893 e1bd
00000120: 36cf d03d 0066 8bbd 8c62 ca3d e82b 443d
00000130: 4cc1 853d 71c3 a2bd e2d0 ab3d 185c dc3c
00000140: b487 043d 4085 e9ba f02d bbbd d022 d3bd
00000150: 42ae d1bd 7cc1 44bd 801b 7aba 22f7 c93d
00000160: 1405 06bd 9429 213d f0fb e6bb 5e1a 34bd
00000170: 3026 873d 74cb c03d 40b5 91ba c423 bdbd
00000180: f4a1 c83d 48b1 0a3d 7a08 983d 8c15 c43d
00000190: 3824 69bd f03c a13d cc1c 5e3d 9b37 74bd
000001a0: a0ea 943b 164e 833d 10de 2f3c d4ef 8d3d
000001b0: 54a7 8c3d ef34 9abd a349 bcbd c8bc 2a3d
000001c0: 308c d13d 3c43 df3d 5660 9d3d 2422 90bc
000001d0: 38bb 3c3c 6251 873d 006b a8b9 2082 923b
000001e0: 66db 2fbd d015 08bd 90ed 0abc ae3f b23d
000001f0: 7854 013d 1ce8 663d ac94 bbbc 24b9 193d
00000200: 462c 963d daab cf3d 458b 59bd 806e c8ba
00000210: 906d 1dbc 5cb6 fabc 8cbe 043d e8f7 2ebd
00000220: 4827 963c b7bb abbd fc0a 98bd d881 21bd
00000230: 32a1 90bd 2096 b7bb b868 d6bd a618 ca3d
00000240: e780 acbd d223 47bd 9467 d5bc c4dc 6c3d
00000250: 20ef 8cbd e88c b53d b87f 293d 0424 02bd
00000260: f0eb b6bb 2c66 28bd 584e 523d 780a 85bd
00000270: c264 c3bd b874 5b3d 12d4 e33d c052 313c
00000280: c6bb 30bd 988c 97bc 38ab 823c d024 363d
00000290: e79f 8bbd 2520 b8bd b0cd 73bc a729 d9bd
000002a0: 7cfc c7bc c022 f53a e61a 25bd 2e09 a43d
000002b0: 58e3 2f3d 4f14 ccbd a12d c7bd 483d c6bd
000002c0: b408 6b3d 3275 d73d b8b6 be3d be0c d0bd
000002d0: 4475 183d 4b17 53bd 8f02 e2bd e0b9 4e3b
000002e0: e0df f93b dfbe b8bd f8d8 e1bd d06f ecbc
000002f0: 5ad3 12bd 604b cf3c 5861 d2bd 344e 18bd
00000300: 7304 78bd e023 23bb fc30 ecbc 48be aabd
00000310: a019 49bb 10a9 8a3c e83f 753d b256 b13d
00000320: 5eb0 87bd c08a 74bb f089 5f3c 144d 653d
00000330: 1f4c dbbd cab0 e1bd a0ac 7e3d ec1a aabd
00000340: f571 b5bd b424 1e3d e65b 3cbd ec4c 6f3d
00000350: 529c dcbd 20e4 46bb 440f 3a3d f8fa d5bc
00000360: 58c8 3fbc 7d30 cfbd 3c1e 97bd cc4a 8dbc
00000370: 22f1 cd3d 46f1 ab3d 727c c7bd 3cdd d4bd
00000380: 805f 713a 9046 043d 00c6 3f39 0c89 803d
00000390: b03e 7ebc e098 23bb 803b 8c3a 9c62 bbbd
000003a0: b076 81bd ba33 80bd 20f3 99bb ca0b 0cbd
000003b0: 6f33 d8bd 3c4c d2bd 1c22 6bbd 203c f8bc
000003c0: d6bc 6cbd f47d dabd 649a ad3d 00be 823b
000003d0: 2897 273c 98dd 67bc 52f3 c8bd f015 d43c
000003e0: d690 3ebd b491 e3bd 8625 9bbd 2206 8d3d
000003f0: 5725 d9bd b8f3 b43d a81c 3f3d 44eb 3f3d

fc2.bias f4 [24]
-0.05634119 0.1117226 0.06667358 -0.104196504 0.056650087 -0.038222805 -0.10345949 0.03339097
0.009615235 0.06560022 0.02540715 -0.03962417 -0.09667109 -0.028627537 -0.08633846 0.05153936
-0.070685685 -0.008545727 -0.06159657 -0.07035926 -0.0997431 0.042213455 -0.006175317 0.0076686963
00000000: 05c6 66bd d2ce e43d 288c 883d fa64 d5bd
00000010: ec09 683d 848f 1cbd 92e2 d3bd f8c4 083d
00000020: 3889 1d3c 6859 863d a822 d03c f44c 22bd
00000030: 7efb c5bd 4c84 eabc 38d2 b0bd f01a 533d
00000040: a8c3 90bd 6003 0cbc af4c 7cbd 8418 90bd
00000050: 1c46 ccbd 04e8 2c3d 505a cabb b049 fb3b

fc3.weight f4 [80, 24]
-0.008931294 0.10644212 -0.11747518 0.06520423 0.070093215 0.02811791 0.03342688 0.042757362
-0.19509849 0.16681212 0.020815924 -0.019324377 0.01673463 -0.10719919 -0.0811149 -0.15139578
-0.027775198 -0.06584607 0.07147205 -0.13289602 0.025212184 -0.07912849 -0.010352954 -0.059377596
0.18240163 -0.009490162 0.07061562 -0.008448467 0.18136632 0.035350338 -0.030367717 0.10031164
0.1808511 0.08171913 0.0045859367 -0.07925412 0.1985257 -0.055005014 0.17428824 0.015028462
-0.037931055 0.119204134 -0.11203407 -0.096211456 0.04976529 0.0479725 -0.19432972 0.13746044
0.11939472 -0.057523146 0.09364146 0.19613722 0.004710138 0.17102665 -0.12756693 0.0711638
0.09938824 -0.07386482 -0.13107923 0.10862562 -0.035969242 -0.17258734 0.19428504 0.027456462
-0.020953938 -0.1275442 -0.14673197 0.06423223 0.031591028 -0.061626405 -0.19887313 -0.1023196
0.1925394 0.03784953 0.12349892 0.13747582 0.048301905 0.042170554 0.20403081 -0.111713104
-0.15004466 0.107990175 0.113459975 0.088606685 0.12814951 0.04592383 0.138937 0.1394316
0.059763312 -0.13691679 0.14343402 -0.15229306 0.1271309 0.1662843 -0.20302105 0.19774371
0.11312497 -0.18245707 -0.033460528 -0.029871583 -0.0065784156 0.181959 0.1583682 0.17449382
-0.1969974 0.090036005 -0.11117232 -0.06965059 -0.03900212 0.08859885 -0.049287185 -0.13806327
-0.024806097 0.119196326 0.108961135 0.17747816 0.1804257 0.03544222 0.08122462 -0.02632767
-0.050125733 0.08206105 -0.051596373 0.18771848 -0.07659143 -0.19919133 -0.11566438 0.020531818
0.075543374 0.19828445 0.06609401 -0.14183739 -0.16661038 0.13057321 0.026478767 0.05692479
-0.024547428 0.09283334 -0.057031944 -0.18203299 0.16723183 0.050438076 -0.12693848 -0.094013944
0.14242622 -0.20122024 -0.039975822 0.03576328 0.05309689 -0.021324664 0.041758254 -0.17964374
-0.19712675 0.028664157 -0.05310914 -0.168416 0.0318705 0.073345214 0.19900209 0.01680635
0.0035172403 -0.16065423 0.019034877 -0.09283005 -0.13375728 0.09163949 -0.08494762 0.010635272
0.07384458 0.01565145 -0.11928803 -0.12868792 0.13765112 -0.1437312 -0.11497392 0.0073233396
0.101881534 0.05528617 0.055035233 0.09983349 0.171559 0.1159547 -0.10528918 0.04202056
0.12228611 0.04745722 0.15293506 0.12228429 0.070347816 0.07593319 -0.19293477 0.13540837
0.17589968 0.15853798 0.16521126 -0.04558119 0.15994447 0.14024729 -0.11606629 0.18970168
-0.109183125 0.12401998 -0.15181941 0.090524346 0.15618691 -0.18761288 -0.14365101 -0.04303503
0.113945365 -0.05375327 -0.060760155 0.0922727 -0.08239562 -0.1434167 0.07092291 -0.0060230047
-0.062791586 -0.12787478 0.08615461 -0.114892446 0.09006345 0.036472306 -0.17843796 0.041269615
0.13837686 -0.18297839 -0.08651251 0.10716471 -0.1381107 -0.023046225 0.18295541 -0.107845105
0.049003094 0.19417068 0.0319217 -0.002036512 -0.11265973 -0.08040916 0.12308961 0.14167964
-0.15599427 -0.01981622 -0.15514892 -0.16358134 0.043289557 0.14204612 0.0938063 -0.10425333
-0.14237434 0.17721733 -0.01926072 -0.18174827 -0.036836505 -0.08368292 -0.08528851 0.009491697
00000000: 9054 12bc 54fe d93d d496 f0bd cc89 853d
00000010: 088d 8f3d 8857 e63c a0ea 083d 5822 2f3d
00000020: e6c7 47be ccd0 2a3e 2886 aa3c 284e 9ebc
00000030: 1017 893c 408b dbbd 921f a6bd 7f07 1bbe
00000040: d088 e3bc 4eda 86bd f05f 923d e515 08be
00000050: c889 ce3c 1e0e a2bd 709f 29bc ec35 73bd
00000060: 7ec7 3a3e a07c 1bbc ec9e 903d 706b 0abc
00000070: 18b8 393e 84cb 103d b8c5 f8bc 3070 cd3d
00000080: 0831 393e 5c5c a73d a045 963b fc4f a2bd
00000090: 524a 4b3e f04c 61bd 9e78 323e f039 763c
000000a0: 985d 1bbd 4c21 f43d 1e72 e5bd 830a c5bd
000000b0: b0d6 4b3d d07e 443d 5ffe 46be 6ec2 0c3e
000000c0: 3885 f43d 649d 6bbd 18c7 bf3d 32d8 483e
000000d0: 8057 9a3b 9c21 2f3e e8a0 02be 54be 913d
000000e0: 108c cb3d 7046 97bd a239 06be 1c77 de3d
000000f0: 7c54 13bd bcba 30be a8f2 463e 60ec e03c
00000100: 98a7 abbc f29a 02be e840 16be 308c 833d
00000110: 9865 013d f86b 7cbd 66a5 4bbe f08c d1bd
00000120: 0c29 453e 1c08 1b3d 00ed fc3d 76c6 0c3e
00000130: 38d8 453d 08bb 2c3d 74ed 503e d7c9 e4bd
00000140: 4fa5 19be f429 dd3d b45d e83d 6c77 b53d
00000150: a039 033e a01a 3c3d 8045 0e3e 28c7 0e3e
00000160: 60ca 743d ea33 0cbe 5ee0 123e b6f2 1bbe
00000170: 9a2e 023e 6e46 2a3e c0e4 4fbe 547d 4a3e
00000180: 10ae e73d 07d6 3abe e80d 09bd 40b5 f4bc
00000190: c08f d7bb 7653 3a3e 462b 223e 82ae 323e
000001a0: b0b9 49be cc64 b83d 50ae e3bd f8a4 8ebd
000001b0: b0c0 1fbd 5073 b53d 5ce1 49bd 7560 0dbe
000001c0: 2836 cbbc 341d f43d 0427 df3d d6bc 353e
000001d0: 84c1 383e dc2b 113d 1859 a63d 20ad d7bc
000001e0: a450 4dbd a00f a83d b856 53bd 4639 403e
000001f0: f8db 9cbd d0f8 4bbe 72e1 ecbd 5832 a83c
00000200: 7cb6 9a3d 140b 4b3e 4c5c 873d d23d 11be
00000210: e99b 2abe fcb4 053e 00ea d83c f829 693d
00000220: b017 c9bc 681f be3d 549a 69bd db66 3abe
00000230: d23e 2b3e 2898 4e3d 29fc 01be 628a c0bd
00000240: 2ed8 113e ae0c 4ebe b0bd 23bd 847c 123d
00000250: 207c 593d 10b1 aebc b40a 2b3d 87f4 37be
00000260: 98db 49be 18d1 ea3c f888 59bd 3e75 2cbe
00000270: a48a 023d 0436 963d 34c7 4b3e 78ad 893c
00000280: 8081 663b 8b82 24be 08ef 9b3c ae1d bebd
00000290: abf7 08be 7cad bb3d 05f9 adbd 903f 2e3c
000002a0: d43b 973d 7837 803c 484d f4bd c4c6 03be
000002b0: 6af4 0c3e 462e 13be 7277 ebbd a0f8 ef3b
000002c0: 44a7 d03d c073 623d a06c 613d 8075 cc3d
000002d0: 2aad 2f3e a879 ed3d dba1 d7bd c01d 2c3d
000002e0: 2471 fa3d 8062 423d 029b 1c3e 3070 fa3d
000002f0: 8412 903d dc82 9b3d b190 45be 7ea8 0a3e
00000300: 0c1f 343e c857 223e 242d 293e 58b3 3abd
00000310: 7cc8 233e fc9c 0f3e 2ab4 edbd 2841 423e
00000320: 679b dfbd 30fe fd3d 8c76 1bbe d464 b93d
00000330: 76ef 1f3e 971d 40be 4019 13be 8045 30bd
00000340: 305c e93d 642c 5cbd a4df 78bd 78f9 bc3d
00000350: 09bf a8bd d4db 12be 0840 913d a05c c5bb
00000360: e098 80bd 9bf1 02be d471 b03d bb4c ebbd
00000370: 3073 b83d fc63 153d 71b8 36be 540a 293d
00000380: aab2 0d3e b05e 3bbe 792d b1bd 2c79 db3d
00000390: e46c 0dbe 70cb bcbc aa58 3b3e e5dd dcbd
000003a0: 78b7 483d aed4 463e 54c0 023d 0077 05bb
000003b0: 25ba e6bd 8fad a4bd 6816 fc3d 7814 113e
000003c0: f6bc 1fbe a055 a2bc 5cdf 1ebe de81 27be
000003d0: 6450 313d 8a74 113e 841d c03d c582 d5bd
000003e0: 94ca 11be 7678 353e a8c8 9dbc 381c 3abe
000003f0: e0e1 16bd f361 abbd beab aebd 1083 1b3c

fc3.bias f4 [80]
-0.030422881 -0.13771641 0.19743323 0.107851386 0.104885966 0.10744071 0.03757277 -0.186382
-0.18046664 -0.021985948 0.0588744 0.080563456 0.17588767 0.11092153 0.004527271 -0.040332228
-0.19983214 0.04765767 0.10937095 0.07572374 -0.13480327 -0.028192177 0.18898466 0.04358484
-0.080888286 -0.042511344 -0.19879952 0.16891849 0.1421569 0.084373 -0.19294196 0.11567992
-0.14354897 0.0039013922 0.20364204 0.17993534 -0.15736479 -0.09043877 0.100521326 0.01799284
-0.07755564 -0.013649091 0.11858356 0.14268002 -0.19127375 -0.2016589 0.0853124 0.00629659
0.05457136 -0.18801871 0.07466048 0.1686823 -0.15267333 -0.09149978 0.19294786 -0.20336442
-0.00994198 0.20246282 0.04165919 -0.12670603 0.03168802 -0.1597771 -0.05121009 -0.17494237
0.008359194 0.09205738 -0.010124847 0.0777961 -0.16323249 -0.02276674 -0.19877584 -0.044443175
0.17116866 -0.14098576 -0.11876868 0.08466378 0.05708483 0.012690619 -0.13083062 -0.15784109
00000000: 6839 f9bc 8805 0dbe f02b 4a3e 30e1 dc3d
00000010: 74ce d63d e009 dc3d e8e5 193d ecda 3ebe
00000020: 3fcc 38be e01b b4bc 4826 713d 74fe a43d
00000030: e61b 343e d42a e33d 8059 943b 6833 25bd
00000040: cca0 4cbe b034 433d e0fd df3d 0c15 9b3d
00000050: de09 0abe 48f3 e6bc 3285 413e 0486 323d
00000060: c2a8 a5bd 6020 2ebd 1a92 4bbe f8f8 2c3e
00000070: 9491 113e c0cb ac3d 9492 45be 98e9 ec3d
00000080: 80fe 12be 80ae 7f3b 8a87 503e f840 383e
00000090: 3c24 21be f637 b9bd 20de cd3d b865 933c
000000a0: 7ed5 9ebd 70a0 5fbc f0db f23d b61a 123e
000000b0: 44dd 43be ac7f 4ebe 44b8 ae3d a053 ce3b
000000c0: 3886 5f3d fa87 40be 98e7 983d 0ebb 2c3e
000000d0: 6656 1cbe 3d64 bbbd 2094 453e c33e 50be
000000e0: b0e3 22bc 6a52 4f3e d4a2 2a3d 3abf 01be
000000f0: 4ccb 013d 9c9c 23be acc1 51bd 1824 33be
00000100: 00f5 083c 9488 bc3d b0e2 25bc 9053 9f3d
00000110: 6b26 27be 5081 babc e58b 4bbe 0c0a 36bd
00000120: d646 2f3e 925e 10be fe3c f3bd 3464 ad3d
00000130: c8d1 693d 50ec 4f3c 76f8 05be 18a1 21be

fc4.weight f4 [320, 80]
-0.060388196 0.07174073 0.0034005344 0.013263255 -0.01974801 -0.05479774 0.08197121 0.030047566
0.03777966 -0.10647589 0.01648666 0.031570897 0.0708555 0.08116707 0.0069755316 -0.061902884
0.060887635 0.0369633 -0.025919758 -0.09737078 0.012065299 -0.045200802 0.06942421 0.060033813
0.05421722 -0.07969327 0.0036875904 -0.012313969 -0.0780301 0.0077340677 -0.07432914 -0.07251791
0.092229486 -0.017176412 -0.029805318 -0.05515417 0.09765197 0.04467325 -0.07722469 0.025133714
0.029178873 0.057813585 -0.07251483 -0.024359167 -0.08785175 0.01777187 -0.09813913 0.109685704
0.098115996 -0.012332484 -0.0019921735 0.10846971 0.019173339 0.059379578 -0.013933189 0.10507257
0.026930168 -0.11129086 -0.047776468 -0.043373667 -0.030728526 -0.06339496 -0.04190804 -0.02218473
-0.062809825 0.04305175 0.07420261 -0.07932728 0.073370755 0.08509269 -0.009045385 -0.04857026
0.10811186 0.005823761 -0.017693363 0.03942029 0.071032435 -0.03622791 -0.09029384 -0.08026153
0.03529468 -0.018884957 0.013189219 0.03311707 -0.045491606 -0.1055652 0.074420705 -0.079584986
-0.09076008 -0.018439345 -0.096593104 -0.070734516 0.06566976 -0.00067511946 -0.020131499 -0.0678439
0.09453742 -0.027987152 -0.10301907 -0.028493434 -0.085910395 -0.05181016 0.08724542 0.063342184
0.06771821 -0.06338056 -0.09141583 -0.017816745 -0.014953956 0.024394035 0.04405448 -0.020331591
-0.00868357 0.031115025 0.045808196 -0.09046801 0.105196 -0.06289641 0.108858034 -0.102251045
0.08663817 -0.07914574 -0.022331178 -0.049551357 0.10814476 -0.035303645 0.100106716 -0.013176441
-0.054697793 0.06356035 0.06379691 0.07393789 -0.10117111 0.0749443 0.10976161 -0.026218958
0.043892026 0.046942145 -0.043112762 0.008692458 -0.09046092 -0.06926279 0.080730364 0.04693435
0.101951525 -0.0020738766 0.061365962 0.05767709 -0.016193442 0.029464185 0.008995533 0.03895472
-0.015171349 0.04825519 0.05407603 0.04378344 -0.08603274 0.08984165 0.10777308 -0.08944644
0.079168946 -0.108302 0.0024606586 -0.047573924 0.033005 0.0856756 0.014817238 -0.022522964
-0.035630926 -0.028122157 -0.013110474 0.08462834 -0.07298852 0.022183135 0.04812053 -0.042364843
-0.009319156 -0.09321655 -0.048105963 0.09735136 0.0005072877 0.06347866 0.034513578 -0.09813389
0.030274108 0.0920296 -0.028314143 -0.09307073 0.022743255 -0.066517755 0.090220064 0.013491005
-0.030576415 -0.069027066 -0.0025922954 -0.091047004 0.03344895 0.07931718 -0.03814523 0.09938301
-0.0023293346 0.10313375 -0.08107631 0.023028895 0.05685571 0.006072849 -0.063700475 -0.023875251
0.07791811 -0.10360082 0.10904476 0.052337304 -0.051425982 -0.0009730011 0.0058983862 -0.0731351
-0.017917156 0.022041544 -0.03674248 -0.091283284 0.007857688 0.008246541 0.019496545 0.047721043
0.09760913 -0.06885703 -0.003410235 0.1109139 -0.0549641 -0.111653246 0.04067047 -0.014915504
-0.06520192 0.024174437 0.0329863 -0.10481078 0.075987905 -0.041058965 -0.09998992 -0.096517354
-0.08534275 0.077899516 -0.00373929 0.005006559 -0.0529293 0.018100515 -0.02024296 -0.060154293
0.049548477 -0.055179186 -0.03929823 -0.015037544 -0.10518588 0.031597078 0.05227305 0.097103015
00000000: 9d59 77bd ceec 923d 80db 5e3b 204e 593c
00000010: 94c6 a1bc 9873 60bd 86e0 a73d 5026 f63c
00000020: d8be 1a3d 0810 dabd 080f 873c 7c50 013d
00000030: b01c 913d ec3a a63d 0093 e43b e18d 7dbd
00000040: 5065 793d d466 173d ac55 d4bc 556a c7bd
00000050: 88ad 453c 7a24 39bd 482e 8e3d 04e6 753d
00000060: e012 5e3d 3a36 a3bd 80ab 713b 88c0 49bc
00000070: 3fce 9fbd 106e fd3b e039 98bd 4584 94bd
00000080: d0e2 bc3d 8cb5 8cbc 482a f4bc 57e9 61bd
00000090: c2fd c73d 4cfb 363d fa27 9ebd 38e5 cd3c
000000a0: 8808 ef3c f0cd 6c3d a882 94bd e08c c7bc
000000b0: 9eeb b3bd 5096 913c 2bfd c8bd e6a2 e03d
000000c0: 0af1 c83d 300e 4abc 208f 02bb 5e25 de3d
000000d0: 6811 9d3c 0038 733d 0848 64bc 4a30 d73d
000000e0: a89c dc3c 76ec e3bd 42b1 43bd 96a8 31bd
000000f0: 64ba fbbc 37d5 81bd c4a7 2bbd c0bc b5bc
00000100: 70a2 80bd 0857 303d 8af7 973d 5776 a2bd
00000110: 6843 963d 1445 ae3d 1833 14bc 9cf1 46bd
00000120: c069 dd3d 40d5 be3b acf1 90bc 2c77 213d
00000130: 7479 913d b863 14bd faeb b8bd 2860 a4bd
00000140: 2891 103d a0b4 9abc 9817 583c c4a5 073d
00000150: 6855 3abd 9132 d8bd e269 983d 74fd a2bd
00000160: 6ce0 b9bd 1c0e 97bc 9bd2 c5bd 42dd 90bd
00000170: de7d 863d 80fa 30ba d0ea a4bc bef1 8abd
00000180: d69c c13d 5045 e5bc aafb d2bd 106b e9bc
00000190: caf1 afbd e436 54bd baad b23d 8cb9 813d
000001a0: d8af 8a3d abcd 81bd 3938 bbbd 6cf4 91bc
000001b0: 7001 75bc 00d6 c73c 7872 343d 708e a6bc
000001c0: 8845 0ebc f0e4 fe3c 60a1 3b3d 4b47 b9bd
000001d0: 0071 d73d d5cf 80bd f6f0 de3d ff68 d1bd
000001e0: 5a6f b13d 2917 a2bd e0ef b6bc 5df6 4abd
000001f0: 007b dd3d 8e9a 10bd c004 cd3d 00e2 57bc
00000200: cb0a 60bd ee2b 823d f4a7 823d c06c 973d
00000210: cd32 cfbd 667c 993d b2ca e03d 24c9 d6bc
00000220: 20c8 333d 6846 403d 0297 30bd d06a 0e3c
00000230: 9343 b9bd a6d9 8dbd f655 a53d 3c3e 403d
00000240: f6cb d03d e0e9 07bb e05a 7b3d d03e 6c3d
00000250: 1ca8 84bc e05e f13c 0062 133c fc8e 1f3d
00000260: 4091 78bc 3ca7 453d d47e 5d3d 4456 333d
00000270: ef31 b0bd e6fe b73d 22b8 dc3d b22f b7bd
00000280: 5423 a23d 70cd ddbd 0043 213b e0dc 42bd
00000290: 4030 073d b076 af3d 00c4 723c 1482 b8bc
000002a0: bcf1 11bd 7060 e6bc 50cd 56bc a051 ad3d
000002b0: 017b 95bd 68b9 b53c 081a 453d c286 2dbd
000002c0: 60af 18bc 52e8 bebd c20a 45bd 2660 c73d
000002d0: 80fb 043a 1a01 823d 1c5e 0d3d 6cfa c8bd
000002e0: 6801 f83c 047a bc3d 10f3 e7bc de9b bebd
000002f0: 1050 ba3c 763a 88bd 4cc5 b83d 6009 5d3c
00000300: 647b fabc 105e 8dbd 80e3 29bb da76 babd
00000310: c401 093d 0c71 a23d 2c3e 1cbd 5289 cb3d
00000320: c0a7 18bb ca37 d33d 560b a6bd 18a7 bc3c
00000330: 88e1 683d c0fe c63b 6575 82bd 0896 c3bc
00000340: 8893 9f3d ab2c d4bd dc52 df3d a45f 563d
00000350: 0da4 52bd 0011 7fba 4047 c13b dbc7 95bd
00000360: 00c7 92bc 7890 b43c 487f 16bd bbf2 babd
00000370: 88bd 003c 801c 073c 38b7 9f3c 2477 433d
00000380: 4ce7 c73d ea04 8dbd 407e 5fbb d426 e33d
00000390: 0922 61bd 75aa e4bd 1496 263d 2860 74bc
000003a0: 9688 85bd 7809 c63c a41c 073d 09a7 d6bd
000003b0: 8c9f 9b3d 722d 28bd 84c7 ccbd e4aa c5bd
000003c0: 2ec8 aebd c889 9f3d e00e 75bb 100e a43b
000003d0: 65cc 58bd 8847 943c 90d4 a5bc 5964 76bd
000003e0: 58f3 4a3d 9203 62bd 2ef7 20bd 0860 76bc
000003f0: b26b d7bd f06b 013d 441c 563d f2dd c63d

fc4.bias f4 [320]
0.105042934 0.0074738488 -0.023426995 -0.04700122 -0.012756698 0.11085385 0.047238946 0.09674819
0.014753565 -0.06279529 -0.05726758 -0.0052309185 -0.08077817 0.012589686 0.026687682 -0.11165419
0.095988914 -0.004664831 -0.0865085 -0.071245775 -0.0030788258 0.081529096 -0.051314093 0.059941366
0.023202404 -0.107771866 0.110439986 0.0758467 -0.018536627 0.098126456 -0.062143017 -0.03393744
0.10989195 0.063175455 -0.04187592 0.04247473 0.051428214 0.034397483 0.10934949 0.06356196
0.041161895 -0.08430794 -0.08500594 0.030257583 0.003254883 0.00038399547 -0.08669388 -0.0845854
0.021317065 0.06348173 -0.05866702 0.07155898 0.09176463 -0.09566742 0.06049162 -0.09286224
0.03640461 -0.097091444 -0.020051941 0.06215383 0.045020804 0.09776014 -0.01595369 -0.059433687
0.042028546 -0.0008434504 -0.008697785 0.07974683 -0.027960353 -0.026783876 0.028417125 -0.06255776
0.06341483 0.0669471 -0.063384786 -0.051827155 0.025872767 0.10661642 -0.049016878 -0.09048374
0.012467511 -0.012167238 -0.07346926 -0.08484205 0.071215495 0.07367356 -0.0076468363 -0.087602474
-0.08766012 -0.03922642 0.050445154 -0.021424606 -0.10215258 0.09039728 0.051521853 -0.057860754
0.008800626 -0.06427151 0.09601167 0.04625623 0.09076965 -0.04696218 0.043367878 -0.08818756
-0.049298033 0.015628412 0.013261437 0.08382997 -0.070855 -0.06375777 0.021457627 0.07208854
-0.037880518 -0.08629361 0.10455939 -0.0026474744 -0.023030907 0.06743288 0.029969513 0.0946029
-0.06511961 -0.031900033 0.0858399 -0.009292446 -0.10482861 0.079279765 -0.0037182197 0.051649243
-0.020566508 -0.054055132 -0.066335365 0.058340743 0.028867975 -0.08126673 0.03536001 0.11116925
0.059525505 0.014691472 0.013091855 0.045200065 0.09055039 0.054864258 -0.034717023 0.080358714
0.015920803 0.0060012266 -0.055284467 0.08756083 -0.062390503 -0.10025501 0.06455387 0.09397967
0.003346555 0.043397367 0.017351821 -0.0062898695 0.023251101 -0.094995 0.018386468 0.075880066
-0.061157517 0.108684555 -0.06631048 0.03767115 0.030683994 0.069554925 -0.02866219 0.029683888
0.06837982 0.0936538 0.057055637 -0.09016913 -0.024347492 -0.060922038 -0.009747185 -0.07109208
-0.05623991 -0.010328725 -0.0022819936 0.09770793 -0.07976097 0.025270447 0.023862556 0.014626384
-0.016936123 -0.06419958 -0.081172645 0.10289317 -0.04477358 0.013584986 0.055515066 -0.005059339
0.10916582 0.045378685 0.052207932 -0.038689397 0.06280425 -0.074417725 -0.06463727 -0.067145415
0.057157293 0.10316396 -0.003080517 0.033788085 0.035368532 0.0592089 0.076743245 -0.03989563
0.0633391 0.0128668845 -0.01790689 0.06631358 -0.004073918 -0.10101165 -0.02172149 -0.0032341033
0.057659864 0.075617 0.011493601 -0.05389266 0.106487274 0.09566991 0.0940707 -0.061044883
-0.017439961 0.06767498 0.08964795 -0.023231566 -0.05339313 -0.031938173 0.11173685 0.09436275
-0.10933309 -0.00468418 0.090279385 -0.098322414 -0.0058974177 -0.0903574 -0.0005598664 -0.11176589
-0.04141581 -0.105679035 0.008662254 0.08740853 -0.09741779 -0.060609803 0.01306691 -0.061819747
-0.0327802 0.018459171 -0.034298696 -0.11127182 0.110399544 0.011875175 -0.033811785 0.003005959
00000000: c020 d73d 30e7 f43b f8e9 bfbc 5a84 40bd
00000010: 7801 51bc 5807 e33d a07d 413d ea23 c63d
00000020: f0b8 713c d19a 80bd 6991 6abd 2068 abbb
00000030: 066f a5bd f844 4e3c 20a0 da3c f4aa e4bd
00000040: d695 c43d 70db 98bb 5e2b b1bd 4ee9 91bd
00000050: 20c6 49bb baf8 a63d ba2e 52bd 1485 753d
00000060: f812 be3c 7fb7 dcbd 5c2e e23d 8455 9b3d
00000070: 20da 97bc 86f6 c83d ad89 7ebd fc01 0bbd
00000080: 080f e13d 2262 813d 1686 2bbd fcf9 2d3d
00000090: 64a6 523d 60e4 0c3d a0f2 df3d c62c 823d
000000a0: 6099 283d a4a9 acbd 9817 aebd c0de f73c
000000b0: e04f 553b 0053 c939 908c b1bd 1c3b adbd
000000c0: 20a1 ae3c b602 823d d44c 70bd 848d 923d
000000d0: 18ef bb3d 48ed c3bd 10c6 773d 8f2e bebd
000000e0: 001d 153d e1d7 c6bd f843 a4bc 0495 7e3d
000000f0: bc67 383d 7836 c83d 50b1 82bc bd70 73bd
00000100: 2026 2c3d 001b 5dba 2881 0ebc 4e52 a33d
00000110: 1c0d e5bc dc69 dbbc 08cb e83c 481e 80bd
00000120: a2df 813d 901b 893d e2cf 81bd b648 54bd
00000130: 20f3 d33c b659 da3d ecc5 48bd 8a4f b9bd
00000140: 8844 4c3c 1859 47bc 0d77 96bd abc1 adbd
00000150: 6ed9 913d 2ae2 963d 5092 fabb ed68 b3bd
00000160: 2687 b3bd e2ab 20bd 949f 4e3d a882 afbc
00000170: 5f35 d1bd 3622 b93d 9408 533d 66ff 6cbd
00000180: 8030 103c c8a0 83bd c4a1 c43d 2c77 3d3d
00000190: 70e5 b93d 6a5b 40bd 84a2 313d ae9b b4bd
000001a0: bcec 49bd 2807 803c 8046 593c 0caf ab3d
000001b0: 6d1c 91bd 6f93 82bd e8c7 af3c 28a3 933d
000001c0: 9a28 1bbd b4ba b0bd 3c23 d63d 4081 2dbb
000001d0: 50ab bcbc 401a 8a3d a082 f53c 2abf c13d
000001e0: 6e5d 85bd 9ca9 02bd d4cc af3d 583f 18bc
000001f0: 62b0 d6bd 6e5d a23d 60ad 73bb 288e 533d
00000200: 187b a8bc ea68 5dbd d6da 87bd b4f6 6e3d
00000210: 887c ec3c 2c6f a6bd a8d5 103d b4ac e33d
00000220: 04d1 733d 80b4 703c 387f 563c b423 393d
00000230: 7c72 b93d 58b9 603d 7033 0ebd 1c93 a43d
00000240: 586c 823c f0a5 c43b f771 62bd 1853 b33d
00000250: 2f8d 7fbd 8052 cdbd d234 843d 6a78 c03d
00000260: e051 5b3b 70c1 313d 6825 8e3c 401b cebb
00000270: 1879 be3c bd8c c2bd 389f 963c 0267 9b3d
00000280: 4e80 7abd 0296 de3d cacd 87bd 104d 1a3d
00000290: 005d fb3c d072 8e3d f8cc eabc a02b f33c
000002a0: b80a 8c3d 90cd bf3d 2cb3 693d 98aa b8bd
000002b0: 6474 c7bc 6389 79bd a8b2 1fbc b998 91bd
000002c0: d25b 66bd d039 29bc 808d 15bb 181b c83d
000002d0: b859 a3bd f803 cf3c 687b c33c 80a3 6f3c
000002e0: a0bd 8abc 127b 83bd d83d a6bd a8b9 d23d
000002f0: 8064 37bd 9093 5e3c c463 633d d0c8 a5bb
00000300: 5492 df3d 00df 393d fcd7 553d c678 1ebd
00000310: 849f 803d 5268 98bd 8c60 84bd 8983 89bd
00000320: c41d 6a3d a047 d33d 80e2 49bb 6065 0a3d
00000330: 98de 103d 0885 723d 902b 9d3d 9a69 23bd
00000340: eeb7 813d a0cf 523c 78b1 92bc 6acf 873d
00000350: 807e 85bb 32df cebd 44f1 b1bc 40f3 53bb
00000360: c02c 6c3d 16dd 9a3d a84f 3c3c 8dbe 5cbd
00000370: 0016 da3d 96ee c33d 24a8 c03d 330a 7abd
00000380: 40de 8ebc 2e99 8a3d 5899 b73d 2050 bebc
00000390: c1b2 5abd 9ad1 02bd 4ad6 e43d 4241 c13d
000003a0: 07ea dfbd c07d 99bb 66e4 b83d 435d c9bd
000003b0: 203f c1bb 4d0d b9bd 00c4 12ba 84e5 e4bd
000003c0: a0a3 29bd 406e d8bd 20ec 0d3c 3e03 b33d
000003d0: fa82 c7bd fc41 78bd 9816 563c b436 7dbd
000003e0: 8844 06bd b037 973c ca7c 0cbd 7be2 e3bd
000003f0: 2819 e23d 1890 423c 3a7e 0abd a0ff 443b

conv3.weight f4 [4, 5, 3, 3]
0.0136922 0.12810151 0.019905955 0.04808995 0.11286937 0.030170456 0.10012199 0.14868085
0.08797228 -0.0069725513 0.1240543 -0.022734895 0.029318333 0.03255433 -0.028527632 0.03707154
0.037978783 0.13136037 0.021455944 -0.03262148 0.008047 0.020201117 0.053063363 -0.067586005
0.14759873 0.035131514 -0.1340494 0.08619544 0.016148925 0.1256025 0.079054296 -0.0102035105
-0.0454124 -0.045547582 -0.07211017 -0.009782672 -0.034286857 -0.13194548 -0.056748793 0.09346354
-0.12996462 -0.03194262 -0.1273536 0.12970118 0.14749558 0.05298744 0.083502576 -0.048868783
0.1323487 0.031142563 0.043703318 -0.10186379 0.05494222 -0.14574994 -0.1321849 -0.0060082227
-0.068387836 0.10597958 -0.05011107 -0.016638473 -0.08088393 -0.14356846 0.027101874 -0.0141429305
0.1381176 0.123100266 0.057516918 -0.107676715 -0.1028765 0.011200592 -0.031658113 0.12588291
-0.11851533 -0.10596323 -0.14204133 0.11659686 -0.14104207 -0.05000452 -0.13038516 0.02041559
-0.029206611 0.01943463 0.04226145 0.07814731 0.09409653 0.08305794 0.051573128 -0.08960387
0.056586623 -0.105997816 0.03263177 0.06761107 0.019246787 -0.075245626 -0.13234474 -0.117177926
0.12851642 -0.048444733 -0.11950802 0.024050146 0.09101516 -0.07423471 -0.14566714 0.05387582
0.08993049 -0.016955033 0.02786763 -0.062565066 -0.07086288 -0.07218598 -0.07272379 -0.14603089
0.04317595 -0.0851907 -0.13493219 0.04466723 -0.1109447 0.113745764 -0.051185347 0.12400605
0.104641095 -0.08694262 0.044743747 0.11511932 0.14125507 -0.04251557 -0.04768884 0.08575696
0.10590236 0.054461986 -0.06917117 -0.09434283 0.06788668 0.14001708 0.02720119 0.0053696334
0.052289695 0.044644773 0.0076369345 0.024234116 -0.0077280253 -0.081869684 -0.039175875 -0.05140426
0.14432083 -0.14663295 -0.14666493 -0.07055701 0.013329983 -0.123168565 -0.082164906 -0.09294111
0.03302686 0.06868112 -0.01144065 -0.020856217 0.14866187 -0.069201715 0.030079871 -0.03214553
-0.036767326 0.097065315 -0.11297106 0.06560555 0.07402468 0.078801766 0.009209663 -0.09321219
-0.026464976 -0.078719065 0.071124524 0.14808707 0.059186503 0.10006651 -0.030110538 -0.03754785
-0.07997129 -0.031305812 0.0780009 -0.10099343
00000000: 4055 603c 0b2d 033e d011 a33c f8f9 443d
00000010: 0e28 e73d 0828 f73c c20c cd3d cb3f 183e
00000020: d02a b43d 007a e4bb 2e10 fe3d 883e babc
00000030: 002d f03c b057 053d c8b2 e9bc 54d8 173d
00000040: a48f 1b3d 5583 063e 60c4 af3c 1a9e 05bd
00000050: 90d7 033c d07c a53c f858 593d 886a 8abd
00000060: 1f24 173e 10e6 0f3d 3f44 09be 3c87 b03d
00000070: c04a 843c f19d 003e 38e7 a13d a02c 27bc
00000080: 5a02 3abd 1a90 3abd 7fae 93bd 8047 20bc
00000090: 6070 0cbd b71c 07be 6c71 68bd d069 bf3d
000000a0: 7215 05be 44d6 02bd fb68 02be 63d0 043e
000000b0: 1509 173e 5c09 593d 6603 ab3d a22a 48bd
000000c0: 6b86 073e b01e ff3c 4002 333d f69d d0bd
000000d0: 180b 613d 793f 15be 7a5b 07be a0e0 c4bb
000000e0: ec0e 8cbd d20b d93d 4441 4dbd 684d 88bc
000000f0: 79a6 a5bd 9c03 13be c004 de3c c0b7 67bc
00000100: b36e 0d3e fe1b fc3d dc96 6b3d 9c85 dcbd
00000110: eab0 d2bd b082 373c f0ab 01bd 73e7 003e
00000120: 2ab8 f2bd 4003 d9bd 4873 11be 56ca ee3d
00000130: 556d 10be 8ad1 4cbd b083 05be 983e a73c
00000140: b442 efbc 6035 9f3c 581a 2d3d b20b a03d
00000150: aeb5 c03d 481a aa3d 583e 533d 3c82 b7bd
00000160: 60c7 673d 6215 d9bd e4a8 053d ac77 8a3d
00000170: 70ab 9d3c 611a 9abd 6185 07be fbfa efbd
00000180: cf99 033e fc6d 46bd 9fc0 f4bd d004 c53c
00000190: 2866 ba3d 5e08 98bd c429 15be e4ac 5c3d
000001a0: 7a2d b83d 48e5 8abc a84a e43c 1d22 80bd
000001b0: 8f20 91bd 3ed6 93bd 36f0 94bd 1f89 15be
000001c0: 44d9 303d 7678 aebd aa2b 0abe fcf4 363d
000001d0: fa36 e3bd 8af3 e83d baa7 51bd e2f6 fd3d
000001e0: 124e d63d f90e b2bd 3845 373d aec3 eb3d
000001f0: 2ba5 103e ce24 2ebd 6055 43bd 58a1 af3d
00000200: 56e3 d83d 8813 5f3d 9da9 8dbd d036 c1bd
00000210: 2c08 8b3d a360 0f3e 08d5 de3c c0f3 af3b
00000220: b82d 563d 70dd 363d 403f fa3b a086 c63c
00000230: 603b fdbb 4bab a7bd e276 20bd 468d 52bd
00000240: d7c8 133e f326 16be 552f 16be 3280 90bd
00000250: 0066 5a3c cd3f fcbd 1346 a8bd e957 bebd
00000260: 2c47 073d b0a8 8c3d 9071 3bbc a8da aabc
00000270: d13a 183e a1b9 8dbd 106a f63c 08ab 03bd
00000280: 5699 16bd 2eca c63d 5f5d e7bd 345c 863d
00000290: 409a 973d d262 a13d 20e4 163c 08e6 bebd
000002a0: 14cd d8bc 7637 a1bd bca9 913d 23a4 173e
000002b0: 8c6d 723d acef cc3d 60aa f6bc c6cb 19bd
000002c0: fdc7 a3bd 863a 00bd f0be 9f3d a5d5 cebd

conv3.bias f4 [4]
0.03030765 0.024397165 -0.13683775 -0.13057092
00000000: c047 f83c 90dc c73c 321f 0cbe 62b4 05be
