Pytorch/AutoEncoder/saved_models/Littman_cifar10.pt (torch, 229871 bytes, 16 tensors)

conv1.weight f4 [4, 3, 3, 3]
0.007326204 0.17264193 -0.093757614 -0.06129419 0.16003814 -0.084281445 0.24624054 -0.04700522
0.19022234 0.040610313 0.014028964 0.12163593 -0.048903227 -0.06859672 0.17286877 0.14663513
-0.031326357 0.09667242 0.04731692 -0.013557939 0.08862645 0.15190181 -0.011431523 0.09233629
-0.069160774 0.064084366 0.16641125 0.12924038 0.0024182303 0.15839098 0.19653484 -0.049556743
0.11588172 0.078477345 0.13557397 0.050551116 0.075647466 0.19573955 -0.07864514 0.046716653
0.12823378 0.1492613 0.004273394 -0.02608505 0.058791872 0.159105 0.04148192 -0.048391175
-0.1270307 0.04192872 -0.03998809 -0.11812996 0.17796677 0.0564833 -0.06225452 -0.11917921
-0.10042464 0.21015143 0.061768636 -0.06786647 0.19227323 0.041883424 -0.06421667 0.16243026
-0.007179864 0.0599653 0.11628786 -0.046857703 0.014844505 0.11117331 0.029368652 0.087677196
-0.10098186 0.19675401 0.04116377 0.12480821 0.19270426 0.09738102 0.04215087 0.15635763
0.08946753 -0.082746856 -0.15459108 0.025076076 -0.08418355 -0.058270127 0.026901962 0.19545884
0.16722511 -0.07716956 -0.1605482 -0.06335834 0.14108357 -0.07913259 0.08282062 -0.11313621
-0.004085636 0.0940868 0.062401462 -0.0635997 0.058326185 0.052557778 0.09142177 -0.05745444
-0.015677027 -0.065455504 -0.034630965 -0.029622108
00000000: a710 f03b 0cc9 303e fe03 c0bd 9e0f 7bbd
00000010: 0ae1 233e c09b acbd 7b26 7c3e 8c88 40bd
00000020: a5c9 423e 0057 263d bdd9 653c 421c f93d
00000030: c04e 48bd 707c 8cbd 8304 313e 8527 163e
00000040: 1150 00bd 31fc c53d 63cf 413d 1e22 5ebc
00000050: c981 b53d 268c 1b3e 484b 3bbc cf1a bd3d
00000060: 2aa4 8dbd aa3e 833d b667 2a3e 9757 043e
00000070: 2c7b 1e3b 3f31 223e 6e40 493e 03fc 4abd
00000080: 6553 ed3d bbb8 a03d e7d3 0a3e b00e 4f3d
00000090: 0fed 9a3d f36f 483e b410 a1bd f659 3f3d
000000a0: b74f 033e f4d7 183e d407 8c3b 51b0 d5bc
000000b0: bfcf 703d 6cec 223e f2e8 293d d335 46bd
000000c0: 5614 02be 73bd 2b3d 8dca 23bd 1fee f1bd
000000d0: ec3c 363e 085b 673d 98fe 7ebd 3b14 f4bd
000000e0: 6fab cdbd f031 573e 1c01 7d3d 93fd 8abd
000000f0: 46e3 443e f48d 2b3d 0884 83bd 1e54 263e
00000100: 1145 ebbb 2d9e 753d 5428 ee3d dded 3fbd
00000110: 5e36 733c d5ae e33d 8796 f03c 1a90 b33d
00000120: 94cf cebd e279 493e 579b 283d 729b ff3d
00000130: 4454 453e b36f c73d 64a6 2c3d 371c 203e
00000140: c13a b73d 2f77 a9bd 204d 1ebe 586c cd3c
00000150: 6d68 acbd a8ac 6ebd 8161 dc3c 5d26 483e
00000160: 0f3d 2b3e 130b 9ebd bf66 24be 04c2 81bd
00000170: 3678 103e 4410 a2bd db9d a93d f5b3 e7bd
00000180: cde0 85bb 95b0 c03d ad98 7f3d 8f40 82bd
00000190: 70e7 6e3d d346 573d 563b bb3d 5955 6bbd
000001a0: 1c6d 80bc 890d 86bd 33d9 0dbd 10aa f2bc

conv1.bias f4 [4]
0.10412259 -0.035367433 0.067980856 0.103913516
00000000: 393e d53d 71dd 10bd 8c39 8b3d 9cd0 d43d

conv2.weight f4 [5, 4, 3, 3]
0.13939972 -0.0031602865 -0.0012819063 -0.088598005 -0.037578084 0.108226724 0.19674295 0.182988
-0.064513825 0.10093567 -0.03473491 0.07341443 -0.035553016 0.06699221 -0.0038425704 0.15979138
-0.049759995 0.09371345 -0.060189858 -0.1089994 0.05607775 0.06286156 -0.02864306 0.10073209
0.028618157 0.10060258 -0.078839555 -0.14893742 -0.12333954 0.02029354 -0.008122248 -0.07657569
-0.2060189 0.1997634 -0.096880026 -0.03092411 -0.122581095 0.12041538 0.032404564 0.0011323539
-0.034106463 0.0046509216 -0.1682829 0.13820353 0.017099736 0.08371236 0.022826463 0.13740285
0.06616188 0.0050845956 0.23155372 -0.062380776 -0.07847763 -0.035544313 0.07326417 0.0062887864
0.015377484 0.2054501 0.08198406 0.17985888 -0.124523215 0.12910478 -0.20608781 0.004949959
-0.1334265 0.06525717 -0.11742889 0.013403578 0.016288066 -0.13280104 -0.10164094 -0.24573156
0.0054945243 0.13727424 0.19233178 -0.015929874 -0.071407914 -0.020329703 0.03180746 -0.034502514
0.1716576 0.033371847 0.13033083 0.17253192 -0.07470487 -0.045301143 -0.07050204 -0.09251493
-0.008765302 0.17979333 0.059480157 0.094525024 -0.15680236 0.1045043 0.07782169 0.042753283
0.13015373 0.016174747 0.11208874 -0.051538605 -0.13905706 0.10614011 0.116892464 0.050712153
0.0502743 -0.08821062 -0.020651074 0.10174982 -0.07050509 0.043322466 0.14607461 -0.14165647
-0.035000395 0.13184051 0.2120366 -0.035876233 0.16444027 -0.088407464 -0.017420627 0.14952147
-0.08656725 -0.04497411 -0.009747662 -0.06691278 -0.0027973643 -0.08070754 -0.09678707 -0.10290436
-0.085273 -0.09938024 -0.07375374 -0.058913026 0.1881345 0.009806479 0.16272472 0.35536444
0.027223589 0.0925319 0.12759002 0.19564827 0.17011918 0.11014305 0.039587364 0.02268774
0.07341915 0.012247544 0.18574797 0.070199534 -0.14953676 0.035613026 -0.0011461285 0.040163226
-0.02643416 -0.0014003721 0.13372533 0.05168653 0.10205426 0.06545542 -0.11113706 -0.046183314
-0.09482391 0.09092978 -0.061795324 0.04014923 0.024937278 0.06010034 -0.041854173 0.08923457
0.11052747 0.12852418 0.042661916 -0.19058426 0.05782188 -0.13226676 -0.0140161645 -0.030597346
0.05100735 0.02984043 -0.12794614 0.0027442111
00000000: cdbe 0e3e cf1c 4fbb a305 a8ba df72 b5bd
00000010: 7aeb 19bd f9a5 dd3d fc76 493e 3561 3b3e
00000020: d31f 84bd 5cb7 ce3d 3146 0ebd 4e5a 963d
00000030: 0aa0 11bd 3633 893d a2d3 7bbb 5aa0 233e
00000040: 23d1 4bbd d6ec bf3d a489 76bd 143b dfbd
00000050: c8b1 653d 90bd 803d daa4 eabc a04c ce3d
00000060: a070 ea3c ba08 ce3d a276 a1bd 0d83 18be
00000070: 7199 fcbd a33e a63c 2d13 05bc b7d3 9cbd
00000080: 9ef6 52be c78e 4c3e 0969 c6bd 8f54 fdbc
00000090: cc0b fbbd 579c f63d a6ba 043d 7e6b 943a
000000a0: 38b3 0bbd c266 983b 5a52 2cbe 3a85 0d3e
000000b0: bf14 8c3c 6371 ab3d 90fe ba3c 55b3 0c3e
000000c0: e17f 873d ae9c a63b 6b1c 6d3e fc82 7fbd
000000d0: e1b8 a0bd ea96 11bd 860b 963d 2a12 ce3b
000000e0: d8f1 7b3c 8361 523e 42e7 a73d ed2c 383e
000000f0: 0706 ffbd 0b34 043e af08 53be 4433 a23b
00000100: f5a0 08be 8da5 853d 8f7e f0bd ae9a 5b3c
00000110: 8d6e 853c fffc 07be 2029 d0bd 0ea1 7bbe
00000120: 690b b43b 9e91 0c3e 9ff2 443e 5e7f 82bc
00000130: 503e 92bd 7a8a a6bc 8a48 023d 8252 0dbd
00000140: 03c7 2f3e ebb0 083d 7275 053e 35ac 303e
00000150: defe 98bd b18d 39bd 6063 90bd 7878 bdbd
00000160: 579c 0fbc be1b 383e 77a1 733d 5696 c13d
00000170: cc90 20be 5a06 d63d fa60 9f3d 111e 2f3d
00000180: 0547 053e e780 843c c88e e53d 251a 53bd
00000190: f964 0ebe fc5f d93d 5165 ef3d 8cb7 4f3d
000001a0: 6dec 4d3d c5a7 b4bd 712c a9bc 3662 d03d
000001b0: f964 90bd e672 313d 9594 153e 650e 11be
000001c0: 935c 0fbd 3301 073e 1f20 593e f5f2 12bd
000001d0: 0863 283e f90e b5bd b4b5 8ebc 281c 193e
000001e0: 2c4a b1bd c636 38bd a8b4 1fbc 9109 89bd
000001f0: fc53 37bb ff49 a5bd 4d38 c6bd 85bf d2bd
00000200: 9ca3 aebd de87 cbbd 330c 97bd c94e 71bd
00000210: 55a6 403e 5bab 203c 4fa1 263e 54f2 b53e
00000220: 0104 df3c 5d81 bd3d f5a6 023e 0558 483e
00000230: b933 2e3e ae92 e13d 5c26 223d a4db b93c
00000240: c85c 963d eca9 483c b734 3e3e c6c4 8f3d
00000250: 2a20 19be f7de 113d b139 96ba 3282 243d
00000260: 748c d8bc b18c b7ba 4bef 083e 41b5 533d
00000270: d301 d13d 7e0d 863d d49b e3bd b72a 3dbd
00000280: 0a33 c2bd 6439 ba3d 181d 7dbd 8573 243d
00000290: 4349 cc3c c62b 763d 486f 2bbd 9dc0 b63d
000002a0: 3a5c e23d d89b 033e 43be 2e3d 8528 43be
000002b0: a3d6 6c3d f070 07be 0ea4 65bc 49a7 fabc
000002c0: 15ed 503d eb73 f43c 5004 03be 39d8 333b

conv2.bias f4 [5]
-0.040603846 -0.071134016 -0.13753872 -0.039308906 0.0075055314
00000000: 3850 26bd b6ae 91bd f3d6 0cbe 6002 21bd
00000010: f6f0 f53b

fc1.weight f4 [80, 320]
0.04871725 0.013568847 -0.052895594 -0.02154229 -0.037331194 -0.059417795 -0.040171657 -0.043619018
-0.04754628 0.0011928341 -0.045879625 0.010852741 0.02178716 0.027433967 -0.022621166 0.046169255
-0.014136619 -0.036658254 -0.055162333 0.016760107 -0.008365017 -0.029055536 -0.024142018 -0.026055539
0.041761406 -0.04801017 -0.015898317 -0.0014508327 0.03336285 -0.022099104 0.041602883 -0.03939187
-0.012893243 -0.039683364 0.03278508 0.036035065 -0.0279141 -0.013326811 0.04458353 -0.023044053
-0.013135841 -0.016981022 -0.06722009 -0.060121275 -0.031066261 -0.033577558 0.02883309 -0.019463668
0.017909473 -0.067036174 0.014394557 -0.01532297 -0.0011923584 0.0413353 -0.024553299 0.030940644
0.023528324 0.025564699 -0.05931663 -0.014582075 -0.054171234 0.03449977 -0.04401375 0.010834163
0.024907328 -0.029903762 -0.046880048 -0.044809934 0.028411292 -0.01574443 0.05082234 -0.00017065927
-0.05103098 0.011219256 -0.052689295 -0.05318611 -0.004446637 0.049485393 -0.026155867 -0.031219183
0.046595328 -0.03415575 0.037394807 0.04520984 0.046070665 -0.016335715 0.03255558 0.015822247
0.024733044 0.04006905 -0.013924564 -0.034110423 0.005481355 -0.007910635 -0.03125816 -0.04870165
-0.03192862 0.025277693 -0.017822735 -0.014979814 0.035905614 -0.022881497 0.031935573 0.018626772
-0.026821652 -0.015406269 0.027726138 -0.058125682 -0.031523958 -0.0240581 0.014247395 0.02252958
0.04314223 0.02923673 -0.056676857 -0.034623794 -0.02962011 -0.0056525804 -0.028221821 0.037990086
-0.011033088 -0.025229132 -0.030065337 0.013127513 -0.0410152 0.044289097 0.030405797 0.03575472
-0.036011677 -0.035261404 0.018431187 0.016386045 0.0070998343 0.014928051 0.023520702 -0.046464525
-0.01566435 0.025859797 -0.040929656 -0.021475825 -0.016358472 0.011564915 -0.05638114 0.04486548
0.0037051227 0.0053774603 0.033644564 -0.023595735 -0.035733394 -0.033969466 0.017267073 -0.046194546
0.009936949 0.034538712 -0.009491373 0.019204067 -0.062023826 -0.028281026 0.052296113 -0.036592998
0.027290707 -0.07037833 -0.043758452 0.038947742 -0.033400588 0.02552601 -0.02480438 -0.014035214
-0.0004250493 -0.05846577 0.001486321 -0.014461621 -0.0352508 -0.04661751 -0.05653861 -0.03533432
-0.035498798 -0.03803061 -0.005686482 0.00413349 -0.013374567 0.03938581 -0.0023560245 0.0011802871
0.012077073 -0.017857231 0.0003163369 -0.010699273 0.011006738 -0.03297969 -0.03874671 0.001782329
-0.04782619 -0.024644002 -0.004451203 -0.05610647 -0.055407044 -0.012692712 0.01755069 -0.014838986
-0.008384855 -0.04473837 0.0014244261 0.019834362 -0.001773578 0.049298026 -0.03937315 0.028631127
-0.063009486 -0.03772452 0.037232347 -0.01763631 0.01783017 0.0018323734 -0.0019035143 0.025631301
0.028758865 0.020577265 0.028642645 0.04115375 -0.05482607 -0.026663944 0.038503755 -0.03080279
0.035083804 0.026749136 0.02957608 0.011091186 0.05303677 0.014352798 -0.04173757 -0.033377003
-0.026985982 0.014399431 0.00045819135 0.017900556 -0.0018657409 0.047408756 -0.0052277385 -0.013234299
-0.030407624 -0.0018528113 0.012643822 -0.018534709 -0.033649977 -0.024133587 0.024254842 -0.013177421
-0.010836635 0.0054193707 -0.00690192 -0.0116187 -0.009532869 0.04091338 0.029605217 -0.06001367
00000000: bd8b 473d df4f 5e3c 0da9 58bd 7579 b0bc
00000010: 98e8 18bd 1360 73bd 098b 24bd dba9 32bd
00000020: e3bf 42bd df58 9c3a 46ec 3bbd b2cf 313c
00000030: fc7a b23c 33bd e03c 0650 b9bc f91b 3d3d
00000040: 479d 67bc f726 16bd e6f1 61bd 7e4c 893c
00000050: 6d0d 09bc e005 eebc 7bc5 c5bc 6d72 d5bc
00000060: 020e 2b3d 50a6 44bd 303d 82bc de29 beba
00000070: 7ca7 083d 2e09 b5bc c967 2a3d 5f59 21bd
00000080: 2e3e 53bc 068b 22bd a649 063d 8199 133d
00000090: 1cac e4bc b258 5abc 389d 363d e2c6 bcbc
000000a0: b637 57bc c91b 8bbc b0aa 89bd ba41 76bd
000000b0: ac7e febc 9f88 09bd 5f33 ec3c 4572 9fbc
000000c0: e3b6 923c 434a 89bd 26d7 6b3c 320d 7bbc
000000d0: e948 9cba 344f 293d 0024 c9bc 3c77 fd3c
000000e0: 79be c03c 0f6d d13c fff5 72bd a8e9 6ebc
000000f0: a8e2 5dbd a14f 0d3d c347 34bd c681 313c
00000100: 740a cc3c bcf8 f4bc 4b05 40bd 9f8a 37bd
00000110: ccbe e83c 76fa 80bc 162b 503d 00f3 32b9
00000120: dc05 51bd f8d0 373c bbd0 57bd aed9 59bd
00000130: 18b5 91bb 32b1 4a3d d444 d6bc 5fbf ffbc
00000140: beda 3e3d e6e6 0bbd 4c2b 193d f42d 393d
00000150: 98b4 3c3d 7ad2 85bc 0059 053d a89d 813c
00000160: f49c ca3c 721f 243d db23 64bc 5fb7 0bbd
00000170: f09c b33b 9c9b 01bc 8e08 00bd 627b 47bd
00000180: 96c7 02bd 2a13 cf3c fc00 92bc e56d 75bc
00000190: c411 133d fa71 bbbc e0ce 023d 2c97 983c
000001a0: 15b9 dbbc 936a 7cbc ed21 e33c 3215 6ebd
000001b0: 441f 01bd 7e15 c5bc e86d 693c f48f b83c
000001c0: e8b5 303d de81 ef3c fe25 68bd aed1 0dbd
000001d0: dfa5 f2bc 4839 b9bb 7331 e7bc 7e9b 1b3d
000001e0: 20c4 34bc 53ad cebc 954b f6bc c814 573c
000001f0: 8eff 27bd 7c68 353d 9415 f93c 8b73 123d
00000200: fb80 13bd 436e 10bd 00fd 963c 073c 863c
00000210: baa5 e83b c994 743c 7dae c03c 9651 3ebd
00000220: 8652 80bc edd7 d33c dba5 27bd 12ee afbc
00000230: 3402 86bc c57a 3d3c e9ef 66bd dec4 373d
00000240: a5d1 723b 6835 b03b e2ce 093d d84b c1bc
00000250: 2e5d 12bd 9123 0bbd ad73 8d3c 7e36 3dbd
00000260: 96ce 223c 7778 0d3d b481 1bbc d951 9d3c
00000270: b20c 7ebd 9cad e7bc 7334 563d 8ae2 15bd
00000280: c390 df3c 8422 90bd 103c 33bd ab87 1f3d
00000290: 0ecf 08bd ec1b d13c 8e32 cbbc f4f3 65bc
000002a0: 27d9 deb9 ce79 6fbd a8d0 c23a 6ff0 6cbc
000002b0: 2563 10bd 01f2 3ebd 0895 67bd b8ba 10bd
000002c0: 3067 11bd fcc5 1bbd ab55 babb 3a72 873b
000002d0: 0021 5bbc 0453 213d 8867 1abb ddb3 9a3a
000002e0: eade 453c 5449 92bc 05da a539 014c 2fbc
000002f0: 9b55 343c b615 07bd dfb4 1ebd 0a9d e93a
00000300: 65e5 43bd 38e2 c9bc 66db 91bb e6cf 65bd
00000310: 7ff2 62bd 18f5 4fbc 77c6 8f3c 381f 73bc
00000320: a260 09bc 953f 37bd cfb3 ba3a ac7b a23c
00000330: 6777 e8ba baec 493d bd45 21bd d38b ea3c
00000340: 1e0b 81bd 0785 1abd f280 183d 067a 90bc
00000350: 9410 923c 402c f03a 577f f9ba bcf8 d13c
00000360: b697 eb3c a791 a83c fba3 ea3c d690 283d
00000370: 4d91 60bd 586e dabc 1db6 1d3d 2256 fcbc
00000380: 09b4 0f3d 0121 db3c 8949 f23c ceb7 353c
00000390: 163d 593d 0028 6b3c 04f5 2abd 53b6 08bd
000003a0: b511 ddbc 97eb 6b3c 6739 f039 30a4 923c
000003b0: e08b f4ba af2f 423d 734d abbb acd4 58bc
000003c0: 6919 f9bc 08da f2ba 0828 4f3c 1ad6 97bc
000003d0: 8fd4 09bd cdb3 c5bc 17b2 c63c 1ce6 57bc
000003e0: 248c 31bc fa94 b13b 8029 e2bb 5c5c 3ebc
000003f0: c02f 1cbc ca94 273d a486 f23c e5d0 75bd

fc1.bias f4 [80]
-0.017829565 -0.01655184 0.03215784 -0.07092884 -0.057858083 0.025972143 0.084734485 0.021423597
0.017852686 -0.04435259 0.023722839 -0.0090643 -0.06997372 0.004589804 -0.053291317 0.045605388
-0.049194194 0.011163853 0.012986071 -0.07454034 -0.037468757 -0.04581558 -0.011971442 0.06212038
0.03633828 0.023092747 -0.05128895 -0.029198319 0.07717598 -0.018789012 0.019248556 -0.006748089
-0.040113565 -0.03590744 0.036515318 -0.046118923 -0.027872996 -0.06698391 -0.0010206484 0.059481967
-0.015364712 0.036055386 -0.03153986 -0.05756998 -0.062093467 0.057773024 0.019939754 -0.063110575
-0.027480092 0.10581962 0.028510131 0.040452372 -0.004629629 -0.0485671 0.052054603 -0.020261372
0.08662009 -0.03143724 0.0184895 -0.04880374 0.039049853 -0.05548266 0.016446635 -0.010454928
0.023931436 -0.04489058 -0.01966767 0.030602636 0.045591302 0.003018613 0.028797116 -0.040933553
-0.06289443 0.056204762 0.031594396 0.026114836 0.028275145 -0.015963728 -0.016664632 -0.005734709
00000000: 4f0f 92bc b997 87bc f0b7 033d 2443 91bd
00000010: 99fc 6cbd 88c3 d43c 4689 ad3d 8a80 af3c
00000020: cc3f 923c 10ab 35bd 6656 c23c 6e82 14bc
00000030: 624e 8fbd 1166 963b ff47 5abd b7cc 3a3d
00000040: da7f 49bd 98e8 363c 88c3 543c 9ba8 98bd
00000050: d778 19bd 1ea9 3bbd de23 44bc f171 7e3d
00000060: 73d7 143d 002d bd3c 5d14 52bd 5031 efbc
00000070: 710e 9e3d 6aeb 99bc 26af 9d3c 131f ddbb
00000080: 1f4e 24bd ae13 13bd 1691 153d 32e7 3cbd
00000090: e955 e4bc dc2e 89bd 47c7 85ba 5da3 733d
000000a0: 46bc 7bbc d0ae 133d f12f 01bd 80ce 6bbd
000000b0: b855 7ebd 68a3 6c3d b258 a33c 1e40 81bd
000000c0: ee1d e1bc f5b7 d83d 148e e93c 63b1 253d
000000d0: 25b4 97bb 4cee 46bd 3537 553d 2dfb a5bc
000000e0: e065 b13d 56c4 00bd 4b77 973c 6ee6 47bd
000000f0: bdf2 1f3d c941 63bd 18bb 863c 254b 2bbc
00000100: dc0b c43c 2fdf 37bd 181e a1bc 61b2 fa3c
00000110: f2bd 3a3d ecd3 453b eee7 eb3c f1a9 27bd
00000120: cbce 80bd f736 663d 2069 013d c8ee d53c
00000130: 47a1 e73c 5dc6 82bc 4484 88bc 3aea bbbb

fc2.weight f4 [24, 80]
-0.047482707 0.018866941 0.022410512 -0.032880537 0.10096614 -0.10381439 0.013190935 0.09134725
-0.121293955 -0.09194906 -0.093042396 -0.102134176 -0.05233559 -0.07774119 -0.02111093 -0.12054683
-0.10024867 -0.055782143 -0.050888184 0.03949762 0.025391668 0.08068849 0.011763975 -0.022673432
0.025324268 -0.093863316 -0.07003346 -0.07338887 -0.062062155 -0.060589343 0.069575384 0.053994235
-0.096566066 0.08929898 0.07908729 -0.011593841 0.0024333373 0.064724445 0.04155834 -0.013049726
-0.06727691 0.10829319 -0.010096684 -0.059862833 -0.08060557 -0.07358516 0.0080503 -0.095934995
-0.018101111 0.051011693 0.063954085 -0.012765782 0.03243506 0.03921166 -0.05624955 -0.034317046
-0.07095753 -0.044250682 0.08188386 -0.055037204 0.039810177 -0.09534102 -0.13046885 -0.083011255
-0.01432471 0.06154649 0.06563681 -0.054916255 -0.044898003 0.0029556155 -0.02904419 -0.07833493
-0.06952271 0.0523034 -0.07270144 0.060702488 -0.09363414 -0.06208032 -0.04464308 -0.056974154
-0.081341006 -0.04765431 -0.02777762 -0.007174776 0.022548541 0.057368144 -0.06144154 -0.05505265
-0.0966115 0.043490957 -0.014464519 0.045138277 0.016526163 -0.09912704 0.057109386 0.060240872
0.020371705 0.015244996 -0.025855608 0.0038310995 0.008256002 0.0513379 0.05016511 -0.110636815
0.052634224 0.0350459 -0.09145965 -0.09199287 0.07114605 -0.067008 -0.03377322 -0.11361284
0.025469258 0.03895794 -0.06365773 0.015415356 0.042471938 0.086794615 0.027000532 -0.10366488
-0.05961893 -0.008484137 0.007611893 -0.044978477 -0.08230897 -0.008496038 0.06867526 0.014449015
0.049679726 -0.059418883 -0.023316046 -0.008030273 -0.054081745 0.00015501866 -0.06340385 -0.07538103
-0.060566682 0.07916925 -0.031605974 -0.021135949 -0.12461377 0.06665717 -0.05475427 0.014336884
-0.10182012 0.06550454 -0.010299946 -0.046634156 -0.09868051 -0.07660677 0.02877145 0.08776976
0.061583877 -0.0920123 0.09339387 0.04632788 0.0787877 0.005198182 0.089902654 -0.09970309
0.09350334 0.06643225 0.03129069 0.07525446 0.0056538642 -0.035720598 0.065028176 0.049959347
0.12799105 -0.09019916 0.01265342 -0.030536389 0.102157705 -0.033442702 -0.093163416 -0.027125873
-0.0052502453 -0.042702157 0.10324493 0.22584331 -0.012762033 0.05160694 -0.023070415 -0.032341525
-0.09823148 -0.060538925 0.021313531 -0.008334168 -0.060873613 -0.0012947352 -0.09641708 0.09614078
-0.049316287 -0.09609985 0.079002485 0.0068303314 0.067432754 -0.08929251 0.008434809 0.01973635
0.103541106 0.08299621 0.046213523 0.028272122 0.13352218 0.08185695 -0.094889686 0.019163854
0.087832026 0.051061988 -0.06536676 0.07944279 -0.112852655 -0.0884883 -0.041472636 -0.05851575
0.050919786 -0.09472324 -0.056248166 0.0771237 0.15129599 -0.038182147 -0.084068805 0.07357028
-0.05187646 -0.08360027 -0.09314743 -0.031698436 0.09257947 -0.088680245 0.04399559 -0.08003168
0.028294683 0.15486214 0.049443245 0.0055201645 0.08719009 -0.039776463 -0.026775077 -0.07806929
0.03809684 -0.042593192 -0.09015879 -0.03082376 0.015723916 -0.074498564 0.065061115 -0.08236367
-0.10620548 0.021921858 -0.07549533 -0.11460185 0.0067851096 0.051975593 0.06652644 -0.05726428
00000000: 3a7d 42bd d88e 9a3c 4096 b73c bead 06bd
00000010: 56c7 ce3d a49c d4bd cb1e 583c 4414 bb3d
00000020: f768 f8bd ca4f bcbd 038d bebd b92b d1bd
00000030: d85d 56bd c636 9fbd d4f0 acbc 42e1 f6bd
00000040: 2d4f cdbd d17b 64bd 2170 50bd 42c8 213d
00000050: 3002 d03c 0240 a53d b0bd 403c a2bd b9bc
00000060: d774 cf3c 693b c0bd b46d 8fbd e74c 96bd
00000070: e334 7ebd 882c 78bd 8a7d 8e3d 0f29 5d3d
00000080: 6ec4 c5bd 62e2 b63d 84f8 a13d 18f4 3dbc
00000090: a078 1f3b 408e 843d 1439 2a3d 85ce 55bc
000000a0: 7ac8 89bd d2c8 dd3d 906c 25bc bb32 75bd
000000b0: 8814 a5bd d1b3 96bd 68e5 033c 9179 c4bd
000000c0: c848 94bc a3f1 503d 5cfa 823d 9227 51bc
000000d0: a0da 043d 689c 203d ee65 66bd 0890 0cbd
000000e0: 2e52 91bd 3440 35bd bab2 a73d b16e 61bd
000000f0: ff0f 233d 2742 c3bd a099 05be ce01 aabd
00000100: 30b2 6abc 2c18 7c3d 986c 863d deef 60bd
00000110: f8e6 37bd 00b3 413b 15ee edbc 106e a0bd
00000120: ec61 8ebd 173c 563d 7ee4 94bd 2ca3 783d
00000130: 42c3 bfbd ef47 7ebd aadb 36bd bb5d 69bd
00000140: 1d96 a6bd 2a31 43bd e48d e3bc 621a ebbb
00000150: b8b7 b83c dcfa 6a3d 20aa 7bbd e37e 61bd
00000160: 40dc c5bd 9323 323d 97fc 6cbc eae2 383d
00000170: e061 873c 1e03 cbbd 88eb 693d 22bf 763d
00000180: 90e2 a63c 26c6 793c 24cf d3bc 2f13 7b3b
00000190: 2f44 073c b147 523d ee79 4d3d 8e95 e2bd
000001a0: fc96 573d 4a8c 0f3d 324f bbbd c266 bcbd
000001b0: 05b5 913d 7e3b 89bd ca55 0abd d9ad e8bd
000001c0: e8a4 d03c 5c92 1f3d fc5e 82bd b090 7c3c
000001d0: 0ef7 2d3d 60c1 b13d 3830 dd3c 414e d4bd
000001e0: fb32 74bd 0d01 0bbc 306d f93b 5a3b 38bd
000001f0: 9b91 a8bd f732 0bbc 9da5 8c3d 90bb 6c3c
00000200: f87c 4b3d 3761 73bd 4b01 bfbc 6891 03bc
00000210: d284 5dbd 818c 2239 e1d9 81bd 5f61 9abd
00000220: c514 78bd 7d23 a23d 4475 01bd 4c25 adbc
00000230: 8135 ffbd 8e83 883d 0346 60bd 40e5 6a3c
00000240: 1187 d0bd 3f27 863d 1bc1 28bc 7503 3fbd
00000250: 0219 cabd 03e4 9cbd 1bb2 eb3c a2c0 b33d
00000260: 603f 7c3d f270 bcbd 4945 bf3d 4ec2 3d3d
00000270: 725b a13d 8355 aa3b e21e b83d 2231 ccbd
00000280: ae7e bf3d a20d 883d ab2a 003d 031f 9a3d
00000290: 0d44 b93b c34f 12bd 7e2d 853d 2ca2 4c3d
000002a0: 1610 033e 56ba b8bd 4a50 4f3c 7327 fabc
000002b0: 0f38 d13d 37fb 08bd 76cc bebd 1437 debc
000002c0: 400a acbb 75e8 2ebd 1472 d33d 7843 673e
000002d0: d917 51bc cc61 533d 2bfe bcbc 8c78 04bd
000002e0: 962d c9bd aaf7 77bd b799 ae3c 098c 08bc
000002f0: 9c56 79bd 1bb4 a9ba 5176 c5bd 75e5 c43d
00000300: e0ff 49bd 00d0 c4bd 0ecc a13d f9d0 df3b
00000310: 2f1a 8a3d fede b6bd 2732 0a3c 20ae a13c
00000320: 5c0d d43d ebf9 a93d 644a 3d3d f09a e73c
00000330: 0aba 083e 9ea4 a73d 8655 c2bd 84fd 9c3c
00000340: 47e1 b33d 6026 513d 02df 85bd e7b2 a23d
00000350: 4b1f e7bd 5b39 b5bd 36df 29bd 36ae 6fbd
00000360: 4491 503d 42fe c1bd 7a64 66bd 08f3 9d3d
00000370: 56ed 1a3e e264 1cbd 442c acbd 04ac 963d
00000380: 697c 54bd 9e36 abbd 14c4 bebd 38d6 01bd
00000390: 4e9a bd3d fd9d b5bd b834 343d a6e7 a3bd
000003a0: 40ca e73c 2e94 1e3e 0085 4a3d 7fe2 b43b
000003b0: b890 b23d a5ec 22bd 6857 dbbc cbe2 9fbd
000003c0: 6f0b 1c3d 3376 2ebd 2ca5 b8bd 1c82 fcbc
000003d0: 71cf 803c b492 98bd c33e 853d 49ae a8bd
000003e0: 4282 d9bd 7895 b33c 4c9d 9abd 60b4 eabd
000003f0: a055 de3b 5ce4 543d 043f 883d f38d 6abd

fc2.bias f4 [24]
-0.05874201 -0.051539056 0.061628323 0.02665199 -0.008516396 -0.03413871 0.08678793 0.056845937
-0.13568103 -0.085713744 -0.0032299878 -0.07347747 0.060164254 -0.087193996 -0.019153284 0.09633665
0.055801395 -0.002407555 0.048144773 -0.053346336 0.0846863 -0.029505799 0.07544128 0.04298854
00000000: 769b 70bd 9e1a 53bd fb6d 7c3d 4655 da3c
00000010: 5b88 0bbc 08d5 0bbd dfbd b13d 49d7 683d
00000020: f8ef 0abe b08a afbd 34ae 53bb 5b7b 96bd
00000030: cb6e 763d c492 b2bd 59e7 9cbc 264c c53d
00000040: 0190 643d 12c8 1dbb 7433 453d b081 5abd
00000050: 0370 ad3d 25b6 f1bc f580 9a3d c014 303d

fc3.weight f4 [80, 24]
-0.09590804 -0.104251385 -0.1311518 0.18289417 -0.14730722 -0.11548455 0.042811032 -0.16954727
-0.018063411 0.057068586 -0.042920057 0.20067242 -0.14085904 0.048009396 0.12920538 -0.03527365
-0.20026372 0.14257228 -0.101867475 -0.1317283 -0.072844654 0.16416296 0.0064293216 0.09329739
0.0006483942 -0.20416355 -0.027303882 0.10749662 0.09761468 0.15902089 0.11209026 -0.034489594
-0.021687312 0.07194051 -0.19160517 -0.15680054 0.0189542 0.028273502 0.008593478 -0.118495815
-0.06577515 0.16121544 -0.11784583 0.26652417 -0.11908339 0.055589586 -0.061226342 0.19523598
0.006739993 0.12045148 0.15333836 -0.11595999 -0.10541471 0.036898073 0.1692441 0.15882568
-0.17710984 0.16055688 -0.13344885 0.056571588 -0.12488363 -0.08462504 -0.055956814 -0.1902193
0.016269995 -0.12498936 0.019706085 -0.15641674 -0.048245236 0.0889417 0.084860876 0.20669594
-0.14295012 0.0033227236 0.13928644 0.19048023 -0.17996854 -0.16003726 -0.086159654 0.04656108
-0.15135643 -0.105809376 -0.16574872 -0.07847201 -0.04288951 -0.058658898 -0.055794705 0.23041032
0.006754135 -0.114305615 0.2505609 -0.025053611 0.21017425 -0.15554084 -0.005790498 0.03404318
-0.116560556 0.011145615 0.18240209 0.17139786 -0.16376622 0.21775967 0.17607434 -0.020110074
0.017717507 -0.012872784 -0.015211339 0.1284519 0.21216547 -0.05774302 0.036959566 0.02448465
-0.18324319 -0.22219346 -0.117932305 0.1256911 -0.106336564 0.01038982 0.06251786 0.21351646
-0.023423184 0.1906842 -0.11883031 -0.00412206 -0.015307049 -0.21393238 -0.054839436 0.16595586
-0.15065815 0.087656684 -0.06931183 0.14787649 0.06995646 -0.0740534 0.022806661 0.18470384
0.13835819 -0.15574329 -0.04689503 0.1153943 0.12806055 -0.14974734 -0.089781016 0.07549912
0.20141247 0.19122747 -0.19988632 0.14793995 0.16117933 -0.03659369 0.028986767 -0.16508086
0.083224 0.08439675 0.055415273 -0.06315932 -0.19817902 0.085603476 -0.047370523 -0.06209679
-0.009756446 -0.09410147 -0.12388691 0.08588675 0.14072436 0.09638798 -0.052823514 -0.11420493
0.0013916967 -0.030553013 0.22521935 -0.06546493 0.23966281 -0.021518031 -0.14202863 -0.17275701
-0.10489655 0.023334615 0.052785054 -0.18996838 -0.008415037 0.18652152 0.18521662 -0.006079124
0.10780188 0.117487624 -0.04340162 0.08565426 -0.23681623 0.1672524 -0.14802685 0.11273121
-0.042433888 0.13486041 -0.1471045 0.17982087 -0.1560238 0.18545441 -0.0624777 -0.036246125
-0.042885743 -0.072559625 0.034468472 -0.038236864 0.20150526 -0.062168173 0.07039615 -0.06501063
-0.19852601 0.07409552 0.054596793 0.0333714 -0.029956201 -0.123119846 0.19403744 0.12275553
0.13445225 0.16025795 0.12437237 -0.0020048916 0.026304923 0.17797582 0.13222136 -0.068322286
-0.023939312 -0.1020697 0.058916837 0.02830198 -0.04467269 -0.1782355 -0.2946962 0.17329237
0.104251646 0.25104633 -0.10862511 0.09815704 -0.07892992 -0.023425007 -0.059349563 0.0059127766
0.02712302 0.037798855 0.15247716 0.09338778 -0.008688705 0.049987964 0.08818041 -0.14719811
-0.14947434 0.114814624 0.08630391 0.007930302 0.15205461 0.13091843 -0.25827396 0.050107572
00000000: 6f6b c4bd c081 d5bd a84c 06be 9c48 3b3e
00000010: b4d7 16be 2a83 ecbd 9f5a 2f3d cd9d 2dbe
00000020: b8f9 93bc c0c0 693d f1cc 2fbd 127d 4d3e
00000030: 5a3d 10be 80a5 443d 6a4e 043e 1a7b 10bd
00000040: ef11 4dbe 78fe 113e e59f d0bd c9e3 06be
00000050: 942f 95bd 561a 283e 0fad d23b b412 bf3d
00000060: 00f9 293a 4010 51be 64ac dfbc 3027 dc3d
00000070: 35ea c73d 5fd6 223e 948f e53d f644 0dbd
00000080: 97a9 b1bc 8c55 933d 2534 44be 5290 20be
00000090: d745 9b3c d59d e73c a9cb 0c3c efad f2bd
000000a0: 1fb5 86bd a915 253e 2859 f1bd db75 883e
000000b0: fee1 f3bd e8b1 633d 79c8 7abd f1eb 473e
000000c0: 29db dc3b 44af f63d bb04 1d3e 6e7c edbd
000000d0: abe3 d7bd 6f22 173d 534e 2d3e 33a3 223e
000000e0: 485c 35be 0669 243e d1a6 08be 9cb7 673d
000000f0: fdc2 ffbd e54f adbd f932 65bd d9c8 42be
00000100: a748 853c 6cfa ffbd a86e a13c b62b 20be
00000110: cc9c 45bd 1127 b63d 8acb ad3d 1aa8 533e
00000120: 8461 12be 0dc2 593b 1ba1 0e3e 400d 433e
00000130: ac49 38be cfe0 23be 7974 b0bd d5b6 3e3d
00000140: 2efd 1abe 96b2 d8bd 08ba 29be efb5 a0bd
00000150: e9ac 2fbd 5044 70bd fd88 64bd aff0 6b3e
00000160: ca51 dd3b 1019 eabd 8549 803e 3b3d cdbc
00000170: eb37 573e 1946 1fbe 38be bdbb dd70 0b3d
00000180: 4db7 eebd 199c 363c 9dc7 3a3e ec82 2f3e
00000190: 55b2 27be 64fc 5e3e d54c 343e e2bd a4bc
000001a0: 4e24 913c 5fe8 52bc fb38 79bc e588 033e
000001b0: e841 593e f283 6cbd ea62 173d 0894 c83c
000001c0: 1aa4 3bbe af86 63be 7e86 f1bd 2bb5 003e
000001d0: fcc6 d9bd 103a 2a3c 5d09 803d 0fa4 5a3e
000001e0: fae1 bfbc b842 433e 4e5d f3bd 5812 87bb
000001f0: 6bca 7abc 1711 5bbe 519f 60bd 55f0 293e
00000200: 2146 1abe 5985 b33d 5cf3 8dbd ef6c 173e
00000210: 5545 8f3d 4fa9 97bd 09d5 ba3c 0123 3d3e
00000220: c5ad 0d3e 2b7b 1fbe 0115 40bd d953 ec3d
00000230: 4e22 033e 5e57 19be 1cdf b7bd 489f 9a3d
00000240: 123f 4e3e 22d1 433e 00af 4cbe 927d 173e
00000250: 320c 253e 44e3 15bd a875 ed3c f50a 29be
00000260: 5871 aa3d 34d8 ac3d 20fb 623d ac59 81bd
00000270: 71ef 4abe e050 af3d 9807 42bd 3459 7ebd
00000280: 80d9 1fbc 46b8 c0bd 6cb8 fdbd 64e5 af3d
00000290: 0c1a 103e 1067 c53d 785d 58bd 46e4 e9bd
000002a0: 9869 b63a 504a fabc e79f 663e 7a12 86bd
000002b0: 2b6a 753e 9546 b0bc f46f 11be 37e7 30be
000002c0: 01d4 d6bd 3c28 bf3c 2435 583d 1287 42be
000002d0: 39df 09bc 7fff 3e3e 6da9 3d3e 6333 c7bb
000002e0: 3bc7 dc3d 5a9d f03d e6c5 31bd 806b af3d
000002f0: f47f 72be 3744 2b3e 5a94 17be 9fdf e63d
00000300: 28cf 2dbd d918 0a3e 90a2 16be f622 383e
00000310: b4c4 1fbe c3e7 3d3e 9ee8 7fbd d176 14bd
00000320: f6a8 2fbd 249a 94bd d02e 0d3d 429e 1cbd
00000330: 6557 4e3e 0ea4 7ebd db2b 903d 4b24 85bd
00000340: 674a 4bbe 64bf 973d e3a0 5f3d 73b0 083d
00000350: b566 f5bc 4226 fcbd c0b1 463e 4067 fb3d
00000360: daad 093e a91a 243e f1b6 fe3d 8064 03bb
00000370: 6c7d d73c 4b3f 363e 0965 073e 8eec 8bbd
00000380: 601c c4bc eb09 d1bd c852 713d 8ed9 e73c
00000390: b6fa 36bd 5e83 36be 6ce2 96be 8e73 313e
000003a0: e381 d53d 2589 803e d776 debd 8f06 c93d
000003b0: 03a6 a1bd cde5 bfbc 8718 73bd f7bf c13b
000003c0: 1831 de3c f9d2 1a3d f922 1c3e 1842 bf3d
000003d0: 125b 0ebc 2ec0 4c3d ee97 b43d 1abb 16be
000003e0: cd0f 19be ee23 eb3d 1bc0 b03d 19ee 013c
000003f0: 34b4 1b3e 7b0f 063e 7c3c 84be 993d 4d3d

fc3.bias f4 [80]
0.00627276 -0.020975562 0.13718647 0.2216539 0.11080008 0.1419939 -0.09771573 0.15673688
-0.18299043 0.002465336 -0.0029106424 -0.18347144 0.12410151 -0.106827825 -0.12156908 -0.06915208
0.09467236 0.04418864 -0.013844742 0.15007904 0.1644962 0.109291784 -0.06435361 -0.01573576
-0.099620864 -0.13637152 0.18974204 0.0805956 -0.068365395 -0.13729373 0.12737277 0.018813148
-0.1331678 -0.08475409 -0.0047818753 -0.0183634 -0.023518458 0.05571611 0.051684294 0.006316834
0.18714651 0.06954139 0.052298922 0.030153057 0.15850402 0.14443201 -0.109918624 -0.101492055
0.13258156 0.02200391 -0.014445724 -0.043811373 0.095405236 -0.15665992 0.1579922 0.018237473
0.007326708 0.04530875 0.031351604 -0.19961971 0.10921006 0.060491607 0.19320802 0.014796284
0.14774768 0.17439614 0.07553112 0.0365255 -0.0628023 0.113120474 -0.012644798 0.17440178
-0.14435314 0.07359954 0.09899234 -0.10553827 0.004327134 0.08602452 0.060548496 0.13262552
00000000: ba8b cd3b f1d4 abbc 9c7a 0c3e 3df9 623e
00000010: 27eb e23d d966 113e 2f1f c8bd a27f 203e
00000020: d861 3bbe 7991 213b 7ac0 3ebb f0df 3bbe
00000030: ef28 fe3d 8cc8 dabd 36f9 f8bd 9b9f 8dbd
00000040: 95e3 c13d 26ff 343d 0fd5 62bc 52ae 193e
00000050: b171 283e 5fd4 df3d d3cb 83bd 48e8 80bc
00000060: 0606 ccbd faa4 0bbe bd4b 423e 4e0f a53d
00000070: 2803 8cbd ba96 0cbe 026e 023e 081e 9a3c
00000080: 245d 08be 8d93 adbd 47b1 9cbb d76e 96bc
00000090: c8a9 c0bc 9336 643d e9b2 533d 72fd ce3b
000000a0: 56a3 3f3e b76b 8e3d 6537 563d 8b03 f73c
000000b0: e14e 223e fce5 133e 041d e1bd 11db cfbd
000000c0: 76c3 073e 8b41 b43c c2ad 6cbc 8e73 33bd
000000d0: d263 c33d 756b 20be b5c8 213e c166 953c
000000e0: e214 f03b ab95 393d 8a6a 003d 1c69 4cbe
000000f0: 86a9 df3d 0cc6 773d 53d8 453e 1d6c 723c
00000100: 2b4b 173e e794 323e 0fb0 9a3d c39b 153d
00000110: 7e9e 80bd b5ab e73d 202c 4fbc 6196 323e
00000120: 4fd1 13be 5bbb 963d 7fbc ca3d 7324 d8bd
00000130: a2ca 8d3b a02d b03d b301 783d fcce 073e

fc4.weight f4 [320, 80]
0.100882456 0.0041942345 -0.06978917 -0.08842197 0.061903868 0.07633392 0.10719821 -0.1145407
-0.08843655 0.17484997 0.13040914 0.012584674 0.012946503 -0.20466742 0.037997477 -0.058764435
0.004809393 -0.06983452 0.010589113 -0.06953634 -0.04865405 0.020849274 0.15353873 -0.083935544
-0.029281847 0.16073161 -0.02657248 -0.036078293 -0.018677868 0.15666166 -0.060300842 0.03307378
-0.012994841 0.033109054 -0.16931893 0.108812876 0.024179416 -0.006845104 -0.050455518 -0.008705924
0.080527276 -0.11847565 0.010752919 -0.07991064 -0.04244513 0.04251682 0.089557484 -0.10872058
-0.11214784 -0.038675822 0.12569617 -0.19871783 -0.07119675 -0.046304353 0.02231093 -0.007679965
-0.047045287 -0.1985176 0.06844982 -0.094377205 -0.0043718643 0.02338456 0.02551727 0.03395603
0.0052509145 -0.09344026 -0.014325455 0.014576869 -0.05556631 -0.085807435 0.08642326 0.05825977
-0.027854487 -0.08370462 0.066798024 -0.09736363 -0.13338062 -0.027157592 0.10411007 -0.061709024
-0.11074454 0.096270636 -0.057156067 0.044428162 -0.091775805 -0.038891114 -0.057536993 0.01506828
0.07394591 -0.07654293 0.03193597 -0.10302166 -0.08860144 0.06359923 -0.105601825 0.00016668614
-0.090158336 -0.00764025 -0.02701693 -0.053324047 -0.048911702 0.07033906 -0.086230464 -0.04590808
0.025847286 -0.08347366 -0.11880786 0.06636916 0.051992133 -0.109510556 -0.05358421 0.003978152
-0.10711937 0.004480958 0.04666757 0.018008629 0.0062154224 0.05724899 -0.02533847 0.033480942
-0.111611545 0.080255315 -0.00032485373 0.07155871 0.057322074 -0.04898082 0.050259084 0.069340944
-0.06363201 -0.121609144 -0.080508776 -0.11466471 0.08468935 0.0411842 -0.015178797 -0.04787713
0.028633505 0.10998331 -0.06046051 0.018766433 0.04151633 -0.07632329 0.064325534 0.023764221
-0.017535115 0.04933855 0.093374684 -0.09306335 0.008670553 -0.03227944 0.041851282 -0.06123755
-0.017359465 0.089747906 0.06177487 -0.02380275 -0.023562338 0.039736103 -0.090909496 -0.03677059
-0.091924295 -0.036745764 -0.18185166 -0.045585502 0.006867543 0.045697816 0.08230534 0.010059182
-0.049155306 0.0026825015 0.04179145 0.14213276 -0.0021616174 -0.018728415 0.18324935 -0.049786
0.061485223 0.11794009 -0.005284887 0.11239965 -0.08057322 0.005925307 0.09937906 0.058465794
0.046572592 0.09717662 -0.0936552 -0.027546046 0.017267704 0.20039828 0.08478051 0.09901204
0.011688791 0.06386343 -0.06552612 0.19464922 0.02582806 0.03963775 0.04755412 -0.01641845
0.009693911 -0.108488165 -0.1296217 -0.035457596 -0.05328178 0.061318967 0.09488441 0.07671242
-0.11072248 -0.06731855 0.10364153 -0.18741737 -0.0092929145 -0.041723542 0.21412653 -0.06817185
0.013905784 0.11609554 -0.07708147 -0.05535613 0.02089036 -0.11714656 -0.06700144 -0.013842695
0.012195209 0.09213012 0.090240166 0.039325185 0.02485288 -0.101456925 -0.005095694 0.026335781
-0.085769355 -0.09036776 -0.064560495 -0.03349468 0.062098194 0.020356854 -0.0022640317 0.04223042
-0.07074466 -0.018936224 -0.15183003 -0.043869164 -0.12248555 -0.07387936 -0.029260285 0.074596934
-0.087034106 0.06082847 -0.045262434 -0.012364676 0.007842503 0.012747575 0.1371264 0.0031005195
00000000: 769b ce3d ca6f 893b a0ed 8ebd 9416 b5bd
00000010: e98e 7d3d f554 9c3d bc8a db3d 5194 eabd
00000020: 391e b5bd df0b 333e f989 053e f32f 4e3c
00000030: 921d 543c 5694 51be 3ea3 1b3d fab2 70bd
00000040: 1d98 9d3b 6705 8fbd f67d 2d3c 1269 8ebd
00000050: 7849 47bd 19cc aa3c 4239 1d3e 66e6 abbd
00000060: 7ce0 efbc d496 243e 88ae d9bc d5c6 13bd
00000070: 5402 99bc ea6b 203e 04fe 76bd 5f78 073d
00000080: 50e8 54bc 5c9d 073d f161 2dbe 49d9 de3d
00000090: e913 c63c e54c e0bb 72aa 4ebd 4ba3 0ebc
000000a0: 7ceb a43d 5da3 f2bd 032d 303c 31a8 a3bd
000000b0: f2da 2dbd 1e26 2e3d ea69 b73d e5a8 debd
000000c0: c4ad e5bd 8a6a 1ebd 7fb6 003e b07c 4bbe
000000d0: 9acf 91bd a2a9 3dbd 69c5 b63c 37a8 fbbb
000000e0: 8fb2 40bd 3348 4bbe 6b2f 8c3d d648 c1bd
000000f0: db41 8fbb fa90 bf3c 9809 d13c 7a15 0b3d
00000100: dd0f ac3b 9b5d bfbd 50b5 6abc d2d3 6e3c
00000110: 8099 63bd cfbb afbd aefe b03d cca1 6e3d
00000120: 182f e4bc 546d abbd 67cd 883d 9566 c7bd
00000130: ee94 08be 9979 debc a937 d53d 9ac2 7cbd
00000140: 09ce e2bd 8a29 c53d 7b1c 6abd 4efa 353d
00000150: f4f4 bbbd 4a4c 1fbd e9ab 6bbd f2e0 763c
00000160: f470 973d 8ac2 9cbd 4bcf 023d 05fd d2bd
00000170: ac74 b5bd 5040 823d c545 d8bd 78c8 2e39
00000180: efa4 b8bd 105b fabb 9c52 ddbc 516a 5abd
00000190: a357 48bd ed0d 903d 9999 b0bd 1c0a 3cbd
000001a0: b0bd d33c 3df4 aabd 8951 f3bd 8eec 873d
000001b0: b4f5 543d 1247 e0bd 1e7b 5bbd 285b 823b
000001c0: 6661 dbbd 00d5 923b 7e26 3f3d d586 933c
000001d0: beaa cb3b eb7d 6a3d 9f92 cfbc 5023 093d
000001e0: 9894 e4bd e65c a43d 2151 aab9 5f8d 923d
000001f0: 8dca 6a3d 1da0 48bd 78dc 4d3d a002 8e3d
00000200: 8051 82bd 370e f9bd c9e1 a4bd 55d5 eabd
00000210: 9c71 ad3d c4b0 283d 7db0 78bc cf1a 44bd
00000220: d090 ea3c ee3e e13d 71a5 77bd 10bc 993c
00000230: 070d 2a3d 634f 9cbd 1bbd 833d 2fad c23c
00000240: cda5 8fbc 3817 4a3d 3a3b bf3d ff97 bebd
00000250: ef0e 0e3c 7237 04bd 406c 2b3d 3ad4 7abd
00000260: 7035 8ebc c0cd b73d a507 7d3d fcfd c2bc
00000270: ce05 c1bc 53c2 223d c22e babd c29c 16bd
00000280: ce42 bcbd ba82 16bd 5237 3abe ddb7 3abd
00000290: 2009 e13b a22d 3b3d b48f a83d 44cf 243c
000002a0: 1357 49bd e8cc 2f3b 832d 2b3d 408b 113e
000002b0: eca9 0dbb 556c 99bc b8a5 3b3e 68ec 4bbd
000002c0: eed7 7b3d 938a f13d d82c adbb ca31 e63d
000002d0: 9303 a5bd 1429 c23b 4087 cb3d d479 6f3d
000002e0: e7c2 3e3d 8904 c73d 4cce bfbd 3fa8 e1bc
000002f0: 0075 8d3c 3535 4d3e 67a1 ad3d d3c6 ca3d
00000300: 5882 3f3c d4ca 823d 8f32 86bd 2052 473e
00000310: 5e95 d33c 315b 223d 1cc8 423d fc7f 86bc
00000320: 36d3 1e3c 0b2f debd 8dbb 04be fc3b 11bd
00000330: ff3d 5abd 9929 7b3d c252 c23d 671b 9d3d
00000340: 78c2 e2bd 4fde 89bd 0342 d43d 57ea 3fbe
00000350: 4f41 18bc 4ee6 2abd fc43 5b3e af9d 8bbd
00000360: 16d5 633c 80c3 ed3d e4dc 9dbd 1cbd 62bd
00000370: 4322 ab3c 89ea efbd 0d38 89bd 79cc 62bc
00000380: 6ace 473c b7ae bc3d d6cf b83d 7213 213d
00000390: 4498 cb3c a6c8 cfbd c8f9 a6bb 23be d73c
000003a0: d8a7 afbd bb12 b9bd 4b38 84bd b831 09bd
000003b0: ad5a 7e3d 6bc3 a63c 2660 14bb cef9 2c3d
000003c0: 94e2 90bd 2420 9bbc 5579 1bbe 27b0 33bd
000003d0: b4d9 fabd 104e 97bd 44b3 efbc 47c6 983d
000003e0: f03e b2bd 4627 793d 1a65 39bd 3695 4abc
000003f0: d77d 003c 34db 503c dd6a 0c3e 1632 4b3b

fc4.bias f4 [320]
-0.03407731 -0.11593658 0.08236286 0.08452231 -0.0680735 0.056691863 -0.009101538 -0.097096734
0.05932874 -0.09604683 -0.087280996 -0.013330969 0.052199226 -0.08384926 -0.1490168 0.0367255
-0.042027064 -0.0891092 -0.053417493 -0.105691954 0.037332557 -0.11453786 -0.09185898 0.04049927
-0.04174666 -0.06420402 0.023066564 0.033610225 -0.10228367 0.054892335 -0.04119792 -0.11904577
-0.052557614 0.054566957 -0.016821342 0.089665264 -0.10230582 0.07164525 -0.0847053 -0.03996619
0.07496153 -0.057769515 0.043154463 -0.055142984 0.054715537 0.06269954 -0.11512617 -0.05619459
0.074977554 -0.08134626 0.043545432 0.0013269326 0.0018123919 -0.014224384 0.08786984 -0.005975537
0.069279104 -0.053204004 -0.0017548781 -0.012823653 -0.030635858 0.049930062 -0.03230228 -0.018576311
0.06194306 -0.10529266 -0.08992337 -0.0033691754 -0.070980616 -0.062378984 0.046156168 -0.10095847
-0.040498655 -0.00530379 -0.031112857 -0.0474408 -0.08373153 0.088831306 -0.105051205 -0.042346094
0.07258221 -0.033023763 0.10687934 0.007481314 -0.04387989 0.096756585 -0.019537896 -0.024373481
-0.013232912 -0.11116901 0.036432277 -0.05898328 0.058652386 -0.11177978 0.068245895 0.02646898
-0.01111059 0.10009243 0.08480095 0.036051467 -0.032978408 0.039908968 -0.010907024 0.010882365
-0.06334368 0.04347652 -0.09562981 0.025108872 0.0727624 0.01258053 0.0036729933 -0.0037256288
0.07197053 0.11232753 -0.070629135 0.01603301 0.07267413 -0.04330788 -0.12631565 -0.017838338
-0.053757172 -0.021184621 0.10300831 -0.06732173 0.009647477 0.06210529 -0.09964947 0.1098918
-0.062017113 -0.038612526 -0.060422838 -0.10879929 0.075832695 -0.02218834 0.06914097 0.02143501
0.00535812 0.016550168 -0.052233048 0.070008665 0.047777772 0.05410405 0.053916577 -0.11521972
-0.13984393 -0.0622558 -0.06979249 0.057661645 -0.06537184 -0.10593199 0.17667954 0.071429536
0.03339672 -0.11975645 -0.08135895 -0.09993733 0.025484275 0.06310931 0.051580004 -0.12040156
0.06462042 -0.021150934 -0.0032741637 0.029796703 -0.043261636 0.044406917 0.010277017 -0.09135613
-0.10493825 -0.059029877 0.061398383 0.008512502 -0.103912674 0.0798998 -0.11871842 0.05827257
0.010976787 0.047408715 0.029855916 0.13455375 -0.020175198 0.09254862 -0.05151326 0.00592499
-0.011369418 -0.027331248 -0.08802116 -0.043152053 0.08615071 0.10530376 -0.042872757 0.027697733
-0.087257385 0.07278702 -0.021667562 -0.04455644 0.06357527 0.0673542 0.09289451 0.011654785
-0.033316597 -0.031491056 -0.10221141 -0.007580361 0.018789172 0.008216511 -0.07404569 -0.05246266
0.020941319 -0.11576821 0.08597467 -0.016103253 -0.10669704 0.025547342 0.010505323 -0.04292208
0.007475176 -0.07571716 -0.010563462 -0.05097205 0.02331584 -0.03198224 -7.170439e-05 0.0448405
-0.015974797 0.07761742 -0.05911292 -0.023889206 -0.07821742 -0.045525957 -0.08833618 0.019087903
-0.054120924 0.09356473 -0.029551566 0.01739845 0.011425806 -0.02497072 -0.068107404 0.023619784
0.09068083 0.016585073 -0.02540409 0.10410957 0.085337885 0.08586449 0.004488222 0.08572619
-0.08183384 -0.0041402797 -0.040253926 -0.005842935 -0.03919159 -0.07942752 -0.0010328317 -0.10039572
00000000: a694 0bbd 2870 edbd dcad a83d 081a ad3d
00000010: 1f6a 8bbd ba35 683d 9e1e 15bc a7da c6bd
00000020: b102 733d 33b4 c4bd 61c0 b2bd 236a 5abc
00000030: dbce 553d 29b9 abbd dc97 18be 7a6d 163d
00000040: 9224 2cbd e27e b6bd 4dcc 5abd 0675 d8bd
00000050: 06ea 183d d392 eabd 9020 bcbd 90e2 253d
00000060: 8cfe 2abd 667d 83bd 17f6 bc3c e0aa 093d
00000070: 1a7a d1bd c9d6 603d 26bf 28bd 45ce f3bd
00000080: a746 57bd 9a81 5f3d e9cc 89bc 6ca2 b73d
00000090: b785 d1bd bfba 923d f979 adbd 96b3 23bd
000000a0: 6e85 993d ba9f 6cbd bcc2 303d 9cdd 61bd
000000b0: 661d 603d 9e68 803d 45c7 ebbd 4c2c 66bd
000000c0: d58d 993d de98 a6bd b25c 323d 78ec ad3a
000000d0: c88d ed3a 640d 69bc 1af5 b33d 70ce c3bb
000000e0: 34e2 8d3d 71ec 59bd f003 e6ba 4d1a 52bc
000000f0: 0df8 fabc 7783 4c3d 654f 04bd 592d 98bc
00000100: 02b8 7d3d aea3 d7bd be29 b8bd 62cd 5cbb
00000110: 495e 91bd 1b81 7fbd 400e 3d3d 50c3 cebd
00000120: ebe1 25bd 6acb adbb 64e0 febc 4951 42bd
00000130: 707b abbd 30ed b53d 1625 d7bd 1973 2dbd
00000140: fba5 943d ed43 07bd 8ee3 da3d cf25 f53b
00000150: 66bb 33bd 5128 c63d f00d a0bc e5aa c7bc
00000160: dbce 58bc 94ac e3bd 033a 153d 7498 71bd
00000170: 7c3d 703d ccec e4bd 81c4 8b3d 79d5 d83c
00000180: 3109 36bc 43fd cc3d 1fac ad3d b4aa 133d
00000190: 5e14 07bd 9677 233d 60b3 32bc f24b 323c
000001a0: 55ba 81bd 6f14 323d 90d9 c3bd 1fb1 cd3c
000001b0: 7404 953d 911e 4e3c 9ab6 703b ae29 74bb
000001c0: 4965 933d fa0b e63d 02a6 90bd a957 833c
000001d0: 2dd6 943d 9b63 31bd e458 01be b521 92bc
000001e0: 7b30 5cbd 5f8b adbc 05f6 d23d fadf 89bd
000001f0: 7410 1e3c 1e62 7e3d 0515 ccbd f40e e13d
00000200: a805 7ebd 2b28 1ebd f07d 77bd 2ad2 debd
00000210: 2c4e 9b3d 52c4 b5bc c899 8d3d 7998 af3c
00000220: 2b93 af3b 3894 873c 52f2 55bd b460 8f3d
00000230: a0b2 433d 359c 5d3d a1d7 5c3d 51f8 ebbd
00000240: 3f33 0fbe f0ff 7ebd 5def 8ebd 9e2e 6c3d
00000250: ace1 85bd dff2 d8bd 7beb 343e a649 923d
00000260: 00cb 083d df42 f5bd 859f a6bd f1ab ccbd
00000270: 66c4 d03c 743f 813d 8e45 533d 1895 f6bd
00000280: b657 843d b944 adbc 5a93 56bb 3718 f43c
00000290: 1d33 31bd 07e4 353d ef60 283c ec18 bbbd
000002a0: dde9 d6bd 50c9 71bd df7c 7b3d 0578 0b3c
000002b0: 2bd0 d4bd 82a2 a33d a522 f3bd 38af 6e3d
000002c0: fbd7 333c a42f 423d 6594 f43c 75c8 093e
000002d0: 7546 a5bc 228a bd3d 91ff 52bd 6b26 c23b
000002e0: cc46 3abc c8e5 dfbc 7044 b4bd 35c0 30bd
000002f0: c96f b03d 7fa9 d73d 589b 2fbd 5be6 e23c
00000300: 00b4 b2bd 5c11 953d 2c80 b1bc d080 36bd
00000310: c033 823d 00f1 893d 7a3f be3d b6f3 3e3c
00000320: fc76 08bd c4fc 00bd 3754 d1bd ad64 f8bb
00000330: c0eb 993c 8c9e 063c 44a5 97bd 16e3 56bd
00000340: 218d ab3c e217 edbd 7d13 b03d f8ea 83bc
00000350: fa83 dabd a948 d13c 851e 2c3c 10cf 2fbd
00000360: 52f2 f43b 9911 9bbd 5f12 2dbc 11c8 50bd
00000370: dc00 bf3c cfff 02bd 0060 96b8 acaa 373d
00000380: 94dd 82bc e2f5 9e3d 6420 72bd 4cb3 c3bc
00000390: 7430 a0bd 6d79 3abd 99e9 b4bd 3c5e 9c3c
000003a0: e7ad 5dbd dd9e bf3d 2016 f2bc 3287 8e3c
000003b0: 4e33 3b3c 658f ccbc e57b 8bbd 477e c13c
000003c0: dfb6 b93d 6bdd 873c 3d1c d0bc 6637 d53d
000003d0: a1c5 ae3d b9d9 af3d ef11 933b 3691 af3d
000003e0: 8098 a7bd 2fab 87bb 4de1 24bd 1776 bfbb
000003f0: 5c87 20bd e5aa a2bd 1560 87ba 459c cdbd

conv3.weight f4 [4, 5, 3, 3]
-0.03976864 -0.012779349 -0.058563806 -0.08884678 0.018258095 0.0026847788 0.09687395 0.06609452
0.04083259 0.012575698 0.18359053 0.06766698 0.0631524 -0.09361678 -0.044360142 0.0659408
0.107422836 -0.029168995 -0.02491472 -0.006260417 0.040170275 0.13800564 0.15379775 0.15294379
0.040024582 0.040126648 0.044006445 -0.02856334 0.009036037 -0.06152653 -0.02117437 0.046094712
-0.05778326 -0.010023723 0.023424868 -0.009225593 -0.114158146 -0.024870645 0.060338832 0.087342225
-0.016074441 -0.064782776 -0.15101102 -0.018202124 0.08657373 0.07414475 -0.098437496 -0.04880068
0.082668364 0.05600077 0.06650948 0.010243307 -0.11371647 -0.075775966 0.0280241 -0.012448842
0.055785418 -0.023630185 0.053429365 0.031980645 0.01894264 -0.025798086 0.2061999 -0.04706921
-0.057563297 0.06770465 -0.13432528 -0.120688245 -0.19650823 -0.15868041 -0.08821897 -0.021093938
0.02382948 0.05574869 0.058020063 0.06922236 0.11712814 0.057711355 0.07651113 -0.09948268
-0.0136776725 0.08897982 0.08752999 0.12180296 0.045689087 -0.02200196 -0.011272458 0.09926887
0.13413331 0.13295312 0.026476923 -0.040669978 -0.13635586 0.15391184 0.11793398 0.060326494
0.20474319 -0.051626634 0.046606038 -0.07085652 0.11916313 -0.023256589 0.08092692 0.07956142
0.119789265 -0.011668899 0.024603873 0.0678648 -0.13656367 0.058690567 0.071985886 -0.017601786
0.14958377 0.2281955 -0.042802736 0.07911244 0.05791249 0.25390658 0.23987095 0.16022114
0.23201738 0.19111162 0.2123559 0.009601044 0.012459879 -0.063286275 -0.12959354 -0.04106963
-0.13598448 0.15100558 0.0752377 0.059173923 0.0341749 0.100362286 0.15156476 -0.014455918
-0.08795688 -0.11749938 0.024642643 -0.022376066 0.04202857 0.06053832 -0.09979264 0.009228419
0.063174374 0.15879688 0.090625934 0.13686995 0.1203786 0.019218875 0.010889214 0.14020966
0.032502707 -0.00094565545 0.18063292 0.10930661 0.027946644 0.10133216 0.21004894 0.03638972
0.1122874 0.090966836 0.07167834 0.09373529 0.06254627 0.097660005 0.07554035 0.111956336
-0.072589286 0.059574585 -0.0895076 -0.019255564 0.08354079 -0.021758948 -0.05270668 -0.014727974
-0.057737663 0.08343202 0.22541802 0.10777599
00000000: 71e4 22bd 7a60 51bc 9ae0 6fbd 4df5 b5bd
00000010: 0092 953c 1df3 2f3b d965 c63d 905c 873d
00000020: 1340 273d 4d0a 4e3c 28ff 3b3e fc94 8a3d
00000030: 0c56 813d 28ba bfbd fbb2 35bd f80b 873d
00000040: 8100 dc3d d1f3 eebc f419 ccbc 2f24 cdbb
00000050: 9689 243d 5a51 0d3e 287d 1d3e 4c9d 1c3e
00000060: d1f0 233d d75b 243d 1a40 343d aafd e9bc
00000070: e30b 143c 3e03 7cbd df75 adbc cfcd 3c3d
00000080: 24ae 6cbd 8b3a 24bc 82e5 bf3c f126 17bc
00000090: bfcb e9bd 86bd cbbc da25 773d 7be0 b23d
000000a0: 8cae 83bc d5ac 84bd a2a2 1abe 9f1c 95bc
000000b0: 914d b13d 34d9 973d 9999 c9bd 39e3 47bd
000000c0: 084e a93d 1061 653d 1f36 883d 8bd3 273c
000000d0: 2ee4 e8bd 6e30 9bbd cc92 e53c 3af6 4bbc
000000e0: 407f 643d 1794 c1bc c0d8 5a3d 23fe 023d
000000f0: 982d 9b3c 8256 d3bc 1126 533e a5cb 40bd
00000100: 7ec7 6bbd bca8 8a3d 918c 09be 662b f7bd
00000110: 7439 49be 1e7d 22be 26ac b4bd 32cd acbc
00000120: 0b36 c33c bd58 643d 72a6 6d3d 74c4 8d3d
00000130: e1e0 ef3d be62 6c3d deb1 9c3d 93bd cbbd
00000140: 5118 60bc 0d3b b63d ec42 b33d d573 f93d
00000150: 7b24 3b3d 743d b4bc 1eb0 38bc 7a4d cb3d
00000160: 3e5a 093e dd24 083e 22e6 d83c 9095 26bd
00000170: dfa0 0bbe 119b 1d3e 5f87 f13d ea18 773d
00000180: 33a8 513e 7376 53bd f9e5 3e3d 391d 91bd
00000190: cd0b f43d 9a84 bebc 03bd a53d 19f1 a23d
000001a0: 1354 f53d e92e 3fbc 108e c93c b3fc 8a3d
000001b0: 59d7 0bbe 8565 703d 566d 933d 9f31 90bc
000001c0: 7d2c 193e 15ac 693e ec51 2fbd b405 a23d
000001d0: a635 6d3d 0b00 823e bba0 753e 0311 243e
000001e0: f795 6d3e c4b2 433e d373 593e b24d 1d3c
000001f0: 8524 4c3c 3c9c 81bd 2bb4 04be a138 28bd
00000200: 843f 0bbe 35a1 1a3e 3916 9a3d 5b60 723d
00000210: fbfa 0b3d be8a cd3d cb33 1b3e 84d8 6cbc
00000220: bd22 b4bd 84a3 f0bd 5edf c93c 034e b7bc
00000230: 2626 2c3d 08f7 773d 1560 ccbd cb32 173c
00000240: 9161 813d a69b 223e 179a b93d a327 0c3e
00000250: 0e89 f63d e770 9d3c ad68 323c 1f93 0f3e
00000260: 8f21 053d dde5 77ba d6f7 383e 25dc df3d
00000270: 5cf0 e43c 3c87 cf3d 1217 573e 630d 153d
00000280: f0f6 e53d d24c ba3d 18cc 923d 4af8 bf3d
00000290: 4218 803d f801 c83d e6b4 9a3d 5d49 e53d
000002a0: b1a9 94bd 7b04 743d c34f b7bd d8bd 9dbc
000002b0: 6f17 ab3d d23f b2bc f6e2 57bd 9a4d 71bc
000002c0: 547e 6cbd 68de aa3d fbd3 663e a9b9 dc3d

conv3.bias f4 [4]
-0.0005190255 -0.04210157 -0.07802993 -0.07622191
00000000: 360f 08ba b272 2cbd 28ce 9fbd 3c1a 9cbd
