Pytorch/AutoEncoder/saved_models/LittmanNet_cifar10.pt (torch, 229871 bytes, 16 tensors)

conv1.weight f4 [4, 3, 3, 3]
0.070245124 -0.04530655 -0.093397506 -0.06917823 -0.14049113 -0.08915 0.008712472 -0.11533924
-0.09714553 0.049113862 0.04144144 -0.06292072 0.13998382 0.030379454 0.19849467 0.17528802
0.049458902 -0.15549004 0.15958819 -0.10453342 -0.10046203 -0.12004704 0.06218463 -0.12494657
-0.010528733 -0.13660632 -0.010856347 -0.03126911 -0.08902735 0.1861306 -0.10695992 0.11157441
0.023555623 -0.10336784 0.20480603 0.04350723 -0.0674996 0.1629631 0.18150523 -0.09395008
-0.16017212 0.11231717 -0.18377593 -0.038306 -0.07522151 -0.011568507 0.16914703 0.025487868
-0.03938609 -0.0849069 -0.044695176 -0.10372888 0.006638233 0.19955096 0.12285747 0.16255865
-0.1376788 0.123984836 0.043600313 0.13431975 -0.00093472726 0.05192233 0.09831297 -0.013598474
-0.13913481 -0.13001105 -0.05827342 0.090216 0.093722455 0.20034724 0.043287784 -0.13144167
-0.12524144 -0.115686506 -0.12202369 -0.15649953 -0.009479162 0.016998617 0.029676756 -0.11629129
0.18527336 0.026703397 0.14741772 0.15341824 0.07646485 0.090809055 0.14097287 -0.04870093
0.11014698 0.08588289 -0.19540668 -0.1890335 0.059268672 -0.18780638 -0.113303676 -0.0371561
0.022523386 0.024834866 0.15921772 0.014794722 0.06418848 -0.24733394 -0.0832632 -0.11700273
-0.016966041 0.021270433 0.11117016 -0.23287493
00000000: addc 8f3d 5c93 39bd 3147 bfbd 51ad 8dbd
00000010: e8dc 0fbe 4694 b6bd c2be 0e3c fb36 ecbd
00000020: 3cf4 c6bd 9e2b 493d 80be 293d 94dc 80bd
00000030: eb57 0f3e 55de f83c 3042 4b3e b47e 333e
00000040: 6b95 4a3d c838 1fbe 166b 233e 9e15 d6bd
00000050: 09bf cdbd 39db f5bd 50b5 7e3d fde3 ffbd
00000060: b580 2cbc 87e2 0bbe d2de 31bc 0a14 00bd
00000070: f953 b6bd 0599 3e3e cd0d dbbd 2081 e43d
00000080: b9f7 c03c 85b2 d3bd acb8 513e a334 323d
00000090: 3b3d 8abd cddf 263e 82dc 393e e668 c0bd
000000a0: 2904 24be 8b06 e63d c22f 3cbe c1e6 1cbd
000000b0: bc0d 9abd d689 3dbc e134 2d3e efcb d03c
000000c0: 4f53 21bd abe3 adbd 4a12 37bd cf6f d4bd
000000d0: 8985 d93b 1657 4c3e b29c fb3d c675 263e
000000e0: acfb 0cbe c3eb fd3d 3e96 323d 1e8b 093e
000000f0: 7c08 75ba 82ac 543d 4f58 c93d 22cc 5ebc
00000100: 5b79 0ebe 9e21 05be 1cb0 6ebd 2bc3 b83d
00000110: 8ff1 bf3d d427 4d3e 884e 313d a598 06be
00000120: 4b3f 00be 0ced ecbd 8ee7 f9bd 6a41 20be
00000130: 7d4e 1bbc af40 8b3c ab1c f33c 212a eebd
00000140: 4db8 3d3e 15c1 da3c acf4 163e ac19 1d3e
00000150: 9a99 9c3d 19fa b93d 315b 103e a07a 47bd
00000160: bd94 e13d 5ee3 af3d b018 48be ff91 41be
00000170: b5c3 723d 5150 40be c20b e8bd ff30 18bd
00000180: f782 b83c 7d72 cb3c f809 233e 9065 723c
00000190: 4075 833d 1c45 7dbe e685 aabd 219f efbd
000001a0: 5efc 8abc 553f ae3c 2ead e33d c476 6ebe

conv1.bias f4 [4]
0.007376669 0.014509045 0.15448417 -0.13097353
00000000: fcb7 f13b 58b7 6d3c 1931 1e3e ed1d 06be

conv2.weight f4 [5, 4, 3, 3]
-0.17865501 0.14931981 0.14586301 0.05138183 -0.02157178 -0.019181842 0.06766269 0.03878405
0.13825154 0.12992972 -0.05348294 0.030947432 -0.12062501 0.17953618 0.0031113147 0.075631104
0.062172785 0.13005525 -0.0020127594 -0.02330377 -0.009347797 -0.107046075 -0.095958136 -0.0076621575
-0.17147136 0.1395839 0.11159559 -0.02110628 0.070568234 0.20013785 0.024223827 0.067743145
0.049373977 0.18756743 -0.116755754 -0.18112487 -0.03965051 -0.019045344 -0.07515765 -0.0740804
0.038453843 0.055146426 0.025082523 0.032285865 -0.19094928 -0.17761295 -0.04222831 0.049828485
-0.025959913 0.08695396 0.020338425 0.05085825 0.09032819 -0.068426624 -0.1059504 -0.16711949
-0.11155601 -0.07353263 -0.20056835 -0.1717415 -0.07305552 0.09214707 0.025546031 -0.05397164
0.10454605 -0.08103373 0.011411585 -0.043759648 0.0659606 -0.014270875 0.0763904 -0.01753636
-0.13516666 0.14888749 0.1331352 -0.056983467 0.15820414 0.037519146 -0.107884884 -0.08594624
0.046156663 -0.108511336 -0.07851488 0.082729965 0.1283473 -0.14558436 -0.03503681 -0.086646356
0.12580858 0.04356607 0.092335 0.04534568 -0.093290955 0.04482851 -0.0428369 0.15275465
-0.0150077185 0.13469021 -0.121727236 -0.02233944 -0.04270873 -0.08528177 -0.13849103 -0.005527482
-0.046236776 0.028244592 -0.11984659 -0.04781521 0.095241725 0.08334667 0.08121675 0.062594585
0.025341598 0.086290486 -0.17515805 -0.16930644 0.13368131 -0.12932183 -0.09998803 -0.09174743
-0.112815015 0.04694231 -0.17689054 -0.16545446 0.05785254 -0.08256507 -0.18803783 -0.16774249
0.070907764 0.00025343214 0.13451952 -0.047260746 -0.015726935 -0.0036758895 -0.1607697 0.07089983
-0.13688983 0.1154105 -0.03514847 0.053692847 0.13359107 -0.15248713 0.010998314 0.098809235
-0.1752175 0.06870643 -0.04823602 0.034912035 -0.11860462 -0.030601645 -0.042103533 -0.042847425
-0.12389481 0.117338896 -0.006213705 0.057969883 -0.12571673 -0.024171978 0.014135225 -0.12437905
-0.17859863 -0.17303272 0.09130762 -0.071566 -0.06736364 -0.011418128 -0.082984276 0.07530857
0.047350626 -0.054846995 0.09805508 -0.036626127 -0.020653054 -0.03015705 -0.1768206 -1.4102585e-05
-0.10900789 0.11887549 -0.07595094 -0.15471138
00000000: 57f1 36be 4be7 183e 1d5d 153e c175 523d
00000010: 4db7 b0bc 3d23 9dbc bd92 8a3d 06dc 1e3d
00000020: d091 0d3e 4c0c 053e ed10 5bbd 7885 fd3c
00000030: 3f0a f7bd 55d8 373e 33e7 4b3b 7be4 9a3d
00000040: e4a8 7e3d 342d 053e 80e8 03bb 8ce7 bebc
00000050: 8127 19bc f93a dbbd b385 c4bd d612 fbbb
00000060: 3096 2fbe 15ef 0e3e 3b8c e43d 14e7 acbc
00000070: 1486 903d f0f0 4c3e 0c71 c63c ebbc 8a3d
00000080: 5e3c 4a3d ad11 403e a41d efbd cc78 39be
00000090: 9368 22bd fb04 9cbc 41ec 99bd 77b7 97bd
000000a0: c781 1d3d 38e1 613d dd79 cd3c 2f3e 043d
000000b0: 3588 43be 2be0 35be 98f7 2cbd f418 4c3d
000000c0: e2a9 d4bc eb14 b23d c59c a63c be50 503d
000000d0: fcfd b83d 4223 8cbd 86fc d8bd 5f21 2bbe
000000e0: 7a77 e4bd 4798 96bd ca61 4dbe 01dd 2fbe
000000f0: 229e 95bd 9ab7 bc3d e945 d13c 5e11 5dbd
00000100: 3d1c d63d 03f5 a5bd a8f7 3a3c 513d 33bd
00000110: 5a16 873d 63d0 69bc 9272 9c3d 6aa8 8fbc
00000120: 2169 0abe f675 183e 9854 083e 7f67 69bd
00000130: 4400 223e adad 193d c0f2 dcbd 9504 b0bd
00000140: c50e 3d3d 313b debd 69cc a0bd 546e a93d
00000150: 7a6d 033e 1114 15be c282 0fbd a573 b1bd
00000160: f7d3 003e 5672 323d 221a bd3d 64bc 393d
00000170: 540f bfbd 1a9e 373d bf75 2fbd b76b 1c3e
00000180: efe2 75bc 3bec 093e 214c f9bd 3401 b7bc
00000190: 59ef 2ebd 35a8 aebd 98d0 0dbe e11f b5bb
000001a0: c662 3dbd 3461 e73c 2172 f5bd e2d9 43bd
000001b0: 180e c33d a9b1 aa3d f854 a63d 9731 803d
000001c0: 2f99 cf3c 11b9 b03d a25c 33be ab5e 2dbe
000001d0: c1e3 083e f16c 04be 86c6 ccbd 14e6 bbbd
000001e0: 8f0b e7bd 9446 403d cb22 35be e56c 29be
000001f0: c9f6 6c3d e017 a9bd fd8c 40be b0c4 2bbe
00000200: 1738 913d 16df 8439 7cbf 093e 7c94 41bd
00000210: c6d5 80bc 31e7 70bb d0a0 24be ee33 913d
00000220: d92c 0cbe 575c ec3d d8f7 0fbd 08ed 5b3d
00000230: 19cc 083e 9625 1cbe 4632 343c 7f5c ca3d
00000240: 376c 33be f5b5 8c3d 2293 45bd ecff 0e3d
00000250: fbe6 f2bd 4db0 fabc c174 2cbd c880 2fbd
00000260: 90bc fdbd 604f f03d 569c cbbb d471 6d3d
00000270: e3bb 00be 5004 c6bc 6e97 673c 72ba febd
00000280: 8fe2 36be 7d2f 31be 7dff ba3d 3291 92bd
00000290: f3f5 89bd 1a13 3bbc a9f3 a9bd 613b 9a3d
000002a0: bbf2 413d 3ea7 60bd 1ad1 c83d 4705 16bd
000002b0: 9830 a9bc eb0b f7bc 7610 35be 249a 6cb7
000002c0: 873f dfbd fe74 f33d 2b8c 9bbd a96c 1ebe

conv2.bias f4 [5]
-0.110226825 0.11837707 -0.06983296 -0.18343262 -0.1865069
00000000: 9abe e1bd ad6f f23d 9504 8fbd c3d5 3bbe
00000010: aafb 3ebe

fc1.weight f4 [80, 320]
0.011735687 -0.04147789 -0.046706207 0.028734397 -0.047685564 -0.03433817 -0.054339428 -0.048628364
0.00010689012 -0.060534045 0.020790232 0.058952987 0.04447237 -0.021274136 -0.036868278 -0.0060886187
-0.02556194 0.05569593 0.045406774 -0.0060777385 -0.05002124 0.011304946 0.046155054 0.061768454
0.026187558 0.005802677 0.0051220343 -0.02015802 0.024282979 -0.099642105 -0.014221769 -0.016680736
0.07628164 -0.0065503586 0.0011123634 -0.04833805 0.03970393 0.052954778 0.019487552 0.04818053
0.033215463 0.03777053 0.021311654 -0.024090912 0.010646778 0.046497583 0.047642376 -0.011637279
-0.0017196547 0.017626792 0.04717654 0.0447955 -0.043208715 -0.048649635 -0.08523904 0.001752898
0.017848866 -0.038331404 0.03386655 -0.026434604 0.065943874 0.024331335 0.014276225 0.028043646
0.016650341 -0.027332379 0.01218965 -0.022228507 0.008333645 0.0098538725 -0.0150278555 0.07581582
0.043565035 0.040048767 -0.0276897 0.013392979 -0.00855343 0.023311762 -0.010013515 0.047469754
0.016515393 0.07292477 0.03643814 0.08922574 -0.0020425913 0.099877186 0.05120597 -0.02862214
-0.0030609996 -0.011500215 0.061118517 0.042320978 -0.01107298 0.011032495 0.030071778 0.04237351
-0.030951463 -0.0016306636 0.036935434 -0.043139145 -0.029067645 -0.051074978 0.013560672 -0.02022853
-0.031000601 -0.032462195 0.04631645 0.0769811 0.02199757 0.0042937985 0.025391825 0.051404726
-0.012653189 -0.038167592 0.007272956 -0.006185611 0.040899254 0.021563409 -0.057445943 -0.037764054
0.038523283 0.05158258 -0.0007046463 0.057420377 -0.05500285 -0.00938222 0.01610013 -0.022036554
1.568155e-05 0.0029378377 -0.014286724 -0.047593657 -0.038968343 -0.036200367 0.051466014 0.013290148
-0.017835686 0.034650713 0.011891219 0.047545683 -0.010699265 0.035106692 0.031284552 -0.020541929
0.06019417 0.02485379 0.04284445 0.05456474 0.022589117 -0.031790957 0.07728767 0.0054468685
0.060684975 0.008733235 -0.029483091 -0.017392054 -0.038676716 0.058382865 -0.035001554 -0.053843495
0.014126913 0.022928797 0.07169052 0.034599803 -0.026093572 0.049071707 0.037014365 0.020831421
0.04079883 0.069597095 0.02756636 0.01947226 0.040205535 0.04300804 0.0149683505 0.070668235
0.08352976 0.065827735 0.030758353 0.0024761287 -0.028028917 0.048779003 0.030488597 0.07791102
0.061848722 0.029871713 0.032999758 0.040950764 0.04611792 0.0059224544 0.036122963 -0.023174735
-0.059185706 0.0037517508 -0.039012175 0.027942782 0.0108767515 -0.03125901 0.046484917 -0.042127322
0.034260705 0.05737177 0.05857672 0.049439434 0.037194636 0.0058990833 -0.013763748 0.008780946
0.020277554 0.056399547 0.048475273 0.027152656 -0.019534165 -0.042487096 0.05375587 0.0018047354
0.005183673 -0.043992948 -0.04745081 -0.010357587 -0.038828284 -0.045995202 0.02470627 0.021165023
-0.011111777 0.031393904 0.031038124 0.0793415 -0.015402423 -0.005299852 -0.018344978 -0.0019622848
0.03679513 0.04254541 0.06847511 0.001081507 0.016992183 0.018947367 -0.017392486 -0.04281276
0.03836328 -0.036697645 -0.029914688 0.0077848923 -0.026697673 -0.031563267 -0.027609838 0.027989855
0.06347446 0.027094675 0.0099489 0.040316947 -0.025295082 0.050061546 -0.026251998 -0.015154416
00000000: 0a47 403c b8e4 29bd 024f 3fbd 6664 eb3c
00000010: f051 43bd 2ea6 0cbd 0593 5ebd 892e 47bd
00000020: 322a e038 8cf2 77bd 4750 aa3c b078 713d
00000030: a928 363d 1947 aebc 3103 17bd 0983 c7bb
00000040: 4667 d1bc 6a21 643d 74fc 393d c427 c7bb
00000050: 12e3 4cbd 6138 393c 150d 3d3d eb00 7d3d
00000060: 4a87 d63c 6224 be3b bdd6 a73b 6f22 a5bc
00000070: 19ed c63c 2911 ccbd 6c02 69bc 0aa6 88bc
00000080: 8c39 9c3d 64a4 d6bb b9cc 913a 1efe 45bd
00000090: 97a0 223d 1ce7 583d 5ca4 9f3c f358 453d
000000a0: f00c 083d 45b5 1a3d c795 ae3c 4e5a c5bc
000000b0: d36f 2e3c 4074 3e3d a724 433d 49aa 3ebc
000000c0: 0966 e1ba 1066 903c 303c 413d 7c7b 373d
000000d0: 9ffb 30bd d744 47bd ce91 aebd 7fc1 e53a
000000e0: c937 923c 6401 1dbd a7b7 0a3d 628d d8bc
000000f0: 950d 873d 8252 c73c d4e6 693c cabb e53c
00000100: 4c66 883c 27e8 dfbc 19b7 473c 8f18 b6bc
00000110: d789 083c 2372 213c 6537 76bc 5345 9b3d
00000120: 4071 323d 2d0a 243d 82d5 e2bc 3a6e 5b3c
00000130: b023 0cbc 4ff8 be3c ba0f 24bc a56f 423d
00000140: 4a4b 873c 9559 953d 2940 153d fcbb b63d
00000150: ffdc 05bb 698c cc3d 5abd 513d fa78 eabc
00000160: 0d9b 48bb 666b 3cbc 6957 7a3d c358 2d3d
00000170: 726b 35bc a3c1 343c 1759 f63c d88f 2d3d
00000180: ec8d fdbc febb d5ba 9c49 173d acb2 30bd
00000190: 451f eebc ff33 51bd 952d 5e3c 4db6 a5bc
000001a0: f9f4 fdbc 14f7 04bd 51b6 3d3d 44a8 9d3d
000001b0: 3f34 b43c feb2 8c3b 8402 d03c c38d 523d
000001c0: 524f 4fbc 9f55 1cbd fa51 ee3b aab0 cabb
000001d0: fa85 273d bfa5 b03c 704c 6bbd 7bae 1abd
000001e0: 97ca 1d3d 4148 533d 03b8 38ba a131 6b3d
000001f0: ab4a 61bd e2b7 19bc 6be4 833c 0186 b4bc
00000200: df8b 8337 bd88 403b dd12 6abc 91f1 42bd
00000210: 459d 1fbd d646 14bd 07ce 523d ecbe 593c
00000220: 251c 92bc e8ed 0d3d 63d3 423c 43bf 423d
00000230: f84b 2fbc 09cc 0f3d 3b24 003d 8c47 a8bc
00000240: 298e 763d 2d9a cb3c a97d 2f3d 477f 5f3d
00000250: d00c b93c 3c37 02bd ff48 9e3d a57b b23b
00000260: cf90 783d d815 0f3c 8686 f1bc c879 8ebc
00000270: 7a6b 1ebd df22 6f3d ca5d 0fbd ff8a 5cbd
00000280: 9174 673c 2cd5 bb3c 7bd2 923d 86b8 0d3d
00000290: 30c2 d5bc 6aff 483d 609c 173d a8a6 aa3c
000002a0: ad1c 273d ec88 8e3d d9d2 e13c 4a84 9f3c
000002b0: 8fae 243d 3329 303d d03d 753c 82ba 903d
000002c0: a711 ab3d b1d0 863d f1f8 fb3c 8c46 223b
000002d0: e69c e5bc 7ecc 473d 39c3 f93c d08f 9f3d
000002e0: 1655 7d3d 86b5 f43c c12a 073d fdbb 273d
000002f0: 25e6 3c3d 2611 c23b acf5 133d f1d8 bdbc
00000300: b66c 72bd efdf 753b 3bcb 1fbd 43e8 e43c
00000310: 6734 323c 7309 00bd f866 3e3d b38d 2cbd
00000320: f454 0c3d a9fe 6a3d 25ee 6f3d 0181 4a3d
00000330: 6759 183d 194d c13b 5881 61bc f5dd 0f3c
00000340: 1d1d a63c 3603 673d 028e 463d 3f6f de3c
00000350: 1d06 a0bc f306 2ebd 1d2f 5c3d df8c ec3a
00000360: cddb a93b f331 34bd c85b 42bd deb2 29bc
00000370: 680a 1fbd 7765 3cbd ce64 ca3c 4562 ad3c
00000380: 2c0e 36bc e596 003d aa43 fe3c cc7d a23d
00000390: 725a 7cbc 62aa adbb 3548 96bc ad99 00bb
000003a0: 7eb6 163d 1944 2e3d ae3c 8c3d 5ac1 8d3a
000003b0: 3133 8b3c 8237 9b3c b07a 8ebc 6f5c 2fbd
000003c0: d122 1d3d 4550 16bd a60f f5bc 6918 ff3b
000003d0: 14b5 dabc 7c48 01bd 072e e2bc fb4a e53c
000003e0: e6fe 813d a7f5 dd3c b600 233c 6223 253d
000003f0: a237 cfbc 560d 4d3d 6e0e d7bc 3a4a 78bc

fc1.bias f4 [80]
0.010518615 -0.08396201 0.0021123202 0.09763722 -0.048685577 -0.010046506 0.024680149 0.062234685
0.06536385 0.05799828 0.068499535 0.05104863 -0.0015917687 -0.041546136 -0.028861478 -0.00552647
-0.022366066 0.0024333212 -0.006628957 -0.018376121 -0.054025613 0.04163596 -0.047891855 -0.00079465494
-0.0002740865 0.033341896 -0.028033191 -0.03603388 -0.06315897 -0.08269656 -0.06838991 -0.039045084
-0.05235185 -0.034847382 -0.038989138 0.03532665 0.009517958 -0.03499016 0.030717192 0.0006417515
-0.021886652 -0.059968833 0.009488365 -0.018237371 -0.055713564 0.06979489 -0.054437455 -0.0021939639
-0.028339386 0.026486075 0.045990244 -0.021117758 -0.02068536 0.0010683151 0.060990505 -0.058156513
-0.022003366 -0.06378774 -0.02442882 -0.05641568 0.03656726 0.023743594 -0.060567748 0.003877789
-0.0318727 0.009440796 -0.035900377 0.03386319 -0.043057084 0.0777042 -0.032904662 0.06412059
-0.047798008 0.058796853 -0.06358889 -0.03192587 -0.050667647 0.0022613169 -0.02415505 0.0015678256
00000000: 4556 2c3c 46f4 abbd da6e 0a3b 06f6 c73d
00000010: 876a 47bd 1a9a 24bc 062e ca3c cce9 7e3d
00000020: 7bdd 853d 9b8f 6d3d 7c49 8c3d 5e18 513d
00000030: e5a2 d0ba 482c 2abd e86e ecbc 6417 b5bb
00000040: 0a39 b7bc 5b78 1f3b b937 d9bb 8589 96bc
00000050: f649 5dbd 788a 2a3d 402a 44bd 6450 50ba
00000060: 44b3 8fb9 8391 083d dda5 e5bc 4398 13bd
00000070: 7d59 81bd d05c a9bd 0210 8cbd bded 1fbd
00000080: e56e 56bd 21bc 0ebd 13b3 1fbd adb2 103d
00000090: 36f1 1b3c d851 0fbd 9fa2 fb3c 373b 283a
000000a0: a34b b3bc e1a1 75bd 1675 1b3c 8a66 95bc
000000b0: e833 64bd a0f0 8e3d cff9 5ebd 9bc8 0fbb
000000c0: 0028 e8bc 53f9 d83c 4460 3c3d 26ff acbc
000000d0: 5874 a9bc b506 8c3a 2ed1 793d 8635 6ebd
000000e0: 6740 b4bc 26a3 82bd f31e c8bc 2114 67bd
000000f0: 8dc7 153d ed81 c23c e315 78bd 8122 7e3b
00000100: f38c 02bd 92ad 1a3c 460c 13bd 21b4 0a3d
00000110: a05c 30bd 6123 9f3d 0ac7 06bd a851 833d
00000120: d8c7 43bd f8d4 703d e43a 82bd b3c4 02bd
00000130: e188 4fbd 9a32 143b d0e0 c5bc 7f7f cd3a

fc2.weight f4 [24, 80]
0.100080915 0.0012428972 0.002919371 0.024164986 -0.018105222 -0.10192817 0.08429611 0.11360505
0.052898634 -0.03710977 -0.013541252 -0.058509354 0.0059942137 0.006906908 -0.11423816 -0.047502544
-0.039958328 0.14297237 0.026550183 0.073867805 0.007002416 0.019261336 -0.058450278 -0.13545744
-0.100585476 -0.010100345 -0.08091341 0.022255896 -0.07176465 -0.0027261449 -0.05595843 -0.12656572
-0.013157671 -0.009825724 0.10909262 0.0135532785 0.09035472 0.007156633 -0.07940677 -0.012482203
0.011105193 -0.017527908 0.030023873 -0.07395138 -0.11372487 0.09595587 0.039272256 0.0992695
0.04815042 0.08222534 -0.089823 0.06926179 -0.07755366 0.05193209 -0.07672574 -0.07891041
0.016342353 -0.028543727 0.057409167 -0.0022248914 -0.10792062 -0.05197566 -0.083476275 0.041715305
0.09612331 -0.09142387 0.11175072 0.057168297 -0.12887579 -0.049416818 0.028459016 0.091162615
0.034215882 0.08327205 0.06889357 -0.056370884 0.016157396 0.13139063 -0.09883828 -0.08585497
0.054195985 0.041660223 -0.024245623 -0.14404011 -2.9001194e-06 -0.05225314 -0.08167025 -0.056924656
-0.02617804 0.026508745 -0.00689991 -0.04141008 -0.10044886 0.036931787 0.049281288 0.01448716
-0.08619232 -0.12687759 0.05579563 0.047095474 -0.06032469 -0.018233115 -0.043291904 -0.11684818
-0.012121751 -0.057502892 0.07278601 -0.070984386 -0.07307777 -0.0108029535 -0.09250338 0.07291195
-0.012151063 -0.044178553 -0.137864 0.0051939082 0.024957778 0.085356265 -0.049103025 0.00371582
0.039025396 -0.04497747 0.055216976 -0.020297281 -0.013213567 -0.08980344 -0.097638324 -0.03609504
-0.09665207 -0.14926313 -0.07539725 0.09459509 0.058396637 -0.06754467 -0.054314177 0.0108921295
0.0016806823 0.05054967 0.052707788 0.005700521 -0.11604497 -0.04715724 0.04753739 -0.07258115
-0.00528933 0.03003401 -0.018873587 -0.08371365 0.094196156 -0.05153983 -0.06610237 0.04206001
0.13269746 0.01194835 -0.016223831 0.020076688 -0.01830712 -0.049204417 -0.049697004 -0.035232015
-0.08096976 0.07265966 -0.13096 -0.104573734 0.058812696 0.12421914 -0.048820373 -0.09615585
-0.098599486 -0.034876917 -0.03826279 0.01892144 -0.15495811 -0.05944312 0.06323467 -0.015356588
-0.01830476 -0.0374607 -0.051597934 0.054552425 0.026227474 -0.108776815 9.626895e-05 0.0051368787
-0.0015384167 -0.068649 0.059232958 -0.057960745 -0.0065360405 0.029528864 0.0039295354 -0.09751572
-0.12628423 0.06439761 -0.07816247 0.021930568 0.07764053 -0.08116524 -0.005582427 0.061655823
0.054662637 -0.052911878 0.0811076 -0.024943035 -0.018709973 0.07648245 -0.12201881 -0.007156889
0.0419193 -0.034574784 -0.09974766 0.07486251 0.07956948 -0.042535547 0.022365334 -0.04391199
0.054091215 0.085681826 0.079222105 0.034364797 0.05087282 -0.11009392 0.06493378 -0.037850805
-0.0656733 -0.055876724 0.077788934 -0.07669987 -0.03571086 -0.016564855 -0.019840723 0.0701218
-0.071737364 0.04545794 -0.014683339 0.138552 -0.07001865 0.02437347 -0.0016418225 0.09806695
-0.00065064745 0.03968115 -0.038686976 0.041914362 0.044585414 0.00011000046 0.02930869 -0.031183893
0.025701793 0.019760242 -0.0949491 -0.03666247 -0.016977437 0.10560377 0.10131519 -0.0533637
00000000: 39f7 cc3d b6e8 a23a eb52 3f3b a6f5 c53c
00000010: 6751 94bc b7bf d0bd 70a3 ac3d c4a9 e83d
00000020: 3dac 583d 6a00 18bd 21dc 5dbc 81a7 6fbd
00000030: 1c6b c43b 5853 e23b b2f5 e9bd 0792 42bd
00000040: 58ab 23bd 5967 123e c57f d93c 0148 973d
00000050: 8674 e53b f3c9 9d3c 8f69 6fbd 5bb5 0abe
00000060: c2ff cdbd eb7b 25bc eeb5 a5bd ff51 b63c
00000070: 58f9 92bd 1fa9 32bb ab34 65bd 729a 01be
00000080: 4693 57bc 13fc 20bc f46b df3d 920e 5e3c
00000090: e50b b93d 3082 ea3b 04a0 a2bd 2782 4cbc
000000a0: 8ef2 353c b096 8fbc a0f4 f53c d273 97bd
000000b0: 96e8 e8bd 8384 c43d f2db 203d cf4d cb3d
000000c0: 6039 453d c265 a83d 1ff5 b7bd 20d9 8d3d
000000d0: 74d4 9ebd beb6 543d 6322 9dbd c89b a1bd
000000e0: 66e0 853c 89d4 e9bc e025 6b3d 7ccf 11bb
000000f0: 7c05 ddbd 6ee4 54bd 9cf5 aabd abdd 2a3d
00000100: 4cdc c43d 703c bbbd 90dd e43d 4e29 6a3d
00000110: 04f8 03be 4a69 4abd e222 e93c 77b3 ba3d
00000120: f425 0c3d 898a aa3d 1218 8d3d 28e5 66bd
00000130: 845c 843c 448b 063e b96b cabd bbd4 afbd
00000140: 9cfc 5d3d e9a3 2a3d c29e c6bc 407f 13be
00000150: ac9f 42b6 6307 56bd bb42 a7bd d429 69bd
00000160: 5473 d6bc de28 d93c a418 e2bb 9e9d 29bd
00000170: 22b8 cdbd c945 173d 2ddb 493d 8e5b 6d3c
00000180: 9985 b0bd 33ec 01be f589 643d 2fe7 403d
00000190: 0617 77bd 9d5d 95bc da52 31bd 194e efbd
000001a0: 4f9a 46bc 2788 6bbd d510 953d 4360 91bd
000001b0: cca9 95bd dffe 30bc 6972 bdbd dc52 953d
000001c0: 4115 47bc 92f4 34bd 382c 0dbe a931 aa3b
000001d0: 4174 cc3c 44cf ae3d 4120 49bd 1d85 733b
000001e0: 18d9 1f3d 4c3a 38bd 322b 623d 7c46 a6bc
000001f0: b87d 58bc deea b7bd 9af6 c7bd 65d8 13bd
00000200: 85f1 c5bd 6fd8 18be e069 9abd 12bb c13d
00000210: 5031 6f3d dc54 8abd 8b78 5ebd e774 323c
00000220: 574a dc3a 2c0d 4f3d 1fe4 573d 70cb ba3b
00000230: fca8 edbd f327 41bd 91b6 423d 6da5 94bd
00000240: 1e52 adbb e209 f63c c89c 9abc 1072 abbd
00000250: eae9 c03d 6e1b 53bd ae60 87bd 1e47 2c3d
00000260: d8e1 073e 03c3 433c d7e7 84bc de77 a43c
00000270: d0f8 95bc 928a 49bd 168f 4bbd 724f 10bd
00000280: 79d3 a5bd 96ce 943d 611a 06be c12a d6bd
00000290: 95e5 703d 9b66 fe3d dff7 47bd 5ced c4bd
000002a0: 87ee c9bd 19db 0ebd 71b9 1cbd 2301 9b3c
000002b0: 57ad 1ebe a17a 73bd 2e81 813d 339a 7bbc
000002c0: ddf3 95bc 6470 19bd 5b58 53bd 5d72 5f3d
000002d0: 00db d63c 61c6 debd 00e4 c938 4353 a83b
000002e0: b3a4 c9ba d997 8cbd 429e 723d 3f68 6dbd
000002f0: 482c d6bb 84e6 f13c 55c3 803b 52b6 c7bd
00000300: a750 01be e5e2 833d a513 a0bd bca7 b33c
00000310: 0002 9f3d f639 a6bd cbec b6bb d18a 7c3d
00000320: eee5 5f3d 20ba 58bd be1b a63d 5655 ccbc
00000330: a845 99bc d5a2 9c3d ffe4 f9bd 5684 eabb
00000340: 92b3 2b3d 4a9e 0dbd 8048 ccbd 8451 993d
00000350: 53f5 a23d c139 2ebd 8137 b73c 0fdd 33bd
00000360: c08e 5d3d f479 af3d 333f a23d 1ac2 0c3d
00000370: 0560 503d ec78 e1bd 00fc 843d 7209 1bbd
00000380: b97f 86bd fede 64bd ce4f 9f3d d214 9dbd
00000390: 8d45 12bd 05b3 87bc 0389 a2bc 059c 8f3d
000003a0: 0aeb 92bd 1b32 3a3d 6392 70bc 93e0 0d3e
000003b0: f065 8fbd dfaa c73c 6c32 d7ba 53d7 c83d
000003c0: 3690 2aba b488 223d 3c76 1ebd 65ae 2b3d
000003d0: 329f 363d 0cb0 e638 c718 f03c 5d75 ffbc
000003e0: 918c d23c 3be0 a13c ac74 c2bd 632b 16bd
000003f0: 4414 8bbc ca46 d83d 577e cf3d e593 5abd

fc2.bias f4 [24]
0.11383274 0.006560387 0.110055946 0.012936014 0.0835518 -0.06352093 -0.045833834 -0.13204469
-0.03632602 -0.055287916 0.02669537 0.033418547 0.050016716 0.11678866 -0.019210156 0.09409092
0.004541349 0.003861654 0.09327813 -0.03069101 0.004330397 0.035276923 0.040778764 -0.10554378
00000000: 2421 e93d 84f8 d63b 0365 e13d 93f1 533c
00000010: 351d ab3d 4317 82bd 42bc 3bbd b936 07be
00000020: 98ca 14bd 9575 62bd 40b0 da3c e3e1 083d
00000030: 54de 4c3d e52e ef3d 9e5e 9dbc beb2 c03d
00000040: 99cf 943b ce13 7d3b 9b08 bf3d b76b fbbc
00000050: 01e6 8d3b 897e 103d a207 273d 5627 d8bd

fc3.weight f4 [80, 24]
-0.06174784 -0.15405771 -0.12747724 -0.14057845 -0.12581222 -0.16081604 0.026284218 -0.140274
0.16512927 -0.14245391 -0.09707028 -0.06010004 0.051055394 0.19187286 -0.026765525 0.15872872
0.04268773 0.18461487 -0.16173883 -0.10725499 -0.008351414 0.046666563 0.1309292 -0.028919965
0.020184556 -0.12761416 -0.17933638 0.010172786 0.16687915 0.016829122 -0.06848726 -0.12781587
0.053579956 0.19910783 -0.027435869 0.20009764 0.1119486 0.0617206 0.12509088 0.051158585
0.10075265 0.052856013 0.16970238 0.15383732 0.028152332 0.058524475 -0.15447763 -0.075396076
0.0118872635 -0.07834158 -0.041255 0.0052344436 -0.11591856 -0.07703533 -0.009822115 0.034386635
0.17719397 0.19077072 -0.07880543 0.12407099 -0.21313615 -0.04147715 0.13333067 0.08614664
0.10207711 0.051153507 0.10702516 -0.17306405 -0.07441253 0.028041065 -0.2046726 0.16349381
-0.02083096 -0.027275335 -0.11051727 -0.1564652 0.047546294 -0.05418759 -0.18332264 -0.22544184
-0.14458819 -0.047766775 -0.13341534 0.20788252 0.14379264 -0.094468966 -0.031221705 0.06923663
-0.10444665 -0.014135508 -0.057844386 -0.051341616 0.019293042 0.10446609 -0.1289866 0.07358107
0.19717737 0.01709281 0.1907559 -0.17045131 0.22211653 -0.15647744 -0.052029923 -0.06423447
-0.18180752 0.19400778 0.17051929 0.07338404 2.0162908e-05 0.033630528 0.18197827 -0.03278059
-0.010692602 0.13374123 0.15407626 0.007839826 -0.046334874 -0.06482495 -0.01442567 -0.19595903
-0.12967733 0.0008764267 -0.15170771 -0.1664297 -0.025495768 0.19593847 0.020930767 -0.08020432
0.13985977 0.19723684 0.1764909 -0.15121433 0.0370031 -0.10232775 -0.047379553 -0.15286022
-0.10466138 0.13436663 0.09069857 -0.003106147 -0.158442 0.18995082 0.018056259 -0.16598831
-0.12042578 0.08562082 -0.1403943 -0.077319056 0.10593739 0.06636292 -0.1434784 0.16288695
0.020852268 0.03635578 -0.07724084 -0.07164124 -0.124353215 -0.16342103 -0.19922423 0.079643816
0.12988684 -0.080323726 -0.17428325 0.036646366 0.05819401 -0.11256035 0.12925154 0.19898617
-0.12650767 0.050541274 0.03479021 -0.21832058 -0.14749081 0.07262418 -0.027971208 -0.0036322759
0.09120178 -0.08181388 -0.10263922 0.15555368 0.020442981 0.11836337 -0.13690099 -0.05035435
-0.043055482 -0.08894992 0.065988444 -0.18456979 0.028464422 0.054667916 0.06362889 0.14434373
0.2040939 0.14833274 -0.13300043 0.073057026 -0.12824762 -0.10738513 -0.07188496 0.20363903
0.0764873 -0.03233099 -0.20173414 0.080581576 -0.061678156 0.0026386082 -0.18061121 -0.2002214
-0.09844705 -0.010918438 0.12870562 -0.14692023 0.042593673 -0.1143191 0.06873682 0.016326308
0.22117831 -0.0766929 0.06412689 0.15238044 -0.14063716 -0.020799836 -0.1983303 -0.01347304
-0.19956262 -0.06956436 -0.16237411 0.06684721 0.17911328 0.04099561 0.10329792 -0.090889156
-0.0021281077 -0.16274786 0.18748595 -0.0079586515 -0.2073089 -0.027934527 -0.18668163 0.14390635
-0.13765398 0.13990203 0.19212317 -0.011005849 0.19032109 -0.19083928 -0.0806214 -0.05923164
0.16121581 0.06411064 -0.11778743 0.18265557 -0.10158609 0.009694487 -0.12232691 0.16557494
00000000: 4eeb 7cbd 4ec1 1dbe 6589 02be ccf3 0fbe
00000010: ebd4 00be f6ac 24be 0052 d73c fda3 0fbe
00000020: a617 293e 70df 11be c8cc c6bd 762b 76bd
00000030: 761f 513d 527a 443e 6043 dbbc c889 223e
00000040: 54d9 2e3d ae0b 3d3e dd9e 25be 81a8 dbbd
00000050: 5fd4 08bc 7025 3f3d 4e12 063e 90e9 ecbc
00000060: 155a a53c 49ad 02be f5a3 37be c2ab 263c
00000070: 5ee2 2a3e 3add 893c 0c43 8cbd 2ae2 02be
00000080: a876 5b3d ece2 4b3e 30c1 e0bc 65e6 4c3e
00000090: 4f45 e53d bdce 7c3d d317 003e aa8b 513d
000000a0: 6857 ce3d 8c7f 583d 76c6 2d3e 8887 1d3e
000000b0: b89f e63c 5cb7 6f3d 622f 1ebe 4269 9abd
000000c0: ccc2 423c 8d71 a0bd 01fb 28bd b285 ab3b
000000d0: b666 edbd b3c4 9dbd f0ec 20bc 00d9 0c3d
000000e0: 5672 353e 6659 433e be64 a1bd ee18 fe3d
000000f0: 5d40 5abe f2e3 29bd d687 083e a66d b03d
00000100: ce0d d13d 5786 513d 0230 db3d b437 31be
00000110: 9965 98bd 60b6 e53c b295 51be ec6a 273e
00000120: b0a5 aabc 8670 dfbc e156 e2bd 6a38 20be
00000130: e7bf 423d cef3 5dbd eeb8 3bbe 3ada 66be
00000140: ed0e 14be 18a7 43bd 089e 08be 28df 543e
00000150: 613e 133e f278 c1bd a9c4 ffbc efcb 8d3d
00000160: 20e8 d5bd 9e98 67bc 3cee 6cbd 964b 52bd
00000170: 710c 9e3c 51f2 d53d 1015 04be acb1 963d
00000180: dde8 493e 3806 8c3c 8455 433e ca8a 2ebe
00000190: 8472 633e 9f3b 20be 541d 55bd 5d8d 83bd
000001a0: c02b 3abe faa9 463e 9c9c 2e3e 5f4a 963d
000001b0: 8423 a937 2ac0 093d 8358 3a3e f144 06bd
000001c0: 0630 2fbc 76f3 083e 2bc6 1d3e 9d72 003c
000001d0: a3c9 3dbd f2c2 84bd a559 6cbc 7ca9 48be
000001e0: 22ca 04be 00c0 653a 4459 1bbe 8c6c 2abe
000001f0: 80dc d0bc 18a4 483e 0077 ab3c 2a42 a4bd
00000200: 6637 0f3e 74f8 493e 08ba 343e eed7 1abe
00000210: 9090 173d 3691 d1bd 1011 42bd 6487 1cbe
00000220: b558 d6bd 6897 093e 2cc0 b93d 8090 4bbb
00000230: 9f3e 22be 7882 423e b8ea 933c d7f8 29be
00000240: cba1 f6bd f859 af3d 86c3 0fbe 7459 9ebd
00000250: b4f5 d83d 48e9 873d 00ec 12be d6cb 263e
00000260: 60d2 aa3c cce9 143d 7230 9ebd a4b8 92bd
00000270: e6ac febd d857 27be 7001 4cbe 4c1c a33d
00000280: 0e01 053e c480 a4bd 4f77 32be 801a 163d
00000290: d85c 6e3d 0a86 e6bd 845a 043e 08c3 4b3e
000002a0: 3a8b 01be 5e04 4f3d 2e80 0e3d 6e8f 5fbe
000002b0: d507 17be fcbb 943d e023 e5bc 7a0b 6ebb
000002c0: 00c8 ba3d 098e a7bd 8334 d2bd 7749 1f3e
000002d0: 0a78 a73c 7f68 f23d c62f 0cbe 5d40 4ebd
000002e0: f25a 30bd 602b b6bd f324 873d ddff 3cbe
000002f0: 382e e93c 77eb 5f3d dd4f 823d d8ce 133e
00000300: fefd 503e 8ae4 173e 4431 08be ec9e 953d
00000310: 5853 03be bcec dbbd 6c38 93bd c086 503e
00000320: 60a5 9c3d 806d 04bd 6593 4ebe f407 a53d
00000330: 3ca2 7cbd 80ec 2c3b 25f2 38be d706 4dbe
00000340: 9b9e c9bd 40e3 32bc 68cb 033e 4272 16be
00000350: b476 2e3d 2220 eabd e4c5 8c3d c0be 853c
00000360: 917c 623e 2b11 9dbd f554 833d 9e09 1c3e
00000370: 3003 10be 6b64 aabc 1917 4bbe 07be 5cbc
00000380: 255a 4cbe c277 8ebd 6645 26be 31e7 883d
00000390: 7969 373e 03eb 273d dc8d d33d 1824 babd
000003a0: b977 0bbb 60a7 26be 51fc 3f3e 0165 02bc
000003b0: c948 54be f3d6 e4bc 7829 3fbe 305c 133e
000003c0: 2af5 0cbe 7a42 0f3e f0bb 443e e051 34bc
000003d0: 88e3 423e 5f6b 43be d51c a5bd e09c 72bd
000003e0: c215 253e 704c 833d 893a f1bd 100a 3b3e
000003f0: 5e0c d0bd a0d5 1e3c 8886 fabd 7a8c 293e

fc3.bias f4 [80]
0.119243935 0.18126738 -0.03562177 0.1186716 0.09291747 -0.18643771 -0.16113618 -0.059090953
-0.12345492 0.021243608 -0.026323706 -0.07923772 -0.16593899 0.012020704 0.14296404 0.0026652075
-0.19164184 -0.10220729 0.023364015 -0.14799298 -0.16233054 -0.09348337 -0.07643795 -0.13095897
0.080040954 0.22213112 -0.15577048 0.1967831 0.19580236 -0.06979948 -0.03581494 -0.106419645
0.110250704 0.08316724 0.064494334 0.22812882 0.23217376 0.10741333 0.13550729 0.16953301
-0.05467029 -0.15338658 0.059598185 -0.024688156 -0.16698556 0.12311827 -0.012285098 0.17713931
0.19097841 -0.12468782 -0.098938905 -0.0070822835 -0.1639442 0.019066833 -0.07603198 0.0078004682
-0.021175668 0.22424404 -0.20144747 0.13477038 0.19030291 0.03480561 0.17441706 0.013565936
-0.04822567 0.15077396 -0.12844966 -0.112500004 0.12355574 0.0755541 -0.15462586 -0.12846158
-0.022466103 -0.09386838 0.19032471 0.20832862 -0.20110337 0.06560019 0.16246034 0.15259486
00000000: 2a36 f43d 289e 393e 22e8 11bd 190a f33d
00000010: 844b be3d 87e9 3ebe e200 25be 5b09 72bd
00000020: efd5 fcbd 1307 ae3c d0a4 d7bc 6347 a2bd
00000030: e9eb 29be 7df2 443c 2a65 123e c3aa 2e3b
00000040: c23d 44be 0e52 d1bd e465 bf3c 798b 17be
00000050: fa39 26be 3674 bfbd 808b 9cbd 1c1a 06be
00000060: 83ec a33d 5776 633e 4c82 1fbe 8281 493e
00000070: 6a80 483e 08f3 8ebd b0b2 12bd 8bf2 d9bd
00000080: 1fcb e13d 9653 aa3d 9b15 843d 9a9a 693e
00000090: f5be 6d3e 85fb db3d 6cc2 0a3e 109a 2d3e
000000a0: f4ed 5fbd 5f11 1dbe 3a1d 743d d13e cabc
000000b0: 43fe 2abe 6e25 fc3d 7047 49bc 0264 353e
000000c0: d88f 433e 545c ffbd 7ba0 cabd 8012 e8bb
000000d0: fde0 27be 0c32 9c3c a8b6 9bbd 129b ff3b
000000e0: 9878 adbc 3ba0 653e 3f48 4ebe 3f01 0a3e
000000f0: c4de 423e 5490 0e3d 639a 323e a943 5e3c
00000100: 4888 45bd 7d64 1a3e 4f88 03be 6766 e6bd
00000110: cb0a fd3d 1cbc 9a3d 3e56 1ebe 6f8b 03be
00000120: d50a b8bc 113e c0bd 7be4 423e 1954 553e
00000130: 0bee 4dbe 6459 863d 015c 263e d441 1c3e

fc4.weight f4 [320, 80]
-0.123837166 -0.02981202 -0.09027198 -0.06162183 -0.079857886 -0.087652214 -0.10248317 -0.023560705
0.046734214 0.040171698 0.077736184 -0.09679674 0.026442915 -0.026287727 0.025250176 0.05959858
0.08178297 -0.08536858 -0.009695412 0.0070269927 0.10926609 0.074773744 -0.099980675 0.10918556
0.096425936 -0.10728125 0.06734373 -0.08385731 0.08447898 -0.07541621 3.450364e-05 0.11137429
0.063437894 0.075563535 0.045386143 0.025605172 -0.07595361 0.023398519 0.030776992 0.0017953111
0.027554065 -0.017158218 -0.005279998 0.043745995 -0.07414274 0.072898105 0.057929188 -0.02202682
0.031577393 0.056505084 -0.003216274 -0.024797045 0.048907652 0.01828315 -0.05155813 0.012224205
0.014422104 0.059325848 -0.06349366 -0.032307517 0.065222986 0.0994242 -0.002693653 0.10257894
0.10419874 -0.011537392 0.087820515 -0.08472184 -0.03475551 0.08541442 -0.0338545 -0.004601203
0.08068551 -0.030984394 -0.08181241 -0.11994222 -0.020672478 -0.10516974 0.0030254093 0.0018589487
0.0938611 0.08119984 -0.101301186 0.08809386 0.061599612 0.05941534 -0.004859723 0.09015831
0.01912561 0.06224309 0.05840695 0.056189403 0.006824121 -0.0123606175 0.011060953 0.08160734
-0.102148935 0.043323964 -0.016769625 0.021961898 0.030460462 0.029820323 0.09406227 0.04209344
0.06974821 -0.102714166 0.09532741 -0.093553945 -0.09467943 0.09461939 -0.029695526 0.08597484
-0.07183261 -0.008728869 -0.07974495 0.087901264 -0.08911123 -0.035912424 -0.043194577 -0.063779145
-0.098653 0.082960844 -0.052592076 -0.053577803 0.08724955 0.090791166 0.080013365 -0.05122545
0.06439762 0.053754434 0.10313201 -0.0113686025 -0.057156224 -0.07574851 -0.054693796 0.06492098
-0.0765174 0.073544994 0.017809615 0.072896734 0.0976762 0.09114185 0.02572228 -0.0405299
0.041832745 -0.03654941 0.025893658 0.0053545684 0.07661827 -0.034279317 -0.09031268 0.060711563
-0.017201066 0.09962648 0.059968248 -0.09337274 -0.058368098 -0.09423548 -0.077606976 -0.109304994
-0.05478197 0.042901553 -0.06184849 0.01085032 -0.024470437 -0.012958966 0.0060157552 0.023348013
0.055903673 -0.010800188 0.09271632 0.05998616 0.08051023 0.033916008 0.09506659 0.08406353
-0.04212854 0.055504274 0.14417833 0.04618238 0.10470845 0.021397391 0.011688523 -0.0495979
0.023552787 0.07964521 0.042905286 0.038565114 0.104766026 0.11165501 0.06893094 0.017634913
0.010446996 -0.045506734 -0.04035025 0.018074084 0.03360005 0.054255534 0.08121966 0.0071859574
-0.023405172 0.03741263 -0.049512085 0.10212095 0.026923781 0.03423714 0.070857346 0.014905695
0.04999699 -0.09119565 -0.009852129 0.061251327 0.013429314 0.049258437 -0.10991255 0.026868777
0.09784661 0.04182605 -0.032404587 0.06410143 0.004668677 -0.00925353 0.031537406 0.0024906278
-0.07243845 -0.0035722016 -0.10217269 0.040007427 -0.052541096 -0.0043338207 -0.045618057 0.08810583
0.01873244 0.03714718 0.0019399327 0.14468293 -0.094481364 0.0538952 0.114856794 0.05258186
0.033803213 0.12985702 -0.044686396 -0.0009990092 0.025392767 -0.032482773 -0.008553021 0.063818336
0.10155764 -0.028276049 -0.060770884 -0.038556725 -0.05012217 -0.062305767 -0.018027892 0.041863263
00000000: 579e fdbd 5638 f4bc 84e0 b8bd 2c67 7cbd
00000010: 888c a3bd 0183 b3bd b2e2 d1bd 6102 c1bc
00000020: 606c 3f3d 148b 243d 2634 9f3d 5f3d c6bd
00000030: d09e d83c 5c59 d7bc 75d9 ce3c a41d 743d
00000040: d47d a73d b9d5 aebd 81d9 1ebc b042 e63b
00000050: e6c6 df3d fa22 993d abc2 ccbd ae9c df3d
00000060: f67a c53d 46b6 dbbd 82eb 893d 62bd abbd
00000070: 5103 ad3d d073 9abd 00b8 1038 3418 e43d
00000080: baeb 813d 0ec1 9a3d d2e6 393d f0c1 d13c
00000090: 918d 9bbd 40ae bf3c 0820 fc3c a550 eb3a
000000a0: 10b9 e13c 648f 8cbc d503 adbb 002f 333d
000000b0: 26d8 97bd 9a4b 953d 2847 6d3d 9771 b4bc
000000c0: 4c57 013d e071 673d 20c8 52bb 2c23 cbbc
000000d0: 6453 483d 8bc6 953c 9e2e 53bd 0848 483c
000000e0: b04a 6c3c a9ff 723d f708 82bd e354 04bd
000000f0: a193 853d ea9e cb3d 0088 30bb e814 d23d
00000100: 2666 d53d 5407 3dbc 3edb b33d a582 adbd
00000110: cb5b 0ebd c1ed ae3d 04ab 0abd b0c5 96bb
00000120: 723e a53d fcd2 fdbc 448d a7bd 44a4 f5bd
00000130: 5459 a9bc 3c63 d7bd f245 463b f8a7 f33a
00000140: 403a c03d 1a4c a63d ff76 cfbd 8e6a b43d
00000150: e04f 7c3d 805d 733d 503e 9fbb eca4 b83d
00000160: 50ad 9c3c 9cf2 7e3d 203c 6f3d dc26 663d
00000170: e09c df3b 3084 4abc 0039 353c c021 a73d
00000180: 7633 d1bd 7874 313d 7460 89bc 70e9 b33c
00000190: 3888 f93c c049 f43c b8a3 c03d 2c6a 2c3d
000001a0: 26d8 8e3d ce5b d2bd 043b c33d 3699 bfbd
000001b0: 4ae7 c1bd d0c7 c13d 0844 f3bc 9413 b03d
000001c0: fa1c 93bd 8803 0fbc 5251 a3bd 9405 b43d
000001d0: f37f b6bd e818 13bd ccec 30bd a49e 82bd
000001e0: 960a cabd 60e7 a93d ca6a 57bd 6674 5bbd
000001f0: e4af b23d b8f0 b93d 0cde a33d c7d1 51bd
00000200: e6e2 833d 9c2d 5c3d e036 d33d 6043 3abc
00000210: a51c 6abd 0922 9bbd 9a06 60bd 4af5 843d
00000220: 28b5 9cbd c29e 963d 78e5 913c e24a 953d
00000230: 760a c83d 94a8 ba3d 88b7 d23c ae02 26bd
00000240: d058 2b3d d6b4 15bd f01e d43c 6075 af3b
00000250: 0aea 9c3d 7868 0cbd dbf5 b8bd b0ac 783d
00000260: 40e9 8cbc f808 cc3d 44a1 753d 353a bfbd
00000270: 6313 6fbd 88fe c0bd 68f0 9ebd 4cdb dfbd
00000280: 0f63 60bd 8ab9 2f3d d854 7dbd 8ac5 313c
00000290: 3a76 c8bc d851 54bc d01f c53b 5544 bf3c
000002a0: 40fb 643d 46f3 30bc 0ee2 bd3d 0cb4 753d
000002b0: 8ce2 a43d 83eb 0a3d 46b2 c23d 8029 ac3d
000002c0: fa8e 2cbd 7358 633d 7ca3 133e bc29 3d3d
000002d0: 6271 d63d 9549 af3c 3881 3f3c 2b27 4bbd
000002e0: c6f1 c03c 071d a33d 74bd 2f3d 74f6 1d3d
000002f0: 928f d63d 62ab e43d aa2b 8d3d 1877 903c
00000300: e129 2b3c 4565 3abd 4e46 25bd 1a10 943c
00000310: 35a0 093d 0d3b 5e3d 7e56 a63d 2e78 eb3b
00000320: 34bc bfbc fc3d 193d 2fcd 4abd ca24 d13d
00000330: 438f dc3c 3e3c 0c3d a81d 913d 0437 743c
00000340: a5c9 4c3d c9c4 babd d36a 21bc ace2 7a3d
00000350: a006 5c3c 37c3 493d d519 e1bd e91b dc3c
00000360: ce63 c83d cb51 2b3d acba 04bd 9c47 833d
00000370: b4fb 983b 1e9c 17bc 5e2d 013d cd39 233b
00000380: 9c5a 94bd 991b 6abb ea3f d1bd d4de 233d
00000390: 5535 57bd b902 8ebb 00da 3abd d470 b43d
000003a0: c674 993c a427 183d 5745 fe3a c327 143e
000003b0: 727f c1bd 37c1 5c3d 0a3a eb3d 1460 573d
000003c0: 3d75 0a3d 3df9 043e 1509 37bd 30f1 82ba
000003d0: 7e04 d03c a80c 05bd f821 0cbc 30b3 823d
000003e0: 74fd cf3d 2ca3 e7bc e4ea 78bd a8ed 1dbd
000003f0: e84c 4dbd 5534 7fbd 3baf 93bc d078 2b3d

fc4.bias f4 [320]
-0.12241871 -0.106138 0.14929077 0.0832799 0.11293166 -0.072334945 -0.07743415 -0.027479911
-0.02129462 -0.015469474 0.071264714 -0.07379995 -0.055275135 -0.10039901 -0.08275452 -0.06500522
-0.030105732 0.10773427 -0.10381402 0.15339874 -0.053291075 0.068407886 -0.041014917 -0.007399975
0.14693819 -0.049459226 -0.07299322 -0.08250453 -0.03806363 -0.08874452 0.035682097 0.07647116
-0.019526912 -0.109487005 -0.06523573 -0.09055805 0.081658676 -0.10615129 0.013918931 0.017862126
0.0035717727 -0.0069320127 -0.017071312 0.048822593 0.089872085 0.06811061 -0.032250784 -0.026415074
0.061910316 0.124491885 0.049381148 -0.09801218 -0.007518452 -0.03298665 -0.0769714 -0.05507624
0.1386401 -0.09867377 0.041853745 -0.10917608 -0.07480533 -0.101656824 -0.072427034 0.0812219
0.04642479 0.13726495 0.10699588 0.01670754 0.123809 0.12493578 -0.0020802915 -0.10623453
0.035511818 0.099596895 -0.09231654 0.033359528 0.093084514 -0.09072336 -0.1314555 -0.11600303
-0.054118678 -0.021803154 0.13136443 0.099395595 -0.08960681 -0.061262906 -0.05475634 -0.02780392
0.01626443 -0.07128677 -0.034150906 0.0332682 0.11058596 0.073556714 0.00030825287 0.07341885
-0.08757397 -0.07912649 -0.010557778 -0.03754542 -0.029137157 -0.085976526 0.124011986 0.011781847
-0.11085695 -0.0125306025 -0.10738709 0.11178334 -0.032800503 5.948261e-05 0.088215046 -0.046456985
-0.0054458263 0.09571242 0.09332986 -0.00479275 0.14200655 -0.035228424 -0.08843292 -0.08958859
-0.085393816 0.10414239 0.06850606 0.04939167 0.102997065 0.025991777 0.042630848 0.03543381
-0.09667767 -0.085134916 -0.03786517 -0.0029652268 0.08679309 -0.09841527 0.07522873 0.07412395
0.09457346 0.0002471781 0.11573636 -0.12116448 0.074072756 0.026444878 0.12568939 0.07938408
-0.08524969 -0.094330296 -0.034879208 -0.050356675 0.08391672 0.059043333 0.083516896 -0.05672849
-0.049416877 -0.086962804 0.06168521 -0.057179563 -0.054431446 -0.08195491 -0.053955566 -0.059864122
0.09826191 0.09917366 -0.036942147 0.024993226 -0.10119463 -0.027122669 0.040767103 0.05164832
-0.01779712 -0.014270455 0.088636346 -0.042467467 0.030499876 -0.095467985 0.09688961 0.07187612
-0.015644655 0.10507339 0.097662464 -0.05736961 -0.073731005 -0.05272201 0.038770176 -0.04989358
0.0015315304 0.025952378 0.07220985 -0.036426105 -0.01725667 -0.09072728 -0.11019996 0.045020506
-0.085345805 0.13555914 -0.068996 0.08204731 0.0036505286 -0.074527785 -0.057841208 -0.06429845
-0.048050128 -0.05089474 -0.010374219 -0.12220664 -0.056808323 -0.037208736 -0.077542685 -0.09151695
0.11985996 0.100423746 -0.036631804 -0.07042467 -0.072980106 -0.13734013 -0.018139943 0.10482768
0.051349208 0.035730436 -0.04098878 0.07308241 -0.09213326 0.014405519 0.039740827 -0.059475668
-0.052134007 -0.022596216 0.14123696 0.011604487 -0.09157779 -0.11009894 0.029627273 -0.10949829
-0.044456474 0.043996464 -0.08916467 0.12993239 -0.1086852 0.024871767 -0.10367221 -0.101172075
-0.06296926 0.11796139 -0.09335549 -0.08284429 -0.09329164 0.034682542 0.044947 0.049736932
0.075629406 0.009070946 0.09123281 -0.0890337 -0.010742646 0.16650711 -0.055335484 -0.06883747
00000000: a9b6 fabd e15e d9bd aedf 183e a78e aa3d
00000010: b748 e73d 5824 94bd cc95 9ebd 8d1d e1bc
00000020: 0e72 aebc ad73 7dbc 3cf3 913d 6e24 97bd
00000030: 2e68 62bd ff9d cdbd 347b a9bd 7521 85bd
00000040: 4ca0 f6bc c9a3 dc3d 729c d4bd 8f14 1d3e
00000050: be47 5abd 6f19 8c3d 42ff 27bd 7d7b f2bb
00000060: f776 163e c295 4abd 787d 95bd 23f8 a8bd
00000070: 9ce8 1bbd b0bf b5bd 6427 123d e99c 9c3d
00000080: e7f6 9fbc b93a e0bd 4f9a 85bd 8076 b9bd
00000090: aa3c a73d d965 d9bd 3a0c 643c 9853 923c
000000a0: 6714 6a3b f025 e3bb 23d9 8bbc 33fa 473d
000000b0: db0e b83d 937d 8b3d 6619 04bd 6d64 d8bc
000000c0: ac95 7d3d 9af5 fe3d e343 4a3d 9cba c8bd
000000d0: 595d f6bb 021d 07bd 2ea3 9dbd a097 61bd
000000e0: acf7 0d3e 7915 cabd d56e 2b3d b597 dfbd
000000f0: 8933 99bd 7431 d0bd a054 94bd ab57 a63d
00000100: ec27 3e3d 2f8f 0c3e a820 db3d 40de 883c
00000110: 938f fd3d 55de ff3d 8055 08bb 7d91 d9bd
00000120: d774 113d 75f9 cb3d 7410 bdbd 00a4 083d
00000130: 18a3 be3d 2bcd b9bd 459c 06be ff92 edbd
00000140: 8cab 5dbd 879c b2bc 6684 063e eb8f cb3d
00000150: c683 b7bd d0ee 7abd 2f48 60bd 0cc5 e3bc
00000160: fb3c 853c ccfe 91bd d2e1 0bbd 3c44 083d
00000170: e47a e23d e7a4 963d 009d a139 9f5c 963d
00000180: fb59 b3bd 120d a2bd 88fa 2cbc 3ac9 19bd
00000190: 0cb1 eebc 7614 b0bd fff9 fd3d a608 413c
000001a0: f808 e3bd 284d 4dbc c3ed dbbd aaee e43d
000001b0: d259 06bd f77c 7938 17aa b43d ae49 3ebd
000001c0: e772 b2bb e004 c43d ba23 bf3d 800c 9dbb
000001d0: 2a6a 113e ae4b 10bd 521c b5bd 397a b7bd
000001e0: f4e2 aebd 9b48 d53d e84c 8c3d eb4e 4a3d
000001f0: 20f0 d23d b5ec d43c af9d 2e3d 0b23 113d
00000200: f1fe c5bd 375b aebd 8218 1bbd 4054 42bb
00000210: 93c0 b13d f28d c9bd 8511 9a3d 4cce 973d
00000220: bbaf c13d af97 8139 2f07 ed3d 1525 f8bd
00000230: 75b3 973d eea2 d83c b8b4 003e 1f94 a23d
00000240: 6497 aebd 3e30 c1bd 80dd 0ebd cd42 4ebd
00000250: 87dc ab3d 6cd7 713d e80a ab3d 225c 68bd
00000260: 5a69 4abd 8e19 b2bd a1a9 7c3d 1e35 6abd
00000270: 82f3 5ebd fad7 a7bd 8300 5dbd 1534 75bd
00000280: 8a3d c93d 8f1b cb3d a650 17bd 98be cc3c
00000290: 213f cfbd 5c30 debc 68fb 263d 308d 533d
000002a0: 44cb 91bc a0ce 69bc f986 b53d 5ef2 2dbd
000002b0: e0da f93c b884 c3bd 0f6e c63d ca33 933d
000002c0: 3829 80bc b830 d73d 4203 c83d 65fc 6abd
000002d0: 4800 97bd 09f3 57bd 7acd 1e3d 365d 4cbd
000002e0: a2bd c83a 159a d43c c2e2 933d 8a33 15bd
000002f0: dc5d 8dbc 39cf b9bd 84b0 e1bd 6c67 383d
00000300: c8c9 aebd 04d0 0a3e c64d 8dbd 6c08 a83d
00000310: b53d 6f3b 06a2 98bd e7ea 6cbd e8ae 83bd
00000320: 36d0 44bd 0177 50bd a1f8 29bc 7a47 fabd
00000330: d8af 68bd 3068 18bd b3ce 9ebd 3d6d bbbd
00000340: 2479 f53d f7aa cd3d 3b0b 16bd cf3a 90bd
00000350: 9876 95bd e4a2 0cbe 389a 94bc e5af d63d
00000360: 8c53 523d 145a 123d dae3 27bd 3bac 953d
00000370: 5db0 bcbd 2005 6c3c 47c7 223d c29c 73bd
00000380: 788a 55bd b31b b9bc 6ca0 103e bf20 3e3c
00000390: 238d bbbd 8e7b e1bd e5b4 f23c a440 e0bd
000003a0: fe17 36bd a335 343d f79b b6bd ff0c 053e
000003b0: 5996 debd e0bf cb3c 1852 d4bd 4e33 cfbd
000003c0: 07f6 80bd be95 f13d 2a31 bfbd 44aa a9bd
000003d0: b00f bfbd 480f 0e3d 581a 383d f4b8 4b3d
000003e0: 97e3 9a3d 4e9e 143c 44d8 ba3d 4d57 b6bd
000003f0: ec01 30bc d780 2a3e 76a7 62bd a9fa 8cbd

conv3.weight f4 [4, 5, 3, 3]
0.05767203 0.19598526 0.10444303 -0.0046426617 0.18144679 0.02422955 0.11040722 0.123663954
0.14485113 0.18309231 0.0036467293 0.091154024 0.13095355 0.028121326 0.05197132 0.17346649
0.03373186 0.03328988 0.10015713 0.009216902 -0.03311548 0.09547487 0.10121527 0.1317354
-0.082625605 0.010701794 0.0868449 0.07693752 0.053990364 0.19115098 0.02620769 0.01524577
0.15906443 0.06454836 0.16021241 0.1294411 0.05636488 -0.020744441 0.03216278 0.015586447
0.16101941 0.017834347 -0.068687245 -0.08237463 -0.042623177 0.07561642 -0.04838004 0.08107794
0.0402985 -0.022900961 -0.0679516 -0.025261022 0.06654605 0.18619418 0.13578102 0.11686029
-0.07441719 0.11514169 0.09343399 -0.08063179 0.019883113 -0.08658959 0.14753686 0.073848195
-0.0014482285 0.064880915 0.016698698 0.039544284 0.14580768 -0.043408625 -0.05368609 -0.0953119
-0.025980864 0.1458505 0.017056791 -0.076779455 0.1661479 0.112953804 0.06446154 -0.07458252
0.1545109 0.17725208 0.1409247 -0.019799331 -0.11017126 0.043179065 0.020134354 0.044518672
0.04968029 -0.035007894 -0.14341126 0.007983368 0.034832653 -0.024441209 0.08962647 0.057862334
-0.14422037 0.019440426 0.042374182 0.053474 -0.022127407 0.088814266 0.02016008 0.017204609
-0.12049932 -0.122550145 -0.019674405 0.0043750787 0.07711277 -0.07019017 0.0055100215 -0.1083796
-0.065206125 -0.08127989 -0.063924015 -0.009579306 -0.064598076 -0.017566297 0.091827095 -0.042601954
0.06459514 -0.15403715 0.03389077 -0.15506098 -0.039473597 0.114641644 0.05791389 -0.17498527
-0.080634765 0.10673365 0.07164844 -0.13220169 0.018841907 0.0329116 0.105265744 0.064135775
0.097611785 0.017429015 -0.04700377 0.120672725 0.09492471 -0.10526129 -0.113085 -0.1382377
-0.10890776 -0.116249055 -0.09310902 0.069684096 -0.12207666 -0.1303827 0.017837977 0.04438212
0.10865175 0.016033003 0.0952768 0.055594295 0.14798313 -0.07138537 -0.106047414 -0.082711756
-0.045847084 -0.0074498164 -0.103743844 0.011748187 0.14829569 -0.11334495 0.08194478 -0.11011804
0.10542195 0.08438513 0.06856825 0.038586207 0.1475849 0.031522892 0.031221824 0.12681936
-0.12585808 -0.11155697 0.12748273 -0.014588841
00000000: 8239 6c3d 5cb0 483e 3ae6 d53d 7821 98bb
00000010: 30cd 393e 0d7d c63c 2e1d e23d 8743 fd3d
00000020: db53 143e 8d7c 3b3e f7fd 6e3b f6ae ba3d
00000030: b018 063e b25e e63c e1df 543d 33a1 313e
00000040: 6b2a 0a3d f85a 083d 2e1f cd3d 7d02 173c
00000050: 19a4 07bd 5488 c33d f449 cf3d a5e5 063e
00000060: 9d37 a9bd 9456 2f3c bddb b13d 6b91 9d3d
00000070: 0025 5d3d 15bd 433e 82b1 d63c 65c9 793c
00000080: c9e1 223e ee31 843d b90e 243e 358c 043e
00000090: dcde 663d 3ff0 a9bc 1fbd 033d 4c5e 7f3c
000000a0: 46e2 243e 5619 923c e6ab 8cbd 08b4 a8bd
000000b0: a495 2ebd c8dc 9a3d 262a 46bd 310c a63d
000000c0: 0a10 253d cc9a bbbc 352a 8bbd 34f0 cebc
000000d0: 4c49 883d b0a9 3e3e 2e0a 0b3e 7354 ef3d
000000e0: 0a68 98bd 68cf eb3d 525a bf3d 4822 a5bd
000000f0: e9e1 a23c e255 b1bd e713 173e b93d 973d
00000100: 7cd2 bdba 49e0 843d b5cb 883c 30f9 213d
00000110: 9c4e 153e 3ecd 31bd f2e5 5bbd e332 c3bd
00000120: d2d5 d4bc d559 153e afba 8b3c 8c3e 9dbd
00000130: ad22 2a3e 5354 e73d 6904 843d b8be 98bd
00000140: 1b38 1e3e 9281 353e 914e 103e 3532 a2bc
00000150: 78a1 e1bd 88dc 303d cdf0 a43c 3659 363d
00000160: 8f7d 4b3d 7064 0fbd 67da 12be accc 023c
00000170: afac 0e3d ee38 c8bc 158e b73d 0e01 6d3d
00000180: 81ae 13be 8741 9f3c 8d90 2d3d 8e07 5b3d
00000190: 8944 b5bc 41e4 b53d c126 a53c aef0 8c3c
000001a0: 59c8 f6bd 92fb fabd 382c a1bc d25c 8f3b
000001b0: 4ded 9d3d ddbf 8fbd 698d b43b 20f6 ddbd
000001c0: ca8a 85bd 1276 a6bd 98ea 82bd 85f2 1cbc
000001d0: ff4b 84bd 32e7 8fbc d80f bc3d 637f 2ebd
000001e0: 754a 843d eabb 1dbe 0cd1 0a3d 4ec8 1ebe
000001f0: 11af 21bd 3dc9 ea3d 1d37 6d3d 572f 33be
00000200: d723 a5bd 2c97 da3d 6bbc 923d e15f 07be
00000210: 585a 9a3c 50ce 063d 9195 d73d 9e59 833d
00000220: b0e8 c73d 4bc7 8e3c 0687 40bd 4323 f73d
00000230: e367 c23d 3b93 d7bd 1c99 e7bd 2f8e 0dbe
00000240: 080b dfbd fc13 eebd f1af bebd 89b6 8e3d
00000250: 5403 fabd 0b83 05be f320 923c 07ca 353d
00000260: cf84 de3d a557 833c 7c20 c33d d8b6 633d
00000270: e488 173e 7e32 92bd 632f d9bd c864 a9bd
00000280: 27ca 3bbd 971d f4bb a777 d4bd 787b 403c
00000290: d3da 173e 6621 e8bd aad2 a73d 9185 e1bd
000002a0: 77e7 d73d 1cd2 ac3d 836d 8c3d 920c 1e3d
000002b0: 7f20 173e 261e 013d e9c4 ff3c efdc 013e
000002c0: f1e0 00be fb77 e4bd d58a 023e 0906 6fbc

conv3.bias f4 [4]
0.01850158 0.07729047 0.04240605 -0.0670456
00000000: a090 973c 774a 9e3d f7b1 2d3d 344f 89bd
