Pytorch/AutoEncoder/saved_models/Sreeni_cifar10.pt (torch, 296431 bytes, 16 tensors)

conv1.weight f4 [6, 3, 3, 3]
-0.066025235 -0.13522983 0.02425843 0.028761167 -0.037772138 0.046808776 -0.17194054 0.14502952
-0.10672231 0.03771159 -0.13223031 0.05461333 0.016383637 -0.03590815 -0.009147594 0.16933107
-0.019345973 -0.10878797 0.04283077 -0.042338666 0.058970246 0.120953366 -0.11591479 -0.15720114
-0.12961556 0.07705426 0.21542932 0.066493265 0.0782854 0.10318988 0.18537281 -0.022641314
-0.08065567 -0.21407792 0.008325841 0.11714401 -0.1681049 0.08937326 0.10220769 -0.07429112
0.006857542 -0.063344754 0.022905475 -0.10915548 0.10134475 -0.073876105 -0.061776098 -0.0006338586
-0.056249414 0.1729153 0.032035794 0.14255446 0.016926726 -0.111926444 -0.12430342 -0.048570264
0.13437177 0.06095731 0.07948427 -0.074303925 -0.16156378 0.11222618 -0.16121599 0.086252786
0.06302627 -0.05002146 0.1575582 -0.09661999 -0.017237352 -0.14326206 0.08066735 0.069924586
0.008966992 0.11593204 -0.04580552 -0.058729988 0.0070880046 -0.095227435 0.009632282 0.11767113
-0.0076913154 0.0154084405 0.08155904 0.17158975 0.027406305 -0.016584413 -0.043634363 0.16892213
-0.0018327902 0.08880584 0.122432336 0.113458455 0.11964446 -0.11829779 -0.015148596 0.08226726
0.20883931 -0.0018674472 0.13125777 0.1627703 -0.011823395 0.032980893 0.10921666 -0.0548675
0.123000905 0.097223364 -0.04774469 0.08865109 0.044226978 -0.17565078 0.067395456 0.0020923303
0.041577112 0.15322898 -0.0068195527 -0.14341126 0.07935349 0.046487078 0.15278709 -0.02367937
-0.019559862 -0.045799732 -0.09035312 -0.110531606 0.20071986 -0.17070614 0.098492794 -0.15146448
0.012145458 0.040499415 -0.039057802 -0.06222286 0.070856765 -0.04860819 -0.11507443 -0.09621674
0.088230856 -0.15839869 0.028386278 -0.033675868 -0.037128218 -0.18917298 -0.086785965 0.038843397
-0.08155051 0.13686335 -0.19704418 -0.025825772 -0.07851136 -0.16062984 0.027097505 -0.007055309
-0.029466534 -0.07098738 0.07218693 -0.03613127 -0.09357938 -0.16992432 0.061057594 0.13571264
-0.18949829 0.07517548
00000000: 3d38 87bd b079 0abe 9db9 c63c 8a9c eb3c
00000010: f5b6 1abd 8fba 3f3d 2e11 30be 9e82 143e
00000020: 3a91 dabd 7877 1a3d 6267 07be 3ab2 5f3d
00000030: fa36 863c 6d14 13bd cadf 15bc 2065 2d3e
00000040: 727b 9ebc 3acc debd 516f 2f3d 4f6b 2dbd
00000050: c98a 713d 66b6 f73d bc64 edbd 56f9 20be
00000060: f1b9 04be a0ce 9d3d 8199 5c3e 9f2d 883d
00000070: 1954 a03d 3755 d33d 5fd2 3d3e 477a b9bc
00000080: cd2e a5bd 3e37 5bbe 1c69 083c 33e9 ef3d
00000090: b123 2cbe 5409 b73d 4452 d13d f125 98bd
000000a0: 3bb5 e03b e5ba 81bd 43a4 bb3c e98c dfbd
000000b0: d68d cf3d 5b4c 97bd ef08 7dbd 8829 26ba
000000c0: c965 66bd b510 313e f737 033d ccf9 113e
000000d0: eba9 8a3c b139 e5bd cb92 febd 9df1 46bd
000000e0: c198 093e 5fae 793d a6c8 a23d a82c 98bd
000000f0: fa70 25be d7d6 e53d ce15 25be 4da5 b03d
00000100: eb13 813d 4de3 4cbd f056 213e b4e0 c5bd
00000110: 5935 8dbc 4ab3 12be ec34 a53d 9f34 8f3d
00000120: 4aea 123c c76d ed3d 929e 3bbd db8e 70bd
00000130: 7e42 e83b 9a06 c3bd b8d0 1d3c 90fd f03d
00000140: 6e07 fcbb af73 7c3c 6d08 a73d 39b5 2f3e
00000150: 3083 e03c 09dc 87bc f2b9 32bd ecf9 2c3e
00000160: 3c3a f0ba d6df b53d cebd fa3d e85c e83d
00000170: 2808 f53d 1d46 f2bd d131 78bc bd7b a83d
00000180: f9d9 553e 21c5 f4ba 7068 063e 42ad 263e
00000190: eab6 41bc f916 073d fcac df3d bebc 60bd
000001a0: e6e7 fb3d 0b1d c73d f08f 43bd b48e b53d
000001b0: 5927 353d ccdd 33be a106 8a3d 7a1f 093b
000001c0: c34c 2a3d 0fe8 1c3e 8e76 dfbb 67da 12be
000001d0: 1584 a23d 3c69 3e3d 3874 1c3e 3dfb c1bc
000001e0: 013c a0bc 8098 3bbd 0e0b b9bd 655e e2bd
000001f0: 8289 4d3e 97cd 2ebe 97b6 c93d 8119 1bbe
00000200: befd 463c b7e2 253d 13fb 1fbd 66dd 7ebd
00000210: 5a1d 913d 6219 47bd 25ac ebbd 480d c5bd
00000220: 61b2 b43d 4433 22be 578a e83c b5ef 09bd
00000230: c213 18bd 90b6 41be d7bc b1bd 411a 1f3d
00000240: f403 a7bd e825 0c3e f3c5 49be 9290 d3bc
00000250: 90ca a0bd 267c 24be 96fb dd3c 3930 e7bb
00000260: cd63 f1bc d561 91bd bed6 933d 62fe 13bd
00000270: 8ca6 bfbd a400 2ebe 8717 7a3d 41f8 0a3e
00000280: d70b 42be 9af5 993d

conv1.bias f4 [6]
-0.60922825 -0.6720734 -0.5280625 -0.07403384 -0.5602423 0.08853762
00000000: 62f6 1bbf 010d 2cbf 1b2f 07bf 0e9f 97bd
00000010: 0a6c 0fbf 3653 b53d

conv2.weight f4 [4, 6, 3, 3]
0.025974814 -0.066372685 -0.089966536 0.11052881 -0.12120007 -0.147242 -0.14162971 0.09953555
-0.024962636 -0.1877554 -0.14849553 -0.09167589 0.006982278 0.10325175 -0.12362691 -0.2534253
-0.25509867 -0.10462269 -0.142248 -0.014708021 -0.22337271 -0.44086492 -0.35380074 -0.37136286
-0.06879617 -0.101547025 0.040976398 -0.30136847 -0.097544864 -0.11506484 -0.09217238 0.06935097
0.0079811355 -0.1457188 -0.3474934 -0.41280794 -0.11550151 0.07974896 -0.026381735 -0.10446637
-0.1507729 -0.18750569 -0.22270694 0.002955324 -0.023091614 -0.390418 0.07889336 -0.22398677
-0.7940156 -0.24847487 -0.29143015 0.07973113 -0.1278288 -0.047256764 0.007439259 -0.11632912
-0.04965701 0.043047577 -0.17855954 -0.091589026 -0.02233026 0.026805103 -0.112994194 0.09298084
-0.010805008 0.030721996 0.12791352 0.1322911 -0.017509243 -0.078348316 0.057620432 0.08466669
-0.015942728 0.0037553932 -0.112220466 -0.035288926 0.043516353 -0.11083928 -0.023239965 0.0118349185
-0.034385405 -0.0030654955 -0.25532004 -0.11398032 -0.27138346 -0.15255153 -0.07381107 -0.041322216
-0.14376803 -0.059228126 0.06754622 -0.056755733 0.064110585 0.0187558 -0.12438106 0.020055512
-0.055690985 0.07111672 0.008452588 -0.0186918 0.04618417 -0.048766274 -0.0050347447 0.1529115
-0.0073110727 -0.031607453 -0.014885575 0.033808276 -0.06859855 -0.07467609 -0.086670816 -0.17147589
-0.09883788 -0.11639588 -0.25858405 -0.043599647 0.11300115 -0.11459503 0.03627605 -0.022220157
0.08295728 0.0363359 0.006767003 -0.09360369 -0.13352855 -0.10775255 -0.13008268 -0.054696232
0.08843848 0.060082655 0.39126053 0.11096375 0.0058069103 0.035063725 -0.013097776 0.0058367494
0.043934375 0.03842657 0.045542758 0.18143272 0.03436263 0.032524467 0.04869618 0.053194273
-0.21207128 0.007876144 -0.2048857 0.15239769 0.05417237 -0.24513038 0.017875759 -0.15311365
0.021725023 -0.17991237 -0.211066 -0.1299892 -0.5030076 0.03648277 -0.5276863 -0.10789772
-0.27526864 -0.060254186 0.0071951477 -0.059268143 -0.06507413 0.0990682 0.018369438 0.12403417
-0.06915102 0.10214807 0.062824875 -0.01698539 -0.08291809 -0.08009652 -0.049767546 0.028744834
-0.072420105 -0.023547843 -0.10846605 -0.16287762 -0.035689674 0.074900866 -0.18364415 0.019048126
-0.11768125 -0.15463412 -0.13567372 -0.06786874 0.024143567 -0.22442713 0.05561883 0.2438737
-0.20309061 -0.2939065 -0.2454087 0.33928818 -0.11843738 -0.29958984 -0.14764279 0.022686463
0.009399678 0.020693291 -0.05571904 -0.17881985 -0.035855263 -0.1692459 0.047593556 -0.10140787
-0.07582904 -0.19944963 -0.14206184 -0.06291172 -0.13343462 -0.5343984 -0.26572737 -0.073009424
00000000: 22c9 d43c 67ee 87bd 6040 b8bd ee5c e23d
00000010: be37 f8bd 9bc6 16be 6107 11be 4bd9 cb3d
00000020: 717e ccbc f442 40be 360f 18be 92c0 bbbd
00000030: 98cb e43b a775 d33d 1b30 fdbd f6c0 81be
00000040: 4b9c 82be 6c44 d6bd 76a9 11be e9f9 70bc
00000050: d1bb 64be 0cb9 e1be 5f25 b5be 4623 bebe
00000060: 02e5 8cbd e3f7 cfbd ded6 273d f84c 9abe
00000070: 9ac5 c7bd 1da7 ebbd dfc4 bcbd e207 8e3d
00000080: 4fc3 023c 4f37 15be a8ea b1be 905b d3be
00000090: 0e8c ecbd 6c53 a33d 821e d8bc 77f2 d5bd
000000a0: 3664 1abe 7e01 40be 4a0d 64be 1cae 413b
000000b0: a02a bdbc dee4 c7be d892 a13d ca5c 65be
000000c0: 9b44 4bbf 3270 7ebe 5536 95be 134a a33d
000000d0: 8ee5 02be 4f90 41bd 07c5 f33b f63d eebd
000000e0: 2665 4bbd a852 303d 50d8 36be 0793 bbbd
000000f0: f3ed b6bc 6096 db3c 8069 e7bd bd6c be3d
00000100: 7d07 31bc b2ac fb3c c3fb 023e 5177 073e
00000110: 8b6f 8fbc 1575 a0bd 6703 6c3d bb65 ad3d
00000120: 539a 82bc 0b1d 763b d8d3 e5bd 1f8b 10bd
00000130: 343e 323d b4ff e2bd bd61 bebc 3fe7 413c
00000140: b6d7 0cbd 7be6 48bb 4fb9 82be 846e e9bd
00000150: c6f2 8abe 7836 1cbe 422a 97bd 7c41 29bd
00000160: ed37 13be 3199 72bd ac55 8a3d b378 68bd
00000170: 694c 833d c3a5 993c 7fbb febd 754b a43c
00000180: 3b1c 64bd a5a5 913d b97c 0a3c 8c1f 99bc
00000190: 9d2b 3d3d 25bf 47bd 80fa a4bb d594 1c3e
000001a0: b991 efbb d176 01bd a0e2 73bc 8c7a 0a3d
000001b0: 667d 8cbd c7ef 98bd 7880 b1bd 6097 2fbe
000001c0: 846b cabd f760 eebd 2165 84be 8b95 32bd
000001d0: 266d e73d cdb0 eabd 3296 143d 0c07 b6bc
000001e0: 82e5 a93d f4d4 143d bcbd dd3b 4bb3 bfbd
000001f0: b5bb 08be 5ead dcbd 6534 05be 2809 60bd
00000200: 3c1f b53d 3b19 763d 4d53 c83e f640 e33d
00000210: e547 be3b fb9e 0f3d 0e98 56bc 3442 bf3b
00000220: 88f4 333d 2e65 1d3d 0b8b 3a3d 80c9 393e
00000230: d4bf 0c3d 6038 053d a575 473d 3de2 593d
00000240: 3729 59be f10a 013c 8fcd 51be 240e 1c3e
00000250: d9e3 5d3d 7503 7bbe 2f70 923c d3c9 1cbe
00000260: adf8 b13c f33a 38be af21 58be e41b 05be
00000270: 1bc5 00bf f56e 153d 7316 07bf 7bf9 dcbd
00000280: 03f0 8cbe 18cd 76bd 46c5 eb3b 27c3 72bd
00000290: 9645 85bd 45e4 ca3d 817b 963c a005 fe3d
000002a0: 0d9f 8dbd 0233 d13d 54aa 803d f224 8bbc
000002b0: f6d0 a9bd a509 a4bd 0ed9 4bbd 497a eb3c
000002c0: fe50 94bd 68e7 c0bc 7323 debd 64c9 26be
000002d0: 562f 12bd a065 993d 360d 3cbe d10a 9c3c
000002e0: de02 f1bd 6858 1ebe 0dee 0abe c4fe 8abd
000002f0: bbc8 c53c 3ad0 65be 92d0 633d 07ba 793e
00000300: fcf6 4fbe ea7a 96be 6b4c 7bbe 2eb7 ad3e
00000310: 4c8f f2bd d763 99be ac2f 17be f6d8 b93c
00000320: 1b01 1a3c fa84 a93c a639 64bd 8d1c 37be
00000330: f8dc 12bd cc4e 2dbe 76f1 423d eeae cfbd
00000340: 414c 9bbd 863c 4cbe a978 11be dcd7 80bd
00000350: 16a3 08be 55ce 08bf 6b0d 88be f785 95bd

conv2.bias f4 [4]
-0.08741167 0.21567333 -0.16133362 -0.032137476
00000000: e404 b3bd 78d9 5c3e a434 25be 96a2 03bd

fc1.weight f4 [128, 256]
-0.30824605 -0.1296709 -0.14807764 0.04376012 -0.115713 -0.28076777 -0.32029235 -0.15679854
-0.023760617 -0.11836792 0.1799952 0.13338473 0.35644656 0.04917192 0.14729884 -0.00757095
-0.1490969 0.0728331 0.003207779 0.033714164 0.05504935 -0.20179102 -0.14600223 0.17015132
0.4886138 0.4089824 0.1545902 0.28212768 0.16549054 0.0043175537 -0.03912575 0.0277077
0.36488572 0.031236416 -0.074183166 -0.11249466 -0.3973101 -0.23797104 -0.11847678 0.24369453
0.03510889 -0.2672773 -0.25488612 -0.57848686 -0.4599447 -0.11168215 -0.19310358 0.2255302
-0.43636388 0.047012813 0.04851806 -0.15375772 -0.05816227 0.06046777 0.022519132 0.023260653
-0.15550828 -0.17007996 -0.23588637 -0.14658469 0.13362958 0.115973726 0.07369257 0.12505877
-0.6553091 -0.4088233 -0.20912702 0.14398889 0.008254959 -0.39224583 -0.42118463 -0.5407588
-0.9612182 -0.7019473 -0.3461725 0.0719578 0.37420747 0.06811862 -0.42776856 -0.5306547
-0.85172343 -0.51500607 -0.26682124 0.0052882372 0.27696815 0.1979358 0.08507341 -0.033306736
-0.3621371 -0.22041665 0.2772462 0.3304853 0.42874718 0.5182696 0.2579803 0.23593485
0.1275812 0.29264173 0.31625357 0.41484252 0.34039775 0.3406366 0.40931335 0.27523333
0.3667425 0.3188998 0.37507716 0.48136494 0.36073864 0.36038777 0.3494759 0.45101503
0.40427488 0.48126572 0.31966174 0.15006873 0.24533968 0.23366554 0.2769072 0.35724732
0.38640863 0.48135144 0.3316876 0.21601842 0.3165334 0.32272476 0.37002647 0.4900462
0.33133906 0.31557512 0.102632225 0.076888315 0.14746347 0.26821223 0.4102484 0.35404447
0.7431406 0.5675593 0.55894655 0.34433845 0.025249926 0.14941232 0.2832252 0.50219196
1.0197636 0.8835941 0.8328067 0.23032469 -0.15053852 0.11234406 0.18425253 0.51903737
0.7093936 0.3600051 0.15300687 -0.07448836 -0.42498168 -0.3070757 -0.086105846 0.20842434
0.25358662 0.17366853 -0.20671648 -0.25641558 -0.37549338 -0.25210708 -0.09825267 0.05238214
0.12979941 -0.07936715 -0.13354653 -0.5937298 -0.34100208 -0.23837541 0.048392307 0.043854985
-0.05377811 -0.065914005 -0.09430934 -0.11070591 -0.028259339 -0.13500932 -0.021048868 0.075554155
-0.050732043 -0.18266732 -0.15918629 0.04257962 0.016808271 -0.010055066 0.09087555 0.10906992
-0.3775244 -0.4725795 -0.10410127 -0.37697193 -0.24224599 -0.11559257 -0.2814114 -0.25314906
-0.58741975 -0.5151427 -0.8715346 -0.5800446 0.08353262 -0.33516362 0.24962719 -0.42681506
-0.24109541 -0.5938293 -0.66726 -0.014131692 -0.2535799 -0.027209045 -0.18332192 -0.044746995
0.21694696 0.038775574 -0.5167918 -0.08470578 0.1911226 0.074319445 0.19681475 0.35362425
0.14073661 0.06967626 0.20217119 0.21576218 -0.052355856 0.024350127 -0.1324784 0.06460275
0.29523045 -0.1641008 0.49097914 0.04510485 -0.13917197 -0.04453891 -0.035924047 0.022632523
0.2797531 -0.055284362 -0.016034573 -0.018291293 0.2546911 0.15762474 0.072766066 0.36884865
0.09541141 0.44138792 0.33171982 0.024457436 0.03334397 -0.047161225 0.16235968 0.2748596
00000000: 6dd2 9dbe 73c8 04be aaa1 17be d03d 333d
00000010: f0fa ecbd cbc0 8fbe 5cfd a3be cc8f 20be
00000020: a0a5 c2bc e16a f2bd a950 383e 0296 083e
00000030: 2a80 b63e 7f68 493d 82d5 163e bb15 f8bb
00000040: dcac 18be 8529 953d 9a39 523b dd17 0a3d
00000050: 6d7b 613d 4ea2 4ebe 9c81 15be 263c 2e3e
00000060: 972b fa3e 2466 d13e e54c 1e3e 0a73 903e
00000070: 5a76 293e 447a 8d3b 5342 20bd 42fb e23c
00000080: 4dd2 ba3e 83e3 ff3c 58ed 97bd 9a63 e6bd
00000090: 3b6c cbbe aeae 73be f4a3 f2bd 0f8b 793e
000000a0: 57ce 0f3d 92d8 88be 6f80 82be b717 14bf
000000b0: df7d ebbe 9cb9 e4bd f2bc 45be 64f1 663e
000000c0: 166b dfbe 8290 403d e0ba 463d aa72 1dbe
000000d0: 8f3b 6ebd 0dad 773d 0b7a b83c 208d be3c
000000e0: 903d 1fbe 7129 2ebe 328c 71be 4c1a 16be
000000f0: 31d6 083e a283 ed3d 21ec 963d 680f 003e
00000100: 56c2 27bf 4a51 d1be 6525 56be d371 133e
00000110: cf3f 073c 72d4 c8be 83a5 d7be 2b6f 0abf
00000120: 6512 76bf d1b2 33bf 863d b1be 9c5e 933d
00000130: 1f98 bf3e c681 8b3d 7b04 dbbe fdd8 07bf
00000140: 8c0a 5abf 70d7 03bf cb9c 88be f348 ad3b
00000150: c5ce 8d3e afaf 4a3e f83a ae3d a56c 08bd
00000160: 096a b9be e7b4 61be 37f3 8d3e 5f35 a93e
00000170: c084 db3e 51ad 043f fe15 843e e898 713e
00000180: a5a4 023e 23d5 953e fdeb a13e 3d66 d43e
00000190: 9d48 ae3e ec67 ae3e 8591 d13e 62eb 8c3e
000001a0: acc5 bb3e d646 a33e 1d0a c03e 7775 f63e
000001b0: bcb2 b83e bf84 b83e 81ee b23e 71eb e63e
000001c0: 1efd ce3e 7668 f63e b4aa a33e 9eab 193e
000001d0: 533a 7b3e 0546 6f3e c8c6 8d3e 1fe9 b63e
000001e0: 5ad7 c53e b273 f63e f5d2 a93e ef33 5d3e
000001f0: aa10 a23e 2e3c a53e 1c74 bd3e 56e7 fa3e
00000200: 46a5 a93e 1093 a13e d830 d23d 9f77 9d3d
00000210: aa00 173e 1d53 893e 140c d23e 5145 b53e
00000220: 763e 3e3f 914b 113f 1f17 0f3f 214d b03e
00000230: efd8 ce3c 8bff 183e e502 913e a78f 003f
00000240: 9d87 823f 3933 623f d232 553f 3cda 6b3e
00000250: c526 1abe a414 e63d b2ac 3c3e a2df 043f
00000260: d29a 353f 9752 b83e d5ad 1c3e 5a8d 98bd
00000270: 3397 d9be 0739 9dbe 4358 b0bd 316d 553e
00000280: 1bd6 813e 2ad6 313e 7cad 53be e748 83be
00000290: ab40 c0be 2e14 81be b238 c9bd a88e 563d
000002a0: 23ea 043e 3f8b a2bd 6cc0 08be adfe 17bf
000002b0: d397 aebe af18 74be 0337 463d 49a1 333d
000002c0: 6f46 5cbd ecfd 86bd 4125 c1bd c8b9 e2bd
000002d0: 2180 e7bc e23f 0abe ad6e acbc 23bc 9a3d
000002e0: 67cc 4fbd 240d 3bbe bb01 23be f867 2e3d
000002f0: 80b1 893c 01be 24bc f61c ba3d 0d60 df3d
00000300: e14a c1be f1f5 f1be 0c33 d5bd 7702 c1be
00000310: 550f 78be ccbb ecbd 2815 90be c19c 81be
00000320: 2461 16bf 64e0 03bf e41c 5fbf ce7d 14bf
00000330: 2613 ab3d 919a abbe 459e 7f3e 8187 dabe
00000340: b7e1 76be 3205 18bf 8dd1 2abf 9d88 67bc
00000350: 3ad5 81be 81e5 debc beb8 3bbe a048 37bd
00000360: 5827 5e3e 23d3 1e3d 784c 04bf 397a adbd
00000370: a5b5 433e cb34 983d ce89 493e 3d0e b53e
00000380: 421d 103e 6db2 8e3d f705 4f3e c3f0 5c3e
00000390: 1873 56bd eb79 c73c 6ba8 07be 724e 843d
000003a0: 7228 973e 0a0a 28be 9e61 fb3e ddbf 383d
000003b0: 1983 0ebe 6f6e 36bd 1825 13bd d767 b93c
000003c0: cc3b 8f3e db71 62bd f05a 83bc 9fd7 95bc
000003d0: df66 823e 6168 213e 6006 953d bbd9 bc3e
000003e0: 0f67 c33d 99fd e13e 2ed7 a93e f65a c83c
000003f0: b093 083d 212c 41bd 9e41 263e 66ba 8c3e

fc1.bias f4 [128]
-0.56364965 -0.16844448 -0.1735474 -0.4802961 -0.5367192 -0.013053391 -0.31707224 -0.360216
-0.061646648 0.6938735 -0.4905497 -0.5114134 -0.68632954 -0.052448142 -0.36247888 -0.070895515
-0.37767 -0.06801552 -1.1358889 -0.024153799 -0.14581506 -0.29057622 -0.10679914 -0.122574195
0.078084856 0.15298963 -0.13574544 -0.04717981 0.8512713 -0.08195459 1.1416041 -0.2599123
-0.31346142 -1.026727 -0.3267236 -0.020622216 -0.6549599 -0.08846514 -0.2086942 -0.11129461
-0.13674396 -0.060973704 -0.083601534 -0.4684382 1.1859384 -0.06613252 -0.43769732 -0.68672794
-0.121427536 -0.27484724 -0.049595952 -0.1258474 -0.580125 -0.089774415 -0.102883644 -0.69272935
-0.52235335 -0.14050053 -0.7074651 0.8142888 -0.15040699 -0.09709278 0.930624 -0.10576952
-0.119426966 -0.058729723 0.5396224 -0.19781822 -0.16533636 -0.16303591 -0.15121022 -0.06599324
-0.793068 -0.71477985 -0.33915997 -0.10786535 -0.085473515 -0.75333166 -0.06731279 -0.09271285
-0.1250906 -0.99393845 -0.3051797 -0.059806406 -0.25283647 -0.84946436 -0.14032376 -0.48197573
-0.04621113 -0.2284554 -0.057212662 -0.6330527 0.99204403 -0.17651078 -0.64635324 1.3483737
-0.9738192 -0.1022417 -0.50629437 -0.055733472 -0.22043149 -0.08409086 0.6970644 -0.16814281
-0.5071893 -0.40303317 0.42383075 -0.633319 -1.0429953 1.0170951 -0.057092298 -0.07933535
-0.08340262 0.820194 -0.1227118 -0.80357236 -0.21884207 -0.089695536 0.74147606 -1.2132716
-0.07506822 0.015868861 0.36914364 -0.06986909 -0.69784963 -0.04739389 -0.6056706 -0.23481272
00000000: 584b 10bf b67c 2cbe 69b6 31be 5fe9 f5be
00000010: 6e66 09bf e4dd 55bc 4b57 a2be 3b6e b8be
00000020: 3281 7cbd b2a1 313f 5529 fbbe fdeb 02bf
00000030: 4bb3 2fbf ddd3 56bd d596 b9be ab31 91bd
00000040: f65d c1be b94b 8bbd cf64 91bf 30de c5bc
00000050: 8b50 15be 68c6 94be 82b9 dabd 2e08 fbbd
00000060: f4ea 9f3d 50a9 1c3e da00 0bbe 9e3f 41bd
00000070: eaec 593f cfd7 a7bd 1520 923f 3a13 85be
00000080: 047e a0be ca6b 83bf 5148 a7be ecef a8bc
00000090: 74ab 27bf 362d b5bd efb3 55be 6eee e3bd
000000a0: 9c06 0cbe 90bf 79bd 4837 abbd 22d7 efbe
000000b0: d4cc 973f 7d70 87bd dd19 e0be 67cd 2fbf
000000c0: 00af f8bd c7b8 8cbe 2025 4bbd 24de 00be
000000d0: 1283 14bf a6db b7bd a9b4 d2bd b656 31bf
000000e0: f3b8 05bf 5fdf 0fbe 6f1c 35bf 3b75 503f
000000f0: 4a04 1abe 94d8 c6bd 603d 6e3f b19d d8bd
00000100: 2096 f4bd 948e 70bd b224 0a3f dc90 4abe
00000110: ef4d 29be e3f2 26be dad6 1abe 7727 87bd
00000120: 8106 4bbf d0fb 36bf 60a6 adbe 82e8 dcbd
00000130: bd0c afbd 58da 40bf 4adb 89bd 3ce0 bdbd
00000140: c017 00be c072 7ebf 8340 9cbe 90f7 74bd
00000150: c873 81be 7f76 59bf 08b1 0fbe 86c5 f6be
00000160: e247 3dbd 36f0 69be d357 6abd be0f 22bf
00000170: 99f6 7d3f 3ebf 34be 6877 25bf 8297 ac3f
00000180: 374c 79bf 1964 d1bd 829c 01bf c848 64bd
00000190: cbb8 61be d437 acbd d072 323f a12d 2cbe
000001a0: 28d7 01bf 5d5a cebe 5800 d93e 3221 22bf
000001b0: df80 85bf 2c30 823f 9dd9 69bd 927a a2bd
000001c0: fece aabd 3cf8 513f 5350 fbbd ebb6 4dbf
000001d0: 2318 60be 4bb2 b7bd 60d1 3d3f 7c4c 9bbf
000001e0: 5ebd 99bd 6aff 813c 6500 bd3e 8717 8fbd
000001f0: 46a6 32bf 1820 42bd 3a0d 1bbf bf72 70be

fc2.weight f4 [24, 128]
0.07151423 0.012362017 -0.010024568 -0.16344723 0.14986442 0.027262036 0.43948805 -0.0656825
0.047365136 -0.3290954 -0.044738296 -0.07059808 -0.21066245 -0.31180322 -0.23890474 -0.21382068
-0.13155891 -0.022360634 0.09597566 -0.10499921 0.008090113 -0.090631634 -0.08066846 -0.09737412
-0.26982027 -0.06723235 -0.07016802 -0.0006967435 -0.16335687 0.023828723 -0.19420952 -0.09135578
-0.19457471 -0.020517264 -0.16963665 -0.08844025 -0.00792654 0.045803018 -0.06218282 0.041410502
0.06451256 -0.049667075 0.017135415 -0.076482005 -0.2147249 0.09929837 -0.24483567 -0.1065966
0.021085313 -0.026251208 -0.08322242 -0.008022837 -0.037832346 -0.006804522 -0.048859328 -0.20424733
0.033072885 0.19415608 0.034063745 -0.18005686 -0.2009338 0.057227995 -0.21458672 0.012355596
0.07697297 -0.05520614 -0.25906247 0.11109898 -0.024431115 -0.08014378 0.13560316 -0.06853665
0.15944639 0.045303393 0.012219034 0.10500942 -0.05708723 -0.2109176 0.08641295 0.046513848
-0.12662987 -0.11929856 -0.09206406 -0.15938452 -0.042558797 0.0017427353 0.17441206 -0.16016968
-0.110095106 -0.0981847 -0.0534358 -0.30404088 -0.11580052 -0.037799813 -0.15342863 -0.32481572
0.08441796 -0.11747039 -0.12569937 -0.02011194 0.01790974 0.021722557 -0.27446267 -0.07554166
-0.01575184 -0.07298106 -0.09463192 -0.12539698 -0.0062424545 -0.16858764 0.06808877 -0.027408587
-0.07355587 -0.14198965 0.11412603 0.082873076 0.07594073 -0.014992048 0.0569757 0.08776713
-0.033580933 0.013215078 -0.21550834 -0.019940643 0.06462319 -0.006527892 -0.018335743 -0.08839717
0.26939267 -0.0019141714 0.0013473042 -0.22457881 0.27888662 -0.068219505 0.29018408 -0.020939102
0.033731874 -0.55605966 -0.04554207 -0.08124114 0.3221182 -0.23580939 -0.12630711 0.0062471754
0.48183346 0.017875811 0.10586158 -0.06150975 0.003396863 0.19678454 -0.011732779 -0.048756663
-0.4325382 -0.3252708 -0.28130654 0.095877744 -0.34022504 0.063673586 -0.66571563 -0.2307039
-0.6319591 0.07676687 -0.22435501 0.018683909 -0.0033684636 0.016770981 -0.12942468 -0.04144999
-0.05190864 0.08482164 -0.00872443 -0.2892099 -0.4019949 -0.011528002 -0.28817195 -0.02632157
-0.04909411 0.06756572 0.021472171 -0.017638447 0.3250216 0.020077016 -0.07055217 -0.17409556
-0.1829624 0.16286863 -0.14801975 -0.27402562 0.04777311 -0.12573321 -0.7176076 -0.031749684
0.057946585 0.016554357 -0.09059261 -0.00542999 -0.08438812 -0.24759734 0.045524027 -0.047970958
0.047853995 0.4197631 -0.07825715 0.0036501426 0.08971442 -0.09279436 -0.092035756 0.067275874
0.021910619 -0.36858562 -0.19020484 -0.31759983 -0.1806075 -0.20400472 0.15570699 -0.08655786
-0.08375364 0.06872903 0.004278861 -0.25064692 -0.36095 -0.02215121 -0.12800556 -0.67156285
0.3704705 0.020581044 -0.06443534 0.0069007874 -0.025476636 0.065400004 -0.26893124 -0.08115982
-0.08060879 -0.33936188 -0.58089966 0.030316046 0.32539338 -0.4076177 -0.055074476 -0.026886959
-0.009042081 -0.18023904 -0.08429897 0.2691098 0.10612757 -0.09773914 -0.426199 0.35212752
-0.065671675 0.087553486 -0.17737196 0.02284024 0.06348382 -0.059294112 0.25234592 -0.071078904
00000000: 0d76 923d 0f8a 4a3c 163e 24bc b65e 27be
00000010: 0f76 193e a254 df3c 9404 e13e 8c84 86bd
00000020: f201 423d 317f a8be 813f 37bd ba95 90bd
00000030: e6b7 57be aca4 9fbe 72a3 74be cff3 5abe
00000040: 61b7 06be a62d b7bc e38e c43d d309 d7bd
00000050: 658c 043c 149d b9bd 8135 a5bd 156c c7bd
00000060: e225 8abe 1db1 89bd 40b4 8fbd aaa5 36ba
00000070: 0647 27be 7434 c33c dcde 46be bd18 bbbd
00000080: 983e 47be d213 a8bc 3bb5 2dbe 2920 b5bd
00000090: 52de 01bc f29b 3b3d 6ab3 7ebd 0f9e 293d
000000a0: 291f 843d b46f 4bbd 925f 8c3c 99a2 9cbd
000000b0: d8e0 5bbe f25c cb3d 34b6 7abe 514f dabd
000000c0: 1bbb ac3c c60c d7bc 8470 aabd 3872 03bc
000000d0: 17f6 1abd 78f8 debb b820 48bd 3626 51be
000000e0: 6f77 073d dad0 463e 6d86 0b3d d360 38be
000000f0: 97c1 4dbe e767 6a3d 9fbc 5bbe 206f 4a3c
00000100: 01a4 9d3d d51f 62bd d6a3 84be dd87 e33d
00000110: c323 c8bc 6c22 a4bd 8edb 0a3e f15c 8cbd
00000120: ea45 233e 0d90 393d 5832 483c 2e0f d73d
00000130: 4dd4 69bd c9fa 57be 46f9 b03d 4e85 3e3d
00000140: 43ab 01be ce52 f4bd 158c bcbd b235 23be
00000150: 2252 2ebd 7e6c e43a 1399 323e 8503 24be
00000160: 8b79 e1bd 0f15 c9bd 7fdf 5abd 3fab 9bbe
00000170: d328 edbd fad3 1abd 651c 1dbe 3f4e a6be
00000180: 53e3 ac3d 5194 f0bd 56b7 00be ccc1 a4bc
00000190: 72b7 923c 81f3 b13c 5f86 8cbe 96b5 9abd
000001a0: 010a 81bc 1877 95bd 61ce c1bd 1168 00be
000001b0: 818d ccbb 3da2 2cbe 2072 8b3d f987 e0bc
000001c0: 76a4 96bd bc65 11be e8ba e93d 5cb9 a93d
000001d0: d086 9b3d 35a1 75bc 5a5f 693d 41bf b33d
000001e0: 298c 09bd 0e84 583c 38ae 5cbe 8f5a a3bc
000001f0: 2a59 843d ede7 d5bb d734 96bc 9309 b5bd
00000200: d6ed 893e efe4 faba 0798 b03a fdf7 65be
00000210: 3aca 8e3e abb6 8bbd 0293 943e 7b88 abbc
00000220: 6f2a 0a3d ed59 0ebf 528a 3abd c161 a6bd
00000230: adec a43e 0478 71be a756 01be 1bb5 cc3b
00000240: e0b2 f63e 4b70 923c f5cd d83d a6f1 7bbd
00000250: e79d 5e3b e381 493e d83a 40bc 11b5 47bd
00000260: a675 ddbe e589 a6be 6907 90be 8d5b c43d
00000270: fa31 aebe 4c67 823d 576c 2abf a53d 6cbe
00000280: 12c8 21bf f337 9d3d 52bd 65be ff0e 993c
00000290: 71c1 5cbb 4c63 893c e787 04be 77c7 29bd
000002a0: 279e 54bd f8b6 ad3d e9f0 0ebc 5213 94be
000002b0: 47d2 cdbe f2df 3cbc 468b 93be 55a0 d7bc
000002c0: e816 49bd e55f 8a3d 68e6 af3c 817e 90bc
000002d0: 3b69 a63e 8e78 a43c a87d 90bd 1b46 32be
000002e0: 7f5a 3bbe 09c7 263e 7d92 17be 164d 8cbe
000002f0: bdad 433d 35c0 00be 22b5 37bf f50b 02bd
00000300: 6659 6d3d 019d 873c 9e88 b9bd 0fee b1bb
00000310: aed3 acbd 288a 7dbe 6777 3a3d 327d 44bd
00000320: 8d02 443d 30eb d63e 4945 a0bd 3b37 6f3b
00000330: 32bc b73d f80a bebd 3e7d bcbd efc7 893d
00000340: e67d b33c 41b7 bcbe 0fc5 42be 729c a2be
00000350: 2cf1 38be 9de6 50be a771 1f3e 3f45 b1bd
00000360: 0787 abbd cec1 8c3d b035 8c3b cb54 80be
00000370: 70ce b8be 7476 b5bc e413 03be 8beb 2bbf
00000380: 4fae bd3e 9499 a83c adf6 83bd 0020 e23b
00000390: 61b4 d0bc 70f0 853d 5bb1 89be 1f37 a6bd
000003a0: 3916 a5bd d7c0 adbe d7b5 14bf 5b59 f83c
000003b0: f699 a63e 44b3 d0be c695 61bd 0a42 dcbc
000003c0: 3d25 14bc 9590 38be f0a4 acbd c2c8 893e
000003d0: 6959 d93d 752b c8bd c136 dabe 0f4a b43e
000003e0: df7e 86bd 3e4f b33d ffa0 35be 741b bb3c
000003f0: ce03 823d 62de 72bd 7c33 813e d191 91bd

fc2.bias f4 [24]
0.009787016 -0.6710099 1.1965234 -0.2886131 -0.025040854 -0.0038236822 -0.44347477 -0.0011248882
-0.12152841 -0.12531716 -0.20701246 -0.15651071 0.8844711 -0.15557937 -0.08763417 -0.60153836
0.07705776 1.4952326 -0.11951653 0.015205244 -0.4666635 -0.24495953 -0.59441537 -0.09002673
00000000: b859 203c 4ec7 2bbf ae27 993f 19c5 93be
00000010: 7a22 cdbc be96 7abb 200f e3be fc70 93ba
00000020: e3e3 f8bd 2453 00be 13fb 53be 5844 20be
00000030: b36c 623f 3350 1fbe 8b79 b3bd 6bfe 19bf
00000040: 75d0 9d3d c863 bf3f 15c5 f4bd 6a1f 793c
00000050: 85ee eebe acd6 7abe 9b2b 18bf ef5f b8bd

fc3.weight f4 [128, 24]
-0.017071165 0.16312543 0.2894017 0.11995795 0.22529322 0.17527795 0.07450245 0.53071225
0.022942863 -0.18131761 -0.070341535 -0.52589077 -0.03208335 0.2070455 0.08044003 -2.0001798
-0.29034358 0.23194215 -0.016255163 0.012596667 0.27048758 -0.041342292 -0.35944268 0.011603734
-0.111302584 0.008828042 -0.2036652 0.16686456 0.25724328 0.008154839 0.90714794 0.49398756
-0.02736781 -0.069179766 0.010932697 -0.37300116 -0.47370914 0.13463342 -0.1843955 -0.14401415
-0.5620705 0.21666689 -0.14429766 0.03982985 0.14603367 0.025702678 0.053271398 -0.1968147
-0.47610924 -0.20250343 -0.10057139 -0.050819702 -0.02232776 0.021253549 -0.24566828 0.009111969
-0.006369724 0.16329695 -0.01604567 -0.20384882 -0.13667315 0.05176859 -0.05071819 -0.28351614
0.8280352 0.6601886 0.17836934 -0.10750503 -0.28010526 0.1531494 0.13552438 0.01862687
-0.029930452 -0.0011064085 0.09513942 -0.0025581496 -0.144065 -0.014720961 -0.47737455 -0.68290627
-0.009480894 -0.2107687 0.015931234 0.59520453 0.33796272 0.2783509 -0.18703952 -0.3246913
0.47351268 -0.24310431 -0.041739777 -0.14759246 0.15524156 -0.16126333 0.04435126 0.23768489
0.29274055 0.45103702 -0.0059223757 0.5071977 0.15053289 0.14953974 0.13146016 -0.17371693
0.12866688 0.55379647 0.054295305 0.33416805 -0.3755946 -0.03519853 -0.18498902 -0.18834794
0.03873479 -0.8119769 -0.13685228 -0.15160292 -0.22448213 0.080507815 0.20742162 0.05574932
0.16580488 0.12450627 -0.5903129 -0.107142515 0.088002756 0.21173288 -0.1756595 -0.43968967
0.19054852 0.038573872 -0.03524605 -0.38504794 -0.40151122 0.03763817 0.059873298 0.47857612
-0.67581296 -0.30143905 -0.048350092 0.1921819 0.119841695 0.11563015 -0.44946605 -0.13205004
-0.23434335 -0.21978699 0.43959543 -0.48814753 -0.38181698 0.03730032 0.47274628 -0.048162557
-0.15096748 -0.2925582 0.014762666 -0.18368867 -0.15215565 0.16636652 0.111531585 0.20025045
0.05398989 0.3500037 0.08114002 0.01916393 -0.29483104 -0.081613034 0.42199972 -0.22231649
0.0686201 0.30637836 -0.104085945 -1.0574435 -0.059560295 -0.13022755 -0.003949815 -0.31063843
0.12574193 -0.23631224 -0.13666798 0.42003098 0.4479176 0.13283794 -0.057349022 -0.3164502
-0.02622176 0.21659282 0.12219244 -0.15556113 -0.26133278 0.0959722 0.11853573 -0.20368604
0.17267093 0.1202959 0.037397724 0.5504034 -0.7130066 0.14482015 0.60719144 -0.062092658
-0.04357698 0.16334689 0.033114985 -0.30188906 -0.36726177 0.15850574 -0.13327911 0.072541125
0.47856858 -0.8854034 0.30091155 -0.109490655 0.12332799 0.22917846 -0.020115193 0.043048654
-0.10106608 -0.0708575 0.05071405 0.5435621 -0.5337177 -0.15396072 0.2261929 -0.17704383
0.030250847 -0.08825137 -0.27399266 0.04808876 -0.5907787 -0.017684346 -0.012099302 -0.78582865
0.4383633 0.32339418 0.15786767 0.09114302 0.4145892 -0.16539407 0.37261242 -0.24572018
-0.06799762 -0.21066003 -0.15158306 -0.41875452 0.22075483 -0.14682534 -0.070925474 -0.41271102
-0.05200304 -0.11873775 0.04570962 -0.17758472 0.06418696 0.19920674 -0.1768989 -0.12936692
00000000: d4d8 8bbc 5a0a 273e 762c 943e 84ac f53d
00000010: 44b3 663e 107c 333e be94 983d c2dc 073f
00000020: acf2 bb3c 53ab 39be 390f 90bd c7a0 06bf
00000030: d569 03bd bc03 543e bebd a43d f202 00c0
00000040: eaa7 94be 3e82 6d3e 8c29 85bc 4062 4e3c
00000050: 597d 8a3e 8956 29bd df08 b8be 971d 3e3c
00000060: 9cf2 e3bd 7ea3 103c 9c8d 50be 8bde 2a3e
00000070: 64b5 833e e09b 053c d93a 683f f0eb fc3e
00000080: 7532 e0bc 1fae 8dbd 0e1f 333c 02fa bebe
00000090: 018a f2be 58dd 093e 2dd2 3cbe 7278 13be
000000a0: dae3 0fbf eddd 5d3e c4c2 13be a024 233d
000000b0: da89 153e 6c8e d23c 1c33 5a3d cb89 49be
000000c0: 97c4 f3be 0f5d 4fbe 5ff8 cdbd 5228 50bd
000000d0: b5e8 b6bc ec1b ae3c 7790 7bbe 5e4a 153c
000000e0: 1eb9 d0bb 5137 273e 3572 83bc bfbd 50be
000000f0: 0cf4 0bbe 4d0b 543d e0bd 4fbd 0729 91be
00000100: 1dfa 533f 1f02 293f 74a6 363e 992b dcbd
00000110: f569 8fbe 32d3 1c3e e7c6 0a3e 6197 983c
00000120: b530 f5bc e904 91ba 75d8 c23d a1a6 27bb
00000130: c685 13be 3030 71bc 706a f4be f2d2 2ebf
00000140: c055 1bbc c0d3 57be 3882 823c 535f 183f
00000150: 7309 ad3e 0284 8e3e 4a87 3fbe f03d a6be
00000160: 4170 f23e 56f0 78be 54f7 2abd 7a22 17be
00000170: a5f7 1e3e 3722 25be aba9 353d ab63 733e
00000180: 17e2 953e 53ee e63e 7d10 c2bb b5d7 013f
00000190: 4b25 1a3e f220 193e 7e9d 063e dae2 31be
000001a0: 40c1 033e 9bc5 0d3f c164 5e3d 1318 ab3e
000001b0: ef4d c0be 552c 10bd c36d 3dbe 48de 40be
000001c0: 5fa8 1e3d b8dd 4fbf 0123 0cbe cc3d 1bbe
000001d0: a5de 65be 48e1 a43d 5566 543e 6659 643d
000001e0: c1c8 293e 25fd fe3d bf1e 17bf 896d dbbd
000001f0: ca3a b43d 81d0 583e 15e0 33be 011f e1be
00000200: 271f 433e a3ff 1d3d 2a5e 10bd 0125 c5be
00000210: e192 cdbe 7b2a 1a3d b43d 753d ee07 f53e
00000220: 1402 2dbf 3856 9abe bf0a 46bd 55cb 443e
00000230: 906f f53d 80cf ec3d 6a20 e6be 2038 07be
00000240: b4f7 6fbe d70f 61be a712 e13e 79ee f9be
00000250: 847d c3be 38c8 183d cd0b f23e 1a46 45bd
00000260: 3897 1abe 30ca 95be 1cdf 713c e218 3cbe
00000270: b1ce 1bbe fc5b 2a3e ac6a e43d 740e 4d3e
00000280: 8124 5d3d af33 b33e bd2c a63d adfd 9c3c
00000290: 18f4 96be bc24 a7bd 5910 d83e efa6 63be
000002a0: b288 8c3d a0dd 9c3e 032b d5bd 4f5a 87bf
000002b0: 7ff5 73bd 5f5a 05be 736d 81bb 000c 9fbe
000002c0: 7ec2 003e d6fb 71be b1f2 0bbe 4d0e d73e
000002d0: 7555 e53e ab06 083e cfe6 6abd c305 a2be
000002e0: 04cf d6bc 82ca 5d3e 0840 fa3d 6b4b 1fbe
000002f0: 69cd 85be 138d c43d dcc2 f23d 1393 50be
00000300: a6d0 303e b25d f63d 5b2e 193d 3de7 0c3f
00000310: 9a87 36bf bc4b 143e e670 1b3f df54 7ebd
00000320: c67d 32bd 6844 273e 94a3 073d 3491 9abe
00000330: bc09 bcbe 544f 223e 527a 08be 7190 943d
00000340: f106 f53e cca9 62bf 1411 9a3e a33c e0bd
00000350: 6393 fc3d c2ad 6a3e 9ec8 a4bc c953 303d
00000360: bcfb cebd bd1d 91bd 89b9 4f3d e326 0b3f
00000370: b9a1 08bf e1a7 1dbe 1d9f 673e fa4a 35be
00000380: a0d0 f73c 22bd b4bd c448 8cbe b8f8 443d
00000390: 463d 17bf c3de 90bc 273c 46bc 112c 49bf
000003a0: 2871 e03e ec93 a53e 10a8 213e 31a9 ba3d
000003b0: 0945 d43e 105d 29be 0ec7 be3e 129e 7bbe
000003c0: 5642 8bbd 43b7 57be 9738 1bbe fe66 d6be
000003d0: 8e0d 623e 6259 16be 6041 91bd dc4e d3be
000003e0: 2401 55bd c72c f3bd 033a 3b3d c5d8 35be
000003f0: 7474 833d dafc 4b3e fc24 35be c378 04be

fc3.bias f4 [128]
-0.17241934 -0.35479328 1.1324787 -0.29505938 -0.72820574 -0.439605 1.1007098 -0.39353994
-0.58125544 0.6396102 -0.32292062 0.7084616 -0.39033717 0.6840017 -0.5779732 -0.09950411
0.1680407 -0.35254988 -0.4379671 1.0591499 -0.42497006 0.29620755 -0.12846743 -0.21493603
-0.14697036 0.14502431 -0.055257622 1.0666662 0.8440656 -0.15378273 -0.56861305 -0.4159412
-0.21554643 -0.077517085 1.068773 -0.13514249 1.2332861 0.04764033 1.0111024 -0.37592545
0.45968166 -0.1310296 -0.27037013 -0.63372415 -1.3974614 -0.039263528 -0.24188995 0.109195754
-0.05913158 1.6072637 -0.5171508 -0.059569705 0.8984245 -0.2393107 -0.22156075 -0.33824682
1.3160912 1.1037067 -0.4461008 -0.029299026 -0.0035014488 0.5701084 -0.49733377 0.9801307
-0.8013306 -0.4937455 -0.26036063 -0.742982 0.4938252 -0.27857336 -0.23722842 -0.40346938
-0.39071414 -1.1952918 0.10890283 -0.15585868 0.09677319 -0.19464876 1.0355917 -0.30795327
-0.39950866 -0.7041319 0.00040813859 1.2807136 -0.31898966 -0.2055041 -0.96933526 0.9243987
1.1632571 -0.3959239 1.1552172 -0.30161917 -0.42214856 -0.8564867 -0.3321175 -0.48969522
-1.317785 -0.03357076 0.046170298 1.6210235 -0.8704421 -0.6613482 -0.32593566 -1.2247474
-0.723474 0.7770235 -0.4047343 -0.18085042 -0.33573914 -0.78429896 -0.42564902 -0.18528645
-0.1650194 1.2482945 1.4580444 0.033190798 -0.20047456 -0.6354073 -0.113231935 -0.24894536
-0.0034080388 -0.0741586 0.0031744868 -1.2911499 -0.58761394 -0.4962138 0.16732346 -0.042818666
00000000: b28e 30be 77a7 b5be 10f5 903f 0612 97be
00000010: b16b 3abf e813 e1be 0fe4 8c3f 117e c9be
00000020: 28cd 14bf 7ebd 233f da55 a5be bd5d 353f
00000030: 46da c7be bc1a 2f3f 0df6 13bf d0c8 cbbd
00000040: dc12 2c3e 6b81 b4be 393d e0be 3992 873f
00000050: ad95 d9be 84a8 973e f78c 03be 3118 5cbe
00000060: 667f 16be 4181 143e d155 62bd 8588 883f
00000070: af14 583f 3879 1dbe a090 11bf 3ff6 d4be
00000080: 34b8 5cbe 47c1 9ebd 8ecd 883f cb62 0abe
00000090: 52dc 9d3f 8222 433d ce6b 813f 4d79 c0be
000000a0: 655b eb3e a02c 06be f46d 8abe bf3b 22bf
000000b0: 04e0 b2bf cbd2 20bd 00b2 77be 06a2 df3d
000000c0: f533 72bd d1ba cd3f ff63 04bf 5dff 73bd
000000d0: 26ff 653f dd0d 75be d2e0 62be b02e adbe
000000e0: ad75 a83f 4346 8d3f 5367 e4be 8304 f0bc
000000f0: 9078 65bb a0f2 113f 88a2 febe d8e9 7a3f
00000100: 0124 4dbf 36cc fcbe fd4d 85be 1134 3ebf
00000110: a8d6 fc3e 2ba1 8ebe 02ec 72be 8a93 cebe
00000120: af0b c8be 52ff 98bf 7208 df3d 6b99 1fbe
00000130: 0631 c63d 0152 47be 458e 843f 0dac 9dbe
00000140: 668c ccbe fd41 34bf 6ffb d539 6cee a33f
00000150: 9d52 a3be ab6f 52be 5b26 78bf 65a5 6c3f
00000160: 9ce5 943f 8ab6 cabe 28de 933f d46d 9abe
00000170: db23 d8be b642 5bbf 4e0b aabe 55b9 fabe
00000180: 2ead a8bf 7e81 09bd 111d 3d3d b37d cf3f
00000190: 4bd5 5ebf 1e4e 29bf 0ae1 a6be 86c4 9cbf
000001a0: 9835 39bf 03eb 463f 5639 cfbe da30 39be
000001b0: 00e6 abbe d1c7 48bf abee d9be bbbb 3dbe
000001c0: d8fa 28be 1dc8 9f3f 33a1 ba3f 13f3 073d
000001d0: 3449 4dbe 0eaa 22bf 25e6 e7bd 88eb 7ebe
000001e0: 6759 5fbb 77e0 97bd 0d0b 503b 6644 a5bf
000001f0: de6d 16bf bc0f febe d756 2b3e a062 2fbd

fc4.weight f4 [256, 128]
0.4020914 0.31244656 -0.34031954 -0.5540058 0.76852953 0.28125274 0.11039382 0.08786618
0.5074669 0.010281366 -0.17846219 0.11979466 0.1859083 0.63097113 -0.111577936 -0.08765693
0.03616725 -0.27373284 0.15716071 0.031056747 -0.05238794 0.13599841 0.21354786 0.014584879
-0.054757155 -0.16981508 0.38884762 -0.45791745 0.09442212 0.07831573 1.0267764 0.521134
-0.17496487 0.19534783 -0.15895565 0.0186455 -0.2962267 -0.4694032 -0.08044659 0.019249454
-0.063670315 -0.01461602 0.05351249 0.3521718 0.16252229 -0.35492954 -0.005754588 0.031083679
0.0686149 -0.12908313 0.3046402 0.045961972 -0.41646346 0.25648642 -0.20414542 -0.21414936
0.43230262 -0.17318596 1.0149724 0.36699978 0.046870135 0.51220924 0.33727476 -0.21323684
0.14665934 0.1957311 -0.07453892 0.17521356 -0.053102124 0.14183827 -0.15072364 -0.9148263
-0.016402012 0.09516368 -0.020105027 -0.09884665 0.37084207 -0.2069018 0.092076786 0.79228425
-0.057317838 0.079201154 -0.05445019 0.2557427 0.38919246 -0.0089392355 -0.18600136 -0.07367509
0.13091172 0.102584206 -0.026943421 0.03826263 -0.08550976 1.090354 0.09951648 0.061180647
0.06902567 -0.0039589247 0.5628144 0.042745866 -0.022038914 0.93020374 0.17227189 0.12098921
-0.87526023 -0.3011437 -0.36248362 -0.008926052 -0.30422106 0.18828209 -0.3204639 -0.16121295
0.06870557 0.343363 -0.43742526 0.055555675 -0.021473847 -0.19997226 -0.6339509 0.03216979
0.35346788 -0.08030624 -0.17325811 -0.051123586 -0.11703735 0.22609046 -0.88371736 -0.037029665
-0.0847803 -0.008412101 -0.15911964 -0.06361986 -0.012331421 -0.16441733 -0.0613299 -0.056163188
-0.17493775 -0.13226297 -0.030556928 -0.20556584 0.023939649 -0.053477515 -0.18971148 -0.089385964
-0.09161414 -0.03327697 -0.10353246 -0.05829023 -0.0045010373 -0.15212278 -0.02356845 -0.07948735
0.007486731 -0.09823996 -0.07891499 -0.1579371 -0.043097164 0.04825224 -0.124530025 -0.049216434
-0.02381545 -0.024957245 -0.11331817 -0.01582282 -0.0039901338 -0.17870942 0.044367712 -0.10806077
0.06244781 -0.10802046 0.04944213 -0.16824573 -0.120685995 -0.041505888 -0.02202174 -0.011998277
-0.042398807 -0.20590654 -0.14249054 -0.010641148 -0.0037155172 -0.008440044 0.019042924 -0.030755961
-0.047785763 -0.12221046 0.019023115 -0.07996211 0.049686473 0.063415304 0.14571808 -0.11705562
-0.0506933 -0.11427115 -0.028161937 0.054873068 0.037126455 0.008817486 0.010473333 -0.004005544
-0.0092101535 -0.058357947 -0.0947484 -0.0345876 0.02570265 -0.14341876 -0.18611337 0.08659946
-0.10468533 -0.13335119 -0.06321268 -0.06765706 -0.0026878745 -0.008771151 0.05143826 -0.1756187
-0.077136494 -0.06728544 -0.14163478 0.017831616 -0.05386894 -0.025526877 -0.20299466 -0.15513249
-0.18128523 -0.084812954 -0.07537723 -0.14421962 -0.017580144 -0.0814503 -0.17721981 -0.03674909
-0.047723547 -0.17984577 -0.062007822 -0.08404419 -0.026350234 0.00046717376 -0.0673568 -0.06408769
-0.07063104 -0.11327291 -0.03401296 -0.09621871 0.04467707 -0.08914388 -0.20768104 0.053769477
-0.14888616 -0.044780884 -0.18031739 0.0039384863 -0.11050782 -0.15028368 -0.12896937 -0.08084233
00000000: edde cd3e fff8 9f3e 5d3e aebe 53d3 0dbf
00000010: 5abe 443f 5c00 903e 2816 e23d 2ff3 b33d
00000020: 5ae9 013f 2d73 283c cbbe 36be e756 f53d
00000030: bf5e 3e3e 5387 213f f982 e4bd 7a85 b3bd
00000040: 1c24 143d b626 8cbe bdee 203e b86a fe3c
00000050: bd94 56bd 2b43 0b3e 4aac 5a3e 6bf5 6e3c
00000060: 0a49 60bd 01e4 2dbe 0917 c73e 2874 eabe
00000070: 6260 c13d ff63 a03d 696d 833f 0a69 053f
00000080: fe29 33be 4309 483e 45c5 22be 73be 983c
00000090: 07ab 97be 9e55 f0be 2fc1 a4bd 08b1 9d3c
000000a0: 9565 82bd 0878 6fbc ea2f 5b3d dd4f b43e
000000b0: 3e6c 263e 53b9 b5be fc90 bcbb 33a3 fe3c
000000c0: f885 8c3d 5e2e 04be cdf9 9b3e 9f42 3c3d
000000d0: b33a d5be 3052 833e 7f0b 51be f849 5bbe
000000e0: c556 dd3e a957 31be 9eea 813f 65e7 bb3e
000000f0: e6fa 3f3d 2520 033f 47af ac3e c25a 5abe
00000100: de2d 163e bc6d 483e dca7 98bd 2f6b 333e
00000110: 9d81 59bd 0d3e 113e 4c57 1abe 0e32 6abf
00000120: 835d 86bc 2de5 c23d 4cb3 a4bc 1d70 cabd
00000130: 03df bd3e 11de 53be c192 bc3d 24d3 4a3f
00000140: 1cc6 6abd 3734 a23d 2a07 5fbd b5f0 823e
00000150: 3c44 c73e df75 12bc 2477 3ebe f7e2 96bd
00000160: b90d 063e ab17 d23d 73b8 dcbc 47b9 1c3d
00000170: be1f afbd b890 8b3f 4ccf cb3d 8f98 7a3d
00000180: 555d 8d3d deb9 81bb 9b14 103f 4a16 2f3d
00000190: f48a b4bc d521 6e3f 0b68 303e 31c9 f73d
000001a0: 0e11 60bf 822f 9abe 7497 b9be 933e 12bc
000001b0: ddc2 9bbe 05cd 403e d813 a4be 0215 25be
000001c0: 82b5 8c3d 46cd af3e 34f6 dfbe 598e 633d
000001d0: ece9 afbc 87c5 4cbe 9b4a 22bf 78c4 033d
000001e0: bef9 b43e 9977 a4bd 936a 31be f766 51bd
000001f0: 47b1 efbd 4284 673e 4d3b 62bf 6bac 17bd
00000200: 4ba1 adbd e9d2 09bc 42f0 22be 214b 82bd
00000210: ba09 4abc 045d 28be 1035 7bbd 5f0b 66bd
00000220: e222 33be f26f 07be 8652 fabc da7f 52be
00000230: 151d c43c 3d0b 5bbd ba43 42be fd0f b7bd
00000240: 32a0 bbbd 6f4d 08bd d408 d4bd bcc1 6ebd
00000250: 707d 93bb 13c6 1bbe 9f12 c1bc 44ca a2bd
00000260: 4053 f53b 0832 c9bd 2f9e a1bd 43ba 21be
00000270: a786 30bd 24a4 453d 9909 ffbd 2c97 49bd
00000280: 9e18 c3bc 2373 ccbc 5b13 e8bd dc9e 81bc
00000290: abbf 82bb 9aff 36be ebba 353d f74e ddbd
000002a0: 46c9 7f3d d539 ddbd d583 4a3d 9c48 2cbe
000002b0: 382a f7bd 1402 2abd f066 b4bc 6c94 44bc
000002c0: 5faa 2dbd 2ad9 52be 0ae9 11be 3658 2ebc
000002d0: 0980 73bb 1c48 0abc e8ff 9b3c edf3 fbbc
000002e0: 01bb 43bd 7a49 fabd 5dd6 9b3c 2dc3 a3bd
000002f0: 0b84 4b3d e2df 813d 1f37 153e dbba efbd
00000300: c7a3 4fbd fe06 eabd ddb3 e6bc 95c2 603d
00000310: e911 183d 3877 103c 5898 2b3c f040 83bb
00000320: 2fe6 16bc be08 6fbd 730b c2bd baab 0dbd
00000330: 5d8e d23c 5edc 12be 8194 3ebe 0f5b b13d
00000340: 4365 d6bd 378d 08be a675 81bd c98f 8abd
00000350: 0d27 30bb e0b4 0fbc edb0 523d 63d5 33be
00000360: bdf9 9dbd f3cc 89bd b508 11be 9c13 923c
00000370: ada5 5cbd be1d d1bc d5dd 4fbe 0ddb 1ebe
00000380: d6a2 39be 6ab2 adbd 615f 9abd 4fae 13be
00000390: 3c04 90bc 6acf a6bd 1c79 35be 3786 16bd
000003a0: c479 43bd 7d29 38be eafb 7dbd 5c1f acbd
000003b0: 72dc d7bc 00ef f439 5df2 89bd 6840 83bd
000003c0: 02a7 90bd a1fb e7bd 2c51 0bbd 510e c5bd
000003d0: 4eff 363d 1191 b6bd 57aa 54be 623d 5c3d
000003e0: 9d75 18be 296c 37bd 1fa5 38be 6b0e 813b
000003f0: ed51 e2bd f7e3 19be 8c10 04be aa90 a5bd

fc4.bias f4 [256]
-0.5132222 0.0045785336 0.21117698 0.18226755 -0.009999833 -0.1875234 -0.9307788 -0.9132367
-0.053176578 -0.02258437 0.0036173093 0.43643436 0.26282415 0.022082364 -0.47469977 -0.17026296
-0.16144846 -0.2168398 0.0378729 0.39075533 0.20464075 -0.023574067 -0.315288 -0.0017144104
-0.5860073 0.004505194 -0.035589945 -0.11322331 -0.1351926 0.017079001 -0.17327176 0.03096114
0.02350717 -0.39868435 -0.022742303 -0.06743432 -0.20676471 0.029905576 0.0105470205 0.13011874
-0.16880725 -0.060355324 -0.29367182 -0.11234787 -0.17539668 -0.16922118 -0.089272566 -0.12612037
0.029750077 -0.04639856 0.011759144 -0.10931952 -0.034541 -0.20499621 -0.16202733 -0.037491508
-0.181798 -0.5096374 -0.14734693 -0.03256623 -0.10227224 -0.051517606 -0.47828397 0.044638507
0.7389696 -0.20721643 -0.21162236 0.00897385 0.11583817 0.64247143 1.255212 1.36997
-0.16517049 0.3594574 -0.19059147 -0.0602429 0.041245513 0.007330826 0.8224626 -0.22214654
0.56665874 -0.12242555 -0.035381496 -0.01527323 0.44532606 0.41940823 -0.14546087 0.27488905
-0.21413694 1.0935079 1.3119898 -0.11398559 1.143517 -0.115105696 0.16706197 -0.55430245
-0.046319358 1.0770298 1.4230722 1.1825562 1.0614604 -0.06877531 -0.11176658 -0.15677795
0.43122908 -0.36442643 0.64520025 -0.04680236 0.7392147 -0.2613405 0.3919973 0.28014246
1.0000982 -0.09293667 0.13892157 0.12559797 -0.038719155 0.029782977 0.58766204 -0.055697627
-0.047186334 0.6150746 -0.16472572 0.10907622 0.31030363 -0.23966178 0.80709225 1.2042904
0.0024411671 0.29696175 -0.21708351 -0.22701715 0.039441757 -0.03436242 -0.16045922 -0.029684179
0.6566321 -0.3687818 0.14490691 -0.13083473 -0.14871278 0.37344024 -0.22699928 1.0199955
-0.018810969 1.0479639 0.73662955 0.48143294 -0.14208703 -0.14247331 0.3393245 -0.2648392
0.479068 -0.041119326 -0.20391367 -0.047662392 -0.045636334 0.94481605 -0.12496783 -0.059030097
0.34934413 -0.040188555 0.028334016 0.35792142 0.2533521 0.7232499 0.07119326 -0.2440069
-0.08926639 0.40812764 0.007895634 0.68813324 0.051729128 -0.22574405 -0.19511808 -0.036065154
-0.13930112 0.5069742 -0.23991221 -0.1906014 -0.10908639 0.56564206 -0.3349134 -0.16176435
0.90895736 -0.34041765 0.32674053 -0.33837003 -0.16606641 0.5184721 -0.021800708 -0.035312932
-0.08435747 -0.12179875 -0.061292432 -0.13994452 -0.19477151 -0.0046884413 -0.10433661 -0.03138434
-0.16591325 -0.045322634 -0.05551395 -0.11690203 -0.14065652 -0.06009602 -0.38076988 -0.26893917
-0.14830305 0.029899247 -0.17757021 -0.3948086 -0.0071222014 -0.08865185 -0.12765257 -0.10756373
-0.1404372 -0.09668078 -0.25423092 0.98601925 0.36002734 -0.24560294 -0.0412663 -0.16402629
-0.19420548 0.016312301 0.01314131 -0.090266556 -0.0817133 -0.12310052 -0.1746921 0.024314879
-0.4716106 -0.037390172 -0.11745652 -0.041174192 0.036128942 0.2949686 -0.1795307 -0.13751286
-0.33142397 -0.24139081 -0.025571624 0.018715717 0.17913048 -0.007930974 -0.15780844 0.7128906
-0.075119235 -0.1308758 0.036317732 -0.13379674 0.032479815 -0.086431846 -0.088453636 -0.10469876
00000000: 8862 03bf 8607 963b c73e 583e 58a4 3a3e
00000010: 57d6 23bc 2206 40be 8547 6ebf e1c9 69bf
00000020: afcf 59bd db02 b9bc 6110 6d3b 5374 df3e
00000030: e390 863e 13e6 b43c d90b f3be 6a59 2ebe
00000040: bf52 25be 410b 5ebe 9d20 1b3d 1511 c83e
00000050: 588d 513e 671e c1bc 6e6d a1be 11b6 e0ba
00000060: 9304 16bf 4ea0 933b c3c6 11bd 9fe1 e7bd
00000070: ee6f 0abe 43e9 8b3c 276e 31be 37a2 fd3c
00000080: 1c92 c03c 5b20 ccbe 114e babc 011b 8abd
00000090: 21ba 53be 8afc f43c 69cd 2c3c d93d 053e
000000a0: cfdb 2cbe 2537 77bd 275c 96be a416 e6bd
000000b0: 309b 33be 5148 2dbe 89d4 b6bd b325 01be
000000c0: 6fb6 f33c 6b0c 3ebd 6da9 403c eae2 dfbd
000000d0: dd7a 0dbd 87ea 51be 7eea 25be b290 19bd
000000e0: 4129 3abe 9977 02bf 1de2 16be 2b64 05bd
000000f0: 1c74 d1bd 2004 53bd a3e1 f4be ded6 363d
00000100: 1d2d 3d3f 8b30 54be 88b3 58be 0e07 133c
00000110: 903c ed3d 0279 243f c9aa a03f 2d5b af3f
00000120: 7422 29be cd0a b83e 692a 43be 42c1 76bd
00000130: 0ef1 283d 6d37 f03b e98c 523f 627a 63be
00000140: 8c10 113f 3fba fabd 30ec 10bd 923c 7abc
00000150: c701 e43e adbc d63e b2f3 14be 42be 8c3e
00000160: b746 5bbe 11f8 8b3f 48ef a73f 4771 e9bd
00000170: c45e 923f 89bc ebbd 4b12 2b3e c4e6 0dbf
00000180: 5eb9 3dbd 1ddc 893f 3b27 b63f 005e 973f
00000190: efdd 873f 12da 8cbd e0e5 e4bd 668a 20be
000001a0: 0fca dc3e 1a96 babe d82b 253f d5b3 3fbd
000001b0: 2d3d 3d3f 6cce 85be dfb3 c83e d56e 8f3e
000001c0: 3803 803f 9555 bebd 7541 0e3e c19c 003e
000001d0: fa97 1ebd 6efb f33c 0571 163f 3223 64bd
000001e0: 7546 41bd 8775 1d3f dcad 28be 5a63 df3d
000001f0: 1ee0 9e3e e669 75be 999d 4e3f 3026 9a3f
00000200: fdfb 1f3b 5f0b 983e 244b 5ebe 2f77 68be
00000210: ae8d 213d 9cbf 0cbd 6c4f 24be 3c2c f3bc
00000220: 0b19 283f f8d0 bcbe 7a62 143e 8af9 05be
00000230: 2a48 18be 8f33 bf3e 8072 68be 368f 823f
00000240: 7619 9abc ae23 863f c193 3c3f 617e f63e
00000250: 437f 11be 86e4 11be f1bb ad3e 0199 87be
00000260: 6748 f53e bd6c 28bd bfce 50be a439 43bd
00000270: 2aed 3abd 77df 713f 22ef ffbd 8bc9 71bd
00000280: 3cdd b23e c19c 24bd bd1c e83c 7a41 b73e
00000290: 5eb7 813e e826 393f c6cd 913d f2dc 79be
000002a0: 4cd1 b6bd 1bf6 d03e b05c 013c 8029 303f
000002b0: ece1 533d 7329 67be 09cd 47be 0eb9 13bd
000002c0: f4a4 0ebe 10c9 013f 8cab 75be 032d 43be
000002d0: af68 dfbd ebcd 103f c579 abbe 8ea5 25be
000002e0: 6eb1 683f 394b aebe 894a a73e d63e adbe
000002f0: 500d 2abe 96ba 043f 6697 b2bc 4ba4 10bd
00000300: 9cc3 acbd 9f71 f9bd c60d 7bbd 9e4d 0fbe
00000310: 2f72 47be 7fa1 99bb 6fae d5bd de8c 00bd
00000320: 2ae5 29be 3aa4 39bd 9862 63bd 556a efbd
00000330: 4308 10be 3f27 76bd 45f4 c2be 65b2 89be
00000340: c1dc 17be 44ef f43c f7d4 35be 5a24 cabe
00000350: 5b61 e9bb 1a8f b5bd 5bb7 02be 5f4a dcbd
00000360: c5ce 0fbe 9300 c6bd 8e2a 82be c26b 7c3f
00000370: 8155 b83e 567f 7bbe da06 29bd 82f6 27be
00000380: cddd 46be 60a1 853c a64e 573c acdd b8bd
00000390: 4d59 a7bd 201c fcbd 7ce2 32be ff2f c73c
000003a0: f276 f1be 7026 19bd 0b8d f0bd 45a6 28bd
000003b0: f1fb 133d 2006 973e e5d6 37be 2cd0 0cbe
000003c0: 67b0 a9be 272f 77be 957b d1bc b451 993c
000003d0: fb6d 373e eaf0 01bc 8998 21be 0080 363f
000003e0: 1dd8 99bd 4e04 06be e7c1 143d 0302 09be
000003f0: 8e09 053d 2e03 b1bd 2e27 b5bd 4e6c d6bd

conv3.weight f4 [4, 6, 2, 2]
0.042734846 0.047595635 0.038441256 0.045405313 -0.16533688 -0.23393573 -0.0885176 -0.14265513
-0.14697738 -0.08878632 -0.40383947 -0.013013302 -0.08205894 -0.07103877 0.006795294 0.005133124
-0.049620215 -0.18181436 -0.10826265 -0.07056179 -0.26295403 -0.111362465 -0.16037071 -0.09649594
-0.33803928 -0.35720244 -0.75162244 -0.77450085 -0.27928877 -0.1432395 -0.12535311 -0.0346582
-0.03276907 0.0017497385 -0.07169859 -0.1532549 0.1290816 0.12632762 0.12571126 0.12523669
-0.30394137 -0.10660091 -0.13435318 -0.29702884 -0.02265432 -0.019857323 -0.01177018 -0.10186215
-0.31975168 -0.36316946 -0.7093623 -0.81766856 -0.33290726 -0.06578559 -0.023254229 -0.21157305
-0.021956526 0.0009580431 -0.004181346 -0.09407534 0.12357454 0.12449903 0.124892056 0.12588863
-0.31735936 -0.3416408 -0.07105966 -0.00067823875 -0.012021687 -0.014701323 -0.031207342 -0.20687768
-0.6646542 -0.546597 -0.49017024 -0.50495124 -0.029528854 -0.052114435 -0.045627575 -0.11322119
-0.00833939 -0.0030385149 -0.058927547 -0.119378276 0.16334574 0.1485137 0.14173605 0.13418743
-0.22304232 -0.02111653 -0.028600955 -0.02568202 -0.021302413 -0.16123195 -0.014871182 -0.012053349
00000000: bc0a 2f3d a4f3 423d 9474 1d3d ecfa 393d
00000010: 124e 29be d98c 6fbe b748 b5bd 3014 12be
00000020: 3d81 16be 9ad5 b5bd 0cc4 cebe bf35 55bc
00000030: 840e a8bd c67c 91bd 0fab de3b c433 a83b
00000040: 913e 4bbd 8b2d 3abe cfb8 ddbd b382 90bd
00000050: e9a1 86be 0112 e4bd 3838 24be aa9f c5bd
00000060: 7c13 adbe 3de3 b6be 546a 40bf b045 46bf
00000070: f0fe 8ebe 60ad 12be 915c 00be c2f5 0dbd
00000080: dc38 06bd 7b57 e53a b6d6 92bd daee 1cbe
00000090: f82d 043e 075c 013e 74ba 003e 0c3e 003e
000000a0: 349e 9bbe 9451 dabd e193 09be 2a14 98be
000000b0: 8d95 b9bc d3ab a2bc b7d7 40bc 1a9d d0bd
000000c0: 7eb6 a3be 59f1 b9be c598 35bf ba52 51bf
000000d0: d272 aabe 98ba 86bd a77f bebc 9ba6 58be
000000e0: 2cde b3bc 2f25 7b3a ac03 89bb 92aa c0bd
000000f0: a614 fd3d 59f9 fe3d 68c7 ff3d f3e8 003e
00000100: ed7c a2be 8beb aebe ba87 91bd d5cb 31ba
00000110: 9cf6 44bc d1dd 70bc 8aa6 ffbc bed7 53be
00000120: c726 2abf c8ed 0bbf 98f7 fabe 7c44 01bf
00000130: 7fe6 f1bc f275 55bd fbe3 3abd 83e0 e7bd
00000140: f0a1 08bc d221 47bb 035e 71bd 997c f4bd
00000150: 1b44 273e fa13 183e 4123 113e 6e68 093e
00000160: 3565 64be 93fc acbc 8d4c eabc 1963 d2bc
00000170: 6682 aebc fd19 25be 42a6 73bc 697b 45bc

conv3.bias f4 [6]
0.63066834 -0.04337092 -0.3745002 -0.1734116 -0.041468218 -0.0014599616
00000000: 7b73 213f b5a5 31bd 7dbe bfbe cf92 31be
00000010: 94da 29bd 2f5c bfba
